saved/simple_NAISnet_ReLU/model_best.pth (torch, 809333 bytes, 15 tensors)

Y_net.hidden_layers.0.weight f4 [256, 2]
-0.6692497 -0.40489504 0.45243135 0.32416433 0.1940951 0.27018392 -0.098336816 -0.03273811
-0.5839441 0.0091917515 -0.21984944 0.4914402 0.59261227 -0.4810201 -0.22544998 -0.2583183
-0.28347164 0.555145 0.70507115 0.597026 0.12793507 -0.5803276 -0.35030788 0.58248454
-0.39465475 -0.56274354 -0.642319 0.627376 -0.6869913 0.4431696 0.03132772 -0.5538466
0.05044016 -0.06660867 0.19838798 -0.2269451 -0.48035198 0.66024643 0.2393084 0.25646955
-0.49499995 0.0056685293 -0.40491405 0.51613736 0.4316354 -0.21803454 -0.35308647 0.14340311
0.36029452 -0.0038627957 0.74425143 -0.003808683 -0.43615875 0.47959813 -0.28454483 -0.6014563
-0.021023344 -0.37060925 -0.035756312 0.6944486 0.257172 -0.49059695 0.04996544 -0.0906502
0.13953045 0.03632595 0.2806935 -0.62863857 -0.33718175 -0.18985103 0.50135595 0.20102885
-0.7061091 -0.50537825 -0.55975145 0.20922413 -0.6573879 0.603102 0.63994735 -0.11911661
-0.091436684 0.14539264 0.12959675 0.44573194 0.6065713 -0.6050497 0.24039525 -0.22566742
-0.06267185 -0.6719702 0.6885781 -0.16593876 -0.67569566 0.4891434 0.37831104 0.49017638
-0.26718307 -0.3663906 -0.09426236 -0.016735137 -0.08186769 0.60718954 -0.70302767 -0.36331663
-0.03759928 -0.60152197 -0.08319909 -0.29949397 0.69837976 0.38361764 0.33860564 0.44810265
-0.25142956 -0.25360218 0.671709 -0.4023474 0.4755076 0.3136464 0.6932937 -0.5389736
0.5498686 -0.42452312 -0.7122385 -0.40679252 -0.4135643 -0.39958945 -0.34687126 -0.08621073
-0.18984556 -0.6661612 -0.61076546 0.44846693 -0.2950156 0.31133732 -0.7792121 0.49391186
-0.082498506 0.6170709 -0.6047883 0.47819167 -0.58635217 -0.06904027 0.31880552 -0.35483128
0.48933223 0.35736194 0.08684512 -0.06954443 0.3210065 -0.59840876 -0.67960554 -0.35558045
-0.6128267 -0.5428894 0.051753446 0.6010409 0.41627854 -0.3462953 -0.6253262 0.3803532
-0.7056986 -0.44945702 -0.76317537 -0.35793 0.04652094 -0.23735547 0.35344523 0.057859004
0.1364777 -0.33261532 -0.11092839 0.15387385 -0.10007163 0.07552394 0.5522197 -0.29019618
-0.17261313 -0.3581302 -0.018007483 0.28748968 -0.65706336 0.45321327 -0.12412086 -0.023518786
0.49893132 0.3800233 0.5593545 -0.30034012 -0.0625524 -0.4923701 -0.22472385 0.2939507
-0.68245035 0.62851584 -0.16143595 0.41523036 -0.5268128 -0.3552637 0.22554688 0.55303204
-0.24531619 0.34398377 0.29928428 0.3522306 -0.6808311 -0.25734183 0.038965292 0.36581776
-0.61454195 -0.26011416 -0.7555261 0.3894007 0.39519715 -0.50500834 0.17083465 0.59354013
0.058651917 -0.49955174 0.6512375 0.57433325 -0.17888717 -0.32312194 0.30868614 -0.03141607
0.6299582 -0.097975865 -0.18034957 -0.435418 -0.081048004 -0.59068805 -0.56059706 -0.12834717
-0.08056756 0.28753033 0.44535467 -0.16882426 -0.4027407 -0.60614836 0.39473832 0.14824866
-0.576364 0.09099456 -0.75598496 -0.4357922 -0.18564914 0.49428052 -0.112793244 -0.05315608
0.36372128 0.3518241 -0.72836024 -0.4393281 -0.73008585 -0.34205148 0.579039 0.4390071
00000000: f353 2bbf 674e cfbe 15a5 e73e def8 a53e
00000010: dec0 463e 8c55 8a3e d064 c9bd 6518 06bd
00000020: 5c7d 15bf 0099 163c 3620 61be 0d9e fb3e
00000030: 70b5 173f 4448 f6be 5cdc 66be 4c42 84be
00000040: 3223 91be fc1d 0e3f 8b7f 343f b2d6 183f
00000050: 6901 033e 5990 14bf 8e5b b3be b51d 153f
00000060: 3010 cabe f60f 10bf 056f 24bf b79b 203f
00000070: a9de 2fbf 20e7 e23e 7f51 003d e4c8 0dbf
00000080: 579a 4e3d 206a 88bd 3826 4b3e 4c64 68be
00000090: b2f0 f5be e905 293f 430d 753e fa4f 833e
000000a0: a270 fdbe 12bf b93b e550 cfbe 9421 043f
000000b0: 51ff dc3e 7244 5fbe c0c7 b4be 44d8 123e
000000c0: 8678 b83e f526 7dbb 4387 3e3f 199b 79bb
000000d0: 3350 dfbe e38d f53e dcaf 91be 0af9 19bf
000000e0: 2639 acbc 7fc0 bdbe 3675 12bd 62c7 313f
000000f0: 0cac 833e 862f fbbe 90a8 4c3d d0a6 b9bd
00000100: 12e1 0e3e 85ca 143d 0fb7 8f3e 75ee 20bf
00000110: 16a3 acbe 4f68 42be dd58 003f 82da 4d3e
00000120: 91c3 34bf 7860 01bf df4b 0fbf da3e 563e
00000130: 934a 28bf e564 1a3f 97d3 233f 69f3 f3bd
00000140: 2843 bbbd cfe1 143e 03b5 043e fa36 e43e
00000150: 4248 1b3f 8ae4 1abf 2c2a 763e 5c15 67be
00000160: 195a 80bd 3d06 2cbf a846 303f daeb 29be
00000170: 64fa 2cbf 0171 fa3e fcb1 c13e 66f8 fa3e
00000180: 38cc 88be 8c97 bbbe a00c c1bd 2018 89bc
00000190: 3faa a7bd c670 1b3f 9ff9 33bf a304 babe
000001a0: b401 1abd 58fd 19bf 4964 aabd 4657 99be
000001b0: 04c9 323f 8869 c43e b85d ad3e b66d e53e
000001c0: 60bb 80be 25d8 81be 1ff5 2b3f 7a00 cebe
000001d0: bb75 f33e 4396 a03e b27b 313f 2dfa 09bf
000001e0: 30c4 0c3f 185b d9be 4355 36bf 1c47 d0be
000001f0: b3be d3be fd96 ccbe 1c99 b1be 408f b0bd
00000200: e066 42be 8a89 2abf 205b 1cbf 759d e53e
00000210: 490c 97be 9b67 9f3e 727a 47bf 04e2 fc3e
00000220: faf4 a8bd 5cf8 1d3f 68d3 1abf 8ad5 f43e
00000230: 2d1b 16bf fc64 8dbd 7a3a a33e 72ac b5be
00000240: c189 fa3e 25f8 b63e dbdb b13d 4f6d 8ebd
00000250: f75a a43e 5131 19bf a1fa 2dbf a40e b6be
00000260: 36e2 1cbf cdfa 0abf 6cfb 533d d1dd 193f
00000270: 7622 d53e 9e4d b1be 6115 20bf a8bd c23e
00000280: aaa8 34bf 3b1f e6be 765f 43bf 9a42 b7be
00000290: be8c 3e3d 500d 73be c6f6 b43e 90fd 6c3d
000002a0: cfc0 0b3e 8e4c aabe 6c2e e3bd 1b91 1d3e
000002b0: 5bf2 ccbd 4cac 9a3d 455e 0d3f 9894 94be
000002c0: 7fc1 30be d75c b7be 6e84 93bc d931 933e
000002d0: 4e35 28bf 920b e83e 1433 febd 78aa c0bc
000002e0: ed73 ff3e 6a92 c23e db31 0f3f 2ec6 99be
000002f0: 791b 80bd ef17 fcbe 021e 66be b580 963e
00000300: 11b5 2ebf 6ae6 203f 774f 25be 1399 d43e
00000310: 34dd 06bf 20e5 b5be c3f5 663e 8293 0d3f
00000320: 2b34 7bbe a41e b03e ca3b 993e 9257 b43e
00000330: f24a 2ebf 4fc2 83be 129a 1f3d 774c bb3e
00000340: 9f52 1dbf af2d 85be 296a 41bf 875f c73e
00000350: 4857 ca3e 3a48 01bf 47ef 2e3e 3ff2 173f
00000360: fe3c 703d 3fc5 ffbe 80b7 263f 8107 133f
00000370: 332e 37be 3d70 a5be 1c0c 9e3e 23ae 00bd
00000380: f144 213f 92a7 c8bd 8fad 38be 1cef debe
00000390: 7ffc a5bd 5537 17bf 4a83 0fbf 716d 03be
000003a0: 9b00 a5bd 2d37 933e 8705 e43e 44e0 2cbe
000003b0: 0734 cebe 8a2c 1bbf 241b ca3e 7fce 173e
000003c0: 978c 13bf 5b5b ba3d 3b88 41bf 2820 dfbe
000003d0: cf1a 3ebe 5612 fd3e 2500 e7bd 31ba 59bd
000003e0: ad39 ba3e 4a22 b43e d175 3abf 9def e0be
000003f0: e8e6 3abf 5f21 afbe e63b 143f 8ac5 e03e

Y_net.hidden_layers.0.bias f4 [256]
0.4735264 -0.21067111 0.3994169 0.16409567 -0.64896333 -0.04787185 -0.74309003 -0.21025889
0.032563925 0.0062149945 0.12474801 -0.3826603 -0.5264913 0.1928505 0.1971953 0.6129612
-0.47772726 -0.1450807 -0.58209753 -0.119612865 0.52103573 0.7010313 -0.8529987 0.14261247
-0.10673542 -0.27902457 -0.4818328 -0.57045823 0.3023855 0.0065686833 0.533064 -0.6251697
0.3475766 -0.6138416 0.33147174 -0.43986845 -0.17722695 0.49015746 -0.58507246 0.50767946
0.6101693 -0.740503 -0.6636644 0.40068513 0.3576906 0.50807095 -0.6374141 0.1814373
0.59550256 -0.15848857 0.15060945 -0.06077458 0.66700685 0.54833496 -0.52887994 0.39513204
0.5100945 0.52856976 -0.037879366 0.5730874 -0.040546052 0.2940076 -0.085051395 -0.6404025
-0.22083361 0.44689575 0.34858814 0.25649443 -0.18529637 -0.8091131 0.49518895 0.15921067
0.49278364 0.59318227 -0.032062754 0.57058036 -0.9377722 -0.3273973 0.3421293 -0.31187284
-0.7390573 0.54573476 -0.34803864 0.18787116 -0.55650276 0.00088622404 0.03795971 -0.043630026
0.5614477 -0.46879792 -0.6317662 0.23203756 -0.23661466 -0.28651452 0.60850674 0.13934228
0.6900428 0.42485914 -0.53294134 0.4338338 0.21534795 -0.24718486 0.17342623 -0.6527206
0.64817464 0.24318144 0.58002776 -0.042761646 -0.5280301 -0.731063 0.18280438 -0.5707047
0.07199857 -0.40442294 -0.49371526 0.72814965 -0.25295156 -0.43378028 -0.34413004 0.17261828
-0.496784 0.33684418 -0.61805016 0.3624342 0.14304172 -0.49652678 -0.10276835 -0.6810861
-0.6589963 0.25766608 0.1969879 -0.039711293 -0.5179515 -0.7382717 -0.5631865 0.3125783
0.020026289 -0.45313185 0.4988518 0.17459534 0.20862353 0.26754728 -0.09556319 0.029985499
0.40684557 -0.09422845 -0.10856799 -0.638855 0.20841071 -0.871867 0.21776043 0.60157293
0.124825284 -0.7511283 -0.10596244 0.6110737 -0.5043768 -0.54866034 -0.5572379 0.47671917
0.07062531 -0.33752134 0.6431798 0.24218799 0.06889282 0.2340211 0.231426 0.40582347
-0.59864026 0.5023358 0.22735243 0.3967739 0.27654305 -0.20389691 -0.09869932 -0.14916053
0.3826718 0.32339695 -0.1421607 0.2499574 0.22775364 -0.6018993 -0.023408305 -0.2232455
0.31432426 -0.87114036 -0.654856 0.40109897 0.35225707 0.02814092 -0.18989752 -0.7410676
-0.2683254 -0.68091697 0.5310681 0.2396188 -0.89148724 0.24124484 0.034174573 0.28707677
-0.5306883 0.058069397 -0.56934184 0.07643103 -0.7628023 0.2134062 0.71325046 -0.55502045
-0.21946178 -0.34939006 0.23471573 -0.021032298 -0.6188264 -0.065410174 0.49275827 0.27536833
-0.07359377 0.35013944 -0.32128087 0.015205523 0.6042239 0.09628234 -0.24012749 -0.36075574
0.4223183 0.70240784 -0.67409396 0.39505324 -0.6274156 -0.9403235 0.5592294 0.45741364
-0.027068377 0.70502025 0.23263262 0.25702146 0.115355864 -0.42842916 -0.18817383 -0.20773955
-0.3780512 -0.6239179 0.5339723 -0.8734327 0.23143947 -0.53019315 -0.42155057 -0.69010866
-0.24999668 -0.018513087 -0.62199503 0.18897374 0.19654463 -0.6703215 -0.6432607 -0.27930167
00000000: 0d72 f23e 2bba 57be 5f80 cc3e b208 283e
00000010: 7622 26bf 4615 44bd 263b 3ebf 1b4e 57be
00000020: c061 053d 27a7 cb3b e27b ff3d 0dec c3be
00000030: 22c8 06bf 9a7a 453e 91ed 493e 06eb 1c3f
00000040: ab98 f4be 0990 14be 5804 15bf 97f7 f4bd
00000050: 9962 053f ca76 333f 1f5e 5abf 0109 123e
00000060: 1a98 dabd 4fdc 8ebe cab2 f6be 8d09 12bf
00000070: 46d2 9a3e 1c3e d73b e276 083f 1f0b 20bf
00000080: 8ff5 b13e b924 1dbf aab6 a93e 7036 e1be
00000090: fb7a 35be ebf5 fa3e 4fc7 15bf 48f7 013f
000000a0: 0e34 1c3f 9b91 3dbf e9e5 29bf 9a26 cd3e
000000b0: 3923 b73e f010 023f 922d 23bf b3ca 393e
000000c0: db72 183f d44a 22be 5d39 1a3e c4ee 78bd
000000d0: f6c0 2a3f ae5f 0c3f ad64 07bf bf4e ca3e
000000e0: 8e95 023f 5950 073f 6527 1bbd dbb5 123f
000000f0: 9e13 26bd 2a88 963e 6d2f aebd 6bf1 23bf
00000100: 3522 62be 85cf e43e 257a b23e 3d53 833e
00000110: 55be 3dbe 0922 4fbf 6889 fd3e 1f08 233e
00000120: 234e fc3e cbda 173f 3c54 03bd 8e11 123f
00000130: d711 70bf 9ea0 a7be 922b af3e ccad 9fbe
00000140: dc32 3dbf 46b5 0b3f 1f32 b2be 4c61 403e
00000150: f776 0ebf 7d51 683a a47b 1b3d 66b5 32bd
00000160: 09bb 0f3f 4806 f0be 6ebb 21bf 419b 6d3e
00000170: 1d4b 72be 08b2 92be 19c7 1b3f beaf 0e3e
00000180: a5a6 303f 2387 d93e d86e 08bf 771f de3e
00000190: 2c84 5c3e 071e 7dbe a596 313e b218 27bf
000001a0: c6ee 253f 8e04 793e b37c 143f d626 2fbd
000001b0: fb2c 07bf f226 3bbf 1231 3b3e b419 12bf
000001c0: fc73 933d 8610 cfbe 3fc8 fcbe 0468 3a3f
000001d0: de82 81be 7318 debe d031 b0be d9c2 303e
000001e0: 795a febe d776 ac3e 8938 1ebf fa90 b93e
000001f0: 8779 123e c238 febe 3678 d2bd a95b 2ebf
00000200: fbb3 28bf cfec 833e 32b7 493e 4fa8 22bd
00000210: 7898 04bf 60ff 3cbf fe2c 10bf 430a a03e
00000220: 2c0e a43c e600 e8be 8169 ff3e 1fc9 323e
00000230: 68a1 553e f5fb 883e a2b6 c3bd 26a4 f53c
00000240: 104e d03e d8fa c0bd e558 debd 008c 23bf
00000250: 9e69 553e ad32 5fbf 97fc 5e3e af00 1a3f
00000260: 66a4 ff3d f249 40bf d602 d9bd 536f 1c3f
00000270: d71e 01bf 0175 0cbf 25a7 0ebf 8914 f43e
00000280: 01a4 903d 99cf acbe 6ea7 243f 2100 783e
00000290: ae17 8d3d 3aa3 6f3e f0fa 6c3e 18c8 cf3e
000002a0: 7d40 19bf 1499 003f 13cf 683e f325 cb3e
000002b0: 0d97 8d3e 5aca 50be de22 cabd 8abd 18be
000002c0: 8fed c33e 4994 a53e 9392 11be d5f4 7f3e
000002d0: 4038 693e 1316 1abf c6c2 bfbc 789a 64be
000002e0: 1cef a03e 0e03 5fbf a5a4 27bf d85c cd3e
000002f0: 0a5b b43e c987 e63c 7f74 42be 9bb6 3dbf
00000300: f261 89be 9350 2ebf 14f4 073f a15e 753e
00000310: 8238 64bf e308 773e a3fa 0b3d bafb 923e
00000320: 30db 07bf 2dda 6d3d 63c0 11bf df87 9c3d
00000330: 0347 43bf 2887 5a3e 9597 363f d215 0ebf
00000340: 97ba 60be 41e3 b2be 5259 703e ed4b acbc
00000350: 686b 1ebf c5f5 85bd d04a fc3e 14fd 8c3e
00000360: 55b8 96bd 7a45 b33e ed7e a4be 9620 793c
00000370: 6bae 1a3f ad2f c53d fbe3 75be fab4 b8be
00000380: 1b3a d83e 00d1 333f 6c91 2cbf 6b44 ca3e
00000390: 4f9e 20bf 0ab9 70bf a829 0f3f 1f32 ea3e
000003a0: 80be ddbc 357c 343f 3f37 6e3e 5198 833e
000003b0: b23f ec3d 115b dbbe a4b0 40be adb9 54be
000003c0: ed8f c1be 15b9 1fbf 69b2 083f 4999 5fbf
000003d0: 78fe 6c3e bdba 07bf 7ad5 d7be f6aa 30bf
000003e0: 21ff 7fbe c2a8 97bc 113b 1fbf 5582 413e
000003f0: ff42 493e 319a 2bbf bcac 24bf a100 8fbe

Y_net.hidden_layers.1.weight f4 [256, 256]
0.07150268 0.0018852181 -0.054454837 0.0059854845 0.107579544 0.023910388 -0.063500285 -0.038485244
-0.06832211 -0.09267743 0.030301344 0.0132046435 -0.08776341 -0.04087265 0.07085488 0.047576286
0.0072967415 0.04497405 0.10162766 -0.06465005 0.086775705 0.11910693 -0.1586629 0.05688517
0.114391774 0.05137299 -0.08805134 0.049268015 0.033206683 -0.030082753 0.05638809 0.13649054
-0.020035906 0.045688685 -0.010889369 -0.009241193 0.038595855 -0.039363787 -0.06439649 0.040781986
0.02742945 -0.009032732 0.06400655 0.061247293 -0.013484224 0.012782875 0.073155 -0.034069233
-0.01382781 -0.018477418 -0.06429113 -0.0374271 0.018738013 0.036285523 0.008641472 -0.0005047851
0.021238953 -0.060546964 -0.08497783 0.0011703578 0.076019295 -0.06444825 0.0124738 0.015069423
-0.06170588 0.15562122 -0.04069372 -0.054898832 0.0119834775 0.006947003 -0.09204903 0.051868923
-0.11573155 0.0874408 -0.010151139 -0.054938957 -0.09774441 -0.039025187 -0.007434815 -0.039090976
-0.09121699 0.14818282 -0.050841674 -0.06935001 -0.035346888 0.008946753 0.08182241 -0.01289712
0.058861505 -0.026749387 -0.1247937 0.062311996 -0.001464626 -0.054524973 0.049460698 0.10682261
0.049091727 -0.0015383639 -0.054809712 0.013102211 -0.072598435 0.07455744 0.00914337 0.042144872
-0.0035339012 -0.019668289 -0.042684443 -0.10261824 0.034855895 0.013565588 0.013649681 0.008305505
-0.000943857 0.062648326 -0.051358096 0.037066728 0.06131471 -0.04996515 -0.06139584 -0.17472772
-0.06797556 0.0016365715 0.07110926 0.05260845 -0.0026244414 -0.1509643 -0.0278087 -0.12919292
-0.018947745 -0.005917772 0.039181873 0.07043614 -0.0067889714 -0.034321163 -0.044337485 -0.035061307
0.0523431 0.03309458 0.004839254 0.011324835 0.07839997 0.018878628 -0.08436667 -0.054252367
-0.035526603 0.08074938 -0.046724178 -0.086057305 0.06840872 -0.1584038 0.03207132 0.01604853
-0.07405656 -0.042864118 0.028143048 0.060097888 -0.03185866 -0.017106194 -0.0632916 0.03488258
-0.05808985 0.0042353887 0.15585592 -0.09297424 -0.032687463 -0.09346567 -0.017197797 0.053786132
-0.032417625 -0.027240211 0.0010105086 -0.021682085 -0.04054273 -0.050825786 -0.017603043 -0.012960041
0.04728012 0.018022398 0.02371949 -0.042929783 -0.01019965 -0.007565499 0.066981114 0.040699236
-0.04397157 -0.17006871 -0.038895167 0.08672159 -0.033599958 -0.074175484 0.05577689 -0.13544065
-0.063830785 0.025767878 0.0884475 -0.037219953 -0.11760377 0.0004555393 0.08097707 0.007135005
-0.008024756 0.09636563 0.05077999 -0.0497455 0.0652101 0.027467173 0.29212967 -0.17591234
0.010114622 0.0083579095 0.032721233 0.05665073 -0.024700712 0.014184428 0.03833979 0.012160965
-0.042062428 0.19217946 0.28828084 0.016852561 0.024100384 -0.074855514 0.08826672 -0.02133917
0.031322207 -0.06084728 -0.044431888 0.051215228 -0.08635457 -0.04163315 -0.0021904062 0.0034180374
0.033321418 -0.017902488 0.056230776 0.0049392683 0.018916693 -0.041768804 -0.061376296 -0.046222527
0.009029328 -0.010236175 -0.007410287 -0.14522834 -0.072452046 -0.06477335 0.014146921 0.023084102
0.02997987 -0.0019860726 0.011425217 -0.01383258 0.017289706 -0.021988675 -0.05958824 0.070168264
00000000: ff6f 923d 6c19 f73a 090c 5fbd e221 c43b
00000010: aa52 dc3d b8df c33c 700c 82bd b4a2 1dbd
00000020: 76ec 8bbd aacd bdbd 863a f83c 4a58 583c
00000030: 4dbd b3bd 146a 27bd 5d1c 913d 5adf 423d
00000040: 8119 ef3b b636 383d 2a22 d03d 3f67 84bd
00000050: 76b7 b13d 56ee f33d 8778 22be 6d00 693d
00000060: 3c46 ea3d 7c6c 523d 4354 b4bd 42cd 493d
00000070: bb03 083d 1b70 f6bc 33f7 663d 2dc4 0b3e
00000080: 5722 a4bc 0f24 3b3d 5369 32bc 5f68 17bc
00000090: b016 1e3d ec3b 21bd 4fe2 83bd 030b 273d
000000a0: bab3 e03c 06fe 13bc de15 833d 71de 7a3d
000000b0: efec 5cbc 446f 513c 4ad2 953d 2e8c 0bbd
000000c0: 0a8e 62bc f45d 97bc 11ab 83bd 294d 19bd
000000d0: 7680 993c 21a0 143d f694 0d3c 8e53 04ba
000000e0: 50fd ad3c 1800 78bd db08 aebd b166 993a
000000f0: 01b0 9b3d 72fd 83bd e95e 4c3c bee5 763c
00000100: 4ebf 7cbd 2b5b 1f3e 75ae 26bd 99dd 60bd
00000110: 5956 443c afa3 e33b 3484 bcbd 8274 543d
00000120: aa04 edbd 2a14 b33d f750 26bc ac07 61bd
00000130: 392e c8bd e0d8 1fbd c09f f3bb dc1d 20bd
00000140: f9cf babd 3dbd 173e 5c3f 50bd 6107 8ebd
00000150: e6c7 10bd 6795 123c 8292 a73d 714e 53bc
00000160: c318 713d 8821 dbbc d793 ffbd dd3a 7f3d
00000170: b2f8 bfba 9455 5fbd 4d97 4a3d d0c5 da3d
00000180: 6814 493d eda2 c9ba 2680 60bd a8aa 563c
00000190: 7dae 94bd 92b1 983d 13ce 153c 1aa0 2c3d
000001a0: 0699 67bb 641f a1bc e2d5 2ebd 8329 d2bd
000001b0: 0ec5 0e3d 3342 5e3c e9a2 5f3c d013 083c
000001c0: 2c6d 77ba c44d 803d de5c 52bd 48d3 173d
000001d0: 2225 7b3d 42a8 4cbd 347a 7bbd d3eb 32be
000001e0: c536 8bbd 3a82 d63a bba1 913d f57b 573d
000001f0: d2fe 2bbb 6396 1abe 12cf e3bc 264b 04be
00000200: 4d38 9bbc dfe9 c1bb 2c7d 203d d340 903d
00000210: 0576 debb 5994 0cbd 399b 35bd 729c 0fbd
00000220: b865 563d 2f8e 073d 9b92 9e3b cd8b 393c
00000230: 2a90 a03d 5aa7 9a3c 6fc8 acbd bb37 5ebd
00000240: 5884 11bd ee5f a53d da61 3fbd d03e b0bd
00000250: df19 8c3d 9b34 22be 375d 033d 3578 833c
00000260: f7aa 97bd 4992 2fbd 408c e63c 3429 763d
00000270: 3a7e 02bd 4a22 8cbc 079f 81bd 09e1 0e3d
00000280: 9fef 6dbd 04c9 8a3b b298 1f3e 4769 bebd
00000290: 4ae3 05bd ee6a bfbd 65e2 8cbc d94e 5c3d
000002a0: 58c8 04bd dd26 dfbc 0b73 843a a19e b1bc
000002b0: 2210 26bd b32e 50bd 4234 90bc 5a56 54bc
000002c0: cda8 413d b5a3 933c 604f c23c 24d7 2fbd
000002d0: 6f1c 27bc 01e8 f7bb 652d 893d 3eb4 263d
000002e0: 881b 34bd 7e26 2ebe 8a50 1fbd 179b b13d
000002f0: 1ca0 09bd 51e9 97bd 4f76 643d f4b0 0abe
00000300: b7b9 82bd 2817 d33c f623 b53d f373 18bd
00000310: 3fda f0bd 73d5 ee39 4ed7 a53d c3cc e93b
00000320: 447a 03bc 585b c53d aefe 4f3d f0c1 4bbd
00000330: df8c 853d d602 e13c 0592 953e 5d22 34be
00000340: cdb7 253c 9def 083c b306 063d 990a 683d
00000350: 2659 cabc ce65 683c 2f0a 1d3d c93e 473c
00000360: a749 2cbd b1ca 443e 8c99 933e 620e 8a3c
00000370: 2b6e c53c d94d 99bd 2fc5 b43d 7ccf aebc
00000380: b74b 003d ff3a 79bd 36fe 35bd 0fc7 513d
00000390: aada b0bd 8687 2abd eb8c 0fbb 2701 603b
000003a0: 0a7c 083d 3da8 92bc 3e52 663d 96d9 a13b
000003b0: 2ef7 9a3c c415 2bbd b665 7bbd d553 3dbd
000003c0: bfef 133c a1b5 27bc fed1 f2bb bdb6 14be
000003d0: bd61 94bd e4a7 84bd 7dc8 673c df1a bd3c
000003e0: 5898 f53c c528 02bb d530 3b3c 0ca2 62bc
000003f0: 24a3 8d3c 9821 b4bc cc12 74bd 61b4 8f3d

Y_net.hidden_layers.1.bias f4 [256]
-0.015735134 -0.09101576 -0.011640047 -0.06231086 -0.12396474 -0.045048967 0.0011857242 -0.03375731
-0.07965086 -0.04291598 -0.0054179276 0.0021836772 -0.039225604 -0.023911616 -0.02210188 -0.031829618
-0.086217366 0.006156908 -0.33480474 -0.010793075 0.016509902 -0.18095562 -0.0058307024 -0.08139795
-0.06741314 -0.04990737 0.051836226 -0.007137673 -0.049071677 -0.068242684 -0.01913804 -0.05504568
-0.00759831 -0.008075581 0.033187576 -0.12666295 -0.034430597 0.00021637809 0.044128772 0.040984053
0.057622906 -0.014309301 -0.023910314 -0.026067803 0.03615434 -0.038808882 -0.3381987 -0.041260045
0.0015963325 -0.028921375 -0.020782443 0.005665223 -0.0127086835 0.046076763 0.006521893 -0.02160002
-0.07503039 -0.04153136 -0.023702767 0.03728647 -0.099401824 -0.039039984 -0.19523357 0.060772993
-0.009702466 -0.18331441 0.043297134 -0.017178226 -0.019298825 -0.021179343 -0.04501939 -0.20826206
-0.043042302 -0.11394171 -0.21941932 -0.035106022 0.027774563 -0.0029202672 -0.04754052 -0.044619918
0.0056465953 -0.06465901 0.059324335 0.03604997 -0.044287235 0.0057317256 -0.22470522 0.086203985
-0.06360177 0.07727433 -0.0078077386 -0.059073653 0.0015460657 -0.09296357 0.03911002 0.023512721
-0.02488048 -0.045755073 -0.017376876 -0.063307695 0.049413197 0.009438809 0.046295192 0.00050798536
0.04168761 0.052688595 0.04023248 -0.016568752 -0.012779469 -0.04935074 0.05299996 -0.04692833
-0.08355264 0.05510006 -0.056055836 -0.017934442 0.04710344 -0.07846835 -0.04344397 0.037452042
-0.039531495 0.0061829193 0.014009488 0.068507664 -0.036060568 -0.056048647 -0.053756353 0.008119434
0.005626491 -0.098842226 -0.04459714 -0.004953311 -0.014637383 0.04769831 -0.0019716558 -0.040622283
0.027434349 0.033381253 -0.06844587 -0.0021489584 -0.01365732 -0.10986062 -0.0016146289 -0.07138108
0.02497437 -0.046681967 0.024199994 -0.024947247 -0.038524132 -0.02343956 0.023525832 0.02200543
0.014984808 0.005695483 -0.044221286 -0.04178659 0.04362071 0.025954276 0.005735109 0.044200156
-0.03704005 -0.04885703 -0.0021084049 0.011834209 -0.020227494 -0.0035079059 0.06244494 -0.018578067
-0.0070718047 -0.018737134 -0.063309304 0.023628343 -0.058798313 -0.017490052 -0.029418185 -0.030950181
-0.040352684 -0.03363907 -0.037631873 -0.0002612456 0.017345259 0.024532197 0.014464811 0.02056762
-0.029984467 -0.106320694 -0.011876298 -0.27459738 -0.23799677 -0.03588917 0.033858076 -0.012465466
0.042869765 0.05419991 0.0077327443 -0.03847563 -0.05654252 -0.01926724 -0.021483008 -0.3887866
-0.1281051 -0.10885225 0.036369223 0.042957626 -0.02497212 -0.0041954005 -0.01667097 -0.024673047
0.052486762 -0.011647574 -0.0042463397 -0.07531544 -0.007876739 -0.04440399 -0.06516536 0.049995475
0.036719922 -0.30510506 -0.39653355 -0.052885015 -0.035755165 -0.02802817 -0.064160265 -0.06451487
-0.05333655 0.0029394005 -0.4642001 -0.039321627 -0.021370128 0.016305432 -0.15523003 -0.033590678
-0.35113218 -0.028464759 0.046077568 -0.08178378 -0.060909178 -0.01865535 -0.11311294 0.0219175
-0.031752434 -0.008650623 0.010114006 -0.09470794 -0.03322183 -0.013068138 0.00721271 0.014179593
-0.043295465 0.038213335 0.037433546 -0.23862764 0.004247112 0.0541898 -0.029338978 -0.04819501
00000000: f8e6 80bc 7966 babd e5b5 3ebc ac39 7fbd
00000010: 3ae1 fdbd 4485 38bd 4d6a 9b3a 1b45 0abd
00000020: fd1f a3bd abc8 2fbd df88 b1bb 061c 0f3b
00000030: 07ab 20bd 4be2 c3bc 000f b5bc c65f 02bd
00000040: bb92 b0bd e3bf c93b 876b abbe 70d5 30bc
00000050: c63f 873c 6e4c 39be 7a0f bfbb f8b3 a6bd
00000060: e60f 8abd ac6b 4cbd 3952 543d 24e3 e9bb
00000070: 62ff 48bd d2c2 8bbd 61c7 9cbc 9477 61bd
00000080: 3efb f8bb 714f 04bc b2ef 073d efb3 01be
00000090: 1907 0dbd 8de3 6239 5fc0 343d e5de 273d
000000a0: ff05 6c3d 8f71 6abc 90df c3bc 258c d5bc
000000b0: 9316 143d 10f6 1ebd 6128 adbe 4b00 29bd
000000c0: 083c d13a 85ec ecbc f13f aabc 56a3 b93b
000000d0: 1538 50bc fdba 3c3d 9bb5 d53b 86f2 b0bc
000000e0: 88a9 99bd ca1c 2abd 4e2c c2bc b3b9 183d
000000f0: 2f93 cbbd 64e8 1fbd 4feb 47be 1aed 783d
00000100: 18f7 1ebc c6b6 3bbe 5658 313d 5ab9 8cbc
00000110: 9218 9ebc 4d80 adbc 4066 38bd a642 55be
00000120: 204d 30bd 455a e9bd 75af 60be 55cb 0fbd
00000130: 7b87 e33c f461 3fbb d9b9 42bd 60c3 36bd
00000140: 1307 b93b f16b 84bd 13fe 723d 22a9 133d
00000150: 8866 35bd 33d1 bb3b 2019 66be b78b b03d
00000160: a541 82bd 0142 9e3d 0fd8 ffbb 37f7 71bd
00000170: 5ba5 ca3a af63 bebd d431 203d c09d c03c
00000180: 26d2 cbbc ac69 3bbd f359 8ebc 77a7 81bd
00000190: 7e65 4a3d 3ca5 1a3c 07a0 3d3d 522a 053a
000001a0: a1c0 2a3d ffcf 573d d0ca 243d 31bb 87bc
000001b0: fa60 51bc 0024 4abd 7c16 593d ec37 40bd
000001c0: a61d abbd 9ab0 613d ce9a 65bd 40eb 92bc
000001d0: 89ef 403d 04b4 a0bd 4ef2 31bd 5067 193d
000001e0: c7eb 21bd 169a ca3b 0d88 653c bf4d 8c3d
000001f0: 3fb4 13bd 4493 65bd 9f2f 5cbd 6007 053c
00000200: 6d5e b83b cb6d cabd 7eab 36bd 624f a2bb
00000210: a2d1 6fbc 4e5f 433d e536 01bb 8d63 26bd
00000220: 00be e03c c8ba 083d 592d 8cbd 8ad5 0cbb
00000230: f4c2 5fbc 9bfe e0bd f5a1 d3ba 3e30 92bd
00000240: 0d97 cc3c 9735 3fbd 113f c63c 2b5e ccbc
00000250: 7bcb 1dbd 5204 c0bc 3fb9 c03c bb44 b43c
00000260: d782 753c 2da1 ba3b 6121 35bd 6a28 2bbd
00000270: a1ab 323d 109e d43c 95ed bb3b 390b 353d
00000280: 4fb7 17bd 4f1e 48bd 2a2d 0abb 45e4 413c
00000290: 21b4 a5bc e5e4 65bb 44c6 7f3d 0831 98bc
000002a0: 99ba e7bb 9e7e 99bc 4fa8 81bd 3a90 c13c
000002b0: 80d6 70bd 4c47 8fbc 68fe f0bc 3c8b fdbc
000002c0: db48 25bd 1fc9 09bd e123 1abd caf7 88b9
000002d0: a517 8e3c bff7 c83c d1fd 6c3c 6d7d a83c
000002e0: fca1 f5bc aabe d9bd ce94 42bc 0798 8cbe
000002f0: 6db5 73be 8600 13bd c4ae 0a3d f43b 4cbc
00000300: 3598 2f3d ba00 5e3d f662 fd3b 9f98 1dbd
00000310: 2199 67bd 55d6 9dbc 22fd afbc 0a0f c7be
00000320: fc2d 03be eeed debd e5f7 143d 56f4 2f3d
00000330: 5592 ccbc 9279 89bb 8f91 88bc 211f cabc
00000340: 5cfc 563d 77d5 3ebc e124 8bbb fb3e 9abd
00000350: 700d 01bc f5e0 35bd 6b75 85bd 0ec8 4c3d
00000360: a167 163d bb36 9cbe 7206 cbbe f59d 58bd
00000370: 0274 12bd 559b e5bc 7566 83bd 5f20 84bd
00000380: 6d77 5abd f5a2 403b a3ab edbe b70f 21bd
00000390: 6810 afbc f892 853c 9ff4 1ebe 6196 09bd
000003a0: 99c7 b3be ed2e e9bc d5bb 3c3d 417e a7bd
000003b0: e77b 79bd 1bd3 98bc c2a7 e7bd 548c b33c
000003c0: d70e 02bd 58bb 0dbc 37b5 253c 3df6 c1bd
000003d0: 9d13 08bd be1b 56bc 9958 ec3b 8651 683c
000003e0: 9656 31bd 9685 1c3d eb53 193d ce5a 74be
000003f0: 5c2b 8b3b 20f6 5d3d 4c58 f0bc 2168 45bd

Y_net.hidden_layers.2.weight f4 [256, 256]
-0.022714633 -0.005242871 -0.06785956 0.042244148 0.053765375 -0.08812757 -0.020578077 -0.027385013
-0.0021854325 -0.040545687 -0.017327003 -0.04329602 0.004020539 -0.004702784 -0.0096315695 -0.004597429
-0.037876718 -0.063584164 0.0076728053 -0.01648598 -0.025621545 -0.0038788663 0.053380758 0.0036922917
0.053704243 -0.05804597 -0.04012649 0.008846318 0.024833107 -0.018357292 -0.04783752 0.03221139
-0.04521334 -0.083601914 0.030419784 -0.061007537 -0.008766029 -0.007931632 -0.022563122 0.05659238
-0.06666949 -0.02713423 -0.035954375 -0.034378763 -0.018531356 -0.045825884 -0.022660036 0.043358963
0.0113295 0.0262716 0.055096168 -0.07076856 0.01353478 -0.060309917 -0.018660111 -0.04370308
-0.03588308 -0.00556491 0.03132441 -0.022357607 0.038359668 -0.040266145 -0.031790763 0.015274028
-0.048544187 -0.044399526 -0.03707338 0.018823212 0.033695113 0.008080391 -0.019728377 0.079396814
-0.07981301 -0.06272209 -0.01561424 0.004015083 -0.07899757 0.019697502 0.011833486 0.037081614
-0.0077965935 -0.08381778 -0.06594114 -0.083936274 0.010183369 -0.06868831 -0.032433204 -0.010941963
-0.010296703 -0.020585116 -0.044026237 0.003600482 0.055017635 0.04708066 0.022374954 0.009621616
0.053124525 0.040186536 0.016983895 0.063331835 0.025542093 -0.021186631 -0.013531928 0.022816824
-0.05024295 0.0048007476 0.042394023 -0.029526459 0.0384121 0.04620923 0.048213992 0.05863787
-0.027541555 0.023801647 -0.021744112 -0.0210013 -0.007674243 0.04461868 0.0041222125 -0.07320738
-0.048527896 0.0003433222 0.017180678 -0.06999773 0.077046715 -0.11443775 0.05172347 0.009548295
-0.07184622 -0.012984726 -0.011508397 0.027964747 0.030517837 -0.023606148 0.07321963 -0.011728666
0.022303548 0.020951528 -0.024327846 -0.085162334 -0.053068753 0.016315121 -0.063177146 0.013892655
0.03397139 0.06408111 0.011793399 0.0071015223 -0.008145625 0.04600796 -0.02119269 -0.0063902843
0.026473673 0.07590563 -0.06724376 -0.051026966 0.028779082 -0.0017955811 0.003672233 -0.057340547
-0.031714242 -0.005421789 0.044433728 -0.0022769992 -0.018480834 -0.044184674 0.050891288 -0.042283863
-0.07050947 -0.022547139 -0.037840877 0.054010432 -0.053998884 -0.08032838 0.007969639 -0.071123086
0.041119464 0.04955526 0.029990856 0.012864459 -0.005654903 -0.060879342 0.051388424 0.007969814
-0.038746364 -0.043988027 -0.043282073 -0.051834635 -0.0031306061 -0.044806436 -0.043720398 -0.066360325
0.03648222 0.034923878 -0.05974021 0.0006218613 -0.012977614 -0.026450466 0.01595025 -0.07224415
-0.03297546 0.04096228 0.018378703 0.036669802 -0.004002318 -0.045903623 -0.018886955 0.0402773
0.028620703 -0.025406308 0.01080081 -0.022377774 0.0038725187 0.057417322 -0.06387196 -0.04157568
0.0139555745 -0.07540447 -0.041849714 0.030028312 0.051697124 -0.07091138 -0.03446718 0.06493632
0.077479385 0.009383449 -0.0637625 -0.057308342 -0.028327124 0.022258988 -0.037691556 0.049810477
-0.07417698 -0.044800695 0.05072426 -0.03634992 -0.029845012 -0.011979288 -0.04593073 0.00038412499
0.032410443 -0.050332244 0.05748179 -0.008777285 0.10066971 -0.04712802 -0.019410709 -0.045988295
0.06278498 0.013920725 -0.007577633 -0.036187153 0.005076041 -0.035513114 0.046071697 -0.039573062
00000000: 0a14 babc 64cc abbb f4f9 8abd 3308 2d3d
00000010: 1539 5c3d 3a7c b4bd 5b93 a8bc 8956 e0bc
00000020: 7939 0fbb 3c13 26bd 5cf1 8dbc 2b57 31bd
00000030: babe 833b d019 9abb bbcd 1dbc 08a6 96bb
00000040: 9e24 1bbd 6a38 82bd 286c fb3b 9b0d 87bc
00000050: 46e4 d1bc 9434 7ebb c8a5 5a3d 60fa 713b
00000060: fbf8 5b3d 9cc1 6dbd ad5b 24bd 26f0 103c
00000070: cd6e cb3c 0862 96bc 46f1 43bd 17f0 033d
00000080: a031 39bd 7b37 abbd e932 f93c 0ae3 79bd
00000090: 649f 0fbc adf3 01bc 4cd6 b8bc 69cd 673d
000000a0: 038a 88bd 9b48 debc e544 13bd bfd0 0cbd
000000b0: 12cf 97bc ecb3 3bbd 8aa1 b9bc 2b99 313d
000000c0: 5e9f 393c 8a37 d73c 85ac 613d 1bef 90bd
000000d0: fbc0 5d3c 8807 77bd 17dd 98bc 0002 33bd
000000e0: 23fa 12bd d959 b6bb 064e 003d 4d27 b7bc
000000f0: 071f 1d3d 1dee 24bd 0837 02bd eb3f 7a3c
00000100: 45d6 46bd 47dc 35bd 42da 17bd 2333 9a3c
00000110: e303 0a3d 9e63 043c 689d a1bc cc9a a23d
00000120: 0175 a3bd 7074 80bd dfd2 7fbc f590 833b
00000130: 7ac9 a1bd a85c a13c 3de1 413c e4e2 173d
00000140: 917a ffbb a8a8 abbd 260c 87bd c8e6 abbd
00000150: 25d8 263c 75ac 8cbd aed8 04bd eb45 33bc
00000160: 81b3 28bc 1ea2 a8bc db54 34bd 10f6 6b3b
00000170: 2c5a 613d a6d7 403d ae4b b73c fca3 1d3c
00000180: 1a99 593d a39a 243d cf21 8b3c 1fb4 813d
00000190: a73d d13c 968f adbc 05b5 5dbc 59ea ba3c
000001a0: 8dcb 4dbd 974f 9d3b 5ba5 2d3d 79e1 f1bc
000001b0: 0256 1d3d e445 3d3d 097c 453d 432e 703d
000001c0: d49e e1bc acfb c23c b520 b2bc eb0a acbc
000001d0: 3778 fbbb 14c2 363d a013 873b c0ed 95bd
000001e0: 30c5 46bd edff b339 7ebe 8c3c f85a 8fbd
000001f0: abca 9d3d 575e eabd fddb 533d 7470 1c3c
00000200: 1c24 93bd e3bd 54bc b78d 3cbc 5316 e53c
00000210: 8b00 fa3c ae61 c1bc 2cf4 953d 9729 40bc
00000220: eeb5 b63c 8aa2 ab3c 314b c7bc 9769 aebd
00000230: 9f5e 59bd 4aa7 853c 0563 81bd 059e 633c
00000240: 9625 0b3d f53c 833d 1a39 413c e3b3 e83b
00000250: 3a75 05bc d872 3c3d 4b9c adbc 9765 d1bb
00000260: 51df d83c 6974 9b3d 19b7 89bd a701 51bd
00000270: 1cc2 eb3c b459 ebba d9a9 703b ecdd 6abd
00000280: cbe6 01bd 43a9 b1bb 2400 363d b539 15bb
00000290: 1e65 97bc fdfa 34bd 6273 503d d831 2dbd
000002a0: 4567 90bd c7b4 b8bc 09ff 1abd 0b3a 5d3d
000002b0: ef2d 5dbd 3583 a4bd 1793 023c fba8 91bd
000002c0: e26c 283d 75fa 4a3d 62af f53c 74c5 523c
000002d0: c44c b9bb 9e5c 79bd ab7c 523d d393 023c
000002e0: 82b4 1ebd ca2c 34bd 8b48 31bd 8e50 54bd
000002f0: db2a 4dbb f486 37bd 2914 33bd ece7 87bd
00000300: 616e 153d 570c 0f3d 27b2 74bd 6804 233a
00000310: 0fa0 54bc a6ae d8bc 19aa 823c bef4 93bd
00000320: 4711 07bd 10c8 273d ef8e 963c 1333 163d
00000330: e025 83bb 7005 3cbd d1b8 9abc cff9 243d
00000340: f775 ea3c e420 d0bc e1f5 303c 9851 b7bc
00000350: 15ca 7d3b 6d2e 6b3d 4dcf 82bd 434b 2abd
00000360: eca5 643c a96d 9abd 9b6a 2bbd effd f53c
00000370: 5dc0 533d fc39 91bd 752d 0dbd 55fd 843d
00000380: 83ad 9e3d 0abd 193c ea95 82bd 27bc 6abd
00000390: 490e e8bc 7b58 b63c 7662 1abd 1206 4c3d
000003a0: 1aea 97bd ef80 37bd 3ec4 4f3d a7e3 14bd
000003b0: 877d f4bc c744 44bc dc21 3cbd 6264 c939
000003c0: d0c0 043d 2f29 4ebd 0772 6b3d 9ace 0fbc
000003d0: ec2b ce3d 5009 41bd 3503 9fbc 395e 3cbd
000003e0: 6995 803d c113 643c cb4d f8bb fb38 14bd
000003f0: eb54 a63b 3376 11bd adb5 3c3d 5d17 22bd

Y_net.hidden_layers.2.bias f4 [256]
-0.043410957 -0.061448723 -0.047867533 -0.044453304 -0.020385757 -0.074957 -0.027354494 -0.13181223
0.0006192916 0.039677925 -0.05762915 0.03932349 -0.123377375 -0.02002568 -0.0041579404 0.01984221
-0.017894238 -0.057130452 -0.0147514595 -0.019832762 0.017713241 -0.020843524 0.01770469 0.10710986
-0.054655742 -0.31827268 -0.088387154 0.07089368 -0.021303158 -0.057845615 0.038418964 0.023899242
-0.031951856 0.017925711 0.04802937 0.037444882 -0.10503639 -0.038050212 -0.056284398 0.03914035
-0.046324696 -0.0023964795 -0.043702807 -0.005797365 -0.09589549 -0.05693839 -0.03086995 -0.015996257
-0.028876893 -0.024451312 -0.004663788 0.05027928 -0.039085887 0.036375582 -0.15838255 0.0062383083
-0.16499235 0.085899636 -0.09418213 -0.022940658 0.005589335 -0.05475871 0.027047897 -0.012983697
-0.028184593 0.07152908 0.020163229 -0.07718091 -0.11326838 -0.038608346 0.045867033 -0.04708923
-0.10882465 -0.059148744 -0.0243738 -0.03134748 -0.055507563 -0.06361943 -0.053046588 0.01085945
-0.103012525 0.006892897 0.051806573 -0.059561323 -0.07087091 0.042170208 -0.1650469 -0.006212257
0.014253953 -0.0124683585 -0.04990433 -0.056118052 -0.013266708 0.048167937 -0.003676163 -0.0050500473
0.016106008 -0.017758828 -0.03869379 0.037326023 -0.046550207 0.052851263 0.017494023 -0.021666247
-0.06883076 0.014377941 -0.02316121 -0.0021270367 0.037455104 0.03751543 -0.007943726 -0.058149327
-0.015847238 0.013966293 0.020402856 -0.18279396 -0.06050499 -0.022289366 -0.029910559 -0.08245262
0.0050951326 -0.013180032 0.03044622 0.06400589 0.05313632 0.0049539944 0.028756483 -0.0007331541
-0.2059148 -0.017522672 -0.06110927 -0.26925817 -0.045481674 -0.0049093002 0.028205963 -0.06634693
-0.026933562 0.011317418 0.029643904 -0.06649121 -0.028212575 -0.12772429 -0.011100494 -0.033294052
0.017607188 -0.029795878 -0.13896124 -0.05380135 -0.05616978 -0.030683726 -0.020472184 -0.045578994
-0.01091871 -0.052360207 -0.07693363 -0.030014502 0.0060539045 0.04486145 0.03360676 -0.13463537
-0.0069413884 0.006716188 -0.049389984 -0.07636192 -0.103395574 -0.048617244 0.045064043 -0.010597063
-0.06503977 -0.008941217 0.04198734 0.028020091 -0.092089586 -0.032895327 -0.102153346 -0.065115586
-0.05959689 0.06261973 -0.028482411 0.031108042 -0.044857282 -0.19467154 0.014082318 0.008607788
-0.06199666 -0.045970906 -0.009193294 -0.059569914 -0.058201287 -0.010743723 -0.04794454 -0.0050073355
-0.1172956 -0.08722003 -0.018511144 -0.07509764 -0.031287413 -0.059883863 0.056363624 -0.056016825
-0.0469211 0.06809285 -0.03132743 -0.036350597 0.00015097005 -0.018474178 0.038842186 -0.31200638
-0.057908025 -0.0095414715 -0.032609306 0.06281576 0.0153882345 -0.07298425 0.011243074 -0.04683882
0.018476343 0.06350151 0.023847505 -0.0515278 -0.0842945 -0.06014558 -0.05917962 0.06514751
-0.018440742 -0.09642587 -0.038898095 -0.03436028 -0.022449873 -0.053094927 -0.005617925 -0.043980263
-0.015774775 0.023427868 -0.0096548665 0.037133317 -0.065300874 0.042275287 -0.007835004 -0.030680142
-0.052328654 0.032344066 -0.18615574 -0.0059465724 -0.004558237 0.049138073 -0.017507473 0.054729544
0.077748455 0.0419242 0.047732584 0.033593897 -0.041979205 0.007817491 -0.018749045 -0.028175786
00000000: b0cf 31bd a8b1 7bbd bf10 44bd ab14 36bd
00000010: 0800 a7bc 0e83 99bd 8816 e0bc c9f9 06be
00000020: f557 223a 5285 223d 8b0c 6cbd ab11 213d
00000030: 47ad fcbd e50c a4bc 553f 88bb 218c a23c
00000040: f096 92bc 9f01 6abd 1bb0 71bc 5178 a2bc
00000050: 5c1b 913c 0ac0 aabc 6d09 913c 6a5c db3d
00000060: b3de 5fbd a3f4 a2be 5304 b5bd b530 913d
00000070: f683 aebc 86ef 6cbd 345d 1d3d 58c8 c33c
00000080: f3df 02bd f1d8 923c 72ba 443d ce5f 193d
00000090: 521d d7bd 8ada 1bbd 788a 66bd a251 203d
000000a0: f7be 3dbd 410e 1dbb b701 33bd d3f7 bdbb
000000b0: db64 c4bd 3b38 69bd fae2 fcbc 950a 83bc
000000c0: 3c8f ecbc 1e4e c8bc b0d2 98bb a5f1 4d3d
000000d0: 8618 20bd 90fe 143d 092f 22be b96a cc3b
000000e0: c1f3 28be 26ec af3d 90e2 c0bd 0cee bbbc
000000f0: be26 b73b ab4a 60bd 8d93 dd3c 92b9 54bc
00000100: 60e3 e6bc d77d 923d 5b2d a53c 0611 9ebd
00000110: 41f9 e7bd c923 1ebd 12df 3b3d a3e0 40bd
00000120: 75df debd f445 72bd 90ab c7bc 3766 00bd
00000130: e65b 63bd e74a 82bd 6147 59bd d6eb 313c
00000140: 3bf8 d2bd d0dd e13b 2133 543d 93f6 73bd
00000150: c524 91bd abba 2c3d 0e02 29be 3090 cbbb
00000160: 6989 693c 1648 4cbc 7c68 4cbd 0bdc 65bd
00000170: 9b5c 59bc be4b 453d c8eb 70bb de7a a5bb
00000180: bff0 833c f67a 91bc 617d 1ebd 2ce3 183d
00000190: 6eab 3ebd 917a 583d a04f 8f3c 6a7d b1bc
000001a0: 24f7 8cbd 7591 6b3c 94bc bdbc c165 0bbb
000001b0: 866a 193d c8a9 193d 6726 02bc fd2d 6ebd
000001c0: 11d2 81bc e1d2 643c e423 a73c 572e 3bbe
000001d0: 15d4 77bd 3098 b6bc fd06 f5bc ebdc a8bd
000001e0: 12f5 a63b 10f1 57bc 5a6a f93c 8515 833d
000001f0: 78a5 593d 1e55 a23b b792 eb3c 2431 40ba
00000200: 54db 52be b58b 8fbc b74d 7abd 35dc 89be
00000210: fe4a 3abd 32de a0bb 3110 e73c e6e0 87bd
00000220: c6a3 dcbc b16c 393c c6d7 f23c 8b2c 88bd
00000230: 0f1e e7bc 28ca 02be d9de 35bc 585f 08bd
00000240: f33c 903c 7c16 f4bc db4b 0ebe ce5e 5cbd
00000250: 4912 66bd 705c fbbc 48b5 a7bc 0ab1 3abd
00000260: 64e4 32bc a877 56bd 618f 9dbd f9e0 f5bc
00000270: d55f c63b a4c0 373d 3ea7 093d dbdd 09be
00000280: 9674 e3bb 7813 dc3b 274d 4abd a363 9cbd
00000290: 0fc1 d3bd e022 47bd 1395 383d 4e9f 2dbc
000002a0: 9233 85bd 2f7e 12bc ebfa 2b3d 648a e53c
000002b0: 7799 bcbd 40bd 06bd c635 d1bd 525b 85bd
000002c0: de1b 74bd c63e 803d f253 e9bc 4bd6 fe3c
000002d0: 45bc 37bd fa57 47be 86b9 663c ae07 0d3c
000002e0: 36f0 7dbd fd4b 3cbd 789f 16bc 95ff 73bd
000002f0: 7964 6ebd 7106 30bc 7e61 44bd 9314 a4bb
00000300: ad38 f0bd 6aa0 b2bd afa4 97bc cbcc 99bd
00000310: 3b27 00bd c848 75bd 8bdd 663d e671 65bd
00000320: 5730 40bd 4474 8b3d 3151 00bd 5de4 14bd
00000330: b74d 1e39 2957 97bc fc18 1f3d 4dbf 9fbe
00000340: f730 6dbd d553 1cbc 5691 05bd 8da5 803d
00000350: ef1e 7c3c c478 95bd df34 383c 10da 3fbd
00000360: b35b 973c 140d 823d d85b c33c d00e 53bd
00000370: 98a2 acbd 365b 76bd 5466 72bd 0f6c 853d
00000380: 0a11 97bc ed7a c5bd 9c53 1fbd 5dbd 0cbd
00000390: cce8 b7bc 117a 59bd 9216 b8bb a624 34bd
000003a0: 1a3a 81bc cdeb bf3c 722f 1ebc 1b19 183d
000003b0: 77bc 85bd da28 2d3d 635e 00bc ec54 fbbc
000003c0: 9256 56bd 367b 043d 9c9f 3ebe 77db c2bb
000003d0: 435d 95bb 0145 493d d56b 8fbc 162c 603d
000003e0: 953a 9f3d b6b8 2b3d 3e83 433d c199 093d
000003f0: 63f2 2bbd ef14 003c 9997 99bc e8d0 e6bc

Y_net.hidden_layers.3.weight f4 [256, 256]
0.087408036 0.06054142 -0.004132713 0.018117873 -0.014127835 0.0064594573 0.042639483 -0.04350916
-0.05592409 0.027018463 0.03009193 0.012717506 0.019845348 0.046671115 0.0013710712 -0.028019026
-0.058950167 -0.050937075 -0.029345004 -0.04462666 -0.05253284 0.0462866 0.016083013 -1.3295291e-06
-0.04753796 0.018386165 0.07358734 0.06918304 0.03559317 -0.04182876 0.047476724 -0.033860844
0.032967214 0.074994124 0.027205037 -0.009581967 -0.047871202 -0.05203632 -0.024418212 -0.0063506775
-0.029436516 0.00221154 0.07683468 0.017195558 -0.0061372314 0.042544827 -0.03870358 0.051121186
-0.015598871 0.03697926 -0.005877204 0.06185803 0.052073725 0.015051683 0.027909126 -0.03171686
-0.040762763 -0.049522363 0.015742872 0.00056075165 0.008059865 -0.0057621156 0.07897919 0.055674084
-0.016939504 0.049659804 -0.024054805 -0.024635667 -0.0051966603 -0.05289842 0.038893748 0.005480068
0.066542745 -0.00076884317 0.059816644 0.019418903 0.05851331 0.05594503 0.028586771 -0.00669396
0.073893026 0.016607579 0.023535842 0.00969341 -0.048529197 0.069260195 -0.020196648 0.013632527
0.03353459 0.02644727 0.062685125 0.08822719 0.027177148 0.0060752723 -0.019297063 0.009281624
-0.019741032 -0.054655723 0.03855144 0.057593334 0.09596808 0.050484803 0.037985742 -0.04894425
0.007605459 0.06554548 -0.046747416 0.042706624 0.009861397 0.0613901 0.009383025 0.01657772
-0.05186769 -0.013649586 0.016339496 0.051901985 0.017481321 -0.06999693 -0.03451826 0.066910274
-0.023010045 0.00014313454 -0.026916206 0.051656775 0.0023296576 0.06522347 0.0028848685 0.02940952
-0.03607047 0.046226017 0.03552686 -0.032325618 -0.081626214 0.025904646 -0.017006323 -0.021506555
-0.036789823 0.009964724 0.03743491 0.05596079 0.018440181 -0.057580557 0.07589895 0.10775671
0.028457867 -0.050399676 0.034361716 -0.049358074 0.02255808 0.04861803 0.025522906 0.08173201
-0.032759957 0.017070906 -0.062532835 0.027549751 -0.0012871921 -0.04287609 0.016130883 0.03006679
-0.028196195 0.11414744 -0.06626551 0.003470353 0.019834636 -0.023628771 0.060110554 -0.03902036
-0.04623039 -0.016755195 -0.015301205 -0.08695829 -0.025747929 0.07830911 -0.016743926 -0.011701679
0.053480126 -0.02854205 0.01892183 -0.02312557 0.06499506 0.047794554 0.0522413 -0.008020924
-0.053370558 0.06588569 -0.040465776 0.02486963 -0.033333354 0.057989392 -0.05898563 -0.047784764
0.044736408 0.024047367 0.03595838 -0.030226637 0.040544756 0.037587903 -0.035506174 0.053078398
0.008837871 0.07339721 0.012227844 -0.038829304 -0.0015239936 -0.046275727 0.060608797 0.039463542
-0.05382854 -0.051195487 0.058181547 0.0361636 0.0448017 -0.051283088 -0.020365959 -0.007917058
0.046983995 0.035241913 0.052987006 0.032981027 0.025813268 -0.017472379 -0.008149231 0.051563572
0.024764232 0.06427478 -0.055946566 -0.05327094 -0.046899658 0.06661222 -0.03899142 0.010115391
-0.0068333726 -0.09593469 -0.020095432 -0.041334946 0.01895651 -0.047120675 0.03641095 -0.045362744
0.023764037 -0.028888766 0.024069712 0.06011676 0.051915873 -0.018550139 0.004965192 -0.026929133
-0.016900647 -0.009806403 0.07900689 0.0361387 0.04392913 -0.02381347 0.045753162 -0.057403725
00000000: fc02 b33d 48fa 773d b66b 87bb ef6b 943c
00000010: 6f78 67bc dba9 d33b bda6 2e3d a936 32bd
00000020: a910 65bd d355 dd3c 5a83 f63c 165d 503c
00000030: b692 a23c 362a 3f3d 84b5 b33a 2888 e5bc
00000040: bb75 71bd 65a3 50bd ef64 f0bc 72ca 36bd
00000050: ad2c 57bd 0597 3d3d 86c0 833c 4672 b2b5
00000060: 2ab7 42bd 959e 963c f6b4 963d d6af 8d3d
00000070: 25ca 113d a254 2bbd f476 423d abb1 0abd
00000080: a108 073d 8596 993d 19dd de3c affd 1cbc
00000090: 9814 44bd 0924 55bd b408 c8bc 5819 d0bb
000000a0: d924 f1bc 7cef 103b 805b 9d3d b3dd 8c3c
000000b0: d41a c9bb 7c43 2e3d a587 1ebd 7364 513d
000000c0: 6892 7fbc 9177 173d 8f95 c0bb d85e 7d3d
000000d0: 424b 553d 569b 763c aea1 e43c 8ae9 01bd
000000e0: dbf6 26bd f6d7 4abd 32f7 803c 68ff 123a
000000f0: 860d 043c 21d0 bcbb d7bf a13d 820a 643d
00000100: b7c4 8abc 1468 4b3d 950e c5bc bdd0 c9bc
00000110: bf48 aabb 03ac 58bd 0d4f 1f3d 2492 b33b
00000120: 9047 883d 318c 49ba 4c02 753d 6414 9f3c
00000130: a7ab 6f3d 9e26 653d ce2e ea3c 0259 dbbb
00000140: 3a55 973d 9e0c 883c 3dce c03c 1cd1 1e3c
00000150: 8dc6 46bd 4ad8 8d3d 7173 a5bc f65a 5f3c
00000160: 915b 093d f2a7 d83c 0f61 803d 75b0 b43d
00000170: 9ca2 de3c 1413 c73b e014 9ebc f411 183c
00000180: f2b7 a1bc aede 5fbd 1de8 1d3d fde6 6b3d
00000190: ea8a c43d 27c9 4e3d f096 1b3d c479 48bd
000001a0: 3737 f93b b53c 863d 387a 3fbd 24ed 2e3d
000001b0: b291 213c 2f74 7b3d 42bb 193c 00ce 873c
000001c0: 3773 54bd 83a2 5fbc 68da 853c 2d97 543d
000001d0: fd34 8f3c 8d5a 8fbd 0563 0dbd 4108 893d
000001e0: 907f bcbc 6316 1639 607f dcbc 0e96 533d
000001f0: 2bad 183b e293 853d 1010 3d3b 3cec f03c
00000200: a1be 13bd 7e57 3d3d 9d84 113d de67 04bd
00000210: a52b a7bd fb35 d43c d850 8bbc 842e b0bc
00000220: edb0 16bd 1543 233c 5955 193d 2437 653d
00000230: dd0f 973c 97d9 6bbd e970 9b3d 8daf dc3d
00000240: 7920 e93c e46f 4ebd dfbe 0c3d b12b 4abd
00000250: b9cb b83c b323 473d 6a15 d13c 1d63 a73d
00000260: 4e2f 06bd 49d8 8b3c 3711 80bd 04b0 e13c
00000270: 00b7 a8ba d79e 2fbd ea24 843c a14e f63c
00000280: b5fb e6bc 22c6 e93d 36b6 87bd dd6e 633b
00000290: 3f7c a23c 2091 c1bc 7c36 763d d0d3 1fbd
000002a0: 145c 3dbd 3142 89bc e8b1 7abc 3017 b2bd
000002b0: 52ed d2bc 8760 a03d 8f2a 89bc 66b8 3fbc
000002c0: fa0d 5b3d 04d1 e9bc f401 9b3c d671 bdbc
000002d0: 211c 853d 39c4 433d f9fa 553d 326a 03bc
000002e0: 169b 5abd 14ef 863d 71bf 25bd 65bb cb3c
000002f0: 8e88 08bd 4986 6d3d ea9a 71bd f5b9 43bd
00000300: 863d 373d fcfe c43c 1849 133d da9d f7bc
00000310: 4212 263d c6f5 193d ec6e 11bd bc68 593d
00000320: b8cc 103c 4751 963d 4c57 483c 7a0b 1fbd
00000330: bdc0 c7ba 9e8b 3dbd ee40 783d 86a4 213d
00000340: 517b 5cbd 5cb2 51bd c64f 6e3d 4820 143d
00000350: fd81 373d 370e 52bd 83d6 a6bc 8cb6 01bc
00000360: 4a72 403d d359 103d e708 593d 1d17 073d
00000370: 5976 d33c 3c22 8fbc 5a84 05bc 5334 533d
00000380: 5cde ca3c 7fa2 833d 3a28 65bd a132 5abd
00000390: db19 40bd fd6b 883d 78b5 1fbd 06bb 253c
000003a0: 7cea dfbb 6879 c4bd 2d9f a4bc d54e 29bd
000003b0: af4a 9b3c 9c01 41bd a623 153d 49ce 39bd
000003c0: ccac c23c 22a8 ecbc d82d c53c fe3c 763d
000003d0: bda5 543d 76f6 97bc 0db3 a23b 7c9a dcbc
000003e0: 3a73 8abc 09ab 20bc 5dce a13d 2c06 143d
000003f0: 08ef 333d 7714 c3bc ab67 3b3d 2b20 6bbd
