saved/almgren_supervised_NAISnet_ReLU/model_best.pth (torch, 817525 bytes, 15 tensors)

Y_net.hidden_layers.0.weight f4 [256, 4]
0.3767997 -0.2542972 0.33825192 0.36733213 0.35374197 0.30576262 -0.054721657 -0.10584759
-0.24709347 -0.28240874 -0.16283208 -0.28708634 0.16900267 -0.26879156 -0.16429819 0.43294114
-0.1078922 -0.18593088 0.3919139 -0.16317327 -0.33628356 -0.23499762 -0.1060839 -0.41520602
-0.37270114 0.05485688 0.29299748 0.3313315 0.32101873 0.16430813 0.34803644 0.010089681
0.5693673 -0.060751915 -0.3341054 -0.08004422 0.474129 -0.536383 0.11923448 -0.07933877
-0.34094352 -0.006572313 0.28969282 -0.27424544 0.44346315 -0.055294216 0.46174055 0.22207567
-0.39965534 0.044513233 -0.042427458 -0.28681064 -0.34004754 -0.44771388 0.07297041 -0.12957695
-0.18877444 -0.3027698 0.034254327 -0.42681772 0.4034048 -0.1279079 0.101260975 -0.29791534
-0.32369164 -0.10139768 0.06601812 0.25991124 -0.43220803 0.33253995 -0.04485676 -0.1533567
-0.12363549 0.2196354 0.34405574 0.017076502 -0.2639101 -0.44337678 0.3526062 0.17781232
0.41829687 0.35004306 0.44490004 0.46606562 -0.008281473 -0.0019939118 -0.35848397 -0.24771684
-0.44952452 0.4780956 -0.25970998 -0.33158654 -0.3278369 -0.37023956 0.18085109 -0.40219942
0.15500563 0.2353475 -0.1593079 0.05501905 -0.41475585 -0.13327274 -0.2437083 -0.43802202
0.53054565 -0.013815675 -0.01236576 -0.13045871 -0.6207462 -0.29866055 -0.25599322 0.45127535
-0.21941765 0.29915145 -0.14751054 0.41511768 0.32341036 0.44186932 0.10988138 0.3941696
-0.17881441 -0.13205677 -0.45450565 0.10334162 0.2301423 -0.10053093 0.04453338 0.14582382
0.4879335 0.37434083 0.1816454 -0.3301235 0.026614813 0.37436458 0.12851147 -0.27977768
0.35851586 0.27100822 -0.042073604 0.3927729 0.34853882 0.118151516 -0.20774804 0.4792133
-0.26479784 -0.20649977 0.09472342 0.4082598 -0.45598486 0.14602676 0.079273984 -0.30347893
0.399753 0.28899375 -0.3163222 -0.015427182 -0.09422714 0.25327158 0.21934547 0.39245862
-0.37835047 -0.23207659 -0.29831022 -0.04785324 0.4855548 -0.44829968 0.46537858 0.27602813
0.19503264 0.18912955 -0.36652434 0.40929246 -0.006325776 -0.27599978 -0.4599412 -0.020265235
0.21988334 0.19438642 -0.15213981 -0.2255006 0.12572366 -0.36175385 0.20239641 0.44444045
-0.2986291 -0.30034414 0.3836664 0.10642924 -0.34797364 0.15612006 0.091670565 0.38219914
-0.54346246 0.090067685 -0.24049558 0.102334544 -0.43916273 -0.45737615 -0.2912073 0.30385357
0.37126917 0.27192324 0.10553459 -0.39887956 -0.36435938 0.15055855 0.25709465 0.2894786
0.4177702 0.009884861 -0.08011016 -0.036663905 -0.13120441 -0.26240894 -0.14366217 0.18058905
0.51100594 -0.13453346 -0.04644538 -0.32920048 0.36241707 -0.35360417 0.3195247 0.16217355
0.4520416 -0.13580038 -0.1294195 -0.4171681 0.49004737 -0.37071577 -0.22517225 -0.07706268
-0.09926856 -0.2263295 0.20575829 0.15516628 -0.21112436 0.18401413 -0.42352685 0.18560208
-0.33411252 0.19831622 0.12300063 -0.005999172 0.5163883 0.2658046 0.44795516 -0.45275524
0.25945598 0.4145356 -0.2496863 -0.22457206 0.1984622 -0.27360743 -0.1655715 0.17280596
00000000: e4eb c03e 3e33 82be 5b2f ad3e f512 bc3e
00000010: ab1d b53e eb8c 9c3e d123 60bd 9fc6 d8bd
00000020: 1206 7dbe e197 90be 74bd 26be fbfc 92be
00000030: 090f 2d3e 0c9f 89be c93d 28be 76aa dd3e
00000040: 96f6 dcbd aa64 3ebe f0a8 c83e e516 27be
00000050: 5c2d acbe 37a3 70be 8442 d9bd e295 d4be
00000060: afd2 bebe 9cb1 603d c403 963e 48a4 a93e
00000070: 915c a43e 6440 283e d531 b23e 304f 253c
00000080: 0ec2 113f 00d7 78bd dd0f abbe 39ee a3bd
00000090: 09c1 f23e 6550 09bf 3531 f43d 5d7c a2bd
000000a0: 2690 aebe 8f5c d7bb 9e52 943e e669 8cbe
000000b0: 9a0d e33e 307c 62bd 4269 ec3e ce67 633e
000000c0: a09f ccbe 8253 363d 6ac8 2dbd d8d8 92be
000000d0: b61a aebe c13a e5be 8371 953d d2af 04be
000000e0: 164e 41be a504 9bbe 444e 0c3d da87 dabe
000000f0: 138b ce3e 4afa 02be ea61 cf3d 5c88 98be
00000100: e9ba a5be 96a9 cfbd 8234 873d 1613 853e
00000110: 5f4a ddbe ad42 aa3e b9bb 37bd 8a09 1dbe
00000120: 9b34 fdbd 1ae8 603e 1328 b03e 05e4 8b3c
00000130: 3a1f 87be 4802 e3be cd88 b43e 6f14 363e
00000140: 022b d63e d838 b33e f0c9 e33e 27a0 ee3e
00000150: 04af 07bc 4aac 02bb 368b b7be 7ca9 7dbe
00000160: 1428 e6be f2c8 f43e b5f8 84be b6c5 a9be
00000170: 3dda a7be 0a90 bdbe 0731 393e 15ed cdbe
00000180: ccb9 1e3e effe 703e 9c21 23be a85b 613d
00000190: e15a d4be a678 08be ab8e 79be 6c44 e0be
000001a0: d7d1 073f 245b 62bc c299 4abc f896 05be
000001b0: 39e9 1ebf 09ea 98be 8b11 83be 900d e73e
000001c0: 05af 60be 612a 993e 010d 17be 4e8a d43e
000001d0: 0b96 a53e b23c e23e 7d09 e13d 99d0 c93e
000001e0: 201b 37be e439 07be f7b4 e8be c5a4 d33d
000001f0: 6caa 6b3e 29e3 cdbd a268 363d d752 153e
00000200: 6bd2 f93e 9aa9 bf3e 4001 3a3e f305 a9be
00000210: 4f07 da3c b7ac bf3e 8398 033e 053f 8fbe
00000220: 648f b73e 97c1 8a3e 5f55 2cbd 8819 c93e
00000230: ae73 b23e 6cf9 f13d e7bb 54be 725b f53e
00000240: 9593 87be ad74 53be 5afe c13d 6e07 d13e
00000250: d976 e9be 0a88 153e 665a a23d 9761 9bbe
00000260: 6dac cc3e fdf6 933e fcf4 a1be 4bc2 7cbc
00000270: 29fa c0bd d0ac 813e 199c 603e 56f0 c83e
00000280: 27b7 c1be 7ca5 6dbe 1ebc 98be c201 44bd
00000290: a49a f83e 8987 e5be 1a46 ee3e 8f53 8d3e
000002a0: a3b6 473e 2dab 413e 14a9 bbbe c88e d13e
000002b0: 7548 cfbb d84f 8dbe 6a7d ebbe 4703 a6bc
000002c0: 1929 613e 3c0d 473e 8aca 1bbe a1e9 66be
000002d0: b4bd 003e cd37 b9be 0141 4f3e b38d e33e
000002e0: eae5 98be b5c6 99be ec6f c43e 93f7 d93d
000002f0: 9a29 b2be f0dd 1f3e c7bd bb3d 9baf c33e
00000300: 5b20 0bbf 6875 b83d 7944 76be c694 d13d
00000310: f0d9 e0be 352d eabe 2019 95be b292 9b3e
00000320: fe16 be3e 8639 8b3e 8522 d83d f139 ccbe
00000330: 508d babe 052c 1a3e e9a1 833e 8a36 943e
00000340: fae5 d53e 1df4 213c cc10 a4bd e42c 16bd
00000350: 735a 06be 775a 86be 2d1c 13be 56ec 383e
00000360: 49d1 023f 24c3 09be 833d 3ebd f78c a8be
00000370: bb8e b93e 9b0b b5be be98 a33e d310 263e
00000380: ff71 e73e 410f 0bbe 8c86 04be 0f97 d5be
00000390: 7de7 fa3e 75ce bdbe 8e93 66be 0ad3 9dbd
000003a0: 514d cbbd ecc2 67be 4db2 523e e9e3 1e3e
000003b0: fc30 58be 336e 3c3e 83d8 d8be 790e 3e3e
000003c0: cc10 abbe 6813 4b3e c1e7 fb3d b494 c4bb
000003d0: 0632 043f 8a17 883e 615a e53e 89cf e7be
000003e0: 6ad7 843e 033e d43e c4ad 7fbe 38f6 65be
000003f0: ad39 4b3e 4616 8cbe 938b 29be 0cf4 303e

Y_net.hidden_layers.0.bias f4 [256]
0.2060757 -0.39346495 0.60485315 0.52758574 0.39435664 0.18126614 -0.53274626 -0.005260642
-0.233649 -0.50176805 0.6275259 -0.44469073 -0.5629913 0.3975295 0.34693295 0.028988367
-0.13580647 0.095395185 -0.0050800806 -0.025899714 -0.13650541 0.18128398 -0.031493288 0.65481824
0.102716595 0.5471604 0.12913598 0.052809604 -0.062973395 0.48447302 0.22852187 -0.2383821
0.21752617 0.007849359 -0.26886645 0.30931062 0.32154006 0.03570659 0.18103765 0.5821161
0.055008966 0.2977014 -0.4935287 0.46433544 -0.20108153 0.33070356 -0.38523775 0.32323083
-0.68016267 -0.06282129 -0.18898638 0.48966742 -0.16972402 0.010473179 -0.22808428 -0.5368176
-0.45049053 -0.34372705 0.4890301 -0.2570885 0.1036758 -0.48104686 -0.029560572 -0.13059416
-0.3903884 -0.33501348 -0.38012585 0.38515016 -0.31500843 -0.49272078 -0.39144138 -0.04871052
-0.27867916 -0.29954997 -0.15435962 0.0018930002 0.13661447 -0.383006 -0.38312277 -0.10015482
0.26839003 -0.49521205 0.37456667 -0.089383654 0.47831044 -0.09365469 -0.33828345 0.38027796
-0.07373559 -0.49888214 -0.11641991 0.12657844 0.30163884 0.08066496 -0.03767343 0.57402784
-0.043998126 -0.0873097 -0.27213278 0.4760583 -0.3977906 0.3415594 -0.4211896 -0.44810385
-0.06905685 -0.24661323 -0.15085495 -0.3490473 0.4661498 -0.45949322 0.010353415 0.16600002
0.22652604 0.06967854 -0.32607594 0.4629011 -0.4473806 -0.4811386 0.06790918 -0.35053095
-0.27005848 -0.32882872 -0.47993436 -0.2458037 -0.3760038 0.6559567 -0.21391542 -0.16412678
-0.20165351 -0.4919975 0.22564474 -0.23976359 0.0893022 0.31601852 0.055489503 0.047794223
-0.44995558 -0.35355574 0.5370146 0.32943127 -0.31554192 0.12737438 -0.10451385 -0.3407769
-0.15864854 0.50711286 -0.034185573 -0.40309164 0.46784666 0.6355128 0.11318412 0.18401662
0.6455341 0.34545943 -0.3002083 -0.2979193 0.36343044 -0.15805623 -0.41800812 -0.40038252
0.5466661 -0.25266358 0.24346896 -0.17120293 0.048252936 -0.11766308 0.09423906 0.09601641
0.06596364 0.28078318 0.037243713 0.060850963 0.3446504 -0.19441652 -0.13888453 -0.41948038
-0.059098426 -0.20869747 -0.23405172 -0.45140162 -0.2553072 -0.2717754 0.18480064 0.54196024
-0.10751084 0.66691476 0.018448288 -0.0478016 0.22726643 0.13130127 -0.23149969 -0.23045608
0.58536714 -0.025228452 0.2255684 0.0029531657 0.4588722 -0.07434363 0.029369052 0.22361095
-0.2346448 0.5209834 0.463388 0.33955604 0.31943873 -0.5266513 0.34706047 -0.060642555
-0.19385637 -0.0056153988 -0.4831389 -0.30950242 -0.45682564 -0.030799098 0.2438395 -0.046612684
-0.46873757 -0.19023523 -0.21980785 -0.24882588 0.57369334 -0.18534502 -0.363649 -0.2583579
0.05949702 0.6517782 0.14909351 -0.19922389 0.4375148 -0.052242123 0.34744486 -0.31808272
0.27950084 -0.17264017 0.5929395 -0.35468233 -0.5226096 0.16364601 0.51123595 0.49942034
-0.3761349 0.48771027 -0.36914405 -0.03744709 -0.49974942 -0.2556493 0.46567652 0.4527999
0.15793283 -0.14733423 -0.42250165 0.5340137 -0.3226385 -0.08071909 -0.088864535 -0.12988994
00000000: 8205 533e 3d74 c9be a8d7 1a3f dc0f 073f
00000010: 1de9 c93e d59d 393e 0f62 08bf 7761 acbb
00000020: af41 6fbe df73 00bf 8aa5 203f 81ae e3be
00000030: 3320 10bf fd88 cb3e 32a1 b13e 0379 ed3c
00000040: da10 0bbe 8d5e c33d ce76 a6bb a32b d4bc
00000050: 13c8 0bbe 82a2 393e 1bff 00bd 2ba2 273f
00000060: 145d d23d b412 0c3f 393c 043e e24e 583d
00000070: 32f8 80bd d90c f83e a301 6a3e 701a 74be
00000080: 2ebf 5e3e 999a 003c dda8 89be f65d 9e3e
00000090: e6a0 a43e 1341 123d ef61 393e 9005 153f
000000a0: 1551 613d 516c 983e cbaf fcbe 60bd ed3e
000000b0: 51e8 4dbe fa51 a93e e23d c5be 837e a53e
000000c0: 241f 2ebf 73a8 80bd a585 41be b0b5 fa3e
000000d0: 22cc 2dbe b297 2b3c ed8e 69be e16c 09bf
000000e0: b2a6 e6be fefc afbe 2762 fa3e 1ba1 83be
000000f0: fa53 d43d c64b f6be 0329 f2bc 7aba 05be
00000100: fde0 c7be e386 abbe db9f c2be 6732 c53e
00000110: c948 a1be e645 fcbe 016b c8be af84 47bd
00000120: 09af 8ebe 9d5e 99be 7310 1ebe 8c1e f83a
00000130: aae4 0b3e 5d19 c4be ab28 c4be f81d cdbd
00000140: 6b6a 893e 6f8c fdbe 34c7 bf3e c70e b7bd
00000150: 1be5 f43e 08ce bfbd 7d33 adbe cbb3 c23e
00000160: af02 97bd 7b6d ffbe 906d eebd c79d 013e
00000170: 6870 9a3e ac33 a53d 744f 1abd 7df3 123f
00000180: 6137 34bd 6ecf b2bd fd54 8bbe eabd f33e
00000190: 36ab cbbe e0e0 ae3e 2aa6 d7be de6d e5be
000001a0: ae6d 8dbd 2e88 7cbe b879 1abe 54b6 b2be
000001b0: 30ab ee3e b242 ebbe 5fa1 293c e9fb 293e
000001c0: 71f6 673e 9fb3 8e3d 6df3 a6be 5f01 ed3e
000001d0: 120f e5be cc57 f6be f813 8b3d cb78 b3be
000001e0: 1b45 8abe 3d5c a8be f5b9 f5be f7b3 7bbe
000001f0: 9283 c0be c7ec 273f a50c 5bbe da10 28be
00000200: 427e 4ebe 19e7 fbbe 6a0f 673e 9684 75be
00000210: 12e4 b63d 2ecd a13e f648 633d e0c3 433d
00000220: 9460 e6be 4205 b5be ca79 093f 37ab a83e
00000230: b68e a1be 6e6e 023e 5b0b d6bd 4f7a aebe
00000240: c374 22be 26d2 013f 2c06 0cbd 0762 cebe
00000250: 9989 ef3e f8b0 223f 13cd e73d da6e 3c3e
00000260: b941 253f 0fe0 b03e e7b4 99be e188 98be
00000270: 8e13 ba3e 7ed9 21be 2905 d6be f0fe ccbe
00000280: 4ff2 0b3f 1f5d 81be ed4f 793e d24f 2fbe
00000290: dfa4 453d 57f9 f0bd 6900 c13d 40a4 c43d
000002a0: f217 873d d0c2 8f3e dd8c 183d dc3e 793d
000002b0: 0476 b03e 2015 47be bf37 0ebe 22c6 d6be
000002c0: 3111 72bd cab4 55be 41ab 6fbe 1d1e e7be
000002d0: a0b7 82be 2526 8bbe 613c 3d3e e8bd 0a3f
000002e0: a52e dcbd edba 2a3f dd20 973c 9ccb 43bd
000002f0: 88b8 683e d773 063e 410e 6dbe aefc 6bbe
00000300: 9fda 153f e6ab cebc 67fb 663e e689 413b
00000310: 4cf1 ea3e 7941 98bd 5e97 f03c 45fa 643e
00000320: ba46 70be 2b5f 053f 3141 ed3e 4ada ad3e
00000330: 798d a33e 9fd2 06bf e9b1 b13e 5464 78bd
00000340: 4982 46be 6101 b8bb fb5d f7be 1a77 9ebe
00000350: 0de5 e9be 644e fcbc 10b1 793e f1ec 3ebd
00000360: 5ffe efbe 06cd 42be 4f15 61be 36cc 7ebe
00000370: 91dd 123f 16cb 3dbe 3430 babe 7d47 84be
00000380: 26b3 733d f0da 263f f8ab 183e 5901 4cbe
00000390: f101 e03e d6fb 55bd 4be4 b13e bddb a2be
000003a0: bc1a 8f3e 96c8 30be e2ca 173f ec98 b5be
000003b0: bec9 05bf d292 273e 5ce0 023f 06b4 ff3e
000003c0: c194 c0be 29b5 f93e 7300 bdbe 1f62 19bd
000003d0: 28df ffbe 77e4 82be 276d ee3e 63d5 e73e
000003e0: 25b9 213e c9de 16be 2352 d8be 1fb5 083f
000003f0: e030 a5be 0d50 a5bd 9cfe b5bd de01 05be

Y_net.hidden_layers.1.weight f4 [256, 256]
-0.02336486 -0.050218146 -0.03064098 -0.032660745 0.024368476 -0.09933348 -0.03864126 0.10013207
0.15744582 0.1354811 -0.1154651 0.08735879 0.01883767 -0.06777688 -0.045455564 0.088017344
-0.09349821 -0.12741356 -0.03868409 0.0057950495 0.022951964 -0.06039537 -0.011542999 -0.13091661
-0.14388716 -0.01796593 0.033580996 -0.06770389 -0.054822885 -0.027707322 -0.08127784 0.07001373
0.0075076404 0.0016428309 0.01170106 -0.05853436 -0.019842789 0.052325167 0.046803307 -0.024358816
-0.015835984 -0.028756496 0.10880198 -0.06358653 -0.11437241 0.0033182579 0.019408116 -0.017710373
-0.014164312 -0.04856829 -0.0014755349 -0.03258519 0.022765726 -0.10006397 0.053666476 0.09066652
0.1331899 0.14982946 0.023133911 0.026415797 -0.13841845 0.04249858 -0.14320683 0.0840334
-0.008625943 0.030364718 -0.0019269428 -0.013314639 0.03816222 0.02826344 -0.04014354 -0.011790862
0.035462584 0.044428747 0.03944006 -0.0731022 0.027363654 0.058234632 -0.0030521106 0.086543165
-0.037752938 -0.04374643 -0.048469298 -0.058594335 -0.025605118 0.04900254 0.041469794 -0.080368124
0.084299505 -0.016260084 0.002133689 0.029464463 -0.112523235 -0.0663159 -0.023170846 -0.07329643
-0.037363708 0.051432967 -0.03459825 -0.16593257 0.08157545 -0.0039644446 0.042133648 0.05885628
0.021937132 0.029008638 -0.08204753 0.02977007 -0.0035451737 0.051219013 0.0019980017 -0.1940605
-0.017633779 0.02309907 0.024031777 -0.085619904 0.01160013 0.010307851 -0.0376662 -0.11795391
-0.023090838 0.046021957 0.00043332443 -0.07964657 0.081524596 -0.053178746 0.040928964 -0.07587292
-0.013566417 0.13766965 0.04385013 0.030738614 -0.052523345 -0.011138307 0.087161005 -0.03273397
-0.05874167 0.023466138 -0.057036743 0.041080676 0.00879274 0.0041639977 -0.00365247 0.02856686
0.015651857 0.0022786623 0.02325963 0.122564636 -0.09512828 -0.17935747 0.032626566 0.04449595
-0.13132809 -0.0240178 0.1435547 0.026211428 -0.006549047 0.055787362 0.055288274 0.025267808
-0.15782529 -0.036486283 -0.021733418 0.0096670985 -0.0032721474 0.016391799 0.0015895941 -0.05526353
-0.0019011223 -0.044458553 -0.022475762 -0.032795023 -0.014644267 0.059516173 0.00045814316 0.0036948447
-0.012416827 -0.06804424 -0.02326293 0.04284223 0.11179025 0.071294576 -0.054836147 -0.09370382
-0.03472919 -0.02442181 0.048917104 0.029335888 -0.01160982 0.024443546 -0.008500339 -0.052050754
-0.0136191 0.04354051 -0.052671663 0.019940712 -0.10514635 -0.048790783 0.0051954747 -0.011204129
-0.029979162 -0.015510122 -0.08992632 -0.05744965 -0.06471607 -0.018131396 -0.012875276 -0.007964761
-0.06900966 -0.08976301 -0.034061674 0.046082653 -0.03337951 0.039143123 -0.08429276 0.101567104
0.08443228 0.10378237 -0.047378153 0.03984063 -0.06832771 0.01541748 -0.05394628 -0.029793529
-0.01840118 -0.08906087 -0.012883133 -0.07970838 -0.024930293 -0.053621 -0.05940311 0.008139434
0.03026628 -0.08741066 -0.12980555 0.02678964 -0.027943768 -0.0407631 -0.10702608 -0.063462496
0.0021314768 -0.08519592 0.033001367 0.0039347317 0.11171775 0.011866001 -0.044331856 -0.051095385
-0.10554122 0.0075595574 0.03981217 -0.06142367 -0.055382766 -0.015466641 -0.0012040514 0.035244867
00000000: aa67 bfbc 8bb1 4dbd cb02 fbbc 46c7 05bd
00000010: 66a0 c73c 5a6f cbbd 4c46 1ebd 0b12 cd3d
00000020: 7a39 213e 8fbb 0a3e f778 ecbd 2ae9 b23d
00000030: 7551 9a3c 9bce 8abd 9d2f 3abd 7042 b43d
00000040: fd7b bfbd b378 02be 3573 1ebd 66e4 bd3b
00000050: c205 bc3c 2361 77bd d91e 3dbc 010f 06be
00000060: 2857 13be 492d 93bc 3a8c 093d 56a8 8abd
00000070: f68d 60bd 77fa e2bc ff74 a6bd 5c63 8f3d
00000080: a702 f63b 4254 d73a ceb5 3f3c bac1 6fbd
00000090: 588d a2bc ea52 563d d3b4 3f3d 248c c7bc
000000a0: 77ba 81bc be92 ebbc 93d3 de3d a839 82bd
000000b0: 153c eabd 2177 593b c5fd 9e3c 5815 91bc
000000c0: 6e11 68bc 8bef 46bd bc66 c1ba 0c78 05bd
000000d0: 307f ba3c 57ee ccbd 61d1 5b3d 5eaf b93d
000000e0: ef62 083e e56c 193e 5483 bd3c f165 d83c
000000f0: 91bd 0dbe fe12 2e3d d0a4 12be b419 ac3d
00000100: d453 0dbc 6ebf f83c 7991 fcba a525 5abc
00000110: fd4f 1c3d bb88 e73c 8d6d 24bd 762e 41bc
00000120: 3741 113d ebfa 353d e68b 213d 9bb6 95bd
00000130: be29 e03c 7087 6e3d eb05 48bb 8b3d b13d
00000140: d3a2 1abd 752f 33bd be87 46bd 9d00 70bd
00000150: d3c1 d1bc e3b6 483d 3bdc 293d 0b98 a4bd
00000160: 38a5 ac3d de33 85bc 5cd5 0b3b 755f f13c
00000170: 9572 e6bd a1d0 87bd c9d0 bdbc 701c 96bd
00000180: b00a 19bd 60ab 523d e5b6 0dbd 3aea 29be
00000190: 0811 a73d 2ce8 81bb 5594 2c3d 4813 713d
000001a0: 80b5 b33c 86a3 ed3c 8908 a8bd 5de0 f33c
000001b0: 2556 68bb 07cb 513d e8f0 023b ccb7 46be
000001c0: b774 90bc 433a bd3c 4ade c43c 7d59 afbd
000001d0: 790e 3e3c 43e2 283c e047 1abd d291 f1bd
000001e0: ff28 bdbc 8581 3c3d d22f e339 be1d a3bd
000001f0: 5ef6 a63d f5d1 59bd 21a5 273d 4363 9bbd
00000200: ad45 5ebc 46f9 0c3e 329c 333d 8ccf fb3c
00000210: b822 57bd 727d 36bc 7881 b23d 0e14 06bd
00000220: 1b9b 70bd 0f3c c03c 5c9f 69bd 3644 283d
00000230: 6d0f 103c 2572 883b 475e 6fbb 0c05 ea3c
00000240: 5338 803c 9c55 153b fb8a be3c 2b03 fb3d
00000250: 9ed2 c2bd 7ca9 37be 6fa3 053d 6341 363d
00000260: df7a 06be fac0 c4bc 0100 133e 59b9 d63c
00000270: 6399 d6bb 4a81 643d f575 623d 6ffe ce3c
00000280: f49c 21be a472 15bd 480a b2bc c062 1e3c
00000290: 8671 56bb 1848 863c ed59 d03a 035c 62bd
000002a0: 142f f9ba 2c1a 36bd 171f b8bc 1354 06bd
000002b0: 82ee 6fbc 3bc7 733d ef32 f039 3525 723b
000002c0: f26f 4bbc c75a 8bbd e691 bebc 567b 2f3d
000002d0: 49f2 e43d e402 923d de9b 60bd cae7 bfbd
000002e0: 3240 0ebd 3f10 c8bc 4d5d 483d d151 f03c
000002f0: 1d37 3ebc d53d c83c 0245 0bbc 2c33 55bd
00000300: a522 5fbc 8957 323d 3ebe 57bd b45a a33c
00000310: f856 d7bd d8d8 47bd cd3e aa3b 8691 37bc
00000320: dc96 f5bc 2b1e 7ebc 4a2b b8bd 5350 6bbd
00000330: dc89 84bd 4b88 94bc d2f2 52bc a17e 02bc
00000340: f054 8dbd abd5 b7bd 4184 0bbd 2ac1 3c3d
00000350: f4b8 08bd 8a54 203d afa1 acbd 6a02 d03d
00000360: d5ea ac3d da8b d43d 980f 42bd ee2f 233d
00000370: 66ef 8bbd 9999 7c3c c6f6 5cbd 8f11 f4bc
00000380: 12be 96bc 8c65 b6bd c713 53bc 263e a3bd
00000390: 9d3a ccbc b2a1 5bbd ad50 73bd 435b 053c
000003a0: fdf0 f73c 5c04 b3bd bfeb 04be f275 db3c
000003b0: 54ea e4bc 35f7 26bd 7d30 dbbd a0f8 81bd
000003c0: 3fb0 0b3b 337b aebd 712c 073d ecee 803b
000003d0: 47cc e43d 9e69 423c 5295 35bd 6549 51bd
000003e0: ff25 d8bd 2ab6 f73b 1612 233d 6397 7bbd
000003f0: 0ad9 62bd cb67 7dbc 43d1 9dba ec5c 103d

Y_net.hidden_layers.1.bias f4 [256]
-0.09090189 -0.108367994 -0.16241567 -0.12144283 -0.14447698 -0.017805323 -0.08172766 0.12285489
0.029062042 -0.037327215 0.03567389 0.16277024 0.019031884 0.011635548 0.061581876 0.06345447
-0.17446868 -0.10461969 0.011078487 -0.07613079 0.008978076 -0.07009532 -0.1493799 -0.10845042
-0.10222311 -0.17125152 0.114729315 0.07366585 -0.010731434 -0.12993133 0.007566659 -0.067979485
0.036509015 0.10076871 0.03856423 0.007668388 -0.07975554 0.011229977 0.08651741 -0.10591568
-0.058434118 -0.016303236 0.15468816 0.07057461 -0.0198352 -0.05571124 -0.07094793 -0.047694482
0.059506856 -0.0270734 0.008999214 -0.0766267 -0.043881908 -0.06086208 0.12161456 -0.01818999
0.14128125 0.10731129 -0.041475173 -0.081833966 -0.023534078 0.09317209 -0.09573767 0.0014845638
-0.050870586 -0.034543723 0.074558 -0.08521068 0.06829545 0.14109336 -0.15538497 -0.014896718
-0.06403223 -0.054829214 -0.048982635 -0.024445962 0.0823945 -0.15675591 -0.11788645 -0.0119287735
0.049849205 0.013153517 -0.026299525 -0.07414084 -0.08704156 0.050057843 -0.06699615 -0.071424544
0.13726808 0.15289049 -0.120290555 0.038565114 0.020524487 -0.077357404 -0.04103896 0.027000308
-0.0449267 -0.057367317 -0.045682043 -0.051282946 0.153794 -0.03374837 0.08758037 -0.11921495
0.026374273 0.032879476 -0.015508032 0.14901292 0.06717795 -0.061401557 -0.032221187 -0.09695817
-0.07150121 0.005756939 -0.062027544 0.0011605116 -0.11388819 0.02523586 -0.10701128 -0.14682217
0.05256743 -0.09295102 0.04466175 -0.13177899 0.015032497 -0.12360401 0.022583436 -0.029368268
0.061395727 0.1678999 -0.046086516 -0.026978211 -0.034339514 0.025092963 0.004137384 0.03107824
-0.12957473 0.011682868 -0.07389387 0.12163422 0.12096424 -0.021407714 -0.09547747 0.015972093
0.038249414 -0.08390323 -0.03177055 0.14160934 -0.0802128 -0.045564577 0.16670968 0.070272
-0.046335258 -0.026761252 -0.018378591 -0.10406384 0.014716329 -0.08824234 -0.14836776 -0.023770537
-0.14478272 -0.11306061 0.04318241 -0.061409142 -0.14568505 -0.13562156 0.01976243 -0.102300875
-0.029096484 0.019551115 -0.14504322 0.03979647 -0.06521808 -0.10960027 -0.06375198 0.022126913
0.10552397 -0.027447881 0.08380664 0.048354782 0.10174469 -0.0054312465 -0.004099344 -0.08959073
0.022418449 0.093203366 -0.07521035 -0.094875306 0.030003944 -0.008010823 -0.1390169 -0.046564028
-0.09528203 -0.05424285 0.029450445 -0.071836375 -0.15665643 -0.14994974 -0.07850435 -0.031516116
0.07577164 -0.02558208 -0.08476665 -0.04111777 -0.13304876 0.031084765 -0.015560652 -0.16863559
-0.025411008 -0.0896457 0.06636658 -0.14322974 -0.015099794 -0.01045802 -0.012338774 0.028946146
0.01712053 -0.05319187 -0.0070851725 -0.0064334036 0.019337736 -0.022936625 0.10803491 -0.082642734
-0.08073363 -0.051248696 0.027668301 -0.021099463 -0.14970095 0.09764365 -0.08456792 -0.09774907
-0.007830131 -0.10075675 -0.10226774 0.011342392 -0.15407676 -0.0040742164 -0.06600447 -0.045005344
-0.089438505 0.07821845 0.10524649 -0.11123819 0.020870082 -0.03496939 0.061924 -0.016502216
-0.06351857 -0.108769916 0.017581876 0.048660737 -0.13155325 0.095644936 0.06675894 -0.10141901
00000000: c52a babd 0af0 ddbd 4b50 26be 05b7 f8bd
00000010: c6f1 13be 78dc 91bc d560 a7bd 589b fb3d
00000020: 8513 ee3c 6ce4 18bd c91e 123d 3ead 263e
00000030: c1e8 9b3c 07a3 3e3c 473d 7c3d 6bf4 813d
00000040: eba7 32be d942 d6bd 8b82 353c 76ea 9bbd
00000050: c818 133c 238e 8fbd 0bf7 18be 411b debd
00000060: 5a5a d1bd 8f5c 2fbe 34f7 ea3d 1fde 963d
00000070: e6d2 2fbc b80c 05be bcf1 f73b d438 8bbd
00000080: 7a8a 153d d35f ce3d 87f5 1d3d 1a47 fb3b
00000090: df56 a3bd f0fd 373c 0a30 b13d 52ea d8bd
000000a0: 9d58 6fbd 5d8e 85bc 9366 1e3e 6c89 903d
000000b0: 6e7d a2bc 7831 64bd 264d 91bd 4a5b 43bd
000000c0: 76bd 733d 09c9 ddbc 7071 133c 76ee 9cbd
000000d0: 84bd 33bd 844a 79bd 0e11 f93d 2d03 95bc
000000e0: 08ac 103e 06c6 db3d dfe1 29bd 9198 a7bd
000000f0: 8aca c0bc 02d1 be3d 1d12 c4bd b295 c23a
00000100: ad5d 50bd b87d 0dbd ddb1 983d f082 aebd
00000110: 7cde 8b3d c77a 103e 3d1d 1fbe 5d11 74bc
00000120: 5423 83bd 9994 60bd 04a2 48bd e642 c8bc
00000130: 73be a83d 9f84 20be 736e f1bd e770 43bc
00000140: ae2e 4c3d d981 573c 1a72 d7bc 27d7 97bd
00000150: d842 b2bd 7409 4d3d 4735 89bd 0847 92bd
00000160: 0190 0c3e 538f 1c3e e55a f6bd 74f6 1d3d
00000170: f822 a83c 8f6d 9ebd 7818 28bd c02f dd3c
00000180: 0f05 38bd fef9 6abd 181d 3bbd 110e 52bd
00000190: 2d7c 1d3e bb3b 0abd 565d b33d f826 f4bd
000001a0: dc0e d83c a1ac 063d 6715 7ebc d896 183e
000001b0: 9894 893d 3380 7bbd 5dfa 03bd 0192 c6bd
000001c0: 3a6f 92bd b4a4 bc3b 9810 7ebd 4f1c 983a
000001d0: 363e e9bd 6fbb ce3c bb28 dbbd 8d58 16be
000001e0: f250 573d 1b5d bebd 3def 363d 12f1 06be
000001f0: dd4a 763c 1924 fdbd e600 b93c b995 f0bc
00000200: 167a 7b3d f4ed 2b3e 37c5 3cbd 6901 ddbc
00000210: 97a7 0cbd c28f cd3c e492 873b cb97 fe3c
00000220: 3daf 04be 8069 3f3c ab55 97bd 5d1b f93d
00000230: 19bc f73d 3b5f afbc b189 c3bd e8d7 823c
00000240: 6bab 1c3d 75d5 abbd d621 02bd 0a02 113e
00000250: 9c46 a4bd eca1 3abd f1b5 2a3e c4ea 8f3d
00000260: 0aca 3dbd 6a3a dbbc b38e 96bc 6c1f d5bd
00000270: c21c 713c 66b8 b4bd b8ed 17be 6eba c2bc
00000280: ec41 14be 528c e7bd 0ae0 303d 2788 7bbd
00000290: 762e 15be 61e0 0abe d2e4 a13c 1f83 d1bd
000002a0: c05b eebc a929 a03c 3686 14be a001 233d
000002b0: 0f91 85bd 1b76 e0bd 6690 82bd 8043 b53c
000002c0: f41c d83d 61da e0bc d1a2 ab3d aa0f 463d
000002d0: 855f d03d 99f8 b1bb ca53 86bb 587b b7bd
000002e0: e5a6 b73c 68e1 be3d e207 9abd fc4d c2bd
000002f0: d5ca f53c d43f 03bc 725a 0ebe ecb9 3ebd
00000300: 3a23 c3bd c02d 5ebd 0f42 f13c f31e 93bd
00000310: 8b6a 20be 6d8c 19be e3c6 a0bd 0b17 01bd
00000320: 292e 9b3d 8391 d1bc 239a adbd 1b6b 28bd
00000330: ef3d 08be 7aa5 fe3c 1bf2 7ebc cfae 2cbe
00000340: bf2a d0bc 2a98 b7bd 34eb 873d d1aa 12be
00000350: 2065 77bc 1d58 2bbc 9228 4abc 7820 ed3c
00000360: 5b40 8c3c b8df 59bd bc2a e8bb 4dcf d2bb
00000370: 2c6a 9e3c 97e5 bbbc 6841 dd3d 9840 a9bd
00000380: ac57 a5bd 27ea 51bd a2a8 e23c c8d8 acbc
00000390: 354b 19be 65f9 c73d f231 adbd aa30 c8bd
000003a0: f349 00bc 8e59 cebd c071 d1bd 71d5 393c
000003b0: 4cc6 1dbe 0181 85bb 5a2d 87bd 8657 38bd
000003c0: 892b b7bd ff30 a03d 798b d73d d9d0 e3bd
000003d0: bcf7 aa3c 103c 0fbd 05a4 7d3d a82f 87bc
000003e0: 0616 82bd c3c2 debd de07 903c 7b50 473d
000003f0: e5b5 06be 7ee1 c33d e9b8 883d c5b4 cfbd

Y_net.hidden_layers.2.weight f4 [256, 256]
-0.03301704 -0.04785166 -0.045725726 0.030907203 -0.08276983 0.005224853 -0.059324276 -0.06387918
-0.08743228 0.0629032 0.04823498 0.08175943 -0.027262805 0.021054724 0.015072916 -0.042541664
0.21600688 0.15680364 0.033551015 -0.042864773 -0.058081232 0.1480619 -0.1276205 0.15931194
0.045526903 -0.0064315316 -0.034114387 -0.044940595 -0.024151057 0.026133621 -0.012722441 0.052820385
0.0008005195 0.027101243 0.009483903 0.05500475 -0.032687485 0.026952727 0.019388963 0.021902094
0.036236323 0.014238509 0.111312374 -0.019618426 -0.011402666 -0.06486618 -0.101665124 0.056436785
0.038549926 -0.06375881 -0.087249465 -0.1107597 0.029467104 0.01347486 -0.10777287 0.075864464
-0.09792665 0.1711116 0.0072223335 0.0706206 0.10292771 -0.07567093 0.036486045 -0.009359127
-0.08900213 0.050275125 -0.09325228 0.04340912 0.010821224 0.02291262 0.037213568 -0.051740315
0.006053464 -0.13664016 -0.023656152 0.03171931 0.064192966 0.046693463 -0.038352072 -0.06018811
-0.052066877 -0.099417195 -0.041527323 -0.03840714 -0.023504237 -0.0013910987 0.06697841 0.0593896
0.08357977 -0.033976875 -0.121806294 -0.030191978 -0.04269234 0.060075577 -0.065030605 -0.022100717
0.038618755 0.0048214123 -0.048030067 0.19641641 0.056785952 0.08622963 -0.0133187 -0.13447744
0.0013562873 0.13296643 0.04379622 -0.0007629993 -0.0576997 0.011256568 0.047944143 0.23508447
-0.012122102 -0.047602527 0.0063627833 0.10942725 0.03066486 -0.043112524 -0.018226387 0.07532735
0.06660411 0.011562797 0.038026743 0.013066731 0.14900394 0.02044273 0.016839154 -0.002342377
0.070913695 0.1409671 0.042570602 0.02884971 -0.09607021 0.032941796 -0.053031657 -0.043901756
-0.12624072 -0.05040349 0.0069175065 0.00023465799 0.06922171 -0.016073253 -0.08004476 -0.02532682
-0.07320121 -0.012865634 0.03852695 0.03181287 -0.12671335 0.1209564 -0.09352055 0.06798362
-0.05736779 0.08759547 0.07648445 -0.07038193 -0.05403004 -0.068791986 -0.13299492 -0.06747484
0.0070381826 -0.02953536 0.001404768 0.024601292 0.021097051 -0.053283114 -0.052137695 -0.07628317
0.029498521 0.049168956 -0.092248216 -0.07067725 0.067125015 -0.21208777 -0.022516198 0.023344148
-0.022726556 -0.013575464 0.058390357 0.041625176 0.08880396 0.022060122 0.021605846 0.0031274713
-0.005276822 0.029382586 -0.03300282 0.010890185 -0.02762288 -0.044213418 0.08491339 0.06376136
-0.057044312 -0.049035084 0.041995678 0.020560617 0.0022858928 -0.034905214 -0.029359773 0.007141041
0.07037136 0.065074906 -0.0032826532 0.032848664 0.002377449 -0.037883416 -0.01678439 0.031094225
0.0126306005 0.00026923546 0.07384925 -0.0074754437 -0.0047843494 0.05250053 -0.032387592 -0.029214393
0.05722326 0.018211406 -0.06548253 0.03819602 0.04415845 0.017683206 0.0067293877 -0.05761137
-0.05282606 -0.008171391 -0.04275956 -0.039275438 -0.19442034 0.15505975 0.10102952 0.02074167
0.08626824 -0.004555315 -0.010099679 0.022649901 -0.05149928 0.014121828 -0.03849855 -0.033518557
0.05772439 0.008671567 -0.07206573 0.10016518 -0.026130652 -0.0041973377 0.020590317 -0.08868633
0.14366807 -0.01571405 -0.051298987 -0.0005528912 0.060873862 -0.0041171545 -0.048215967 -0.10769521
00000000: e03c 07bd 1a00 44bd e64a 3bbd 1a31 fd3c
00000010: 3b83 a9bd 3e35 ab3b 03fe 72bd 16d3 82bd
00000020: b20f b3bd 65d3 803d 0b92 453d 7d71 a73d
00000030: 3f56 dfbc f57a ac3c 64f4 763c 2b40 2ebd
00000040: e830 5d3e 2291 203e ca6c 093d f992 2fbd
00000050: 96e6 6dbd 8a9d 173e f3ae 02be ab22 233e
00000060: 6b7a 3a3d 99bf d2bb 87bb 0bbd a113 38bd
00000070: 70d8 c5bc 2d16 d63c c971 50bc 305a 583d
00000080: f4d9 513a 6d03 de3c 5f62 1b3c a94c 613d
00000090: 50e3 05bd f7cb dc3c 9ad5 9e3c 056c b33c
000000a0: 8a6c 143d a348 693c bef7 e33d d2b6 a0bc
000000b0: 3fd2 3abc 8fd8 84bd ce35 d0bd 422a 673d
000000c0: 87e6 1d3d fb93 82bd d9af b2bd fbd5 e2bd
000000d0: ff64 f13c a9c5 5c3c 06b8 dcbd d45e 9b3d
000000e0: c48d c8bd e137 2f3e 53a9 ec3b 88a1 903d
000000f0: c3cb d23d 5cf9 9abd 6472 153d 0657 19bc
00000100: c046 b6bd 4aed 4d3d 0dfb bebd c3cd 313d
00000110: 814b 313c 3fb3 bb3c 416d 183d a7ed 53bd
00000120: 235c c63b 66eb 0bbe 8cca c1bc 1bec 013d
00000130: 9a77 833d a541 3f3d 1017 1dbd cf87 76bd
00000140: 1444 55bd 3e9b cbbd 8e18 2abd ce50 1dbd
00000150: f58b c0bc 8755 b6ba fa2b 893d 8242 733d
00000160: df2b ab3d 562b 0bbd 9475 f9bd 2b55 f7bc
00000170: 2ade 2ebd cf11 763d c42e 85bd 900c b5bc
00000180: b32e 1e3d f0fc 9d3b 2dbb 44bd 6221 493e
00000190: 6398 683d 2999 b03d ad36 5abc 74b4 09be
000001a0: 73c5 b13a 5a28 083e aa63 333d 0404 48ba
000001b0: 8556 6cbd 786d 383c 1461 443d fcb9 703e
000001c0: c89b 46bc defa 42bd e57e d03b 651b e03d
000001d0: df34 fb3c c296 30bd 814f 95bc 3a45 9a3d
000001e0: bc67 883d e371 3d3c eec1 1b3d d815 563c
000001f0: 7d94 183e 8377 a73c 44f2 893c 9182 19bb
00000200: 333b 913d ae59 103e 835e 2e3d 3a56 ec3c
00000210: 75c0 c4bd faed 063d b937 59bd 54d2 33bd
00000220: 3f45 01be e473 4ebd 40ac e23b 860e 7639
00000230: 1dc4 8d3d 0eac 83bc 82ee a3bd 317a cfbc
00000240: 84ea 95bd 61ca 52bc 6fce 1d3d 364e 023d
00000250: 25c1 01be fdb7 f73d b487 bfbd ff3a 8b3d
00000260: 7dfa 6abd 4165 b33d e1a3 9c3d 6724 90bd
00000270: 9a4e 5dbd d0e2 8cbd d22f 08be 4030 8abd
00000280: 8ea0 e63b 24f4 f1bc 3120 b83a a688 c93c
00000290: b9d3 ac3c 653f 5abd 568e 55bd 5a3a 9cbd
000002a0: e2a6 f13c 6365 493d a2ec bcbd 3cbf 90bd
000002b0: d778 893d 892d 59be e473 b8bc 3a3c bf3c
000002c0: 0b2d babc 9f6b 5ebc ba2a 6f3d 297f 2a3d
000002d0: dade b53d 6eb7 b43c befe b03c 43f6 4c3b
000002e0: 31e9 acbb c0b3 f03c f72d 07bd bf6c 323c
000002f0: 6149 e2bc 2119 35bd 12e7 ad3d 5195 823d
00000300: 4ca7 69bd 03d9 48bd a903 2c3d bd6e a83c
00000310: ebce 153b c5f8 0ebd e883 f0bc 65ff e93b
00000320: dc1e 903d fe45 853d c821 57bb 528c 063d
00000330: face 1b3b a42b 1bbd 6b7f 89bc 51b9 fe3c
00000340: 94f0 4e3c 2c28 8d39 473e 973d 91f4 f4bb
00000350: 08c6 9cbb cc0a 573d daa8 04bd 0653 efbc
00000360: f062 6a3d 1630 953c b41b 86bd 6e73 1c3d
00000370: 7edf 343d 5fdc 903c 3282 dc3b e6f9 6bbd
00000380: 2460 58bd 4ce1 05bc a624 2fbd 48df 20bd
00000390: 2016 47be fcc7 1e3e 91e8 ce3d 6fea a93c
000003a0: 67ad b03d c044 95bb 2079 25bc 498c b93c
000003b0: e9f0 52bd 3d5f 673c a8b0 1dbd c14a 09bd
000003c0: 6970 6c3d 3013 0e3c 3397 93bd 6723 cd3d
000003d0: f30f d6bc d289 89bb 06ad a83c 2ea1 b5bd
000003e0: b91d 133e c0ba 80bc e31e 52bd e6ef 10ba
000003f0: df56 793d 32e9 86bb 1b7e 45bd 4e8f dcbd

Y_net.hidden_layers.2.bias f4 [256]
-0.06522786 0.018732188 0.08688668 -0.03683743 0.020141492 0.03491752 -0.013688271 -0.052713957
0.046191618 -0.07832307 -0.11430816 -0.109793626 0.08243177 -0.045750193 0.09181753 -0.10074234
-0.11026024 -0.14047883 0.02581062 -0.07343457 -0.012176787 -0.10308956 -0.09825022 -0.14090864
-0.06169259 -0.11099898 0.12652907 0.062509865 -0.0780078 -0.09388724 -0.03256715 0.015498203
0.023934744 0.07781354 0.043694373 -0.006623761 -0.097787134 0.029587554 0.02111265 -0.03920105
0.07003302 0.004334664 -0.05420318 0.13140151 -0.05895716 0.014044767 -0.079453886 0.055164523
0.021755164 0.07037977 -0.11217871 0.040033948 -0.11578139 -0.014159902 -0.038540423 0.16432366
-0.08478117 -0.0058916295 -0.055839747 -0.019069811 0.002146414 -0.16948897 -0.056869786 0.023656284
-0.059442513 -0.067455664 -0.064532384 0.039776403 0.03855763 0.017814817 -0.079298645 -0.0070187263
-0.093041755 -0.15241355 -0.027686402 0.04140056 -0.038960073 -0.01918428 -0.10286414 0.019246826
-0.09708515 0.04991314 0.027150868 -0.007628763 -0.10916324 -0.067800365 -0.00071599067 -0.059998617
0.06214787 -0.017509514 -0.07831518 -0.06972904 0.09115536 -0.11591074 -0.04530934 0.006860564
-0.05789548 0.11350453 0.06811161 -0.169879 0.08142505 -0.014319045 -0.08410235 -0.09872359
0.077883504 -0.12811989 0.045953352 -0.045015726 0.08005531 -0.040331207 0.04770414 -0.10032575
0.030000094 -0.08612798 -0.09878574 -0.0012669365 0.013413785 0.15703022 0.07735788 -0.06355632
-0.04853342 0.05326715 0.09163853 -0.0039556157 -0.09864974 0.01387167 -0.033498988 -0.11307415
0.13685423 -0.041480068 0.10051244 -0.040365126 -0.025619395 -0.012761104 -0.032177467 -0.09021119
-0.15711802 -0.029906442 -0.024574589 0.1117655 -0.010646904 -0.012170784 0.089008644 -0.12834741
-0.10670941 -0.058402155 0.00935392 -0.032257605 -0.014158422 0.14059651 -0.13993454 -0.028406693
0.025709985 -0.02715871 -0.039135776 -0.081637636 -0.06792188 -0.14064139 -0.12444363 0.008394177
-0.015100197 -0.07141533 0.06366424 -0.0855721 -0.05944079 -0.02073898 -0.13975918 -0.024579057
-0.049280163 0.0033091556 -0.07072674 -0.08393407 -0.10913462 -0.1402927 0.03840774 -0.035171386
-0.018874487 -0.06276223 0.051975694 -0.18469004 -0.052494567 0.053500142 0.011786803 -0.0416738
-0.025850076 0.03561628 0.058862016 0.037360214 -0.00087378407 0.07801731 -0.0319708 -0.025186505
0.04092359 0.036039524 0.10661728 -0.055572025 -0.066821404 0.014765716 0.020995619 -0.014906364
-0.031124666 -0.05117323 0.019959623 -0.033480596 -0.059382193 0.0814653 -0.037263617 -0.117019266
-0.0095180245 -0.08997451 -0.0845527 -0.011612075 0.13294184 -0.11934805 -0.09962957 0.080738716
-0.020481354 -0.04449855 -0.021665998 0.102416985 -0.021967974 -0.09596326 -0.05780851 0.030550007
-0.09030326 -0.05382785 0.1321793 -0.013940928 -0.07254159 -0.11712812 -0.05649514 -0.08204808
0.08590473 -0.043724168 -0.13438173 -0.0023588492 -0.024650251 0.009912926 -0.03696683 0.038811818
-0.16842726 -0.028832907 0.117636174 -0.057621893 0.18591452 0.0045604757 -0.07812317 0.15872544
-0.054211095 -0.07495681 0.01926049 -0.023273436 -0.058443394 0.06363659 0.07339641 -0.010638435
00000000: 2f96 85bd 3f74 993c a5f1 b13d d8e2 16bd
00000010: c5ff a43c ac05 0f3d c544 60bc 97ea 57bd
00000020: 6c33 3d3d d967 a0bd 661a eabd 7bdb e0bd
00000030: fdd1 a83d 8e64 3bbd d40a bc3d 0052 cebd
00000040: 1fd0 e1bd afd9 0fbe cb70 d33c dd64 96bd
00000050: 2581 47bc 9f20 d3bd 6937 c9bd 5b4a 10be
00000060: 5fb1 7cbd 6f53 e3bd d690 013e 2c05 803d
00000070: 8ec2 9fbd f447 c0bd 2265 05bd 2dec 7d3c
00000080: cc12 c43c b55c 9f3d dff8 323d 220c d9bb
00000090: 9f44 c8bd 9961 f23c 70f4 ac3c 4891 20bd
000000a0: 796d 8f3d cc09 8e3b 2704 5ebd 1e8e 063e
000000b0: 107d 71bd 061c 663c b8b8 a2bd 32f4 613d
000000c0: e337 b23c 4523 903d f4bd e5bd a3fa 233d
000000d0: cb1e edbd effe 67bc 90dc 1dbd 7644 283e
000000e0: c0a1 adbd 920e c1bb 38b8 64bd 4b38 9cbc
000000f0: daaa 0c3b 848e 2dbe 4bf0 68bd d3ca c13c
00000100: fe79 73bd 3226 8abd 8e29 84bd 95ec 223d
00000110: 9bee 1d3d 61f0 913c 5467 a2bd 58fd e5bb
00000120: ad8c bebd 4c12 1cbe 98ce e2bc a293 293d
00000130: 9994 1fbd 5a28 9dbc 6faa d2bd 85ab 9d3c
00000140: 94d4 c6bd b871 4c3d 7f6b de3c b4fa f9bb
00000150: fa90 dfbd ebda 8abd 52b1 3bba 1cc1 75bd
00000160: c48e 7e3d 1d70 8fbc b663 a0bd 19ce 8ebd
00000170: a9af ba3d 9c62 edbd 4996 39bd 95ce e03b
00000180: d023 6dbd 1075 e83d 1a7e 8b3d c3f4 2dbe
00000190: 2dc2 a63d 6d9a 6abc da3d acbd 982f cabd
000001a0: 6381 9f3d dc31 03be 9539 3c3d 6962 38bd
000001b0: 0af4 a33d 5632 25bd 6b65 433d 9677 cdbd
000001c0: c2c2 f53c de63 b0bd 2e50 cabd 560f a6ba
000001d0: 7ec5 5b3c 88cc 203e cf6d 9e3d d129 82bd
000001e0: fbca 46bd a82e 5a3d fbac bb3d 1c9e 81bb
000001f0: e008 cabd 0046 633c 3c36 09bd 6c93 e7bd
00000200: 8423 0c3e 01e7 29bd 77d9 cd3d e755 25bd
00000210: c4df d1bc f313 51bc 85cc 03bd a5c0 b8bd
00000220: 8ce3 20be 5bfe f4bc a650 c9bc 4fe5 e43d
00000230: 5a70 2ebc f867 47bc 2a4a b63d 816d 03be
00000240: 778a dabd 1937 6fbd 2f41 193c 8d20 04bd
00000250: baf8 67bc 88f8 0f3e 004b 0fbe 27b5 e8bc
00000260: bf9d d23c f17b debc d64c 20bd a231 a7bd
00000270: a01a 8bbd 4c04 10be 4ddc febd bb87 093c
00000280: d166 77bc 3342 92bd 6662 823d 6d40 afbd
00000290: 3078 73bd cbe4 a9bc 081d 0fbe 055a c9bc
000002a0: ffd9 49bd 6bde 583b 2ed9 90bd a0e5 abbd
000002b0: f981 dfbd e4a8 0fbe 6f51 1d3d df0f 10bd
000002c0: ab9e 9abc 7c89 80bd 77e4 543d 631f 3dbe
000002d0: 8b04 57bd f722 5b3d 6f1d 413c 26b2 2abd
000002e0: 8ac3 d3bc 60e2 113d 4c19 713d 0607 193d
000002f0: a80e 65ba 8ac7 9f3d d0f3 02bd ee53 cebc
00000300: 7f9f 273d 2e9e 133d 295a da3d 7e9f 63bd
00000310: a9d9 88bd e7eb 713c 01ff ab3c d239 74bc
00000320: 28f9 febc 059b 51bd 5d82 a33c f322 09bd
00000330: be3a 73bd 47d7 a63d bca1 18bd cca7 efbd
00000340: 7df1 1bbc 8e44 b8bd f729 adbd 9340 3ebc
00000350: e821 083e c06c f4bd 970a ccbd 575a a53d
00000360: 83c8 a7bc 1d44 36bd e47c b1bc ffbf d13d
00000370: 2ef6 b3bc 6388 c4bd 9ec8 6cbd 0244 fa3c
00000380: eaf0 b8bd 977a 5cbd 035a 073e 7d68 64bc
00000390: af90 94bd dee0 efbd 7367 67bd d308 a8bd
000003a0: d2ee af3d 1d18 33bd 5d9b 09be ec96 1abb
000003b0: 53ef c9bc d369 223c 886a 17bd 24f9 1e3d
000003c0: 3278 2cbe fd32 ecbc 3ceb f03d ef04 6cbd
000003d0: 6060 3e3e 0b70 953b 0aff 9fbd ec88 223e
000003e0: 740c 5ebd f582 99bd 2dc8 9d3c efa7 bebc
000003f0: 5762 6fbd e753 823d db50 963d d54c 2ebc

Y_net.hidden_layers.3.weight f4 [256, 256]
-0.06553717 0.09697452 0.03606172 0.116654724 0.037176434 0.07181667 0.050556023 -0.0058858017
0.057844352 0.028479878 -0.049212985 -0.030735476 0.0034284052 -0.007317443 0.062365774 0.036047056
-0.064358585 -0.039031643 0.02787464 -0.06738994 0.056032754 -0.12218806 -0.09931433 -0.107603066
-0.06951857 -0.118990354 0.010774604 0.05906433 -0.05688746 0.075301915 -0.05123 0.0012921904
-0.041397605 0.031677037 0.066697046 0.019261569 -0.07021991 0.017865818 0.05267023 0.008209963
-0.02183086 -0.0185397 0.08773835 0.027075013 -0.063522905 -0.041501466 -0.104260296 0.016874736
0.017865494 0.024190301 0.028936112 0.02928463 -0.022077924 0.054306176 -0.06579382 -0.023899702
0.18373722 -0.09420353 -0.065456785 0.044673357 -0.094486736 -0.0056448844 -0.054467745 -0.020151194
-0.13752833 -0.056082953 -0.10317671 0.10817305 0.08152671 0.016393185 0.106879875 -0.043161307
-0.059087183 -0.14309672 -0.040568747 -0.029316885 0.03825555 0.07466879 -0.047802053 -0.046767674
0.1271772 -0.005024393 0.061009847 -0.022334263 -0.008657754 -0.044388127 -0.033910368 -0.032780994
0.013118629 0.052605692 -0.065911986 -0.015190851 0.058396403 0.05315452 -0.104836494 0.0032964728
-0.023131274 0.016569145 0.024400545 -0.100939006 0.021069286 -0.0013662532 -0.014337938 -0.12482579
-0.058574565 0.0067964685 0.0007069221 0.012441325 0.025745932 0.037200533 -0.0054987925 -0.077135086
0.01634617 -0.03223783 -0.006062244 -0.117841125 -0.04234587 0.038371656 0.02286473 -0.04968662
-0.018994587 -0.004151044 0.01605327 0.009737129 0.003040971 0.06847752 0.03514747 0.013596289
0.06639912 -0.016988732 0.06579694 -0.05114649 -0.08437105 -0.041505452 0.003654355 -0.05787319
-0.022972375 -0.07004229 0.04112127 -0.018596452 0.01842424 0.025438111 -0.13059981 -0.0054926844
0.05110098 0.05561694 -0.020573655 0.018251438 0.00032831763 0.060741693 -0.04127024 0.14771992
0.11774371 0.10326208 -0.09948056 -0.111489505 -0.039833263 0.07189353 -0.085191585 0.01960719
-0.008276107 0.09517684 -0.02251077 0.0024655126 -0.10095101 -0.12108381 0.0061343913 -0.0013991521
-0.0025043183 0.12284268 -0.07699394 -0.061220724 0.02755048 -0.11260555 -0.0039551184 -0.05154893
0.010347928 -0.022837108 0.091650516 -0.046995267 0.022123499 0.10996832 0.041621193 0.08325479
-0.013415828 0.044017997 0.004247211 0.006903274 0.021973247 -0.05561894 -0.014081306 -0.0014029392
-0.03815386 -0.04515948 -0.024052128 0.0064824494 0.09263199 0.045079783 0.07331257 -0.0128305415
0.030153751 0.016813885 -0.022868676 -0.026010767 -0.06674781 -0.033915896 -0.07424167 -0.020558301
-0.017864602 -0.011884039 0.05343843 0.012805003 0.02360624 0.038772993 0.00600166 0.06367459
0.033593316 -0.0041797995 -0.037671965 -0.06034222 -0.043679602 0.0065789763 0.03726623 -0.069775976
-0.035924386 -0.0051808627 0.032595154 -0.05550552 0.0033600463 0.048423015 -0.061188255 -0.075515956
0.054714043 0.04336349 -0.037912402 -0.0030470924 0.014100163 0.03789309 0.06299148 0.059020024
-0.03276593 -0.06979706 0.029604742 -0.06628504 -0.04225882 -0.020459026 -0.011378683 0.022087902
0.018435802 -0.060706336 -0.022615897 -0.0047240024 0.024201544 -0.00060318597 -0.029387692 -0.029296312
00000000: 5a38 86bd 949a c63d 74b5 133d ace8 ee3d
00000010: 5146 183d 9e14 933d d513 4f3d afdd c0bb
00000020: 33ee 6c3d a24e e93c 8e93 49bd f7c8 fbbc
00000030: 18af 603b 29c7 efbb 4173 7f3d 14a6 133d
00000040: 6fce 83bd a5df 1fbd 5b59 e43c bd03 8abd
00000050: 9a82 653d bc3d fabd 5065 cbbd ff5e dcbd
00000060: c15f 8ebd 37b1 f3bd f787 303c 70ed 713d
00000070: d302 69bd e437 9a3d 8cd6 51bd b75e a93a
00000080: 8990 29bd c8bf 013d 7698 883d 70ca 9d3c
00000090: 75cf 8fbd 565b 923c bdbc 573d 1583 063c
000000a0: a2d6 b2bc 92e0 97bc 2ab0 b33d 6bcc dd3c
000000b0: 4c18 82bd 71fd 29bd 6c86 d5bd e33c 8a3c
000000c0: a85a 923c bd2a c63c 6d0b ed3c 52e6 ef3c
000000d0: c3dc b4bc 2770 5e3d e9be 86bd 4fc9 c3bc
000000e0: 9c25 3c3e c8ed c0bd 350e 86bd 69fb 363d
000000f0: 4382 c1bd b9f8 b8bb 9219 5fbd 1e14 a5bc
00000100: 3ad4 0cbe 3db7 65bd 504e d3bd d589 dd3d
00000110: 7af7 a63d 004b 863c d6e3 da3d e9c9 30bd
00000120: 6705 72bd f287 12be 6a2b 26bd f729 f0bc
00000130: dab1 1c3d f3eb 983d 16cc 43bd 768f 3fbd
00000140: bd3a 023e aaa3 a4bb 76e5 793d 58f6 b6bc
00000150: 41d9 0dbc 53d0 35bd 99e5 0abd 5d45 06bd
00000160: 85ef 563c 1179 573d ddfc 86bd 0ce3 78bc
00000170: 1131 6f3d 8eb8 593d 84b4 d6bd a309 583b
00000180: cc7d bdbc 04bc 873c a7e3 c73c 1cb9 cebd
00000190: 7f99 ac3c da13 b3ba ace9 6abc aaa4 ffbd
000001a0: e2eb 6fbd e9b4 de3b bd50 393a b3d6 4b3c
000001b0: 22e9 d23c 965f 183d 372f b4bb 00f9 9dbd
000001c0: 67e8 853c d10b 04bd caa5 c6bb b056 f1bd
000001d0: dd72 2dbd 992b 1d3d d04e bb3c 3284 4bbd
000001e0: 899a 9bbc 7b05 88bb 2682 833c 7b88 1f3c
000001f0: 074b 473b f13d 8c3d cbf6 0f3d f8c2 5e3c
00000200: 43fc 873d f42b 8bbc 8cc0 863d fb7e 51bd
00000210: bbca acbd 9f01 2abd e77d 6f3b 700c 6dbd
00000220: 9030 bcbc 5572 8fbd c76e 283d 9657 98bc
00000230: 6fee 963c 9663 d03c f5bb 05be fafb b3bb
00000240: 434f 513d 97ce 633d 158a a8bc 0a84 953c
00000250: 0c22 ac39 48cc 783d fc0a 29bd e443 173e
00000260: 9d23 f13d 127b d33d 77bc cbbd 9c54 e4bd
00000270: 3428 23bd ea3c 933d ed78 aebd 429f a03c
00000280: 8298 07bc 13ec c23d 8268 b8bc 7094 213b
00000290: 67bf cebd cafa f7bd 0103 c93b c163 b7ba
000002a0: 7d1f 24bb f194 fb3d 00af 9dbd 95c2 7abd
000002b0: 8bb1 e13c bd9d e6bd f099 81bb f924 53bd
000002c0: 5b8a 293c e314 bbbc 44b3 bb3d 1c7e 40bd
000002d0: 573c b53c 1237 e13d fc7a 2a3d 7d81 aa3d
000002e0: 10ce 5bbc 374c 343d 302c 8b3b dc34 e23b
000002f0: 3d01 b43c b0d0 63bd 47b5 66bc d4e2 b7ba
00000300: 3947 1cbd 26f9 38bd f808 c5bc ba6a d43b
00000310: d7b5 bd3d 94a5 383d e724 963d 3137 52bc
00000320: 0005 f73c 46bd 893c 1757 bbbc 8814 d5bc
00000330: 13b3 88bd 65eb 0abd 040c 98bd e269 a8bc
00000340: c958 92bc 46b5 42bc 41e2 5a3d 13cc 513c
00000350: e061 c13c 6ed0 1e3d 93a9 c43b d367 823d
00000360: 2599 093d b3f6 88bb eb4d 1abd 6729 77bd
00000370: 62e9 32bd 7494 d73b 79a4 183d b5e6 8ebd
00000380: 7325 13bd 3ac4 a9bb 7f82 053d c259 63bd
00000390: 3934 5c3b 3657 463d 89a0 7abd 1ca8 9abd
000003a0: d51b 603d ea9d 313d 094a 1bbd bab1 47bb
000003b0: 5f04 673c c935 1b3d ad01 813d fbbe 713d
000003c0: 9135 06bd c3f1 8ebd a585 f23c 73c0 87bd
000003d0: 9617 2dbd b099 a7bc a86d 3abc b0f1 b43c
000003e0: ae06 973c 35a7 78bd f944 b9bc cecb 9abb
000003f0: 5142 c63c 201f 1eba 75be f0bc d2fe efbc
