saved/almgren_NAISnet_ReLU/model.pth (torch, 816455 bytes, 15 tensors)

Y_net.hidden_layers.0.weight f4 [256, 4]
00000000: 0e5d cd3e cf1c c8be eeb6 8bbe 9584 41bc
00000010: cf70 7bbe f0b7 4cbe a089 293d 1313 8c3e
00000020: 9f9b 153f fb1f cdbd 165f 8d3e 52d5 963e
00000030: 4c0d 10bf d455 f7bd b9f8 41be 2354 adbe
00000040: aa0b 1e3f c22d 4c3e f75a 603e df87 edbe
00000050: bf2d 733e e136 843e 307d c3be 78ec 163e
00000060: cc60 dc3c d46b 073f 2479 b7bd 44a7 d2be
00000070: 273f ea3d 685c c93d cfa7 50be 0a8f b53e
00000080: 655b a43e 040f cdbd bf92 a5be 931f 923e
00000090: 68ca ab3e 2d3e 59be 5dd1 383d f0b2 b5bd
000000a0: 98a8 0a3f 1c0f 1b3e 1708 28be a7af a63e
000000b0: 03cb adbe 2ed9 043f f0f7 553d 4fb6 5abe
000000c0: 9d2e a93e a44c c13d fe46 69bc 596e 0bbe
000000d0: 0995 a73e 7bba 533e 33ae d3be 0c10 663e
000000e0: 55a5 0e3e 04bd 583e c44d ca3d 9a3d 01bf
000000f0: e266 5cbe e055 85be 66fb 13bd 2f1e a03e
00000100: 569b a1be 1781 00be 0a46 8fbe 8011 96be
00000110: b118 593e 2fc1 f0bd c721 d23d 8bb9 1c3e
00000120: 2c71 09bf 933b cbbd 8c04 41bb f116 c03d
00000130: b8a4 31bf b039 e7bd e4e3 29bc b915 6bbd
00000140: 44ad a1be 5f2d 34be 65e9 12bd 139e 52be
00000150: 99bd 7dbe fcf2 fdbe e34f 15be 845f d83e
00000160: 2051 0a3f b04a 5abe 3591 303e a54a 353d
00000170: 547e b03d 74d8 113e ebb1 3c3e aaec 91be
00000180: f161 31be adbc 98be b60b 43bd a590 20be
00000190: 8904 d23d 31d4 30be 556d 8c3d 769c e33e
000001a0: 02a1 09bc dad9 fe3e dfb9 ff3c 1fe5 8abe
000001b0: dec6 83be 8b75 5e3e 5eb9 21be 794d f3bd
000001c0: 23fa 8a3e 27a0 fc3e 814f c73e 7c83 93be
000001d0: fe6b 49be a94b 44be a3b9 8c3e d832 abbe
000001e0: 87a7 b03e a1f4 a1be 3f64 733d 6a52 f13d
000001f0: db2c 763e daae 0ebe b9a4 6b3b ae56 aa3e
00000200: c74a 823e d72c a1be 936c 8f3e 5907 9dbe
00000210: aa1c ecbe a62e 9fbe 5939 cebe 3c30 cdbe
00000220: f44b 79bd 7caa d13d 6812 a0bd 91e5 91be
00000230: b193 f23e 106f cdbe 754c 2b3e fe9f c5be
00000240: 6b33 f7be 4aa3 9e3e 8fd1 8b3d 9428 88be
00000250: 71de 9c3e a6f5 fabe a7f3 afbe 9bb9 ff3e
00000260: 195d e4be 8a7a f03d 4916 b03d 34fd 40be
00000270: cb1a 533e f577 b2be 89b9 753c 5e32 d13e
00000280: 3bb8 253f 5eb4 db3e 6375 3f3d f644 4c3e
00000290: b10f f83e f9e2 db3e 6876 d63c 92d1 9fbc
000002a0: 0b9a 953e c8de 893e 6d4e 8fbe f4c0 2bbe
000002b0: f68b 193f 0731 cf3e 201b abbd f8f0 ccbd
000002c0: bb1d a7be 9444 d03d 73b3 9cbe 34f3 adbe
000002d0: 3488 c6bd 1098 ebbe 5216 983d dfc4 0bbe
000002e0: 671a 833e fd45 f93e affe 9fbd 9ef2 6e3e
000002f0: 6487 c73d 1768 f7bd a6d8 80bd c1a0 983e
00000300: 617d fe3e d18b 4dbe cc68 82be 1787 ab3e
00000310: cb9f b03e 5abf afbe 89ba 2d3e 84ff 47bd
00000320: 8e37 dfbe a1c8 a53e ace2 c43e d528 303e
00000330: 64ba f63e be0b 1abd 1d5c ae3e 9e75 f4be
00000340: 231a 0a3d a01d 5b3e 173b 443e 4e40 d73e
00000350: 2023 f43e aa17 85be 95e7 153e 0e01 f9bc
00000360: 3dbb 1f3f 4ee5 efbe e85c bfbe db9e c93e
00000370: e7ee cc3e f49f e23e 16c2 afbe 153f 503e
00000380: 6111 bfbd 471e ef3e bdd5 a7be 6776 0abf
00000390: 09e6 b1be bcfb 043e 69f9 013b addb 0c3e
000003a0: 7b25 393e ea8e 93be c50c 513e c6bf 023f
000003b0: 8cf4 e4bd 37ff ac3e 2515 853e 8cb7 77be
000003c0: b1d9 08bf 40f2 0f3d 41cb 52be 9955 953e
000003d0: be9d 07be 61a0 d43d 0b79 c9bd e405 5b3e
000003e0: b879 3d3e d59b cd3e 4390 b33e c0c6 113e
000003f0: 92bf 3fbd e005 1c3e 5762 cb3d 16a9 79be
0.40110058 -0.3908448 -0.27288002 -0.011811395 -0.24554752 -0.19992042 0.041391015 0.27358302
0.58440584 -0.100158654 0.27611607 0.29459625 -0.5627029 -0.12076917 -0.18942536 -0.33853254
0.6173655 0.1993933 0.219097 -0.46392724 0.2374792 0.2582312 -0.38181448 0.14738643
0.026901625 0.5289891 -0.089586526 -0.4114324 0.114378266 0.09832078 -0.20376514 0.35460693
0.32100978 -0.1001263 -0.3233852 0.28539714 0.3355286 -0.21215124 0.04512154 -0.0887202
0.54163504 0.15142483 -0.16409336 0.32555887 -0.33943948 0.5189389 0.052238405 -0.21358608
0.33043376 0.09438446 -0.014238117 -0.13616313 0.32730892 0.20676605 -0.4134384 0.22467059
0.13930257 0.21165854 0.09878114 -0.5048462 -0.21523622 -0.2604208 -0.036128424 0.31273028
-0.31563824 -0.12549244 -0.27983123 -0.29310226 0.21200825 -0.11755597 0.10260349 0.15305154
-0.5368831 -0.09923472 -0.0029452173 0.09379376 -0.69391966 -0.112903 -0.010369275 -0.057393763
-0.31577504 -0.17595433 -0.035867114 -0.20568113 -0.24779357 -0.49599445 -0.14581256 0.42260373
0.54030037 -0.21317554 0.17242892 0.04426064 0.08617845 0.14242727 0.18427245 -0.28500873
-0.17322518 -0.29831448 -0.04761859 -0.15680178 0.10254771 -0.17268445 0.06856791 0.44455308
-0.008400204 0.49775583 0.03121656 -0.2712793 -0.2573766 0.21724527 -0.15793368 -0.11880011
0.27143964 0.49340937 0.38927844 -0.28811252 -0.19670102 -0.19169487 0.2748538 -0.33437228
0.34502813 -0.3163195 0.059421774 0.11783297 0.24040549 -0.13933888 0.0035956337 0.33269256
0.25447676 -0.31479523 0.28012523 -0.30669668 -0.4611562 -0.31090277 -0.40278128 -0.40075862
-0.06086345 0.102375954 -0.07816011 -0.28495458 0.47378305 -0.40123796 0.16728385 -0.38598627
-0.48281416 0.30983955 0.068270795 -0.2659346 0.3063846 -0.4901554 -0.3436558 0.49946293
-0.44602278 0.117421225 0.085980006 -0.1884659 0.2061569 -0.34857145 0.014997848 0.4085874
0.6473424 0.42911047 0.046742808 0.19948182 0.48449472 0.42946604 0.026179507 -0.01950911
0.29219088 0.2692778 -0.27989522 -0.16772825 0.5997919 0.40467092 -0.08354783 -0.10006899
-0.3263987 0.1016933 -0.3060566 -0.33974612 -0.096939474 -0.46014452 0.07426132 -0.13649319
0.2560608 0.4868621 -0.07812249 0.23334739 0.097426206 -0.120804004 -0.062913224 0.29810145
0.49705032 -0.20072867 -0.2547058 0.33501503 0.34496912 -0.34325677 0.16965689 -0.048827663
-0.43597072 0.3237963 0.38454187 0.17203076 0.4818908 -0.037608854 0.34054652 -0.47745985
0.033716332 0.2139802 0.19163166 0.42041248 0.47683048 -0.25994617 0.14639123 -0.03039601
0.6239508 -0.46854633 -0.3737557 0.3937901 0.40026018 0.4426266 -0.34327763 0.20336564
-0.09329487 0.46702787 -0.32780257 -0.5408692 -0.34745815 0.12986654 0.0019832498 0.13755675
0.18080704 -0.28819972 0.20415027 0.51073873 -0.11179456 0.33788463 0.25992694 -0.24191111
-0.5345717 0.035143137 -0.20585348 0.29166868 -0.13243768 0.10382152 -0.0983754 0.21388966
0.18503463 0.40157953 0.35071 0.14235973 -0.046813555 0.15236616 0.09930866 -0.24380907

Y_net.hidden_layers.0.bias f4 [256]
00000000: 4469 f0be 53b6 01bf 75b4 6fbe a286 b2be
00000010: 6396 ecbe 4f43 a03e 337b 833e d2ef b4be
00000020: 9d52 efbd 1ba6 a2be fcba 88be c62b 5d3e
00000030: efaa 01bf 76e5 d8be 55fe c4bd b000 23bf
00000040: 6a9b e13e 8bf1 0c3f 9ae9 893e bec8 e5be
00000050: ef03 a8be ec35 7dbe 73e1 dfbe 3933 c83e
00000060: eef2 543e b5d2 d5be 63dc b5be eb4f 2abd
00000070: 66f8 31bc 6c79 6dbe b5bc aabe 09b9 91be
00000080: 1369 2b3e e2c8 07be a012 f53e 448a 393c
00000090: 22cd 7f3e 862d f53d ddf4 1d3e 2c67 d8bd
000000a0: f1ca b2be e58b a7be 4e57 d33d 700e 0cbf
000000b0: 12a9 33bd 430d f03e 069a d9be 19c7 ec3e
000000c0: 1859 cbbe 48e7 49be c0fb d8be 72b7 5b3e
000000d0: 9edf 4abe 1ef8 1cbe 1d8c 66be 529b 623e
000000e0: 51ac b83e 6b59 0e3f 417c fe3e 6ade 61be
000000f0: 403b 0b3e 5714 283f aac3 e9be ef0e 9cbe
00000100: 4782 073f f44d 05bf e6b8 b3be 28bb adbe
00000110: 07ea afbe 6cd1 003f 6f10 0c3f 1415 933e
00000120: aabd acbd 8fb2 093f 6c57 dcbe d133 9d3e
00000130: 0503 fa3e ec8c ad3b 6480 20be 1ced 3c3d
00000140: 1c57 003f 970e aa3e c6fc cb3d 5b6a cebe
00000150: 2266 b0be 0654 bfbd 6ad0 c03d 2c9e 15bc
00000160: 10c5 cb3e 2f44 adbd c92d 8a3e 1b6e 993e
00000170: 8bf3 cc3e 0a5b 823e cdc0 94be f13d 7ebe
00000180: 4174 08bf 9a99 f8be 48bd 533e 5eef c63e
00000190: 6df1 1f3f dcf3 203e a191 8fbe 9142 a2bd
000001a0: 05e0 fc3e 2728 b13e 098c 003f 385d aabe
000001b0: cbc4 e1be 8306 99be bdeb cf3e 02a7 e0be
000001c0: 6ec4 03bf 42ea 29be 3dce 653e c1db 003f
000001d0: 47fb 8ebc f8ea a83e 9bd3 c03e 5afe f43e
000001e0: 4c0a 0b3f 348b 1a3f d374 fa3e e630 903e
000001f0: cc2b 843e 671e 4a3e 4071 1b3e 084b 63be
00000200: 009f b9be 8b21 fe3e b945 cf3e 1c2a bfbc
00000210: 1d43 96be 3f2f babd 5155 053f d2ee c8be
00000220: f74f 9cbe 4343 683e 2d49 9c3e 7b87 e03e
00000230: 2b1f a03e bfda 153f 4382 4fbe 6579 d93d
00000240: aaef 4abd 0511 67be 18e3 ffbd b4e5 c83d
00000250: 2b06 0d3f 3c35 ffbe 5a68 85be 239c 003f
00000260: 657c fdbe 1a35 d3bc 9a67 8dbe 73ce d8be
00000270: e035 993e 256b c1ba 670a 7bbe 8c01 ef3e
00000280: a77c eb3d 7675 0c3e 692f 3b3e 7113 273f
00000290: 4d55 b0be 2c5e d33e ef69 d3be 6709 b83e
000002a0: e20b 9abe dea8 4e3e c141 56be e94f 363c
000002b0: 6e01 b63d 9c48 1bbf ce85 ebbe 036b 20bf
000002c0: caa9 bdbd 23a7 073f a0b0 c8be b2cf 9ebe
000002d0: d130 833d a341 11bf 3b8d bb3e c4bb 073f
000002e0: 853a f7be 0a8b f83e ad36 65be f342 c43e
000002f0: d76f cc3e 8b62 a03e ae89 1cbe 21c6 c23e
00000300: 13b5 debe 4279 7abe 6bf3 eb3e e120 0ebf
00000310: 4947 9fbe d743 7f3e 945b 833e bd6d 893e
00000320: adaf a7be 59fb 1cbe 804f eb3e 1666 a0be
00000330: be19 213d 4874 153f 0b61 ba3c 600c ccbe
00000340: 31b9 8f3e b764 9abe c00c 293e 0123 15bf
00000350: 1adf c03e 828d b33d e4a7 98be 1ff0 f33c
00000360: 77e5 acbe 65bc 1f3f d8bf acbe e502 bbbe
00000370: f6c1 fcbe be9e 893e 58cb 03bf ee14 f3b5
00000380: a615 0c3f 84fd 9ebe ebd4 803d 630c a6bd
00000390: 5e78 e9be 151b afbd 486f f5be cdd9 f8be
000003a0: bc1c bc3e c0c1 05bf b2b7 873e 50be 993e
000003b0: 2c3b 63bc 69ce 20bf 5649 f6be 15f8 b83e
000003c0: 9c40 47be b3b1 42be cad7 10bf 8f04 2d3e
000003d0: db6a 64be ad37 c13e 5227 d63e 5883 7cbd
000003e0: eba7 9abe 512b f63e cdb4 e7be 3bd8 343e
000003f0: 0895 8abe 0d25 c53b add1 d9be a425 8f3e
-0.4695531 -0.5066883 -0.23408683 -0.34868342 -0.46208486 0.31301352 0.2567993 -0.35339218
-0.11685679 -0.31767353 -0.26705158 0.2159873 -0.5065145 -0.42362565 -0.096188225 -0.63672924
0.44063884 0.55056065 0.26936036 -0.44879717 -0.328155 -0.24727601 -0.43726692 0.3910158
0.20795795 -0.4176232 -0.35519704 -0.041580122 -0.010862445 -0.2319085 -0.33347097 -0.28461483
0.16739301 -0.13260224 0.47865772 0.011324469 0.24980596 0.119715735 0.15425439 -0.105665535
-0.34920457 -0.3272392 0.103193864 -0.5470953 -0.04386241 0.46885118 -0.42500323 0.4624565
-0.3971641 -0.19717133 -0.4237957 0.21456698 -0.19811866 -0.15329024 -0.22514386 0.22129562
0.36068967 0.5560519 0.49704173 -0.220575 0.13596821 0.65656036 -0.45657092 -0.30480143
0.5293316 -0.5207207 -0.35102004 -0.3393185 -0.34358236 0.5031955 0.54712576 0.2872702
-0.08434613 0.53788084 -0.43035448 0.30703595 0.4883043 0.00529634 -0.15673977 0.046124563
0.5013292 0.33214256 0.09960322 -0.40315518 -0.3445292 -0.09342198 0.09414752 -0.009131949
0.39798784 -0.084602706 0.26988056 0.29966816 0.4002956 0.25460082 -0.29053345 -0.24828316
-0.5330239 -0.4855469 0.20677674 0.38854498 0.6247776 0.15718025 -0.28040794 -0.07922853
0.49389663 0.34600946 0.50213677 -0.33274245 -0.44095454 -0.2988778 0.40609542 -0.43877417
-0.514716 -0.16593269 0.22441955 0.5033532 -0.017453803 0.32991767 0.37661442 0.47850305
0.54312587 0.6036866 0.48917255 0.28162307 0.25814664 0.1973816 0.1517992 -0.22196591
-0.3625412 0.49634966 0.40482882 -0.023335509 -0.29348078 -0.09091043 0.5208331 -0.39244705
-0.30529758 0.22681908 0.3052458 0.43853363 0.3127378 0.58536905 -0.20264535 0.10618857
-0.049544968 -0.22565086 -0.124944866 0.098094374 0.55087537 -0.49845302 -0.26056176 0.50238246
-0.49508968 -0.025782157 -0.27618104 -0.42345008 0.29923916 -0.0014756663 -0.24515687 0.46680868
0.11498385 0.13716683 0.18279804 0.6526404 -0.3444008 0.41282785 -0.41291758 0.35944673
-0.3008719 0.20181605 -0.2092352 0.0111274505 0.088869914 -0.6065767 -0.46000522 -0.62663287
-0.092609 0.52989405 -0.39197254 -0.31017834 0.06405795 -0.5674078 0.36631188 0.5302088
-0.48286834 0.48543578 -0.22384138 0.38332328 0.39929077 0.31325182 -0.15286896 0.38041785
-0.43497524 -0.24460319 0.4608415 -0.5551892 -0.31109074 0.24928223 0.25655806 0.26841536
-0.32751217 -0.15330257 0.4595909 -0.31327885 0.03933119 0.58380556 0.022751352 -0.3985319
0.28070977 -0.30154964 0.1650877 -0.58256537 0.37670213 0.08767225 -0.2981559 0.029777585
-0.33768818 0.6239684 -0.33740115 -0.36525646 -0.4936673 0.26878923 -0.5148215 -1.8111002e-06
0.5472053 -0.31052792 0.06290611 -0.08107831 -0.45599645 -0.08550087 -0.47936463 -0.4860367
0.36740673 -0.52248764 0.26507336 0.3002801 -0.013869088 -0.62814957 -0.48102826 0.36126772
-0.1945824 -0.190131 -0.5657927 0.1689627 -0.22306387 0.3773779 0.41826874 -0.061648697
-0.30206236 0.48079923 -0.45255128 0.1766061 -0.27066827 0.0060163797 -0.42542782 0.27958405

Y_net.hidden_layers.1.weight f4 [256, 256]
00000000: ed72 e03c be3d a6bd a1ce e7bd 8c03 37bd
00000010: 55c3 9abd b1a0 753d 66ab e63d 728c cb3c
00000020: 8c12 d5bd f0d5 64bd 9362 89bd 336b 573d
00000030: 261a 79bd 378a 1f3d b314 de3b 83bc 4abe
00000040: f2d7 213c 3517 d4bc 085e cd3c a687 f13d
00000050: 3db6 8f3d b4e6 833d 8634 47bd 02f8 8c3d
00000060: ecbe 233d 7972 65bc db46 29bd 269f 043d
00000070: c50a 00bd e366 523d 6457 22bd bd1f 0cbd
00000080: 4499 9a3c 04c8 893d 235e 8e3d 1bf6 e2bc
00000090: f151 413e 55a0 093d 0809 79bc 4fd3 febc
000000a0: cd4e 9cbd e9b9 70bd cae9 74bc 1411 d7bd
000000b0: db13 33bb 1dcb d23d d5fe 223c a642 a1bc
000000c0: d92b 39be 24c7 a8bd 1ba2 cb3c 90e8 283d
000000d0: a14f 4fbd 083d 22be e14f 97bc bde7 9e3c
000000e0: 8e4a 893d e23b f83d ce98 2dbd e4a0 583d
000000f0: eeb8 36bc 66f0 003e 52a5 063d 49ea 073c
00000100: ae3d 733d 2f3a 073d 680d 7abc 7951 ecbd
00000110: 6703 ccbd dc9f cd3c 3250 bd3d e28c b43d
00000120: 9b4d 0fbd c69a be3b d097 28be d9a6 433b
00000130: 6612 0d3e efdf 4dbc fa3c 91bd 5c53 4d3c
00000140: 83dd 7d3d 08c9 573c 5445 d0bd 29c6 2bbd
00000150: 5f44 85bd 105a e2bd 204a 2cbd a2dd c73d
00000160: a018 06bd 0ac4 833c c4a8 4d3c 08d6 473c
00000170: 1f9c 9d3c fbd5 f53d c299 463d 4434 04bd
00000180: 10ad 38bd 1976 44bc c678 963d ee50 173e
00000190: 1deb e73d fab6 db3c d4e6 d9bd 6233 013d
000001a0: 6d9a 673e 97f3 ad3d 50ab 703d 2c80 cbbd
000001b0: 1e66 213c 3fe8 b6ba 4b13 fabc 0762 bcbd
000001c0: 87a4 1fbd 878d 3ebe f633 723d 7470 893e
000001d0: 7624 6a3d 4f5e 60bd 5176 b1bc caef c43c
000001e0: c63b d53d ad37 833e 6a3c 813d 31ee e5bc
000001f0: bf96 0c3e 9436 f03c 3b68 b03d 1828 26bc
00000200: 7685 f3bc 86c1 c43d ee2d ccbc 5eb0 3f3d
00000210: 083b d13d 71dd bd3c 974d 213e 4f6a 20be
00000220: 839f 1d3c 4170 093d 5f12 d8bc 63e8 2e3d
00000230: ab88 ccbb 0f97 f13c e8f6 3abd 79f5 22bd
00000240: 60f2 533d bc97 3f3d 8071 a13c af23 353d
00000250: 9868 b93d 0ec4 fbbc fee7 ccbd 51ec 203e
00000260: 841d 27bd 0a4b 82bd 2cac 3cbd 9f7b 3ebd
00000270: 2320 b43e 34b7 88bd 409e 533b 28ac 013e
00000280: 4b05 82bd c488 9abc 7020 40bd b171 9c3d
00000290: 8d61 063d 00cd 3f3d db37 02be e1b1 21bc
000002a0: 7f11 573c d67b c63c f689 85bc 47c6 0b3d
000002b0: 0774 0bbe 47db cabd 8346 16be 3393 173e
000002c0: 1583 dbbd 401d 3abc 28bb 8c3d 7a4b 92bd
000002d0: 7cd3 9f3d 76b2 a3bc 75ab 5a3d 50c0 253e
000002e0: 2833 d8bd 4742 883c f100 303c b89c 493d
000002f0: b2c5 443d 043c af3d b2af 81ba 9982 943a
00000300: e898 b3bd ca69 f6bc 58b8 66bd 0aea 1dbd
00000310: 6b09 043d 6c6c 843d 2a23 433d a8da b3ba
00000320: de64 8ebd 436a 0bbc 5aa9 013d a03b 58bc
00000330: 6289 453c 7c31 d53d 5e5a a43c ffe1 033d
00000340: 1e7a 3e3d e763 95bc 0632 573c ecb8 62bd
00000350: 068b 033d 9d1a a73d 5c19 1eba 8925 313d
00000360: da34 7c3d 5d81 153e f8f8 bcbd c8f0 62bd
00000370: cc33 033d 869a 88bd 0cca ccbd 7dde 01bc
00000380: bad1 993d 6157 b3bd 15ea 813d a75a 7cbc
00000390: 023d acbb 3d53 4d3d 46c8 c93b 472d 55bc
000003a0: 9e6f fd3d 99b0 3c3d 4900 ed3c 5768 c53d
000003b0: 8713 23bd 2a4e 5c3c 3470 68bd 34bc d43d
000003c0: 6f14 82bd c6a9 92bd 2a21 eebd 618b 2bbd
000003d0: 4381 5d3d 4e3f b23c 0907 013e 1661 8fbd
000003e0: 8d2e f53a 1c98 4d3d f546 d9bd 2750 483c
000003f0: 4d8a 87bc 5400 01bc d227 613c 1da2 533d
0.02739855 -0.08117245 -0.11318708 -0.044681117 -0.07556788 0.0599677 0.112631604 0.024847243
-0.10403928 -0.05586809 -0.06708255 0.052592468 -0.060815953 0.03895017 0.00677737 -0.19798474
0.0098781455 -0.025889972 0.025069252 0.11793451 0.07017181 0.064404875 -0.048634075 0.06883241
0.039977 -0.014004343 -0.04132734 0.03237834 -0.03126027 0.05136765 -0.039634123 -0.034209955
0.01887191 0.06727603 0.06951549 -0.027705243 0.18878914 0.03360017 -0.015199907 -0.03110662
-0.076322176 -0.058771048 -0.014948318 -0.10501304 -0.0027325067 0.10292647 0.009948452 -0.0196851
-0.18083133 -0.08241108 0.024857571 0.041237414 -0.05061305 -0.15843594 -0.018470706 0.01939761
0.06703673 0.12120797 -0.042382054 0.052887812 -0.011152489 0.12591705 0.032872505 0.008295604
0.059384994 0.033014473 -0.015261985 -0.11538977 -0.099615864 0.025100641 0.09243812 0.08815934
-0.03498612 0.0058167903 -0.16464162 0.0029854088 0.1377655 -0.012565597 -0.070917085 0.012532081
0.06197883 0.013170488 -0.10169473 -0.041937027 -0.065071814 -0.11052334 -0.04206288 0.0975907
-0.032738328 0.01608469 0.012552444 0.012197025 0.019239483 0.12003704 0.04848648 -0.032276407
-0.04508692 -0.011991047 0.073472545 0.14776966 0.11324141 0.026820648 -0.1063973 0.031543143
0.22617503 0.08493727 0.058757126 -0.09936556 0.009851007 -0.0013954713 -0.030526778 -0.09198385
-0.038975265 -0.18608676 0.059131585 0.26843607 0.057163678 -0.05477744 -0.021662863 0.024040122
0.104117915 0.25628415 0.06310351 -0.02806768 0.1372938 0.0293229 0.086136304 -0.010141395
-0.029726725 0.09607224 -0.024924245 0.046799056 0.102163374 0.02317688 0.15752254 -0.15665554
0.00962055 0.03355432 -0.026375948 0.04270209 -0.006241878 0.029490976 -0.045645624 -0.039784882
0.05174482 0.046775565 0.019707441 0.044223484 0.09053153 -0.030733135 -0.100051865 0.15715148
-0.040799633 -0.06361969 -0.046062633 -0.046504613 0.35180768 -0.06675568 0.003229037 0.12663329
-0.06348666 -0.018864043 -0.046905935 0.076388724 0.032807875 0.046826363 -0.1271662 -0.00986907
0.01312673 0.024228971 -0.016301136 0.03412464 -0.1361848 -0.09905105 -0.14675336 0.14802246
-0.10718361 -0.011359513 0.06871635 -0.07143302 0.07804009 -0.019982558 0.05338617 0.16186643
-0.10556632 0.016633166 0.010742412 0.049221724 0.0480401 0.08556369 -0.000989428 0.0011330425
-0.08769399 -0.030079741 -0.056328148 -0.038553275 0.032235544 0.06465992 0.047640957 -0.0013721781
-0.06952833 -0.0085092215 0.031655647 -0.013197809 0.01205668 0.10409829 0.020062622 0.03219795
0.04650318 -0.018236114 0.013134485 -0.055352136 0.032115005 0.08159373 -0.00060310005 0.043248687
0.06157384 0.1460013 -0.092271745 -0.05540541 0.03203182 -0.06670098 -0.09999475 -0.0079265805
0.07510705 -0.087569006 0.06343476 -0.015402473 -0.005256296 0.05012821 0.0061579077 -0.013011283
0.12374805 0.046066854 0.0289308 0.09639042 -0.039813545 0.01344637 -0.05674763 0.103874594
-0.06351554 -0.07161288 -0.11627419 -0.04188097 0.05407835 0.021758702 0.1260034 -0.070009395
0.001870589 0.05019389 -0.10609237 0.012226141 -0.01654544 -0.007873613 0.013742404 0.051668275

Y_net.hidden_layers.1.bias f4 [256]
00000000: d396 4c3d d017 a3bc a3bc ec3c 6e33 243e
00000010: a26c f8bc f95c 80bd 7bde 00be 73fa 82bd
00000020: e80f 1c3e 34a2 1d3c 3dbe 183c bc24 67bd
00000030: db2a 143c 9229 773d dfa4 33bc 3347 8ebd
00000040: d64a 0fbe 8907 cabb d498 1dbe 00cf 49be
00000050: 0db4 16be d183 1ebe dc37 1cbd a263 31bd
00000060: 0671 84be 5088 0fbe b2f5 293d 677a 8abd
00000070: 9092 523d cbfe a9bd f6b1 d4bb e869 cfbd
00000080: ddc7 cab9 cc87 c0bb ccd4 47be 097f c33c
00000090: cb07 8c3a e2da a73d 8769 15be 9c2a f8bd
000000a0: 7ca8 0e3d e051 5fbd 61f2 953d 56ad dd3c
000000b0: e11b c1bc 0215 96bd 691b 283c 5c05 19bd
000000c0: 1233 133e 7dc8 033c 7247 54bd 99a4 283e
000000d0: ce0e 4f3d de76 583e 117b 3c3e 41a3 bcbc
000000e0: 2f46 96bd 6d9f 34bc bda7 dfbc daa6 b53d
000000f0: 7042 c13d eb67 f63c d008 cb3d 12f2 99bd
00000100: bf6c 52bd 3ea5 c03d 1424 99bd 07cb 74bd
00000110: 109d 383d b989 dfbc 7d7e 8bbd 8339 a7bd
00000120: 082b 87bc f4e1 a73d 7a9e 643e 324d cebc
00000130: ee44 0cbd 5a4b 203d 86fe 2abe 8492 f33b
00000140: 35ae 6bbd 45ae 6dbd dfba 9ebd 2a3c 963d
00000150: 65cb 32be 217a e53d 83ce d13d 737f d5bd
00000160: 6eba 2f3c e5a5 f2bd 6ee9 443c 6e9f 673d
00000170: 012f bbba 9b49 143d 52f4 de3c db2e ff3d
00000180: 45c9 e5bd b45c 233d 159c b5bd d8e5 0ebe
00000190: 6870 793c 9d2c 79bd 5c69 21be 09ea 933d
000001a0: 9b3b 5abd 306d 31be fa87 82bd be82 2e3e
000001b0: c700 c2bd 5498 cfbd 505f 813c 9c3a d93d
000001c0: 1e35 913d 692e 363d d615 abbd 1d72 29be
000001d0: a1fa 3bbe 7f32 fabc 1d26 3d3d 5e7f 25be
000001e0: df9e 1abe 5243 4ebe 3bea 96bd 114a 2abe
000001f0: f3fd 05be 638c 75bc c966 9c3d b111 0e3e
00000200: 5e56 adbd e52c 9a3d 93ab 09bd da1b 783d
00000210: 7903 4cbd 770e 2f3e 00cf 00be 3a6e 763d
00000220: 492e c03d 2588 0fbe ae28 4dbd c5d4 b8bd
00000230: 536d 903c 8868 423c 49fc b33d 3d66 a63d
00000240: 6993 19be 6b99 babc ef29 f0bd 9969 a2bd
00000250: 39b7 eebc 250a 123e 5d5d 013e 2eaa 09be
00000260: 7fd3 cb3d 4070 f83a d3dd 1abe 3e75 82bc
00000270: 267b edbd f954 debc 8abe 8c3d a7bd 953d
00000280: 3931 843c eacf f2bc e251 24be 2d36 63bd
00000290: 9d80 e23d 7b87 96bd 696c 703e dec8 cc3d
000002a0: ca4f 70be 250c afbc a65a 96bd 2ace 3d3c
000002b0: e054 383e 35f9 e73d 607c c63d 3254 f8bd
000002c0: 58dc 343d b4a5 153d 7f3b 82bd 0540 b6bd
000002d0: a458 d8bd 5ca9 913d 0f59 21be 7fda 6b3d
000002e0: b6d5 5a3d 4cd3 cdbd d523 13bd c443 24bd
000002f0: 5e99 b1bd c2be 14be 0bd7 c7bd f278 01be
00000300: a97f 303e 8444 203e b51b 61bc c356 cdba
00000310: 4133 44bd 1445 633d 387d 26be 48f6 50bd
00000320: 1d4e a6bd 327a f7bd a281 2cbd 0e69 253d
00000330: c721 97bc f213 0abe 4076 cebd 566a cdbd
00000340: 7715 65bd ad27 233e 0d5e 103d a646 833d
00000350: 38e6 83bd 49fa f4bd 04c5 9abd 288b 17bd
00000360: 7b94 d4bc 270f eabd 64f2 12bd 0747 ea3d
00000370: b8f2 edbd 548c 66bb 527d 95bc e04d 883d
00000380: b119 d2bd 314e ff3d caa0 8abd a193 e43d
00000390: 4770 d13d b296 9dbd 4b5c 953d e14b 18be
000003a0: 52ef e4bd b634 35bd 9761 1bbd 36b7 06be
000003b0: 8e00 33bd f64c 1d3e 0401 8b3d a933 5d3b
000003c0: af39 c03d f8f1 313e 6156 823d e764 22be
000003d0: 7f0f ebbd b2e9 053e c468 5cbd a3b7 2a3e
000003e0: 2a02 813d 6c1d 4ebd 82df 043c 875e d2bd
000003f0: 0e1f a6bd e0b9 103e 6ef3 8c3d bf5e d63b
0.049948525 -0.019908816 0.028898543 0.16035244 -0.030325238 -0.06267733 -0.1258487 -0.06395426
0.15240443 0.009621192 0.0093227 -0.056431517 0.009043421 0.06034238 -0.010964601 -0.06947174
-0.13993391 -0.006165449 -0.1539033 -0.1970787 -0.14717121 -0.15479971 -0.03813921 -0.043307908
-0.2586748 -0.14016843 0.04149408 -0.06761628 0.051409304 -0.08300551 -0.006490941 -0.10127622
-0.00038677352 -0.0058755632 -0.1951477 0.023864286 0.0010683475 0.081960455 -0.14591037 -0.12117502
0.034828648 -0.05452144 0.07321621 0.027060192 -0.023572864 -0.07328226 0.010260441 -0.037358627
0.1437495 0.008043406 -0.051825948 0.16469039 0.05055123 0.21139094 0.18406321 -0.023027064
-0.07337605 -0.011024338 -0.027301664 0.08869715 0.094365 0.030078849 0.0991379 -0.075168744
-0.05137324 0.094065174 -0.074775845 -0.059763934 0.04507166 -0.027287351 -0.06811235 -0.08165266
-0.016500011 0.08197394 0.22326079 -0.025183294 -0.034245424 0.03913436 -0.16698655 0.0074332375
-0.057539184 -0.058027525 -0.077504866 0.07335694 -0.17460401 0.11204935 0.10244467 -0.104247
0.010725601 -0.11848048 0.012018545 0.05654853 -0.0014280976 0.03620301 0.02721611 0.12460109
-0.1122003 0.03988333 -0.08867661 -0.13954866 0.015224554 -0.060833562 -0.15762848 0.07222373
-0.0532795 -0.17326808 -0.06373592 0.17042062 -0.094728045 -0.10136476 0.015792519 0.10606882
0.070902094 0.044477854 -0.08353774 -0.16547437 -0.18357326 -0.030541657 0.046178926 -0.16161868
-0.15099667 -0.20142868 -0.07368895 -0.16629817 -0.13085155 -0.014987084 0.07636792 0.13873936
-0.08463739 0.07528094 -0.03361089 0.060573436 -0.049808 0.17095362 -0.12578964 0.060163714
0.09383828 -0.14016779 -0.050087623 -0.090249576 0.017630255 0.0118657425 0.08788354 0.08124969
-0.14997639 -0.022778234 -0.11726748 -0.079302974 -0.029140102 0.14261682 0.12633272 -0.13443825
0.09952449 0.0018954352 -0.15123682 -0.015925046 -0.11595754 -0.027140127 0.0687228 0.07311564
0.016136752 -0.029640157 -0.16046861 -0.055471588 0.11059687 -0.073500596 0.23478855 0.0999925
-0.23467937 -0.021368096 -0.073415086 0.011584798 0.18001127 0.11326829 0.096916914 -0.12125434
0.04415545 0.03653498 -0.06359004 -0.088989295 -0.10563782 0.07112381 -0.1575663 0.05758142
0.053426467 -0.10050067 -0.035922844 -0.04010369 -0.086718306 -0.14525893 -0.09757813 -0.12643793
0.17236198 0.15651137 -0.013739516 -0.0015666116 -0.047900442 0.0554858 -0.16258705 -0.051016122
-0.08120368 -0.12083854 -0.042115815 0.04038339 -0.018448723 -0.13484171 -0.10081148 -0.100300476
-0.055928674 0.15933104 0.035245944 0.064099595 -0.06440395 -0.119618006 -0.07557109 -0.036997944
-0.025949707 -0.11428671 -0.035875693 0.11439329 -0.116185606 -0.0035178857 -0.018248234 0.066554785
-0.102588065 0.12466086 -0.06768949 0.111609705 0.10226493 -0.076947585 0.07292994 -0.14872696
-0.11178459 -0.044239722 -0.037934866 -0.13155827 -0.0437017 0.1536139 0.06787303 0.0033752716
0.09386002 0.1737746 0.06364132 -0.15858804 -0.11477565 0.13077429 -0.05381085 0.16671614
0.06299241 -0.050321028 0.008109929 -0.10271936 -0.08111392 0.14133406 0.06882368 0.0065420563

Y_net.hidden_layers.2.weight f4 [256, 256]
00000000: b18d f73c b4e7 303e fa6b 6dbc a40f 1e3d
00000010: 92f1 993b 9250 10bd 080a 64bc 1cf9 e2bc
00000020: 886f 103d f4f6 cb3c 5078 a23c d1f9 f23d
00000030: bb31 e4bb fd78 c53d 5a51 233d 1bd6 5cbc
00000040: 7bb5 83bc 24bc a23d 7395 5f3d 0761 2bbd
00000050: d940 46bb 368c 3f3d 8db4 293d 54a0 88bc
00000060: a32e 813c e6cf 843d 2271 23bd f29c 11bb
00000070: c31b 38bd 418d 7fbd d3f8 8ebd b87a 883d
00000080: 9bd0 4c3b 19ca cd3d c3fc cd3c 73f0 9c3d
00000090: b2d0 453d edec 123e e681 253d 872b 7dbb
000000a0: abb8 b0bd 496e 7abd 27db b73c 2bd5 efbc
000000b0: 8305 bfbb 3a68 ddbc 853c 98bc 7688 5d3d
000000c0: 2533 a13d 0539 d73d 17b7 b5bc 9ae8 ac3d
000000d0: 2298 b23d 4073 a93d 28d5 dd3d f862 85bd
000000e0: 9615 83bc dab0 56bd 2bb8 c03d 95fa b13d
000000f0: e79a d8bd e4c1 dc3c f4f0 913d feaa 47bd
00000100: bc9f dbbd e15b 7c3a 5925 2f3d f59d ef3c
00000110: 9c40 c5bd 2ec5 3ebc 21f8 ac3b 3186 33bd
00000120: 08c3 b03d 8f8d 9f3d d55c e33d b744 113d
00000130: a209 363d 8cc1 953d bf8e 5bbd e0b7 1ebd
00000140: baef 503b f363 2ebd cbf0 e5bc 6b64 2c3d
00000150: ef59 bbbb 8840 023d 8853 483d 7a6a d53b
00000160: 9dc0 683d c060 263d 66c5 d9bc 180c 143d
00000170: ca32 b93d d215 8c3d 939c 06bd 4e4f d73d
00000180: 7829 fa3d 6202 d93d 40d0 cc3c 248b 9d3c
00000190: e332 d33d f63e cf3d 5621 9a3c e1c5 1ebb
000001a0: 332c 593d 23fb 8e3d 46d9 0bbd f4c8 5e3d
000001b0: 01e8 af3c d675 283d 0758 ac3b 9043 94bd
000001c0: 0876 bd3c 7d49 f13d c5c0 30bd d5dc 0d3e
000001d0: f97c 993d 70e8 36bd d70e 253c 9681 0bbb
000001e0: b881 81bd 7035 4a3d 7c2e 033d 0925 31bd
000001f0: 5ed3 0d3d 7562 443d 0c02 f5bc e1f9 753c
00000200: 4c91 403d 4703 013c a53b ca3d caca 843d
00000210: 7bfe d7bd 3ab9 42bd 3140 b33d d9e7 c73d
00000220: 4173 a23c f04e 00bd c054 a2bd 82b7 00bd
00000230: f999 f1bd d343 7ebc 72a9 c53d aa93 e13c
00000240: f7e1 a23d 2c87 c9bc 4743 a33c 1ec6 47bd
00000250: 48a1 323d 4a4d e33d fb18 09bc 73e3 cb3c
00000260: 26da 2a3d 107b e43b d3d9 45bc e3de 22bd
00000270: 35a0 813c eb16 7f3d ee4a f0bb 6973 223e
00000280: 25c4 993d 80fa 56bd 384d b2bb 13cb 8d3b
00000290: 7e92 013e a2c4 0d3d a9e6 013d 50f7 853d
000002a0: 79e7 76bd 9fb8 5c3a 6608 3dbc 5d83 ecbc
000002b0: 9e90 2c3c 0461 113e 6d2e f93d adad 8cbd
000002c0: 7afd 453e b72a cf3b 54c1 99bd d1cd d53c
000002d0: 3561 bb3d 872f 253d aefd 273d a229 adbd
000002e0: 3312 0b3c b5b1 9bbc 80f3 0fba d0e7 dd3b
000002f0: a904 ee3c 0b07 b0bc 16a6 453c 89f2 bb3d
00000300: a646 823d 6cad 5c3c a424 2abd 3d90 083e
00000310: ff56 b7bb 6fa7 b53d 3064 20bd 2695 cc3c
00000320: 1bf1 4dbb 78bf 0a3c 1d4a 1d3c 1a0c 243e
00000330: 59ee 973c 46b6 cbbd 75ca 40bc 75f5 163c
00000340: bf5f 5f3d 6add f73d 8faa 8a3c d6be 4b3d
00000350: 408c b03b 5cd7 213d 7651 853d a832 de3c
00000360: 58bc 823c 8b83 f43c ad2d 37ba 80ef 863c
00000370: 48c6 dfbc 6216 6f3d 768b 403d 3c26 3abd
00000380: 366a 22bc 0f2a 89bb f8bb 55bd 2019 bd3d
00000390: a681 0d3d e23b 583c 638d f73d 9c04 f83c
000003a0: 7cd9 5a3d c9a0 74bd 41db 243b f633 a63c
000003b0: 5731 c4bc 1415 203e c82e cb3d cf68 2f3d
000003c0: 6618 143b 5564 133e 19bc 6f3c 221a 853d
000003d0: 6b8a 3e3c 0174 563d e674 2ebc 51a1 c33a
000003e0: 2b03 cd3d 3cc2 44bd 3156 0cbd fd6e cf3c
000003f0: a7dc 403d ed93 9f3d ec9b 183d 9e69 2fbd
0.03021893 0.17275888 -0.014491076 0.038589135 0.004697987 -0.035233088 -0.013918407 -0.027706675
0.035262614 0.02489803 0.01983276 0.11864055 -0.006963936 0.09642217 0.039872505 -0.013478781
-0.016077748 0.07946041 0.054585885 -0.04184058 -0.0030251055 0.046764575 0.041431952 -0.016678013
0.015769308 0.06484966 -0.039902814 -0.002221879 -0.04494835 -0.06239057 -0.06981053 0.06664032
0.0031252268 0.10048313 0.02514494 0.076630495 0.04829473 0.14348193 0.040407084 -0.003863068
-0.086289726 -0.061140332 0.022443367 -0.029276451 -0.0058295145 -0.027027238 -0.018583545 0.054085217
0.07871083 0.105089225 -0.02218203 0.08442803 0.08720423 0.08273935 0.10831672 -0.065130174
-0.016001504 -0.052414753 0.09410127 0.08690373 -0.1057642 0.026947923 0.07126036 -0.048747055
-0.10723826 0.0009626728 0.042760227 0.029250124 -0.09631464 -0.011643691 0.0052786027 -0.043829147
0.08630949 0.07790672 0.11101691 0.035465922 0.04444278 0.07312307 -0.05360293 -0.038749576
0.003188117 -0.042575788 -0.02806892 0.042087954 -0.005717508 0.031799823 0.048907787 0.006512937
0.056824315 0.04061961 -0.026583385 0.036144346 0.0904289 0.068400994 -0.032864165 0.10513173
0.12214941 0.105961576 0.025001645 0.019231386 0.1031244 0.10119431 0.018814724 -0.0024226832
0.053020667 0.06981494 -0.034142755 0.054390863 0.021472933 0.041128002 0.005259517 -0.07239449
0.02312757 0.11781595 -0.04315259 0.13853772 0.0749454 -0.044655263 0.010074339 -0.0021286956
-0.0632357 0.04936737 0.032026753 -0.04324821 0.034625404 0.04794546 -0.029908203 0.015013189
0.047013566 0.007874317 0.098746575 0.064839914 -0.10546585 -0.047539927 0.08752478 0.09761018
0.019830348 -0.03132528 -0.07926321 -0.031425007 -0.11796946 -0.0155191 0.0965146 0.027536232
0.079532556 -0.024600588 0.019929541 -0.048772924 0.04361084 0.11098726 -0.008367772 0.02488873
0.04171195 0.006972678 -0.012075859 -0.039763343 0.015823463 0.062277716 -0.007333151 0.15864338
0.07508115 -0.05248499 -0.005441334 0.004327187 0.12653539 0.03461135 0.031714115 0.06541312
-0.060279343 0.00084198447 -0.011537647 -0.028871233 0.010532526 0.14197165 0.12167058 -0.068690635
0.19334975 0.0063222307 -0.075075775 0.026099117 0.091494 0.04032853 0.041013412 -0.084552065
0.008488226 -0.019005636 -0.00054913014 0.006772019 0.029054957 -0.021487733 0.012063524 0.09177119
0.06361131 0.013469081 -0.04153885 0.13336273 -0.0055950875 0.08869826 -0.039158046 0.024973463
-0.0031424228 0.008468501 0.0096001895 0.16020241 0.01854627 -0.09946875 -0.0117670195 0.009213795
0.05453467 0.12102778 0.016927032 0.049742542 0.005387813 0.039512023 0.06509678 0.027123764
0.01595895 0.02984788 -0.0006987702 0.016471624 -0.027316228 0.058370955 0.047008 -0.04544662
-0.009913018 -0.004185922 -0.052181214 0.09233308 0.03454747 0.013197871 0.12087514 0.030275635
0.053430066 -0.05972365 0.00251551 0.020288449 -0.023949308 0.1563304 0.09921032 0.042824563
0.002259755 0.14393742 0.014632248 0.06499125 0.011629681 0.052356724 -0.010647988 0.0014925395
0.1001037 -0.0480368 -0.034261886 0.025321478 0.04708543 0.077918865 0.037258074 -0.042825334

Y_net.hidden_layers.2.bias f4 [256]
00000000: 2ff4 c83d 8068 1dbd ab6a c23c 3b1b 8fbc
00000010: b520 ecbc bbc5 a1bd 94fe ffbc 77f1 0fbe
00000020: 9e58 32bd 337c a4ba c8de 8b3d 4d69 253d
00000030: 4ac5 06bd d976 803d 9ee5 38be 7577 25bd
00000040: fe89 7dbc 20e8 34be 48b2 1abe 6232 adbd
00000050: 095e 15be d2df bebd 7f6a 86bd 4f85 6a3b
00000060: 087e 33bd 440b bbbd c7f8 183d 65cb 9fbd
00000070: fd96 c13c bbe2 0e3c e9ee d53c cc3b 93bd
00000080: 6ce7 35bd 6d79 48bd 5479 29bc 5c86 71bd
00000090: 0596 0abe 77ec 04bd 1a62 4bbd 6f3e 923c
000000a0: 2648 b23d 7caf 70bd ab06 2a3d 3f48 9bbd
000000b0: 9152 823b f1dd 983c 144d d8bd f5d2 b43d
000000c0: 15b2 d2bd bb25 d7bd 0399 abbe 9fda bebd
000000d0: 2359 bfbd c0b4 ecbd cb8e ab3c 2253 103e
000000e0: 347e 4dbc c9b9 db3d 3ad8 4fbd f09b b33d
000000f0: b60c bd3d 1963 a03d 2fd9 203d 7cad 1abe
00000100: 48fd b13d c6f6 043b 3579 5b3c e5e1 b3bb
00000110: 37cb 993d 9970 0d3c 0b25 98bd f0e9 b7bd
00000120: 1e83 46bd 8a25 993c 1eee eebd c50e 76bd
00000130: 9181 2a3e 7b3f 1a3e 0724 31bd f241 53bd
00000140: ca29 3bbd 4529 e7bc 1ffd ec3c 2024 6ebd
00000150: d8d7 ffbd 332f 0dbe 8c65 f4bc 373c 69bc
00000160: 2342 87bb 90b0 48bd 4b80 a33d b320 aebb
00000170: 3377 32bd 543d 5ebd 03cc 80bd c4db e53c
00000180: 0e45 56bd e39d b5bc d54c 88bd 7d08 cabd
00000190: e7f5 6e3d e14d 2abe 37fe 44bd 6f25 d73d
000001a0: a334 86bc ab73 debc bd86 d4bd f848 64bd
000001b0: eaef acbd 4eac 1fbc 0f01 0b3e c1f7 853d
000001c0: 6441 d5bc 79e1 f4bd 37b9 afbd 560c 12bd
000001d0: 10f2 debc c112 e13c ecdf 9ebe 8248 01be
000001e0: 0633 373e e894 8c3d 7c69 44bd e791 89bd
000001f0: 63e1 64bd 37be 84bd c170 0b3e eb4d a93d
00000200: cec0 18bd 4579 e7bd d550 c6bd d4c6 03be
00000210: 6326 f83d 11d3 9ebb 6467 f1bd 4974 5fbe
00000220: fef6 ab3d 46a2 a6bd ab96 bc3d 0a0e 873d
00000230: e693 1b3e 7125 2dbd e45a e5bc fc59 c8bd
00000240: c768 cdba 3602 16be 1660 ebbd 3964 e2bd
00000250: c549 82be 33d7 9dbc 45e4 083e 5121 41bd
00000260: 3eb1 c3bd 0109 97bd 3c15 f5bd 8f8b 76bd
00000270: c94c 06be 4f53 d03c 442a 543d 2b18 86bc
00000280: 9750 a6bd 5f54 4d3b 099c 2dbd 39ab e43c
00000290: 7560 443d 4fa8 0bbe 73ed e8bd 631c bebc
000002a0: 6617 443a c513 e8bd 176d c1bd 4972 2ebe
000002b0: 532e eebc 65a5 d1bd b3a1 12bc 2de4 00be
000002c0: b844 fdbd 457c 9cbd 341d 5ebe e065 9cbe
000002d0: d4c1 bbbd a93e 7bbc d9eb 0d3d 77af 013d
000002e0: 3e3d 9bbd 05ff cbbd 777c 7cbd fb7f ae3c
000002f0: 3315 963d 0000 c1bd 5d77 a5bd 631e 45bd
00000300: 00cc 9ebd 9435 f8bd 57a9 8ebd d146 13be
00000310: ac59 dc3d 2f79 72be d368 24be 93a7 2fbe
00000320: b345 68bc 2489 c33c c023 75bd 173a 02be
00000330: c8bc a93d f321 3e3e 6fd2 37bd 979e ebbd
00000340: 9205 d8bd 6a7d 3b3c b149 e4bd 247c 76bd
00000350: 4b57 21be 7ce4 cabd e0f4 9dbd f2bf 96bd
00000360: 15f3 26be 7bec 08be 01c2 563c 5d67 1ebe
00000370: 7ef4 d8bc a3bf 54bf bdef e1bd 0e2d c4bd
00000380: 9494 86bc 6164 043e 0e84 cebd 26e3 7c3d
00000390: a8ae be3b 3fc5 8abd 7fa3 97bd 4ac3 afbd
000003a0: b80a afbd 0ff7 183d 1b32 b2bd 8d4a 97bd
000003b0: 7ab5 31bd 3c6f 31be b96e aabd 2769 73bd
000003c0: 2108 92bd dd14 86bd df4d 7cbc 5c33 ecbd
000003d0: 382b c9bc edb0 d4bd 05bd db3d 88cf 663d
000003e0: c0ce 45be e9f2 963d 73fe 42bd 51db 0ebd
000003f0: 807c d8bd 2e02 ffbd d412 783b 1de2 ec3d
0.09812199 -0.038429737 0.023732504 -0.01746904 -0.02882419 -0.07899042 -0.031249322 -0.14056955
-0.043541543 -0.0012549221 0.068296015 0.040383626 -0.032902993 0.062726684 -0.18056342 -0.040397126
-0.015474794 -0.17666674 -0.15107071 -0.084568754 -0.14586653 -0.09320034 -0.06563281 0.0035785025
-0.043821365 -0.09133008 0.037346628 -0.07802466 0.023631567 0.008721049 0.026114898 -0.0718914
-0.044410154 -0.048943926 -0.010343868 -0.058966026 -0.1353379 -0.032452073 -0.049654104 0.017852036
0.087051675 -0.058761105 0.041510265 -0.07582139 0.003977128 0.018660517 -0.105615765 0.08829299
-0.10287873 -0.105052434 -0.33515176 -0.093190424 -0.09343173 -0.11557913 0.020942112 0.14094213
-0.012542296 0.10728795 -0.05074332 0.08769977 0.0923094 0.078314014 0.039269622 -0.15105242
0.08690888 0.002028869 0.013395597 -0.005489575 0.07509463 0.008632802 -0.074289404 -0.08980167
-0.048464887 0.018694658 -0.11666511 -0.06007268 0.16650988 0.15063278 -0.04324725 -0.051576562
-0.04569415 -0.028217921 0.028929291 -0.05813992 -0.12492341 -0.13787536 -0.029833578 -0.014235548
-0.004127757 -0.048996508 0.07983454 -0.0053139566 -0.04357071 -0.054257706 -0.06288912 0.028058894
-0.05231195 -0.022170013 -0.066552795 -0.098649 0.05833998 -0.16631271 -0.048094 0.10505187
-0.016382521 -0.027154764 -0.10377262 -0.05573365 -0.084441975 -0.0097456705 0.13574623 0.06541396
-0.026032157 -0.11957068 -0.08580249 -0.035656296 -0.027215034 0.027474763 -0.31030214 -0.12625316
0.17890558 0.06864339 -0.04795216 -0.06717282 -0.055879008 -0.06481593 0.13617231 0.08266815
-0.037293248 -0.11302427 -0.09683386 -0.12868816 0.12116697 -0.0048469384 -0.11787298 -0.21821703
0.083967194 -0.0813642 0.09208425 0.065944746 0.15193138 -0.042272035 -0.027997442 -0.09782788
-0.0015671485 -0.14649281 -0.11492936 -0.11054272 -0.25446907 -0.019267654 0.13368328 -0.047150914
-0.09555291 -0.07374764 -0.11966941 -0.060191687 -0.13115229 0.02543035 0.05179812 -0.016368946
-0.0812084 0.0031330807 -0.042385135 0.027913677 0.04794355 -0.13638423 -0.11373415 -0.023206895
0.0007480293 -0.11331896 -0.09444635 -0.17035784 -0.029074823 -0.10236625 -0.008949685 -0.12587042
-0.12366623 -0.0764089 -0.21690828 -0.30546474 -0.09167829 -0.015334764 0.03464875 0.031661477
-0.075800404 -0.099607505 -0.061642136 0.02130126 0.07328262 -0.09423828 -0.08079407 -0.048124682
-0.07753754 -0.12119594 -0.06965893 -0.14382483 0.10759291 -0.2367904 -0.16055612 -0.17153768
-0.014176774 0.023869105 -0.059848547 -0.12717472 0.0828796 0.18567638 -0.04487842 -0.11504858
-0.105479375 0.011443475 -0.11146868 -0.060176983 -0.15755956 -0.09906861 -0.07712722 -0.073608294
-0.16303666 -0.1337146 0.013107778 -0.15469117 -0.02648377 -0.83104914 -0.110320546 -0.09578906
-0.01642827 0.12928917 -0.10083781 0.061740063 0.0058191605 -0.06775903 -0.07404231 -0.0858217
-0.08546966 0.03734499 -0.08700963 -0.07387266 -0.04338596 -0.17327589 -0.083219 -0.059426453
-0.07130457 -0.06546948 -0.015399425 -0.115332335 -0.024556741 -0.103853084 0.10729412 0.05635026
-0.1931715 0.0737055 -0.047605943 -0.034877125 -0.105706215 -0.124515876 0.003785302 0.11566565

Y_net.hidden_layers.3.weight f4 [256, 256]
00000000: a99e de3c d186 d83d 7e1b 91bd 41dc b23c
00000010: a154 c63c b6f7 b5bc c0ea b7bd 2272 81bc
00000020: d57c 193c 2267 073b 3ed6 773b e13f 9e3d
00000030: 24af a13c 7cbc af3d 0b21 183b e885 09be
00000040: faa9 8fbd 7991 b93d 7afb b6bd a315 6abd
00000050: 168b 33bd 7b98 cfbd d530 33bd 3cdd 82bd
00000060: 6784 c4bd 3a8f bfbd 3893 e33d 8663 00bd
00000070: d44a 33bd d4e0 0f3c 8327 e13d dcdf d53c
00000080: f774 e63c 488b 56bd 4839 2cbd b6dd 0bbd
00000090: a28a 003d 36ac 5fbd 48ea 92bd 273b 00bd
000000a0: c538 873d a01d a1bd a0c6 9fbc f4ac a03d
000000b0: 8691 b7bd a610 f43c 2295 1b3d a2bc 563e
000000c0: 4f5e 8abd a681 4ebd bc52 0fbd fc32 923c
000000d0: 1674 1f3d 86f3 53bd 6d9e 1f3c a961 d03c
000000e0: bc0a 77bd 062a 5a3d 2f36 b13d 22e6 073d
000000f0: c51b 2a3c 9df7 5e3d b06e c63b f118 49bd
00000100: 15ce 473d f7fe b2bd b3ea 8abd 9cf3 f03a
00000110: 4011 d93c 59b4 853c 5270 a73c 4e00 b2bc
00000120: b6f8 bd3b 336d ee3c 39c4 8b3c be9d f6bd
00000130: 330c ec3d 71b7 36bc 196b 063c 64f2 aa3d
00000140: ba55 f3bc 5e1f fc3c 21c9 c9bc 9252 8dbd
00000150: 6166 0fbe c39f 6bbd 729e 7dbd 5742 ffbc
00000160: b62f 813c dc10 5ebd 21aa f33d 0602 773e
00000170: 1d68 033b 75a1 bdbd 0bfc 4e3c b5b9 ccbc
00000180: d41e 533d bbf2 cc3c e98e efbc 6869 5abd
00000190: 7e3c 053e fa58 debc 8730 57bd a7ca 1d3d
000001a0: b601 b73a e0a5 7f3d 0369 aabd 303b b2bc
000001b0: 7314 8abd f4f2 a33d 6e07 133d 57f8 843c
000001c0: 0046 b03c ac6a 51bd 9c6a afbd a0d2 f63d
000001d0: 2380 dbbd ca8a 803d 7ed7 753d 306f f1bd
000001e0: 5992 883d 51ba d73d 7b4c 42bd 51bb e2bc
000001f0: 0eed 2bbd 35d0 42bd 6af9 373d d600 9fbd
00000200: 6981 99bd 63ea 523d 6aba 90bd afef 923d
00000210: febb 0e3e 0dae 71bc 2feb 88bd 1ba0 cd3d
00000220: 7e3e d33c c9ef c8bd c20a 02be ee96 353e
00000230: e3a8 043d eadb 023c a2ac a6bd 9490 093e
00000240: 9d68 2bbc 355f bebd 90f9 f0bd 269a b5bd
00000250: 739b 01bc 2576 c63d ffeb 673d ef94 34bd
00000260: 6698 ba3d 97c2 eabc 488a febd a159 493d
00000270: 5bf3 f2bd 2dca 8f3d bd95 6a3e c105 213a
00000280: fe46 8dbd 2753 c1bc 7742 b5bd 69e8 45bd
00000290: 7966 40bc 43c6 cfbd bb3a c6bd 9f51 723d
000002a0: d277 96bd 5638 9d3c af01 a1bd f5e1 4cbd
000002b0: 8002 4cbd 8a7c e2bb c5b0 a73d ad76 a23d
000002c0: b026 633d 8cea 833d 7234 1e3d 6774 163d
000002d0: 92cd 35bd b29f 13bd 1ac3 dd3c 8ca4 a13c
000002e0: 4b2c f23c e0bf 3dbd edda a23d f7ca 823d
000002f0: adc8 2cbd 1ed3 82bd 1e71 f2ba e191 533e
00000300: a2e6 80bd 2a7b 7fbd 0a9e d6bc 47e5 0b3e
00000310: 131e 433d edc9 70bd edfa d4bd d79d b0bc
00000320: 2300 39bd 7081 673d e85b 313c 2f2b c23c
00000330: 8dd2 3a3e 2e29 093e 0484 6a3d ba76 b33c
00000340: b832 043d 016e 923d fd78 ffbc 50b4 313d
00000350: 7ce2 cbbc 376b eebd 3bc6 fa3c eb9c ddbb
00000360: 9f8a 62be 2f72 21bd 2251 0a3c 2d4a e4bd
00000370: 49b8 0cbe b00d 13bc 1a95 93bd 650b 17bb
00000380: b26c 863c 9d78 4bbd d6b6 19bd 5c53 8f3d
00000390: a0b5 93bd 8f99 c9bd 5090 8fbc 542f b53c
000003a0: bfc2 543c 5a8d 86bb aa8c ba3d bd46 f13d
000003b0: 4e56 e2bc 4120 813d f8c9 cabb b20b a6bd
000003c0: c21f dbbc 7c32 823d 99d0 aabd e69e 05be
000003d0: d301 d5bc 7182 2abc 722e a53d f68f 8dbc
000003e0: c560 b03d 0dab 97bc 392e ec3d f927 8ebc
000003f0: a195 1cbd 80d6 15be 93df f63c 1f5f e93d
0.027175264 0.10572589 -0.07085322 0.02183354 0.024210276 -0.022212844 -0.08980322 -0.015801493
0.009368141 0.0020660837 0.0037816907 0.07727028 0.019736834 0.085808724 0.0023213055 -0.13429987
-0.07014842 0.0906095 -0.08934684 -0.05714954 -0.043833815 -0.10136505 -0.04374774 -0.06389853
-0.09595566 -0.0935349 0.11112064 -0.031344913 -0.043772534 0.008781631 0.109938644 0.026107721
0.028131945 -0.052378923 -0.042046815 -0.034146987 0.03138221 -0.054607593 -0.07173592 -0.031306412
0.06602625 -0.07866979 -0.019503891 0.07845488 -0.08963303 0.029793095 0.03798402 0.20970395
-0.06756269 -0.05041661 -0.03499101 0.017846577 0.038929068 -0.051745914 0.0097423615 0.025437193
-0.06031297 0.053262733 0.08652913 0.033178456 0.010382597 0.05443536 0.0060556754 -0.04909605
0.04878052 -0.08740037 -0.067830466 0.0018383148 0.026497483 0.016321348 0.0204393 -0.02172866
0.005797471 0.029104805 0.01706134 -0.12041806 0.11525764 -0.011152134 0.008204245 0.083470136
-0.029703964 0.030776676 -0.024632039 -0.06900515 -0.14003898 -0.057525408 -0.061918683 -0.031159563
0.01576982 -0.054215297 0.11897684 0.24121866 0.002005107 -0.09259311 0.012633334 -0.024990896
0.051543072 0.025018087 -0.02924295 -0.05332318 0.13011357 -0.027142037 -0.052536514 0.038523342
0.0013962302 0.06241405 -0.08320811 -0.021756738 -0.06742182 0.08005324 0.035895757 0.016231699
0.021517754 -0.05112712 -0.08565256 0.12051892 -0.107177995 0.06276472 0.060019962 -0.117887855
0.066685386 0.10533584 -0.04743622 -0.02767721 -0.04197412 -0.047561843 0.044915594 -0.07763831
-0.07495386 0.05149306 -0.07066806 0.07174622 0.13938901 -0.01475097 -0.06685483 0.10040303
0.025786635 -0.098113604 -0.12699416 0.17733356 0.032387625 0.007987002 -0.08138396 0.13434058
-0.0104619535 -0.09295503 -0.1176635 -0.08867292 -0.007910597 0.09690503 0.056621548 -0.044087347
0.09111099 -0.02865724 -0.12428719 0.049157742 -0.118628226 0.07020984 0.22908683 0.000614252
-0.06898306 -0.02359922 -0.08850568 -0.048317347 -0.011743181 -0.10145237 -0.09679171 0.05915987
-0.07347073 0.019191902 -0.07861649 -0.050020177 -0.04980707 -0.006911819 0.08188013 0.07932792
0.055456817 0.06441221 0.038624234 0.036732104 -0.0443855 -0.03604097 0.02707057 0.019731782
0.029562136 -0.046325564 0.07951913 0.06386369 -0.042183567 -0.06387924 -0.0018496846 0.20661117
-0.0629399 -0.062373318 -0.026198406 0.13661681 0.047636103 -0.05878632 -0.10399423 -0.021559639
-0.045166146 0.056519926 0.010825135 0.023702232 0.18244381 0.13394615 0.057254806 0.0219072
0.03227493 0.07149888 -0.031185621 0.04338485 -0.02488827 -0.11641543 0.030612102 -0.006763091
-0.22123192 -0.039415535 0.008442195 -0.111469604 -0.13742174 -0.008975431 -0.07206173 -0.0023047563
0.016409252 -0.049675573 -0.03752788 0.069983214 -0.072123766 -0.09843742 -0.017524868 0.022117294
0.012985884 -0.004106206 0.09108861 0.117810704 -0.027629044 0.0630498 -0.0061886273 -0.081076995
-0.026748542 0.063572854 -0.08340568 -0.13048896 -0.026001846 -0.010407076 0.08065499 -0.01728056
0.08612207 -0.01851418 0.11532254 -0.017353045 -0.038228635 -0.14632607 0.030135905 0.11395096

Y_net.hidden_layers.3.bias f4 [256]
00000000: 45d3 f6bc 00f7 05be 6321 b13d 6fd8 a7bd
00000010: cd26 ccbe 614e 99be a8a1 01bf 1b6f f63d
00000020: f2cc 213d 02f3 0e3e fa6c e9bd ad11 f0bd
00000030: b619 92bd 1805 b2bd 897a 7e3e 6ed2 e4bc
00000040: 68d5 363d 3ef0 c2bd 42f9 723e ed59 923d
00000050: 8a88 303e b27a 453e 6967 11bd 62a8 5ebd
00000060: f616 8bbd f233 afbc 01d0 b1bd 3ce2 9ebe
00000070: b157 26bd 9d48 a13d e150 8fbd 0c8b 883e
00000080: 8dda 47bd df7e e4bc fa4c 1ebe 7ea1 52bd
00000090: a1ab 03be 525e cabc e664 dd3d ebf8 b2bb
000000a0: ca98 aebd 6252 b2be c5a9 123e f1a8 28bd
000000b0: cdf6 1dbe e4c3 29bd aff2 993b 910e d9bd
000000c0: b54b 8ebd 6972 643b 0706 983d ffd2 303e
000000d0: 86cc 523d 84cc 063e 32bc 9bbd 7f4d 03bd
000000e0: ee24 22bc 5868 03bf 3421 44bd 948d eebd
000000f0: 568c 913c 7a82 10bc 97de dabd b7c1 ca3b
00000100: 269d 8cbd 204b 803d 7deb d33d 8bcb 953d
00000110: 2bc1 9bbd 55fb 8bbd a282 16bd ee1c 91be
00000120: 7f3c dbbe 5882 20bd f46b 273e f34c a33e
00000130: 9e10 9dbc 5e6b 47be 44b6 263e 9c42 8cbd
00000140: e92b 363d 62b7 f0bd ace7 33bd 2993 aa3e
00000150: 6290 283d dfab 753e 9084 2a3e a3b7 3e3d
00000160: aefc 843c b743 023d 27a2 21bf 6852 c0bd
00000170: bbea 6e3e 0867 a83d b388 36bf 9d86 cfbd
00000180: ff7d a6bd a1c5 15bd ca56 f93d fbd1 cdbd
00000190: 2a7b 67bd 6ce2 af3c 4da4 603d 6dcd 8fbd
000001a0: f76d ec3e 460e 453d 6bf7 d8bd 3427 b83d
000001b0: 4a00 13bd 55a6 5a3c 6dc1 86bd 8f47 a73c
000001c0: ff9d fabc f9a8 163e 5371 8b3d bb7d 24bd
000001d0: d683 703d 04a4 693c b87c 76bd 8f07 aebd
000001e0: 85aa e0bc 35e2 7fbd 3eeb 193e 2c3c 103e
000001f0: fd0a c53d 65d2 bc3d 5c26 13bd 342a a3bd
00000200: 11d5 b6bd 450c a93e ecc1 253d 254f 91bd
00000210: 5268 dcbd 872f 32be 8017 1ebf c97c d2bd
00000220: c2d0 a13b 08ed aa3c 03f6 97bd 1a51 22be
00000230: 6e12 4abc da39 e13d cda6 d4bd 5ad9 cdbd
00000240: 24b2 47be 2ca8 1c3d 9954 293e 4330 103d
00000250: 167a 44bd 2dd5 a3bc b2ba 82be 46dd 46bd
00000260: 4dcb 6fbd bb6f ddbc 2f47 473d ea57 223c
00000270: 5773 0b3e aa0a 513c ca1d 1fbc c273 c9be
00000280: b91a 24be 9f51 2e3e d8d3 493d 2f32 dd3c
00000290: a6eb 023d b16c bb3c 8a5b 653e f9f3 17be
000002a0: 6ab6 83be abc1 ffbe 1c72 d53d 96cc 063e
000002b0: 0f1c 883d 99f8 b8bc 5005 003d 9c06 1c3c
000002c0: 6595 c3bc 8bdd 83bc 0647 013d 4849 923d
000002d0: d16c 7cbc 31b4 fdbd 308a 103e 265f d7bb
000002e0: ab07 00bd cbff d0bd 5231 c53b e577 18bd
000002f0: 3651 2bbd 3f22 e43d af6d 233d 5c93 bcbd
00000300: c784 983d b299 babe 2a36 093e c244 33bd
00000310: d141 7fbd 9846 253e 1b66 af3c 4be9 b2bb
00000320: e206 553e 52b1 f9bc 9b06 b6bd 2a50 1a3c
00000330: e162 7fbd 836b 663c c97d 73bd 8395 5bbb
00000340: 9335 5b3d 4170 7bbe 666c 633d 6bd4 043d
00000350: 5de5 4bbe e008 73ba bb80 d13b 4a67 33bd
00000360: 8202 1abc ec88 283e f969 0e3e b5e7 a1bc
00000370: 8ee7 1f3d 2e99 1dbd 28e1 81bc 8c0c 18bd
00000380: 934d d4bc d294 8abd e7fb 9abd 338f 17be
00000390: 910a 133d 52ae 833e ec7e 8ebd 64d3 a63d
000003a0: f1e7 253d b7ba 67bd 5be6 d6bc 5d96 86bd
000003b0: ecba 21be 5cd5 50bd 674a f4bd ce02 963d
000003c0: 0377 a3bd 9a1a 65be 563e 2f3e 38df acbd
000003d0: 40d1 c33d 86c4 4abd 9ab8 68bf 897e d33d
000003e0: 6aec 5ebd c2b8 ca3b 241a febd 9377 ce3d
000003f0: f3cf 8fbd 4dc2 363e 748f e9be d4ec 90bd
-0.030130038 -0.13082504 0.08648946 -0.08195578 -0.39873353 -0.2994261 -0.5063729 0.120329104
0.03950209 0.13959888 -0.11397739 -0.117221214 -0.0713381 -0.08692378 0.24851431 -0.027932372
0.044637114 -0.09518479 0.23727897 0.07146058 0.17239586 0.19285086 -0.03549901 -0.0543598
-0.06791489 -0.021387074 -0.08682252 -0.31031978 -0.040610973 0.07875178 -0.06997848 0.26668584
-0.04879241 -0.027892528 -0.15459052 -0.051423542 -0.1285844 -0.024703179 0.108102605 -0.0054618022
-0.08525236 -0.34828478 0.14322574 -0.04117674 -0.15426178 -0.04144658 0.0046981196 -0.105984814
-0.06948034 0.0034858233 0.074230246 0.17267989 0.05146458 0.13163954 -0.07604255 -0.032056328
-0.0098965 -0.5133109 -0.047883227 -0.11648098 0.017767113 -0.008820171 -0.10686987 0.0061876434
-0.06865911 0.06264329 0.1034765 0.07314213 -0.07605203 -0.06835047 -0.036745675 -0.28342384
-0.42819592 -0.039186805 0.16349775 0.31894645 -0.019172963 -0.19474551 0.16280466 -0.06848642
0.04447547 -0.117537275 -0.04392211 0.333154 0.04115332 0.23991345 0.16652131 0.04656185
0.016233768 0.03180286 -0.6313805 -0.09390718 0.2333173 0.08222777 -0.71302336 -0.10133097
-0.081295006 -0.036565427 0.12174757 -0.10049816 -0.056513943 0.021470271 0.05484419 -0.07021604
0.46177647 0.048109315 -0.10594066 0.089918524 -0.035888948 0.013345321 -0.06579862 0.020419864
-0.030592917 0.14712895 0.06808724 -0.04015897 0.05871948 0.014260296 -0.060177535 -0.084975354
-0.02742506 -0.062471587 0.15031144 0.14085454 0.096212365 0.09219817 -0.035925254 -0.07967034
-0.08927358 0.33017173 0.04046814 -0.07095174 -0.10762085 -0.17400943 -0.6175461 -0.10277707
0.004938216 0.020864978 -0.0741997 -0.1585125 -0.012333496 0.109973624 -0.10383377 -0.10051222
-0.19501549 0.03824632 0.16536178 0.035202276 -0.047967993 -0.019999111 -0.25533062 -0.048550867
-0.058543492 -0.027030816 0.04865187 0.009908656 0.13618217 0.01275889 -0.009711692 -0.3934613
-0.16025819 0.17023323 0.049274296 0.027001468 0.031963013 0.022878977 0.223982 -0.14839162
-0.25725108 -0.49952444 0.10422155 0.13163981 0.06645977 -0.022579478 0.031255066 0.00952306
-0.023874948 -0.01609685 0.031561874 0.071428835 -0.015406803 -0.123878844 0.14115214 -0.006572622
-0.031257313 -0.10205039 0.0060178423 -0.037223715 -0.041825496 0.111393444 0.039899524 -0.09207794
0.074472 -0.36445385 0.13399568 -0.043766744 -0.062318627 0.1614021 0.021410992 -0.0054599396
0.20803407 -0.03048006 -0.08887979 0.009418527 -0.062350158 0.014063719 -0.05944613 -0.0033505864
0.05351789 -0.2455454 0.0555233 0.03242914 -0.19911714 -0.0009271037 0.0063935197 -0.043799676
-0.009400012 0.16458482 0.13907613 -0.019763807 0.039039187 -0.03847616 -0.015854433 -0.03712134
-0.025915897 -0.067666665 -0.07567578 -0.1480072 0.03589875 0.25718933 -0.06957802 0.08145788
0.0405044 -0.05657455 -0.026232889 -0.06571648 -0.15793961 -0.050984725 -0.119282536 0.07324754
-0.07981684 -0.22373429 0.17113623 -0.08441013 0.09561396 -0.049503826 -0.9090668 0.10326869
-0.05442468 0.0061865756 -0.1240733 0.10081401 -0.07022085 0.17847557 -0.4561726 -0.070764214
