models/saved/pinn_Resnet_ReLU_best.pth (torch, 809319 bytes, 15 tensors)

Y_net.layer1.weight f4 [256, 2]
00000000: b2d6 003f 6b37 06bf 71b3 23bf d6dc 07bf
00000010: 4029 123f ca11 a0be 16d3 063f d2a7 f5be
00000020: 2791 2bbf acad 693e c438 5dbe 9fa5 dc3e
00000030: 2b0d e3bc 9c25 ccbe c1cb 1f3f 678c 8a3b
00000040: 4092 23be 4016 8a3c 5acc 523e 4e6c debe
00000050: 3e76 273f 93ed edbe 8af0 b83e df94 aebe
00000060: 9530 2a3d bec1 82be 4552 053f f4da 1c3f
00000070: 1c67 43bf 457f 2e3f b85d dc3d 5ce9 32bf
00000080: e9d8 f4be 848e 383e 0c60 1cbf 5c9b 98be
00000090: a6f9 52bf bdef 093f b691 17bf b879 4bbe
000000a0: 0558 c1be c261 9f3e 000f 18bf a5ce debe
000000b0: cac4 a7be 1de0 3abb 4435 1b3f 018e 01bf
000000c0: ba7b b33e 43df 6a3e b5d7 953e 054d 4d3e
000000d0: bcc5 0ebe d0ee 02bd 40c8 ef3d 2059 c2bc
000000e0: 6d34 6dbe a9f6 7c3e 4046 b2bd 0006 4a3b
000000f0: 8e7e 113e ea93 b8be 7b87 9c3e d773 aa3a
00000100: ac18 3cbf d946 1ebf b1fe 42bf fa6d 5bbd
00000110: 5287 1e3f 25e9 0dbf a6c9 863d 9e73 123e
00000120: cb08 e63c c072 cc3e a590 8e3e 0364 13bf
00000130: ab14 8d3d 5c7c 0abf 42e3 25be db4e 04bd
00000140: f444 d73e 0b1c c03e 3247 80be f196 d33d
00000150: c90a 16bb c3b1 c7be 2309 e5be 40ab 1a3d
00000160: 35ae 40bf 8ea0 c03e 6e80 df3e 3a4a 093f
00000170: 7f31 98bf eaa5 cbbd 31fb 1b3f f9c1 94be
00000180: d538 0bbf 2090 c8be e259 2ebf 62db f3be
00000190: 88d2 36bf 5259 2dbf 8dd2 cdbe 3018 11bf
000001a0: 587f 13bf c2f1 debd efac 223f d500 33be
000001b0: 74ef 39be 5783 f3be 28bd d43e fbf8 d1be
000001c0: 26c2 f9be 00ca 803e 33c1 f93e 833a 823b
000001d0: 7099 cf3d e804 44bf 3264 173e b3fe 07bf
000001e0: 7b3c 20bf aa48 8b3e 37e8 c1bb 461d 3cbf
000001f0: f9bf 93bd 7069 d53e b547 bbbe 6659 13be
00000200: 972e a1bc 396d e1be ab85 d13e dd86 a7be
00000210: ccc3 adbd b82b 07bf 803c f43e 1b74 893e
00000220: cb48 0bbf 94a9 623e b731 25bf e89c acbd
00000230: dc87 39bf cc38 ae3e 28c0 f6be ef83 01bf
00000240: 7404 4dbe 760a 8bbe d06a 14bf 8db0 cc3e
00000250: 709f 053f c97d f4be 405c 1bbf 2c64 ea3e
00000260: ada8 97be f7ec 0cbf cff6 48be 40c2 493d
00000270: adaf 1bbf 8ab5 d23e 94fc e13e b2bb 16be
00000280: 6498 06bf fc58 a33e 8744 41bf 8bad 00bf
00000290: 355b 183f b6b6 1c3f 4d63 07bc ef2c 213f
000002a0: d951 cfbe ce77 98be a877 40be 3f91 8e3e
000002b0: bcf7 0ebf a9e9 343e 1fe0 f83e 0019 c6be
000002c0: f649 16bf 588f de3d 2230 12bf 1026 a63d
000002d0: 8078 63be 55b9 613c 10ed 103f f687 f93e
000002e0: f02d 5bbe 999e d73e 6030 f93d d4e6 f03e
000002f0: 4ff5 08bf 10b8 eabd fe50 d9be 6f25 42be
00000300: 507a 17bf 056e cd3d 3ed5 543d 3131 c4be
00000310: 3cda c7be 4002 c1bd a383 d03e 484b 56be
00000320: 70dc 223e 85f9 83be 5b30 3abf adb7 273f
00000330: 199c 4f3d fbe8 dcbe 743d 0abf 5859 e23e
00000340: 58b0 11bf 7ea6 483f cc93 e13e 6887 04bf
00000350: 1cb2 c23e 87cd 033e f206 dabe e913 003f
00000360: ca6c 19bf b7a6 17bf bb0f 21bf cb3c 2f3e
00000370: c07a e0bc 3cd3 093e faa8 b5be d8d0 fcbe
00000380: e914 0a3f d8f0 17bf 2654 bd3e 0fb8 163f
00000390: 1b0b 253d e042 adbe dd33 29be ffb8 143f
000003a0: 110a 193f b041 20be c02a b63e 4136 f2be
000003b0: c05f e43e e2d8 8cbe 5b80 ca3e 5768 ca3c
000003c0: 9fcb bb3e 9846 883e 6ffd 083f 3ad5 d93e
000003d0: 9066 0cbf efcf 8f3e 2a54 1f3f ee49 8ebe
000003e0: 87c4 c2be 6eaa 92be 77df 8fbe d850 7bbc
000003f0: 6ab0 063e 4833 d1be 42f7 f83e fb30 163f
0.503276 -0.5242831 -0.6394568 -0.53071344 0.5709419 -0.31263572 0.5266584 -0.479796
-0.6701836 0.22820157 -0.21603686 0.4309511 -0.02771624 -0.39872444 0.6242028 0.004228163
-0.15973759 0.016856313 0.20585766 -0.43442005 0.654148 -0.46470317 0.36121017 -0.34097955
0.041550238 -0.2553844 0.5207866 0.61271596 -0.7632921 0.6816295 0.10760063 -0.6988733
-0.4782174 0.18023115 -0.61084056 -0.2980603 -0.82412183 0.53881437 -0.5920671 -0.19870651
-0.37762466 0.3112927 -0.5939789 -0.43517032 -0.32767326 -0.002851493 0.6062815 -0.50607306
0.35055333 0.2293673 0.29266134 0.20048912 -0.13942617 -0.03196603 0.117081165 -0.023724139
-0.2316453 0.24703468 -0.087048054 0.003082633 0.14208433 -0.3605035 0.30572113 0.0013004494
-0.73475146 -0.61826855 -0.7616988 -0.05357168 0.6192523 -0.55433875 0.0658143 0.14301917
0.028080365 0.39931297 0.2784473 -0.5757448 0.06888708 -0.5409601 -0.16199973 -0.032301765
0.42044795 0.37521395 -0.25054318 0.10331524 -0.0022894612 -0.3900281 -0.44733533 0.037760973
-0.7526582 0.37622494 0.43652672 0.53628886 -1.1890105 -0.09943755 0.6093016 -0.2905424
-0.54383594 -0.3917246 -0.681059 -0.47628313 -0.71414995 -0.67714417 -0.401997 -0.5667753
-0.57616186 -0.108859554 0.63545126 -0.17480786 -0.1815775 -0.47561142 0.41550565 -0.4101027
-0.48780936 0.25154114 0.48780212 0.0039742603 0.10136688 -0.76569986 0.14784315 -0.53123015
-0.62592286 0.27203876 -0.0059175747 -0.7348217 -0.0721435 0.41682005 -0.36578146 -0.14389572
-0.019675536 -0.44028643 0.40922293 -0.3272008 -0.08484611 -0.52801085 0.47702408 0.26846394
-0.5440795 0.22135001 -0.64528984 -0.08428365 -0.7247293 0.34027708 -0.4819348 -0.5059194
-0.2002123 -0.2715642 -0.5797548 0.39978448 0.5219641 -0.47752216 -0.6068764 0.4577955
-0.29620877 -0.5504908 -0.196254 0.049257517 -0.60814935 0.41154128 0.44138014 -0.14720038
-0.5257628 0.31903827 -0.7549519 -0.50264806 0.5951417 0.61216295 -0.008263421 0.6295919
-0.40492132 -0.29778904 -0.18795645 0.2784519 -0.5584676 0.1766726 0.4860849 -0.38690948
-0.58706605 0.108671844 -0.57104695 0.081127286 -0.22213936 0.013777097 0.5661173 0.48736542
-0.21404243 0.42113188 0.1216743 0.47051108 -0.5349931 -0.114608884 -0.42444605 -0.18959592
-0.5917101 0.1003075 0.051961176 -0.3831878 -0.39033687 -0.09424257 0.4072543 -0.20927155
0.15904403 -0.25776306 -0.72730035 0.6551464 0.050685976 -0.431465 -0.5400002 0.4420879
-0.56909704 0.78379047 0.44058073 -0.51769114 0.38026512 0.12871371 -0.42583424 0.5003038
-0.59931624 -0.5923876 -0.6291463 0.17113034 -0.027402282 0.13459486 -0.3548048 -0.49378085
0.53938156 -0.59351873 0.36978263 0.588746 0.040293794 -0.33840084 -0.1652369 0.5809478
0.59780985 -0.15650058 0.3557949 -0.47307017 0.446043 -0.27509218 0.39551052 0.024707956
0.36678788 0.2661636 0.5351171 0.4254549 -0.54844 0.28088328 0.622378 -0.2779078
-0.38040563 -0.28645653 -0.28100178 -0.015339099 0.13153234 -0.40859437 0.48626143 0.5866849

Y_net.layer1.bias f4 [256]
00000000: aba9 f9be ebc9 ecbe 6711 0dbc 9f69 15bf
00000010: 8f7b d6be 9827 16bf ccdf fbbe 03bd a2be
00000020: 8116 9abe 8ede c23e 58be 513e b57e 1a3e
00000030: 7152 a6be 63e4 753e 1226 e8be 2b02 2bbe
00000040: f977 243f 447b ab3e 0ffc 22be dd7f d33e
00000050: 68f7 0d3e 6aa0 013f 9f4c b63e 0df4 2abf
00000060: d1d6 953e 239a 353e 29d0 13bf b2a0 a1be
00000070: 94e1 ea3b 0ee0 d4be b087 743e ae35 fe3e
00000080: 57b0 c0be 1e2a ee3e 67c0 1bbf 0cba ba3e
00000090: d82f ac3e e0ff 08bf c060 71be c83d 083f
000000a0: c2c8 c9be cc54 243e 91d1 2dbf 4450 04be
000000b0: 9f24 86be 1fcb 123e 5be6 903e 7253 3abb
000000c0: 73e4 57be b165 0fbf 4c04 f63d 9828 243f
000000d0: e0ff 333f 7824 22bf 9eb5 8a3e 028f 67be
000000e0: 4530 863e 619c b2be 90f4 f93e 85b7 c33e
000000f0: 89de 923e 1251 dd3d 08dd 3ebf c19f 733e
00000100: 6381 a83d a7e0 fbbe d5ec f0bc 98f4 833d
00000110: c3b3 9bbe 2c0b 30bf 08a6 54be 6de0 cf3e
00000120: cde7 2bbf e090 213f d914 dcbe 22f7 93bd
00000130: 5641 d53e 8bd1 fc3d 46ec f43e f18f babe
00000140: 0d88 773e aa74 61be 7da3 81bd cff9 8e3e
00000150: 8c71 343e 39d8 4ebe 672f d23e 9bef aebd
00000160: 9020 18bf 6c15 0ebe 7837 c03d 0b0c ffbe
00000170: 52df 12bf df48 cabe da44 04bf 4ec7 aabd
00000180: 8a83 fb3e 754f 3bbf 9d2d c3be 5e9f dfbe
00000190: 8f52 30be d437 b4be 43a7 47bf b15d b13e
000001a0: 0ec6 3dbf 81d9 0f3f 7f39 67be 615c a5be
000001b0: 8ce6 ff3e 2a56 083f ceaf fcbe 80d3 673e
000001c0: 88af fbbe 82c7 bbbd ddff 24bf b6d5 bf3e
000001d0: 88f9 25bf 0df7 903d 83bf dd3e 53f3 f23e
000001e0: e310 8bbe 03e4 173f 4e29 343e f1cf d53d
000001f0: 21df f73e 20a1 693e 40ed 603e fb4d 103c
00000200: 8d11 133f 1a64 bb3e d9c6 913e 4111 103f
00000210: 8404 0cbf fb49 0cbf c1b5 49be 18db 3fbe
00000220: 2072 34be 0d63 68bd 58bb 1a3e 2cc9 193f
00000230: f6b7 4abe 280d 81bd 3ce6 adbe e4b6 0abf
00000240: b23d ebbe 8e91 e13e d452 02be 5bef 43be
00000250: 771f 3cbf 937e dabe c68a 25bf 0aa5 22bf
00000260: 442a e2be 2129 eebe 543a cbbe 69fe 02bf
00000270: bb87 133f 4e57 f23e 59d6 a03e d8c2 fdbd
00000280: 99b9 163e 5a0a 42be c1d3 6fbe 2a02 873e
00000290: 5783 49bf 3832 fb3e ae4e af3e ba5c b93e
000002a0: 2bee 0ebf 0ef5 dfbe 6dcd 7bbd ff6a 29bf
000002b0: dd01 e23e 3eca 8d3e 7cbc afbe 4b01 1a3e
000002c0: c877 763e 73f5 c73e 88e7 3bbf e146 4f3e
000002d0: 5c0f fcbe 0b02 093f ed90 1ebf 1aae 35bf
000002e0: c97b b63e 2b9d 053e 07f1 483e d409 c73e
000002f0: 97be d93e d14e 1b3f fe55 72bd da4b 9a3e
00000300: 564d 05bf 4f8d a63e 1b95 b33e 3fc8 4d3e
00000310: 0756 acbe 4cc2 acbe 2744 1bbf d1d3 e03e
00000320: dfe6 b2be 3e12 93be 07e7 39bf 884a 20bf
00000330: 7ce1 49bf c4c6 0dbf 5932 5fbe ef16 4dbe
00000340: 1065 4a3e 5a52 02bf b712 aabe 990f 503e
00000350: 1b3e 91be 2d9d 1abf 8b73 88be 965a 0bbf
00000360: 985b 0ebf 9d3f bfbd bc99 34bf 32b4 d5be
00000370: d4a6 83be 16ac f33e be53 ffbe 866b 0e3f
00000380: 2455 e1be c4c4 1ebf a470 b43e 109b 8c3e
00000390: 7b9f 9bbe d91d 0abf 2890 163e eaf2 783d
000003a0: 5698 2cbd ffc3 b5be f301 54be d48e 33bf
000003b0: 3f91 e33e 907c 92be 914d 1bbf d8f8 e5be
000003c0: d66a e8bd dab7 1abf b038 a23d cbae 2ebe
000003d0: 18e9 91bd a835 273f 627b 7ebe 4b46 11bf
000003e0: ed6b 8e3d fc03 17bf dc6a f93e b658 c43e
000003f0: 88b1 9bbe e866 f93e d004 ae3e 1444 1c3f
-0.4876226 -0.462478 -0.008610106 -0.5836429 -0.41891143 -0.58654165 -0.4919418 -0.3178483
-0.30095294 0.3806042 0.20482767 0.15087397 -0.32484773 0.24012904 -0.45341545 -0.16700046
0.64245564 0.33492482 -0.15916465 0.4130849 0.13863909 0.506354 0.35605332 -0.6677864
0.29265454 0.1773458 -0.577395 -0.31567913 0.0071680043 -0.4157719 0.23879886 0.4965033
-0.37634537 0.46516508 -0.6084046 0.36470068 0.33630252 -0.53515434 -0.23572063 0.5321927
-0.3941098 0.16047972 -0.678979 -0.12921244 -0.26199815 0.14335297 0.28300747 -0.0028431085
-0.2108324 -0.56014544 0.12012538 0.6412444 0.7031231 -0.63336897 0.27091688 -0.22613147
0.26208702 -0.34884933 0.488194 0.38225952 0.28685406 0.108064786 -0.74556017 0.2379141
0.082278036 -0.49194834 -0.029409805 0.06443137 -0.30410585 -0.68767047 -0.20766461 0.4060091
-0.67150575 0.63111687 -0.42984655 -0.07224871 0.4165141 0.12344655 0.47836512 -0.36437944
0.24172993 -0.2201716 -0.06330011 0.27924964 0.1762144 -0.2019967 0.4105179 -0.08541795
-0.59424686 -0.1387536 0.0938558 -0.49813876 -0.5737201 -0.3950872 -0.5166756 -0.083387956
0.49123794 -0.73168117 -0.38120738 -0.43676275 -0.17218994 -0.35198843 -0.77989596 0.34641793
-0.7413033 0.5619126 -0.22580527 -0.32297042 0.4998058 0.53256476 -0.49352878 0.22639275
-0.49157357 -0.091689125 -0.64452916 0.37467736 -0.6483388 0.07078371 0.43310174 0.47451267
-0.2716132 0.59332293 0.17593881 0.10440052 0.4841242 0.2281537 0.21965504 0.0088076545
0.57448655 0.3659981 0.2847202 0.5627633 -0.5469439 -0.54800385 -0.1969824 -0.18735921
-0.1762166 -0.056735087 0.15110528 0.6007259 -0.19796738 -0.063013375 -0.33964717 -0.5418532
-0.45945507 0.44056362 -0.12726909 -0.19134276 -0.7348551 -0.42674693 -0.64664876 -0.6353308
-0.4417287 -0.46515754 -0.39692938 -0.5116945 0.57628983 0.47332233 0.31413534 -0.12390679
0.14719237 -0.18949261 -0.23420621 0.2636884 -0.78716034 0.4906175 0.34239715 0.36203557
-0.55832165 -0.4374165 -0.061475206 -0.6617889 0.44142047 0.2769336 -0.3432349 0.15039556
0.2406913 0.3905445 -0.73400164 0.20241882 -0.49230468 0.5351874 -0.6193989 -0.7096878
0.35641316 0.13048236 0.19623195 0.38874686 0.4252822 0.6066714 -0.05916404 0.30135995
-0.5207113 0.32529685 0.35074696 0.20095919 -0.33659384 -0.33741987 -0.6065087 0.43911603
-0.34941766 -0.28724855 -0.72618145 -0.62613726 -0.78859687 -0.5538142 -0.2179655 -0.2002828
0.19765115 -0.5090691 -0.33217403 0.2031845 -0.28367695 -0.6039608 -0.26650652 -0.544351
-0.5560851 -0.09338305 -0.7054708 -0.4173904 -0.25713217 0.4759223 -0.49868578 0.5563282
-0.4401027 -0.6201899 0.35242188 0.27462053 -0.3039511 -0.53951794 0.14703429 0.060778536
-0.042137466 -0.35501096 -0.20703869 -0.70139813 0.4444675 -0.2861066 -0.6066523 -0.44916415
-0.11348502 -0.60436785 0.079209685 -0.17058866 -0.07124537 0.6531625 -0.24851754 -0.56747884
0.06954179 -0.58990455 0.4871434 0.3834893 -0.30408883 0.48711324 0.33988047 0.6104138

Y_net.layer2.weight f4 [256, 256]
00000000: 281e b4bc 38b3 fcbc 433c bbbd c04a 43bd
00000010: 56f1 3c3d 6274 923d 18f4 593d 48fa 69bc
00000020: 6251 41bd 480d 3dbd 7ef0 d8bd 5bb5 adbd
00000030: b2ab 4a3d 4687 55bd f6a1 f43d a6a5 463d
00000040: 074f c6bd 77e5 923d b01e a2bd 4a40 4f3c
00000050: 9c64 d9bd 1f04 343d dae7 d0bc d569 e2bd
00000060: ed2a 30bd abe9 76bd 4c0a 993c c813 68bd
00000070: 97b4 61bd 886e 05bd eecb a2bc 4a9c d5bc
00000080: 55b5 183d 49c2 343d 56f1 08bd 360d a6bd
00000090: 90bc 8bbd 91d6 5d3c 9e0a b43c ff2c 43bd
000000a0: 31f4 63bc cb22 d5bc 20e8 56bd dedd 4e3d
000000b0: ef99 e13d 9120 02bc 80e0 ff3c 361f 99bc
000000c0: 7785 c23d c43b 103d f326 803d be10 b0bd
000000d0: d90a 703c 3e58 273c 182d 62bd 1501 15bd
000000e0: c078 93bd a461 74bd 69d1 fbbc f04b 80b9
000000f0: 40a3 62bd a7da ddbd c89a 653d c4ef 503d
00000100: b0f8 d2bd 60e4 7cbb 12ff d53d 38a2 9abd
00000110: c4e1 d1bc e8e6 483d add9 263d f92f 5dbc
00000120: ca18 533d dee4 f9bc 7880 5dbc dffd d7bd
00000130: 514f 2c3c c292 60bc 3c9a 06bb 1ea6 87bc
00000140: 3267 df3b af34 0d3d 72ae 98bd f982 34bc
00000150: 125d 48bc a04a 9a3d 6d69 17bd aa1d 313b
00000160: c019 bfbc c072 c93a d4f5 443c 90c6 feba
00000170: 54fb cf3c efad 59bc 7036 d2bc d63c 023e
00000180: 5ac8 aebd 202a e4bc d415 b83c bf8d 94bd
00000190: 1f7b 82bd 1d73 01bc 58c1 d53c de34 33bd
000001a0: 463b 8a3c 81b8 a53b 79c8 20ba 1ff6 b33d
000001b0: 3af1 cf3d 9dc6 e0bc 6045 5bbb fc15 d63d
000001c0: 2ee5 adbd 95b3 43bc 7834 523d 1ed2 10bd
000001d0: b34d d1bd 1a9e cebd c288 b1bd fcb2 babd
000001e0: 169d 7bbd e898 85bc c5fd 28bd 8bc0 cdbd
000001f0: dcb2 54bd 0495 dabd 22b0 81bd 872d 82ba
00000200: 3b50 5abd c84d d8b9 2a8b 2e3d 21af acbd
00000210: 1810 8c3c 3afe 38bd 244d 683d 202a a3bd
00000220: 833d d3bc 0529 73bd 1e65 95bd d5b2 babd
00000230: 7bbb f1bc 7c30 afbd f8c0 b6bd 51e6 e7bc
00000240: c4c1 053d f06d c5bd 73c7 24bd bb75 ef3d
00000250: 2606 993d 542e 823c 343b 2dbd b8c5 8abc
00000260: c269 573d bc86 463c 02cc c53d 764c 4bbd
00000270: 61ec db3d b138 80bc 5cea d6bd ffd0 dbbd
00000280: 722e 8fbd 189d 403d 2889 1c3c df32 2abb
00000290: 8010 ef3b b488 5bbd 1410 0fbc 4615 80bd
000002a0: f0a0 22bc 1675 143d e8cf 993d a8d7 5ebc
000002b0: fca2 37bd e0a9 fbbc 201b 2bbd f2f8 ddbc
000002c0: bbab d03b 84b9 c3bd 3e6c 243d ef9b c1bc
000002d0: 96a3 18bd 46a1 d0bc c235 b1bc 4b11 633d
000002e0: 0fbe 16bd 31b0 07bd 5abc febc 28d4 21bd
000002f0: 1755 e3ba 85dc a7bd cc4e dabd b4d8 14bc
00000300: 18cc 3aba a749 dcbb 0b26 d6bb b7f6 78bd
00000310: 109a d9bd 4d6f 0a3d 2806 efbc a552 80bd
00000320: 0b31 c7bd 0684 76bd 4ffe 9e3d 9de5 93bd
00000330: 08e6 533d 07a9 813d 4df1 2ebd 53ba 1dbd
00000340: f33f aabd 36c2 283d 0942 d1bd a616 43bd
00000350: 80e0 31ba 3e89 d9bd 7553 b4bd 28c0 63bd
00000360: 5686 71bd 598f 5cbd 502b 9c3b 3840 e23b
00000370: 0415 a53a d253 6bbd 44bd 243d 2098 75bc
00000380: d8a6 ac3c 904e febb 5fd6 c7bd 1516 3abc
00000390: 2abf 003d 5ae1 69bd f8c6 d1bb c5e0 ba39
000003a0: be6f 19bd 2735 e0bd 2bd7 adbd be6f 81bd
000003b0: 7054 85bb efb9 833b 1288 9dbc 3fa0 423d
000003c0: 8eb8 30bd 1625 b83d 0569 dcbc 331a fdbc
000003d0: 8031 c1ba 3d7c a4bc f043 5a3c 0041 55bb
000003e0: 7458 ddbd f469 7dbd fe0f d1bd b538 bebd
000003f0: 04f2 003e afbe cabd 2784 12bc b269 0f3a
-0.021987036 -0.030847177 -0.091423534 -0.04767871 0.046128593 0.071511045 0.0532113 -0.014280863
-0.047196753 -0.046155244 -0.10592745 -0.084818564 0.049480148 -0.05213096 0.11944954 0.04849782
-0.09683042 0.07172673 -0.079160094 0.012649605 -0.10614893 0.043949243 -0.02550118 -0.11055342
-0.043009687 -0.060281437 0.018681668 -0.05665949 -0.055103865 -0.032576114 -0.019872632 -0.026075501
0.037282307 0.044130597 -0.03343328 -0.081079885 -0.06823075 0.013539926 0.021977719 -0.047650333
-0.0139132 -0.026017567 -0.052467465 0.050504558 0.11015689 -0.007942335 0.03123498 -0.01869164
0.09498113 0.035213247 0.06257429 -0.08596943 0.014651024 0.01021391 -0.055218786 -0.036377985
-0.072007656 -0.05966343 -0.030739503 -0.0002447064 -0.05533147 -0.1083272 0.056055814 0.05100991
-0.103013396 -0.003858827 0.104490414 -0.07550472 -0.025620349 0.049048334 0.040734936 -0.013500207
0.051537313 -0.03050464 -0.013519399 -0.10546469 0.010516957 -0.013706865 -0.0020538708 -0.016558703
0.0068177218 0.03447407 -0.07455148 -0.011017554 -0.012229221 0.07533765 -0.036965776 0.0027025738
-0.023327708 0.0015369281 0.012021501 -0.0019437838 0.025388397 -0.013286098 -0.025660723 0.1271852
-0.08534308 -0.027852118 0.022471346 -0.072535984 -0.0637114 -0.00790098 0.02609317 -0.04375159
0.016873967 0.005057395 -0.00061333884 0.08787178 0.10153432 -0.027438456 -0.0033458099 0.10453412
-0.08490978 -0.011944671 0.05131957 -0.035356633 -0.10219898 -0.10088749 -0.086686626 -0.0911617
-0.061429106 -0.016308263 -0.04125764 -0.1004649 -0.051928386 -0.10672954 -0.06332423 -0.0009931781
-0.05329917 -0.00041256682 0.042613186 -0.08431841 0.017097518 -0.045164324 0.056714192 -0.07967019
-0.025786167 -0.05936529 -0.07294677 -0.09116141 -0.029508343 -0.085541695 -0.089235246 -0.028308066
0.032655492 -0.096401095 -0.040229272 0.11692377 0.07471876 0.015891232 -0.04229279 -0.016939983
0.052591093 0.012117084 0.09658052 -0.049633466 0.10738445 -0.015652033 -0.10493919 -0.10733222
-0.069912806 0.047024816 0.009554185 -0.0025970263 0.007295668 -0.053597167 -0.008731861 -0.062540576
-0.009926066 0.036244474 0.07510358 -0.013601221 -0.04483317 -0.030720651 -0.041773915 -0.027096245
0.006368128 -0.09556869 0.04014229 -0.023633925 -0.037265383 -0.025467526 -0.021632079 0.055436414
-0.036802348 -0.033127014 -0.031095672 -0.03950897 -0.0017344084 -0.08196358 -0.106595606 -0.009084869
-0.0007125749 -0.006722647 -0.006535297 -0.06078216 -0.10625088 0.03379755 -0.02917774 -0.06265763
-0.09726151 -0.0601845 0.07763349 -0.0722153 0.051733047 0.063310675 -0.04271059 -0.03850777
-0.083129786 0.04120084 -0.10217673 -0.04762902 -0.0006785467 -0.1062188 -0.08804981 -0.055603176
-0.058966003 -0.053847644 0.0047659054 0.006904628 0.0012594764 -0.057452984 0.04021956 -0.014989883
0.021075651 -0.00776083 -0.09757685 -0.011357804 0.03143231 -0.057099678 -0.0064018928 0.0003564415
-0.03746008 -0.10947638 -0.08488306 -0.06320141 -0.0040689036 0.0040199677 -0.019229922 0.047516104
-0.043144755 0.089914486 -0.026905546 -0.030896282 -0.0014739484 -0.020078773 0.013321862 -0.0032539964
-0.10807887 -0.061868623 -0.102081284 -0.0928816 0.12592322 -0.09899651 -0.00894264 0.0005470767

Y_net.layer2.bias f4 [256]
00000000: 0c8c c4bc 66a1 bfbd 0072 67bd 6f0e 02bb
00000010: 233a c4bd 539a 88bd 5039 fabb d0dc 5cbc
00000020: 05d8 4cbd 1056 983b 14c3 c5bd 3ea1 7fbd
00000030: aa11 61bd 4151 cdbc fb0e 9a3c b42d 9cbc
00000040: 2778 c7ba d66c 1ebd 481f e2bd d738 9bbd
00000050: b99c 17bc fc2b 07bd 6fb2 46bd b9c3 03bd
00000060: b6b8 27bd 12a8 c1bd 48e2 dabd cb64 c4bc
00000070: 05e1 babd cc10 aebc b0d9 a43b 4a55 323d
00000080: a51e ebbd f033 9f3a 6ff8 8dbd 27df 33bc
00000090: 0daf 54bd 3b9e 9dbb 3ce8 e6bd e1ed 61bd
000000a0: 9d5a 97bd 6095 65bc a6ca 9bbb 0ee5 ddbd
000000b0: 09bb e13c e9fa 85bc ab35 ebbd a02f 07bb
000000c0: f0b6 bcbd f477 a8bc 4523 45bb 2014 71bb
000000d0: 8577 38bd 5ab4 12bd b0be 0cbd 50b6 3dbd
000000e0: 3024 a8bc 34da a9bd 9e0f d0bd 19ad d4bd
000000f0: 2a02 77bd a02a 2dbc 7879 75bd c47c 90bd
00000100: e14f 0bbc 164f 71bd c802 e8bc 6751 b4bc
00000110: 966f 063d a5fb a1bd f02d c1bd 34d5 03bd
00000120: fede 36bd b2ae d83c 1a4d 53bd 4948 6fbd
00000130: 090d 97bd 4e05 b4bd 9490 68bc 5006 6ebd
00000140: 9976 9abd b852 483c 8232 8abd 1b89 a0bd
00000150: a42b 98bd 1aaf 77bc ae11 1cbd 335b 59bd
00000160: 8c8e cdbc 8933 bebd 4ff0 ddbd 1ea4 16bd
00000170: 85ad 853c cc9a a6bd e83c 033c 7c96 f0bc
00000180: 358e b4bd 938b 493c 0e34 babd c5b0 75bb
00000190: e14d dfbc 25b9 29bd 2944 a3bd a56f a9bd
000001a0: 067e 7a3a 0e0c 2dbd b87d a5bc ee31 c2bd
000001b0: eca7 a0bd 2f88 87bc fedf a9bd f2fb 43bc
000001c0: 7ff3 85bd 8811 babd 44f0 c7bc 4d4a f7bd
000001d0: 6845 0dbd 8c11 2abd 5cd0 9d3d 4e6b d7bb
000001e0: 4c75 3e3d 3452 9dbd 36e0 06bd 7d80 45bd
000001f0: 2c8a ccbd 2535 9fbd dbf1 b0bd 9204 6e3d
00000200: 5226 e3bc 49dc 40bd e205 12bd 3a92 23bd
00000210: 00f0 90bd d1bf f3bd 42f6 44bd b53f 78bc
00000220: 8932 863b 9b91 1cbd 3a39 74bd 10e4 e3bc
00000230: b46f ef3c 7742 c8bd b066 6abd 3865 9abc
00000240: 51d6 88bd 0c6e 66bd d5c9 c1bd 9f7f afbd
00000250: 5398 5fbd d9d2 8f3d 9064 0b3d d7c3 aebd
00000260: 28ff abbd ed1c 06bd 4621 dbbd 2282 0fbd
00000270: fa52 debd 7a6a 6ebc b12e c9bd 62a8 f8bd
00000280: 12d2 e7bd ca6b 4ebd a27e 2dbd 7e22 78bd
00000290: d13a efbd 5fb9 6abd 5294 4dbd c78f a5bc
000002a0: 1e7d 03bd 3e5b 03bd 8d69 bb3d 9121 7e3c
000002b0: 901b b5bd 0e5c ebbd e3b9 65bd c7a2 0c3c
000002c0: b9b6 7bbd 5f1d d6bd 6b2f f8bd c374 dcbd
000002d0: 272f 83bd 865a 1aba a737 3fbc 3db1 72bd
000002e0: bcca 993c 1791 ebbd 76a0 1dbd 750f 90bd
000002f0: f15d 1cbd 134b 41bd 1fb0 c2bd 9de3 1dbd
00000300: d34a 81bd 220a 82bd aebe c8bd 4dde 87bd
00000310: 6650 2f3d 829d 78bc 9526 e0bd ac6e e6bc
00000320: d1fa 8fbd ee6a b0bd b74b b13b 3c40 c4bd
00000330: 0e0b 0bbd ec78 39bd c5e4 d3bc 81dd 41bd
00000340: c6ed 9fbd 2b53 4ebd 3d6f a3bd b133 abbd
00000350: bb2a 143b e057 95bd f26b 45bd aa8d a0bd
00000360: 0b7e 8bbc b94c 423c 8fb0 8ebd eea4 b0bd
00000370: 5c7d b6ba b7c5 a9bd 3aba 1dbd 7e7b 463c
00000380: 8cec a2bd 2cdb bdbd bb43 e4bd 3751 12bd
00000390: bfa0 08bb b28a 34bd 71ee f5bd 9349 84bc
000003a0: c670 bebd 2050 2f3d f71b 95bd bdcc 76bd
000003b0: 4cd8 b6bd 258b 86bc f32e a2bd 242f d53c
000003c0: 5b24 62bd 8935 74bd 26f0 dcbb e304 013c
000003d0: d3fc 3cbb 0b54 47bd cf2f f9bd c034 d13b
000003e0: a890 ec3a 64ee 96ba 2007 9fbc 4631 b9bd
000003f0: 4cd7 cabd dee9 9dbd e0c3 b6bd a121 5dbd
-0.02399256 -0.09356956 -0.056505203 -0.001984503 -0.09581401 -0.0667006 -0.0076362267 -0.01348038
-0.0500107 0.0046489313 -0.09656349 -0.062409632 -0.054948486 -0.025063159 0.018805971 -0.019064762
-0.0015218303 -0.038678013 -0.11041123 -0.07579201 -0.009253674 -0.03300093 -0.04851001 -0.032169078
-0.04094764 -0.09455885 -0.10687691 -0.023973843 -0.0912495 -0.021248244 0.005030833 0.04353837
-0.11480454 0.0012146216 -0.069321506 -0.010978497 -0.051924754 -0.0048101223 -0.11274764 -0.0551585
-0.0739033 -0.014012665 -0.004754382 -0.10834704 0.027555006 -0.016354995 -0.11484846 -0.0020627752
-0.0921458 -0.02056501 -0.0030080837 -0.0036785677 -0.045035858 -0.035816528 -0.03436154 -0.046316445
-0.020525068 -0.08293572 -0.10159229 -0.10384578 -0.0603048 -0.010569245 -0.059930295 -0.07055047
-0.008502931 -0.058913313 -0.028321639 -0.022011472 0.03282126 -0.079093255 -0.0943259 -0.03218575
-0.044646256 0.026450489 -0.0515872 -0.058418546 -0.07375533 -0.08790074 -0.014194626 -0.05811149
-0.07542152 0.012226753 -0.06747915 -0.07838651 -0.07430199 -0.015117431 -0.0381028 -0.05306549
-0.025092386 -0.09287173 -0.10836851 -0.036777608 0.016318092 -0.08134994 0.008010127 -0.029368632
-0.08816186 0.0123013435 -0.0909196 -0.0037489396 -0.027258815 -0.041436333 -0.07971985 -0.08273248
0.0009555522 -0.042247824 -0.020201549 -0.094821796 -0.078445286 -0.01654443 -0.08294676 -0.011961924
-0.06540584 -0.09085375 -0.02440656 -0.120747186 -0.03449002 -0.04152064 0.07705757 -0.006574071
0.04649858 -0.076816946 -0.032928668 -0.04821824 -0.09987292 -0.077738084 -0.0863988 0.058109827
-0.027728233 -0.04708508 -0.03565014 -0.039934374 -0.07077026 -0.119018205 -0.048086412 -0.015151908
0.0040953797 -0.038224798 -0.059624888 -0.02781871 0.029228069 -0.09778302 -0.057226837 -0.018847093
-0.066815026 -0.056257293 -0.094623245 -0.08569264 -0.054588627 0.07022638 0.03403145 -0.08533447
-0.083982766 -0.03274243 -0.10699706 -0.035036214 -0.1085567 -0.014551753 -0.09823359 -0.121414915
-0.113193646 -0.050395764 -0.042357095 -0.06057977 -0.1168114 -0.05730569 -0.050190277 -0.02021016
-0.032101743 -0.032069437 0.091509916 0.015510933 -0.08843148 -0.114921674 -0.05608548 0.008583731
-0.061453555 -0.10454821 -0.12118419 -0.10764458 -0.06405478 -0.0005888123 -0.011670983 -0.05925106
0.01877343 -0.11502283 -0.038483106 -0.07034198 -0.038175527 -0.047190737 -0.09506249 -0.038547147
-0.063131 -0.06349589 -0.09801994 -0.066341974 0.042801283 -0.015174272 -0.10944859 -0.028128944
-0.07030261 -0.08614145 0.0054106372 -0.09582564 -0.03394609 -0.045281336 -0.025865922 -0.047330383
-0.078090236 -0.050372284 -0.079802014 -0.08359469 0.0022608477 -0.072921515 -0.048198648 -0.0783952
-0.017027875 0.011859112 -0.0696727 -0.08625208 -0.0013922858 -0.08289664 -0.038507678 0.012114404
-0.07955274 -0.09270319 -0.11145731 -0.035721984 -0.0020847765 -0.044077583 -0.1200837 -0.016148364
-0.092988536 0.042801023 -0.072807245 -0.060253847 -0.08927974 -0.016423771 -0.07919111 0.026023455
-0.055210453 -0.059621368 -0.006742495 0.0078747 -0.0028837218 -0.048664134 -0.12167322 0.006384462
0.0018048482 -0.0011515138 -0.019412577 -0.09042601 -0.09904346 -0.07710622 -0.08924079 -0.05398715

Y_net.layer2_input.weight f4 [256, 2]
00000000: c0c5 c4bd 0f8c 1f3f da1e a23e 706c 23be
00000010: 5eaf 62be 6e8f ee3e 993b 13bf 9a97 d73e
00000020: a492 06be 3ab2 30bf a352 093f e3ae 1dbf
00000030: 5059 643d 242c 883e 7e9c 9c3e 009b 843c
00000040: 16c8 f5be a210 c5be 1dbf 1f3f ea64 883e
00000050: 3e7c 9a3e eadd 6dbe 2a23 c13e 700f c5bd
00000060: 7f0a 1b3f 504b 053e 7826 ff3d 347a 49be
00000070: 96a3 e23e 7cf5 0f3e e4e8 15be e015 0fbd
00000080: a988 82be ede8 1b3f 7e1b ba3e 5070 a7bd
00000090: 987d 11be caad db3e 9395 c4be e17d 133f
000000a0: 7183 b1be 7078 903d 9f71 253f 9042 26bf
000000b0: 70a4 3cbe a90b 19bf a630 59be 00c6 c6ba
000000c0: 8444 2dbe 1981 abbe 5c92 5a3e d8fc eabd
000000d0: 8480 233e 25c8 31bf 05b4 dabe 5191 143f
000000e0: d3c7 b3be 92ef 863e 5b98 093f dfda 003f
000000f0: 6121 acbe daaf e73e f554 b0be 0a20 b53e
00000100: b42e 493e 07b5 263f 62e9 c23e 279c 023f
00000110: da79 9e3e 6485 04bf 12cb 30bf b73c 03bf
00000120: 3fb9 e0be 00a0 3d3d 44fa 52be 86ad f53e
00000130: 86d0 bb3e 90ca 10bd 7827 f73d f42f 3a3e
00000140: 0b07 1b3f 8882 fdbd e084 4e3d 407a 183d
00000150: eeff 78be dd10 dcbe 9ea4 fb3e c8b7 aabd
00000160: 2009 413e 7588 0f3f 9148 24bf b3b1 293f
00000170: 909e b83d 694b 2ebf e022 763e eabf d43e
00000180: 1ee7 67be 3a28 9e3e 70f3 42bd 4dcf 113f
00000190: 725c 60be 7b8d 9dbe 2943 123f bf13 013f
000001a0: 0e38 e2be 0d3f 153f f863 23bf c66c a6be
000001b0: 73bc 163f f031 533e b6c5 fb3e 9ad7 af3e
000001c0: 673b 2f3f 6488 0abe 30b5 93bd 516e 213f
000001d0: 26ab c83e bbe4 243f 34cb 4ebe 000c e23c
000001e0: a063 513d 52fa 863e 8ca0 733e 5665 f33e
000001f0: a407 3fbe 2883 2cbe 6b5d 323f 641b 02bf
00000200: 745f 0bbe c149 a5be be61 f63e 4f05 f3be
00000210: bd26 1e3f 1636 efbe 8ac3 af3e 7050 81bd
00000220: 8df0 1c3f 1e57 9d3e e05f 96be 88a6 d33d
00000230: 3e7d 16bf f8eb eabd c66f 62be a5d9 1dbf
00000240: fdab 02bf 1442 3f3e 1ffc 30bf 6075 413d
00000250: 684b 80be ccdc 03be cd73 1d3f 0e03 923e
00000260: 90f9 ef3d 4fab 023f 801d 073e e0d9 05bf
00000270: 7070 483e be3d c03e d993 d1be f3b5 bdbe
00000280: 774e a9be 5069 453e 1a34 f93e 60ae f9be
00000290: 0540 1fbf ddd0 0f3f c017 773d 324a ad3e
000002a0: 1d36 1abf 7331 29bf 042d 33bf 8884 2f3e
000002b0: ddb2 163f 1ba6 2e3f 44b9 f7be 54d4 0fbe
000002c0: 46aa b53e f8ce 12be 4bf8 0abf 4823 bdbe
000002d0: b455 503e a23d f63e 6864 bcbe dfd6 053f
000002e0: cf3b 0f3f 2a2a c03e 7662 1dbf 8887 383e
000002f0: 64b9 0ebf 88e3 f4be 6f1d e1be 8ad3 9bbe
00000300: 6b06 263f 797e 32bf 02fe 6fbe e8a6 953d
00000310: 1617 16bf bbc9 323f e280 e7be 21fc 1d3f
00000320: a96b 103f 0064 d8bc 74f7 713e 1609 77be
00000330: 18e3 a6bd 0e26 1fbf 9fc1 94be acb3 873e
00000340: 00cb fcbd 6a92 63be 0345 95be e3c7 303f
00000350: 9ecf a13e 9822 143e 132e 0c3f fb07 013f
00000360: 1108 103f 22ba 98be 9c34 723e 295e 08bf
00000370: 2aa8 11bf 386b e23d 80b1 313c 3019 26bd
00000380: 48a0 883d b765 d0be 804f 25be fee2 e53e
00000390: 0823 e13d acf7 09be 7070 e8bd 482b 813e
000003a0: b8a3 2fbe 2f0e 233f 007d c2be a24c f13e
000003b0: b2f1 d83e 7e93 d83e 9ec7 9fbe e082 edbd
000003c0: 5258 64be af8a 12bf d29b 06bf 00fe 653c
000003d0: 1843 94be 8856 ff3d 188f 2d3e 0016 f9bc
000003e0: 4902 233f 7871 573e 61db 023f e259 02bf
000003f0: 1caf 3bbe 0abf 32bf 87c2 12bf 29bf bebe
-0.0960803 0.6232309 0.31664163 -0.15959334 -0.2213721 0.46593803 -0.57512814 0.4210785
-0.13141876 -0.6902195 0.5364172 -0.6159498 0.055749238 0.26596177 0.30588144 0.016187191
-0.48004216 -0.38489252 0.6240099 0.2663949 0.30172914 -0.23229185 0.3772214 -0.09622085
0.6056289 0.1301701 0.12458509 -0.19675523 0.4426543 0.14058489 -0.14639622 -0.03493297
-0.25494888 0.6090229 0.363491 -0.08175719 -0.14208066 0.42906028 -0.38395366 0.5761395
-0.34670594 0.07054222 0.646265 -0.64945316 -0.18422103 -0.59783417 -0.21209964 -0.001516521
-0.16920668 -0.3349693 0.21344894 -0.11474007 0.15966994 -0.6944602 -0.4271547 0.58034235
-0.3511339 0.26354653 0.537481 0.5033397 -0.33619216 0.45251352 -0.34439817 0.35376006
0.19646722 0.65119976 0.38068682 0.5101952 0.3095234 -0.5176604 -0.6905986 -0.5126452
-0.43891332 0.046295166 -0.20603281 0.4798395 0.36682528 -0.03534943 0.12068075 0.18182355
0.6055762 -0.123784125 0.05041969 0.03722596 -0.2431638 -0.42981616 0.4914903 -0.08335835
0.18851137 0.5606759 -0.6417323 0.6628677 0.090146184 -0.68083817 0.24036741 0.4155267
-0.22646758 0.30890065 -0.04759544 0.5695694 -0.21910265 -0.30772004 0.5713373 0.50420755
-0.4418339 0.5829933 -0.63824415 -0.32504863 0.588813 0.20624518 0.4917428 0.34344178
0.68450016 -0.13528591 -0.07212293 0.63058954 0.39193076 0.64411515 -0.20194703 0.027593613
0.0511204 0.26362854 0.23791713 0.4753825 -0.18655258 -0.16846907 0.69673795 -0.50823045
-0.13610631 -0.32282832 0.48121446 -0.47464988 0.6177786 -0.46720952 0.34328872 -0.0631417
0.6130455 0.30730528 -0.29370022 0.10334498 -0.58784854 -0.11470789 -0.2211295 -0.61660224
-0.51043683 0.1867755 -0.69134706 0.04723108 -0.2505753 -0.12877196 0.6150482 0.28517956
0.11717522 0.51042646 0.13194847 -0.52285576 0.19574142 0.37547106 -0.4093311 -0.3705288
-0.33067676 0.19278455 0.48672563 -0.4876585 -0.6220706 0.56178075 0.060325384 0.3384567
-0.6023882 -0.6609108 -0.69990563 0.171404 0.58866674 0.68222207 -0.48383534 -0.1404584
0.3548147 -0.14336765 -0.54285115 -0.3694098 0.20345193 0.48093897 -0.36795354 0.5228099
0.55950636 0.3753217 -0.61478364 0.18020451 -0.55751634 -0.47829843 -0.4396777 -0.3043483
0.64853543 -0.6972423 -0.2343674 0.073072255 -0.58628976 0.69839066 -0.45215517 0.61712843
0.56414276 -0.026414871 0.23629552 -0.2412456 -0.081487834 -0.6216744 -0.2905397 0.26504266
-0.12343407 -0.22223821 -0.29154214 0.69055 0.31603712 0.14466321 0.54757804 0.504028
0.5626231 -0.29829508 0.23652881 -0.53268677 -0.56897223 0.110556066 0.010845542 -0.040551364
0.06671196 -0.40702602 -0.16143608 0.44899744 0.1099301 -0.13473386 -0.11349571 0.25228333
-0.17152297 0.6369352 -0.37985992 0.4712878 0.423719 0.42300028 -0.31206983 -0.11597228
-0.22299317 -0.57242864 -0.5258151 0.014037609 -0.28957438 0.124676764 0.16949117 -0.030405998
0.6367536 0.21039379 0.51115996 -0.509184 -0.18328518 -0.6982275 -0.57328075 -0.3725522

Y_net.layer2_input.bias f4 [256]
00000000: b292 be3e 8307 05bf c4e9 12be b147 8bbe
00000010: 7e41 a93e 892e 023f 3af5 efbe 9721 e3be
00000020: 70b6 c7be a025 0cbd 7f3b 8dbe 5eb9 b93e
00000030: d039 da3d 8fbc a1be c827 dc3d a80f 14be
00000040: 00ac fe3a 8e53 5ebe c69f b63e a113 96be
00000050: 2800 ccbe cc1e 7abe 16dc 64be ca53 c03e
00000060: a34e 9fbe 93f7 22bf 4d10 d8be c6bd ff3e
00000070: ec08 3abe 3a09 a03e 5283 d03e 9249 8bbe
00000080: e809 a9bd 7f01 043f 609a c5be 4063 013c
00000090: 7532 093f edca d1be 90f9 54bd 9f6e d2be
000000a0: 8124 173f 24e2 6d3e 0815 173e d29a fd3e
000000b0: b50a cebe 98f7 1b3e 6e5e f53e 8878 2bbe
000000c0: 3667 d23e 3778 2dbf ff53 8abe e442 00bf
000000d0: 06db ae3e 1dbf 133f c82b e03d 8c26 afbe
000000e0: 3f81 22bf 29ec 123f c025 e3bd fe85 8e3e
000000f0: 2fba 043f 5cd9 bdbe b3a9 303f 08a1 fe3d
00000100: 891d 03bf d3bd 22bf b455 44be 8bdd 193f
00000110: c0d5 223e 78eb 563e a0d1 4f3d 1893 8e3e
00000120: b421 26bf f110 b2be b0ec 7dbd 84c6 f5be
00000130: e7fd 003f df08 0abf a7c0 103f df90 b2be
00000140: 7a2e 1ebf 5417 60be 060e 13bf b87f febd
00000150: 70c5 383d 59f6 06bf 60a5 3f3d e940 2c3f
00000160: cfb3 153f 3391 a4be 9e9d d93e adb1 2ebf
00000170: 12c6 e43e a5f9 0a3f e86c 143e 7844 11bf
00000180: 120b bf3e 1c85 813e bfc3 31bf be24 e0be
00000190: d7fd 1cbf 38a5 ffbd 00c3 7ebb 8434 543e
000001a0: 9c64 27bf 0abb f63e 96a9 ac3e 041a bcbe
000001b0: ff34 343f ea4a ee3e 2f34 333f 8943 183f
000001c0: 754d 2abf ac5d 19bf ea51 16bf c5e2 07bf
000001d0: 50a0 0abe 9ff7 26bf 9660 b03e c0df 1d3d
000001e0: 1c79 a5be fea4 88be f022 fdbd 2045 083d
000001f0: 358c e5be 663e d1be adfe e2be 5f0d 2bbf
00000200: 4828 ff3d 14aa 29bf aef0 c33e db07 8bbe
00000210: b7c1 29bf 3c74 6c3e ce67 bf3e 0245 dfbe
00000220: 6084 cb3d 6830 913e e3e6 073f a2ce a93e
00000230: e77d e9be 926e 983e 0030 b4ba ca73 29bf
00000240: 2b1c 8cbe 2d1f 12bf 5664 bc3e 2ee5 a03e
00000250: 2c16 28bf b885 33be 071b c5be c02b 9b3d
00000260: 80ba 533e 79ef 8ebe 37e0 2c3f f008 643d
00000270: 38e6 0d3e e83e 07be 741a 0d3e 4112 82be
00000280: 48c6 debd ded5 863e 0c98 42be 6adf af3e
00000290: 3203 07bf 4eca cdbe dc9e 5f3e 7082 69bd
000002a0: 7b8e f0be 9083 70be f84c 09bf 74e1 923e
000002b0: 1ed2 18bf 6529 273f ce65 973e 688c 343e
000002c0: c819 07be 1f21 15bf c03e ce3c 6ce9 8fbe
000002d0: 865a d33e c039 16be 68b6 a73d 306b 333e
000002e0: 7cc7 3f3e 6f04 bdbe 03d9 1b3f 2cf0 5b3e
000002f0: aa9f 0dbf 31e8 013f 7c61 71be f74c 333f
00000300: 3ecc 913e 90ec 76be f6c1 b6be 8799 c4be
00000310: a44e f9be 7270 e63e 804c 6b3d f437 00bf
00000320: 1511 123f 3859 083e 002a 18be 609a 113e
00000330: a49d 17be 78d3 a8bd 8858 143e d798 12bf
00000340: 22e2 8b3e e2da f13e a2a8 7bbe 8410 663e
00000350: 9003 f83d 6b0c 183f 7a8f f2be 8ea1 fb3e
00000360: ccae 22bf b61b b93e 7a24 de3e c85d 21be
00000370: 12b9 b73e 005f 163e c8c2 4bbe be3b 803e
00000380: 60f2 bbbc 2a05 02bf 86a6 13bf b21b 10bf
00000390: 6aaa c73e d045 8d3e 2008 6dbe 1216 9b3e
000003a0: 8b17 96be 800d f7bd 40fd a9bd ee84 06bf
000003b0: 1b88 87be b0dd 4c3d 420e b13e 44a2 3d3e
000003c0: db45 1d3f 009a 733e 48dd dcbd 3031 14be
000003d0: d9d2 eabe bc11 383e ab29 123f 90d4 fdbe
000003e0: c840 033e b68b d13e 36df 87be 32f6 d0be
000003f0: 5d57 9dbe 9edb 8cbe e0a6 0abe da74 0abf
0.37221295 -0.51964587 -0.14346987 -0.27203134 0.3305778 0.50852257 -0.4686678 -0.44361565
-0.39006376 -0.03421557 -0.27584454 0.36274236 0.10655558 -0.3158917 0.10749775 -0.14459097
0.0019429922 -0.21711561 0.35668772 -0.2931185 -0.3984387 -0.2442581 -0.22349581 0.37563926
-0.31114683 -0.6365902 -0.42199937 0.49949473 -0.18167466 0.3125704 0.4072519 -0.27204567
-0.082538426 0.5156478 -0.3859434 0.007897198 0.53592616 -0.40975133 -0.051995814 -0.41100022
0.59040076 0.23230797 0.14754117 0.4953218 -0.40242544 0.15231168 0.47923607 -0.16745198
0.4109437 -0.6776156 -0.2701721 -0.50102067 0.34151477 0.5771349 0.109458506 -0.34209096
-0.63478464 0.573916 -0.110911846 0.27836603 0.51846594 -0.37079895 0.6900894 0.12433058
-0.5121694 -0.635709 -0.19173318 0.6010367 0.15901852 0.20988262 0.050737023 0.278466
-0.64895177 -0.3477855 -0.0619933 -0.48003018 0.50387424 -0.53919786 0.56543964 -0.34876153
-0.6178967 -0.21883899 -0.57443273 -0.12426704 0.045110166 -0.52719647 0.046788573 0.67286545
0.5847749 -0.32142028 0.42503065 -0.6823986 0.44682366 0.5428718 0.1449467 -0.567451
0.37313133 0.25296867 -0.6943931 -0.43778032 -0.6132483 -0.12482685 -0.0038873553 0.20723158
-0.6538789 0.48189574 0.33723134 -0.36738598 0.70393366 0.4654153 0.700015 0.5947805
-0.6652444 -0.59908557 -0.5871874 -0.530804 -0.13537717 -0.6522159 0.3444869 0.038543463
-0.32318962 -0.2668838 -0.123601794 0.033269048 -0.44833532 -0.4086792 -0.44334927 -0.6681728
0.12458855 -0.66275144 0.38269562 -0.2715443 -0.6631121 0.23091215 0.37383884 -0.43607336
0.09937358 0.28357244 0.5308668 0.3316546 -0.45603868 0.29771858 -0.0013747215 -0.66192305
-0.2736524 -0.5707882 0.367953 0.3142485 -0.6565883 -0.17531478 -0.38497183 0.07576704
0.20676613 -0.27917078 0.67529625 0.055672586 0.13857353 -0.1320759 0.13779622 -0.25404552
-0.10877663 0.26335043 -0.19003314 0.3435014 -0.5273925 -0.4019341 0.21837944 -0.05700916
-0.46983704 -0.23487687 -0.5363307 0.28687632 -0.59695613 0.6529754 0.29569858 0.17631686
-0.13193429 -0.58253664 0.025176406 -0.28107774 0.4128 -0.14670467 0.08189088 0.17521358
0.18728441 -0.36917445 0.6087801 0.21478337 -0.55321753 0.5074492 -0.23572344 0.70039314
0.28476137 -0.24113679 -0.35694855 -0.38398382 -0.4869281 0.45007664 0.057446003 -0.5008538
0.57057315 0.13315284 -0.14859772 0.14219046 -0.14806229 -0.082434595 0.14486897 -0.57264465
0.27320963 0.47237307 -0.24576047 0.22467238 0.121100545 0.5939395 -0.4737509 0.49146694
-0.6354797 0.36153954 0.43387204 -0.15758431 0.35883385 0.14684677 -0.19898522 0.2504558
-0.022942722 -0.5078913 -0.5767597 -0.5629226 0.38997203 0.27592325 -0.2314763 0.30290276
-0.29314837 -0.12063122 -0.08300257 -0.52546585 -0.26471028 0.050016105 0.3458119 0.1851893
0.61434716 0.23789215 -0.107843935 -0.14471889 -0.4586399 0.17975515 0.5709483 -0.49576235
0.12817681 0.40926903 -0.26537484 -0.40812832 -0.30730715 -0.27511305 -0.1354022 -0.5408455

Y_net.layer3.weight f4 [256, 256]
00000000: 8a54 cfbd 3818 1b3c 7335 5abd b170 38bd
00000010: 082f bebc 6332 903d 9e71 1c3d e52b 8fbd
00000020: 2be4 92bd 557d 0e3b 5083 193c 027e adbd
00000030: c92e a03d 6aa8 2ebd cf91 163d b4c1 c6bd
00000040: 6f6d c8bc 5061 12bc a1e5 95bd 3707 183c
00000050: 53ae 603c d7fa 343d 4d70 d2bd 3d06 6cbb
00000060: 0940 a8bd f254 12bd a456 e13c c2d3 5cbd
00000070: 3e85 17bd 6cde 01bd 0933 89bd b1c0 d8bd
00000080: f578 133d 2ee7 833d e3cf 08bd 7a0a c03b
00000090: 7c77 cbbd 3c6a 96bd 05aa 973d 9f3b babd
000000a0: da5b 13bd cfc0 05bc 303a 413d 17a9 c1bd
000000b0: 7022 9bbd d63b 03be 2ac3 b43d 6ca9 80bd
000000c0: 220f b13d 61f6 053d 3509 a53a 6041 90bd
000000d0: 5b29 1c3c 81e3 09bd 0edb 25bd 5116 a2bd
000000e0: 42ae 87bd c751 d0bd 51e0 0ebd c9de cbbd
000000f0: 1797 aebd c3bd c93c c138 c8bd 5dd7 cc3d
00000100: c465 edbb 90f4 9abb 9ee0 d73d ae97 ffbd
00000110: 402e da3c d348 c33d 3f07 683d 5af2 60bd
00000120: a49a 7cbd e592 48bd 581e c6bd 6dbc ec3b
00000130: 029d 933c 6d9d 89bd 8c3d 2dbb 7d49 d6bc
00000140: 3936 a8bd 70b7 8b3c 513d edbc 9e2c 473c
00000150: 05c8 193d 181c 88bd 728b 16bd b9e8 b0bd
00000160: e099 863c c5d2 7e3d c126 6abb e078 49bd
00000170: 5031 68bc f750 d9bd ec1e 2e3d 5333 f13d
00000180: c5f6 78bd 96c7 57bb 26b1 ed3d 2296 603c
00000190: ab07 413a 3482 b0bd ddba a43c 3eee 6ebd
000001a0: 1727 de3d 79a5 c5bd 8b5a a0bd ca70 50bd
000001b0: 6343 ac3d 239c acbd 5ba2 80bd f27f a43b
000001c0: 42e0 34bc 032a 9cbd 724c 13bd a3e0 bdbd
000001d0: 6f5d eab9 2559 30bd c0ee efbc dffb 95bc
000001e0: 8718 9ebd 5d75 97bd 3487 45bc 8179 aebd
000001f0: 8d19 76bd f05b 7abd 3a04 eebc 0b0c c3bd
00000200: 2ce6 9fbb a4ed e03b 6610 633d 3ac1 d1bd
00000210: 74d7 eb3c c54b 18bd 8231 24bd 51de 293c
00000220: 5df6 ccbd 5c81 38bd 530a 5bbd 0f8d 9abd
00000230: 7f1c e1bd c6dd 52bd 5dc7 e0bd 3f0a cabd
00000240: 0381 c23c 5e46 c7bc 6337 cdbd 8912 aabd
00000250: dc52 aa3c 5073 343c be17 35bd e4da b6bc
00000260: 1265 57bd 9d0b 5dbd 55c9 3e3d 7896 cebc
00000270: 2826 c33b 1637 dbbc 9f80 7ebd 2cd5 98bd
00000280: bb66 c1bd a233 9f3d f69a ce3c 22f3 98bd
00000290: f221 893d 0212 c4bd 7fa8 2fbc 1f69 a8bd
000002a0: c66c 693d 9735 953d 22c8 ef3d 1915 92bd
000002b0: cebc c7bc 80e4 29bb 3ebb 97bd 23cd 0bbd
000002c0: dd8e afbc 749c a6bd d0e4 d2bc e348 86bd
000002d0: 6b07 f03d c98d 91bd 98d4 80bd 00d3 cfb9
000002e0: 3caa 8dbb 350b b0bd 55bb 7e3a 7cb7 8dbc
000002f0: 6ec5 7dbc 7ccf 3cbc 01ac 3dbd 74d3 c1bd
00000300: 56e7 d3bd 8a54 f9bc 8489 d13d ffbd ccbc
00000310: c777 ebbd abd5 353c 90fc 0e3d 60de 30bd
00000320: 8f14 623b 5c84 ec3d 4115 383b 1b72 6ebb
00000330: 9be4 b53d 0862 ecbc 74a5 97bd 7a5e a0bd
00000340: 17e6 d4bd 1ae2 dd3c addd 90bd 152a 1dbd
00000350: 3aaf 8cbd a603 8ebd c5e7 a8bd 73a9 d43d
00000360: 183b 8d3c 652c c6bc 0875 9a39 f5d6 56bd
00000370: 1daf abbd 3f9f 65bc 8550 263d 04b9 16bd
00000380: 4808 afbd 1bc5 69bd 84db 363a 3eb0 b2bc
00000390: 41e3 663d 4dac 8dbd 194e 0abb b36d 7ebc
000003a0: 40c8 5fbd 1805 5fbb c2b0 2fbd c0e2 f13c
000003b0: b33e 47bd 2848 353c f946 f33c 20f6 9dbc
000003c0: 7e02 63bd f733 fa3d 3ad3 83bc 3757 d9bd
000003d0: fe8f 71bd bd9b a9bd f04a bd3d 820a 17bd
000003e0: 867f ab3b 68ff f13c 62f5 5fbd 9ddd 98bd
000003f0: 10af 6a3d f045 15bc a77e 34bd d531 45bd
-0.101235464 0.009466223 -0.05327363 -0.045029346 -0.023215786 0.070408605 0.03819429 -0.06990794
-0.07172426 0.0021742184 0.009369686 -0.084713 0.078214236 -0.04264108 0.036760148 -0.09704915
-0.024466245 -0.008934334 -0.07319189 0.009279064 0.013713437 0.044184532 -0.10275326 -0.003601446
-0.08215339 -0.03572554 0.027507134 -0.053912885 -0.036992304 -0.03170626 -0.06699187 -0.10583628
0.036004025 0.064405784 -0.03340138 0.005860624 -0.09934899 -0.07344481 0.074054755 -0.09093403
-0.03597627 -0.008163645 0.047174633 -0.094560795 -0.07574928 -0.12815794 0.08826287 -0.06282315
0.086454645 0.03270567 0.0012591245 -0.07043719 0.009531344 -0.03366423 -0.04049211 -0.07914413
-0.06625034 -0.10171848 -0.034881894 -0.09954602 -0.08524912 0.024626618 -0.0977645 0.10002015
-0.0072447974 -0.004728861 0.10540889 -0.124801025 0.026633382 0.095353745 0.056647535 -0.054918624
-0.061670914 -0.048968215 -0.09673756 0.0072246105 0.018019203 -0.0671948 -0.002643439 -0.026158089
-0.08213467 0.017055243 -0.028959902 0.012156634 0.03754427 -0.066459835 -0.03675408 -0.08638138
0.016430795 0.062212724 -0.0035728666 -0.04918754 -0.014171913 -0.10611146 0.04250996 0.117773674
-0.060782213 -0.003292536 0.11606054 0.013707669 0.00073635083 -0.08618584 0.020108635 -0.058332674
0.108472995 -0.09650702 -0.0782977 -0.050888814 0.084112905 -0.08428218 -0.06280967 0.005020135
-0.011039795 -0.076252006 -0.035961576 -0.09271362 -0.00044701571 -0.043053765 -0.02928865 -0.018308578
-0.07719522 -0.07395432 -0.012056161 -0.08519269 -0.06008296 -0.061122835 -0.02905475 -0.095237814
-0.0048797335 0.0068642665 0.05543556 -0.10241933 0.02878926 -0.037181634 -0.040086277 0.010367946
-0.100079276 -0.04504524 -0.053476643 -0.07546436 -0.10991763 -0.05148103 -0.109755255 -0.098652355
0.023743158 -0.024325546 -0.1002033 -0.083043166 0.020791464 0.011013821 -0.044212095 -0.022321172
-0.052586623 -0.053966153 0.046578724 -0.025218233 0.0059554763 -0.026759665 -0.06213438 -0.07462534
-0.094434224 0.0777352 0.025220376 -0.07468249 0.06695928 -0.09573747 -0.010721325 -0.08223175
0.0569885 0.07285612 0.11708094 -0.0713293 -0.024382021 -0.002592355 -0.074087605 -0.03413118
-0.021430427 -0.0813531 -0.025743872 -0.06556871 0.11720165 -0.071071215 -0.06290549 -0.00039639324
-0.004323272 -0.085958876 0.00097172457 -0.017299406 -0.015488965 -0.0115240775 -0.046306614 -0.094641596
-0.10346858 -0.03043582 0.10231307 -0.024992941 -0.11497455 0.011098306 0.03490883 -0.043180823
0.0034497117 0.11548683 0.002808884 -0.003638393 0.08881494 -0.028855339 -0.074046046 -0.0783052
-0.10395449 0.027085353 -0.07073531 -0.03837021 -0.06869359 -0.0693429 -0.082473315 0.103838824
0.017240092 -0.02419109 0.00029460364 -0.052451093 -0.083830096 -0.014015018 0.040604133 -0.03679754
-0.085465014 -0.05707274 0.00069754594 -0.021812554 0.05636907 -0.069176294 -0.0021103679 -0.015529084
-0.054634333 -0.0034030136 -0.04289318 0.029527068 -0.04864378 0.011064567 0.029696928 -0.0192824
-0.0554223 0.12216943 -0.016091932 -0.10612338 -0.058975212 -0.08281658 0.09242809 -0.036875255
0.005233708 0.029540733 -0.054677375 -0.074641444 0.05729586 -0.009110913 -0.044066098 -0.048143227

Y_net.layer3.bias f4 [256]
00000000: b526 633c 12e1 cabd 9cf3 f2bd 24fd cebd
00000010: c216 4dbd 7630 b3bd 1791 8bbd 3a62 d8bd
00000020: 77da 22bd 8066 1dba ef32 acbc 3071 cebb
00000030: 5010 77bd 1a1e 313b 40e3 0a3d 4562 213c
00000040: 99f8 96bd 1df5 7b3b e154 acbd f551 8bbd
00000050: f15c c6bc 10fd da3b 4705 f7bd 6dab b1bd
00000060: 9ec6 9fbc 2ff9 7ebd aa87 38bd 402a edbd
00000070: 059a f8bd 0a97 f7bc fa0a 13bc 02d2 aabd
00000080: b12b eebd ec83 cabc 53be 15bd faeb aabd
00000090: c3d2 77bb 51e0 adbc 35a5 813d 521e 88bd
000000a0: 2ba6 b4bc e251 babd 606f 3cbd 4ce0 a2bc
000000b0: 83ae cd3a b737 063c bf29 82bd 8e23 e3bc
000000c0: b666 37bd 9bcc 2c3b 2c1f 6dbd 099a 50bc
000000d0: 876a edbd 3718 b3bd ef73 6abd 0fab 88bd
000000e0: 0d6e c2bd 3a61 39bd 4691 58bd 089f b8bd
000000f0: 0c60 c5bd 8053 a2ba 93b4 453c 1a05 26bd
00000100: 3c1e fcbc 46a7 0cbd 2fde 91bd 3b76 89bd
00000110: 46a7 55bd a3d8 36bd 5618 85bd 98c0 a6bd
00000120: f352 9fbd b8de 4fba 08c0 f5bd c2fa dfbd
00000130: 5494 96bd c484 9fbd 74f6 6dbc 79ec 6ebd
00000140: 82ed bdbd 1166 9539 c71c d9bd ac86 f0bc
00000150: 27a9 eebc 2b92 90bd ff41 8cbb 8383 a2bc
00000160: 7af2 073c dda3 75bd c8d6 b0bd 5cdd 4dbd
00000170: 75c2 d0bd fe03 2fbb 5b96 8abd 5bb0 47bb
00000180: 2eb8 a0bd 00aa c2bd 39a1 cbbd 00ff 453a
00000190: b0c9 333c 4622 efbc 0d57 50bd 19d9 0fb9
000001a0: 7f6a d539 7838 a8bd fca9 b7bd 004e d9bd
000001b0: 218e 303d e93b 92bd dbb5 75bd dbbb 9bb9
000001c0: 19b8 28bb b650 a8bd 1f11 31be f71e d8bd
000001d0: 66a4 9cbc c741 f0bd d9cc bc3a 25c9 5cbd
000001e0: 96a3 a2bc 6c9c 3bbd 6a0d 08bd 5be7 8dbd
000001f0: 2b44 67bd cea5 b3bd cae2 91bd 4a08 713d
00000200: 873e 65bd b069 f4bd 7eb7 2bbc 77bb 47bb
00000210: 4d9a fcba 6e6a 7ebd 6d6d 97bc 271f 6e3d
00000220: 80eb 02ba 4211 4ebd 6842 0d3d cdbf 85bd
00000230: b74c 88bd c972 a1bd 63a3 fabd d51e 4cbc
00000240: 82ac 533d 8ac0 d4bd 842a 80bd be0f d93d
00000250: b768 e0bc 3fa7 58bd 2b73 d2bd f14c 48bd
00000260: 0201 2dbd da25 bfbd f5f8 04bd ae29 f1bd
00000270: fe5c e9bd 872b d6bc 3328 0dbc 14c4 e8bd
00000280: 3d21 73bd 2fa2 9bbc 3cc7 a9bc d880 9abd
00000290: c635 dcbd 258a 92bd e8a5 323c ee97 ddbd
000002a0: 2413 3abd a6db d13a 5487 923d dc45 07bd
000002b0: ed92 a3bd 6f45 edbd 20c8 4cbb 2438 c63c
000002c0: aced 15bd 1a46 d8bd ce6c 943d 25c1 4cbd
000002d0: eae6 9fbc 154a 23bd 8dbb fdbb eddf 86bd
000002e0: dc2c d4bd ab4b c3bd 686d 233d 22b2 b3bd
000002f0: 8df3 11bb 458b cfbd de44 a5bc 735a 81bd
00000300: 6ffd 553b d01a b238 98cf 8ebd 7857 94bb
00000310: bef5 e7bd b0ca e1bd 3858 82bc 280c 38bd
00000320: 4450 22bd 7b28 bcbd 00d2 abba 12d9 173d
00000330: 62fa 24bd 2b01 00bc 6ab6 c9bc 0378 8fbc
00000340: cae3 ecba ad51 58bc 25b3 1cbd 66e0 dfbb
00000350: 3a56 85bd dc9e fabd 1141 acbd b69a efbd
00000360: ce3b d3bd 91ab d3bd c29f 76bd e432 99bd
00000370: 2000 7bbd 0684 2ebd 4653 a7bd e18a c5bc
00000380: 5bbc d33b b6c8 16bd 3492 9cbd a232 a4bd
00000390: 2b81 9abc 001a 99bd f383 acbd dc5b 7bbb
000003a0: 3bda 4ebd abf0 a5bd a0e6 a7bd df2e eebd
000003b0: 1c85 b7bd 753e 9bbd aee6 87bc 12f5 8abb
000003c0: d36e 85bc 41be 9fbd 1342 cfbc 70aa 103c
000003d0: 59ac 75bd 11ca ddbd 1b69 92bd 144a e9bd
000003e0: e4ac b0bd 6fbb 98bd aa1d 92bd e612 aabd
000003f0: 5665 06bd ce93 82bc 4437 2c3c 2694 84bd
0.013864209 -0.0990621 -0.11862871 -0.101068765 -0.05007053 -0.087494776 -0.06814783 -0.1056561
-0.039759126 -0.00060043484 -0.02102038 -0.006300114 -0.06031829 0.0027025999 0.03390813 0.009850089
-0.07371635 0.003844566 -0.08414627 -0.068027414 -0.02421424 0.0066829994 -0.120615534 -0.08675275
-0.019503888 -0.06224936 -0.045051254 -0.11580324 -0.12138752 -0.030223388 -0.008974785 -0.08340837
-0.11629427 -0.024721108 -0.03655846 -0.0834579 -0.0037814833 -0.021225126 0.06330339 -0.06646408
-0.022051891 -0.09097649 -0.046004653 -0.019882344 0.0015692267 0.008191994 -0.06355619 -0.027726915
-0.044775687 0.0026367072 -0.057891056 -0.012732037 -0.11592584 -0.08744853 -0.05723947 -0.06673252
-0.09493647 -0.045258738 -0.05287292 -0.09014708 -0.0963746 -0.0012384504 0.012066978 -0.04053221
-0.030776136 -0.034339212 -0.07122456 -0.06712004 -0.052161478 -0.044640195 -0.06498782 -0.08142203
-0.07779493 -0.0007929611 -0.11999518 -0.109365 -0.0735251 -0.07788995 -0.014524091 -0.058330987
-0.09273817 0.0002849554 -0.10601192 -0.029361092 -0.029133392 -0.07059129 -0.0042803283 -0.0198381
0.008297557 -0.059970725 -0.08634716 -0.050259933 -0.1019334 -0.002670526 -0.06766959 -0.0030470106
-0.078476295 -0.09505081 -0.0994286 0.00075529516 0.010973379 -0.029191148 -0.050864268 -0.00013718418
0.00040705872 -0.082138956 -0.08967969 -0.106105804 0.043104295 -0.07140333 -0.059987884 -0.00029703867
-0.0025744496 -0.082185194 -0.17291687 -0.10552781 -0.01912136 -0.11731296 0.0014404311 -0.053902764
-0.019853394 -0.045803472 -0.033215918 -0.06928893 -0.056461494 -0.08771859 -0.07123335 0.058845796
-0.055967834 -0.11934221 -0.01048076 -0.0030476728 -0.001927206 -0.062113218 -0.018484795 0.058135178
-0.00049941987 -0.050309427 0.034487158 -0.06530724 -0.06655257 -0.07883222 -0.12238195 -0.012458523
0.05167819 -0.103882864 -0.06258109 0.10598706 -0.027393682 -0.052893873 -0.10275873 -0.048901502
-0.04223729 -0.093333915 -0.032463986 -0.11775528 -0.1139469 -0.026143802 -0.008615541 -0.11365524
-0.05935787 -0.018998234 -0.020724885 -0.07544106 -0.10752444 -0.07155255 0.010903813 -0.10819994
-0.04542841 0.0016010895 0.07154718 -0.033025607 -0.07987008 -0.11585509 -0.0031247213 0.024196692
-0.036603615 -0.10560246 0.07247315 -0.049988884 -0.019519288 -0.039865572 -0.007743305 -0.06585679
-0.10360119 -0.09535917 0.03989926 -0.087742105 -0.0022270412 -0.101339854 -0.02017444 -0.0631608
0.003265228 8.4926956e-05 -0.06973189 -0.0045270287 -0.113261685 -0.11024988 -0.015911207 -0.044933468
-0.03962733 -0.091874085 -0.001310885 0.03707225 -0.040277846 -0.007812778 -0.024623115 -0.01751328
-0.0018073258 -0.013203067 -0.038256783 -0.0068321703 -0.06510587 -0.12237331 -0.08410848 -0.11699431
-0.10314141 -0.10335458 -0.06021095 -0.0748041 -0.061279416 -0.042606376 -0.0817018 -0.024114074
0.0064616627 -0.036812507 -0.076450735 -0.0801747 -0.01886042 -0.07475662 -0.08423605 -0.0038354313
-0.05050109 -0.081025444 -0.08198285 -0.11630034 -0.089609355 -0.07580272 -0.016589489 -0.0042406404
-0.016288197 -0.0779996 -0.025300061 0.008829698 -0.059978817 -0.10829557 -0.071489535 -0.113910824
-0.08626726 -0.07457625 -0.07134564 -0.08304386 -0.032811485 -0.01593962 0.010511223 -0.064735696
