models/saved/pinn_Resnet_ReLU.pth (torch, 809209 bytes, 15 tensors)

Y_net.layer1.weight f4 [256, 2]
00000000: 1609 033f 81f2 05bf 88b8 23bf 39d9 07bf
00000010: f12a 123f 7f00 a0be a7d0 063f e689 f5be
00000020: 2791 2bbf acad 693e de38 5dbe 99a5 dc3e
00000030: 24cb 19bd ff03 bebe 3cd0 1f3f 5e24 8c3b
00000040: 4092 23be 4016 8a3c 86cd 523e dd64 debe
00000050: dc72 273f a0ea edbe a0ee b83e 578e aebe
00000060: d5cf 1c3d e4ed 4bbe 3450 053f 05cf 1c3f
00000070: e694 45bf 4c3e 2d3f 1f19 db3d 2c28 32bf
00000080: 36d3 f4be 522c 383e fea8 30bf dcd3 96be
00000090: b118 55bf 1054 093f 728b 23bf 453a 4bbe
000000a0: e18d cabe 46dd 9b3e 06eb 17bf f0bf debe
000000b0: 82bf a7be a009 36bb a81b 1b3f c954 00bf
000000c0: f27c b33e ced9 6a3e b2d9 953e 9547 4d3e
000000d0: bcc5 0ebe d0ee 02bd 40c8 ef3d 2059 c2bc
000000e0: b697 7cbe 6923 743e 4046 b2bd 0006 4a3b
000000f0: aa93 113e d165 b8be cd85 9c3e 0565 a93a
00000100: dfc6 3cbf 6c41 1dbf 56f9 41bf 2742 e5bc
00000110: 8a87 1e3f e0ee 0dbf 6b6f 863d 7e31 123e
00000120: 2238 e63c 0553 cc3e bbdb 8c3e 7c71 11bf
00000130: d094 7c3d 1a05 00bf 0bdf 25be b731 04bd
00000140: c41f d73e 34e8 bf3e 2a75 91be 9e4e d23d
00000150: 0216 1dbb af9d c7be 2309 e5be 40ab 1a3d
00000160: 35ae 40bf 8ea0 c03e df7f df3e 3447 093f
00000170: 9156 a2bf 39b6 b5bd afff 1b3f 92b4 94be
00000180: 3f5e 0cbf 2123 c6be e259 2ebf 62db f3be
00000190: 5534 5bbf 11d8 2bbf 89d1 cdbe 7310 11bf
000001a0: 6145 13bf a030 dbbd a88b 223f 2dd5 34be
000001b0: 0bef 39be 087f f3be 49c1 d43e 27d2 d1be
000001c0: 4d76 13bf a080 7f3e a770 f93e b730 5a3b
000001d0: e021 d03d 61d8 43bf 4a42 173e f116 08bf
000001e0: 2482 31bf 8cb3 8a3e 538d c2bb 72ef 3bbf
000001f0: 58c0 93bd 5d69 d53e 4df0 f0be 322e 1dbe
00000200: 58f3 9fbc f216 e1be 065d c93e 1ff0 abbe
00000210: beba afbd d8e5 06bf c63d f43e a673 893e
00000220: cb48 0bbf 94a9 623e b731 25bf e89c acbd
00000230: fe87 3bbf d704 a83e 5ca7 f6be e06c 01bf
00000240: 7404 4dbe 760a 8bbe bd69 14bf 7fa5 cc3e
00000250: 13a0 053f 5487 f4be b2b0 20bf 1486 e93e
00000260: 76a8 97be 03df 0cbf ef00 49be 8e0e 483d
00000270: ddad 1bbf 95a0 d23e e6f8 e13e 9ed5 16be
00000280: b76c 0fbf 06a7 9c3e 0721 42bf e57a 00bf
00000290: 1168 183f 779a 1c3f d96f 00bc f2ec 203f
000002a0: 01ef 03bf 48e9 93be d668 46be 6d5e 8a3e
000002b0: 9e94 0ebf 0720 343e e9e0 f83e c915 c6be
000002c0: f649 16bf 588f de3d 2230 12bf 1026 a63d
000002d0: 9fac 65be 4f06 5b3c 5fef 103f 6a98 f93e
000002e0: 162e 5bbe 8f9e d73e ee8d fd3d 2df0 f23e
000002f0: 4ff5 08bf 10b8 eabd fc51 d6be 0070 44be
00000300: 0530 17bf c6b4 d03d b1d4 543d 3131 c4be
00000310: 3cda c7be 4002 c1bd a31b d03e fd8e 56be
00000320: 91ce 223e 76e8 83be 8f73 3dbf 3632 293f
00000330: 4668 4f3d 03e9 dcbe 4f1f 0abf dc6e e13e
00000340: 9f0f 1bbf 7c56 413f be90 e13e 9486 04bf
00000350: 71b0 c23e e0d9 033e 7bfb debe a0ef fb3e
00000360: c364 19bf 3998 17bf 9b26 21bf 5060 2e3e
00000370: c07a e0bc 3cd3 093e 34de b4be e274 fcbe
00000380: 2813 0a3f 08e8 17bf 5f58 bd3e 48bb 163f
00000390: 940a 253d e042 adbe 4725 29be fbac 143f
000003a0: 864d 183f 0e44 2abe 7141 b63e ad07 f2be
000003b0: 125b e43e b1dc 8cbe 6d7d ca3e a637 ca3c
000003c0: c0c1 bb3e 6b31 883e 00ff 083f f7d3 d93e
000003d0: cee8 11bf c4ad 8f3e 6553 1f3f 5647 8ebe
000003e0: 860a c3be 0e2e 93be a140 90be 7c82 54bc
000003f0: dce2 063e ddec d0be d93d f93e 69ed 153f
0.5118574 -0.52323157 -0.6395345 -0.5306583 0.57096773 -0.31250378 0.5266213 -0.4795677
-0.6701836 0.22820157 -0.21603724 0.4309509 -0.037547246 -0.37112424 0.62427115 0.0042767962
-0.15973759 0.016856313 0.20586213 -0.43436328 0.65409636 -0.46468067 0.36119556 -0.34092972
0.03828414 -0.19914967 0.52075505 0.61253387 -0.77180326 0.6767318 0.10698151 -0.6959255
-0.4781739 0.17985657 -0.6900786 -0.2945851 -0.832408 0.53643894 -0.6388465 -0.19846447
-0.3956137 0.30442256 -0.5934299 -0.43505812 -0.32763296 -0.0027776733 0.60589075 -0.5012937
0.35056263 0.22934648 0.2926765 0.20046838 -0.13942617 -0.03196603 0.117081165 -0.023724139
-0.24667248 0.23841633 -0.087048054 0.003082633 0.14216486 -0.3601518 0.30570832 0.0012923783
-0.73740953 -0.6142795 -0.7577108 -0.027985645 0.61925566 -0.5544262 0.0656422 0.14276692
0.028102938 0.3990709 0.2751139 -0.5681379 0.061665356 -0.50007784 -0.16198365 -0.032273974
0.42016423 0.37481844 -0.28409702 0.10268901 -0.0023969417 -0.3898749 -0.44733533 0.037760973
-0.7526582 0.37622494 0.43652245 0.5362427 -1.2682668 -0.08872647 0.6093702 -0.29044014
-0.5483131 -0.38698676 -0.681059 -0.47628313 -0.8562673 -0.67126566 -0.40198925 -0.56665725
-0.5752774 -0.10702634 0.6349435 -0.17659445 -0.18157594 -0.47557855 0.41553715 -0.40980646
-0.5760239 0.2495141 0.4871876 0.0033293196 0.10162711 -0.76502043 0.14771381 -0.53160006
-0.69339204 0.27090108 -0.0059372573 -0.7341224 -0.07214421 0.41681948 -0.47058335 -0.15349653
-0.019525215 -0.43962818 0.39328784 -0.33581635 -0.0858054 -0.52694464 0.4770338 0.26846045
-0.5440795 0.22135001 -0.64528984 -0.08428365 -0.7325438 0.32816193 -0.4817456 -0.50556755
-0.2002123 -0.2715642 -0.57973844 0.39970013 0.5219738 -0.47759497 -0.62769616 0.45610106
-0.29620713 -0.5502779 -0.19629262 0.048842005 -0.6081217 0.4113814 0.44135207 -0.14729926
-0.5602526 0.3059618 -0.75831646 -0.5018752 0.5953379 0.61173195 -0.007839167 0.6286155
-0.51536566 -0.28888917 -0.19375929 0.27025166 -0.5569552 0.17590342 0.48609093 -0.38688496
-0.58706605 0.108671844 -0.57104695 0.081127286 -0.22429131 0.013368203 0.5661525 0.48749095
-0.21404299 0.42113158 0.123805866 0.47448865 -0.5349931 -0.114608884 -0.41859424 -0.1918335
-0.59057647 0.1019073 0.05196065 -0.3831878 -0.39033687 -0.09424257 0.40646085 -0.20952983
0.15899111 -0.2576329 -0.74004453 0.6609224 0.050636552 -0.43146524 -0.53954023 0.44029891
-0.6057071 0.7552259 0.44055742 -0.5176785 0.3802524 0.12876081 -0.4355124 0.49206257
-0.59919375 -0.5921665 -0.6294953 0.17028928 -0.027402282 0.13459486 -0.35325778 -0.49307925
0.5393548 -0.59338427 0.36981484 0.5887952 0.04029329 -0.33840084 -0.16518126 0.5807645
0.5949329 -0.16627523 0.35596803 -0.4727148 0.4460073 -0.27512124 0.39548817 0.024684738
0.36671257 0.26600203 0.535141 0.4254453 -0.56995857 0.2806226 0.62236625 -0.277888
-0.38093966 -0.28746074 -0.28174308 -0.012970563 0.13172477 -0.40805712 0.4868 0.58565384

Y_net.layer1.bias f4 [256]
00000000: 0103 f6be f7d3 ecbe e5a7 1ebc 4969 15bf
00000010: 8f7b d6be 9c27 16bf 5270 00bf 2ab3 a2be
00000020: 8116 9abe 1fe0 c23e e9a8 513e 8e77 1a3e
00000030: 0efd a7be 5ed6 753e 360e f8be 882a 2dbe
00000040: 5879 243f 0da2 cd3e 9aa9 4abe 0797 f43e
00000050: 72fd f33d 68e5 013f 455b b63e b408 2bbf
00000060: dbd7 953e 4b9d 353e 29d0 13bf b2a0 a1be
00000070: 18b0 08bd 0ee0 d4be d094 743e 8032 fe3e
00000080: 203f c6be 9b62 073f 9fbf 1bbf 2e9b ba3e
00000090: 652e ac3e a200 0abf b527 81be 533e 083f
000000a0: 20f6 c9be dee5 443e 97d8 2dbf 4450 04be
000000b0: 9f24 86be 5ec7 123e fdf1 d83e c590 96bb
000000c0: da9b 65be b165 0fbf cb21 f2bd 4928 243f
000000d0: 431c 343f 6f44 22bf f9ba 8a3e f0a0 67be
000000e0: 24d8 9f3e 7e21 b3be 5316 fa3e 10a9 c33e
000000f0: 677c 953e b6a0 de3d 11dd 3ebf 5045 a33e
00000100: 6bf9 a93d e741 01bf 464e 02bd f3f7 833d
00000110: c3b3 9bbe 2c0b 30bf 4141 67be 3913 d03e
00000120: cde7 2bbf 7a92 213f a511 dcbe 4d70 01be
00000130: 6443 d53e 56f2 fc3d 3cfa f43e 5193 babe
00000140: 6b27 813e a433 6dbe 1800 81bd 605a 8f3e
00000150: bde1 683e ceef 54be 16a4 d33e b0e3 aebd
00000160: 9020 18bf 6c15 0ebe 105e bd3d 8605 ffbe
00000170: 5adf 12bf c745 c9be da44 04bf b35b a7bd
00000180: 1f53 fc3e 7b4f 3bbf 9d2d c3be 0703 e0be
00000190: d96b 30be 4349 d2be 6faa 47bf 497c b23e
000001a0: 9db5 4abf 4ed7 0f3f c83e 67be 6ba1 abbe
000001b0: 3c02 003f 2746 083f ceaf fcbe 9553 6b3e
000001c0: 6cb5 fbbe 3bd8 bbbd e3ff 24bf fce4 bf3e
000001d0: 82bd 26bf 2bb2 913d 66b8 dd3e 9bed f23e
000001e0: bf24 8bbe cbe5 173f 5a7e 5f3e 17c2 d53d
000001f0: fba4 f73e 4901 693e 7623 613e 593a 1e3c
00000200: 6312 133f b552 bb3e 59b6 a23e def8 0f3f
00000210: 8404 0cbf fb49 0cbf 0f94 70be b90a 6ebe
00000220: 4889 34be 6e1a 61bd a50e 1c3e 0fdb 193f
00000230: b586 7ebe 7c54 80bd 5347 aebe 2ba7 0abf
00000240: b23d ebbe ea90 e13e 4962 02be ff64 4ebe
00000250: 291d 3cbf 937e dabe bb92 25bf 04a8 22bf
00000260: 442a e2be 8014 eebe 8f11 ccbe 92fe 02bf
00000270: 5a99 133f 7254 f23e 08e2 a03e c38d fdbd
00000280: 10fd 5a3e 5a0a 42be 500e 8bbe a4f8 863e
00000290: bcc5 49bf 6532 fb3e 4a47 af3e ca5e b93e
000002a0: 2bee 0ebf 0ef5 dfbe 08ae 92bd e98c 29bf
000002b0: 908b e03e aea4 8d3e 64cc afbe cab8 1a3e
000002c0: 3470 763e 18ed c73e 88e7 3bbf 23f6 4e3e
000002d0: 5c0f fcbe 4200 093f 5567 1dbf 1aae 35bf
000002e0: f06d b63e 079c 053e 64fd 483e ce04 c73e
000002f0: 70c5 d93e f24a 1b3f a533 71bd 2e55 9a3e
00000300: fe4d 05bf af2a cd3e c9e1 b83e 6b50 4e3e
00000310: f353 acbe 7f8a bbbe 2744 1bbf d2c8 e03e
00000320: 3907 b3be 3e12 93be 1d7f 3abf 0c4b 20bf
00000330: 8fe1 49bf c4c6 0dbf d82b 5fbe 3e1e 4dbe
00000340: 2a54 4a3e 5a52 02bf a23b aabe 5500 503e
00000350: b040 91be 96ed 1abf 47b7 88be 965a 0bbf
00000360: 4f65 0ebf d31e bebd bc99 34bf 9a09 d7be
00000370: 4ba6 83be 67aa f33e be53 ffbe ac6a 0e3f
00000380: 2455 e1be c4c4 1ebf 9a35 b43e f991 a33e
00000390: 7b9f 9bbe d91d 0abf dc2a f23d 5bdd 943c
000003a0: ea84 2cbd 021e b6be a365 54be e95c 33bf
000003b0: bb9d e43e 907c 92be 914d 1bbf e834 eabe
000003c0: 7268 e9bd 586b 1cbf 749e a33d 92ab 2ebe
000003d0: 18e9 91bd cd34 273f 627b 7ebe 4b46 11bf
000003e0: 982f 8e3d fc03 17bf 9939 f93e 6959 c43e
000003f0: 75b8 a1be 955c f93e 30f4 ad3e 7a3f 1c3f
-0.48049167 -0.46255466 -0.009683584 -0.5836378 -0.41891143 -0.5865419 -0.5017139 -0.31777316
-0.30095294 0.38061616 0.2047459 0.15084669 -0.32810253 0.24007556 -0.48448342 -0.16910756
0.64247656 0.40162697 -0.1979126 0.47771475 0.11913575 0.5074067 0.35616508 -0.66810155
0.29266247 0.17735784 -0.577395 -0.31567913 -0.03337106 -0.4157719 0.23884892 0.49647903
-0.38720036 0.52884835 -0.60839266 0.36446518 0.33629146 -0.53907216 -0.25225607 0.532201
-0.3944559 0.19228312 -0.67908615 -0.12921244 -0.26199815 0.14333865 0.42372122 -0.0045948946
-0.22422734 -0.56014544 -0.11822852 0.6412397 0.70355624 -0.6338567 0.27095774 -0.22619987
0.3121959 -0.3498649 0.48845157 0.38214922 0.29196474 0.10870497 -0.7455607 0.3188882
0.08299526 -0.50491184 -0.03181293 0.06443777 -0.30410585 -0.68767047 -0.22583486 0.40639666
-0.67150575 0.6311413 -0.42982212 -0.12640496 0.41652977 0.123509094 0.47847164 -0.36440518
0.25225386 -0.2316423 -0.06298846 0.27998638 0.22742362 -0.20794603 0.41336125 -0.08539522
-0.59424686 -0.1387536 0.092464566 -0.49808902 -0.5737206 -0.39311048 -0.5166756 -0.08171787
0.49282166 -0.7316815 -0.38120738 -0.4375231 -0.1722864 -0.4107152 -0.77994436 0.34860447
-0.7918337 0.56187904 -0.22582543 -0.3352159 0.5000341 0.53232044 -0.49352878 0.22981103
-0.4916185 -0.09172102 -0.6445295 0.3747939 -0.65132916 0.07114061 0.43304747 0.47446904
-0.27176473 0.5933501 0.21825543 0.1043741 0.48368058 0.22754396 0.21986184 0.009657466
0.5744993 0.36586538 0.31779745 0.56239116 -0.5469439 -0.54800385 -0.2349398 -0.23246278
-0.17630494 -0.054956846 0.15239961 0.6009988 -0.24856074 -0.06266114 -0.3403879 -0.5416133
-0.45945507 0.44055873 -0.12732805 -0.20155714 -0.73481995 -0.42674693 -0.6467702 -0.6353762
-0.4417287 -0.46500015 -0.39857146 -0.51169693 0.5765587 0.47330052 0.31422448 -0.123805545
0.21385598 -0.18949261 -0.27159357 0.26361573 -0.78817344 0.49061885 0.34234077 0.3620513
-0.55832165 -0.4374165 -0.071621 -0.66230637 0.43856478 0.27664703 -0.34335625 0.15109554
0.2406624 0.39048076 -0.73400164 0.20211081 -0.49230468 0.5351602 -0.614858 -0.7096878
0.3563075 0.13047801 0.19627911 0.38870853 0.42533445 0.6066123 -0.058887143 0.30143112
-0.5207213 0.40071627 0.3610976 0.20147865 -0.33657798 -0.36629102 -0.6065087 0.43903214
-0.34966448 -0.28724855 -0.7285021 -0.6261451 -0.788598 -0.5538142 -0.21794069 -0.20031068
0.19758669 -0.5090691 -0.3324862 0.20312627 -0.28369665 -0.6051878 -0.2670233 -0.544351
-0.55623335 -0.09283223 -0.7054708 -0.41999513 -0.2571281 0.47590944 -0.49868578 0.5563152
-0.4401027 -0.6201899 0.35197145 0.31947306 -0.3039511 -0.53951794 0.11824581 0.018171957
-0.042118944 -0.3556977 -0.20741896 -0.70063645 0.4465159 -0.2861066 -0.6066523 -0.4574349
-0.113968745 -0.61101294 0.07989207 -0.17057636 -0.07124537 0.6531494 -0.24851754 -0.56747884
0.069426715 -0.58990455 0.48676756 0.38349465 -0.31586042 0.48703447 0.33975363 0.6103436

Y_net.layer2.weight f4 [256, 256]
00000000: 281e b4bc 38b3 fcbc 433c bbbd c04a 43bd
00000010: 56f1 3c3d 6274 923d 18f4 593d 57fa 69bc
00000020: 6251 41bd 480d 3dbd 7ef0 d8bd 5bb5 adbd
00000030: b2ab 4a3d 4687 55bd f6a1 f43d a6a5 463d
00000040: 074f c6bd 77e5 923d b01e a2bd 5940 4f3c
00000050: 9c64 d9bd 1f04 343d e0e7 d0bc d569 e2bd
00000060: ed2a 30bd abe9 76bd 4c0a 993c c813 68bd
00000070: 97b4 61bd 886e 05bd f4cb a2bc 509c d5bc
00000080: 55b5 183d 49c2 343d 56f1 08bd 360d a6bd
00000090: 90bc 8bbd 9ad6 5d3c a30a b43c ff2c 43bd
000000a0: 40f4 63bc d122 d5bc 20e8 56bd dedd 4e3d
000000b0: ef99 e13d a020 02bc 86e0 ff3c 3c1f 99bc
000000c0: 7785 c23d c43b 103d f326 803d be10 b0bd
000000d0: e80a 703c 2f58 273c 182d 62bd 1501 15bd
000000e0: c078 93bd a461 74bd 6fd1 fbbc 454e 80b9
000000f0: 40a3 62bd a7da ddbd ca9a 653d c4ef 503d
00000100: b0f8 d2bd 60e4 7cbb 12ff d53d 38a2 9abd
00000110: c4e1 d1bc e8e6 483d add9 263d ea2f 5dbc
00000120: ca18 533d e4e4 f9bc 8780 5dbc dffd d7bd
00000130: 414f 2c3c d192 60bc 839a 06bb 24a6 87bc
00000140: 1167 df3b af34 0d3d 72ae 98bd 0883 34bc
00000150: 035d 48bc a04a 9a3d 6d69 17bd 631d 313b
00000160: c019 bfbc c072 c93a c5f5 443c 22c7 feba
00000170: 54fb cf3c 00ae 59bc 7036 d2bc d63c 023e
00000180: 5ac8 aebd 202a e4bc d415 b83c bf8d 94bd
00000190: 1f7b 82bd 2773 01bc 58c1 d53c de34 33bd
000001a0: 4f3b 8a3c 5fb8 a53b 9fc9 20ba 1ff6 b33d
000001b0: 3af1 cf3d a3c6 e0bc 6045 5bbb fc15 d63d
000001c0: 2ee5 adbd a4b3 43bc 7834 523d 1ed2 10bd
000001d0: b34d d1bd 1a9e cebd c288 b1bd fcb2 babd
000001e0: 169d 7bbd ee98 85bc c5fd 28bd 8bc0 cdbd
000001f0: dcb2 54bd 0495 dabd 22b0 81bd 182e 82ba
00000200: 3b50 5abd 1850 d8b9 2a8b 2e3d 21af acbd
00000210: 1810 8c3c 3afe 38bd 244d 683d 202a a3bd
00000220: 893d d3bc 0529 73bd 1e65 95bd d5b2 babd
00000230: 82bb f1bc 7c30 afbd f8c0 b6bd 57e6 e7bc
00000240: c4c1 053d f06d c5bd 73c7 24bd bb75 ef3d
00000250: 2606 993d 542e 823c 343b 2dbd b8c5 8abc
00000260: c269 573d ad86 463c 02cc c53d 764c 4bbd
00000270: 61ec db3d b738 80bc 5cea d6bd ffd0 dbbd
00000280: 722e 8fbd 189d 403d 3789 1c3c 2633 2abb
00000290: 8010 ef3b b488 5bbd 2310 0fbc 4615 80bd
000002a0: f0a0 22bc 1675 143d e8cf 993d b8d7 5ebc
000002b0: fca2 37bd e6a9 fbbc 201b 2bbd f9f8 ddbc
000002c0: 9aab d03b 84b9 c3bd 3e6c 243d f59b c1bc
000002d0: 96a3 18bd 4ca1 d0bc ca35 b1bc 4e11 633d
000002e0: 0fbe 16bd 31b0 07bd 60bc febc 28d4 21bd
000002f0: a855 e3ba 85dc a7bd cc4e dabd c3d8 14bc
00000300: 3ccd 3aba cb49 dcbb eb25 d6bb b7f6 78bd
00000310: 109a d9bd 4d6f 0a3d 2806 efbc a552 80bd
00000320: 0b31 c7bd 0684 76bd 4ffe 9e3d 9de5 93bd
00000330: 08e6 533d 07a9 813d 4df1 2ebd 53ba 1dbd
00000340: f33f aabd 36c2 283d 0942 d1bd a616 43bd
00000350: 80e0 31ba 3e89 d9bd 7553 b4bd 28c0 63bd
00000360: 5686 71bd 598f 5cbd 502b 9c3b 5940 e23b
00000370: 7d14 a53a d253 6bbd 44bd 243d 2f98 75bc
00000380: d8a6 ac3c 904e febb 5fd6 c7bd 2416 3abc
00000390: 2abf 003d 5ae1 69bd 18c7 d1bb f9e2 ba39
000003a0: be6f 19bd 2735 e0bd 2bd7 adbd be6f 81bd
000003b0: 9154 85bb cfb9 833b 1288 9dbc 40a0 423d
000003c0: 8eb8 30bd 1625 b83d 0b69 dcbc 391a fdbc
000003d0: 8031 c1ba 437c a4bc f043 5a3c 0041 55bb
000003e0: 7458 ddbd f469 7dbd fe0f d1bd b538 bebd
000003f0: 04f2 003e afbe cabd 3684 12bc 8868 0f3a
-0.021987036 -0.030847177 -0.091423534 -0.04767871 0.046128593 0.071511045 0.0532113 -0.014280877
-0.047196753 -0.046155244 -0.10592745 -0.084818564 0.049480148 -0.05213096 0.11944954 0.04849782
-0.09683042 0.07172673 -0.079160094 0.012649619 -0.10614893 0.043949243 -0.025501192 -0.11055342
-0.043009687 -0.060281437 0.018681668 -0.05665949 -0.055103865 -0.032576114 -0.019872643 -0.026075512
0.037282307 0.044130597 -0.03343328 -0.081079885 -0.06823075 0.0135399345 0.021977728 -0.047650333
-0.013913214 -0.026017578 -0.052467465 0.050504558 0.11015689 -0.007942349 0.03123499 -0.018691652
0.09498113 0.035213247 0.06257429 -0.08596943 0.014651038 0.010213896 -0.055218786 -0.036377985
-0.072007656 -0.05966343 -0.030739514 -0.00024472378 -0.05533147 -0.1083272 0.05605582 0.05100991
-0.103013396 -0.003858827 0.104490414 -0.07550472 -0.025620349 0.049048334 0.040734936 -0.013500193
0.051537313 -0.030504651 -0.013519413 -0.10546469 0.0105169425 -0.013706879 -0.0020538874 -0.016558714
0.0068177064 0.03447407 -0.07455148 -0.011017568 -0.012229207 0.07533765 -0.036965776 0.0027025572
-0.023327708 0.0015369281 0.012021487 -0.0019438008 0.025388397 -0.013286114 -0.025660723 0.1271852
-0.08534308 -0.027852118 0.022471346 -0.072535984 -0.0637114 -0.00790099 0.02609317 -0.04375159
0.016873984 0.005057379 -0.00061335595 0.08787178 0.10153432 -0.027438467 -0.0033458099 0.10453412
-0.08490978 -0.011944685 0.05131957 -0.035356633 -0.10219898 -0.10088749 -0.086686626 -0.0911617
-0.061429106 -0.016308274 -0.04125764 -0.1004649 -0.051928386 -0.10672954 -0.06332423 -0.000993195
-0.05329917 -0.00041258405 0.042613186 -0.08431841 0.017097518 -0.045164324 0.056714192 -0.07967019
-0.025786178 -0.05936529 -0.07294677 -0.09116141 -0.029508356 -0.085541695 -0.089235246 -0.028308077
0.032655492 -0.096401095 -0.040229272 0.11692377 0.07471876 0.015891232 -0.04229279 -0.016939983
0.052591093 0.01211707 0.09658052 -0.049633466 0.10738445 -0.015652044 -0.10493919 -0.10733222
-0.069912806 0.047024816 0.009554199 -0.0025970428 0.007295668 -0.053597167 -0.008731875 -0.062540576
-0.009926066 0.036244474 0.07510358 -0.013601236 -0.04483317 -0.030720662 -0.041773915 -0.027096258
0.0063681128 -0.09556869 0.04014229 -0.023633936 -0.037265383 -0.025467537 -0.021632094 0.055436425
-0.036802348 -0.033127014 -0.031095684 -0.03950897 -0.0017344253 -0.08196358 -0.106595606 -0.009084883
-0.0007125919 -0.006722664 -0.006535282 -0.06078216 -0.10625088 0.03379755 -0.02917774 -0.06265763
-0.09726151 -0.0601845 0.07763349 -0.0722153 0.051733047 0.063310675 -0.04271059 -0.03850777
-0.083129786 0.04120084 -0.10217673 -0.04762902 -0.0006785467 -0.1062188 -0.08804981 -0.055603176
-0.058966003 -0.053847644 0.0047659054 0.0069046435 0.0012594607 -0.057452984 0.04021956 -0.014989897
0.021075651 -0.00776083 -0.09757685 -0.011357818 0.03143231 -0.057099678 -0.0064019077 0.00035645792
-0.03746008 -0.10947638 -0.08488306 -0.06320141 -0.004068919 0.004019953 -0.019229922 0.047516108
-0.043144755 0.089914486 -0.026905557 -0.030896293 -0.0014739484 -0.020078784 0.013321862 -0.0032539964
-0.10807887 -0.061868623 -0.102081284 -0.0928816 0.12592322 -0.09899651 -0.008942654 0.00054705935

Y_net.layer2.bias f4 [256]
00000000: 128c c4bc 66a1 bfbd 0072 67bd b40e 02bb
00000010: 233a c4bd 539a 88bd 6b39 fabb d0dc 5cbc
00000020: 05d8 4cbd 1056 983b 14c3 c5bd 3ea1 7fbd
00000030: aa11 61bd 4751 cdbc 2239 b73c ba2d 9cbc
00000040: ba78 c7ba d66c 1ebd 481f e2bd d738 9bbd
00000050: c59c 17bc fc2b 07bd 6fb2 46bd b9c3 03bd
00000060: b6b8 27bd 12a8 c1bd 48e2 dabd d064 c4bc
00000070: 05e1 babd cc10 aebc b0d9 a43b 4a55 323d
00000080: d31e ebbd 7733 9f3a 6ff8 8dbd 33df 33bc
00000090: 0daf 54bd 5c9e 9dbb 3ce8 e6bd e1ed 61bd
000000a0: 9d5a 97bd 6c95 65bc ebca 9bbb 0ee5 ddbd
000000b0: 6dab 81bd eefa 85bc ab35 ebbd a02f 07bb
000000c0: f0b6 bcbd f977 a8bc 8b23 45bb 2014 71bb
000000d0: 8577 38bd 5ab4 12bd b0be 0cbd 50b6 3dbd
000000e0: 3624 a8bc 34da a9bd 9e0f d0bd 19ad d4bd
000000f0: 2a02 77bd a02a 2dbc 7879 75bd c47c 90bd
00000100: f14f 0bbc 164f 71bd cd02 e8bc 6c51 b4bc
00000110: 966f 063d a5fb a1bd f02d c1bd 34d5 03bd
00000120: fede 36bd 1461 683b 1a4d 53bd 4948 6fbd
00000130: 090d 97bd 4e05 b4bd a390 68bc 5006 6ebd
00000140: 9976 9abd b852 483c 8232 8abd 1b89 a0bd
00000150: a42b 98bd 2aaf 77bc ae11 1cbd 335b 59bd
00000160: 8c8e cdbc 8933 bebd 4ff0 ddbd 1ea4 16bd
00000170: 47f8 4b3c cc9a a6bd e83c 033c 8196 f0bc
00000180: 358e b4bd 858b 493c 0e34 babd 01b1 75bb
00000190: e74d dfbc 25b9 29bd 2944 a3bd a56f a9bd
000001a0: 107d 7a3a 0e0c 2dbd f05c a6bc ee31 c2bd
000001b0: eca7 a0bd 3688 87bc fedf a9bd 01fc 43bc
000001c0: 7ff3 85bd 8811 babd 44f0 c7bc 4d4a f7bd
000001d0: 6845 0dbd 8c11 2abd e736 933d 696b d7bb
000001e0: 4c75 3e3d 3452 9dbd 36e0 06bd 7d80 45bd
000001f0: 2c8a ccbd 2535 9fbd dbf1 b0bd 9204 6e3d
00000200: 5826 e3bc 4cdc 40bd e205 12bd 3a92 23bd
00000210: 00f0 90bd d1bf f3bd 42f6 44bd c13f 78bc
00000220: 6832 863b 9b91 1cbd 3a39 74bd 17e4 e3bc
00000230: b46f ef3c 7742 c8bd b066 6abd 3d65 9abc
00000240: 51d6 88bd 0c6e 66bd d5c9 c1bd 9f7f afbd
00000250: 57c6 5fbd 3145 883d 9064 0b3d d7c3 aebd
00000260: 28ff abbd ed1c 06bd 4621 dbbd 2282 0fbd
00000270: fa52 debd 896a 6ebc b12e c9bd 62a8 f8bd
00000280: 12d2 e7bd ca6b 4ebd a27e 2dbd 7e22 78bd
00000290: d13a efbd 5fb9 6abd 5294 4dbd cd8f a5bc
000002a0: 1e7d 03bd 3e5b 03bd 8300 b93d 8221 7e3c
000002b0: 901b b5bd 0e5c ebbd e3b9 65bd b8a2 0c3c
000002c0: b9b6 7bbd 5f1d d6bd 6b2f f8bd c374 dcbd
000002d0: 272f 83bd 7c5b 1aba b537 3fbc 3db1 72bd
000002e0: bcca 993c eba2 ebbd 76a0 1dbd 750f 90bd
000002f0: f15d 1cbd 134b 41bd 1fb0 c2bd a1e3 1dbd
00000300: d34a 81bd 220a 82bd aebe c8bd 4dde 87bd
00000310: 6650 2f3d 919d 78bc 8f29 e0bd b16e e6bc
00000320: 0afb 8fbd ee6a b0bd 964b b13b 83bc c5bd
00000330: 0e0b 0bbd ec78 39bd cbe4 d3bc 81dd 41bd
00000340: c6ed 9fbd 2b53 4ebd 3d6f a3bd b133 abbd
00000350: 742a 143b e057 95bd f26b 45bd aa8d a0bd
00000360: 107e 8bbc aa4c 423c 8fb0 8ebd eea4 b0bd
00000370: e87d b6ba b7c5 a9bd 3aba 1dbd 6f7b 463c
00000380: 8cec a2bd 2cdb bdbd bb43 e4bd 3751 12bd
00000390: fba0 08bb b28a 34bd 71ee f5bd 9949 84bc
000003a0: c670 bebd 2050 2f3d f71b 95bd bdcc 76bd
000003b0: 4cd8 b6bd 2b8b 86bc f32e a2bd 0d2f d53c
000003c0: 5b24 62bd 8935 74bd 41f0 dcbb d404 013c
000003d0: 17fd 3cbb 0b54 47bd cf2f f9bd c034 d13b
000003e0: 2190 ec3a 1f31 81bb 2507 9fbc 4631 b9bd
000003f0: 4cd7 cabd dee9 9dbd e0c3 b6bd a321 5dbd
-0.023992572 -0.09356956 -0.056505203 -0.001984519 -0.09581401 -0.0667006 -0.0076362393 -0.01348038
-0.0500107 0.0046489313 -0.09656349 -0.062409632 -0.054948486 -0.02506317 0.02236611 -0.019064773
-0.0015218474 -0.038678013 -0.11041123 -0.07579201 -0.009253685 -0.03300093 -0.04851001 -0.032169078
-0.04094764 -0.09455885 -0.10687691 -0.023973852 -0.0912495 -0.021248244 0.005030833 0.04353837
-0.11480489 0.0012146075 -0.069321506 -0.010978508 -0.051924754 -0.0048101377 -0.11274764 -0.0551585
-0.0739033 -0.014012676 -0.0047544143 -0.10834704 -0.06331525 -0.016355004 -0.11484846 -0.0020627752
-0.0921458 -0.02056502 -0.0030081 -0.0036785677 -0.045035858 -0.035816528 -0.03436154 -0.046316445
-0.02052508 -0.08293572 -0.10159229 -0.10384578 -0.0603048 -0.010569245 -0.059930295 -0.07055047
-0.008502946 -0.058913313 -0.028321648 -0.022011481 0.03282126 -0.079093255 -0.0943259 -0.03218575
-0.044646256 0.0035458254 -0.0515872 -0.058418546 -0.07375533 -0.08790074 -0.01419464 -0.05811149
-0.07542152 0.012226753 -0.06747915 -0.07838651 -0.07430199 -0.015117446 -0.0381028 -0.05306549
-0.025092386 -0.09287173 -0.10836851 -0.036777608 0.012449331 -0.08134994 0.008010127 -0.02936864
-0.08816186 0.01230133 -0.0909196 -0.0037489536 -0.027258826 -0.041436333 -0.07971985 -0.08273248
0.0009555379 -0.042247824 -0.020307988 -0.094821796 -0.078445286 -0.016544443 -0.08294676 -0.011961938
-0.06540584 -0.09085375 -0.02440656 -0.120747186 -0.03449002 -0.04152064 0.07188206 -0.0065740836
0.04649858 -0.076816946 -0.032928668 -0.04821824 -0.09987292 -0.077738084 -0.0863988 0.058109827
-0.027728245 -0.04708509 -0.03565014 -0.039934374 -0.07077026 -0.119018205 -0.048086412 -0.015151919
0.0040953644 -0.038224798 -0.059624888 -0.027818723 0.029228069 -0.09778302 -0.057226837 -0.018847102
-0.066815026 -0.056257293 -0.094623245 -0.08569264 -0.05463251 0.06653822 0.03403145 -0.08533447
-0.083982766 -0.03274243 -0.10699706 -0.035036214 -0.1085567 -0.014551767 -0.09823359 -0.121414915
-0.113193646 -0.050395764 -0.042357095 -0.06057977 -0.1168114 -0.05730569 -0.050190277 -0.020210171
-0.032101743 -0.032069437 0.09033301 0.015510919 -0.08843148 -0.114921674 -0.05608548 0.008583717
-0.061453555 -0.10454821 -0.12118419 -0.10764458 -0.06405478 -0.0005888266 -0.011670996 -0.05925106
0.01877343 -0.115056835 -0.038483106 -0.07034198 -0.038175527 -0.047190737 -0.09506249 -0.038547162
-0.063131 -0.06349589 -0.09801994 -0.066341974 0.042801283 -0.0151742855 -0.10945427 -0.028128954
-0.07030304 -0.08614145 0.005410622 -0.096550964 -0.03394609 -0.045281336 -0.025865933 -0.047330383
-0.078090236 -0.050372284 -0.079802014 -0.08359469 0.0022608312 -0.072921515 -0.048198648 -0.0783952
-0.017027885 0.011859098 -0.0696727 -0.08625208 -0.0013923021 -0.08289664 -0.038507678 0.01211439
-0.07955274 -0.09270319 -0.11145731 -0.035721984 -0.0020847905 -0.044077583 -0.1200837 -0.016148375
-0.092988536 0.042801023 -0.072807245 -0.060253847 -0.08927974 -0.016423782 -0.07919111 0.026023412
-0.055210453 -0.059621368 -0.0067425077 0.007874686 -0.0028837377 -0.048664134 -0.12167322 0.006384462
0.0018048325 -0.0039426233 -0.019412586 -0.09042601 -0.09904346 -0.07710622 -0.08924079 -0.053987157

Y_net.layer2_input.weight f4 [256, 2]
00000000: c0c5 c4bd 0f8c 1f3f da1e a23e 706c 23be
00000010: 5eaf 62be 6e8f ee3e 993b 13bf 9a97 d73e
00000020: a492 06be 3ab2 30bf a352 093f e3ae 1dbf
00000030: 5059 643d 242c 883e 7e9c 9c3e 009b 843c
00000040: 16c8 f5be a210 c5be 1dbf 1f3f ea64 883e
00000050: 3e7c 9a3e eadd 6dbe 2a23 c13e 700f c5bd
00000060: 7f0a 1b3f 504b 053e 7826 ff3d 347a 49be
00000070: 96a3 e23e 7cf5 0f3e e4e8 15be e015 0fbd
00000080: a988 82be ede8 1b3f 7e1b ba3e 5070 a7bd
00000090: 987d 11be caad db3e 9395 c4be e17d 133f
000000a0: 7183 b1be 7078 903d 9f71 253f 9042 26bf
000000b0: 70a4 3cbe a90b 19bf a630 59be 00c6 c6ba
000000c0: 8444 2dbe 1981 abbe 5c92 5a3e d8fc eabd
000000d0: 8480 233e 25c8 31bf 05b4 dabe 5191 143f
000000e0: d3c7 b3be 92ef 863e 5b98 093f dfda 003f
000000f0: 6121 acbe daaf e73e f554 b0be 0a20 b53e
00000100: b42e 493e 07b5 263f 62e9 c23e 279c 023f
00000110: da79 9e3e 6485 04bf 12cb 30bf b73c 03bf
00000120: 3fb9 e0be 00a0 3d3d 44fa 52be 86ad f53e
00000130: 86d0 bb3e 90ca 10bd 7827 f73d f42f 3a3e
00000140: 0b07 1b3f 8882 fdbd e084 4e3d 407a 183d
00000150: eeff 78be dd10 dcbe 9ea4 fb3e c8b7 aabd
00000160: 2009 413e 7588 0f3f 9148 24bf b3b1 293f
00000170: 909e b83d 694b 2ebf e022 763e eabf d43e
00000180: 1ee7 67be 3a28 9e3e 70f3 42bd 4dcf 113f
00000190: 725c 60be 7b8d 9dbe 2943 123f bf13 013f
000001a0: 0e38 e2be 0d3f 153f f863 23bf c66c a6be
000001b0: 73bc 163f f031 533e b6c5 fb3e 9ad7 af3e
000001c0: 673b 2f3f 6488 0abe 30b5 93bd 516e 213f
000001d0: 26ab c83e bbe4 243f 34cb 4ebe 000c e23c
000001e0: a063 513d 52fa 863e 8ca0 733e 5665 f33e
000001f0: a407 3fbe 2883 2cbe 6b5d 323f 641b 02bf
00000200: 745f 0bbe c149 a5be be61 f63e 4f05 f3be
00000210: bd26 1e3f 1636 efbe 8ac3 af3e 7050 81bd
00000220: 8df0 1c3f 1e57 9d3e e05f 96be 88a6 d33d
00000230: 3e7d 16bf f8eb eabd c66f 62be a5d9 1dbf
00000240: fdab 02bf 1442 3f3e 1ffc 30bf 6075 413d
00000250: 684b 80be ccdc 03be cd73 1d3f 0e03 923e
00000260: 90f9 ef3d 4fab 023f 801d 073e e0d9 05bf
00000270: 7070 483e be3d c03e d993 d1be f3b5 bdbe
00000280: 774e a9be 5069 453e 1a34 f93e 60ae f9be
00000290: 0540 1fbf ddd0 0f3f c017 773d 324a ad3e
000002a0: 1d36 1abf 7331 29bf 042d 33bf 8884 2f3e
000002b0: ddb2 163f 1ba6 2e3f 44b9 f7be 54d4 0fbe
000002c0: 46aa b53e f8ce 12be 4bf8 0abf 4823 bdbe
000002d0: b455 503e a23d f63e 6864 bcbe dfd6 053f
000002e0: cf3b 0f3f 2a2a c03e 7662 1dbf 8887 383e
000002f0: 64b9 0ebf 88e3 f4be 6f1d e1be 8ad3 9bbe
00000300: 6b06 263f 797e 32bf 02fe 6fbe e8a6 953d
00000310: 1617 16bf bbc9 323f e280 e7be 21fc 1d3f
00000320: a96b 103f 0064 d8bc 74f7 713e 1609 77be
00000330: 18e3 a6bd 0e26 1fbf 9fc1 94be acb3 873e
00000340: 00cb fcbd 6a92 63be 0345 95be e3c7 303f
00000350: 9ecf a13e 9822 143e 132e 0c3f fb07 013f
00000360: 1108 103f 22ba 98be 9c34 723e 295e 08bf
00000370: 2aa8 11bf 386b e23d 80b1 313c 3019 26bd
00000380: 48a0 883d b765 d0be 804f 25be fee2 e53e
00000390: 0823 e13d acf7 09be 7070 e8bd 482b 813e
000003a0: b8a3 2fbe 2f0e 233f 007d c2be a24c f13e
000003b0: b2f1 d83e 7e93 d83e 9ec7 9fbe e082 edbd
000003c0: 5258 64be af8a 12bf d29b 06bf 00fe 653c
000003d0: 1843 94be 8856 ff3d 188f 2d3e 0016 f9bc
000003e0: 4902 233f 7871 573e 61db 023f e259 02bf
000003f0: 1caf 3bbe 0abf 32bf 87c2 12bf 29bf bebe
-0.0960803 0.6232309 0.31664163 -0.15959334 -0.2213721 0.46593803 -0.57512814 0.4210785
-0.13141876 -0.6902195 0.5364172 -0.6159498 0.055749238 0.26596177 0.30588144 0.016187191
-0.48004216 -0.38489252 0.6240099 0.2663949 0.30172914 -0.23229185 0.3772214 -0.09622085
0.6056289 0.1301701 0.12458509 -0.19675523 0.4426543 0.14058489 -0.14639622 -0.03493297
-0.25494888 0.6090229 0.363491 -0.08175719 -0.14208066 0.42906028 -0.38395366 0.5761395
-0.34670594 0.07054222 0.646265 -0.64945316 -0.18422103 -0.59783417 -0.21209964 -0.001516521
-0.16920668 -0.3349693 0.21344894 -0.11474007 0.15966994 -0.6944602 -0.4271547 0.58034235
-0.3511339 0.26354653 0.537481 0.5033397 -0.33619216 0.45251352 -0.34439817 0.35376006
0.19646722 0.65119976 0.38068682 0.5101952 0.3095234 -0.5176604 -0.6905986 -0.5126452
-0.43891332 0.046295166 -0.20603281 0.4798395 0.36682528 -0.03534943 0.12068075 0.18182355
0.6055762 -0.123784125 0.05041969 0.03722596 -0.2431638 -0.42981616 0.4914903 -0.08335835
0.18851137 0.5606759 -0.6417323 0.6628677 0.090146184 -0.68083817 0.24036741 0.4155267
-0.22646758 0.30890065 -0.04759544 0.5695694 -0.21910265 -0.30772004 0.5713373 0.50420755
-0.4418339 0.5829933 -0.63824415 -0.32504863 0.588813 0.20624518 0.4917428 0.34344178
0.68450016 -0.13528591 -0.07212293 0.63058954 0.39193076 0.64411515 -0.20194703 0.027593613
0.0511204 0.26362854 0.23791713 0.4753825 -0.18655258 -0.16846907 0.69673795 -0.50823045
-0.13610631 -0.32282832 0.48121446 -0.47464988 0.6177786 -0.46720952 0.34328872 -0.0631417
0.6130455 0.30730528 -0.29370022 0.10334498 -0.58784854 -0.11470789 -0.2211295 -0.61660224
-0.51043683 0.1867755 -0.69134706 0.04723108 -0.2505753 -0.12877196 0.6150482 0.28517956
0.11717522 0.51042646 0.13194847 -0.52285576 0.19574142 0.37547106 -0.4093311 -0.3705288
-0.33067676 0.19278455 0.48672563 -0.4876585 -0.6220706 0.56178075 0.060325384 0.3384567
-0.6023882 -0.6609108 -0.69990563 0.171404 0.58866674 0.68222207 -0.48383534 -0.1404584
0.3548147 -0.14336765 -0.54285115 -0.3694098 0.20345193 0.48093897 -0.36795354 0.5228099
0.55950636 0.3753217 -0.61478364 0.18020451 -0.55751634 -0.47829843 -0.4396777 -0.3043483
0.64853543 -0.6972423 -0.2343674 0.073072255 -0.58628976 0.69839066 -0.45215517 0.61712843
0.56414276 -0.026414871 0.23629552 -0.2412456 -0.081487834 -0.6216744 -0.2905397 0.26504266
-0.12343407 -0.22223821 -0.29154214 0.69055 0.31603712 0.14466321 0.54757804 0.504028
0.5626231 -0.29829508 0.23652881 -0.53268677 -0.56897223 0.110556066 0.010845542 -0.040551364
0.06671196 -0.40702602 -0.16143608 0.44899744 0.1099301 -0.13473386 -0.11349571 0.25228333
-0.17152297 0.6369352 -0.37985992 0.4712878 0.423719 0.42300028 -0.31206983 -0.11597228
-0.22299317 -0.57242864 -0.5258151 0.014037609 -0.28957438 0.124676764 0.16949117 -0.030405998
0.6367536 0.21039379 0.51115996 -0.509184 -0.18328518 -0.6982275 -0.57328075 -0.3725522

Y_net.layer2_input.bias f4 [256]
00000000: b292 be3e 8307 05bf c4e9 12be b147 8bbe
00000010: 7e41 a93e 892e 023f 3af5 efbe 9721 e3be
00000020: 70b6 c7be a025 0cbd 7f3b 8dbe 5eb9 b93e
00000030: d039 da3d 8fbc a1be c827 dc3d a80f 14be
00000040: 00ac fe3a 8e53 5ebe c69f b63e a113 96be
00000050: 2800 ccbe cc1e 7abe 16dc 64be ca53 c03e
00000060: a34e 9fbe 93f7 22bf 4d10 d8be c6bd ff3e
00000070: ec08 3abe 3a09 a03e 5283 d03e 9249 8bbe
00000080: e809 a9bd 7f01 043f 609a c5be 4063 013c
00000090: 7532 093f edca d1be 90f9 54bd 9f6e d2be
000000a0: 8124 173f 24e2 6d3e 0815 173e d29a fd3e
000000b0: b50a cebe 98f7 1b3e 6e5e f53e 8878 2bbe
000000c0: 3667 d23e 3778 2dbf ff53 8abe e442 00bf
000000d0: 06db ae3e 1dbf 133f c82b e03d 8c26 afbe
000000e0: 3f81 22bf 29ec 123f c025 e3bd fe85 8e3e
000000f0: 2fba 043f 5cd9 bdbe b3a9 303f 08a1 fe3d
00000100: 891d 03bf d3bd 22bf b455 44be 8bdd 193f
00000110: c0d5 223e 78eb 563e a0d1 4f3d 1893 8e3e
00000120: b421 26bf f110 b2be b0ec 7dbd 84c6 f5be
00000130: e7fd 003f df08 0abf a7c0 103f df90 b2be
00000140: 7a2e 1ebf 5417 60be 060e 13bf b87f febd
00000150: 70c5 383d 59f6 06bf 60a5 3f3d e940 2c3f
00000160: cfb3 153f 3391 a4be 9e9d d93e adb1 2ebf
00000170: 12c6 e43e a5f9 0a3f e86c 143e 7844 11bf
00000180: 120b bf3e 1c85 813e bfc3 31bf be24 e0be
00000190: d7fd 1cbf 38a5 ffbd 00c3 7ebb 8434 543e
000001a0: 9c64 27bf 0abb f63e 96a9 ac3e 041a bcbe
000001b0: ff34 343f ea4a ee3e 2f34 333f 8943 183f
000001c0: 754d 2abf ac5d 19bf ea51 16bf c5e2 07bf
000001d0: 50a0 0abe 9ff7 26bf 9660 b03e c0df 1d3d
000001e0: 1c79 a5be fea4 88be f022 fdbd 2045 083d
000001f0: 358c e5be 663e d1be adfe e2be 5f0d 2bbf
00000200: 4828 ff3d 14aa 29bf aef0 c33e db07 8bbe
00000210: b7c1 29bf 3c74 6c3e ce67 bf3e 0245 dfbe
00000220: 6084 cb3d 6830 913e e3e6 073f a2ce a93e
00000230: e77d e9be 926e 983e 0030 b4ba ca73 29bf
00000240: 2b1c 8cbe 2d1f 12bf 5664 bc3e 2ee5 a03e
00000250: 2c16 28bf b885 33be 071b c5be c02b 9b3d
00000260: 80ba 533e 79ef 8ebe 37e0 2c3f f008 643d
00000270: 38e6 0d3e e83e 07be 741a 0d3e 4112 82be
00000280: 48c6 debd ded5 863e 0c98 42be 6adf af3e
00000290: 3203 07bf 4eca cdbe dc9e 5f3e 7082 69bd
000002a0: 7b8e f0be 9083 70be f84c 09bf 74e1 923e
000002b0: 1ed2 18bf 6529 273f ce65 973e 688c 343e
000002c0: c819 07be 1f21 15bf c03e ce3c 6ce9 8fbe
000002d0: 865a d33e c039 16be 68b6 a73d 306b 333e
000002e0: 7cc7 3f3e 6f04 bdbe 03d9 1b3f 2cf0 5b3e
000002f0: aa9f 0dbf 31e8 013f 7c61 71be f74c 333f
00000300: 3ecc 913e 90ec 76be f6c1 b6be 8799 c4be
00000310: a44e f9be 7270 e63e 804c 6b3d f437 00bf
00000320: 1511 123f 3859 083e 002a 18be 609a 113e
00000330: a49d 17be 78d3 a8bd 8858 143e d798 12bf
00000340: 22e2 8b3e e2da f13e a2a8 7bbe 8410 663e
00000350: 9003 f83d 6b0c 183f 7a8f f2be 8ea1 fb3e
00000360: ccae 22bf b61b b93e 7a24 de3e c85d 21be
00000370: 12b9 b73e 005f 163e c8c2 4bbe be3b 803e
00000380: 60f2 bbbc 2a05 02bf 86a6 13bf b21b 10bf
00000390: 6aaa c73e d045 8d3e 2008 6dbe 1216 9b3e
000003a0: 8b17 96be 800d f7bd 40fd a9bd ee84 06bf
000003b0: 1b88 87be b0dd 4c3d 420e b13e 44a2 3d3e
000003c0: db45 1d3f 009a 733e 48dd dcbd 3031 14be
000003d0: d9d2 eabe bc11 383e ab29 123f 90d4 fdbe
000003e0: c840 033e b68b d13e 36df 87be 32f6 d0be
000003f0: 5d57 9dbe 9edb 8cbe e0a6 0abe da74 0abf
0.37221295 -0.51964587 -0.14346987 -0.27203134 0.3305778 0.50852257 -0.4686678 -0.44361565
-0.39006376 -0.03421557 -0.27584454 0.36274236 0.10655558 -0.3158917 0.10749775 -0.14459097
0.0019429922 -0.21711561 0.35668772 -0.2931185 -0.3984387 -0.2442581 -0.22349581 0.37563926
-0.31114683 -0.6365902 -0.42199937 0.49949473 -0.18167466 0.3125704 0.4072519 -0.27204567
-0.082538426 0.5156478 -0.3859434 0.007897198 0.53592616 -0.40975133 -0.051995814 -0.41100022
0.59040076 0.23230797 0.14754117 0.4953218 -0.40242544 0.15231168 0.47923607 -0.16745198
0.4109437 -0.6776156 -0.2701721 -0.50102067 0.34151477 0.5771349 0.109458506 -0.34209096
-0.63478464 0.573916 -0.110911846 0.27836603 0.51846594 -0.37079895 0.6900894 0.12433058
-0.5121694 -0.635709 -0.19173318 0.6010367 0.15901852 0.20988262 0.050737023 0.278466
-0.64895177 -0.3477855 -0.0619933 -0.48003018 0.50387424 -0.53919786 0.56543964 -0.34876153
-0.6178967 -0.21883899 -0.57443273 -0.12426704 0.045110166 -0.52719647 0.046788573 0.67286545
0.5847749 -0.32142028 0.42503065 -0.6823986 0.44682366 0.5428718 0.1449467 -0.567451
0.37313133 0.25296867 -0.6943931 -0.43778032 -0.6132483 -0.12482685 -0.0038873553 0.20723158
-0.6538789 0.48189574 0.33723134 -0.36738598 0.70393366 0.4654153 0.700015 0.5947805
-0.6652444 -0.59908557 -0.5871874 -0.530804 -0.13537717 -0.6522159 0.3444869 0.038543463
-0.32318962 -0.2668838 -0.123601794 0.033269048 -0.44833532 -0.4086792 -0.44334927 -0.6681728
0.12458855 -0.66275144 0.38269562 -0.2715443 -0.6631121 0.23091215 0.37383884 -0.43607336
0.09937358 0.28357244 0.5308668 0.3316546 -0.45603868 0.29771858 -0.0013747215 -0.66192305
-0.2736524 -0.5707882 0.367953 0.3142485 -0.6565883 -0.17531478 -0.38497183 0.07576704
0.20676613 -0.27917078 0.67529625 0.055672586 0.13857353 -0.1320759 0.13779622 -0.25404552
-0.10877663 0.26335043 -0.19003314 0.3435014 -0.5273925 -0.4019341 0.21837944 -0.05700916
-0.46983704 -0.23487687 -0.5363307 0.28687632 -0.59695613 0.6529754 0.29569858 0.17631686
-0.13193429 -0.58253664 0.025176406 -0.28107774 0.4128 -0.14670467 0.08189088 0.17521358
0.18728441 -0.36917445 0.6087801 0.21478337 -0.55321753 0.5074492 -0.23572344 0.70039314
0.28476137 -0.24113679 -0.35694855 -0.38398382 -0.4869281 0.45007664 0.057446003 -0.5008538
0.57057315 0.13315284 -0.14859772 0.14219046 -0.14806229 -0.082434595 0.14486897 -0.57264465
0.27320963 0.47237307 -0.24576047 0.22467238 0.121100545 0.5939395 -0.4737509 0.49146694
-0.6354797 0.36153954 0.43387204 -0.15758431 0.35883385 0.14684677 -0.19898522 0.2504558
-0.022942722 -0.5078913 -0.5767597 -0.5629226 0.38997203 0.27592325 -0.2314763 0.30290276
-0.29314837 -0.12063122 -0.08300257 -0.52546585 -0.26471028 0.050016105 0.3458119 0.1851893
0.61434716 0.23789215 -0.107843935 -0.14471889 -0.4586399 0.17975515 0.5709483 -0.49576235
0.12817681 0.40926903 -0.26537484 -0.40812832 -0.30730715 -0.27511305 -0.1354022 -0.5408455

Y_net.layer3.weight f4 [256, 256]
00000000: 8a54 cfbd 3818 1b3c 7335 5abd b170 38bd
00000010: 0e2f bebc 6332 903d 9e71 1c3d e52b 8fbd
00000020: 2be4 92bd 137d 0e3b 4283 193c 027e adbd
00000030: c92e a03d 6aa8 2ebd d291 163d b4c1 c6bd
00000040: 756d c8bc 5e61 12bc a1e5 95bd 4607 183c
00000050: 44ae 603c d7fa 343d 4d70 d2bd 8006 6cbb
00000060: 0940 a8bd f254 12bd a456 e13c c2d3 5cbd
00000070: 3e85 17bd 6cde 01bd 0933 89bd b1c0 d8bd
00000080: f578 133d 2ee7 833d e3cf 08bd 5a0a c03b
00000090: 7c77 cbbd 3c6a 96bd 05aa 973d 9f3b babd
000000a0: da5b 13bd dec0 05bc 303a 413d 17a9 c1bd
000000b0: 7022 9bbd d63b 03be 2ac3 b43d 6ca9 80bd
000000c0: 220f b13d 61f6 053d b108 a53a 6041 90bd
000000d0: 6a29 1c3c 81e3 09bd 0edb 25bd 5116 a2bd
000000e0: 42ae 87bd c751 d0bd 51e0 0ebd c9de cbbd
000000f0: 1797 aebd c3bd c93c c138 c8bd 5dd7 cc3d
00000100: e265 edbb 90f4 9abb 9ee0 d73d ae97 ffbd
00000110: 402e da3c d348 c33d 3f07 683d 5af2 60bd
00000120: a49a 7cbd e592 48bd 581e c6bd 4dbc ec3b
00000130: fd9c 933c 6d9d 89bd cf3d 2dbb 8349 d6bc
00000140: 3936 a8bd 76b7 8b3c 573d edbc 8f2c 473c
00000150: 05c8 193d 181c 88bd 728b 16bd b9e8 b0bd
00000160: e099 863c c5d2 7e3d 0427 6abb e078 49bd
00000170: 5031 68bc f750 d9bd ec1e 2e3d 5333 f13d
00000180: c5f6 78bd d9c7 57bb 26b1 ed3d 1496 603c
00000190: 9a06 413a 3482 b0bd e2ba a43c 3eee 6ebd
000001a0: 1727 de3d 79a5 c5bd 8b5a a0bd ca70 50bd
000001b0: 6343 ac3d 239c acbd 5ba2 80bd d47f a43b
000001c0: 50e0 34bc 032a 9cbd 724c 13bd a3e0 bdbd
000001d0: 955f eab9 2559 30bd c6ee efbc e5fb 95bc
000001e0: 8718 9ebd 5d75 97bd 4287 45bc 8179 aebd
000001f0: 8d19 76bd f05b 7abd 4004 eebc 0b0c c3bd
00000200: 4ce6 9fbb 84ed e03b 6610 633d 3ac1 d1bd
00000210: 79d7 eb3c c54b 18bd 8231 24bd 42de 293c
00000220: 5df6 ccbd 5c81 38bd 530a 5bbd 0f8d 9abd
00000230: 7f1c e1bd c6dd 52bd 5dc7 e0bd 3f0a cabd
00000240: 0781 c23c 6446 c7bc 6337 cdbd 8912 aabd
00000250: dc52 aa3c 5073 343c be17 35bd eada b6bc
00000260: 1265 57bd 9d0b 5dbd 55c9 3e3d 7896 cebc
00000270: 0a26 c33b 1c37 dbbc 9f80 7ebd 2cd5 98bd
00000280: bb66 c1bd a233 9f3d fc9a ce3c 22f3 98bd
00000290: f221 893d 0212 c4bd 8da8 2fbc 1f69 a8bd
000002a0: c66c 693d 9735 953d 22c8 ef3d 1915 92bd
000002b0: d4bc c7bc c3e4 29bb 3ebb 97bd 23cd 0bbd
000002c0: e38e afbc 749c a6bd d0e4 d2bc e348 86bd
000002d0: 6b07 f03d c98d 91bd 98d4 80bd 00d3 cfb9
000002e0: 5baa 8dbb 350b b0bd 43ba 7e3a 82b7 8dbc
000002f0: 7dc5 7dbc 8acf 3cbc 01ac 3dbd 74d3 c1bd
00000300: 56e7 d3bd 9054 f9bc 8489 d13d 05be ccbc
00000310: c777 ebbd 9dd5 353c 90fc 0e3d 60de 30bd
00000320: 4c14 623b 5c84 ec3d fe14 383b d071 6ebb
00000330: 9be4 b53d 0e62 ecbc 74a5 97bd 7a5e a0bd
00000340: 17e6 d4bd 1ee2 dd3c addd 90bd 152a 1dbd
00000350: 3aaf 8cbd a603 8ebd c5e7 a8bd 73a9 d43d
00000360: 183b 8d3c 6b2c c6bc e272 9a39 f5d6 56bd
00000370: 1daf abbd 4e9f 65bc 8550 263d 04b9 16bd
00000380: 4808 afbd 1bc5 69bd 74da 363a 44b0 b2bc
00000390: 41e3 663d 4dac 8dbd 5e4e 0abb c16d 7ebc
000003a0: 40c8 5fbd 5b05 5fbb c2b0 2fbd c0e2 f13c
000003b0: b33e 47bd 1948 353c f946 f33c 20f6 9dbc
000003c0: 7e02 63bd f733 fa3d 40d3 83bc 3757 d9bd
000003d0: fe8f 71bd bd9b a9bd f04a bd3d 820a 17bd
000003e0: 667f ab3b 6fff f13c 62f5 5fbd 9ddd 98bd
000003f0: 10af 6a3d fe45 15bc a77e 34bd d531 45bd
-0.101235464 0.009466223 -0.05327363 -0.045029346 -0.023215797 0.070408605 0.03819429 -0.06990794
-0.07172426 0.002174203 0.009369673 -0.084713 0.078214236 -0.04264108 0.03676016 -0.09704915
-0.024466256 -0.008934347 -0.07319189 0.009279078 0.013713423 0.044184532 -0.10275326 -0.0036014616
-0.08215339 -0.03572554 0.027507134 -0.053912885 -0.036992304 -0.03170626 -0.06699187 -0.10583628
0.036004025 0.064405784 -0.03340138 0.005860609 -0.09934899 -0.07344481 0.074054755 -0.09093403
-0.03597627 -0.008163659 0.047174633 -0.094560795 -0.07574928 -0.12815794 0.08826287 -0.06282315
0.086454645 0.03270567 0.0012591091 -0.07043719 0.009531358 -0.03366423 -0.04049211 -0.07914413
-0.06625034 -0.10171848 -0.034881894 -0.09954602 -0.08524912 0.024626618 -0.0977645 0.10002015
-0.0072448114 -0.004728861 0.10540889 -0.124801025 0.026633382 0.095353745 0.056647535 -0.054918624
-0.061670914 -0.048968215 -0.09673756 0.0072245956 0.018019194 -0.0671948 -0.0026434546 -0.0261581
-0.08213467 0.017055254 -0.028959913 0.01215662 0.03754427 -0.066459835 -0.03675408 -0.08638138
0.016430795 0.062212724 -0.0035728822 -0.04918754 -0.014171913 -0.10611146 0.04250996 0.117773674
-0.060782213 -0.0032925515 0.11606054 0.013707656 0.00073633494 -0.08618584 0.020108644 -0.058332674
0.108472995 -0.09650702 -0.0782977 -0.050888814 0.084112905 -0.08428218 -0.06280967 0.005020121
-0.011039808 -0.076252006 -0.035961576 -0.09271362 -0.00044703172 -0.043053765 -0.02928866 -0.01830859
-0.07719522 -0.07395432 -0.012056174 -0.08519269 -0.06008296 -0.061122835 -0.029054761 -0.095237814
-0.0048797484 0.0068642516 0.05543556 -0.10241933 0.028789269 -0.037181634 -0.040086277 0.010367932
-0.100079276 -0.04504524 -0.053476643 -0.07546436 -0.10991763 -0.05148103 -0.109755255 -0.098652355
0.023743166 -0.024325557 -0.1002033 -0.083043166 0.020791464 0.011013821 -0.044212095 -0.022321183
-0.052586623 -0.053966153 0.046578724 -0.025218233 0.0059554623 -0.026759677 -0.06213438 -0.07462534
-0.094434224 0.0777352 0.025220387 -0.07468249 0.06695928 -0.09573747 -0.010721338 -0.08223175
0.0569885 0.07285612 0.11708094 -0.0713293 -0.024382032 -0.0025923706 -0.074087605 -0.03413118
-0.021430438 -0.0813531 -0.025743872 -0.06556871 0.11720165 -0.071071215 -0.06290549 -0.00039639324
-0.0043232865 -0.085958876 0.0009717086 -0.017299417 -0.015488979 -0.011524091 -0.046306614 -0.094641596
-0.10346858 -0.03043583 0.10231307 -0.024992952 -0.11497455 0.011098293 0.03490883 -0.043180823
0.003449696 0.11548683 0.0028088684 -0.0036383756 0.08881494 -0.02885535 -0.074046046 -0.0783052
-0.10395449 0.02708536 -0.07073531 -0.03837021 -0.06869359 -0.0693429 -0.082473315 0.103838824
0.017240092 -0.024191102 0.00029458763 -0.052451093 -0.083830096 -0.014015032 0.040604133 -0.03679754
-0.085465014 -0.05707274 0.0006975301 -0.021812566 0.05636907 -0.069176294 -0.002110384 -0.015529097
-0.054634333 -0.0034030292 -0.04289318 0.029527068 -0.04864378 0.011064553 0.029696928 -0.0192824
-0.0554223 0.12216943 -0.016091943 -0.10612338 -0.058975212 -0.08281658 0.09242809 -0.036875255
0.005233693 0.029540746 -0.054677375 -0.074641444 0.05729586 -0.009110926 -0.044066098 -0.048143227

Y_net.layer3.bias f4 [256]
00000000: a726 633c 12e1 cabd 9cf3 f2bd 24fd cebd
00000010: c216 4dbd 7630 b3bd 1791 8bbd 3a62 d8bd
00000020: 77da 22bd 7667 1dba f532 acbc 3071 cebb
00000030: 23ba 2dbe 8767 b9bb 40e3 0a3d 3762 213c
00000040: 99f8 96bd d2f4 7b3b e154 acbd f551 8bbd
00000050: f65c c6bc ea62 613c 4705 f7bd 6dab b1bd
00000060: 9433 a3bc 2ff9 7ebd aa87 38bd 402a edbd
00000070: 059a f8bd 0f97 f7bc 0b0b 13bc 02d2 aabd
00000080: b12b eebd ec83 cabc 6dbe 15bd 05ec aabd
00000090: 0ad3 77bb 57e0 adbc 58ce 6a3d 521e 88bd
000000a0: 30a6 b4bc e251 babd 606f 3cbd 4ce0 a2bc
000000b0: 0aae cd3a 9637 063c bf29 82bd 9323 e3bc
000000c0: b666 37bd 58cc 2c3b 2c1f 6dbd 1a9a 50bc
000000d0: c06a edbd 3718 b3bd ef73 6abd 0fab 88bd
000000e0: 0d6e c2bd 3a61 39bd 4691 58bd 089f b8bd
000000f0: 0c60 c5bd 8053 a2ba 83b4 453c 1a05 26bd
00000100: 3c1e fcbc 46a7 0cbd 2fde 91bd 3b76 89bd
00000110: 46a7 55bd a3d8 36bd 5618 85bd 98c0 a6bd
00000120: f352 9fbd aedf 4fba 08c0 f5bd c2fa dfbd
00000130: 5494 96bd c884 9fbd 83f6 6dbc 79ec 6ebd
00000140: 82ed bdbd 2064 9539 c71c d9bd b386 f0bc
00000150: 2ca9 eebc 2b92 90bd 2242 8cbb 8983 a2bc
00000160: 6bf2 073c dda3 75bd c8d6 b0bd 5cdd 4dbd
00000170: 75c2 d0bd 4104 2fbb 5b96 8abd 9eb0 47bb
00000180: 2eb8 a0bd 00aa c2bd 39a1 cbbd 00ff 453a
00000190: b0c9 333c 4c22 efbc 1057 50bd fcdc 0fb9
000001a0: 8e68 d539 7838 a8bd fca9 b7bd 004e d9bd
000001b0: 898b 3a3d e93b 92bd dbb5 75bd 31be 9bb9
000001c0: 5cb8 28bb b650 a8bd 2c11 31be f71e d8bd
000001d0: 6ba4 9cbc c741 f0bd 46cc bc3a 25c9 5cbd
000001e0: b7a3 a2bc 6d9c 3bbd 6a0d 08bd 5be7 8dbd
000001f0: 3044 67bd cea5 b3bd cae2 91bd 4a08 713d
00000200: 873e 65bd b069 f4bd 8ab7 2bbc b3bb 47bb
00000210: f49a fcba 6e6a 7ebd 746d 97bc fda3 6b3d
00000220: 80eb 02ba 4211 4ebd 1fb5 d93c d0bf 85bd
00000230: b74c 88bd c972 a1bd 63a3 fabd e11e 4cbc
00000240: b62d 6abd 8ac0 d4bd 842a 80bd 53fc d23d
00000250: ba68 e0bc 3fa7 58bd 2b73 d2bd d75a 48bd
00000260: 0201 2dbd da25 bfbd f7f8 04bd ae29 f1bd
00000270: 805d e9bd 8e2b d6bc 3f28 0dbc 14c4 e8bd
00000280: 3d21 73bd 34a2 9bbc 3cc7 a9bc d880 9abd
00000290: c635 dcbd 258a 92bd d70c 273c ee97 ddbd
000002a0: 2413 3abd 2ddb d13a c451 8e3d dc45 07bd
000002b0: 68ef a7bd 6f45 edbd 20c8 4cbb 2438 c63c
000002c0: aced 15bd 1a46 d8bd 6a36 8a3d 25c1 4cbd
000002d0: efe6 9fbc 164a 23bd 2268 63bc eddf 86bd
000002e0: dc2c d4bd b34b c3bd 686d 233d 22b2 b3bd
000002f0: c9f3 11bb 458b cfbd e344 a5bc 735a 81bd
00000300: af2b cdb9 8311 b238 98cf 8ebd 9a57 94bb
00000310: bef5 e7bd b0ca e1bd 3d58 82bc 280c 38bd
00000320: 4450 22bd 7b28 bcbd 00d2 abba 8a4d f93c
00000330: 62fa 24bd 3a01 00bc 70b6 c9bc 0878 8fbc
00000340: 5ce4 ecba 5952 58bc 25b3 1cbd 87e0 dfbb
00000350: eb4b bfbd dc9e fabd 1141 acbd b69a efbd
00000360: ce3b d3bd 91ab d3bd c29f 76bd d78a 99bd
00000370: 2000 7bbd 0684 2ebd 4653 a7bd e78a c5bc
00000380: 39bc d33b b6c8 16bd 3492 9cbd a232 a4bd
00000390: 3081 9abc 001a 99bd f383 acbd 1f5c 7bbb
000003a0: 3bda 4ebd abf0 a5bd a4e6 a7bd df2e eebd
000003b0: 1c85 b7bd 753e 9bbd b3e6 87bc 2df5 8abb
000003c0: da6e 85bc 41be 9fbd 1842 cfbc 60aa 103c
000003d0: 59ac 75bd 11ca ddbd 1b69 92bd 144a e9bd
000003e0: e4ac b0bd 6fbb 98bd aa1d 92bd e612 aabd
000003f0: 5665 06bd d393 82bc 3437 2c3c 2694 84bd
0.013864196 -0.0990621 -0.11862871 -0.101068765 -0.05007053 -0.087494776 -0.06814783 -0.1056561
-0.039759126 -0.00060044916 -0.021020392 -0.006300114 -0.16965537 -0.0056580934 0.03390813 0.009850076
-0.07371635 0.0038445485 -0.08414627 -0.068027414 -0.02421425 0.013756493 -0.120615534 -0.08675275
-0.019922055 -0.06224936 -0.045051254 -0.11580324 -0.12138752 -0.030223398 -0.008974801 -0.08340837
-0.11629427 -0.024721108 -0.036558557 -0.083457984 -0.0037814998 -0.021225138 0.05732569 -0.06646408
-0.0220519 -0.09097649 -0.046004653 -0.019882344 0.0015692126 0.008191964 -0.06355619 -0.027726924
-0.044775687 0.0026366916 -0.057891056 -0.012732053 -0.115926266 -0.08744853 -0.05723947 -0.06673252
-0.09493647 -0.045258738 -0.05287292 -0.09014708 -0.0963746 -0.0012384504 0.012066963 -0.04053221
-0.030776136 -0.034339212 -0.07122456 -0.06712004 -0.052161478 -0.044640195 -0.06498782 -0.08142203
-0.07779493 -0.0007929754 -0.11999518 -0.109365 -0.0735251 -0.07788998 -0.014524105 -0.058330987
-0.09273817 0.00028494094 -0.10601192 -0.029361105 -0.029133402 -0.07059129 -0.0042803446 -0.019838111
0.008297543 -0.059970725 -0.08634716 -0.050259933 -0.1019334 -0.0026705416 -0.06766959 -0.0030470262
-0.078476295 -0.09505081 -0.0994286 0.00075529516 0.010973379 -0.029191159 -0.05086428 -0.00013719866
0.00040704425 -0.082138956 -0.08967969 -0.106105804 0.045543227 -0.07140333 -0.059987884 -0.00029705607
-0.0025744652 -0.082185194 -0.17291707 -0.10552781 -0.01912137 -0.11731296 0.001440414 -0.053902764
-0.019853456 -0.045803476 -0.033215918 -0.06928893 -0.056461513 -0.08771859 -0.07123335 0.058845796
-0.055967834 -0.11934221 -0.010480771 -0.0030476868 -0.0019272254 -0.062113218 -0.018484809 0.05752944
-0.00049941987 -0.050309427 0.026575623 -0.06530726 -0.06655257 -0.07883222 -0.12238195 -0.012458534
-0.0571725 -0.103882864 -0.06258109 0.10302033 -0.027393688 -0.052893873 -0.10275873 -0.048914757
-0.04223729 -0.093333915 -0.032463994 -0.11775528 -0.11394787 -0.026143815 -0.008615552 -0.11365524
-0.05935787 -0.018998243 -0.020724885 -0.07544106 -0.10752444 -0.07155255 0.010195932 -0.10819994
-0.04542841 0.0016010754 0.06949189 -0.033025607 -0.0819996 -0.11585509 -0.0031247213 0.024196692
-0.036603615 -0.10560246 0.0674866 -0.049988884 -0.019519297 -0.039865576 -0.013879808 -0.06585679
-0.10360119 -0.09535923 0.03989926 -0.087742105 -0.0022270551 -0.101339854 -0.02017445 -0.0631608
-0.00039133194 8.490963e-05 -0.06973189 -0.0045270445 -0.113261685 -0.11024988 -0.015911216 -0.044933468
-0.03962733 -0.091874085 -0.001310885 0.030432481 -0.040277846 -0.007812792 -0.024623126 -0.01751329
-0.0018073427 -0.013203227 -0.038256783 -0.0068321857 -0.09340652 -0.12237331 -0.08410848 -0.11699431
-0.10314141 -0.10335458 -0.06021095 -0.07497185 -0.061279416 -0.042606376 -0.0817018 -0.024114085
0.006461647 -0.036812507 -0.076450735 -0.0801747 -0.01886043 -0.07475662 -0.08423605 -0.003835447
-0.05050109 -0.081025444 -0.08198288 -0.11630034 -0.089609355 -0.07580272 -0.016589498 -0.004240653
-0.01628821 -0.0779996 -0.02530007 0.008829683 -0.059978817 -0.10829557 -0.071489535 -0.113910824
-0.08626726 -0.07457625 -0.07134564 -0.08304386 -0.032811485 -0.015939629 0.010511208 -0.064735696
