models/saved/pinn_FC_ReLU_best.pth (torch, 798245 bytes, 9 tensors)

Y_net.net.0.weight f4 [256, 2]
0	0xbe262602	-0.16225436
1	0x3f2fe4c0	0.6870842
2	0xbd042b1f	-0.032267686
3	0xbee2b2cd	-0.4427704
4	0xbf215bff	-0.63031
5	0xbd555ea5	-0.052092213
6	0xbea28c79	-0.31747797
7	0xbf125a57	-0.571691
8	0xbe42c724	-0.19021279
9	0xbeebd9cb	-0.460646
10	0xbf005a4c	-0.5013778
11	0xbe9c56d1	-0.30534986
12	0xbef63948	-0.48090577
13	0x3e157e70	0.14599013
14	0x3ddd1cc5	0.10796503
15	0x3e89d122	0.26917368
16	0xbe83d2bd	-0.25746718
17	0xbd09b850	-0.03362304
18	0x3ed5c654	0.41752875
19	0x3ea0474c	0.31304395
20	0xbf1a113e	-0.6018256
21	0x3f0d4e9b	0.5519807
22	0xbd8387f4	-0.064224154
23	0xbe7ddfd8	-0.24792421
24	0xbedb32f5	-0.42812315
25	0xbef37f8b	-0.47558245
26	0xbe99a747	-0.30010435
27	0xbf08f6fd	-0.53501874
28	0xbf17d9b1	-0.59316546
29	0x3ec463be	0.38357347
30	0x3f11affc	0.56909156
31	0xbf1229d9	-0.57095104
32	0xbe47cda6	-0.19512042
33	0x3de5427d	0.11194322
34	0x3ee01163	0.43763265
35	0xbe1c8e4d	-0.15288658
36	0xbd2df2be	-0.042467825
37	0xbf016e3f	-0.5055885
38	0x3e99d177	0.30042621
39	0xbd8a3da0	-0.06750035
40	0x3e6a3004	0.22869879
41	0xbec727e1	-0.38897613
42	0x3e83e8e7	0.25763628
43	0xbf181fd5	-0.5942357
44	0x3c9f9820	0.019481719
45	0xbd477dd0	-0.04870397
46	0x3f3b4736	0.73155534
47	0xbdde63d7	-0.10858887
48	0xbeabe6aa	-0.3357442
49	0x3e9166da	0.28398782
50	0x3e9ed2a2	0.31020075
51	0x3df18176	0.11792271
52	0x3f1a818f	0.6035394
53	0x3efc924c	0.49330366
54	0x3e8d447c	0.27591312
55	0xbe8d419d	-0.2758912
56	0xbeabcba5	-0.33553806
57	0xbf0f3b2f	-0.5594968
58	0xbe8149b6	-0.2525155
59	0xbe41bd15	-0.18919785
60	0xbe96e388	-0.29470468
61	0x3f0e4db2	0.55587304
62	0xbf2e0783	-0.6798021
63	0x3d951284	0.07278922
64	0x3de4154e	0.11136876
65	0xbefdd07b	-0.4957312
66	0x3eec5bea	0.46163875
67	0xbc30d10e	-0.01079203
68	0x3e361ac9	0.17783655
69	0x3f1c9ad7	0.61173767
70	0xbea7b10a	-0.32752258
71	0xbf23e9f4	-0.6402886
72	0x3ee69257	0.45033523
73	0x3f285a0a	0.6576239
74	0x3f13d29e	0.5774325
75	0xbe7b3c01	-0.24534608
76	0x3e99035f	0.29885384
77	0xbe91e1e2	-0.28492647
78	0xbeaa9a81	-0.33321002
79	0xbf0e3026	-0.5554222
80	0xbe39a165	-0.18127973
81	0xbeafbf0a	-0.3432544
82	0x3ee674af	0.45010898
83	0xbdc9c7a1	-0.09852529
84	0x3f0645bc	0.52450156
85	0xbe775a89	-0.2415563
86	0xbf138464	-0.5762389
87	0x3e1b65ff	0.15175627
88	0xbb79d80e	-0.0038123163
89	0xbf1e7c9b	-0.6190888
90	0xbe0b2db8	-0.13591659
91	0x3ed2f44a	0.41202003
92	0x3f359efb	0.7094571
93	0x3c22ee5a	0.009944523
94	0x3dcba577	0.09943669
95	0x3eabdd82	0.33567435
96	0xbf074961	-0.5284634
97	0xbf31cf46	-0.694569
98	0x3f366a21	0.7125569
99	0xbdd17ee8	-0.102292836
100	0x3ecfc31e	0.4057855
101	0x3e924a40	0.28572273
102	0x3ebe97b4	0.37225115
103	0xbf06ca50	-0.52652454
104	0x3e563584	0.20918852
105	0xbe18c2dd	-0.14918084
106	0xbeb4cf91	-0.3531461
107	0x3ef1d451	0.47232297
108	0xbeb7ae83	-0.3587533
109	0x3f2ddc6a	0.6791445
110	0xbee3af98	-0.44469905
111	0xbdfdac90	-0.12386429
112	0x3f2d115f	0.6760463
113	0x3f1652e6	0.5872024
114	0xbf34f6f7	-0.7068934
115	0x3ea34676	0.31889695
116	0x3e885a86	0.26631564
117	0x3f2f3429	0.68438965
118	0x3e9af553	0.30265293
119	0xbcdfc3dc	-0.027315073
120	0xbf14f726	-0.5818962
121	0xbf0c1620	-0.5472126
122	0x3dd20937	0.10255664
123	0x3e3d1173	0.18463688
124	0x3f2691df	0.6506633
125	0xbefffbba	-0.4999674
126	0xbf179510	-0.59211826
127	0x3eb7784e	0.35833973
128	0x3e5decc2	0.21672347
129	0xbed70ce8	-0.42002034
130	0xbc2d8886	-0.010591632
131	0x3e9bdae0	0.30440426
132	0xbbec7b80	-0.007216871
133	0xba3d5800	-0.0007222891
134	0xbf2d90a2	-0.6779882
135	0x3cf042a0	0.029328644
136	0x3f0ec5be	0.5577048
137	0x3ec2e0ea	0.3806222
138	0x3e9016c4	0.2814237
139	0x3e5e7293	0.21723394
140	0xbf261d0a	-0.6488806
141	0xbe966483	-0.2937356
142	0xbe0c665f	-0.13710926
143	0xbea582b2	-0.32326275
144	0x3e111141	0.14166738
145	0x3ecdbbfb	0.4018248
146	0xbed3a153	-0.41334018
147	0xbe4f8e5f	-0.20269154
148	0x3f04af6c	0.5183017
149	0xbf1a226f	-0.6020879
150	0x3e0228dc	0.12710899
151	0xbd0aeb90	-0.033916056
152	0x3e3ba974	0.1832636
153	0xbece5660	-0.40300274
154	0xbd884b8f	-0.06655037
155	0xbeeb0c26	-0.45907706
156	0xbf13260c	-0.5747993
157	0x3ed588df	0.41705987
158	0x3f06c1b4	0.5263932
159	0xbd274003	-0.04083253
160	0xbf26f0f6	-0.6521143
161	0x3ec0c15d	0.37647524
162	0x3eb034cd	0.34415284
163	0x3f0dd063	0.553961
164	0x3d51e691	0.051245276
165	0xbe5a025f	-0.21289967
166	0xbea172db	-0.3153294
167	0x3e22ae78	0.15886867
168	0xbe51f7da	-0.20504704
169	0xbeeefc16	-0.466767
170	0xbef3b09c	-0.4759568
171	0x3e3552e0	0.17707396
172	0xbf312b37	-0.69206566
173	0x3ede53b5	0.43423238
174	0x3da29f48	0.07940537
175	0xbec44fc6	-0.38342112
176	0xbf1c86ce	-0.61143196
177	0x3f254eb6	0.6457323
178	0x3eb828d7	0.35968658
179	0xbee47796	-0.44622487
180	0x3ed795a0	0.42106342
181	0xbe7c4960	-0.24637365
182	0xbd5c51d0	-0.05378896
183	0x3ceecef0	0.02915141
184	0xbefdfea8	-0.4960835
185	0xbeb1d65a	-0.3473385
186	0xbf0f0360	-0.55864525
187	0x3f11522a	0.56766
188	0xbe9042ce	-0.28175968
189	0xbde366b6	-0.11103575
190	0xbdc0ad1c	-0.09408018
191	0xbf28b4e0	-0.65900993
192	0xbdbcd36d	-0.09220014
193	0x3e6d3e66	0.23168334
194	0x3e43e665	0.19130857
195	0xbd254292	-0.04034669
196	0x3dbbe1b9	0.091739126
197	0x3f071239	0.5276218
198	0x3f140002	0.5781251
199	0xbe117786	-0.14205751
200	0xbdc3f0e8	-0.095674336
201	0xbe0e2cbc	-0.13884252
202	0xbca74f70	-0.020423621
203	0xbeff7a56	-0.49898022
204	0x3f31e417	0.6948866
205	0xbef5f79b	-0.4804047
206	0xbe073adc	-0.13206047
207	0xbf230732	-0.63682854
208	0xbdef8b88	-0.11696535
209	0xbe6e9767	-0.23299943
210	0x3f0ce3f1	0.5503531
211	0x3e794198	0.24341428
212	0xbf010da9	-0.5041147
213	0xbe59c9c8	-0.2126838
214	0xbd886728	-0.066603005
215	0x3d4a5f90	0.04940754
216	0x3e138aca	0.14408413
217	0xbf058f9a	-0.52172244
218	0xbed432a9	-0.414449
219	0xbd1ebe50	-0.038755715
220	0xbf384b40	-0.7198982
221	0xbe442011	-0.19152857
222	0x3ef9627d	0.48707953
223	0xbdeb200e	-0.11480723
224	0x3c7b8a8c	0.015352856
225	0x3ee5ea54	0.4490534
226	0xbec4ec2b	-0.38461432
227	0x3f010c59	0.50409466
228	0xbee65fbe	-0.4499492
229	0x3f0ab83f	0.5418739
230	0xbeb870c2	-0.36023527
231	0x3e0aa27a	0.13538542
232	0x3e0552df	0.13019894
233	0xbdce1603	-0.10062792
234	0xbf2d0770	-0.67589474
235	0xbf0fccc3	-0.56171817
236	0x3dc79daa	0.09746869
237	0xbed787d2	-0.4209581
238	0xbc8db642	-0.017298821
239	0xbf15ced4	-0.5851872
240	0xbef831c1	-0.4847546
241	0x3f149013	0.5803234
242	0x3f04bba3	0.5184881
243	0xbed5fc77	-0.41794178
244	0x3e964c07	0.2935488
245	0x3f04037e	0.5156783
246	0xbd8f5ebe	-0.070004925
247	0x3d527e25	0.051389832
248	0x3e4843ad	0.19557066
249	0xbdfe1431	-0.12406195
250	0x3a90ebee	0.0011056641
251	0x3ee679ff	0.4501495
252	0x3f066e83	0.5251238
253	0x3efb1e92	0.4904676
254	0xbd7be72f	-0.06149977
255	0x3f1b2669	0.60605484

Y_net.net.0.bias f4 [256]
0	0xbd5928f5	-0.053017575
1	0xbe1971f0	-0.1498487
2	0x3cb2e8f7	0.021839602
3	0xbf2856f5	-0.65757686
4	0xbf325680	-0.6966324
5	0x3e2136c1	0.15743543
6	0xbe837106	-0.25672168
7	0x3f097270	0.5369024
8	0xbe893653	-0.2679926
9	0x3d7b0839	0.06128714
10	0x3f2d8de6	0.67794645
11	0x3f290469	0.66022354
12	0xbeadbb04	-0.33931744
13	0x3ee57276	0.4481389
14	0x3d40178f	0.046897467
15	0x3dc57846	0.09642081
16	0x3f120ce3	0.57050914
17	0x3eb30881	0.34967425
18	0xbf076363	-0.5288603
19	0x3dcd5b32	0.1002716
20	0x3f01a91a	0.50648654
21	0xbf0feeb2	-0.56223595
22	0xbf114f8c	-0.56762004
23	0xbe52e8f6	-0.2059668
24	0xbe3d5fd8	-0.18493593
25	0x3f0670d4	0.5251591
26	0xbe488cc4	-0.19584948
27	0x3e060344	0.13087183
28	0x3ec186cf	0.37798163
29	0xbf30425b	-0.6885125
30	0xbf2352ef	-0.6379842
31	0x3da9c46a	0.08289416
32	0x3f1b6c2e	0.60711944
33	0x3e6d684b	0.23184316
34	0xbe9469af	-0.2898688
35	0xbee876f0	-0.45403242
36	0x3e2a4798	0.16628873
37	0x3e878d2c	0.26474893
38	0xbd68973e	-0.05678486
39	0x3d98419a	0.074343875
40	0x3dc2d2c2	0.09512855
41	0xbf1abeff	-0.60447687
42	0x3ea13813	0.31488094
43	0xbf0bed17	-0.54658645
44	0x3f1f2ab5	0.6217454
45	0x3e50e751	0.2040074
46	0x3f22b205	0.63552886
47	0x3f150041	0.5820351
48	0x3df23073	0.11825647
49	0x3e6a6f27	0.22893964
50	0xbf1c3f11	-0.6103373
51	0xbf3643f0	-0.71197414
52	0x3c3e8726	0.011628902
53	0xbf336f09	-0.700913
54	0xbe80e995	-0.2517821
55	0xbf0fd714	-0.5618756
56	0x3eeaaf27	0.45836756
57	0x3f274bad	0.6534985
58	0xbbca6bc1	-0.006177396
59	0xbea46b88	-0.3211329
60	0x3eba363d	0.36369506
61	0x3efa1dd5	0.48850885
62	0xbf3c9464	-0.73663926
63	0x3ee72178	0.45142722
64	0x3e18f398	0.14936674
65	0xbd09858b	-0.033574622
66	0xbe9b8fe1	-0.30383208
67	0xbf08cc32	-0.5343658
68	0xbf38ebba	-0.7223469
69	0xbefafeab	-0.4902242
70	0xbddb4651	-0.10706771
71	0x3e98832f	0.29787585
72	0x3f2146f5	0.62998897
73	0x3e9fa89d	0.3118333
74	0xbe937dbe	-0.2880687
75	0xbeece4a8	-0.462682
76	0xbdcddc18	-0.10051745
77	0x3e7397e3	0.23788409
78	0x3d9c179b	0.0762169
79	0x3efea522	0.4973536
80	0x3f03a307	0.51420635
81	0xbed45ec8	-0.41478562
82	0x3f28ea86	0.65982854
83	0x3eb164ca	0.34647208
84	0x3f3010a3	0.68775386
85	0xbf0afd88	-0.5429311
86	0x3eb2f3fa	0.34951764
87	0x3f061f3d	0.52391416
88	0x3f102936	0.5631288
89	0x3f0e88f5	0.5567773
90	0xbf1d2b05	-0.6139377
91	0x3e8cdf16	0.2751395
92	0x3e00570c	0.12533206
93	0xbe84cf1a	-0.25939256
94	0xbe3d33ac	-0.18476743
95	0x3f0d88e7	0.5528702
96	0x3dbf941c	0.093544215
97	0xbe98cd1c	-0.29843986
98	0xbe11c34b	-0.14234655
99	0xbf258bdb	-0.6466653
100	0xbf158ff8	-0.58422804
101	0xbefce1a1	-0.4939089
102	0xbe0e0113	-0.13867597
103	0xbdad8b93	-0.08473887
104	0xbde02a33	-0.10945549
105	0xbf1eb4e9	-0.61994797
106	0x3f1d5389	0.6145559
107	0xbf1b40e3	-0.60645884
108	0x3e8df802	0.27728277
109	0xbeb2d861	-0.3493071
110	0x3d58b7ef	0.052909788
111	0x3e2e684e	0.17031977
112	0xbdcf2ff6	-0.1011657
113	0x3f09d71a	0.53843844
114	0xbf0cd03c	-0.5500524
115	0x3ea0df5a	0.31420404
116	0xbee03762	-0.43792254
117	0x3e3d4ca6	0.1848627
118	0xbe80500e	-0.25061077
119	0xbe2497dd	-0.16073556
120	0xbf0765c0	-0.52889633
121	0xbef76468	-0.4831879
122	0x3f1881e5	0.59573203
123	0xbd47aef0	-0.048750818
124	0xbe9b9588	-0.3038752
125	0xbe57ed5a	-0.21086636
126	0x3e01cb09	0.12675108
127	0xbe4c5063	-0.1995254
128	0x3db68460	0.08911967
129	0xbe153c2f	-0.1457374
130	0x3efdddca	0.49583274
131	0x3ed50795	0.41607347
132	0x3ded4dc9	0.11587102
133	0xbed3a8fe	-0.41339868
134	0xbe8b4ead	-0.27208462
135	0xbe0599bb	-0.13046925
136	0x3ee0a10f	0.43872878
137	0x3d85152e	0.0649818
138	0xbdc6e4a4	-0.097115785
139	0x3e5fe412	0.21864346
140	0xbf34be2f	-0.706027
141	0xbe042280	-0.12903786
142	0x3de104f2	0.10987271
143	0xbe035e43	-0.12828927
144	0x3e955dd0	0.29173136
145	0x3f10dabb	0.56583756
146	0xbf0df539	-0.55452305
147	0xbecaed7a	-0.39634305
148	0xbeb4018a	-0.35157424
149	0xbecf1757	-0.40447494
150	0xbe345ccc	-0.17613524
151	0xbef2009c	-0.4726609
152	0xbf0b5b4d	-0.5443619
153	0x3f06a8e6	0.5260147
154	0xbf0d0e74	-0.5510018
155	0x3e2a613e	0.16638657
156	0xbecb33a0	-0.39687824
157	0xbee22957	-0.44172165
158	0xbdc422ef	-0.095769756
159	0x3dfdfce1	0.124017484
160	0xbe44ea3f	-0.19229983
161	0xbe063f40	-0.13110065
162	0x3eb5c3f1	0.35501054
163	0x3f19a542	0.6001779
164	0xbe76caf3	-0.24100856
165	0x3f037e28	0.51364374
166	0xbf379150	-0.71706104
167	0x3f1b54b2	0.6067611
168	0xbf0506fb	-0.51963776
169	0x3f14d4c1	0.58137137
170	0x3ec190c1	0.3780575
171	0x3edce311	0.43141988
172	0x3d96c7bb	0.07362314
173	0xbe38f73e	-0.18063065
174	0x3e8dd63b	0.27702507
175	0x3f1b5958	0.606832
176	0xbe9a3469	-0.3011811
177	0x3ba27060	0.004957244
178	0xbf238ba3	-0.63884944
179	0x3de8f184	0.113741904
180	0xbe074ce7	-0.1321293
181	0xbe65a574	-0.22426397
182	0x3ebfe8e3	0.37482366
183	0xbdfe5728	-0.124189675
184	0xbbfc237d	-0.00769466
185	0xbf1bde3c	-0.6088598
186	0xbeba1170	-0.3634143
187	0xbf05ae9c	-0.5221956
188	0x3e292ca9	0.16520943
189	0xbf207fdb	-0.6269509
190	0xbec3bf52	-0.38231903
191	0xbe1f78ef	-0.15573476
192	0x3e6ab8d8	0.22922075
193	0x3f2af246	0.6677593
194	0x3ecf5495	0.40494218
195	0x3eafb02b	0.34314093
196	0xbf14d2a0	-0.5813389
197	0xbf25652c	-0.646075
198	0x3f1dee57	0.616918
199	0xbe1ad899	-0.15121688
200	0x3d4c67c9	0.049903665
201	0xbea3f6a0	-0.32024097
202	0x3f15e396	0.58550394
203	0x3f2f4aca	0.68473494
204	0xbf1a8c70	-0.6037054
205	0x3ed6b936	0.4193818
206	0xbf1b8641	-0.6075173
207	0xbeefeb6a	-0.46859294
208	0xbce7a5f1	-0.02827737
209	0x3ea03569	0.3129075
210	0xbe15811d	-0.14600034
211	0xbe8b5767	-0.2721512
212	0x3dc75fd0	0.09735072
213	0x3ee41362	0.44546038
214	0x3ef53c24	0.47897446
215	0xbe3e9fae	-0.186156
216	0x3ef36d73	0.4754444
217	0x3dbbcc8d	0.09169874
218	0xbe148c55	-0.14506657
219	0x3f386358	0.72026587
220	0x3d4d4682	0.05011607
221	0x3e9c845b	0.3056973
222	0x3f1195aa	0.56868994
223	0x3f08a069	0.53369766
224	0xbe0cdbf6	-0.13755783
225	0xbf08bbef	-0.53411764
226	0x3f090667	0.53525394
227	0x3ec86b5c	0.3914441
228	0xbeb79cfd	-0.3586196
229	0x3d9255b8	0.07145256
230	0x3eae6351	0.34060147
231	0x3cf5fa1b	0.030026486
232	0x3f185694	0.5950711
233	0xbf2f034d	-0.6836441
234	0xbf07e45c	-0.53082824
235	0x3daaebfa	0.0834579
236	0xbd84752c	-0.06467661
237	0xbf21a23c	-0.63138175
238	0xbe26bcc7	-0.1628295
239	0x3f119708	0.5687108
240	0x3f2c33f2	0.6726676
241	0xbed91b1a	-0.4240349
242	0xbf0fc3f8	-0.561584
243	0xbec981f5	-0.39356962
244	0xbf1382ac	-0.57621264
245	0xbe8d69e8	-0.27619863
246	0xbf1bbb4e	-0.6083268
247	0x3ed10960	0.40827465
248	0xbf26b00a	-0.65112364
249	0x3e8658db	0.26239666
250	0xbefbc583	-0.49174127
251	0xbe83de7d	-0.25755683
252	0xbe9907ce	-0.29888767
253	0xbf2759d8	-0.65371466
254	0x3ebc79fb	0.36811814
255	0xbf13ab4b	-0.5768325

Y_net.net.2.weight f4 [256, 256]
0	0x3d1ed2ef	0.03877538
1	0x3d82c419	0.06385059
2	0xbd16323a	-0.036668994
3	0xbce228f0	-0.027607411
4	0x3d36188d	0.044457007
5	0x3b5a7582	0.00333342
6	0xbb7cf7a6	-0.0038599758
7	0x3d0f96a1	0.03505576
8	0xbcedd09c	-0.029030137
9	0xbc0be8f7	-0.00853943
10	0xbd58e8f3	-0.052956533
11	0x3b32286e	0.0027184743
12	0x3d1c0a21	0.038095597
13	0x3d3f2ea7	0.04667535
14	0xbd07d219	-0.03315935
15	0xbc950646	-0.018191468
16	0xbc191c73	-0.009345162
17	0xbd1c5ec7	-0.038176324
18	0x3dac3f45	0.08410505
19	0x3d60d7e4	0.05489339
20	0x3d1f3b2a	0.038874783
21	0x3d227f42	0.039672144
22	0x3c9c9f4c	0.019118927
23	0x3cb41cc6	0.021986376
24	0x3c5f3ac7	0.013624853
25	0x3d396492	0.045261927
26	0xbd10357c	-0.035207257
27	0x3c81cace	0.015843775
28	0x3cbdb2fb	0.023156634
29	0x3d6aa84c	0.057289407
30	0xbbd88e5b	-0.006608767
31	0x3cead449	0.028665679
32	0xbce54e6e	-0.0279915
33	0xbb49ec05	-0.0030810845
34	0xbcabf1dc	-0.020989351
35	0x3d903bcf	0.070426576
36	0x3b5848b9	0.003300233
37	0x3d4a4a9b	0.049387556
38	0x3ce4ff1b	0.027953675
39	0x3d140c66	0.036144637
40	0xbcc43a5c	-0.02395361
41	0xbd8cd2ab	-0.06876119
42	0x3d47236e	0.048617773
43	0xba2e2679	-0.0006643306
44	0x3d2b937a	0.04188869
45	0xbc811f2f	-0.01576194
46	0x3d1db319	0.03850088
47	0xbcb3373b	-0.021876922
48	0x3cb0c2aa	0.021577198
49	0xbd060098	-0.03271541
50	0xbcc30f29	-0.02381094
51	0x3d1ebb09	0.03875259
52	0xbd15f58c	-0.036611125
53	0x3d85e869	0.06538469
54	0x3d91d4e6	0.07120685
55	0x3cd76ec8	0.026297942
56	0x3c3802b4	0.011231113
57	0x3cc20961	0.023686113
58	0xbc6f39e8	-0.014601208
59	0xbc6119fa	-0.013739103
60	0xbd540b5d	-0.05176865
61	0x3d36de99	0.04464588
62	0xbd642439	-0.055698607
63	0x3c3849f6	0.011248102
64	0xbd04c2d3	-0.03241236
65	0x3bf39efb	0.0074347234
66	0x3d0c5e16	0.034269415
67	0x3d4b9faa	0.049712814
68	0x3c886243	0.016648417
69	0xbad962e9	-0.0016585264
70	0xbd3ff5d9	-0.046865318
71	0x3cec8113	0.028870141
72	0xbd6cbd45	-0.05779769
73	0xbd4166ff	-0.047217365
74	0x3d380ae5	0.044932265
75	0xbd69845a	-0.057010986
76	0x3d329f54	0.04360898
77	0x3d597e73	0.053099107
78	0x3b713857	0.0036807263
79	0xbb3da0c0	-0.0028934926
80	0xbcd53c85	-0.026029835
81	0x3c896e02	0.016776089
82	0x3bef85fc	0.0073096734
83	0x3c8ec45c	0.017427616
84	0xbb75f8e1	-0.0037532377
85	0x3d4ea990	0.050454676
86	0x3964e072	0.00021827387
87	0x3d4090d4	0.04701312
88	0x3d5856b3	0.052817058
89	0xbd08b7d6	-0.033378445
90	0xbd1a8500	-0.037724495
91	0xbd00101b	-0.03126536
92	0xbd07c8e9	-0.033150587
93	0x3d285407	0.04109576
94	0xbd0a8a09	-0.033823047
95	0x3d64faa9	0.05590311
96	0xbd06a61e	-0.032873265
97	0x3d0eedb6	0.034894668
98	0x3d302465	0.04300346
99	0xbc673bb9	-0.01411336
100	0x3d6597f8	0.05605313
101	0x3da32510	0.079660535
102	0x3ad4847c	0.00162138
103	0xbc70b3a2	-0.014691265
104	0xbcc6b694	-0.024256982
105	0x37912d3b	1.7306409e-05
106	0x3cb7ee6b	0.022452554
107	0xbc5b0818	-0.013368629
108	0xbb571578	-0.0032819193
109	0xbc90487c	-0.017612688
110	0xbcb144df	-0.021639286
111	0xbd10e63b	-0.035375815
112	0xbc744b8b	-0.014910589
113	0x3b8be96c	0.0042697694
114	0x3d4b92f1	0.04970068
115	0x3d603bca	0.05474452
116	0x3d4e4242	0.050356157
117	0x3ca4b3d6	0.020105284
118	0xbcc8bc88	-0.024503961
119	0x3d89eff9	0.06735224
120	0xbd3a6b38	-0.045512408
121	0xbb8d16f2	-0.004305714
122	0x3ca5afb4	0.020225383
123	0x3c279a3b	0.0102296425
124	0xbcc18b62	-0.023626033
125	0xbca39d6e	-0.01997253
126	0x3d3fa19a	0.046784975
127	0x3d4394f8	0.04774949
128	0x3c844dc6	0.016150367
129	0xbce6c627	-0.028170658
130	0x3c70d0ad	0.01469819
131	0x3aac9fc2	0.001317017
132	0x3a125795	0.0005582509
133	0xba91da59	-0.0011127695
134	0xbd3cc21e	-0.046083562
135	0x3d584cd5	0.052807648
136	0xbd2f1f9d	-0.04275476
137	0x3c887760	0.016658485
138	0xbd1846b4	-0.037176803
139	0xbcc31480	-0.023813486
140	0xbc20a360	-0.009804577
141	0xbd713600	-0.05888939
142	0xbc99fc35	-0.01879702
143	0x3c19a01c	0.009376552
144	0xbc71f71c	-0.014768388
145	0x3ce8edeb	0.02843376
146	0xbc8c0c38	-0.01709567
147	0x3cab6bd3	0.020925438
148	0x3d7e77af	0.062125858
149	0x3d01fb24	0.031733647
150	0x3c9e6640	0.019335866
151	0x3cdbf57a	0.02685045
152	0xbdac2b3d	-0.084066845
153	0x3c89fe0c	0.016844772
154	0xbd232c31	-0.039837066
155	0x3d423b3c	0.04741977
156	0xbd550180	-0.052003384
157	0xbc7f3e4b	-0.015578817
158	0xbc5bbc15	-0.0134115415
159	0xbd62af9a	-0.055343248
160	0xbd3af649	-0.045645032
161	0xbc1795aa	-0.009251991
162	0xbd1b7c01	-0.037960056
163	0x3c695882	0.014242293
164	0x3d933b12	0.07189001
165	0x3d3d00ed	0.04614346
166	0x3d0036de	0.031302325
167	0x3ca05d53	0.01957575
168	0x3d349a2e	0.04409235
169	0x3ab38a90	0.0013697911
170	0x3c9f8653	0.01947323
171	0x3c288143	0.010284725
172	0x3cddc261	0.027070226
173	0x3d6cad06	0.057782196
174	0x3c888db0	0.016669124
175	0xba5e758d	-0.00084861444
176	0x3d9b990e	0.07597552
177	0xbd965c15	-0.07341782
178	0x3ce57c59	0.028013395
179	0x3d080f69	0.03321782
180	0x3bcc683d	0.006238012
181	0xbc2a47b7	-0.010393075
182	0xbd348631	-0.044073287
183	0x3d125aa0	0.035730958
184	0x3c159862	0.009130569
185	0xbb0f3f5f	-0.002185784
186	0xbd160613	-0.036626887
187	0xbc084c27	-0.008318937
188	0xbc70d489	-0.01469911
189	0xbc4449f8	-0.011980526
190	0xbd68aa94	-0.0568033
191	0x3bf59e83	0.0074957027
192	0x3d114ca0	0.035473466
193	0xbcef503d	-0.029213065
194	0xbc15671a	-0.00911882
195	0x3d3276ae	0.043570213
196	0x3d8659b0	0.06560075
197	0x3cbece6a	0.023291785
198	0x3c93dd17	0.01804976
199	0xbd8d5f28	-0.06902915
200	0xbbb4ff42	-0.005523593
201	0xbd2ac50a	-0.041691817
202	0x3d2b6e73	0.04185338
203	0xbc44d9bf	-0.012014805
204	0x3d4554ba	0.048176505
205	0x3d769646	0.060201906
206	0x3cf69fa4	0.03010542
207	0xbd8c0751	-0.06837333
208	0xbd33eebf	-0.043928858
209	0xbd32ac9f	-0.043621656
210	0x3ce6ffb4	0.0281981
211	0xbc991e68	-0.018691257
212	0xbc864b02	-0.016393188
213	0x3d1b342d	0.037891556
214	0x3a98a885	0.0011646902
215	0x3cee3a6d	0.029080594
216	0x3a8084af	0.0009805168
217	0x3ce5b108	0.028038517
218	0xbd26060e	-0.040533118
219	0xbd7176c5	-0.058951158
220	0x3b072b13	0.002062504
221	0xbc43165d	-0.011907187
222	0x3d3ffc0d	0.046871234
223	0xbc10b71f	-0.008832722
224	0x3d0c0c9d	0.034191716
225	0x3cf255ac	0.029581867
226	0xbcec0550	-0.028811127
227	0x3d4aabf5	0.049480397
228	0x3d507439	0.05089209
229	0x3d20493f	0.039132353
230	0xbbf0dbf9	-0.0073504415
231	0x3d89a153	0.06720223
232	0x3cd546c9	0.02603473
233	0xbbf5bff4	-0.0074996892
234	0xbbac2af3	-0.0052541434
235	0xbc7ce292	-0.015434878
236	0x3cf4e4d5	0.029894272
237	0xbcc26e25	-0.023734162
238	0x3b5b6c49	0.003348129
239	0xb8dc953e	-0.00010518216
240	0xbca6dcfa	-0.020369042
241	0x3d0ab86c	0.033867285
242	0xbd5d5c34	-0.05404301
243	0xbb2def86	-0.0026540472
244	0xbc5d0a9b	-0.013491298
245	0xbc3a4971	-0.011370049
246	0x3d0a9aef	0.033839162
247	0x3d4460d3	0.0479439
248	0x3bd0de24	0.0063741375
249	0x3c888d46	0.016668927
250	0xbd61606c	-0.055023596
251	0xbc9f96c5	-0.019481072
252	0x3da25387	0.07926088
253	0x3d013cd4	0.03155215
254	0x3d23b2e2	0.039965518
255	0x3d29cc3d	0.041454542

Y_net.net.2.bias f4 [256]
0	0xbc8f8372	-0.017518733
1	0xbd12f4e1	-0.035878066
2	0x3d2f1a8e	0.042749934
3	0x3ce0fd5a	0.027464557
4	0x3d1925e0	0.037389636
5	0x3d4203c9	0.04736689
6	0xbd4a0957	-0.049325313
7	0x3c06ff01	0.008239509
8	0x3d042a4e	0.032266907
9	0x3cf82d78	0.030295119
10	0x3ca8a9bb	0.020588746
11	0x3d36a5fa	0.04459188
12	0xbcaaf4ff	-0.020868776
13	0x3c99dcfd	0.018782133
14	0xbb93d117	-0.0045110094
15	0xbce81f60	-0.028335273
16	0x3b8955e8	0.004191149
17	0x3d3ad91a	0.0456172
18	0x3bc609a2	0.006043629
19	0xbb884969	-0.004159142
20	0x3d548f19	0.05189428
21	0xbd1f3bd4	-0.038875416
22	0xbd422a79	-0.047403786
23	0x3c048f9e	0.008090882
24	0xbaa01e83	-0.0012216124
25	0x3c683eef	0.014175161
26	0x3d33a168	0.0438551
27	0xb9341038	-0.0001717218
28	0x3d1d4663	0.038397204
29	0xbd50885c	-0.050911292
30	0x3d97346d	0.07383046
31	0x3c8d41ba	0.017243255
32	0xbca7c4bc	-0.020479552
33	0x3ca108a5	0.019657442
34	0x3b1fea2a	0.0024401047
35	0xbd523cc9	-0.0513275
36	0x3d7521b1	0.059846584
37	0x3c0c46b2	0.008561777
38	0xbd04b582	-0.03239966
39	0x3c2ff7c7	0.010740227
40	0xbd14e3a2	-0.0363499
41	0xbcf2b918	-0.029629275
42	0x3d14734e	0.036242776
43	0xbd8aa408	-0.06769568
44	0x3cf7dc53	0.030256426
45	0x3d0358e7	0.032067206
46	0xbb9eced0	-0.0048464313
47	0xbc9890cc	-0.018623732
48	0x3c3a7ef9	0.011382812
49	0xbd479368	-0.048724562
50	0x3d5f3cc4	0.05450131
51	0xbd06647b	-0.03281067
52	0x3c75460d	0.014970315
53	0xbd49dcdf	-0.049282905
54	0x3c6ac6da	0.0143296365
55	0xbd6600f1	-0.05615324
56	0x3d08e60a	0.033422507
57	0xbd47ef33	-0.048812103
58	0x3d434837	0.04767629
59	0x3c867148	0.016411439
60	0xbd381361	-0.044940356
61	0x3d2f6bfe	0.0428276
62	0xbbd6eb00	-0.006558776
63	0x3d3b580b	0.04573826
64	0xbc6da632	-0.014504956
65	0xbd286636	-0.0411131
66	0xbd5a975c	-0.053367004
67	0xbb641462	-0.0034802188
68	0xbc803d19	-0.015654134
69	0xbcc1c93c	-0.023655526
70	0x3d5756ea	0.052573122
71	0xbd522f49	-0.051314626
72	0xbd200340	-0.0390656
73	0xbbc059ed	-0.005870095
74	0xbd7c55a3	-0.061605107
75	0xbd348893	-0.04407556
76	0x3cde3cfd	0.02712869
77	0x3cd4eebc	0.025992744
78	0xbce4149c	-0.027841859
79	0x3b10c86a	0.0022092112
80	0xbd5a14a4	-0.05324234
81	0x3cd46340	0.025926232
82	0x3bb0eaf8	0.005399104
83	0x3c6318e7	0.013860918
84	0x3d77bd8a	0.060483493
85	0x3d742745	0.059607763
86	0xbd8db3cd	-0.0691906
87	0x3c22e6eb	0.00994275
88	0xbd643b82	-0.055720814
89	0xbd3650e6	-0.044510745
90	0x3d77aa49	0.06046513
91	0xbcb2c165	-0.021820733
92	0xbd420260	-0.047365546
93	0xbc17ede4	-0.009273026
94	0x3d0e1be5	0.03469457
95	0xbd4f1804	-0.050560012
96	0x3b94f5af	0.0045458893
97	0xbba03e10	-0.004890211
98	0xbd3a3658	-0.045461982
99	0x3cf2a8da	0.02962153
100	0xbd091368	-0.033465773
101	0xbd08ecbd	-0.033428896
102	0x3cf7801d	0.030212456
103	0xbbed45b7	-0.0072409767
104	0xbd21d599	-0.039510343
105	0x3cd68cad	0.026190126
106	0xbd6a2ddc	-0.05717264
107	0x3d8ec866	0.06971817
108	0xbce235c3	-0.027613526
109	0xbd647976	-0.055779897
110	0x3d14589a	0.03621731
111	0xbcf022a5	-0.029313395
112	0xbd120f57	-0.03565916
113	0xbb822d82	-0.00397271
114	0x3d03247c	0.032017216
115	0x3d16f72a	0.036856808
116	0x3c816780	0.015796423
117	0x3c59459c	0.013261225
118	0xbc3bd0df	-0.011463373
119	0x3d19b84d	0.03752928
120	0x3c80ef0e	0.01573899
121	0x3d69316c	0.056931898
122	0x3cad0c33	0.021123981
123	0xbd01a9f7	-0.03165623
124	0xbd7d030e	-0.06177049
125	0xbd2c877c	-0.042121395
126	0x3d553729	0.052054558
127	0xbc7870c8	-0.015163608
128	0x3cb0a9ce	0.021565344
129	0x3d5571ee	0.052110605
130	0xbd73d3a4	-0.059528008
131	0x3d60b44b	0.05485944
132	0x3ce318ae	0.02772173
133	0x3c59928a	0.013279567
134	0xbd2d083c	-0.04224418
135	0xbd0ded2b	-0.03465001
136	0xbc47ddee	-0.012198908
137	0x3c8139f2	0.0157747
138	0xbb04a68f	-0.0020240878
139	0x3cfb98f5	0.030712584
140	0x3d11a7a4	0.035560265
141	0x3c729817	0.014806769
142	0xbd8372e9	-0.06418402
143	0x390dccf4	0.00013523159
144	0x3c5409a6	0.0129417535
145	0x3c8fb670	0.017543048
146	0xbd5697e4	-0.052390948
147	0x3d0d0f13	0.034438204
148	0xbcced05d	-0.02524584
149	0xbd7a31a9	-0.061082516
150	0xbd37ebd6	-0.044902645
151	0xbd0be156	-0.034150444
152	0xbbd796f0	-0.0065792724
153	0xbd5e9a0b	-0.054346126
154	0x3d160000	0.036621094
155	0xbd753c9b	-0.05987225
156	0xbca5b6e7	-0.020228816
157	0x3c270cc0	0.010195911
158	0x3d70b350	0.058764756
159	0x3c923b8b	0.017850658
160	0xbd194a8b	-0.037424605
161	0xbc9aa3a7	-0.018876864
162	0x3c1496d3	0.009069162
163	0x3c8fde22	0.017561976
164	0xbc287d11	-0.010283724
165	0x3d31e9ec	0.043435976
166	0xbd67602f	-0.056488212
167	0xbd36f956	-0.04467138
168	0xbcbdb7a2	-0.023158852
169	0xbd78c3a0	-0.060733438
170	0xbd4957cc	-0.049155995
171	0xbcb40e79	-0.021979557
172	0xbd34175e	-0.043967597
173	0x3c7dee1d	0.015498665
174	0x3b9c7a70	0.004775338
175	0xbc0d0320	-0.008606702
176	0xbcafa46c	-0.021440707
177	0xbbf85d76	-0.007579501
178	0xbb6324ba	-0.0034659342
179	0x3d5072ad	0.050890613
180	0x3c8fad15	0.017538587
181	0xbd79f47c	-0.061024174
182	0xbd6b2d5e	-0.057416312
183	0x3c252d17	0.010081551
184	0xbd7c1697	-0.06154498
185	0xbceb55f7	-0.028727515
186	0xbc91daa7	-0.017804457
187	0x3bfd7aee	0.0077356016
188	0xbc9ed5a0	-0.019388974
189	0x3d02b426	0.031910084
190	0x3c23076c	0.0099505
191	0xbd4e69ed	-0.050393987
192	0xbd56cc5a	-0.05244098
193	0xbcfb2b78	-0.030660376
194	0x3cbf16b4	0.023326255
195	0xbc1d614b	-0.009605716
196	0x3d3487fe	0.044075005
197	0xbb03bacb	-0.002010035
198	0x3cc6daff	0.024274347
199	0xbc7c38ef	-0.015394433
200	0xbc8f58de	-0.01749843
201	0x3a534743	0.000805963
202	0xbc265f0f	-0.0101545
203	0xbcb8963a	-0.022532571
204	0xbb8135c2	-0.003943176
205	0x3cb6d882	0.022320036
206	0x3d37d1ae	0.0448777
207	0x3bd4bbfd	0.0064921365
208	0xbd583370	-0.05278343
209	0xbbe73c7d	-0.0070567713
210	0x3c102508	0.008797891
211	0xbc23bca0	-0.009993702
212	0x3c142018	0.009040855
213	0x3cb46907	0.022022737
214	0x3d7c51c5	0.06160142
215	0x3b84b260	0.0040495843
216	0x3d7a58f1	0.061119977
217	0x3d5c7bf5	0.053829152
218	0x3bcfe8ea	0.006344904
219	0xb966c966	-0.00022009536
220	0xbb33ecc8	-0.0027454365
221	0x3d2e456a	0.042546667
222	0x3d08ba0d	0.033380557
223	0x3d14d630	0.036337078
224	0x3d48cb7f	0.049022194
225	0x3cc47fe4	0.023986764
226	0xbc1cb866	-0.009565448
227	0x3d58d334	0.052935794
228	0xbabc1aee	-0.0014351287
229	0xba82cfe8	-0.0009980174
230	0x3d60a50e	0.05484491
231	0xbd651f49	-0.05593804
232	0x3d7c8606	0.061651252
233	0xbd00de2d	-0.031461883
234	0x3c8f1c46	0.017469537
235	0x3bf65248	0.007517133
236	0xbd70b35b	-0.058764797
237	0xbd63ec9f	-0.05564558
238	0x3d22f246	0.03978183
239	0xbcc7bca4	-0.024381943
240	0x3d7a833c	0.06116031
241	0x3c97ee48	0.018546239
242	0x3ce0f144	0.027458794
243	0xbca80f81	-0.020515205
244	0xbaf40e2b	-0.0018619945
245	0x3d74d835	0.059776504
246	0xbc9889fe	-0.018620487
247	0xbd79e939	-0.061013434
248	0x3d27aac4	0.04093434
249	0x3cb74fde	0.02237695
250	0xbc1c457a	-0.009538049
251	0xbd887130	-0.06662214
252	0xbc0e1a2e	-0.008673234
253	0xbc6b5cc6	-0.014365381
254	0x3c4d2cbf	0.012522875
255	0xbd537515	-0.05162533

Y_net.net.4.weight f4 [256, 256]
0	0xbd5369b4	-0.05161448
1	0xbcd77c74	-0.026304461
2	0x3d0fba4c	0.035089776
3	0xbcddf7fc	-0.027095787
4	0xbd2ded1e	-0.04246246
5	0x3cf7deaf	0.030257551
6	0x3d8898df	0.06669783
7	0xbc1aa769	-0.009439328
8	0x3d28c797	0.04120597
9	0xbb8db5a8	-0.0043246336
10	0xbd937da9	-0.07201702
11	0x3d212c03	0.039348613
12	0x3d274c5c	0.040844306
13	0x3cf297ea	0.029613454
14	0xbd3fc13e	-0.04681515
15	0xbd982304	-0.07428554
16	0x3d8d8b54	0.0691134
17	0x3ca78cf8	0.020452961
18	0xbae507c4	-0.0017473628
19	0xbd598414	-0.053104475
20	0x3cb39723	0.021922654
21	0xbd79d45b	-0.060993534
22	0xbd2b3956	-0.041802727
23	0xbc942af3	-0.018086886
24	0x3d04796b	0.032342356
25	0x3d6d46e2	0.057928927
26	0xbcebbcf8	-0.02877663
27	0xbcf430c6	-0.029808413
28	0xbbf8806f	-0.00758367
29	0xbd1d069c	-0.03833638
30	0xba900947	-0.0010989093
31	0x3ce8ac62	0.028402511
32	0xbd0e9e8b	-0.034819167
33	0x3d72facd	0.059321214
34	0x3cf6f8b6	0.030147891
35	0x3d7d41c5	0.0618303
36	0x3ced59db	0.02897351
37	0xbbda5dca	-0.0066640126
38	0xbd16f6fa	-0.03685663
39	0xbd0f33aa	-0.03496138
40	0x3d34d74c	0.044150636
41	0x3ba3845d	0.004990144
42	0xbcda2464	-0.02662868
43	0xbc98149b	-0.018564513
44	0xbc83f755	-0.016109148
45	0x3ce8ae5b	0.028403452
46	0x3bd4039a	0.006470156
47	0xba4e4ab9	-0.0007869411
48	0x3c9a288d	0.018818164
49	0x3d77fa28	0.060541302
50	0x3cba508c	0.022743486
51	0x3cf11cf5	0.029432753
52	0x3a23dd17	0.00062509015
53	0x3d339487	0.04384282
54	0x3caeba32	0.02132902
55	0xbcbcaa08	-0.023030296
56	0x3cf797ba	0.030223716
57	0x3b8b6309	0.0042537493
58	0x3d168738	0.03675005
59	0xbce4ca78	-0.027928576
60	0xbcd5f6ba	-0.026118625
61	0x3ca68c2c	0.020330511
62	0x3cc2c18c	0.023773931
63	0x3c333e7b	0.0109401895
64	0x3d781e60	0.060575843
65	0xbb6ec7b4	-0.003643495
66	0xbb6be57a	-0.0035994933
67	0x3d7a6df8	0.06114003
68	0xbd57afe4	-0.052657977
69	0x3c02d748	0.007985897
70	0xbd86bd8b	-0.06579121
71	0x3c24ffb4	0.01007073
72	0x3d7eecd4	0.062237576
73	0xbc9ff159	-0.019524263
74	0x3d92e5e8	0.071727574
75	0xbba9336a	-0.0051635997
76	0xba3537ec	-0.0006912935
77	0x3c283c3d	0.010268268
78	0xbd8e7381	-0.06955624
79	0x3d800c46	0.06252341
80	0xbd470f54	-0.048598602
81	0x3b7cf61a	0.0038598836
82	0xbd9867a5	-0.074416436
83	0x3d9d7a4c	0.07689342
84	0xbc836f29	-0.016044216
85	0x3d2b3cea	0.04180614
86	0xbd430b2f	-0.047618087
87	0x3d4d3575	0.05009981
88	0x3d60e0bf	0.054901835
89	0xbd02c1f6	-0.031923257
90	0x3d15c31f	0.036563035
91	0x3d6aeeff	0.05735683
92	0xbd4436b8	-0.047903746
93	0xbcdf35cd	-0.027247334
94	0xbcbde634	-0.023181058
95	0x3b1ac43c	0.00236155
96	0xbd96b1da	-0.07358141
97	0xbcf1e320	-0.029527247
98	0xbd2d7a7e	-0.042353146
99	0x3bc6b8ab	0.0060644946
100	0x3b4af420	0.0030968264
101	0xbcf278f8	-0.029598698
102	0xbd1dfe52	-0.038572617
103	0xbcb301d2	-0.021851454
104	0xbd26e688	-0.040747195
105	0x3d7d28a1	0.061806325
106	0xbcafc40a	-0.021455783
107	0xbc0b762a	-0.008512059
108	0x3bf660e1	0.007518873
109	0xbd7a9270	-0.06117481
110	0x3cb65eef	0.022262065
111	0x3c973b9d	0.018461043
112	0xbc67877f	-0.014131426
113	0xbccfa1ab	-0.025345644
114	0x3d1f9cba	0.038967825
115	0x3bef2f00	0.007299304
116	0x3d0a1970	0.033715665
117	0xbd1eb857	-0.03875002
118	0xbc1b2750	-0.009469822
119	0x3d5c333b	0.053759795
120	0x3da0dc15	0.07854477
121	0x3d1cc842	0.03827692
122	0xbd6bba33	-0.05755062
123	0xbd864122	-0.06555392
124	0xbcc07764	-0.02349443
125	0xbd3bbd70	-0.04583496
126	0x3d88266e	0.06647955
127	0x3d497906	0.049187683
128	0x3d1222af	0.035677608
129	0x3c5c5e20	0.0134501755
130	0xbd3f1fdf	-0.046661254
131	0xbd5f2a04	-0.05448343
132	0xbd802728	-0.062574685
133	0x3d96acfd	0.07357214
134	0xbc2e7298	-0.0106474385
135	0x3af714c9	0.0018850799
136	0x3d65d872	0.05611462
137	0xbd141ba6	-0.03615918
138	0xbc5f0082	-0.013610961
139	0xbc67cc7d	-0.014147875
140	0xbd75d283	-0.060015213
141	0xbd847504	-0.064676315
142	0x3d7efc06	0.062252067
143	0xbc73805d	-0.014862147
144	0x3c6eedb4	0.01458304
145	0xbd8635ac	-0.06553206
146	0x3c7458a8	0.014913715
147	0x3bc63e2e	0.006049893
148	0x3bc391dc	0.0059683155
149	0x3d060f57	0.032729473
150	0xbd48039a	-0.04883156
151	0xbc816d6a	-0.015799243
152	0x3a619e00	0.00086066127
153	0x3b20d2b0	0.0024539642
154	0x3d561ce6	0.052273653
155	0x3cc4cc8e	0.02402332
156	0x3d44086a	0.047859587
157	0x3d22a9b6	0.03971263
158	0xbc435780	-0.011922717
159	0xbd193829	-0.037407074
160	0x3d9e6493	0.07734027
161	0x3c252b30	0.0100810975
162	0xbceccb3c	-0.028905503
163	0x3d19fadf	0.037592765
164	0xbd31a61d	-0.04337131
165	0x3d87708f	0.06613266
166	0xbc28c026	-0.010299718
167	0xbca5c7c2	-0.020236854
168	0x3c5fe71e	0.0136659425
169	0xbd4e0113	-0.050293993
170	0x3d32b92c	0.043633625
171	0x3d6d7b94	0.05797918
172	0xbb7b26c0	-0.0038322657
173	0xbce5ddad	-0.028059805
174	0x3b02524f	0.0019885486
175	0xbd1b9dc8	-0.03799227
176	0xbcba79e2	-0.022763196
177	0xbd608dfb	-0.054822903
178	0xbcffbeed	-0.03121897
179	0xbbb3ce90	-0.0054872707
180	0xb9dfe0b1	-0.00042701283
181	0xbd43c00a	-0.047790565
182	0x3cc4349f	0.023950873
183	0x3c368a42	0.011141362
184	0x3d86d713	0.06583991
185	0xbd0fef93	-0.035140585
186	0x3c844fad	0.016151274
187	0x3d18e787	0.037330177
188	0x3d82ae3e	0.0638089
189	0x3d32d0de	0.043656223
190	0x3cf408a4	0.029789276
191	0xbc0f3542	-0.008740725
192	0xbc1a80d8	-0.009430133
193	0x3d8b2ed3	0.067960404
194	0x3ca97c63	0.020689195
195	0x3a5fb586	0.0008533824
196	0x3d93ffcd	0.072265245
197	0x3c50cf28	0.012744702
198	0x3d6b545d	0.057453502
199	0x3c716b83	0.014735105
200	0x3c79146b	0.015202622
201	0x3d7b994d	0.061425496
202	0x3d8457f0	0.06462085
203	0xbd3f2297	-0.046663847
204	0xbd175148	-0.03694275
205	0xbd2cf972	-0.042230077
206	0x3cb2f8eb	0.021847209
207	0xbac6865c	-0.0015146243
208	0xbd8b0bd2	-0.06789364
209	0x3d253ac8	0.04033926
210	0x3cf1dccc	0.02952423
211	0x3b43dc00	0.002988577
212	0x3c8c2a9d	0.017110163
213	0xbd889ecf	-0.06670915
214	0x3bf146e7	0.0073631885
215	0x3d4a0ae4	0.049326792
216	0xbcec3b8f	-0.028836994
217	0xbccb446a	-0.024812896
218	0xbc556ba2	-0.01302615
219	0x3d96588d	0.073411085
220	0x3da214c6	0.079141185
221	0x399df44e	0.00030127395
222	0x3d3325db	0.043737274
223	0xbd64ec23	-0.05588926
224	0x3caf17e9	0.021373706
225	0xbc2588ec	-0.0101034455
226	0x3d2f0325	0.04272761
227	0x3d7c56fc	0.061606392
228	0xbd34ef18	-0.04417333
229	0x3be2a0cc	0.006916141
230	0xbd3ca729	-0.046057854
231	0x3d2f2ca1	0.04276717
232	0xbd0c8b9a	-0.034312822
233	0xbd8a6437	-0.06757396
234	0xbd1ad5ef	-0.03780168
235	0x3ca005ee	0.019534077
236	0xbd26e901	-0.040749554
237	0xbc8079df	-0.015683113
238	0xbcc14bde	-0.023595747
239	0xbb13cd5f	-0.002255283
240	0x3b7c35e0	0.003848426
241	0xbd0a17ef	-0.03371423
242	0x3c952867	0.018207742
243	0xbc8057f2	-0.015666936
244	0x3bdec80f	0.006798751
245	0xbce30b11	-0.027715238
246	0xbd49efc5	-0.049300928
247	0x3d71f134	0.05906792
248	0x3d18a823	0.037269723
249	0xbbcbc6b0	-0.0062187538
250	0x3c75a997	0.014994047
251	0x3c7ec53d	0.015549955
252	0x3aa97009	0.0012927066
253	0xbcda120a	-0.02661993
254	0x3c9ea885	0.019367466
255	0x3d6f7df4	0.058469728

Y_net.net.4.bias f4 [256]
0	0xbd7dec87	-0.06199315
1	0xbd5b06a1	-0.05347312
2	0x3d683399	0.056689832
3	0xbb822ebd	-0.003972857
4	0xbd7dffe0	-0.0620116
5	0x3d516992	0.05112607
6	0x3d1920f8	0.037384957
7	0xbd311974	-0.043237165
8	0x3d542953	0.051797222
9	0x3d2c9f38	0.04214403
10	0x3cd51ce0	0.026014745
11	0x3d0e67f4	0.034767106
12	0x3d07d0ad	0.033157993
13	0x3c828c78	0.015936121
14	0x3d0ee664	0.034887686
15	0xbc95b732	-0.01827583
16	0xbca9325f	-0.020653902
17	0xbc48c4dd	-0.012253967
18	0xbcf79ad4	-0.030225195
19	0x3c580907	0.013185746
20	0xbc04d935	-0.008108427
21	0x3c9fa8f4	0.019489743
22	0xbbce0137	-0.006286766
23	0xbc870460	-0.016481578
24	0x3d4bc27e	0.04974603
25	0x3d096fee	0.03355401
26	0x3d278a3d	0.04090332
27	0xbd2f6f74	-0.0428309
28	0x3d6e948f	0.058247145
29	0xbd49fec6	-0.049315237
30	0xbcb08e11	-0.021552118
31	0x3ae21300	0.0017248094
32	0x3d154087	0.03643849
33	0x3d4d6278	0.050142735
34	0xbd8c2ad1	-0.06844104
35	0xbd49593c	-0.049157366
36	0x3cfc8d76	0.030829173
37	0xbd35decc	-0.04440193
38	0x3d277603	0.04088403
39	0xbd57ec43	-0.05271555
40	0xbd19907c	-0.037491307
41	0x3cc7ddbe	0.024397727
42	0xbcfae080	-0.030624628
43	0xbb2a35ba	-0.0025971965
44	0x3b8be105	0.004268768
45	0xbcf77bb8	-0.03021036
46	0x3d6ecaf6	0.058299027
47	0x3ca7e9e5	0.020497272
48	0x3b8bcfd8	0.0042667203
49	0xbd599ef7	-0.053130116
50	0x3d03692f	0.032082733
51	0x3c8bab6d	0.017049516
52	0xbd5c0d40	-0.053723574
53	0x3d2757e2	0.040855296
54	0xbc796d52	-0.015223818
55	0xbcba2fb0	-0.022727817
56	0xbd648467	-0.05579033
57	0x3cdd17b6	0.026988845
58	0x3bd91222	0.006624476
59	0xbba13a42	-0.004920275
60	0xbd0a2d2e	-0.033734493
61	0x3c404324	0.011734758
62	0xbd6398ce	-0.055565648
63	0xbcd86a2c	-0.026417814
64	0xbc71f71f	-0.014768391
65	0x3d72ca2f	0.05927485
66	0x3bf14d2b	0.0073639355
67	0x3d1422d9	0.036166046
68	0xbc440d98	-0.011966132
69	0x3c9333ab	0.017968973
70	0x3d351037	0.044204917
71	0x3d46a31c	0.048495397
72	0x3d29d3c6	0.04146173
73	0x3cbe3088	0.0232165
74	0x3c74ad42	0.014933886
75	0xbd017290	-0.031603396
76	0x3d0f0df1	0.034925405
77	0x3d2961f2	0.041353174
78	0xbd305a7c	-0.043055043
79	0xbca3e255	-0.020005384
80	0x3c87f0d2	0.016594324
81	0xbb8478c2	-0.0040427158
82	0x3c51c848	0.012804098
83	0xbcd5643b	-0.02604877
84	0x3d64f128	0.055894047
85	0x3cbc5ffb	0.022994986
86	0xbc5bf3b6	-0.013424804
87	0x3d708d17	0.058728304
88	0xbd38686b	-0.045021456
89	0x3c8f9d24	0.017530985
90	0x3d2ff3fb	0.042957287
91	0x3d2929a5	0.04129948
92	0x3c5ee219	0.013603711
93	0xbc9d600f	-0.019210843
94	0xbc6df96a	-0.014524797
95	0x3d6c1504	0.05763723
96	0x3d5f193a	0.054467417
97	0x3cddba46	0.027066361
98	0x3d4d577e	0.050132267
99	0xbb2c5b00	-0.0026299357
100	0xbd44f50f	-0.04808527
101	0xbcc394c4	-0.023874648
102	0x3d5de5ae	0.054174118
103	0x3acf59a7	0.0015819565
104	0xbd3fe7f0	-0.046852052
105	0x3d17d434	0.037067607
106	0x3cce7c39	0.025205718
107	0x3d608913	0.054818224
108	0xbd19b887	-0.037529495
109	0x3bc8f32f	0.0061325054
110	0x3b0cb3f1	0.0021469558
111	0xbcaf8ccb	-0.02142944
112	0xbd6e8234	-0.05822964
113	0xbb613c66	-0.0034368276
114	0x3c7ac33e	0.015305338
115	0xbcabbcf5	-0.020964125
116	0xbd177d64	-0.036984816
117	0xbd75fe93	-0.060057234
118	0xbd2f22c8	-0.04275778
119	0xbc90ccc2	-0.017675761
120	0xbc9e5c94	-0.019331254
121	0xbad42351	-0.0016184842
122	0x3ca460a1	0.020065608
123	0xbc925fc6	-0.017867934
124	0xbbeb9b0c	-0.007190114
125	0xbd828683	-0.06373312
126	0x3b8ed871	0.004359298
127	0x3cb229af	0.021748392
128	0x3cb0b492	0.021570478
129	0x3d4b34a2	0.04961074
130	0x3c327f84	0.01089466
131	0x3d6b40f7	0.057435002
132	0xbd5431c5	-0.051805276
133	0x3cd260c5	0.025680909
134	0x3d563993	0.052301
135	0x3d537637	0.05162641
136	0xbd3d7e96	-0.0462633
137	0xbd49f596	-0.049306475
138	0xbcde18d1	-0.027111443
139	0x3bac5ae9	0.005259861
140	0xbcff81a4	-0.031189747
141	0xbd79a64c	-0.06094961
142	0xbd4291c3	-0.04750229
143	0xbd3bb738	-0.045829028
144	0xbc9edbef	-0.019391982
145	0x3c8fcedc	0.017554693
146	0xbd5629cd	-0.052285958
147	0xbd218bc0	-0.039439917
148	0xbc74b25e	-0.014935104
149	0xbd6091b5	-0.054826457
150	0x3c0b344a	0.008496353
151	0xbcace083	-0.02110315
152	0x3d050b47	0.032481458
153	0x3c14c3eb	0.009079914
154	0x3cb73cbc	0.022367828
155	0xbd464cd4	-0.048413113
156	0xbd1eff64	-0.03881778
157	0xbbbd9d73	-0.0057865917
158	0xbc8190d8	-0.015816137
159	0x3d12d01c	0.035843
160	0xbd783079	-0.060593102
161	0x3d7c1676	0.061544858
162	0xbd4ec822	-0.05048383
163	0x3c2dd515	0.010609885
164	0xbcc41473	-0.023935532
165	0x3d38b3c0	0.045093298
166	0xbad6c864	-0.0016386625
167	0xbb960968	-0.004578758
168	0xbcec3c16	-0.028837245
169	0x3cb62695	0.022235194
170	0x3cd24a05	0.02567006
171	0x3c063067	0.008190251
172	0xbd31cdc2	-0.043409117
173	0xbbc3b4e5	-0.005972492
174	0xbc7acb11	-0.015307204
175	0x3d00e68e	0.031469874
176	0x3cfd9e0b	0.03095915
177	0xbb6ea120	-0.0036411956
178	0xbc885b5d	-0.016645128
179	0x3ac26fb9	0.0014834321
180	0xbd39a17a	-0.04532001
181	0xbd272e68	-0.04081574
182	0x3d54d1fb	0.051958065
183	0x3d6be62a	0.05759255
184	0xbd0a265d	-0.033727992
185	0xbd0ef762	-0.03490389
186	0x3d1d50e5	0.038407225
187	0xbcb3a6b0	-0.021930069
188	0xbd7958bb	-0.060875636
189	0x3cbee37e	0.023301836
190	0xbcce5d9f	-0.025191126
191	0xbd0bb064	-0.034103766
192	0x3d11395e	0.0354551
193	0x3cd43afd	0.025907034
194	0x3d5870b7	0.05284187
195	0xbd017910	-0.031609595
196	0x3c2de51b	0.010613705
197	0x3bb8ed8f	0.0056435536
198	0x3d4f39b5	0.050592143
199	0xbc10cda7	-0.008838094
200	0x3c906203	0.01762486
201	0x3c82cdd9	0.015967296
202	0x3d46d033	0.048538398
203	0x3cbda082	0.023147825
204	0x3d619600	0.05507469
205	0x3ca0925b	0.019601038
206	0x3d3e8667	0.046514895
207	0x3d2581f6	0.040407144
208	0xbd0e1530	-0.034688175
209	0xbd6df39b	-0.05809365
210	0x3aea5fcb	0.0017881332
211	0x3b0a4fb9	0.0021104647
212	0xbd2a324f	-0.041551884
213	0x3d58cb26	0.052928112
214	0xbd28a1d2	-0.04116995
215	0xb870678b	-5.731689e-05
216	0x3d22b291	0.039721075
217	0x3cbe3818	0.023220107
218	0x3cd3c429	0.025850372
219	0xbd81a3fc	-0.06330106
220	0xbc9b4568	-0.018953994
221	0xbd227f00	-0.039671898
222	0x3d4e3b37	0.05034944
223	0xbd2f62b8	-0.042818755
224	0xbd25701b	-0.040390115
225	0x3d40e5bb	0.047094088
226	0x3a633b62	0.00086682115
227	0xbd001a2f	-0.03127497
228	0x3d195bf0	0.037441194
229	0xbd4abee1	-0.049498443
230	0xbd01ab83	-0.031657707
231	0xbcdd73c4	-0.02703274
232	0xbca35cef	-0.019941775
233	0x3d311086	0.04322865
234	0xbc4b8ad8	-0.01242324
235	0xbd0f0729	-0.034918938
236	0x3d3f20f6	0.046662293
237	0x3c6b186b	0.014349083
238	0xbb8e5810	-0.004343994
239	0x3ce46691	0.027880939
240	0xbc1fe62d	-0.009759468
241	0x3d62b0d6	0.055344425
242	0x3d7407e1	0.059577826
243	0x3d0c558d	0.034261275
244	0x3d09842c	0.033573315
245	0xbd3fe6e4	-0.046851054
246	0xbd07cc2a	-0.03315369
247	0xbc32d64c	-0.01091535
248	0x3c2ebe7f	0.010665535
249	0xbcaee196	-0.021347802
250	0x3d32109a	0.043472864
251	0xbbaecbdb	-0.00533436
252	0xbd3ec074	-0.046570256
253	0x3d1e10e9	0.038590346
254	0xbd280005	-0.041015644
255	0xbc1c056f	-0.00952278

Y_net.net.6.weight f4 [256, 256]
0	0x3d0687e3	0.032844435
1	0xbd544b1f	-0.051829454
2	0xbcb28bb7	-0.021795137
3	0x3ce8fcea	0.028440911
4	0x3cca9170	0.024727553
5	0x3d41341f	0.047168847
6	0x3c606751	0.013696508
7	0x3d771974	0.06032701
8	0x3d3bdc8a	0.04586462
9	0xbd4d276a	-0.050086416
10	0x3cb30146	0.021851193
11	0xbd62fa0c	-0.055414245
12	0x3d4a4e01	0.049390797
13	0x3d0f8e05	0.03504755
14	0x3cd4c6b0	0.025973648
15	0xbd1cb572	-0.038258977
16	0xbcd8b1d4	-0.026451983
17	0x3cf397c8	0.02973546
18	0xbd747ac7	-0.059687402
19	0xbd715f53	-0.0589288
20	0x3d6b1060	0.057388663
21	0xbc2c1ff8	-0.010505669
22	0x3ccf9696	0.02534036
23	0xbcc84b87	-0.024450077
24	0xbc81d138	-0.015846834
25	0x3d4282ca	0.04748801
26	0xbc43e4ab	-0.011956374
27	0xbd590b12	-0.052989073
28	0x3d855625	0.065105714
29	0x3d302ed8	0.043013424
30	0x3c39ba0d	0.011335862
31	0x3c438c98	0.011935376
32	0x3c3ce11c	0.01152828
33	0xbd434957	-0.047677364
34	0xbca632b8	-0.020287856
35	0xbc081d61	-0.008307786
36	0x3caeb12e	0.02132472
37	0xbb0436ac	-0.0020174189
38	0xbd808806	-0.062759444
39	0xbca0e45e	-0.019640144
40	0x3d7d1af4	0.061793283
41	0xbbde1704	-0.006777646
42	0x3d7fcafe	0.062449448
43	0xbc8b10ce	-0.016975787
44	0x3b919733	0.004443073
45	0xbd14a0e4	-0.03628625
46	0xbd6211a0	-0.05519259
47	0x3be97c34	0.007125402
48	0xbcd16f6c	-0.025565825
49	0x3d1f4a95	0.038889486
50	0xbc9d163e	-0.019175645
51	0x3d6df68c	0.058096454
52	0xbae34d3d	-0.0017341744
53	0x3cc04875	0.02347205
54	0xbc066a48	-0.00820405
55	0x3d6a7c60	0.05724752
56	0x3c2bc850	0.01048477
57	0x3cf098cf	0.02936974
58	0x3c36d3c1	0.0111588845
59	0xbd6d557f	-0.057942864
60	0x3d009110	0.031388342
61	0x3cf9d50e	0.0304971
62	0xbd21639c	-0.039401636
63	0xbd6d9919	-0.058007333
64	0x3d6f46e9	0.058417235
65	0x3c145d72	0.009055482
66	0xbb1d4eb0	-0.00240032
67	0x3c730d2e	0.014834685
68	0x3c821779	0.015880333
69	0xbb96b45d	-0.0045991377
70	0x3cf7a5a4	0.03023035
71	0x3cc0244b	0.023454806
72	0x3cd11096	0.025520604
73	0x3a07b58d	0.00051768945
74	0x3ca398ee	0.019970383
75	0x3d0e7922	0.03478349
76	0xbd29f7ff	-0.041496273
77	0x3c818bf7	0.01581381
78	0xbd5bc6df	-0.053656455
79	0xbd12f683	-0.035879623
80	0x3cc489e7	0.023991538
81	0xbd4100b9	-0.04711983
82	0xbd0c2a76	-0.03422018
83	0xbd2dcbc2	-0.042430647
84	0x3c45ad54	0.01206525
85	0xbd23789d	-0.039909948
86	0x3d304c94	0.04304178
87	0x3cc2721c	0.023736052
88	0xbd0e8736	-0.034796916
89	0xbd068297	-0.032839384
90	0x3d393334	0.045214847
91	0x3ce67248	0.028130665
92	0x3d2714dc	0.040791377
93	0x3bed1193	0.007234761
94	0x3ca655b4	0.020304538
95	0xbb65d044	-0.0035066763
96	0x3cc6de94	0.024276055
97	0xbb05e554	-0.002043088
98	0xbd54db89	-0.051967178
99	0x3d01bc2c	0.031673595
100	0xbd934af3	-0.0719203
101	0x3cf82063	0.03028888
102	0x3d35ff9d	0.044433225
103	0xbd6216dc	-0.05519758
104	0xbd11fcfa	-0.035641648
105	0x3cb3fbfd	0.021970743
106	0x3ccf895e	0.025334056
107	0xbd10175f	-0.03517854
108	0x3ce4f3f5	0.027948359
109	0x3c995366	0.018716525
110	0xbca05a7b	-0.019574394
111	0x3ca9e163	0.020737356
112	0xbc9b1658	-0.018931553
113	0x3a9d163b	0.0011984775
114	0xbd0a5a1d	-0.033777345
115	0xbb9eea2f	-0.004849694
116	0x3c0b5585	0.008504276
117	0x3c3235d1	0.010877089
118	0xbcfc876a	-0.03082629
119	0xbd214fca	-0.039382733
120	0x3ce46160	0.027878463
121	0x3c9f99d5	0.019482533
122	0x3d3aadf2	0.045576043
123	0x3bffe36a	0.0078090923
124	0x3bf91e46	0.007602486
125	0xbd24fc6b	-0.040279787
126	0x3c2debb7	0.010615281
127	0x3c0c7ce0	0.008574694
128	0x3d385f5a	0.04501281
129	0xbc068e9a	-0.00821271
130	0x3d4f9bd7	0.05068573
131	0xbc78b435	-0.015179683
132	0xbd0daa86	-0.034586452
133	0x3cd4e626	0.02598865
134	0xbc127b4a	-0.008940527
135	0xbc6df8c5	-0.014524643
136	0x3c25bc82	0.010115745
137	0xbd1dbd40	-0.03851056
138	0x3c8e9fd0	0.017410189
139	0x3d3b19af	0.04567879
140	0xbce07b07	-0.027402414
141	0x3c3596e7	0.011083341
142	0x3d15897d	0.036508072
143	0xbd0acc7f	-0.03388643
144	0xbd0d3064	-0.034469977
145	0x3d173fae	0.036925964
146	0xbcc4089c	-0.023929887
147	0x3adc7274	0.0016818778
148	0x3d7a343a	0.061084963
149	0xbd407f54	-0.04699643
150	0xbd418bd5	-0.047252495
151	0x3b79764b	0.0038064893
152	0x3d194905	0.037423152
153	0x3cbc8097	0.023010535
154	0x3c0f4486	0.008744365
155	0xbc4a9477	-0.012364498
156	0xbbf5a092	-0.007495948
157	0xbc586063	-0.013206574
158	0x3d8d4bf5	0.06899253
159	0x3cff3a3c	0.031155698
160	0xbd56685c	-0.05234562
161	0x3d06111e	0.032731168
162	0xbd0e1ea9	-0.03469721
163	0x3d2cce37	0.04218885
164	0x3d2bc510	0.04193598
165	0x3b0ae464	0.002119326
166	0x3cc9ddbf	0.02464187
167	0x3cfa64ec	0.030565701
168	0xbd14aa34	-0.03629513
169	0xbd8a4261	-0.06750942
170	0x3d74dfc1	0.0597837
171	0xbcccbd82	-0.024992708
172	0xbcbe5815	-0.02323536
173	0x3d064f1e	0.032790296
174	0x3d4d8e4b	0.05018453
175	0xbbfe06d0	-0.007752277
176	0xbc73bea9	-0.014877
177	0x3d3f3a6c	0.046686575
178	0xbb8e3b48	-0.004340563
179	0x3cb87b4b	0.022519728
180	0x3b8c27a0	0.0042771846
181	0xbcbab016	-0.022789042
182	0xbcf7e2b1	-0.030259462
183	0x3d36f45d	0.044666637
184	0x3d70b6ee	0.058768205
185	0x3d756bd3	0.059917282
186	0x3d28fa58	0.04125437
187	0xbbb52617	-0.0055282223
188	0x3d5dd972	0.05416245
189	0x3ba8bb7a	0.005149302
190	0xbc396c53	-0.01131733
191	0xbc5bf520	-0.013425142
192	0x3d479805	0.04872896
193	0xbd119eae	-0.03555172
194	0x3d021754	0.03176053
195	0x3d420e0f	0.04737669
196	0xbc9b4eee	-0.018958535
197	0x3cf8bb5e	0.030362781
198	0x3d530f02	0.051527984
199	0xbd606fdd	-0.05479418
200	0x3c76b7a0	0.015058428
201	0xbcd7ea66	-0.026356887
202	0x3d6c7fc8	0.05773905
203	0x3cfa815f	0.030579267
204	0xbc1105cd	-0.008851481
205	0xbd3f55e1	-0.04671276
206	0x3c1031eb	0.008800964
207	0xbc238dc4	-0.00998253
208	0x3cc05108	0.023476139
209	0x3d266ac6	0.04062917
210	0xbd75d7b2	-0.060020156
211	0x3d1aa012	0.03775031
212	0xbd4f88cf	-0.05066758
213	0x3b0ba0a8	0.0021305475
214	0x3d229d01	0.03970051
215	0xbd4a4d79	-0.04939029
216	0x3b0d187b	0.0021529484
217	0x3c0955ef	0.008382305
218	0xbce2673a	-0.027637113
219	0xbd499e43	-0.049223196
220	0x3ca63bed	0.020292247
221	0x3d37f3ad	0.04491012
222	0x3caac274	0.020844676
223	0x3cefd18f	0.02927473
224	0x3d19f4b2	0.037586875
225	0xbb20bde8	-0.0024527255
226	0xbc624201	-0.013809682
227	0x3c0af150	0.008480385
228	0x3ae3ad80	0.0017370433
229	0xbcf14bbd	-0.02945506
230	0xbcfdc2cd	-0.030976677
231	0xbb09e23e	-0.0021039392
232	0x3cf1921a	0.029488612
233	0xbc43777f	-0.011930346
234	0xbd1b4717	-0.037909593
235	0xbd49d1bf	-0.049272295
236	0x3c159412	0.009129541
237	0xbd84e315	-0.06488625
238	0xbd03fc7e	-0.032223217
239	0x3c1d4026	0.009597814
240	0x3d9ae060	0.075623274
241	0x3d35706f	0.04429668
242	0xbd1ca27e	-0.038240902
243	0x3d090153	0.03344853
244	0xbcf37e1e	-0.029723223
245	0xbd23abaf	-0.039958652
246	0x3d3675b2	0.044545837
247	0x3c45cc0e	0.012072576
248	0x3c4089b0	0.011751577
249	0x3d52e693	0.051489424
250	0x3d002320	0.031283498
251	0xbd868c9e	-0.06569789
252	0xbbeff6f5	-0.0073231407
253	0x3c321907	0.010870225
254	0xbd5d1e20	-0.053983808
255	0x3b941d9f	0.0045201327
