models/saved/pinn_FC_ReLU_best.pth (torch, 798245 bytes, 9 tensors)

Y_net.net.0.weight f4 [256, 2]
00000000: f555 c73e e537 2ebf b558 b5be 3770 363f
00000010: f59e 403e d284 1ebf 9df8 d63e b7c2 6cbe
00000020: a021 f03c c03a b23c 55ce 09bf 05ad 24be
00000030: 1bfa 25bf 3e50 aa3e e80f 8b3e 0348 0ebf
00000040: 76fd 8e3d 4cbb 963e a5e4 893e 52aa 203f
00000050: c702 29be 52d1 863e 5d59 723e 0922 593e
00000060: ffd1 4c3e 50d9 20bf 4757 f4be e16f 2c3f
00000070: a9e1 233d f4dd 44be 6fcb 27bf 20e1 9a3e
00000080: 0e43 8fbe c8f6 1cbe 2265 02bf fc4d 813e
00000090: 128d 1a3e bd65 313e 6093 6b3e bb72 a3be
000000a0: 0a79 343f f951 273f 52f7 033f 82e0 763e
000000b0: 03cc cd3d 9604 363f f168 57be ab5a 0f3f
000000c0: 82d6 cb3e 0e20 24bf 7c66 afbe 64a8 343e
000000d0: 8918 083f d962 8c3e d7d7 c5be 9703 12bf
000000e0: 1c9a 013f 746e 2ebf 8076 51bd 00f6 bf3b
000000f0: f7ca 1bbf 99ed 933e 8b02 19bf 8e38 53be
00000100: 6e5a 0fbf f4ed fabe 4772 26bf e5f6 a23e
00000110: f691 dfbe 6c09 253f 4179 ec3c d0ec 203f
00000120: ba9f 293f 6ad0 e03b 602a cd3e 3d11 f4be
00000130: 0e7d bebe 4e0c 983e ef1e a3be c679 8fbe
00000140: c114 c2be 0158 bcbd 591a 0fbf 3ab6 7bbc
00000150: 6cce 123e 40af 533c ccab e6bd 9c89 203f
00000160: 436f 933d f4d7 6dbe 2d19 b9bc 6ecf 303f
00000170: 5b3b a0be a051 b3be 2c69 03bf 058b 353f
00000180: 2d7b fe3e 3bd6 b5be 51aa 1cbe 140e a63e
00000190: 9bd4 edbd 11ab 023f fb94 9cbe 2453 a8be
000001a0: 0cda 743e 2afd 1c3f d914 8bbe 08ea d3bd
000001b0: a6c0 7ebe c788 b5be 95a0 e9be 9968 82be
000001c0: dbc1 2a3f 122b bbbe 319d a3be 20fb 113d
000001d0: c43c 443e 273f 2d3f fd6c 05bf 7645 f63e
000001e0: d834 36bf b0e7 2d3f fe7f 6fbe 8063 463e
000001f0: 396e 063e e9ae 1e3e f5aa c3bd 09ff 303f
00000200: b44b 0ebe eaf3 bb3e 7193 d13e bead 6f3e
00000210: 33ed 143f 2b37 2a3e aeef d63e 1915 eebb
00000220: c95f 30ba 52b7 27bf 4b27 bfbe 4d9c 09bf
00000230: d581 fd3e e76e 333f c245 d8be a6d6 243f
00000240: 8ca2 30bc d30d 073f 9c82 113f 41d0 253f
00000250: c454 6dbd 2799 423e a919 ea3e 345d af3e
00000260: 4b52 ccbe 9c68 c6be 333d e63e f7f2 21bf
00000270: 9f7b 26bf d478 043f 4691 bfbd befa 723e
00000280: d960 1fbf a37a 54be 608b 8abd 2c2f 10be
00000290: 485b 1abf 10db 093e 01a9 4e3e 93ca fa3e
000002a0: bdc6 2fbf 6efc 293f fe7f 0ebf 9893 193f
000002b0: 1563 f03d 2ab6 ac3d 70bd 963e efb1 8cbe
000002c0: 2878 fbbe 964c 06be c84f b83e ceff 0ebf
000002d0: 6c3a 8f3e 5313 b23d bbf8 28bf 3825 c1be
000002e0: 6c09 94be d0e7 a7bd 46c6 f5be 7b4f 1b3f
000002f0: 1330 3b3e 6938 243f f47b 0e3f 0b7d 13bf
00000300: 5a6c eebe 2354 633e 88a0 3bbd 4662 5f3e
00000310: b1c9 10be 1246 223f ef26 ce3e 34fd 2cbf
00000320: 8652 2c3f e511 113b 34ef d33e 9589 a1be
00000330: cd4d 41bd 352e c0be cd0a 2dbf cd18 41be
00000340: 2368 883e f934 d8bd 562b 023f 6dcf 8f3c
00000350: a92e 963e 7e36 cabe 9346 413e ffe1 b33e
00000360: 6c63 7b3c d5ac 0b3e c66a 203f bb91 ab3e
00000370: 84ee 1b3e e883 e1bd 238d 223f 3d3c 23bf
00000380: 2dde 22bd 56b3 3f3e ab86 14be 2235 2f3f
00000390: 2719 b7be e132 6b3e 6a01 cabe c4b6 1abf
000003a0: 7ae8 8ebe 4aa0 a63e 1e83 5fbe 05b4 b03e
000003b0: 5efb 0bbd 9351 21bf 4a75 083f ebc1 943d
000003c0: bc32 fcbe 9ac9 b33e 8cb2 223e 9076 13bf
000003d0: 18cf bbbe ead3 a83e f6ff 313f 4d82 1a3f
000003e0: 14d2 63bd 7e8d 26bf 4409 a5be f524 a2be
000003f0: 0b81 babe 6e7a c2be bef7 013f 1fab a8be
0.38932768 -0.6805404 -0.3541924 0.71264976 0.18810637 -0.6192142 0.41986552 -0.23121153
0.029312909 0.02175653 -0.5383046 -0.16081627 -0.64834756 0.33264345 0.27160573 -0.5557863
0.069819376 0.2943977 0.26932254 0.6275989 -0.16504966 0.26331574 0.23666902 0.2120439
0.20001982 -0.6283159 -0.47722837 0.67358214 0.04001013 -0.19225293 -0.6554479 0.30249882
-0.27980846 -0.15328515 -0.50935566 0.2525481 0.15092877 0.17323966 0.23005438 -0.3192347
0.7049719 0.65359455 0.51549256 0.2410908 0.10048678 0.7110075 -0.21036126 0.55997723
0.39812094 -0.6411141 -0.34257877 0.17642361 0.5316244 0.27419165 -0.38641235 -0.5703673
0.5062578 -0.6813729 -0.0511384 0.005858183 -0.60856575 0.2889221 -0.59769505 -0.20627043
-0.5599736 -0.4900967 -0.65018123 0.3182899 -0.43666047 0.644675 0.028866412 0.6286135
0.6625935 0.0068607824 0.40071392 -0.47669402 -0.37204784 0.29696888 -0.31859538 -0.28022593
-0.3790646 -0.09196473 -0.5589958 -0.01536327 0.14336556 0.012920201 -0.112632364 0.62709975
0.07198956 -0.23226911 -0.022595013 0.6906651 -0.31295285 -0.35023212 -0.51332355 0.7091525
0.4970335 -0.35515007 -0.15299346 0.32432616 -0.11612817 0.51042277 -0.30582413 -0.3287593
0.23911303 0.613238 -0.27164343 -0.10347372 -0.24878177 -0.35455915 -0.45630327 -0.25470427
0.6670205 -0.36556298 -0.31955865 0.035639882 0.19163805 0.6767449 -0.5211943 0.4809987
-0.71174383 0.6793165 -0.23388669 0.19373894 0.13127984 0.1549641 -0.09554092 0.6913915
-0.13896066 0.3670953 0.409328 0.23406121 0.5817444 0.16622607 0.41979736 -0.0072656986
-0.000672814 -0.655141 -0.37334666 -0.5375412 0.49513116 0.700911 -0.4224072 0.6439003
-0.010780942 0.5275547 0.5683992 0.64770895 -0.057942167 0.19003735 0.45722702 0.34250796
-0.39906535 -0.38751686 0.44968566 -0.6326136 -0.6503238 0.5174687 -0.093538806 0.23728463
-0.6225715 -0.20749907 -0.06764865 -0.14080495 -0.60295534 0.13462472 0.20181657 0.48982677
-0.68662626 0.664008 -0.5566405 0.59990835 0.117376484 0.084331825 0.29441404 -0.27479503
-0.4911511 -0.13115153 0.35998368 -0.55859077 0.2797426 0.08695092 -0.6600453 -0.37723708
-0.28913438 -0.081985116 -0.48002833 0.6066815 0.18280058 0.64148575 0.5565789 -0.57612675
-0.4656704 0.22200064 -0.04580739 0.21814832 -0.14139439 0.6338817 0.4026408 -0.6757386
0.6731342 0.002213591 0.41393435 -0.3155028 -0.047193337 -0.37535253 -0.67594606 -0.18857117
0.2664195 -0.10556979 0.50847375 0.017554963 0.29332474 -0.394947 0.18874578 0.3513336
0.015343528 0.13640149 0.62662923 0.3350962 0.15227705 -0.11011487 0.6349661 -0.6376379
-0.039762665 0.18720755 -0.14504497 0.6844045 -0.35761377 0.22968628 -0.39454204 -0.6043513
-0.2791174 0.32544166 -0.21827361 0.34512344 -0.03417527 -0.630151 0.5330397 0.072635494
-0.49257457 0.35114747 0.15888423 -0.57602787 -0.36681437 0.32974178 0.6953119 0.60355073
-0.055620268 -0.6505965 -0.32233632 -0.3166882 -0.36426577 -0.3798403 0.5076865 -0.32943055

Y_net.net.0.bias f4 [256]
00000000: 36df 12bd 38b8 ff3d 0dae bcbe 83f7 d1be
00000010: acb9 22be 23f9 033f dfa0 17be b11a b43e
00000020: 862f 4dbe 43b1 d5be b078 a0bd 9e89 1e3f
00000030: 2fe0 21be 7894 cfbe 4140 443e 5828 e53e
00000040: da29 cabe d2db c53e 9564 5c3d ed6b 213f
00000050: 1085 873e f8b0 acbe f221 d03e cece 7bbe
00000060: 2005 2d3e 04b7 fdbe 08ae 2ebf ff15 a4be
00000070: 5ba7 dc3e c295 55be cc05 ca3e a39e e63e
00000080: d57f 7dbe 2e69 f83e 5f8e 223e 9b55 27bf
00000090: bf31 1cbf b5ab 37bf 98ca 4fbd 5101 833e
000000a0: e43b 873e d486 9e3e b2b0 e6be ef40 e53d
000000b0: 8e54 523e 0fb0 153f 277f 05bd 4151 963d
000000c0: 390f 403e eeac bf3c 3b91 0dbf 5974 f4bd
000000d0: f99e 6e3d 80f6 3fbe fafc 5bbd 288b 4fbe
000000e0: 4343 4fbe 5d1c 2dbf ddb0 0f3f ce91 233e
000000f0: 59d5 ae3e e4b8 a5be 4b5b cc3e b766 61be
00000100: 4cea 21bf 8a96 36bc 489c de3e 081b 1d3f
00000110: eeee 00bd 1ca7 c63d 2eee 313f 355b 9c3e
00000120: 6db8 0e3f e1d0 34bf 641c 333f 2a46 5d3e
00000130: 5ee6 5ebc 5707 343f 2a3d 133f 92f5 b3bd
00000140: af22 87bd 21f0 11bf a51e babe 32d3 e63e
00000150: 4856 573e b236 f53e 3a55 6ebe fde7 12bf
00000160: aa71 c23e adf9 c2be 56f8 8f3e 0dfe a73e
00000170: cc5d 34bf fff5 1ebf aae7 21bf f520 ca3e
00000180: a5b9 a5bd f144 8d3e 0549 043f 0c7a 303f
00000190: 62e2 edbd 2131 1abd 43f3 77be 675e 293e
000001a0: 18e1 713d a75c b83e 288e 9c3e dae1 ecbe
000001b0: 54fd 05be 6e12 17be 438e e3be 06c1 2a3f
000001c0: a4b3 ce3e 0989 69be f972 8b3c 95ab 1dbf
000001d0: 4e0d c1be 28ec 3fbd f64f e4b9 42ad 0dbb
000001e0: 0639 99be 3e07 d13d 9c56 7c3e 3d84 ca3d
000001f0: 7c65 293f 0569 2fbf b325 0a3e a0e0 673e
00000200: 3176 a13c 3598 21be 7902 253f b794 01bf
00000210: e040 f63d 2ef2 8dbd 8fbd fdbe 7ba3 babd
00000220: 0b93 efbe 310f 01bf d354 ba3d 7a16 1ebf
00000230: adb7 a3bd 3997 433e a298 ffbe 60ee 67be
00000240: aa9d 663e f37a 003f c88f 5abe 9e89 d03e
00000250: 030e 6ebe 27dd 7bbe a84f 283e f616 10bf
00000260: 8545 9fbe 7b88 2e3d ea91 3d3f abf9 00bf
00000270: b8f4 1d3f 3c87 20bf be29 163d 306c 19bf
00000280: 4c7e c5be 7d54 543e 6f34 283f f5cb 3c3e
00000290: 0817 2fbf c416 9a3e bdf6 b1bc 9d51 0abf
000002a0: 6008 28be 2766 b63e 37c2 293f b3af 47be
000002b0: f7e6 583d 8fe4 2fbe cb90 c93e 1a4a d13d
000002c0: f7e9 b93e 5f8c a73b 91af 633e 0e67 19be
000002d0: af7f 39bf bf0b 623e e48f 90be 96c7 2c3f
000002e0: 1057 29bf c063 23be eb6e e13d a5cf 1f3e
000002f0: db1f 2dbf 60fb b53e b7c8 853d edfb c03e
00000300: 36c0 b8be 7de9 94be e0b0 11bf dc65 133f
00000310: f957 22bf fb87 b03e 4cd0 22bf 6a10 0f3f
00000320: 0a23 8e3e 59cb b9bd ffad 2cbf 18db d2be
00000330: 92d3 22be 74e1 9a3e d3fb 323f 608e 95be
00000340: ccc1 983e fd77 d53d 7e63 5b3d 68b5 303f
00000350: 6458 713e 7364 c5be 4420 803d 76d9 06bf
00000360: 9b6a 01bf 8c3c d93e 5777 043f d7f0 ec3e
00000370: ccf7 b4bd 84a8 12bf f3e0 24be 94b2 203f
00000380: 1b72 11be 8205 ff3d 79cb 31bf 491a d13e
00000390: f86e ff3e 602f 1e3f 9ba7 25bf d927 cbbd
000003a0: 3124 d8bd e5fc bf3e 0731 a8be 1da6 b93d
000003b0: 8f2e 81be 5cc1 10bf 5e89 2f3f d63f 3fbf
000003c0: 8b6e 6bbe d8b7 62be e644 453d b569 f03e
000003d0: 1eb4 d1bd 8698 28bf 5e12 0b3f c03d cbbb
000003e0: 691d 02bf 51b2 0ebf 849f 25bd 47ea 2ebf
000003f0: 5e6a 003f ebf7 e7bd b17c a93e 3b97 1bbe
-0.0358574 0.12486309 -0.3685154 -0.4100915 -0.1589114 0.5155203 -0.14807461 0.35176614
-0.2003766 -0.41736802 -0.07835519 0.6192874 -0.15808176 -0.4054296 0.19165136 0.44757342
-0.39485055 0.38644272 0.05380686 0.63055307 0.26468706 -0.33728766 0.40650898 -0.24590608
0.16896486 -0.49553692 -0.682343 -0.32048032 0.43096432 -0.2085791 0.39457548 0.45042905
-0.24755795 0.48517746 0.15874623 -0.65365 -0.61013407 -0.7174638 -0.050730318 0.25586942
0.2641288 0.3096224 -0.45056683 0.11194026 0.20540068 0.5847177 -0.032591965 0.07339717
0.18755807 0.023397889 -0.5529973 -0.11936254 0.058257077 -0.18746376 -0.053708054 -0.20267928
-0.20240502 -0.67621404 0.56129247 0.15973589 0.34147146 -0.32367623 0.399134 -0.22011839
-0.63248134 -0.01114429 0.43478608 0.6136937 -0.03147786 0.09699842 0.6950406 0.30538335
0.5575016 -0.70631224 0.69965196 0.21608797 -0.0136047285 0.703237 0.57515204 -0.08787073
-0.06598412 -0.5700703 -0.36351505 0.45083004 0.21029007 0.47893292 -0.23274699 -0.57385236
0.37977344 -0.38081113 0.28119153 0.32811013 -0.7045562 -0.6209411 -0.63244116 0.3947827
-0.080920495 0.2759166 0.5167392 0.6893623 -0.11615445 -0.03764451 -0.2421389 0.16539918
0.059052557 0.36008188 0.30577207 -0.4626606 -0.13084918 -0.14753124 -0.44444475 0.6670078
0.4037143 -0.22806181 0.017022597 -0.6158994 -0.37705463 -0.046856076 -0.00043547124 -0.0021618162
-0.29926318 0.102064595 0.24642414 0.09888504 0.6617048 -0.6851962 0.13490944 0.22644281
0.019709678 -0.15780719 0.644569 -0.50617546 0.12024093 -0.06930958 -0.49558684 -0.09113213
-0.46791872 -0.50413805 0.0909821 -0.61753047 -0.07994018 0.19100656 -0.49921137 -0.22649527
0.22521082 0.50187606 -0.2134391 0.40729994 -0.23247533 -0.24596082 0.16436636 -0.56285036
-0.31107727 0.042610627 0.7405077 -0.50380963 0.61701536 -0.6270635 0.036660902 -0.59930706
-0.3857292 0.20735355 0.6570501 0.18437178 -0.6839452 0.30095494 -0.0217241 -0.5403078
-0.16409445 0.3562481 0.66311973 -0.19500618 0.05295464 -0.17177032 0.3936828 0.10219212
0.36311314 0.005113169 0.22234942 -0.14980718 -0.72460455 0.22074793 -0.2823478 0.67492044
-0.6614847 -0.1595602 0.11007484 0.15606554 -0.6762673 0.35543346 0.06532424 0.37692204
-0.36084145 -0.29084387 -0.56910515 0.575773 -0.63415486 0.34478745 -0.63599086 0.5588442
0.27761108 -0.090719886 -0.67452997 -0.4118278 -0.1590102 0.30250132 0.69915503 -0.29210186
0.29835355 0.104232766 0.05356168 0.69026804 0.23568875 -0.385532 0.06256154 -0.5267557
-0.5055329 0.42429006 0.517446 0.46277496 -0.08836326 -0.57288384 -0.16101436 0.6277249
-0.14203684 0.124522224 -0.694511 0.40840366 0.4988935 0.6179104 -0.6470887 -0.0991971
-0.10553778 0.3749763 -0.32849905 0.09064887 -0.25230834 -0.56545043 0.6856898 -0.7470678
-0.22991388 -0.22140443 0.04816141 0.46955648 -0.10239433 -0.6585773 0.543249 -0.0062024295
-0.50826126 -0.5574084 -0.04043533 -0.6832623 0.50162303 -0.113265835 0.33102944 -0.15194409

Y_net.net.2.weight f4 [256, 256]
00000000: 40de fabb a435 0b3d f613 203d 1820 05bd
00000010: a005 de3c 0050 7e3c 3612 3cbd dc44 65bd
00000020: 48ca 113d c089 713b b280 6abd 4215 12bd
00000030: 30a0 35bc 38d8 3abd f4b2 39bd 84be 5a3d
00000040: 846b 9dbc bcd5 59bd 140c a1bc 1858 5e3d
00000050: 601c 4a3d aabd 473d 140e 8b3c 04ae d3bc
00000060: b61c 08bd 6c36 d9bc 50a3 bcbc 78c7 2a3d
00000070: 2039 40bb 06ce 513d c0ce 153c 4e2b 233d
00000080: d8a8 473c c031 bbba f093 51bc 509c 71bd
00000090: fc1d c3bc 6245 243d 00db 6c3c c8ff ffbc
000000a0: 7ee5 2b3d c0f5 b43c 90f6 613d 54a6 c5bc
000000b0: 3ed6 47bd 140f fd3c aa5b 4cbd 14aa 723d
000000c0: 1088 b7bc 9c4f 7bbd a6e6 16bd 708a 50bd
000000d0: a428 7dbd 00fb 0f3a d885 72bc 9824 7f3c
000000e0: 86b2 13bd 3072 a53b 2e1e 6abd 246e be3c
000000f0: 041f eebc a0fc 94bb 2e7c 7bbd 2ac6 16bd
00000100: 8033 3eba a036 77bd 4065 02bb b0bb 95bb
00000110: 40b3 583b ece1 77bd ea29 0abd 7870 01bc
00000120: 10e1 a1bb 42d7 073d a244 453d 00ed d4bb
00000130: 40b4 7dbb 3880 34bd 5efd 20bd e6bc 4d3d
00000140: a859 693c ac76 24bd 1020 5ebd 000a bbbc
00000150: a087 d7bc 80a2 bf3b c050 b63c c830 6bbd
00000160: e033 45bd 9c08 7c3d e012 9cbb ac23 eb3c
00000170: c82c 92bc 84ee 4e3d 88ba 55bd 3861 9ebc
00000180: 6cf8 5e3d 3023 f23b 7874 b5bc 243e 72bd
00000190: 1c2e c2bc e004 cbbc 2c1b 5cbd 40cc 483d
000001a0: 1067 ddbc 4864 bf3c 089c 69bd 802c 9a3b
000001b0: 148b 6c3d 60cc 803b 562e 6cbd 680e 05bd
000001c0: e8a7 693c 18ee 55bc 60a7 3a3b 708d e73b
000001d0: 98f4 3dbc 78ed 093c e867 7dbc a0ec c3bb
000001e0: 9655 45bd ace7 68bd 4805 dabc a42f bb3c
000001f0: f45a 303d f26c 4abd 346f dcbc 101b a23b
00000200: 30a9 25bc 24de 05bd e0e9 8a3b f805 e9bc
00000210: e8e6 353d e67f 2fbd 5073 62bd 463e 65bd
00000220: ce00 67bd 2010 553d 5476 f7bc 68ec 9b3c
00000230: 9057 1e3c 7456 7fbd a636 5e3d 208f ca3b
00000240: 283f 1c3c 8058 4d3d d848 43bd de80 1dbd
00000250: e285 163d b09e c2bb 92a0 6bbd 0ade 33bd
00000260: 4001 643b 72a0 1b3d 783a aebc e84c 13bd
00000270: 3cb4 e53c 1098 b13b 38c1 033d 3e6d 4dbd
00000280: 3483 3a3d 903b fa3c d8fd 5c3c ec9c c53c
00000290: aafb 1b3d 40bd 713b 649a c93c 485f 223c
000002a0: a095 61bc 285e 31bc 54b4 fe3c 96eb 19bd
000002b0: aa35 233d d07c 7abd 9081 d93b 52b8 223d
000002c0: b467 ba3c 783d 19bc 56be 4e3d 80a0 643a
000002d0: 9263 7bbd cc48 02bd 0092 7e3c 7830 743c
000002e0: f0af 5a3c a8fa 87bc 2809 343d 20d9 183b
000002f0: a06a 783b f689 7d3d 606c 653d ec5e a0bc
00000300: 584d 2a3c 603b 663c 52a0 293d 1427 d63c
00000310: 906f 54bd 7077 963c 2ee8 5d3d 444e a8bc
00000320: ca1e 6bbd e081 923b d636 5e3d 10f9 e93c
00000330: e00a 80bb 7804 86bc ded0 37bd 70ef 323c
00000340: 30a4 cdbc bcc8 3b3d 706e ecbb 28bd d83c
00000350: 58fd c33c beaf 6f3d c033 78bc c009 383c
00000360: b6ff 4f3d e085 f2bb 1ef6 6f3d 2881 43bd
00000370: c027 01bd 70e4 963c 88c3 263c b026 06bd
00000380: d64d 67bd 50fd 613d 60c2 a2bb 3046 7c3d
00000390: 3089 19bc 24cd 90bc 907c 1b3c 5056 febc
000003a0: 90e7 e53c 8c06 aebc a816 a2bc 3435 983c
000003b0: d029 ef3c 5c57 4e3d 8096 a43c b0ad e9bc
000003c0: cc6a 803c bc06 313d b496 60bd c05b 42bd
000003d0: 0883 8d3c e0ce 0dbd 3e26 6c3d 6a96 2f3d
000003e0: 8897 373c 065c 103d 5077 d9bc a041 05bb
000003f0: 901b 2ebc 548f bf3c a034 8b3b a07c 3d3b
-0.007655889 0.033986703 0.039081536 -0.03250131 0.027102292 0.015522003 -0.045915805 -0.055973873
0.0355933 0.0036855787 -0.05725164 -0.035664804 -0.011085555 -0.04561636 -0.04533668 0.053404346
-0.019216307 -0.05318235 -0.01965908 0.05428323 0.049343467 0.048764862 0.016974486 -0.025839813
-0.033230506 -0.026515208 -0.023027092 0.041694134 -0.0029330924 0.05122187 0.009143531 0.03983622
0.012186252 -0.0014281794 -0.012791619 -0.05898696 -0.023818009 0.04010523 0.014456511 -0.031249896
0.041966908 0.022089839 0.05516678 -0.024127163 -0.0487883 0.030890979 -0.049892105 0.05924423
-0.022403747 -0.06135522 -0.036841057 -0.050913274 -0.061806336 0.0005492419 -0.014802419 0.0155726895
-0.036058925 0.0050490126 -0.057157688 0.023245879 -0.029067524 -0.004546717 -0.061397724 -0.036810078
-0.0007255599 -0.06035483 -0.0019896775 -0.0045694932 0.0033065826 -0.06051819 -0.03373138 -0.00790035
-0.0049401596 0.03316427 0.048161156 -0.006497979 -0.0038712174 -0.04406759 -0.03930413 0.050228976
0.014242567 -0.040152237 -0.054229796 -0.022831917 -0.026309788 0.005848229 0.022255301 -0.05741957
-0.048145175 0.061531648 -0.0047629923 0.028703533 -0.017843619 0.050520435 -0.052179843 -0.019333467
0.054436132 0.0073894486 -0.022150263 -0.059141293 -0.023703627 -0.024782598 -0.05373685 0.049022913
-0.027026683 0.023363248 -0.05703357 0.004705012 0.057749823 0.0039306134 -0.057661377 -0.032484442
0.014261223 -0.013057254 0.002848111 0.007066421 -0.01159396 0.008418433 -0.015466668 -0.0059791356
-0.048177324 -0.056861565 -0.026613846 0.022849865 0.04305549 -0.049420305 -0.026908495 0.0049470738
-0.010111138 -0.032682553 0.004239306 -0.028445229 0.044409662 -0.042846583 -0.05528575 -0.05596759
-0.05639725 0.05201733 -0.03020779 0.019033626 0.009664431 -0.062338307 0.054251336 0.0061816126
0.009536542 0.05013323 -0.04767689 -0.038452975 0.036748774 -0.005939327 -0.05752618 -0.043912925
0.0034790784 0.03799481 -0.021268114 -0.035962015 0.028040044 0.0054197386 0.03216669 -0.05015301
0.04553528 0.03054598 0.013488255 0.024122678 0.038081802 0.0036886483 0.024609752 0.009910412
-0.013768584 -0.010825671 0.031091847 -0.037578188 0.0398461 -0.061154187 0.0066377595 0.039726563
0.022754528 -0.009353034 0.050474487 0.0008721426 -0.061374255 -0.031807706 0.015537739 0.014904134
0.013347611 -0.016599014 0.043954045 0.0023322776 0.003790535 0.061899148 0.056011558 -0.019576512
0.010394417 0.014052242 0.04141266 0.02614168 -0.051864207 0.0183675 0.054176502 -0.020545132
-0.05740241 0.0044710487 0.054251514 0.028561145 -0.0039075464 -0.016359553 -0.044876926 0.010921344
-0.025102705 0.045845732 -0.0072153136 0.026457384 0.023924515 0.05851721 -0.015149057 0.011232793
0.050780974 -0.007401213 0.058584325 -0.047730595 -0.03153205 0.018419474 0.010178454 -0.03275174
-0.056470715 0.05517322 -0.004967019 0.061590374 -0.009371087 -0.017675944 0.009490147 -0.031047016
0.02806452 -0.021243356 -0.019786194 0.018580057 0.029194742 0.05037628 0.020091295 -0.028525203
0.015675925 0.043219313 -0.05483122 -0.04745078 0.017274395 -0.03462112 0.057653658 0.042868055
0.011205561 0.03524401 -0.02654615 -0.0020333305 -0.010626689 0.023383774 0.0042482167 0.0028913394

Y_net.net.2.bias f4 [256]
00000000: 8067 1c3b f391 893c db3b 973c 71c4 04bd
00000010: 47ca fabb b147 dfbc fcbd ec3c c05d 88ba
00000020: fbd6 643c e4da 4cbc 2c67 52bd 5e73 4139
00000030: e1ab da3c 0d57 1d3d 3a32 6fbd fe16 a3bd
00000040: 8e33 9abc 256b 6cbd 9b38 aabb ffad 9b3c
00000050: 792a c9bc c029 643c 5a8a 00bc 704c 54bd
00000060: 534c 823c 2392 503d 94fd 4d3d 06c5 7abd
00000070: c084 5cbb dc9f 8abd 187e 91bd b6d3 11bc
00000080: 0573 2abd 340d 57bd be16 b73c 3b14 89bc
00000090: c2fd 4cbd d416 61bc 5f4d 34bd 0031 273d
000000a0: 08de 2abc d8a6 d73c 728d 22bd 2079 2a3c
000000b0: 302b 5e3c f382 25bd e7f5 7a3c 6b2e e5bb
000000c0: be12 5c3d 9067 81bd c864 113d 8b06 323c
000000d0: ca09 4abd 8abf dabc cfe3 4d3d 74dd 943d
000000e0: 5349 5e3d 50b3 98bb e59a 7cbc a4ae 47bd
000000f0: d41d 44bd 1673 96bd 2560 f2bb 714b ab3c
00000100: 1ca8 5c3d e0e6 50bc c010 903b a076 273d
00000110: ec22 243d 2efa 39bd a0a2 263d 3422 0fbc
00000120: 523e b0bd f014 153d 0961 58bd d460 aebd
00000130: 5091 59bd 36d6 6b3b ddf7 f23a 6dc8 88bd
00000140: 9ce0 16bc 1905 a3bd bbc5 81bd 886a 323c
00000150: f4ae 7dbd a2fa 343b b33a 04bb d36d 63bd
00000160: 445c 5bbd 633f fbbc ecd9 2abd aa80 833c
00000170: 30ee 183c 5538 42bd e0cc 87bc ce84 463c
00000180: 07a4 86bd 87eb e83b 704e 0f3c 2a38 b7bc
00000190: 53d6 8eba 6610 1a3d 6cfb 9dba a0f6 95bc
000001a0: 32a0 68bd 86fd 2cbd f0e5 e23b 806c 6a3a
000001b0: 8c07 1e3d 682a 16bd 89ae 583c 098b 193d
000001c0: 2274 193c c2d1 e8bb be85 7e3c d067 1b3d
000001d0: 0a05 7bbd 9101 c2bc f705 36bd 5f74 8bbc
000001e0: b449 0fbd cdd4 20bd 496e 85bd ae63 38bd
000001f0: 7f3b 123c 3fdd cb3c 0eb9 64bd 6306 95bd
00000200: 7087 f5bb 8063 a2bb 63af 6bbd 04d1 183c
00000210: d01d 6abd 102a 68bd 0dc5 bbbb 4e03 de3a
00000220: 1651 36bc 9e3e a03d 4bb5 9dbd cfc1 15bd
00000230: 3691 31bd d0f7 493c 80bd f4bc d7cd 2d3d
00000240: de97 8a3d dc76 773d 903d 22bd 526e 40bc
00000250: 6bad 543c d5ac 773d 60db ac3b 1c65 203d
00000260: fd2b 9ebd e001 4fbd 65e4 323c 0d7e 963c
00000270: f6b2 76bd 4422 0f3d 7017 94bd 480e 5bbd
00000280: 1a7e 46bd b754 13bd 38a6 6bbc 1cd3 89bd
00000290: ec24 25bd a059 ffbc 10f1 28bc 605c 03bd
000002a0: 160a 8abd e2fc 72bd b815 be3c ce74 b0bc
000002b0: 26ea 01bd a607 d13c 39e5 b7bc e7c9 58bd
000002c0: 1ad4 023d 5a57 5c3b e378 7fbc ec4b 353d
000002d0: a481 f83c 40eb fd3b f27f 5e3d 2b29 99bd
000002e0: a5f4 483d 0acb 3dbd 9326 033d 3045 36bd
000002f0: 8320 b4bc c09d c8ba 7241 2cbd f439 203d
00000300: 8540 5fbd 32e9 bbb8 a693 0abd b735 7cba
00000310: 41bc 38bd c7e8 7a3d 0ca2 2b3b 37cb 313d
00000320: e863 f4bc 73fe 0a3d f569 0d3d 4024 073d
00000330: 147a d0bc 70d1 75bd 6b9c 18bd 307d 22bd
00000340: 2e1b 95bd 26de 0f3d 71ab 86bd f830 a0bc
00000350: d09d 36bd c07e ad3c 8d39 213d 780d 8e3b
00000360: b1c4 04bd c869 493c f9e7 a9bc 04e4 bcbc
00000370: 3e31 c03b 5f56 7abd 6e73 b3bc dea6 433d
00000380: 722a d8ba c810 b83c f81e 42bd 0d3d 46bc
00000390: e85c 253c 82ea d4bc caa1 4e3c 365a ab3c
000003a0: e1c1 67bd 897d 93bc 8adb 903c 28f9 4fbd
000003b0: e40d f9bc be41 01bd 652f 863c c108 4dbd
000003c0: d07d ef3c 7383 d33c 2df7 d6ba d044 a73b
000003d0: f884 37bd 614b debc 7e64 ff3c 070a 71bd
000003e0: cad9 293d 3c91 cfbc 3c77 9c3c 497d f43c
000003f0: e40e 8dbd 9053 42bd 6008 923c 5bbf 44bd
0.0023865402 0.016793227 0.018461158 -0.032413904 -0.007653508 -0.027255865 0.028899185 -0.0010403916
0.013967271 -0.0125033595 -0.051367924 0.00018448892 0.026693286 0.038413096 -0.05839751 -0.0796337
-0.018823411 -0.05771937 -0.005194736 0.019003866 -0.024556385 0.01392597 -0.007845486 -0.05183071
0.015905535 0.050920617 0.05029066 -0.061223052 -0.003364846 -0.06768772 -0.071041286 -0.0089005735
-0.041613597 -0.052502826 0.022349712 -0.01673328 -0.05004669 -0.013738353 -0.0440191 0.040818214
-0.010428913 0.026324674 -0.039685674 0.010404855 0.013560101 -0.040408086 0.015317417 -0.006994059
0.05372881 -0.06318581 0.035496503 0.010865818 -0.04932574 -0.026702661 0.050266083 0.07268801
0.054269146 -0.0046600476 -0.015417789 -0.048750535 -0.04788001 -0.0734617 -0.007396715 0.020909997
0.05387126 -0.012750357 0.004396528 0.040884614 0.040072367 -0.045404606 0.040682435 -0.008736182
-0.08605637 0.03639692 -0.052826915 -0.08514562 -0.053117096 0.0035985834 0.0018537004 -0.06678853
-0.0092088245 -0.07959957 -0.06336542 0.010889657 -0.061934426 0.002761521 -0.002017659 -0.05552466
-0.05355479 -0.030669874 -0.041711733 0.016052563 0.009334132 -0.047417004 -0.016577184 0.012116624
-0.065742545 0.007108155 0.008746728 -0.022365648 -0.0010897614 0.037613295 -0.0012053079 -0.018306077
-0.0567934 -0.042233966 0.0069243833 0.00089425594 0.038581416 -0.036661536 0.013225206 0.03748611
0.009366067 -0.007105083 0.015534816 0.0379408 -0.061284102 -0.023682388 -0.044439282 -0.017023263
-0.0349824 -0.039265443 -0.06515176 -0.045016937 0.008925318 0.024885772 -0.055840544 -0.07276609
-0.007492952 -0.004955709 -0.05754031 0.009327177 -0.057157338 -0.05668074 -0.0057302774 0.0016938241
-0.011127731 0.07824443 -0.077005945 -0.036561783 -0.043351375 0.0123271495 -0.029875517 0.042432632
0.067672476 0.060416088 -0.03960949 -0.011745052 0.012980799 0.06046756 0.005275175 0.039158925
-0.07723234 -0.050538898 0.010918711 0.018370653 -0.060229264 0.034944788 -0.07231033 -0.053480417
-0.048460104 -0.035969462 -0.014382891 -0.06729719 -0.040318415 -0.031170666 -0.01031138 -0.032070518
-0.06740205 -0.0593232 0.023203716 -0.021540072 -0.031717442 0.025516342 -0.022448169 -0.052926924
0.031940557 0.0033621402 -0.0155927865 0.044261858 0.030335255 0.0077489913 0.054321237 -0.07478555
0.049061436 -0.04633621 0.03201921 -0.044499576 -0.021988159 -0.0015305802 -0.0420546 0.03911777
-0.05450489 -8.960291e-05 -0.033832215 -0.0009621041 -0.045101408 0.06125715 0.0026189117 0.04340669
-0.029832795 0.033934068 0.034524877 0.032993555 -0.025448836 -0.06001419 -0.037258547 -0.03967017
-0.07280575 0.035123967 -0.065756686 -0.0195546 -0.044584095 0.021178603 0.039361525 0.0043351017
-0.032414142 0.012293287 -0.020740496 -0.023057945 0.005865245 -0.061117526 -0.021905627 0.04776656
-0.0016492142 0.02246894 -0.047392815 -0.012099517 0.010092951 -0.025990728 0.012611816 0.02091704
-0.05658138 -0.018004196 0.01768281 -0.050774723 -0.030402131 -0.031556837 0.016380021 -0.050057177
0.029234797 0.025819516 -0.0016400568 0.0051046386 -0.044804543 -0.027135553 0.031175848 -0.058847453
0.041467465 -0.025337808 0.019099824 0.029844897 -0.06887606 -0.047442973 0.01782626 -0.048034053

Y_net.net.4.weight f4 [256, 256]
00000000: 4855 06bd 72be 95bc c665 6d3d c94e 173d
00000010: 1794 82bd 27dd 8dbd fc0a 7d3d 3891 47bc
00000020: 5666 c83c 9798 713c ad0b b53c 6548 e2b9
00000030: a50d 2b3c e251 6d3b 284e be3b 2ea1 2fbd
00000040: 7a8a fd3c a63d 173d 7735 77bd cd4f 813d
00000050: 2faf e6bc a4e9 6b3d 0b8a 543d e5a1 22bc
00000060: 6bee 923a 5f49 f03c 3206 59bc fcf1 003d
00000070: b0ed c73c 6a05 a5bc 4c12 a73c 4101 95bc
00000080: 7c65 5bbc 39ae eebc dc9f cf3c 1105 4cbd
00000090: 3060 233c d30e 24bd 03af 683d 2acb 0b3d
000000a0: 413d a13b d522 6c3b 9a32 8dbc 284b bbbc
000000b0: 805a 073d b028 80bc 6831 6b3d 4a62 823c
000000c0: 6e3b 7e3c 4402 6bbd c08a 443d f796 1dbd
000000d0: 8824 3fbd 0c0d 13bd a153 c9bc 86e0 ac3b
000000e0: cba8 60bc a4db 3e3d 4d82 b1bc 7f3d 6c3c
000000f0: f091 39bd f431 653c 4fb1 f13c 2de1 d03c
00000100: 9c53 91bc 1a3a 5fbd 80b8 7fbd c00e d83c
00000110: 65a5 93bd eae0 3a3d 9044 733d 9bd2 50bd
00000120: 6a1d 203d e626 55bd 67d1 0ebb 6c2d c33c
00000130: 811a 8f3d 7728 923a 34ba 223d c56a 303c
00000140: 694b 3bbc 664a c1bc 4b35 a3bc ed99 243d
00000150: f542 093b 313b 3d3d 5461 8f3b efde a13c
00000160: 2823 8dbd 7b18 9cbc 7180 b83b dd95 c6bc
00000170: 4aad 2abd c186 ee3b e80d a5ba ec93 8abc
00000180: 1cbc df3c 82f5 c33c ee1a 673d 9acd 703d
00000190: 4257 833c 4c30 dfbc 8c86 68bd 14ae 873c
000001a0: 355a 813b 92df c1bc 304c 73bc a094 7f3b
000001b0: aa59 7bbd 90c0 223c 1edc 943c 46fd 06bd
000001c0: bb48 6c3c 154d 15bd 96d8 413d b004 c5bb
000001d0: c4dc c1bb 8e57 533d e840 da3c cae8 193b
000001e0: a42f 653d 4e80 1e3d a3cb 7abd 39d2 7f3c
000001f0: 65b9 e43b f375 dabc 8781 233d 2a2b 843d
00000200: aacf 24bd 4cf8 ab3c f177 b43c 6fab fc3c
00000210: 10a6 cf3b 5420 fabc 8772 41bd bdff 22bc
00000220: 547d 98bc c6ad 6dbc 926a c0bc 5581 77bc
00000230: 0b10 7cbc a854 ba3c 2d2c a33b f487 0ebd
00000240: 4fb5 3eba 0846 cdbc 205c 95bb 152b 643d
00000250: 837d 4abd c747 2bbc c336 82bc cf42 fe3b
00000260: c971 393c d894 2f3d dfc7 3abd 8909 4dbd
00000270: 8606 3cbd e77e 10bd 9948 daba 2532 30bd
00000280: 80c7 3bbd 5c72 4a3b e86f 703d 2c17 7a3d
00000290: 081f 3bbd 04ac 2abd 7a65 0bbd bfe8 d43c
000002a0: 6fd5 a53c 4069 623c 27e5 c3bc 3e81 cf3c
000002b0: 6421 783d a2b3 a23c 838c 533b 4bdf 36bc
000002c0: 1041 63bd 6f77 383d 7d8a 86bd c42e b13c
000002d0: e342 a13c f3d7 54bd 4802 2e3c 4ca6 103d
000002e0: 0dc6 2a3d 542c 96bc 04b8 3f3d c6e6 103d
000002f0: 74d8 82bc 4047 e43a bad7 efbc 705d 92bc
00000300: 1739 12bd 69bb 67bd 3c29 5abd fde6 33bd
00000310: eba0 5b3c 6b3e 2c3c 49df 5f3c 6776 88bc
00000320: d84d d03a 6f72 99bc 45f1 d03c 4b61 643d
00000330: bc84 2b3d 4a68 673d 3465 853d ef90 41ba
00000340: 9c23 363d 42f0 613d 546e 3b3d c6d0 42bd
00000350: 251d 873b 5fce 0a3c 361d 4c3d 913c c93c
00000360: 9913 b6bc 0e96 1abd dd15 563d 8961 db3b
00000370: 6eb0 30bd bd93 4b3b 96da b63c deef 083c
00000380: 2a81 2a3d e046 ee3c ebc1 553c fec6 40bd
00000390: 0ec7 6a3d abdd e1bc cad6 0c3d b8f8 50bd
000003a0: be1b 81bd c26a 213d b67a 8a3d c5d1 603c
000003b0: a412 363d 768c b83c 9554 86bd a651 48bd
000003c0: 8077 0f3d 7a27 293d 256d 81bd 6ef6 3fbd
000003d0: 808b 493d edd8 a7bc 25bf 1dbd 4bfe d4bc
000003e0: 9675 6cbd b0ac 443c 3096 0ebd b853 cf3a
000003f0: 90be 253d aea9 443d 987f edbc 06ed 18bd
-0.032796174 -0.018279288 0.057958387 0.03694037 -0.06375902 -0.06926947 0.061778054 -0.012180619
0.02446286 0.014745853 0.022100294 -0.00043160017 0.010440265 0.0036212136 0.005807657 -0.042878322
0.03094982 0.036924027 -0.060353722 0.06314049 -0.028159706 0.057595864 0.05188946 -0.009926294
0.001120997 0.029331861 -0.013246106 0.031480774 0.02440533 -0.020144183 0.020394467 -0.018189074
-0.013390895 -0.02913581 0.025344782 -0.04980952 0.009971663 -0.0400532 0.05680753 0.0341293
0.004920632 0.0036031504 -0.017236043 -0.022862986 0.033045292 -0.015644401 0.057420164 0.015916009
0.015517099 -0.057375208 0.047983885 -0.03847405 -0.0466657 -0.035901114 -0.02457601 0.0052757887
-0.013712118 0.046596184 -0.021668578 0.014418959 -0.045305192 0.0139889605 0.029503493 0.025497997
-0.017740063 -0.05449877 -0.062431812 0.02637422 -0.07209281 0.04562465 0.05939156 -0.0509821
0.03909055 -0.05203905 -0.0021792294 0.02382537 0.06987477 0.0011150975 0.03972836 0.010767643
-0.011431553 -0.023595046 -0.019922873 0.040185858 0.002094445 0.046199027 0.004375616 0.019759623
-0.06891471 -0.019054642 0.005630546 -0.024241382 -0.041669168 0.0072792475 -0.0012592645 -0.016916238
0.027311377 0.023920778 0.056422167 0.058789827 0.016032819 -0.02724471 -0.05676894 0.0165625
0.003947521 -0.023666177 -0.0148497075 0.00389985 -0.061364807 0.009933606 0.018171366 -0.032956384
0.014421637 -0.036450464 0.047325693 -0.0060125217 -0.00591621 0.05159717 0.026642278 0.00234847
0.055953637 0.03869658 -0.06122936 0.015614086 0.0069801086 -0.02666757 0.03991845 0.064535454
-0.040237106 0.02099242 0.022029849 0.030843465 0.006336935 -0.030532993 -0.047228362 -0.009948668
-0.018614449 -0.014506763 -0.023488317 -0.015106519 -0.015384684 0.022745445 0.0049796314 -0.034797624
-0.0007274942 -0.025057808 -0.0045581013 0.05570515 -0.049436104 -0.010454125 -0.015895253 0.007759429
0.011318632 0.042866558 -0.04560077 -0.05005792 -0.04590466 -0.035277274 -0.0016653716 -0.04301657
-0.045844555 0.0030890917 0.058700472 0.061057255 -0.04568389 -0.041667953 -0.034032322 0.025989888
0.020243375 0.013819039 -0.02391298 0.025330182 0.06057872 0.019861046 0.0032279796 -0.011161636
-0.05548197 0.045035776 -0.06569383 0.021628745 0.019685214 -0.051963758 0.010620661 0.035314843
0.041692782 -0.018331684 0.04680635 0.035376333 -0.015972354 0.0017416254 -0.029277671 -0.01786682
-0.035698976 -0.056575213 -0.05326198 -0.04392146 0.013405065 0.0105129285 0.013664075 -0.016658021
0.001589234 -0.018731324 0.025505671 0.05575685 0.041874632 0.056495942 0.065134436 -0.00073839625
0.044467553 0.05516077 0.045759514 -0.047562383 0.0041233473 0.008472054 0.049832545 0.024565013
-0.022226142 -0.03774076 0.052266944 0.0066949767 -0.043137006 0.00310634 0.022321027 0.00835797
0.041627087 0.02908653 0.013046722 -0.047064774 0.05731874 -0.02757152 0.034384526 -0.051018447
-0.063041195 0.039408453 0.067616865 0.013721888 0.04445137 0.022527914 -0.065591015 -0.04890599
0.035026073 0.041297413 -0.06319646 -0.046865873 0.049205303 -0.02048918 -0.038512368 -0.026000163
-0.057729326 0.0120040625 -0.0348112 0.0015817797 0.040464938 0.04801338 -0.028991506 -0.03733542

Y_net.net.4.bias f4 [256]
00000000: 9806 573d e69b 6ebd 6384 debc 79e4 9ebd
00000010: ee49 6ebd 7f47 123c db56 a5bd f28c 84bd
00000020: 8214 833c 0ea1 8dbd 1d55 b4bc e6b8 fd3c
00000030: fbe4 58bd 4862 d3bc 21fb a1bc 4451 98bd
00000040: 9ee8 0f3c 4d08 b13c c4f0 50bd 2d35 58bd
00000050: 02e3 e5b9 8c67 2fbc fa37 52bd 9b85 1fbd
00000060: aac1 183d e4aa 58bd ed06 afbc a259 84bd
00000070: e0ae fdbb 7bba 4ebd 3f2d 23bc 124d 4d3d
00000080: b6de a6bb 5019 223c e1ef 07bd 7e6d 04bd
00000090: 5875 14bd 8de1 2e3d 6b92 87bd b984 4ebd
000000a0: b01c 083c 369f 78bc 8fd5 703c f08c cbbc
000000b0: 141f 703d 7fb8 49bd 641f 43bc cba9 3abc
000000c0: 9c6d 22bd f97d 813c bd97 ac3c 4485 ec3c
000000d0: 58f9 05bd 1eb9 24bc da50 f23b 0e85 3f3d
000000e0: e331 023d fd44 7ebc 722b e238 554e 0fbd
000000f0: 22ae 8ebb e33d 613d 0ead 52bd eb97 35bd
00000100: 1808 52bd 523a 723d 3b0a 48bd 3761 df3b
00000110: 2601 cebc 94b6 ee3c 7c60 36bd 96dc 1cbc
00000120: ad92 e5bc 19c9 003d 2ff1 4cbc 4444 43bd
00000130: 767f 453d c06e 90bc 04ce 213d 3a99 883c
00000140: fcaf d439 410e debb 3834 2b3d 8a86 d63c
00000150: ea17 12bd 5e67 1bbd af19 42bd 0c4c 303c
00000160: f3b7 4cbd c849 e9bb dac8 08bd 3878 8fbb
00000170: bc6b 493c ea54 fabb a030 45bc 9f4d 89bd
00000180: 7ad6 2cbb fe9b 6dbd f50c 88bc da22 63bd
00000190: da53 81bd 58ff 7bbc 259f 64bd 3ce3 72bd
000001a0: bc06 2fbd b745 5c3c 5007 14bc 2d65 ad3d
000001b0: bfcc 8cbc d6fd 303b 85fa 80bc a156 283d
000001c0: 70e7 44bb ddf1 c7bc 91ca 5cbd e60f cbbc
000001d0: dbbb f83c a572 12bc 82b7 2b3c adc9 b5bb
000001e0: 4425 8cbd d8d3 ae3b 4798 18bd 0d48 c5bc
000001f0: 3eb9 923b c9d8 6e3d a0aa 81bc 2c44 f6bc
00000200: d8ba b73b 9d7d adbc 7a1f 7d3c ec18 62bd
00000210: 1bee 853c 809e b8ba 0a9e 91bd 1eeb ce3c
00000220: d691 7dbd 4d2d 433d 32d9 4b3d 64e2 31bd
00000230: 1f58 43bd eff5 9dbd a279 55bd f7fd 1abc
00000240: b1d5 f1bc a870 8dbd 086c 4b39 b02e b53c
00000250: 5f4e 0e3d 281e 6dbd b4e6 e1bb 0a8a 4cbd
00000260: 6929 ecbc ff31 50bd 44f1 893d af7f 373d
00000270: 0d9d 76bc 41fd bd3c 5f4a f83c 9d43 30bd
00000280: 6222 11bc c4c4 e83b 51dc 213a b6a4 62bd
00000290: 13ed f43c 21d3 b53c 8e28 093d 122b 09bd
000002a0: c6b9 be3c 2a99 7bbd 488e c33c 6459 4ebd
000002b0: ef17 403c e1c8 e63c 6140 53bd 2a36 afbd
000002c0: 0a17 8dba 0f47 87bc fee3 1cbd ee30 0cbd
000002d0: ad94 34bd 0ae8 acbc 5eda 13bc d4b5 c7bc
000002e0: 3240 3fbd 56fd b0bb dff1 a0bc 2ab8 3c3d
000002f0: b4e2 67bc 6d3e 0dbd ba7c bebc 3c57 e53a
00000300: 59e1 96bd 8c04 46bd 7325 6cbd 4c37 98bc
00000310: f7e0 02bd f66c 8cbd 05a5 78bd 97cd 94bd
00000320: c83e 313d 7562 3d3d ea8d 633b 7669 71bc
00000330: c394 01bd f401 34bd 9020 1a3c 30aa 8b3c
00000340: 7c1d 023d 166c cfbc c2c2 313d dab6 56bc
00000350: 4d3f 2abd 1f6f 10bd 48af edbc 06ff a3bc
00000360: 6831 0bbc 3579 c2bc bdd7 cdbb fffd 73bd
00000370: f110 4f3d e75f a6bb 1c92 0b3d 7853 66bd
00000380: 6842 d03c aa01 0ebd 6eea 8dbd 1261 28bd
00000390: f82f 26bd 51d8 8f3c e3fc 51bc fb88 04bd
000003a0: ef63 40bd ca14 0e3d 267d 243d 2795 e33c
000003b0: c2b9 093d a62e 703c 2be1 41bd 3402 71bc
000003c0: 25cc b43c f985 b13c 0be0 b43c 736a 77bd
000003d0: 7a5a a13c 2fd9 4ebd 4ab2 29bd b9c2 97bb
000003e0: 13d5 723c 0920 b5bb 70f0 c1ba 0d7a e03c
000003f0: 535c cebc 705a 17bd 2892 72bd 00fa 383b
0.052496523 -0.058254145 -0.027162736 -0.077584215 -0.058175974 0.008928179 -0.08073207 -0.06472196
0.01600099 -0.06915484 -0.022013241 0.030971956 -0.052952748 -0.0258037 -0.019773068 -0.07437375
0.008783488 0.021610403 -0.051010862 -0.052785087 -0.00043847418 -0.01070584 -0.051322915 -0.038945775
0.037294067 -0.05289735 -0.021365607 -0.064624086 -0.007741794 -0.05047081 -0.009959518 0.050122328
-0.005092467 0.00989373 -0.03318775 -0.032330982 -0.03624472 0.04269557 -0.06619724 -0.050419543
0.008307621 -0.015174678 0.014699354 -0.024847478 0.05862339 -0.049248215 -0.01190934 -0.011393021
-0.039655313 0.015807139 0.021068448 0.02887214 -0.032708496 -0.010053901 0.007394892 0.04675775
0.031785857 -0.015519378 0.00010784612 -0.034986813 -0.0043542543 0.05499066 -0.05143457 -0.044334333
-0.05127725 0.05913765 -0.04883788 0.006817009 -0.025147032 0.029139794 -0.04452561 -0.009574076
-0.028024042 0.03144178 -0.0125086745 -0.047672525 0.04821726 -0.017630935 0.039503112 0.016674627
0.0004056691 -0.0067766015 0.041797847 0.0261872 -0.035667337 -0.037940376 -0.047387775 0.0107603185
-0.049980115 -0.007119391 -0.033394672 -0.004378345 0.012293752 -0.007639517 -0.012035519 -0.06704258
-0.0026372955 -0.058010094 -0.01660774 -0.05545316 -0.063148215 -0.015380703 -0.055815835 -0.05929874
-0.04273103 0.013444356 -0.009034947 0.084665634 -0.017187474 0.0027006767 -0.015744457 0.04109824
-0.0030045174 -0.024407322 -0.05390412 -0.024787854 0.030363014 -0.008938466 0.010480763 -0.0055477233
-0.06843045 0.0053353123 -0.037254598 -0.024082208 0.004477649 0.05831221 -0.01582843 -0.030061804
0.0056069903 -0.021178061 0.015449399 -0.05519955 0.01634889 -0.0014085323 -0.07110222 0.025258597
-0.061906658 0.047650624 0.04976768 -0.043428794 -0.04769146 -0.07712924 -0.05211795 -0.009459964
-0.029520841 -0.06906253 0.00019399833 0.022116989 0.03474271 -0.057890087 -0.006893957 -0.04993633
-0.02882834 -0.05082893 0.06735471 0.044799503 -0.015052092 0.02319205 0.0303089 -0.04303323
-0.008858295 0.0071035344 0.00061744923 -0.05533286 0.029898202 0.0221954 0.03348594 -0.03348834
0.023281943 -0.061425366 0.023871556 -0.05037822 0.011724456 0.028171958 -0.05157507 -0.08555253
-0.0010764312 -0.016513376 -0.038303368 -0.03422635 -0.0440871 -0.021106739 -0.009024231 -0.024378695
-0.04669208 -0.0054012937 -0.019646583 0.04607407 -0.014153171 -0.034483362 -0.023252834 0.0017497311
-0.073672004 -0.04834418 -0.0576529 -0.018581055 -0.031952824 -0.0685672 -0.06070425 -0.07265776
0.043272763 0.046236474 0.0034722039 -0.0147346165 -0.03163601 -0.043947175 0.009407178 0.017048925
0.0317664 -0.025320094 0.043398626 -0.013105119 -0.041564275 -0.035262223 -0.029014245 -0.020019066
-0.008495666 -0.023739437 -0.0062818215 -0.0595684 0.050553266 -0.0050773504 0.034074888 -0.056231946
0.02542229 -0.034669556 -0.069294795 -0.0411082 -0.04057309 0.017559202 -0.012816641 -0.032357197
-0.046970304 0.034687795 0.040158413 0.027781082 0.033624418 0.014659559 -0.047333878 -0.014709998
0.02207 0.021670328 0.022079488 -0.060404252 0.019696463 -0.05050009 -0.041429795 -0.004631367
0.014821309 -0.0055275005 -0.0014796387 0.027401948 -0.025190508 -0.036951482 -0.059221417 0.0028225183

Y_net.net.6.weight f4 [256, 256]
00000000: 6b74 163d b007 2a3d 00be f83c dc80 df3c
00000010: 24f4 b83c 3442 f0bc fff3 2cbc fd26 c4ba
00000020: e03f 2a3c afa4 a63d 49a7 bcbc c880 0c3c
00000030: 3416 8abd 85e4 40bb 084a 6a3d dd76 efbc
00000040: 9165 a83c ba4a d5bb bc05 d2bc 18c2 883d
00000050: c6da 373d 8588 c5bc 1765 0dbd 231f 20bd
00000060: 4933 8d3d 1a18 933d eb2d d9b9 85a8 d03c
00000070: 4e95 8d3d 9455 5f3b 8bc5 29bd 209c fabc
00000080: 8f51 cbbc 1000 5c3d 219e 893d e08a 823c
00000090: 685a b9bc 7cae 773c 8fa3 75bb bd83 62bc
000000a0: c07c 02bd 9831 fa3c cb3d 0b3d 07e6 993d
000000b0: 0fef 59bc b584 013d 4ed2 0fbd 0841 763c
000000c0: 1600 1c3d 7a76 25bd 8824 3b3b 23fa 283d
000000d0: 1c3d 70bc 7525 0dbd f14a ab3d 6d1e ad3a
000000e0: b23a c83c 646e 4e3d ebee 04bd 1a25 3bbb
000000f0: b984 6d3d 7ac8 88bd 70d5 093d c792 c9bb
00000100: c86a 29bd ebf0 36bd 8ca3 c6bc 8f45 60bd
00000110: 2c7d a6ba 4cc9 933d bcd0 09bd 35dd 65bd
00000120: 460b 943d 569a 30bd acf4 dd3c 8e39 513d
00000130: 96bf 953d 1ac4 863d 3efd 58bb 9a50 973d
00000140: 0afd 6c3d 0bc8 c93c 8fc4 a23d 58ef 2cbd
00000150: 65a3 6b3d 08e4 2cbd 8735 b7bc f824 60bc
00000160: f20d 6dbc 9eba f73c 7a1b 2f3d da4b 883b
00000170: 27e8 47bb a9fa 1b3d f8e1 6f3c d4f9 55bd
00000180: 69d3 133d 26f6 053d 78da 83bb 8443 36bb
00000190: e983 873d ad00 38bd 3acf f7bc 9e09 16bd
000001a0: 2f11 0ebd a7f0 693d d499 b63c a174 d33c
000001b0: 4d39 6dbc f27a 013d 8f69 c1bc d27e b33c
000001c0: c8e2 1a3d 7c5e 73bd 27aa 373c c1e6 843d
000001d0: 1d1a 04bc e598 aa3c 07f9 1e3d b251 4ebc
000001e0: 72c5 353d 464a b13c 2fe2 b6bb 53e0 0c3d
000001f0: e18a 6cbd 3a9d ff3c 0e2b f53b 68d4 6abd
00000200: f108 983b 9e70 ae3d 40f7 873c 1f40 0c3d
00000210: 40f4 843d d843 66bc 11fc 043c 96cb 93bc
00000220: 7d6c 843d 1272 983b 5584 26bd 4fba e9bb
00000230: afae 3ebb d991 7e3d d3d9 18bd 35a8 28bd
00000240: 3ac3 cc3d 7916 19bc f91a 4bbd 0ee3 b93d
00000250: e6ba 2fbd 904f 8fbb f5e0 8a3c dea1 85bb
00000260: 76ea 8d3d 597c cd3c 8311 5abd 6749 813c
00000270: 66f1 d1bb 2d8c 8c3d eac9 b23c ad73 2abd
00000280: 9096 72bc 5375 543d 88aa 893c de58 623c
00000290: eb11 5fbd 4c6f fcbc a4c7 9a3d 295f eabc
000002a0: 5152 483b d672 1abd a7b1 7dbc 7a43 b7bb
000002b0: 02b9 693c f3b7 33bd cc80 c3bc c76c 013d
000002c0: dec3 0fbd fd96 913d aea9 8c3d fb19 d8bc
000002d0: a1b2 513d af5b 40bd 2c91 b73c d18f 0cbd
000002e0: cd48 633d e6e3 01bd b1a0 fd3b 5cc8 9ebb
000002f0: 2784 783d d094 093d 345a 8fbd a8dd 8c3d
00000300: 4939 bf3d 1c0c a2bc bdeb 59bc 98c2 20bd
00000310: 1760 f2bc 9663 193d 1729 af3c 14de 35bd
00000320: 99ae 073d e70b 10bc a8d1 55bc 5f1d b93c
00000330: 16ce 05bb 543e ebbc 95e3 623d e172 05bd
00000340: 40c0 46bc a7a8 05bc a767 333d 950c 3bbb
00000350: 5774 403c 8f52 80bc 498c 683d 79f3 88bd
00000360: d8e0 d1bc 78cd c83d c9b1 12bd 6158 953d
00000370: 7c3d 78bd 3cb1 2fbc 0802 503d 0295 3ebd
00000380: a6a9 43bd 8011 8b3b 56a3 72bd ae27 173d
00000390: 7f62 673c f8f1 b3bc 9d5e 533d b376 dfbc
000003a0: ad81 863a 2ae2 f2bb e593 343d 096d 483b
000003b0: ffd6 1d3d 0552 6a3d 6154 c6b9 567f 8f3b
000003c0: 8f1a 5ebd 02db aa3d 99fa c3bc 4dad fcbc
000003d0: 72eb 343d 649d a83c e4f4 603c b9bd a8bc
000003e0: 49cf 5cbd 006a 683c 0181 6d3d 672f 3c3d
000003f0: 730c 813d 2540 b43c 1489 643d 12c1 653d
0.03673212 0.041511238 0.030364037 0.027283125 0.022577353 -0.029328443 -0.01055622 -0.0014965233
0.010391206 0.0813688 -0.023028987 0.008575626 -0.06742516 -0.0029433083 0.057199508 -0.029231483
0.020556243 -0.0065091522 -0.0256375 0.066776454 0.044886373 -0.02411295 -0.034520235 -0.039092194
0.068945475 0.071823314 -0.00041423677 0.025470981 0.06913243 0.0034078108 -0.041448157 -0.030592024
-0.024819164 0.053710997 0.06719614 0.015935361 -0.022626117 0.015117284 -0.0037481522 -0.013825354
-0.031857252 0.030541226 0.033994477 0.07514577 -0.013301625 0.0316207 -0.03511267 0.015030153
0.03808602 -0.04039619 0.002855571 0.041254174 -0.014663007 -0.03445955 0.08363903 0.001320792
0.02444205 0.050398245 -0.032454412 -0.002855605 0.057987902 -0.06678863 0.033650815 -0.0061515304
-0.0413616 -0.04466335 -0.024247907 -0.054753836 -0.0012702099 0.07216129 -0.03364633 -0.056119163
0.07228713 -0.043115936 0.027094208 0.05108028 0.07311933 0.06580372 -0.0033109928 0.073884204
0.057858504 0.02463152 0.07947647 -0.042220443 0.057528872 -0.042209655 -0.022364391 -0.013680689
-0.014468657 0.030240353 0.042750813 0.004159433 -0.0030503364 0.038080845 0.0146412775 -0.052240208
0.03609029 0.03270545 -0.0040238462 -0.0027811239 0.06616957 -0.04492252 -0.03025018 -0.036630265
-0.034684356 0.05711427 0.022290148 0.025812449 -0.014478994 0.03161139 -0.023609905 0.021911059
0.03781393 -0.05941628 0.011210001 0.06489325 -0.0080628665 0.020824859 0.03881171 -0.01259272
0.04437775 0.021641862 -0.0055811624 0.03439362 -0.057749633 0.031202901 0.007481939 -0.057331473
0.004639738 0.08517574 0.01659739 0.03424084 0.064918995 -0.014054261 0.008116738 -0.018041413
0.06466005 0.00465227 -0.040653545 -0.0071328054 -0.0029095819 0.06215081 -0.03731711 -0.04117604
0.09998174 -0.009343737 -0.04958627 0.0907651 -0.04290285 -0.0043734983 0.016952971 -0.004078134
0.069294855 0.025083708 -0.053239357 0.015782071 -0.0064069508 0.06862674 0.021824796 -0.041614223
-0.014806405 0.0518697 0.016804948 0.013815133 -0.054460447 -0.03081479 0.0755761 -0.028609829
0.0030566643 -0.037707172 -0.01548425 -0.0055927606 0.014265301 -0.0438766 -0.023865126 0.03159788
-0.035098903 0.07108877 0.06868301 -0.026379576 0.051195744 -0.046962436 0.02240809 -0.03431684
0.05548935 -0.03171148 0.007740103 -0.004845662 0.060672905 0.033589184 -0.06999627 0.06878215
0.09337098 -0.019781165 -0.013300833 -0.03924808 -0.029586835 0.03744849 0.021381898 -0.044401243
0.033125494 -0.0087919 -0.013050474 0.022597013 -0.0020417026 -0.028716244 0.05539282 -0.03258026
-0.012130797 -0.008157886 0.043800022 -0.0028541435 0.011746488 -0.015664367 0.05677441 -0.06687064
-0.02561991 0.09804815 -0.03581408 0.072922476 -0.06060551 -0.010723408 0.050783187 -0.046528824
-0.04776921 0.0042440295 -0.0592378 0.036903076 0.014122604 -0.021965966 0.051603902 -0.02727828
0.0010262035 -0.0074122148 0.044086356 0.0030582568 0.038535114 0.057207126 -0.0003782837 0.0043791933
-0.054224547 0.08342554 -0.023923205 -0.030844355 0.04416985 0.020582862 0.0137302615 -0.02059828
-0.05390862 0.014185429 0.057984356 0.045943644 0.063012026 0.022003243 0.05579479 0.05609233
