models/saved/simple_hjb_model_fc_analytical_q_very_good.pth (torch, 798549 bytes, 9 tensors)

Y_net.net.0.weight f4 [256, 2]
000000 59 81 99 be c7 e2 05 bd 95 0e 12 bf f2 96 00 3f
       -0.29981497 -0.032686975 -0.570535 0.50230324
000010 7d 24 dc 3d 1c a5 01 be 9a c4 7b 3e f6 1a aa bd
       0.10749147 -0.1266064 0.24586716 -0.08305924
000020 76 a1 11 bf cc e4 b5 be fd d9 2b bf aa 96 4c be
       -0.56886995 -0.3552612 -0.671295 -0.19979349
000030 f5 cb 3a 3f 01 bd 03 be ee 45 c8 be 21 e6 50 3e
       0.72967464 -0.12865068 -0.39115852 0.20400287
000040 79 87 0f bf c0 eb 0d 3c f4 14 2a be b2 39 28 3f
       -0.5606609 0.008662164 -0.16609555 0.65713036
000050 f2 4f 06 be d8 41 cb 3e 09 18 ac be fb e0 87 3d
       -0.13116434 0.39698672 -0.33612087 0.066347085
000060 73 69 d9 3e f3 5f 50 3e a5 b5 b0 3d 79 86 8a be
       0.42463264 0.20349102 0.08628396 -0.2705572
000070 44 6a 07 bf 48 86 b8 be a0 a6 59 be c0 13 05 3c
       -0.52896523 -0.36039948 -0.21254969 0.008122385
000080 fb 6d f4 be 57 dc 94 be d4 5b 93 bd af 83 f1 be
       -0.47740158 -0.29074356 -0.07195249 -0.4717078
000090 85 f6 d1 3e 3a dc 1b bf a7 39 d7 be 85 e1 10 bf
       0.41008392 -0.60882914 -0.42036173 -0.56594115
0000a0 13 a2 ae be 5d 4c 0f 3f f2 44 61 3e 8a 25 90 be
       -0.34108028 0.55975896 0.21998957 -0.2815364
0000b0 92 51 13 bd 67 b0 f4 bd 3b 92 f5 3e c9 05 9e 3e
       -0.035966463 -0.119477086 0.47963127 0.3086379
0000c0 0c 09 83 3e 7f 2c f6 be 5c 8e 35 bf d3 7e 0f bf
       0.2559284 -0.48080823 -0.7092035 -0.56052893
0000d0 01 a6 31 bf 86 f4 8b be f4 37 c3 be e3 3c cf 3d
       -0.69393927 -0.27334994 -0.38128626 0.10119035
0000e0 97 80 5d 3e 83 e2 a7 be e1 62 2d bf b3 f7 85 3e
       0.21631084 -0.32790002 -0.67729 0.26165542
0000f0 ec fe bf be 33 fc c9 3e 33 75 0d 3f d8 0e 22 bf
       -0.37499177 0.39450225 0.55256957 -0.633039
000100 17 6c f6 bd fa 5b 02 bf a7 f0 ce be b8 b3 52 be
       -0.12032335 -0.50921595 -0.40417978 -0.2057637
000110 b1 39 33 3e 56 ab b5 3e 2f d2 57 be 01 ca f3 bd
       0.17502476 0.3548228 -0.21076272 -0.119037636
000120 85 7f 81 3e b7 62 3e 3e c2 c0 03 bf c6 94 3f 3e
       0.25292602 0.18592344 -0.51466 0.18709096
000130 51 4e 25 be b8 78 1f 3f 42 43 c4 3e e9 1d a7 3e
       -0.16143157 0.6229358 0.38332564 0.32640007
000140 57 3b 57 bd 5b 71 0f 3e 05 fe d1 be ac e0 0a bf
       -0.052546825 0.14008085 -0.41014114 -0.5424907
000150 34 0a bf 3e dc 2f 12 3e 8a b1 18 bf 37 fa a9 be
       0.37312472 0.1427607 -0.59645903 -0.3319871
000160 bd 75 a6 be 0a a7 12 3f f0 c4 96 be d9 ed 88 3e
       -0.32511702 0.5728613 -0.29447126 0.26743963
000170 df 51 48 3e c5 6a ec 3d c1 e9 cc be 53 77 d6 3e
       0.19562481 0.11543802 -0.4002209 0.41887912
000180 3a 3d 11 3f 3e a1 0e 3e d8 75 00 3f 99 1d 91 3e
       0.5673405 0.13928697 0.50179815 0.28342894
000190 9b d8 ee be aa a8 58 be 34 62 14 bf 61 7d e0 be
       -0.46649632 -0.2115809 -0.57962346 -0.43845657
0001a0 8a 1d c1 be 65 c6 66 be e5 66 2c bf a1 cf c8 be
       -0.3771785 -0.22536619 -0.67344505 -0.39220908
0001b0 f9 db 36 3e 2a cc 18 bf 79 09 1f 3f 09 00 42 be
       0.1785735 -0.5968653 0.6212383 -0.18945326
0001c0 1e 94 b3 be f5 0c f2 be 31 dd 65 3e 22 2f 67 3d
       -0.35073942 -0.4727551 0.22447659 0.056441434
0001d0 f6 ba 95 3e 54 ab 74 3e af ad 74 bd c3 db 22 3d
       0.29244202 0.23893481 -0.05973595 0.039760362
0001e0 ce c8 25 3e 1a 5a db be 74 df 98 3e 0a 8a 37 be
       0.16189882 -0.4284218 0.2985798 -0.17923751
0001f0 93 a3 3e bf 96 e5 dc 3e 55 61 d1 3c f5 9a bd 3e
       -0.74468344 0.4314391 0.025559107 0.37032285
000200 3b a5 da 3e 95 6a 2d bf 18 68 e1 be 7a 1f 4d 3e
       0.42704186 -0.67740756 -0.4402473 0.20031539
000210 0c 00 03 be 53 72 cf be a7 2a d2 be 63 82 e5 3d
       -0.12792987 -0.4051691 -0.41048166 0.1120651
000220 20 08 10 bf 9d b9 e5 be 95 65 1e bf e5 09 44 3e
       -0.562624 -0.44868174 -0.6187375 0.191444
000230 ec 34 9f 3e 25 46 0c 3e cc fd 8f be 9c f5 e3 be
       0.31095064 0.13698633 -0.2812332 -0.44523323
000240 4e 83 63 be 00 88 95 3a 02 32 24 bf 75 04 cc be
       -0.22218058 0.0011408329 -0.64138806 -0.3984715
000250 94 b5 40 bf 26 a8 b3 3e 37 e8 33 be 64 80 e7 bd
       -0.75277066 0.35089225 -0.17569052 -0.113037854
000260 cb 05 e0 3e d8 d0 d7 3d 39 64 97 3d 6e 8c 29 3f
       0.4375442 0.10537881 0.07392163 0.66229904
000270 2a 13 e1 be 30 18 59 be 8a 06 3f bf 1d fb 89 be
       -0.43959934 -0.21200633 -0.7461935 -0.26949397
000280 50 c5 03 be c0 32 99 3c 9e 2e 1a 3f b4 0b ba be
       -0.12868237 0.018700957 0.6022738 -0.36337054
000290 d3 fb ad be aa b6 75 bc 98 8c 30 3f 1c fa 8a 3e
       -0.3398119 -0.014997164 0.6896453 0.27143943
0002a0 e5 62 b3 be 84 29 02 bf 09 4a 0b 3f e9 97 1d bf
       -0.35036388 -0.508446 0.54409844 -0.6155992
0002b0 f6 cb 03 bf c0 01 96 3c 74 91 0b bf b0 65 15 bf
       -0.51483095 0.018311381 -0.5451882 -0.5835829
0002c0 6c c3 f5 be 0d 58 22 3f 9f 06 33 bf 5c 78 99 3e
       -0.48000658 0.63415605 -0.6993198 0.2997464
0002d0 01 3c 52 be 0c 64 8c 3d 1c ed 45 be 80 83 4a bd
       -0.20530702 0.0685502 -0.19328731 -0.049441814
0002e0 e6 a1 0c 3f 4e 57 51 3e 40 ae a3 3e aa 73 1c bf
       0.5493454 0.2044346 0.3196888 -0.6111399
0002f0 e3 81 e4 3d 3e 89 02 bf df e6 e6 3e 79 f7 30 bf
       0.111575864 -0.50990665 0.45098016 -0.69127613
000300 d8 90 04 3f e4 e7 11 3f d9 f4 44 bf 65 87 85 be
       0.51783514 0.5699446 -0.7693611 -0.2607986
000310 90 89 f4 3e 37 e8 63 3e 9d 25 81 3e 67 4f e1 3e
       0.47761202 0.22256552 0.2522401 0.44005892
000320 16 5a 1a bf db b7 a3 3e 88 91 e2 3e ef 06 e1 3e
       -0.6029371 0.31976208 0.44251657 0.43950602
000330 fd e1 06 be b6 ab 6c be ef 78 11 bf c1 bb 12 3f
       -0.13172145 -0.23112378 -0.56825155 0.5731774
000340 cc b6 fb be 66 88 1f bf ec b9 b9 be c7 48 ee 3d
       -0.491629 -0.623175 -0.3627466 0.11634975
000350 ba 74 02 bf e0 57 ef be 4c 02 ee be 80 a6 b0 bc
       -0.5095936 -0.4674673 -0.46486127 -0.021563768
000360 d2 96 2c bf a3 a4 56 3e f8 c8 37 bf 61 e6 3a bc
       -0.67417634 0.20961241 -0.7179103 -0.011407466
000370 bb da 7b 3e d4 25 81 3d 15 83 19 3f c0 b5 32 3f
       0.24595158 0.06306043 0.5996564 0.6980858
000380 16 43 95 3e 2f 8d 5d be 94 25 8f 3e 34 e9 fc 3d
       0.29152745 -0.21635889 0.27958357 0.123491675
000390 34 33 05 bf a8 a2 75 be fd 92 68 3d 3d fa 1c 3f
       -0.52031255 -0.2398783 0.056780804 0.61319333
0003a0 54 fc 4e be 3d 15 25 bf 41 29 aa 3e 72 59 11 3f
       -0.20213443 -0.6448553 0.332346 0.5677711
0003b0 98 74 ca 3e 1f bd d8 3e 59 66 20 bf fa 8e 09 bf
       0.3954208 0.42331788 -0.6265617 -0.5373379
0003c0 58 17 64 3e 1c 45 a8 3e 2b 6f a2 be b3 a8 85 3e
       0.2227453 0.32865226 -0.3172544 0.2610527
0003d0 a4 1a 1b be 65 54 02 3e 09 6e 1e 3f 15 fa e8 be
       -0.15146881 0.12727506 0.6188665 -0.45503297
0003e0 2e d6 e1 3d f3 b5 1b be 06 30 b6 be 4c c9 c6 be
       0.1102718 -0.15206127 -0.35583514 -0.38825452
0003f0 c2 94 db bd f8 aa 21 bf fc 76 d1 bd 5e 56 1a bd
       -0.10721733 -0.631515 -0.102277726 -0.037680022

Y_net.net.0.bias f4 [256]
000000 7a 5f 2e 3f bf d3 39 bf 35 22 72 3e 6c 70 03 3f
       0.68114436 -0.72588724 0.23645861 0.5134342
000010 c0 81 56 3e d5 c7 bf 3d 28 fc db be d6 6e 0d 3f
       0.20947933 0.09364287 -0.42965817 0.5524725
000020 60 a6 73 be b5 a6 6c bd 42 53 bd be f4 77 d9 3d
       -0.23793936 -0.05777617 -0.36977583 0.10618582
000030 75 e0 23 3d f8 03 76 3d ca 1d 22 3e c0 ac b2 bc
       0.04000898 0.06006238 0.15831676 -0.02181089
000040 45 d6 2e bf 6e cf 34 bd 51 b8 20 bf c8 32 18 bf
       -0.682957 -0.044143133 -0.62781245 -0.59452486
000050 8f d4 86 be b9 ca 16 3e 4c f7 2e bf ce 33 11 bf
       -0.26334044 0.1472577 -0.68346095 -0.5671967
000060 b5 a5 8b bd 02 41 ea 3e fa 5e d7 be 49 a1 88 3e
       -0.068187155 0.45752722 -0.4206465 0.2668555
000070 e1 f4 fb 3e 34 c0 c8 bb f8 25 a0 be 1a c1 99 3d
       0.49210265 -0.006126428 -0.31278968 0.07507534
000080 49 43 1a 3e d6 52 76 be e6 3a 31 3f 9b af be be
       0.1506473 -0.24055037 0.69230497 -0.3724335
000090 a0 c4 f2 be b5 d4 c3 be 31 d7 32 3f 66 90 ee 3d
       -0.47415638 -0.3824822 0.69859606 0.116486356
0000a0 68 d6 3c 3e a6 ea 05 3f df 8b 35 3e c8 f7 cd bd
       0.18441164 0.5231117 0.17729138 -0.10057026
0000b0 a5 24 fb be fe 87 2e bf df 54 e0 3d 75 96 e6 3e
       -0.49051395 -0.6817626 0.10953688 0.45036665
0000c0 ca 5d d9 be eb 17 2e 3f 10 a3 3d be 57 e5 fd 3e
       -0.42454368 0.68005246 -0.18519235 0.49589035
0000d0 32 6f 18 3f df e5 b6 3e cb bb 25 bf 68 60 d3 bc
       0.5954467 0.35722253 -0.64739674 -0.025802806
0000e0 4d a9 1b bf 3c 7b 0b 3f 07 4a af be 9e ff 18 3f
       -0.6080521 0.54484916 -0.34236166 0.5976504
0000f0 f7 72 00 3e 46 a6 a9 be 8f 43 16 bf 04 6e 52 be
       0.12543856 -0.3313467 -0.58696836 -0.2054978
000100 f6 52 a7 3c a0 55 09 bf db 83 1a 3f 37 0d 22 be
       0.020425301 -0.5364628 0.60357445 -0.15825354
000110 99 fb 19 bf bd 25 1b 3f 8b 00 7c be 74 a6 4a be
       -0.6014953 0.6060446 -0.24609582 -0.1979006
000120 52 a0 10 bf 8b cc 05 be 7a 66 a5 be 59 09 a4 be
       -0.5649463 -0.13066308 -0.32304746 -0.32038382
000130 06 cf 7e be 26 b8 fb 3e 67 41 21 bf 5b d2 0b bf
       -0.2488366 0.49163932 -0.6299042 -0.5461785
000140 45 fd 6d 3e 7f 2b 9d 3e 66 be 09 3f 63 a8 24 bf
       0.23241146 0.30697247 0.5380615 -0.6431944
000150 da 95 17 3f 29 f5 25 3f b8 d3 a4 bd 9b 5e 1b bf
       0.5921303 0.6482721 -0.08048195 -0.6069123
000160 f9 7a c5 be 3b f2 3f 3d 86 66 69 be 31 ea 0d bf
       -0.38570383 0.04686187 -0.22793016 -0.5543547
000170 1b 22 98 bd 6f e9 03 bf b6 93 00 3f 16 b9 16 bf
       -0.0742838 -0.51528066 0.5022539 -0.5887617
000180 68 fe 13 3f 1d f7 f7 bd 99 8d 14 bf 30 5c 18 be
       0.5781007 -0.1210768 -0.5802856 -0.14878917
000190 e2 7c d5 3e 62 61 02 bf 09 05 aa be 21 3e 70 3e
       0.4169684 -0.50929844 -0.33206967 0.234612
0001a0 d3 de db be f2 24 a0 be 87 e1 f4 3e 7e 37 98 be
       -0.4294344 -0.31278187 0.47828314 -0.29729837
0001b0 2e 81 05 bf 4a 63 2b 3f 84 57 3f 3e 44 ad 82 bd
       -0.5215024 0.6694838 0.18685728 -0.06380704
0001c0 70 aa 22 bf 57 a7 35 3e 11 7c ba 3e 5f 16 23 3e
       -0.63541317 0.17739616 0.3642278 0.15926503
0001d0 57 2e 16 3f be 41 40 3d f2 ad 6f bb 1a c3 b2 be
       0.5866446 0.046937697 -0.0036572185 -0.34914476
0001e0 42 bc 26 3f d1 86 9c be b6 08 18 bf 22 d4 d1 be
       0.6513101 -0.30571607 -0.5938829 -0.40982157
0001f0 a4 0c e3 bd 53 a7 9d be 97 52 60 3a d7 1b 3f be
       -0.110863954 -0.3079172 0.0008557229 -0.18662964
000200 d9 6c 1b bf 52 e1 7a bd d9 5d 4d 3c 60 11 91 3e
       -0.60712963 -0.06125004 0.012534582 0.2833357
000210 8f 05 ba be 64 7f 05 bf 54 af fd 38 55 57 34 be
       -0.36332366 -0.5214751 0.000120966375 -0.1761144
000220 19 69 1a bf 15 71 ff 3e ae d6 a9 3e 64 f8 57 be
       -0.60316616 0.49890962 0.331716 -0.21090847
000230 8f 8c 2e 3e a4 57 a9 3e 10 43 12 3f 4f af 29 bf
       0.17045806 0.33074677 0.5713358 -0.66283125
000240 73 0c 71 bd 6e 6d 46 3e 69 9e a7 3e a3 b9 97 be
       -0.058849763 0.19377682 0.32738045 -0.29633817
000250 a5 b4 10 3e 5d b7 70 be 99 a2 0f bf 0d 4d 89 be
       0.1413141 -0.23507448 -0.5610748 -0.26816598
000260 41 a2 9a be ef 72 87 be 4e b8 cb 3d d7 c2 f2 3e
       -0.30201915 -0.26454875 0.09947263 0.47414276
000270 f6 9a 25 bc 37 bc 35 bf 8a bf a4 be f4 e2 f4 3e
       -0.010107746 -0.7099032 -0.32177383 0.47829401
000280 1e 21 d8 3d 1d c6 15 3f 01 14 2c 3f 04 53 f6 bd
       0.105531916 0.5850542 0.67218024 -0.12027553
000290 3e 23 b7 be 09 71 0d bf d9 13 ae 3e 73 c4 a3 be
       -0.35769075 -0.552506 0.33999518 -0.31985816
0002a0 22 cb cf 3e ed 04 90 3e 0b 9c 26 be d6 76 a6 3e
       0.40584666 0.28128758 -0.16270463 0.3251254
0002b0 43 43 21 be 9f 5e c6 3e ce 2b d2 be 22 32 02 be
       -0.15748315 0.38744065 -0.41049045 -0.12714437
0002c0 2c 1c d3 3e c4 39 85 be 8e 06 e2 3e 2b ec d1 be
       0.4123243 -0.26020634 0.44145626 -0.41000494
0002d0 71 85 07 bf d1 f7 c4 3e a3 5e 87 be 24 65 02 be
       -0.5293799 0.3847032 -0.2643939 -0.12733895
0002e0 f1 2e 24 3f 2d aa 07 bf 28 19 10 3f 2a ea c8 3e
       0.64134127 -0.5299404 0.56288385 0.39241153
0002f0 df 07 c8 3e 67 37 30 3f 98 bd 0d 3d b2 a7 64 3e
       0.39068505 0.6883454 0.03460464 0.22329596
000300 ed ff 3b 3d eb 69 bc 3e 65 93 19 3f 00 87 14 bf
       0.045898367 0.3679956 0.5999053 -0.58018494
000310 75 9d 0d bf 55 32 ae be 27 ff 04 3f 98 1e 9c 3e
       -0.55318385 -0.34022775 0.5195183 0.3049209
000320 c9 1d e5 3e d6 70 8e 3e 9c 39 f8 be a2 07 28 bf
       0.44749287 0.27820462 -0.48481452 -0.65636647
000330 05 fa b6 3e c3 91 bb be d0 7d 2f bf 8c 9f f2 be
       0.35737625 -0.36634645 -0.6855135 -0.4738735
000340 8c e8 a9 be a8 8f 05 bf 08 3d f7 be 1b 44 f6 3e
       -0.33185232 -0.5217233 -0.4828875 0.48098835
000350 a4 07 eb 3e f3 66 c3 3e bc 88 0b 3f 3c 19 42 bf
       0.45904267 0.38164482 0.54505515 -0.75819755
000360 6f ea cd 3e c2 09 1f 3f c9 6e f4 be de fb 6e 3e
       0.4021792 0.62124264 -0.47740772 0.23338267
000370 6c e5 6e be e9 98 1f bf c0 66 e4 bd 50 17 ba 3e
       -0.23329705 -0.623427 -0.111524105 0.3634591
000380 c4 6f 71 be 19 b9 01 3e 1d cc 16 bf ba 98 f9 3e
       -0.23577791 0.12668265 -0.589052 0.48749334
000390 7f 5b cd 3e d9 06 b7 be 33 5a c7 3e 96 07 55 3e
       0.40108868 -0.35747412 0.38936004 0.20803675
0003a0 98 02 17 bf bd 09 0e bf 3d db 95 3e 4b 60 c0 be
       -0.5898833 -0.5548361 0.29268828 -0.37573466
0003b0 dc d4 05 bc 1b 20 53 3e a5 80 be be b0 ec 32 3e
       -0.008168425 0.20617716 -0.37207523 0.17473102
0003c0 70 2b 38 3f 6b 72 eb be 79 da 0a bf 05 73 81 be
       0.7194128 -0.4598573 -0.5423961 -0.25283065
0003d0 e1 27 d0 be 4c 0e 5b 3d 50 87 27 3f 92 67 af be
       -0.40655425 0.05348043 0.65440845 -0.34258705
0003e0 01 e6 18 bf e9 97 da 3e d2 8e 44 bd f7 c2 cd 3d
       -0.5972596 0.42694023 -0.047987767 0.10046952
0003f0 63 76 19 bf 2b a3 4f be e5 f2 1e bf c4 25 6c be
       -0.5994627 -0.20277087 -0.6208938 -0.23061281

Y_net.net.2.weight f4 [256, 256]
000000 43 68 7d bd e3 cd c2 3c a7 05 42 bd 6a 13 96 3c
       -0.06186701 0.023779815 -0.04736867 0.018319804
000010 44 83 27 bd 2e b9 8e bc 40 47 84 bc cc 60 3f 3d
       -0.04089667 -0.017422285 -0.016147256 0.046723172
000020 50 59 42 bd 8d b2 53 bd d7 c4 31 3d 98 90 0c 3d
       -0.047448456 -0.05168395 0.04340061 0.034317583
000030 6c b1 73 bd 3b c6 13 3d 8b 51 86 bc 6c ff 1e 3d
       -0.059495375 0.03607772 -0.016396305 0.038817808
000040 d4 7b 3d bd 74 38 2a bd de 35 87 3c 5c 9f 3f 3d
       -0.04626067 -0.041557744 0.016505178 0.046782836
000050 19 de d7 3c f8 58 0c bc d2 2c ee bc 2a 00 c5 3c
       0.026351022 -0.008566134 -0.029074106 0.02404793
000060 85 ac 10 3d d7 19 83 3c 50 ef b7 3c dd 9b e6 3c
       0.035320777 0.016003532 0.02245298 0.028150493
000070 74 6a 61 3c 24 1c 30 3d df a4 2d 3d 58 90 2b 3b
       0.013758291 0.042995587 0.04239356 0.0026178565
000080 fd 31 53 3d 94 6d 60 3b f3 ab 49 bd 4c d8 f4 bc
       0.051561344 0.0034245 -0.04923625 -0.029888295
000090 ed 13 17 bd 85 17 bb 3b 02 0d 04 bc d7 f8 2e 3b
       -0.036884237 0.005709591 -0.008059742 0.0026698613
0000a0 94 ba 0f 3d 2e 71 18 bd 6f 7b 82 3c 77 52 49 bd
       0.035090044 -0.03721731 0.015927998 -0.04915091
0000b0 48 fa a1 3c c3 56 81 3c c8 6f f8 3b dc e4 f4 bb
       0.019772664 0.015788442 0.0075816847 -0.007473571
0000c0 a3 f4 10 bd ca e9 37 3d 4c a1 26 3d a1 88 ce bc
       -0.035389554 0.044900693 0.04068117 -0.025211634
0000d0 91 06 21 bd 2d 2e fb bc 69 cb 64 bc 93 23 77 bd
       -0.039312903 -0.030661667 -0.013964512 -0.06033666
0000e0 c2 b1 2c 3d d8 85 98 bd 68 67 18 bd 98 10 31 3d
       0.04216171 -0.07447404 -0.03720799 0.043228716
0000f0 32 47 a3 bc df e1 00 bd 40 6a 26 3d af 69 4a 3c
       -0.01993141 -0.031465407 0.04062867 0.0123542985
000100 69 de 1d 3d 6a cf 1f bd 4d 0e 35 bd cc a1 b5 bb
       0.038542185 -0.039016165 -0.04420309 -0.0055429693
000110 90 e1 67 bd c2 2b 28 bd 25 32 1a bd 8a 5f e6 bc
       -0.056611598 -0.041057356 -0.037645478 -0.028121728
000120 d0 9e 48 3c b2 eb 95 3b 8f 86 c4 bc 1a 53 2d bd
       0.012244895 0.004575216 -0.023989944 -0.04231558
000130 e7 37 ee 3c 07 d4 5b bd 6e 3f 46 3d 71 3c a4 3c
       0.02907939 -0.053669002 0.048400335 0.020048352
000140 02 37 53 bb 84 b1 a8 3c d3 4d 93 bd d1 82 dc 3c
       -0.0032228832 0.020592459 -0.07192578 0.026917847
000150 2f 92 53 3d 57 dd bf bc 10 9c 34 bd 40 50 45 bd
       0.051653083 -0.023420973 -0.044094145 -0.048172235
000160 bc 5b 6b 3c 5c ae 77 3d 21 a0 69 3c 58 b8 33 3d
       0.014365133 0.060469016 0.014259369 0.043876976
000170 fe ec 27 3d b5 fb 60 3d 3e 26 2c 3d 44 d1 22 3d
       0.040997498 0.054927547 0.042028658 0.039750353
000180 5e c3 3d 3d 14 b6 b7 3a 7d f5 54 3d 65 40 26 3c
       0.046328895 0.0014016056 0.05199193 0.010147189
000190 d9 2c 65 3d 41 a6 2e bb 65 ca 2f bd 6e e6 5c 3d
       0.055950973 -0.0026649388 -0.042917628 0.053930692
0001a0 65 8e 19 bd 33 12 ab bc 50 2d 13 3d 14 56 8a 3c
       -0.037489314 -0.020882702 0.035931885 0.016886748
0001b0 83 80 c3 bc 18 de 9b 3c 7b aa 71 bd 49 6f 88 bd
       -0.02386499 0.019026801 -0.059000473 -0.06661851
0001c0 11 4d e6 ba 41 4e 0c 3c af f1 ca bc 6b 9a e9 3c
       -0.0017570575 0.008563579 -0.024773447 0.028516015
0001d0 26 3e 57 bd e2 d6 56 3c c1 df 3d bd c2 b9 a6 3c
       -0.052549504 0.0131127555 -0.046355966 0.020352248
0001e0 5d fe 9f 3b a6 4a 56 bd 88 93 de 3c 5e cc de bc
       0.0048826174 -0.052317284 0.027169958 -0.02719706
0001f0 4d 9d af 3c 74 06 28 3d b7 cc e2 3b 13 77 86 3d
       0.021437312 0.04102178 0.0069213766 0.0656568
000200 1c d1 3b 3d 15 2f 86 bd 61 12 23 3d 67 30 11 bc
       0.04585372 -0.06551949 0.03981245 -0.008861638
000210 c5 a0 b4 bc 20 88 34 bd e2 28 57 bd cd 00 0f bd
       -0.022049317 -0.04407513 -0.052529223 -0.034912873
000220 6b a6 46 bd 3b 6a 82 bc 33 6e 2e 3d 1c 1c 7f bd
       -0.048498552 -0.015919795 0.042585563 -0.062282667
000230 16 91 5a bd b4 42 73 bd a9 1d c3 3c 6b 78 92 3c
       -0.05336102 -0.059389785 0.023817854 0.017879685
000240 71 4f e3 bb d5 f3 d2 3c 6f 36 0b 3d 40 9a d2 bc
       -0.0069369604 0.025751034 0.03398746 -0.025708318
000250 99 70 49 bd 86 c2 31 3d 76 d6 3a bc 68 94 33 bd
       -0.049179647 0.043398403 -0.011403671 -0.043842703
000260 12 b9 75 3c 06 31 21 3c eb 15 ae 3c 91 53 09 bd
       0.0149977375 0.009838348 0.021250686 -0.03352696
000270 ed 22 83 3d 70 63 24 bb 96 c7 5f 3d 4c 8d 8a bd
       0.06403146 -0.0025083683 0.0546337 -0.067652315
000280 1e 91 d5 bb 38 55 93 bd d4 94 40 bd 8a c5 29 3d
       -0.0065175435 -0.071939886 -0.047016934 0.041448154
000290 59 bb cc bb 2a 44 d4 b9 7e 05 93 3c 54 68 23 3d
       -0.0062479195 -0.00040486577 0.017946955 0.039894417
0002a0 23 28 85 bd fd 75 31 bd 18 dd 17 bd 5a a0 72 bd
       -0.06501796 -0.043325413 -0.037076086 -0.059234954
0002b0 43 1a 64 bd 8e 5c 26 3d 2f 0c 66 bd 59 ed 56 bd
       -0.055689108 0.04061561 -0.056163963 -0.052472446
0002c0 a9 25 64 3d 20 4f 57 bd 8c 22 93 bd 50 41 12 bc
       0.055699978 -0.052565694 -0.07184324 -0.0089267045
0002d0 0b 97 69 3d 64 b0 2b bd e8 62 33 3d fc 22 04 bd
       0.05702881 -0.041916266 0.043795496 -0.032259926
0002e0 ab d8 aa bb 9d 84 43 3c df 18 1b bd 63 cc 96 3b
       -0.005213817 0.011933473 -0.037865516 0.0046020015
0002f0 c5 b2 a8 bc 18 0c 9d bd 0b 09 11 3d 9a 58 d6 3c
       -0.020593056 -0.07668322 0.035409015 0.026165295
000300 ff 6b 2a bd f5 b4 4b 3d 6f 9f 3d 3d c9 3c df 3c
       -0.0416069 0.04973312 0.046294626 0.027250664
000310 00 70 3e bc c7 49 83 bc 6d fa 28 3c df 2e cd bc
       -0.011623383 -0.01602639 0.010313612 -0.025046764
000320 0c 54 fa bb 10 b9 0d bd a9 db a3 bb 1a 22 a9 3c
       -0.0076394137 -0.034600317 -0.0050005508 0.020646144
000330 35 26 10 3d f0 05 dc bc ce 1b 2a bd c6 3c 41 bc
       0.035192687 -0.0268583 -0.041530423 -0.011794275
000340 3e ab b9 bc 40 42 a9 ba 2e 88 64 3d 03 e6 6e bd
       -0.022664662 -0.0012913421 0.055793934 -0.058324825
000350 1e 4a a6 3c 74 f3 6d 3d 93 fe b9 bc 0c 75 8b 3c
       0.020299014 0.058093503 -0.022704398 0.017023586
000360 60 00 ea 3c 6e b1 57 bc af 5f e3 bc dd c1 cf bc
       0.028564632 -0.013164861 -0.027755586 -0.025360996
000370 c0 66 0c bc 8e 92 71 bd 6a eb bd 3c 1e a8 77 3d
       -0.008569419 -0.058977656 0.023183543 0.060463063
000380 5d 60 53 3d 1a 20 82 bc 15 84 84 bc 72 08 f7 b9
       0.05160557 -0.015884448 -0.016176263 -0.00047117803
000390 e1 b2 b0 bc eb dc e2 bc d7 9e 97 3b d0 5b 82 bd
       -0.021569671 -0.027693233 0.0046270895 -0.06365168
0003a0 96 76 56 3d c9 ca 88 bc a6 ba 03 3d 3e 00 e6 3b
       0.052359186 -0.016698258 0.032160424 0.007019072
0003b0 67 b5 37 bd 54 63 bf bc e2 da 1e 3d a0 5a 19 bd
       -0.044850733 -0.023362793 0.03878296 -0.037439942
0003c0 35 75 4f bd 15 b1 e0 3c fe e1 2a 3d 34 de 2b bb
       -0.050648887 0.02742819 0.04171943 -0.0026224973
0003d0 a6 da 22 bd c1 ec 31 3c 4c 9c b1 bc bb b8 ae 3b
       -0.0397593 0.010859669 -0.021680973 0.00533208
0003e0 bf a8 be bc 00 5b 21 3c 40 c6 d4 3b 2b d1 12 3c
       -0.023273824 0.009848356 0.00649336 0.008961002
0003f0 f0 1e bc bb 63 57 b9 3c 83 3d d9 bc 1c f7 05 3d
       -0.0057409927 0.022624677 -0.026518589 0.032706365

Y_net.net.2.bias f4 [256]
000000 6d 3f f7 bc cb 27 ac bb f4 42 e2 bb 65 cd be bc
       -0.030181611 -0.005253767 -0.006904954 -0.0232913
000010 0c df 15 bd 26 22 89 bd 32 91 09 3d 67 38 71 bd
       -0.036589667 -0.066959664 0.033585735 -0.05889168
000020 3b 32 08 3d ac 4d 8f bd f9 29 9c bc dd 13 e2 38
       0.03325103 -0.069972366 -0.019062983 0.000107802196
000030 1c 5d 00 bd 23 9b ba bc 4d b7 f8 bc e8 a3 a2 bb
       -0.031338796 -0.022779053 -0.030360842 -0.004963387
000040 eb 0f 17 bd 67 cf 04 3d ea 17 98 3c 44 18 8c bd
       -0.036880415 0.032424357 0.01856609 -0.06840566
000050 2d 96 a3 bd c1 15 6e bd a1 c0 4c bb 78 1c 12 3d
       -0.07987628 -0.058126215 -0.0031242745 0.03567168
000060 4d 1d 11 bd 57 e1 39 3c fb 94 e0 bc b0 78 36 bc
       -0.035428334 0.011345229 -0.02741479 -0.011137173
000070 31 29 ae bd 4b b2 2f bd 69 7c 24 bd e7 7d 95 bd
       -0.085039504 -0.042894643 -0.04015771 -0.072994046
000080 db b7 01 bd 0c e3 9e bc d0 a3 9a bd 83 fe 18 3d
       -0.03166948 -0.019395374 -0.07550776 0.037352096
000090 bb e4 ee 3b 21 c0 bf bb 8f c9 54 3d 9d 15 61 bd
       0.0072904504 -0.005851761 0.051950034 -0.054952253
0000a0 c7 9e 7c bd 48 4b 18 3d 4b 01 3a 3d 1b f0 60 3b
       -0.06167486 0.03718117 0.04541139 0.0034322802
0000b0 72 5f c0 3c c6 a5 41 bd 12 22 aa bd f1 97 a7 bc
       0.023483012 -0.047277234 -0.0830728 -0.020458193
0000c0 3d b4 16 3d b7 f9 2e bd b8 a1 63 3c 57 7e 1f 3d
       0.036792982 -0.042718615 0.013893537 0.038938846
0000d0 06 8d bf 3b 93 36 a9 bc e6 3b 83 bd 5a f8 93 bc
       0.0058456687 -0.020655906 -0.06407909 -0.01806276
0000e0 d5 17 9d bd 4a c2 b9 bc 8e b6 33 3d 24 88 9d bd
       -0.07670561 -0.022675652 0.04387527 -0.076919824
0000f0 72 1f 99 bc 5d 5d 80 bc 23 10 8b bd 65 1a bd bd
       -0.018691752 -0.01566952 -0.06790187 -0.0923355
000100 46 04 23 3c 5f c5 56 bc c9 99 a4 bd 2c eb 64 3a
       0.009949749 -0.01310858 -0.08037145 0.0008732553
000110 8b 49 f4 bc 0c 0a 94 bd 8c 9e 7d 3b f1 68 ef bc
       -0.029820224 -0.07228479 0.0038699238 -0.029224845
000120 97 67 95 bd a4 15 2c bd 7d 06 e1 bc fe 79 76 bc
       -0.07295149 -0.042012826 -0.027468914 -0.015043734
000130 ba 23 86 bc fc 94 e1 bc 28 40 a7 3c ce 7b 2e bd
       -0.016374458 -0.027536862 0.020416334 -0.042598538
000140 14 42 aa bd 34 fb ed 3c 3d c8 14 bd d7 10 87 bb
       -0.08313385 0.029050447 -0.036323775 -0.0041218805
000150 31 b6 ff 3c 8e eb 3c bc de 70 77 bd f3 2d 58 3d
       0.031214805 -0.01153077 -0.060410373 0.052778196
000160 43 5c 7a 3b 88 78 95 bc a3 fb ca 3c 86 40 15 3d
       0.0038201965 -0.01824595 0.024778193 0.036438487
000170 85 a5 d8 bc 8c d1 2b 3d 59 55 bc bc 40 eb 8c ba
       -0.026446113 0.041947886 -0.022989916 -0.0010751262
000180 29 9a 9e bd 47 31 2d 3d ec 9a 18 3c 11 02 c1 bc
       -0.077442475 0.042283323 0.00931428 -0.023560556
000190 b8 3d 59 3c 37 e9 a6 bc e8 ad 79 3d d0 76 de 3b
       0.013259344 -0.020374877 0.060956866 0.006789066
0001a0 df a7 45 bc 10 7c 14 bd 9e 0f 3a 3d 89 18 0a 3d
       -0.012063949 -0.036251128 0.04542505 0.033714805
0001b0 e9 0b 87 3c 00 9e 93 3c d4 5b 16 bc fa f4 3e 3d
       0.016485171 0.018019676 -0.009177167 0.046620347
0001c0 c9 b4 0b 3d 20 4c 1a 3d e6 c9 1f bc 30 89 bb bc
       0.034107957 0.037670255 -0.009752726 -0.022892565
0001d0 c1 42 9d bc 6b fe 9b 3c f1 9e e9 bc 21 84 22 3d
       -0.01919687 0.019042214 -0.028518172 0.03967679
0001e0 a2 97 9f 3a e9 30 07 3d be 78 95 bd 82 d1 f6 3c
       0.0012175927 0.03300563 -0.0729842 0.030129198
0001f0 90 9d a0 bd dc b9 ca 39 ff ad f6 bc 71 08 93 bd
       -0.07842553 0.00038666918 -0.030112265 -0.071793444
000200 6a f5 67 bd 5e 9b ba 3c ac 2f 8a bd 03 d1 8b bc
       -0.05663053 0.022779163 -0.06747374 -0.017067438
000210 57 56 60 bd e6 6d 8b bd 52 10 d7 bc e7 98 f4 bc
       -0.05476984 -0.06808071 -0.0262529 -0.029858066
000220 da 3e 02 3d 32 de 6d 3c 91 a1 c4 3c e9 00 75 bd
       0.03179822 0.0145183075 0.024002822 -0.05981532
000230 6c 8f 32 bd 8a 4b 02 3d 41 d3 29 3b 1e 99 03 bc
       -0.04359381 0.03181032 0.002591327 -0.008032111
000240 3e d8 56 3c b8 3e 21 bd 56 86 8f 3c ab 15 c9 bd
       0.01311308 -0.039366454 0.017520111 -0.09818586
000250 f3 66 6c bd 58 d1 69 3d fa 33 78 bd 58 73 4c bd
       -0.057715368 0.05708441 -0.060596444 -0.049914688
000260 c9 dc 1a 3d 20 35 99 bc 64 ca dd 3c e2 c1 09 3d
       0.037808213 -0.01870209 0.027074046 0.033632167
000270 f7 18 8c bc a8 d0 21 bb 36 18 c6 bc 93 3f 51 3d
       -0.017101748 -0.002469102 -0.024181467 0.05108602
000280 ce b3 18 3d 63 26 08 3b da a4 e2 3c 76 83 0c bd
       0.03728085 0.0020774833 0.027666498 -0.03430506
000290 77 d5 53 bd da 21 33 3d d0 fb 24 bd c7 0c e9 bb
       -0.051717248 0.043733455 -0.04027921 -0.007112119
0002a0 85 ce 45 bd 10 72 c5 bc ef ec 77 bd 99 f5 8b bc
       -0.048292655 -0.02410224 -0.06052869 -0.017084884
0002b0 d1 1e 92 3c ef 82 b6 bc aa 64 07 3d f4 6d 71 bd
       0.01783696 -0.02227923 0.033054985 -0.05894275
0002c0 88 6f 8c bd ae d5 9c bd ab 1a e0 bc e3 12 8e 3c
       -0.068572104 -0.07657944 -0.027356466 0.01734299
0002d0 f4 f9 4c bc c0 c9 10 bd 2e c8 39 3c 83 af a5 bd
       -0.012510765 -0.035348654 0.01133923 -0.08090117
0002e0 50 30 67 bd 79 75 d2 bc 21 c5 22 bd ff a0 59 bd
       -0.05644256 -0.025690781 -0.039738778 -0.053132053
0002f0 a2 e8 96 3b 79 97 9f 3c 80 82 ac 3c f8 a6 91 3b
       0.0046053687 0.019481407 0.021058321 0.004444953
000300 18 89 7c bd 0d 99 c5 bd 44 bc 27 bd 93 28 05 3d
       -0.06165418 -0.09648333 -0.04095103 0.032509398
000310 16 c9 59 bd d8 8a c7 3c 70 e3 1f bd ba 9c 8a bc
       -0.053170286 0.024358198 -0.03903526 -0.016920436
000320 32 6a 19 bd be 93 8e bd ea 22 bb bc 9b ec 95 bc
       -0.03745479 -0.06961773 -0.022843797 -0.018301299
000330 80 dd 85 bd 01 28 13 bc bf 51 38 bd 13 98 1a 3d
       -0.065363884 -0.008981706 -0.044999834 0.037742686
000340 03 52 4e bd f6 0d 98 bd 0c 7b 30 3d db 8c 00 bd
       -0.05037118 -0.07424538 0.043086097 -0.03138433
000350 2e 97 f4 3c e4 41 17 bd 0f db 10 3d a1 9e 37 3d
       0.029857244 -0.036928073 0.03536516 0.044829015
000360 e5 4a 31 bc 0a d2 2f bd 75 70 54 bd de 00 5b bd
       -0.010821079 -0.04292492 -0.05186506 -0.053467624
000370 64 29 ac bc c4 34 08 bd 61 5c c8 3c 62 e8 a1 ba
       -0.02101583 -0.033253446 0.024458112 -0.0012352581
000380 f1 d4 b7 bd bb 48 90 3c 21 88 05 3d 6a 8b 4a 3d
       -0.08976162 0.017612806 0.032600526 0.04944936
000390 78 c0 dd 3c 09 83 40 bd 9b 0c 20 bd c7 7c d1 3c
       0.027069315 -0.046999965 -0.03907452 0.025572194
0003a0 4d fa 80 bd 93 e5 df 3c 28 62 72 3c 09 b3 1a bd
       -0.06297741 0.02733115 0.01479391 -0.037768397
0003b0 33 0a fe 3c 5f ce 9b bd 55 3c 54 bc ca 70 61 bd
       0.031010723 -0.076077215 -0.012953837 -0.055039205
0003c0 cc 03 0d 3d 9f b2 c9 bc 60 0c 2a ba 17 21 d0 bc
       0.03442745 -0.024621306 -0.00064868294 -0.025406403
0003d0 d8 ca 7b bd 06 c5 07 3d 88 45 5b bd 3e 3f 69 3c
       -0.061472744 0.03314688 -0.053533107 0.0142362695
0003e0 25 54 b5 bd 21 40 b5 bc 96 0d 4c 3b c5 68 0c 3c
       -0.0885394 -0.022125306 0.0031136028 0.008569901
0003f0 e2 a4 62 bd 8d 00 7e 3c 33 a0 34 3b 9c 77 48 3d
       -0.055333026 0.015503061 0.0027561306 0.048942193

Y_net.net.4.weight f4 [256, 256]
000000 83 38 1b 3d 55 79 05 bc b2 84 a2 bb c4 5b b4 3b
       0.03789569 -0.008146604 -0.004959666 0.0055041034
000010 2f b3 3f 3c af ec 33 3d 6d be 28 bd 5f 49 1f 3b
       0.011700436 0.04392689 -0.04119723 0.0024305207
000020 90 2f d4 bc 18 d3 17 bd e2 2d 2a bc 62 26 47 bc
       -0.025901586 -0.03706655 -0.010386916 -0.012155147
000030 24 fd 01 bc b8 c6 e4 bc d9 07 fd 3a 83 db 8b bd
       -0.007933889 -0.027926788 0.0019304707 -0.06828978
000040 e4 57 96 3c 1e e7 2a 3d 82 df d3 3c 12 f2 2d bc
       0.018352456 0.041724317 0.025863413 -0.010616796
000050 25 1c b4 bc 7b 3b 04 3d 97 7b 38 3c 90 1c 9f 3b
       -0.021986077 0.032283287 0.011259935 0.0048557
000060 a4 f8 de bc a3 3c 40 3d 46 52 bd bc 24 1e 3c 3d
       -0.02721817 0.046932828 -0.02311052 0.04592718
000070 02 0d ac bb 35 11 82 3d 4c 09 38 bd 60 d6 71 3d
       -0.005250574 0.06350938 -0.04493074 0.059042335
000080 4d 1b a2 3c 38 0e 4f bd 34 13 59 bd 9d 84 9f 3c
       0.019788409 -0.05055067 -0.05299683 0.019472415
000090 6e 07 f7 bc cf ce 09 3d a3 e0 7e bd e8 0c 0d ba
       -0.03015491 0.033644494 -0.06222595 -0.00053806463
0000a0 5d 5d 68 bd 4c 89 0a 3d 64 54 7f bb f4 4a 8d bd
       -0.056729663 0.033822343 -0.0038960213 -0.06899062
0000b0 a1 cb 3d bd a1 07 92 3c 75 dd f1 3b 03 5e 21 bd
       -0.046336774 0.017825903 0.007381136 -0.039396297
0000c0 9a 11 47 bd 2e ea b5 3c ef c6 3c 3d 52 58 b2 bc
       -0.04860077 0.022206392 0.046088155 -0.02177063
0000d0 17 22 ce 3c df 5b ed bc 24 bc 4e 3d dd 36 46 3d
       0.02516274 -0.028974472 0.050472394 0.048392165
0000e0 b6 69 9d bb 1e 5a f3 bc 8c f4 4b 3d 93 91 31 bd
       -0.0048038615 -0.029706057 0.049793765 -0.04335172
0000f0 25 70 4d bd 4f dc eb 3a 14 35 6a 3d 7b 87 58 bd
       -0.050155777 0.0017994734 0.057179525 -0.05286358
000100 bb d5 96 3c 4d e5 5f bd 0d 86 f0 bc 1e de 52 3d
       0.018412462 -0.054662038 -0.029360795 0.05148136
000110 49 b5 8c bc 37 14 f3 bc c7 1f 27 3d 49 fd 39 bd
       -0.017176287 -0.029672725 0.04080179 -0.045407567
000120 dc 3b 25 3d 5a 76 2f 3d 49 e4 46 3d 25 d2 9d 3c
       0.04034029 0.04283748 0.048557553 0.019265244
000130 99 98 96 3c e8 a6 4a 3d 3c 5b ea 3c d1 0b 92 bc
       0.018383311 0.04947558 0.028607957 -0.0178279
000140 7b 1d 79 bb 2e e7 3b bd b0 fa dc 3b f6 c2 5a 3d
       -0.0038011956 -0.045874767 0.0067437515 0.053408585
000150 60 c0 19 bd 7d 7d 33 bd 90 5d 29 3c 53 32 23 bd
       -0.03753698 -0.043820847 0.010337248 -0.039842915
000160 25 ac 80 bb bd 0b 07 3d fc 2c e1 bc 6c d8 71 3d
       -0.003926771 0.03297018 -0.02748727 0.059044287
000170 6d 47 8e bc 14 6e 91 3c e7 58 fd bc 94 4e ef bc
       -0.017368043 0.017752685 -0.030926181 -0.029212274
000180 96 3d 89 bc 58 8d 50 3d ca 7c 8e 3c 84 2b 06 3d
       -0.016753 0.050916046 0.017393488 0.032756343
000190 cc 83 c6 3c 48 c0 3e 3d 4a 26 1d bd de 83 6b 3d
       0.024232768 0.046570092 -0.038366593 0.057498805
0001a0 cb 53 e1 bc 3f b2 e0 3b 48 28 4a 3c 9d 60 9b 3a
       -0.027505776 0.006857186 0.012338705 0.0011854355
0001b0 69 ec 6b 3d 1d ea d1 3c 01 65 4c bd 00 72 3d 3d
       0.057598505 0.02562433 -0.049901012 0.046251297
0001c0 e6 bf 3e bd 23 21 05 3d f7 f4 f2 bc 28 b0 82 bc
       -0.046569727 0.032502305 -0.029657824 -0.015953138
0001d0 02 c6 fa bc 41 c6 49 3c 35 27 f4 3c 25 cf 58 bd
       -0.030611996 0.012315334 0.029803852 -0.052931923
0001e0 65 30 87 bc ac a2 29 3b 09 57 81 bd 5b 9e 88 bd
       -0.016502568 0.0025884314 -0.06315429 -0.06670829
0001f0 96 f8 8c bb 7d 6a e5 b9 92 4b 52 bd 1d be 82 bd
       -0.0043020947 -0.00043757624 -0.0513416 -0.063839175
000200 25 ef 6c 3c 72 c2 65 bd a0 76 48 3b a8 23 09 3c
       0.014461313 -0.05609364 0.0030588284 0.0083703175
000210 04 22 8b bc 18 df 12 3d c1 a6 3c bd c7 50 df bc
       -0.016983993 0.03585729 -0.046057466 -0.027260197
000220 53 a9 56 3d 73 12 58 bd bc 4a 16 3d 60 08 da 3c
       0.052407574 -0.05275197 0.036692366 0.026615322
000230 77 3e 70 bd 7a 29 f7 3c e8 c0 5c bc ae 24 80 bd
       -0.05865332 0.030171145 -0.013473727 -0.06256996
000240 15 3b 78 3d a4 e9 91 bd 60 d8 2a bb 7a ea c6 bb
       0.06060322 -0.071246415 -0.002606891 -0.0060704323
000250 c0 a0 5e 3c b0 d3 ab 3b 11 b0 89 3b 72 71 19 bd
       0.0135881305 0.005243741 0.004201897 -0.037461706
000260 fa 8a 86 bd c6 10 1a 3d ef c8 b9 bc 9e ce cd 3c
       -0.065694764 0.037613653 -0.02267882 0.025122937
000270 68 cf 09 3c 2e 4c 43 bd 66 39 9d bc f4 ce 21 bd
       0.008411266 -0.047680072 -0.019192409 -0.039504007
000280 d9 8e 3b 3d 7c d4 7c bd a1 b0 7b 3d 77 18 c9 b9
       0.045790527 -0.06172608 0.061447743 -0.00038355935
000290 1d d2 04 3d 53 54 d9 bb 99 16 41 bc 8a e8 fb 3c
       0.032426942 -0.0066323667 -0.011785173 0.030750532
0002a0 a9 0f 04 bd ea 67 67 bd 2f 1d 58 3d 7b 0b cd bc
       -0.032241497 -0.056495585 0.052762207 -0.025029888
0002b0 b2 7c 2d bc 99 76 aa 3c 19 87 87 bd 12 11 d2 bc
       -0.010588812 0.020808505 -0.06617565 -0.025642905
0002c0 64 d0 d1 bc 64 9f 70 bc 40 32 9c 3b 79 c7 9c bc
       -0.025612064 -0.014686439 0.0047667325 -0.019138085
0002d0 12 08 86 3d 8c 13 6c bd f4 5b 82 bc ba 56 55 bd
       0.06544508 -0.05763583 -0.015912987 -0.052084662
0002e0 c7 e0 7c bd 49 26 0f bd 1c 0a e5 bb c2 da 19 3d
       -0.061737802 -0.03494862 -0.0069897305 0.03756214
0002f0 db 6d 5f 3c 84 a5 12 3d 0c 99 e7 3c 66 3c 99 3c
       0.013637031 0.03580238 0.02827122 0.018705558
000300 e2 a9 07 3d 23 0b 04 3d 7a 3a dc bc e8 e3 30 3d
       0.033120997 0.032237183 -0.026883353 0.0431861
000310 10 13 17 3c ac a4 1a 3c c6 3e 21 3d c9 66 fb bc
       0.009220853 0.009438675 0.039366506 -0.03068866
000320 c1 4b 60 bd a7 47 6c bd ca 64 6a bd 03 0e 02 3d
       -0.054759745 -0.05768552 -0.057225026 0.031751644
000330 a9 a7 ee 3c 9c a8 60 bd b6 6f 4e 3d 6b fc 9b 3c
       0.029132681 -0.0548483 0.050399505 0.01904126
000340 d7 30 84 bd 5b 2e 60 3c bc ef b2 bc 4e 23 1c bd
       -0.06454628 0.013682927 -0.02184283 -0.038119607
000350 3f 38 04 3d a6 25 65 3d 67 a9 d6 3c 33 c6 de 3c
       0.032280203 0.055944107 0.026203824 0.027194118
000360 b5 0f 88 bc e8 5b 25 bc bc 62 7f bd 1f f1 a5 3c
       -0.016609052 -0.010092713 -0.06235002 0.020256577
000370 d0 f3 19 3d 74 11 fb bc a7 e6 38 bb 74 16 41 bd
       0.037586033 -0.03064797 -0.0028213651 -0.047140554
000380 23 9a 6e bd f2 f9 3e 3c 46 27 22 3d 40 fb b6 bb
       -0.058252465 0.011656271 0.039588235 -0.0055841506
000390 4a e3 61 bd 2c 0e 5b bd 7b 07 89 bd 71 72 50 3d
       -0.0551484 -0.053480312 -0.0669088 0.05089039
0003a0 16 4e 16 bc f5 a3 20 3d d8 fc 9f bc e7 43 45 3d
       -0.009173891 0.03921886 -0.019529745 0.04816046
0003b0 e3 29 e8 bc cf 5c 44 3d f9 88 c0 b9 5c 05 e9 3c
       -0.028340286 0.04794007 -0.00036723146 0.028444938
0003c0 66 c6 69 3d a2 97 06 3d d5 b5 0e bd af c3 65 3c
       0.057073973 0.032859452 -0.034841377 0.014023705
0003d0 e6 e2 52 3d e2 14 0d bd f7 86 3d bd 4e bb 4c bd
       0.05148592 -0.034443744 -0.04627129 -0.049983315
0003e0 2c 10 62 bd 2a 74 a9 bc 1e b4 37 3d de 67 be 3c
       -0.055191204 -0.020685274 0.044849508 0.023242887
0003f0 36 f2 da bc 89 06 56 bd 03 fd 7f ba c4 d3 56 bd
       -0.026726823 -0.052252326 -0.000976518 -0.05244805

Y_net.net.4.bias f4 [256]
000000 33 78 e5 bc 78 7d 92 bd 7c 72 19 3d 84 94 e0 bb
       -0.028011417 -0.071528375 0.037462696 -0.006853642
000010 94 67 20 bc 81 93 d5 bc ca e2 78 bd 4c 3e 67 bd
       -0.00979032 -0.026071312 -0.060763158 -0.056455895
000020 c2 2b ca 3b 6f 2c 30 3d 65 41 47 3d 02 b8 3a 3d
       0.006169767 0.043011125 0.04864635 0.04558564
000030 9f 80 36 3d 39 9f ae 3b 79 a7 85 bd f2 1a 12 3d
       0.044556256 0.0053290394 -0.065260835 0.03567023
000040 6a 2d 28 3d 99 39 8d bd 43 57 19 bd 2e c0 34 3d
       0.041058935 -0.068957515 -0.037436735 0.04412859
000050 52 40 a6 3c 83 e2 75 bc 32 08 7f bd 66 34 fd bc
       0.020294342 -0.015007618 -0.062263675 -0.030908775
000060 a7 6a fb bc c8 06 f3 3c 18 26 ae bd 41 bf 8b bd
       -0.030690504 0.02966632 -0.085033596 -0.06823588
000070 50 c9 e6 bc 8f b8 4c bd 66 18 8e 3c 18 14 63 bd
       -0.028172165 -0.049980696 0.017345618 -0.055439085
000080 6a 1f 08 3d 7b 2a 25 3d c5 1e 6d bd 1f a9 86 3c
       0.033233084 0.040323716 -0.057890672 0.016438065
000090 ea 9e 9c 3d d6 09 20 3d f7 f0 5d 3b 3e 59 29 bd
       0.07647498 0.03907188 0.003386555 -0.041344874
0000a0 73 91 83 bc 33 d0 3f bd 9b 9b 57 3d 69 a1 28 bb
       -0.016060567 -0.046829414 0.05263863 -0.0025730974
0000b0 26 6b 9f 3c 22 24 34 3d 74 e7 a6 ba 94 ab eb bc
       0.019460272 0.04397977 -0.0012733773 -0.028768338
0000c0 f8 10 1d bd 31 62 1c 3d 26 1e e4 bc c7 d3 d1 bd
       -0.03834626 0.03817958 -0.027846407 -0.102454714
0000d0 25 03 a0 bc e4 f3 f9 bc 3d 73 1e 3b d5 54 3b bd
       -0.01953275 -0.030511804 0.0024177574 -0.0457352
0000e0 ea ec 80 bd f5 b6 b7 3a 75 ea 6c bd d6 a0 8b bd
       -0.06295188 0.0014016317 -0.057840783 -0.068177864
0000f0 b8 17 1a bd 88 e5 fd bc 71 45 39 bd 0e b0 02 3d
       -0.037620276 -0.030993238 -0.04523224 0.03190618
000100 c6 5f 82 3c 9e 50 2e 3d c3 26 03 bc df fd 12 3d
       0.015914809 0.04255735 -0.008004847 0.03588664
000110 33 4d 08 3c b7 ac 81 bd cd a0 b0 bb c9 b1 91 bc
       0.008319187 -0.06331771 -0.0053902627 -0.01778497
000120 4a c1 43 3d 57 96 49 bc 4d cf 3a bd 82 aa 5e 3c
       0.047791757 -0.01230391 -0.045607854 0.013590457
000130 54 74 5c bd 92 11 a1 3b 19 26 c5 3c 32 61 55 bd
       -0.053821877 0.0049154246 0.024066018 -0.052094646
000140 97 50 0b 3d b9 d7 b2 bc 49 75 2a bd 4f ed 58 bb
       0.034012403 -0.02183138 -0.041615758 -0.0033100431
000150 54 c9 1c bd 1d 2f 23 bd 62 a7 63 bd 06 34 cb 3c
       -0.03827794 -0.039839853 -0.05557955 0.02480508
000160 66 68 cc bc da 3f 80 bb a5 51 5e 3c c2 20 ca 3c
       -0.024952125 -0.0039138617 0.01356927 0.024673823
000170 9f d9 32 3d cf ff 80 3c bb 64 dc bc e6 9c 48 3c
       0.04366457 0.015746979 -0.0269035 0.012244439
000180 e7 0c 2c 3b 9c 22 d4 bc 14 18 83 3c a2 a6 e5 bc
       0.0026252808 -0.02589541 0.016002692 -0.028033558
000190 26 6e 21 3d 2f 0b 04 3c 64 ec 7e bc 7d 9a ae 3b
       0.039411686 0.008059307 -0.01555929 0.005328475
0001a0 90 03 61 bd 02 75 ea bc 3e 59 24 bc b0 ca e6 3c
       -0.054935038 -0.028620247 -0.010031043 0.02817282
0001b0 03 bf 45 3c b0 36 64 bb 3a 59 dd bc 30 3e aa bc
       0.0120694665 -0.0034822635 -0.027020086 -0.020781606
0001c0 b7 c2 82 bd 0d e8 1c bc b2 d5 0d 3d 54 ba 45 bd
       -0.06384795 -0.00957681 0.034627624 -0.0482734
0001d0 91 36 11 bd dc 19 dd 3c 85 9b 6b bc 0a 41 67 bd
       -0.03545243 0.02698987 -0.01438034 -0.05645851
0001e0 82 2d 48 3c 4a 73 96 bd 6e a8 67 bd f9 f3 69 bc
       0.012217881 -0.073462084 -0.05655711 -0.014279359
0001f0 46 56 09 bd df 83 1e bc e7 c5 83 bd f9 10 dc bc
       -0.033529542 -0.009674995 -0.06434231 -0.026863562
000200 6e 56 36 bc 7e ba 91 bc df 4c 47 3d cc 49 37 bd
       -0.011129005 -0.017789122 0.048657294 -0.044748113
000210 56 e4 af bc e2 2a 8d bb 2b 03 01 bc 54 82 4c 3b
       -0.021471184 -0.0043080905 -0.00787429 0.0031205611
000220 b3 dc 00 3d 58 e4 f9 bc c3 99 74 3c d5 8d 97 bd
       0.031460475 -0.03050439 0.014929238 -0.07400099
000230 b7 07 85 bd 78 75 55 bd 8b 63 10 bd 26 34 a9 39
       -0.06495612 -0.05211398 -0.03525118 0.00032273046
000240 6e 11 6d bd be ae 39 bb 85 3b 07 3c 29 60 66 3d
       -0.05787795 -0.0028332914 0.008253937 0.05624405
000250 33 b7 35 3d bd a6 0f bd af 08 26 3d f9 76 e5 3a
       0.044364166 -0.035071123 0.040535625 0.001750677
000260 d4 f1 b4 3b 72 c1 ef bc 10 03 52 bd 51 a7 2e bc
       0.005521992 -0.029267047 -0.051272452 -0.0106600085
000270 2e 85 ef 3c b7 84 36 3d 21 f1 ab 3c 6a d0 8b bd
       0.02923831 0.04456016 0.020989003 -0.06826861
000280 d5 03 0e 3d 4e 6b 59 bc 13 88 32 3d 10 13 7c bd
       0.034671623 -0.013270212 0.0435868 -0.061541617
000290 67 0d 4f 3c b2 e7 cd bc 68 e3 26 bd a5 5d 53 bc
       0.012637473 -0.025134895 -0.040744215 -0.012900745
0002a0 ba 1b 8d bd c5 a6 cd 3c 40 f6 36 3b c1 e2 72 bc
       -0.06890054 0.025103936 0.0027917773 -0.01482457
0002b0 6d c9 63 bd 08 ae e3 3b 22 6e a8 3c 9d 74 bb bc
       -0.055612016 0.0069482364 0.020560328 -0.022882754
0002c0 e1 b6 0b 3c ed 20 9c bd 0a 3c ee bb b9 10 2b bd
       0.008527488 -0.076234676 -0.007270341 -0.041763995
0002d0 07 bf 77 bc 90 a5 64 bd 11 aa 8c bb 53 87 44 3c
       -0.015121228 -0.055821955 -0.0042927344 0.011995154
0002e0 82 73 99 bd c0 2b d2 3c 49 92 1a 3d c1 b7 30 3d
       -0.074927345 0.025655627 0.037737165 0.04314399
0002f0 d2 1f 1b 3d 47 c3 03 bd 0e d9 d8 bb 31 f6 a0 bd
       0.037872143 -0.032168653 -0.006617672 -0.07859457
000300 d4 90 1a bd 3a 65 27 3d 57 b5 a6 bd 93 92 10 3c
       -0.037735775 0.04086802 -0.081400566 0.0088240085
000310 65 8e dc bc ab c8 7c bd 20 0e 34 3d ce 0c 91 3c
       -0.026923368 -0.06171481 0.043958783 0.017706301
000320 95 39 be 3c 57 01 88 bc 44 fe 3d bd ae b0 b0 bc
       0.023220817 -0.016602201 -0.046385065 -0.021568622
000330 99 12 7b bb 87 e2 36 3d 7e b4 c9 bc 76 f9 21 bd
       -0.0038310646 0.044649627 -0.024622198 -0.039544545
000340 b5 42 8b 3a c3 0c 84 bc 71 56 1f 3b 78 4d 14 3d
       0.0010624739 -0.016119367 0.0024312998 0.036206692
000350 99 d7 0c bc e8 f9 30 bd 4a 31 04 3d 90 ac 53 3d
       -0.008596324 -0.04320708 0.03227357 0.05167824
000360 49 3e 37 bd c6 f5 53 3b b4 d4 11 3d ae cb 3c bc
       -0.044737134 0.0032342537 0.03560324 -0.01152317
000370 84 df b9 3c 74 24 f6 bc 8c 9a 47 bd 6f ca 63 bd
       0.022689588 -0.03004668 -0.04873137 -0.055612978
000380 2c b9 3d bc 71 59 59 bd 15 50 81 bb a1 51 68 3c
       -0.011579793 -0.053063814 -0.003946314 0.014179618
000390 3b f5 85 bb 05 2d 81 bd 1a df a7 bd 1c b8 65 3c
       -0.0040880716 -0.06307415 -0.0819685 0.014020946
0003a0 7f 98 a7 bd 9f 22 26 3d 68 0f fc ba cf 1d 6a bc
       -0.08183383 0.04056036 -0.0019230666 -0.0142893335
0003b0 25 ff b2 bc ee dc 9d bd 5f 7f 2f bc 61 85 5f 3c
       -0.021850178 -0.077081546 -0.01071152 0.01364264
0003c0 5b c7 13 bd b0 f6 2b 3c f9 58 64 bd a7 a9 3f 3d
       -0.036078792 0.010495827 -0.055748913 0.046792652
0003d0 34 4b 55 bd cb 98 e3 3b 8e 0b f1 3b 3e 82 37 bd
       -0.052073672 0.0069457046 0.0073561138 -0.044801943
0003e0 94 52 15 3d 5d ed ea bc 0e 46 31 3d dd 3a b3 bd
       0.036455706 -0.028677637 0.0432797 -0.08751462
0003f0 19 5e e6 3c c7 0a 09 3b 8b ed 45 bd 77 33 8d bd
       0.028121041 0.0020910965 -0.04832224 -0.06894582

Y_net.net.6.weight f4 [256, 256]
000000 00 c4 e7 bc 5a 4b c3 bc 11 c3 95 bc 94 86 29 3d
       -0.028291702 -0.023839641 -0.018281491 0.04138811
000010 e0 79 7a bd 05 75 99 bd 8c 22 30 3b 6a ca 36 bd
       -0.061151385 -0.07493023 0.002687606 -0.04462663
000020 0a ff ad bc 4e 64 3f bd 82 ff 51 bd 34 41 f5 bc
       -0.021239776 -0.046726517 -0.051269062 -0.029938318
000030 63 e1 89 3d c7 06 24 3d 5e 1c 9a bc 05 d8 54 bd
       0.06732442 0.040045526 -0.018812355 -0.051963825
000040 24 b8 0c bc 23 f6 6c bc 22 28 98 bc ac 3b 33 3b
       -0.008588824 -0.01446298 -0.018573824 0.00273488
000050 f0 9f 7a bd 30 90 80 bd eb f7 ed 3b d8 f6 26 bc
       -0.061187685 -0.062775016 0.00726222 -0.010190688
000060 e2 b9 4a bd 23 b9 04 bd 33 08 e3 3b 10 9b 06 bd
       -0.049493678 -0.032403123 0.0069284677 -0.032862723
000070 7b 86 72 3d be 64 c4 3c f7 2d e2 3b 18 01 44 3c
       0.05921028 0.023973819 0.006902452 0.011963151
000080 4f e0 8a bb d8 07 3b bd e2 dc b1 3c d5 69 64 3d
       -0.0042381654 -0.045661777 0.02171177 0.05576499
000090 24 b7 aa 3c ca 32 23 bd 22 13 f4 3c 9e d6 29 3c
       0.020839281 -0.039843358 0.02979428 0.01036611
0000a0 a6 14 12 bc 18 52 a1 3c 81 9a 1e 3d f3 03 f2 3c
       -0.008916056 0.019692466 0.038721565 0.029542899
0000b0 a6 ab b8 3b 77 f2 74 bd 88 ce ac 3c 86 8c 73 3b
       0.0056356965 -0.059801545 0.021094576 0.0037162616
0000c0 a0 4c 2b 3d 37 ef 89 3c 26 f4 8b bd 62 3a 8f 3c
       0.041821122 0.0168377 -0.06833677 0.017483894
0000d0 a8 1f 31 bd 92 04 32 3b 6f 42 23 bc 89 e8 2b 3c
       -0.04324308 0.0027163369 -0.0099645695 0.010492452
0000e0 e3 02 0c 3d b2 70 82 bd 29 c5 2b bb 12 a0 43 3d
       0.03418244 -0.06369151 -0.0026210046 0.047760077
0000f0 0e f1 92 bc 39 d3 e8 3c 34 75 dd bc d8 99 74 3d
       -0.01793721 0.028421031 -0.027033426 0.05971703
000100 79 84 2a bd 6e 8d b2 3c 3d 5e 4e 3d 1d 16 4e bd
       -0.041630242 0.021795955 0.05038284 -0.050314058
000110 aa 7d e7 36 af 44 e3 bc d4 db 8b bd 94 f6 36 bb
       6.8989657e-06 -0.027742712 -0.06829038 -0.0027917968
000120 b1 6c 9e bc b6 02 49 bd 19 28 f5 bc 8a 1d 83 3d
       -0.019338937 -0.04907485 -0.029926347 0.064021185
000130 df 1c 2d 3d 9d a8 e3 3c b2 60 df bc 0e 3b 03 bd
       0.04226386 0.027790362 -0.027267788 -0.03203874
000140 77 86 0a bd c1 be 89 3d dc 02 03 3d a4 24 bc 3c
       -0.033819642 0.067258365 0.03198515 0.02296669
000150 bb 8c 9a 3c 8c 62 c8 3c 5a e0 2a bd e0 cf de 3c
       0.018865934 0.024461053 -0.041717865 0.027198732
000160 49 d0 da 3c f6 53 30 bd 93 55 6e 3d e4 e0 96 3c
       0.026710646 -0.04304882 0.05818708 0.018417783
000170 e6 8c 3e 3d 02 e6 33 bd c9 44 a6 3c 60 2f 23 3d
       0.04652109 -0.043920524 0.020296471 0.039840102
000180 d6 66 85 bc ee d2 34 3d ac 5c 06 3d 40 76 84 bd
       -0.016284388 0.04414647 0.032803223 -0.06467867
000190 b1 a2 93 3c 04 36 d7 bc 2e 90 7e 3d 99 fa 1a bd
       0.018021913 -0.026270874 0.06214922 -0.037836645
0001a0 ea 4a 0c bd d9 cd 91 bc 15 dc 4c 3d 08 6f 3c 3d
       -0.03425113 -0.017798351 0.050014574 0.046004325
0001b0 49 95 8e bd df f2 f9 bc c5 ab 5d bd 34 9f 33 3d
       -0.06962068 -0.030511318 -0.05411889 0.043853
0001c0 37 b6 fc bc 8c 50 fe bc 68 4d 3f 3c e4 9c 46 3d
       -0.030848606 -0.031044267 0.01167617 0.048489466
0001d0 c0 00 f8 3a 45 8c 4d 3c dd b0 08 3d 07 85 1c 3d
       0.0018921122 0.01254565 0.033371795 0.038212802
0001e0 c5 9c d9 3c 2c 77 55 bb 27 43 79 bd 79 e8 97 3c
       0.026564011 -0.0032572253 -0.060855057 0.018543469
0001f0 9c 72 89 bd ce 9a 51 bd 67 46 82 3d 57 fb 48 bd
       -0.06711313 -0.051173024 0.063610844 -0.04906782
000200 b2 38 93 bd ec 94 83 bd a1 89 35 3d 1d a4 01 3d
       -0.07188548 -0.06424889 0.044320706 0.03165065
000210 ea 0b d1 3c 97 af 34 3d d7 e7 58 bd 4b 40 73 bc
       0.025518376 0.044112768 -0.052955475 -0.014846872
000220 88 e9 ec 3b 47 4a b3 bc b5 7d 57 bd 6f 6d 27 3d
       0.0072299875 -0.021886004 -0.052610118 0.04087585
000230 f5 58 34 bd 5b ca ac 3c 26 be 85 bc 65 1f 15 3c
       -0.04403015 0.021092584 -0.016326021 0.009101723
000240 ed a2 27 3d b0 29 87 3c 18 93 69 bd 78 31 8e 3a
       0.040926863 0.01649937 -0.057025045 0.0010848483
000250 66 55 4c 3d d6 8c 59 bd cf 8a b0 bc a1 8d 6d bd
       0.04988613 -0.053112827 -0.021550564 -0.057996396
000260 88 30 36 bd 5d d5 3a bd 03 f4 1b bd 40 83 bc ba
       -0.044479877 -0.045613635 -0.038074505 -0.0014382377
000270 a0 7b 18 bc f9 cb a5 bc 35 43 9b bd 02 ee 71 3d
       -0.009306818 -0.020238863 -0.07581178 0.059064873
000280 3f 67 05 bd 25 c3 37 3c 5b ed 93 3d b0 ba 4a 3c
       -0.032569166 0.01121596 0.07223006 0.012373611
000290 d0 59 52 3d 2a 37 a3 bc 39 67 1e 3c 13 0d b5 3b
       0.051355183 -0.019923765 0.009668165 0.00552524
0002a0 dd 5d 4b bd 7d 6a c7 bb 1e 62 0d bd 8e f3 27 bd
       -0.049650062 -0.0060856924 -0.0345174 -0.041003756
0002b0 20 63 4f bc e5 12 24 3d 8b 3a 70 ba bb 26 1b 3d
       -0.012657911 0.04005708 -0.0009163997 0.037878733
0002c0 84 6f 89 bb a4 15 4a 3d e9 8c a0 bb 5a 8c 34 bd
       -0.004194202 0.049337044 -0.0048996103 -0.044079162
0002d0 07 c4 56 bd 00 8c 1e 3d f6 f8 49 3d cd 54 08 3d
       -0.05243304 0.038707733 0.049309693 0.033283997
0002e0 48 a1 c5 bc ca 9e 2a bd 12 32 31 3c 45 c6 e5 bc
       -0.024124756 -0.04165534 0.01081516 -0.028048644
0002f0 05 67 54 3c 1e 75 78 bc 52 6c ea bb ab 7a 45 3c
       0.012964015 -0.015164642 -0.007154026 0.012053172
000300 3f 81 04 bd 3f 69 08 bb d6 0d dc 3c 2d 91 1f 3d
       -0.03234982 -0.0020814685 0.026862066 0.03895681
000310 bf 8a 64 bd 7f 57 ad ba c4 01 4c 3d 00 a3 9b 39
       -0.05579638 -0.0013224928 0.04980637 0.00029685348
000320 ef 61 42 3c 41 7d 25 bd dd 18 14 bd 30 7c 87 3b
       0.0118641695 -0.040402655 -0.036156524 0.0041346774
000330 6a ae 74 bb e2 e2 50 bc 72 61 72 3c 5e 3b 29 3d
       -0.0037335404 -0.012749406 0.014793741 0.041316383
000340 ae ff f8 3c f6 18 49 3d b7 ac 9d bc 78 5e a7 bc
       0.030395355 0.04909607 -0.019247396 -0.020430788
000350 9b cf 38 bc 05 e5 42 3c ce 6f ba bc 16 99 83 3d
       -0.011279966 0.011895423 -0.02275839 0.06425683
000360 d4 d1 c0 bc c0 9b 8c bc ce a7 19 bb a8 da 9e 3c
       -0.023537554 -0.017164111 -0.0023445967 0.019391373
000370 dd cd aa 3d 33 36 a2 3c 79 0f 2c bd 3d 40 02 3d
       0.083400466 0.019801235 -0.042006943 0.031799544
000380 d3 c0 f8 bc b3 b2 ce 3c 96 d7 4e bd 5e 8a 1a 3d
       -0.030365383 0.025231695 -0.050498568 0.037729613
000390 aa 5d 67 3d 7f 06 00 3c 31 4c 5c bd 1c 06 db bc
       0.05648581 0.007814049 -0.0537836 -0.026736312
0003a0 99 66 33 bd 38 19 be 3c 2f 14 69 3d fb b4 d0 3c
       -0.043799017 0.023205385 0.056904014 0.025476923
0003b0 40 ad de 3a 1d 9b b4 3c fb f3 ff 3c eb 08 5e bd
       0.0016988888 0.02204662 0.031244269 -0.054207724
0003c0 c6 09 32 3c 0b 5b 05 bd 49 b0 54 3d 22 33 4e 3d
       0.010866588 -0.03255753 0.05192593 0.050341733
0003d0 03 55 59 3d a4 97 6e bd 0f 19 56 bb 97 c2 57 3d
       0.05305959 -0.058250085 -0.0032668745 0.05267581
0003e0 68 a1 cb bc 40 ce 61 3c 7a 33 21 bd 18 ec 42 3d
       -0.024857238 0.013782084 -0.039355733 0.047588438
0003f0 d1 3d f7 3c 3b 93 9b bc 64 2e 4e 3d 00 cd 3b 3d
       0.030180844 -0.018991103 0.05033721 0.0458498
