models/saved/simple_hjb_model.pth (torch, 41319 bytes, 11 tensors)

z_net.net.0.weight f4 [64, 2]
00000000: 1946 3fbe 54ab 2b3f 0b3b 8e3e 85eb 083f
00000010: 90bd 0fbf 07a5 283f 2a2d ffbe 5bd1 9b3e
00000020: 912c 30be aed2 353f 3d68 13bf 740c 6ebe
00000030: 6899 6d3e f97e 31be 729f 0b3f 7824 23bf
00000040: 9a75 e13e 1557 cd3e fa9a 67bd b450 e13d
00000050: 10f8 d4be e80f df3d 5099 b3be dc1f b5be
00000060: c251 e2be e8e7 8cbe e8e3 df3e 1108 03bf
00000070: ebe9 f73e e98c 1a3f b38b 84be a49e 2c3f
00000080: 974a 9fbd 3639 493e 48c1 eabe 4e82 1dbe
00000090: d12c 6ebd b1ba 0ebf 32cd a93c a5f4 1ebf
000000a0: 0fd2 acbe 9853 d63d d196 163f 5c5b be3d
000000b0: 31b3 29bf bd04 533e f615 9c3e b6b7 0a3f
000000c0: 047c d5be 9456 0a3e ad2e 27be 1655 1a3f
000000d0: 1416 c1be 32d6 0fbe d0d4 0fbf bcf8 c6be
000000e0: f368 b6be aca1 1c3f f65d a9be 1d41 dc3e
000000f0: b945 83be 2c4c e23e 5f36 11bf f524 fc3e
00000100: cb31 073f b524 f53e 22c0 de3b bace 2fbf
00000110: d567 dc3e 7414 d9bd 412e 1f3f d45c 88bc
00000120: 2c65 0c3e 164a e2be f19f 8bbe b18a 35be
00000130: 3e8c 3dbe f4a1 5fbe b7a4 163c b70b 593e
00000140: 320d 86bd 421a 14be 38cd 23be 4c1b 00bf
00000150: 91e4 153f 159a 2fbc e53b 5f3d 0620 043f
00000160: 2428 f3bd 302c 4c3c fea6 b13c 65a2 963e
00000170: 2345 303f 1980 cbbe e53e 043d 8d0d 093f
00000180: c507 0c3f 0167 8e3d e240 40be 8069 b2bc
00000190: 7c1a 29be c058 f13d f00a 1abf f094 51bd
000001a0: 245d 243f 42df 25bf 6623 13bf 26ca c7be
000001b0: 60a3 b9be 8915 1f3f 682b 26bd cf95 253f
000001c0: 1590 033f 18bb 023f 6892 9fbe 6fb6 31bf
000001d0: 0813 813e df98 4c3e dd1c ebbe 3b5a adbe
000001e0: 548d 03be 5fad ca3e e056 c33a 0d4b cf3e
000001f0: 7de8 013f 8ca4 2abf e67b ac3e 1544 2ebe
-0.18679084 0.670583 0.2777942 0.53484374 -0.56148624 0.6587681 -0.49839145 0.30433163
-0.172045 0.71024597 -0.5758093 -0.23246938 0.23203051 -0.17333592 0.5454017 -0.6372752
0.44035035 0.401055 -0.05654428 0.11001721 -0.41595507 0.10891706 -0.35077906 -0.3537587
-0.44203 -0.2752068 0.43728566 -0.51184183 0.48420653 0.6037126 -0.25887832 0.67429566
-0.07777899 0.1965073 -0.45850587 -0.15381739 -0.05814821 -0.5575362 0.020727728 -0.6209205
-0.33754012 0.10465163 0.5882388 0.09294769 -0.6628905 0.20607276 0.30485505 0.5418657
-0.4169618 0.1350959 -0.16326399 0.6028608 -0.37712157 -0.14046553 -0.561841 -0.38861644
-0.35626945 0.6118419 -0.330795 0.43018427 -0.25639132 0.4419874 -0.5672359 0.49246946
0.52810353 0.47879568 0.0067978064 -0.68674815 0.43047968 -0.10599604 0.6217995 -0.016645826
0.13710469 -0.44197148 -0.27270463 -0.17728688 -0.1851053 -0.21839124 0.0091945445 0.21195875
-0.065454856 -0.14463142 -0.15996253 -0.5004165 0.5855189 -0.010717888 0.05450048 0.51611364
-0.118728906 0.012461707 0.021686073 0.29420772 0.68855494 -0.39746168 0.032286543 0.535363
0.54699355 0.0695324 -0.18774751 -0.021778822 -0.16514009 0.11784506 -0.6017294 -0.05116743
0.6420462 -0.6479379 -0.5747589 -0.39021415 -0.36257458 0.62142235 -0.04056874 0.64681715
0.51391727 0.5106673 -0.31166387 -0.69418997 0.25209832 0.1998019 -0.45920458 -0.33857903
-0.12846881 0.39585397 0.001490321 0.40486947 0.50745374 -0.6665733 0.33688277 -0.17018159

z_net.net.0.bias f4 [64]
00000000: 9d9b 0bbe ec68 26be 2f74 eebe 1143 6e3d
00000010: b4d7 f9be 082a efbd 8614 003f b44b c2be
00000020: 7505 f9be f905 803e 507f 21bf c646 00be
00000030: 179e 253f c99c 06bf 072a f13e 904a 39be
00000040: ead2 bf3e 1efd cc3e 7904 a139 5118 1d3f
00000050: b8ec 0ebf c80b 0cbf fe5d 183f 29b4 08bf
00000060: 4080 22bf fd55 2fbf 7540 b53e 9812 d9be
00000070: a979 ec3e bfb3 86be a65d 003f 423e b83e
00000080: 2231 023f 5147 4cbe efc4 613e ff78 b9be
00000090: 0a4f 34bf 866b 9c3e 5fca 90bc 779f e5bd
000000a0: e522 863e c831 78be f0a0 af3e 7082 253f
000000b0: c393 e63e 609c 173f 30b7 733e 2fdb d23e
000000c0: 3d62 d6be c54d 753c 6090 79be 7c79 b2be
000000d0: 7d50 2b3f 7882 6abe 5c21 2c3f 1628 653d
000000e0: e563 7abd e765 09bf b052 7d3e 7da0 8bbd
000000f0: 5435 1ebf 8e96 583d 1aa2 9bbe ff28 9dbe
-0.1363358 -0.16250962 -0.46573016 0.05816943 -0.4879738 -0.11677939 0.50031316 -0.37948382
-0.48636976 0.25004557 -0.6308489 -0.12526998 0.6469435 -0.52582985 0.47102377 -0.1809485
0.37465602 0.40036863 0.00030711645 0.6136523 -0.55829954 -0.54705477 0.5951842 -0.533999
-0.63476944 -0.6849058 0.3540074 -0.42396998 0.4618657 -0.2630901 0.50142896 0.35985
0.5085622 -0.1994908 0.2204778 -0.36225125 -0.70433104 0.30550784 -0.017674623 -0.11212056
0.26198497 -0.2423774 0.34302473 0.64652157 0.45034608 0.59222984 0.23800349 0.4118285
-0.41871825 0.014972155 -0.24371481 -0.3485831 0.6691969 -0.22901332 0.672384 0.055946432
-0.061130423 -0.53671116 0.24738574 -0.0681772 -0.6180012 0.052877955 -0.3039711 -0.3069534

z_net.net.2.weight f4 [64, 64]
00000000: d013 3cbd 900d db3d cca2 6c3d 79ab 823d
00000010: 181d 5cbd b09b 61bc 0e3d e3bd f254 353d
00000020: a9b1 5e3d cb8d dcbd bea8 85bd 17ce d33d
00000030: f5fa 853d 3178 1abd 2815 473c 3bb0 95bd
00000040: de04 c43c 8ace c0bc b509 69bc 0887 7b3d
00000050: 80b1 3e3d 0f0a eabd e6b4 e63d 3074 2dbd
00000060: 680e 653d d81b b5bd 1c08 1dbc 78f8 8f3c
00000070: 4112 1e3c fa00 fb3b 8143 00be 2057 88bd
00000080: 0c6c 173b 4e25 723d c7b7 a1bd fc52 9dbd
00000090: c4e9 e7bd 2fce 94bd ee08 ae3c c803 543d
000000a0: e11b c83d d48e ff3c 2df2 eebd dbcf 3c3b
000000b0: 9b89 02be 11de afbd bfbf 493d 5ab7 dd3d
000000c0: 07d5 42bd 9175 81bd d6b2 b0bd 80da 33bb
000000d0: 4f08 f8ba 8cba 8c3d ebbb bdbc c4bc e6bd
000000e0: 84ef dd3d f906 ea3c 0a9b c1bd 5543 c4bd
000000f0: e0a8 efbb ae1e 4cbb cd50 88bc 52a1 873d
00000100: 5d15 1bbc ed50 ed3d 8f2f 20be 44a9 4fbe
00000110: 27c8 8d3d d407 2abd 8d4c af3d e3c1 3f3e
00000120: a05d e3bc 63f2 23bd e8a7 90bd ad02 b43d
00000130: 6786 f1bd 3bbb fd3c 55cf 8d3d bfc7 4dbd
00000140: 9163 d1bd ded4 2fbe 89b4 acbd e173 a53d
00000150: 4895 903c 6687 cfbe 1138 35bc 944c f43d
00000160: 68bd 7bbd f711 d93d 9db9 77be e08c 003d
00000170: 4fb8 64bd 222d 88bd 9cbc 4e3d 1919 dc3d
00000180: 68a0 f53d 65e3 37be c0d4 0ebe 6e55 abbc
00000190: 3eda eb3d 6789 95be 366c bf3a 7e60 2a3d
000001a0: 22ca 923d 8d01 09bd 4087 0d3d 8153 f83d
000001b0: 76f9 afbd 67bf 92bd 2245 8f3d acab febd
000001c0: 6618 69bd fa9f a63d 202f ee3b c252 e9bd
000001d0: 4e06 4b3c 1866 663d 2bcd de3d 69d9 53bd
000001e0: a08a d4bd 89a4 a03d e6b4 e23c 7160 2bbd
000001f0: 5658 63bd c02c 21bc 5af0 223e 0f5d c63e
00000200: 4532 483b c75b 133c c2f2 b5bb 987b e2bd
00000210: 03f9 83bc f6fa a73d e272 493c c67c d1bd
00000220: 18bd 56bb 820e afbd 9636 88bd 15ee c2bd
00000230: ecc5 1abd ec07 a93d 0f9c e33d 3272 ab3d
00000240: b5b5 d93d 1766 bc3d 526d e13d 0d91 b0bd
00000250: 649a 1b3d ab74 dc3d 36ee a9bc 13b1 4e3d
00000260: a4d2 fb3d 23d4 f4bd 3870 2cbc b047 d5bc
00000270: 342b c43c 2f1e eabd 04ed 76bd 4ce4 3c3d
00000280: e57f b8bd 0c58 ff3b 07b0 1e3d bf61 9b3d
00000290: ec84 a23d 2f16 b83d 29db f3bd 0fe6 2d3c
000002a0: 1ea6 ae3c 01a1 45bc 4a23 833d 58bb 9dbd
000002b0: ba28 0abe 8b61 e4bd 49fc f9bb 87a2 3abd
000002c0: ba7c a63c f48d 02bd 78c6 c9bd 12a6 f93d
000002d0: 0fa1 a8bd 8061 82ba f4f4 f8ba b96d 04be
000002e0: 6514 0abc 9865 073e f403 bd3c 00dd aabc
000002f0: fabb efbb 93a3 b6bc 6752 ee3d e723 acbd
00000300: 6e32 853d 0c85 4c3d 5406 ecbd 860c d2bd
00000310: 7c42 6c3d 4070 8ebd 3816 cabc 9093 08bc
00000320: 061f e2bd 4037 c33d 1c45 463d 3882 71bd
00000330: 4010 553c f4a3 143d 8ebc f9bd 0a09 c23d
00000340: 2279 ffbd 08d9 e4bd b071 a7bd 481d fc3c
00000350: 6019 91bd 2c15 afbd a281 ecbd 4a36 dbbd
00000360: 868c ec3d 00ce 4c3c 2cac dcbd e079 a3bc
00000370: 5c7f 9d3d 3044 b83c 9a54 db3d a03e f53b
00000380: 8c36 b1bd 6660 f5bd 480e adbc aae9 92bd
00000390: c0a4 2f3b 000b 8bbc e8e5 9fbd a0ec a6bb
000003a0: 58fd bdbc b08d 773d 1431 7dbd 70a3 053c
000003b0: 4008 80bd 1021 dcbd 10ad eabd 8ab3 8abd
000003c0: 5067 bc3c 5422 7abd 4878 ac3d 6c89 e6bd
000003d0: 089b b9bc 20b8 573d da98 ddbd d68d cfbd
000003e0: a644 9bbd 1484 3a3d d09d 96bd 8882 fabc
000003f0: 4676 c4bd d012 f03d 0892 473d c097 14bd
-0.045917332 0.10695946 0.057772443 0.06380362 -0.053738683 -0.013770029 -0.1109563 0.044270463
0.05436865 -0.10769232 -0.06526326 0.10342043 0.06542007 -0.03771228 0.01215104 -0.07309004
0.023928102 -0.023535985 -0.014223506 0.061408073 0.046555996 -0.114277 0.112649724 -0.042347133
0.055921942 -0.088432014 -0.009584453 0.017574534 0.009647907 0.0076600285 -0.1252575 -0.06657243
0.0023105172 0.059117608 -0.07896381 -0.07681844 -0.11323884 -0.07265889 0.021244492 0.05176142
0.097709425 0.031196035 -0.11667285 0.0028810415 -0.12747805 -0.08587278 0.04925513 0.10825987
-0.04756644 -0.06321252 -0.0862786 -0.0027443469 -0.0018923375 0.068715185 -0.023160895 -0.11266473
0.108366996 0.028567778 -0.094533995 -0.09583155 -0.0073138326 -0.0031146216 -0.016640091 0.06622566
-0.009465543 0.11587701 -0.15643142 -0.20279413 0.06922942 -0.04151137 0.08559523 0.18726306
-0.027754605 -0.04002608 -0.070632756 0.08789573 -0.11793213 0.030973068 0.06924311 -0.05023932
-0.10224069 -0.17171046 -0.08432872 0.08078743 0.017649308 -0.40532988 -0.011060731 0.119286686
-0.06145993 0.1059913 -0.241919 0.03138435 -0.055839833 -0.066492334 0.05047284 0.107469745
0.11993486 -0.17957838 -0.13948345 -0.02091476 0.11516236 -0.29206392 0.0014604393 0.04159593
0.0716746 -0.033448745 0.034552813 0.12125302 -0.08592503 -0.07165413 0.06995608 -0.124350876
-0.056908034 0.08135982 0.0072688013 -0.11392738 0.01239164 0.056249708 0.108789764 -0.05172101
-0.10378003 0.078438826 0.02767415 -0.04184002 -0.055504166 -0.009837329 0.15912 0.38742873
0.003054754 0.008994049 -0.0055526206 -0.1105873 -0.016109949 0.08202164 0.012295457 -0.10228877
-0.0032766517 -0.08547689 -0.066510364 -0.09518067 -0.03778641 0.08253464 0.1111375 0.083713904
0.10630361 0.091991596 0.11007179 -0.08621416 0.037989035 0.1076444 -0.02074347 0.05046184
0.12296036 -0.11954524 -0.010524802 -0.02603516 0.023946382 -0.11431538 -0.06028463 0.04611616
-0.09008769 0.0077924784 0.03874209 0.07587003 0.07935509 0.08988606 -0.11907036 0.010613932
0.021319445 -0.012062312 0.06403215 -0.077017486 -0.13492098 -0.11151417 -0.0076289517 -0.045565154
0.020323146 -0.03187366 -0.09852308 0.121898785 -0.082338445 -0.000994727 -0.00189939 -0.12932481
-0.008427714 0.13222349 0.023073174 -0.020857334 -0.0073161097 -0.022294795 0.11636811 -0.08405285
0.06503759 0.04993157 -0.115246445 -0.10256295 0.057680592 -0.06955004 -0.024668798 -0.008335963
-0.110410735 0.095320225 0.04840575 -0.058962077 0.013004363 0.03628917 -0.12194167 0.0947438
-0.12474276 -0.11174208 -0.08175981 0.030775681 -0.07084918 -0.0854896 -0.11548163 -0.10703714
0.1155024 0.012500286 -0.10775027 -0.019955575 0.076903075 0.022493452 0.10709496 0.007484272
-0.08652982 -0.11981277 -0.021124974 -0.07173474 0.002680108 -0.016973019 -0.07807523 -0.005094126
-0.023192093 0.060437858 -0.061814383 0.008156642 -0.062515736 -0.10748494 -0.1145879 -0.067725256
0.022998482 -0.061067894 0.08421379 -0.1125668 -0.022656932 0.05266583 -0.1082017 -0.10134475
-0.07581453 0.045536116 -0.07354319 -0.03057982 -0.09592871 0.11722338 0.04872325 -0.036277533

z_net.net.2.bias f4 [64]
00000000: 1794 5e3d fa9d a6bd c590 d63d 5c89 a7bd
00000010: 53a1 0c3d 4906 e4bd feed 8bbd 683b 323d
00000020: 204b c0bb 103a 783d 7fb8 ae3d 96e4 983c
00000030: 000b f03d 87f4 dc3d d980 c4bd 9f71 8d3d
00000040: 1de6 97bd e853 8d3c e33a c9bd 7a11 9dbd
00000050: 8e1c 9abd 40e4 043d 37f0 7b3d 1a99 afbd
00000060: 9c70 263d 9f89 a8bd 3df0 323d 31d0 d6bd
00000070: c4f5 b73d 5224 b1bc c24b b53d c00c c7bd
00000080: a570 c33d 4321 af3d c74c 8fba 80a9 d23c
00000090: 41af 81bc 5251 c7bd 113f 1ebe c497 c8bd
000000a0: a002 623d 8bac ab3d 426f 1bbd be88 b03d
000000b0: 636f d63d 0d77 86bd 0053 51bb 0805 d33c
000000c0: 3d85 41bc f0cc 06bc 4d48 403d 3845 57bd
000000d0: f30f f9bd 7cc7 93bd 2a4a a23d 5174 b03b
000000e0: 46f2 95bd d428 2c3d 6cfd 0cbe 3946 ff3c
000000f0: 4f3a e1bc 8e6c 983d 997d fdbb d17e 423d
0.05434045 -0.081356004 0.10476831 -0.08180496 0.03433354 -0.11134011 -0.06832503 0.043513685
-0.0058683306 0.060602248 0.085312836 0.018663686 0.11720848 0.107888274 -0.09594888 0.06906437
-0.074169375 0.017251924 -0.09825685 -0.07669349 -0.075249776 0.03244424 0.061508384 -0.08574124
0.040634736 -0.08229374 0.04368614 -0.10488928 0.08982423 -0.021623764 0.0885234 -0.09719229
0.095429696 0.08551266 -0.0010932916 0.02571559 -0.015830638 -0.097323075 -0.15453745 -0.09794572
0.055178285 0.08382519 -0.0379479 0.086198315 0.10470464 -0.06565676 -0.003194034 0.025759235
-0.011811552 -0.008227572 0.04694395 -0.052556247 -0.12161245 -0.07215783 0.07924302 0.0053849597
-0.073216006 0.042031124 -0.13768548 0.031161414 -0.027493624 0.0744258 -0.0077359197 0.047484223

z_net.net.4.weight f4 [3, 64]
00000000: 766c 0a3d 2757 4cbd 058e 6fbc 94c2 d93d
00000010: ebab c1bd c8c9 40bd 48d0 a53d 6273 8c3d
00000020: ebc6 acbd 4bcc babd 6a8f e1bd 7ef7 ae3d
00000030: 5a41 79bd b83d 72be 8313 74bd 7719 d93d
00000040: 8b78 c83d b0ad f53c 228f 5d3d f530 e63b
00000050: 631c fdba 9596 e43c 6f76 a1bc 6e99 fa3d
00000060: 9e5c bcbd f0fd b43d a262 ff3d 442f 53be
00000070: 8cea 873d 980e 853d 0056 9ebd 70bb 893c
00000080: bd54 1fbd a7ec 5a3d ea66 f6bd e68e efbd
00000090: 49ff 843d de9e cbbd cc7b 15bd e7cd a53d
000000a0: 0f33 983c 55a9 11bd d401 e63b a996 eb3b
000000b0: 73d0 cebd ccd4 8dbc e0b2 ad3b ce33 b13d
000000c0: fb47 3bbd 50b1 61bc 6c67 41be c2ae ce3d
000000d0: ad32 84bd d71e b3bd 587c eebd a56a ebbd
000000e0: 7d5b bb3d 5065 27bc dc22 9abd 05de 953d
000000f0: ab5f 5cbd bf51 1fbc cbd4 ad3d 7a80 863d
00000100: 08ce 18bc c1b0 1b3e eb09 9f3c d0f0 353d
00000110: c3ad 86bd bddc 77bd 70c8 3ebd 343a dabd
00000120: 3d57 9e3d 23d1 11bc 6eef 18be 4a5b ef3d
00000130: 2e94 103e 61b6 83be 0e72 13be f7bb a8bb
00000140: 773f cabd b8ea d33c 4752 443e 79c1 86bc
00000150: 836b 42bd cdd2 863d ce65 713d 3eff bdbd
00000160: b8c8 c83d acce 95bd cba1 23bd 537e 99be
00000170: 0bcc bebc b80c 2a3d d0d4 93bc 6c51 983d
00000180: 9f5d 3e3d 99f3 0ebc c9c6 12bd a0d9 bcbd
00000190: aeb9 8b3d c0ec 023c 8a89 73bd 1f2e ff3c
000001a0: 27af 363c fa0f 82bd a23f 3dbe 4ffa f3bc
000001b0: d1df 703d 1e2a 853d e0b3 403d 200e f83b
000001c0: 7d9a 463d 906f cc3c d27d 21be da4c db3d
000001d0: 3e21 14be ff80 d0bd 28fd 89bc 030f c93d
000001e0: 1ec1 233e 188e 3fbd f34e 9d3d 0585 c2bd
000001f0: caf9 eb3d 4684 943d 0ade 3ebd 0b19 073e
00000200: f8ad 23bb 2221 893d 188c a3bd ee66 acbd
00000210: 0bbb bc3d 5e71 1fbd 2070 15bd 540d a4bd
00000220: 6cf2 c63c 78e7 c8bc d11a 9bbd 2d5f 2b3d
00000230: 6a4c f63d 8aa9 5ebe cdd0 96bd f9a0 a13b
00000240: 7560 ccbd 3014 813c a652 043e 5f6f c73d
00000250: e571 493d 3b26 bb3d 926a babd e89c 07bd
00000260: 7281 92bd 571f 883d 4185 fd3d 0d44 6ebe
00000270: 2d99 563d 39f4 1abd c4e9 dabd aa16 d2bd
00000280: 1322 8c3d 0457 c33d 4986 44bd 283b 8b3d
00000290: 0962 643c b280 d53d 0cee 763d ff94 763d
000002a0: affa dc3d 21d0 3cbe 1534 24be 461e b1bc
000002b0: 9bfd eebd 3c83 59bd 20c4 603c 685a 3ebd
000002c0: c400 b13d 8259 b4bd f940 423d 347b e8bd
000002d0: 556e 20be c7e6 9d3b 7e65 e3bd cdff af3d
000002e0: 9e16 67bb 101c a53c 04b2 7c3c 45cf 433c
000002f0: 1408 e33d 426a 69bd bfbb 283d 4727 ad3b
0.033794843 -0.049887802 -0.014621262 0.10632816 -0.09456619 -0.047067434 0.08096367 0.06857945
-0.08436378 -0.09120997 -0.11013682 0.08543299 -0.06085334 -0.23656356 -0.05958892 0.1060056
0.09788617 0.029990047 0.05409158 0.007024879 -0.0019310828 0.027903834 -0.019709794 0.12236296
-0.09197353 0.08837497 0.124699846 -0.20623499 0.06636533 0.06496924 -0.07731247 0.01681301
-0.038899172 0.053448346 -0.12031348 -0.116971776 0.06494004 -0.09942411 -0.036495015 0.080959134
0.018579034 -0.03556188 0.007019261 0.007189591 -0.10098352 -0.017313384 0.0053008646 0.08652459
-0.045722943 -0.013775185 -0.18887109 0.10091926 -0.06454978 -0.087461166 -0.116448104 -0.1149495
0.091483094 -0.010217026 -0.0752618 0.073177375 -0.053802174 -0.00972408 0.08487853 0.06567474
-0.009326465 0.15204145 0.019413909 0.04441911 -0.06576111 -0.060513247 -0.04657787 -0.106556326
0.07731483 -0.00889996 -0.14935085 0.11687334 0.14119026 -0.25725082 -0.14398977 -0.0051493603
-0.09875386 0.025868759 0.19172011 -0.016449677 -0.047465812 0.06583176 0.05893498 -0.09277199
0.09803909 -0.0731481 -0.03994922 -0.2997919 -0.023290655 0.041516036 -0.018045813 0.07437405
0.046476003 -0.00872507 -0.035834108 -0.09221196 0.06822525 0.007991016 -0.05945734 0.031149922
0.011150158 -0.063507035 -0.18481305 -0.029782442 0.058807198 0.06502174 0.047046542 0.007570043
0.048487175 0.02495554 -0.15770653 0.10708018 -0.14465806 -0.10180854 -0.016844347 0.098173164
0.15991637 -0.04676637 0.07681074 -0.09498028 0.11522253 0.07251792 -0.04659847 0.13193147
-0.002497552 0.06695773 -0.07985705 -0.0841807 0.09215363 -0.038926475 -0.036483884 -0.08010355
0.024285518 -0.024524435 -0.07573474 0.041838814 0.120262936 -0.21744362 -0.07364044 0.0049325195
-0.09979335 0.015756696 0.12922153 0.09738039 0.049180884 0.09138151 -0.09102358 -0.03310862
-0.07153596 0.066466026 0.12378932 -0.23268147 0.052392174 -0.037830565 -0.106891185 -0.10258229
0.06842437 0.09538081 -0.047979627 0.067983925 0.013939389 0.10424937 0.060285613 0.060200687
0.107900016 -0.1843877 -0.16035493 -0.02162088 -0.11669465 -0.05310367 0.013718635 -0.046472937
0.08642724 -0.08806135 0.047425244 -0.11351624 -0.15667088 0.0048187706 -0.111033425 0.08593712
-0.0035261284 0.020154983 0.015423302 0.011951272 0.11085525 -0.0569861 0.041194674 0.0052842232

z_net.net.4.bias f4 [3]
00000000: 4cdb 64bb 4801 1f3d 5cfc 493d
-0.003492075 0.03881958 0.049312934

q_net.net.0.weight f4 [64, 2]
00000000: 5812 0e3f 858b 97be 8cc7 ba3e 12d1 3abf
00000010: d595 d63e 7ebe e5ba c8ca 0a3f 0984 173f
00000020: 7861 63be 37db 20bf 2573 703d c4e0 19be
00000030: 1ce3 0c3e 4c0c b9be 4f3d 533e e7ad 363e
00000040: 2bc5 863e ac05 e83e bab6 dabd 9272 ebbe
00000050: 5192 f6be dc44 4e3e f976 19bf e07a aebc
00000060: d3d8 133f 0b97 42bf 0034 09bf 6e13 eebd
00000070: 240a 1bbf ddea 0f3f fdc9 fa3e 8ecb edbd
00000080: b6f1 ff3e 00a3 a2bc 1c86 193f f11d 113e
00000090: 1b52 ae3e 7727 153f f769 0ebf cfd4 22bf
000000a0: 8940 cd3e a68e 1f3f 8297 17bd 1f7a 1fbe
000000b0: 51cf 0c3f f206 e53e 11f0 55be 7656 363f
000000c0: b50d e5be 132f dd3e 851d ccbe 0f32 5cbd
000000d0: 4db1 f3be 08ea 21bf a77d 0c3f cb44 46bf
000000e0: 7fba de3c 0c3d 24bf e0db a93e 1013 0a3f
000000f0: 5071 c8bd c0b7 b73d c52b 293e 431a ebbe
00000100: a5d0 b6be b199 d5be 3cdd 0cbf 9866 3ebd
00000110: 3af1 9dbe b0aa 0e3e 099d 8f3e 8844 1e3f
00000120: e74b 1dbf 5540 86be f2fa c8bc 1ed4 1d3f
00000130: 2143 e73e 5609 acbe f5f4 8e3c 1f37 1f3f
00000140: b169 0fbf a009 11be c064 d4bd 00db 2ebe
00000150: c69b 7bbe aeb5 81be e7bd e63e 115a 5f3c
00000160: 6c81 dc3e 12dc a23e bbc0 b1be c008 4c3d
00000170: 813c 883d c6a3 823e 3717 d8be 9874 d73d
00000180: 7e21 32be aa3d 153f 2cfc 7bbe 135d b3be
00000190: 16d2 01bf 20b7 90be 9723 17bf b5c9 833e
000001a0: 1451 e13c e36b 353f fd05 d3be 550e 9b3e
000001b0: 675c 4c3e ded8 703e 2ad0 9c3e 8c0d 333f
000001c0: 01ed 1b3f e158 d13e f6b0 72be 4045 7b3c
000001d0: 8c69 1c3f c0ac 2dbf 9f32 553e 396a 253f
000001e0: ff50 9a3d 2297 2f3f d508 393f daf8 f63e
000001f0: 14a7 203f 0375 2dbf 6ac3 d3be a01d 4a3d
0.5549674 -0.29598632 0.36480367 -0.72975266 0.41911188 -0.0017528085 0.5421567 0.59185845
-0.2220515 -0.62834495 0.05870356 -0.15027148 0.1375851 -0.36142194 0.20628856 0.17839776
0.26322302 0.45316827 -0.106793836 -0.45985848 -0.48158506 0.20143455 -0.5994716 -0.021298826
0.5775272 -0.76011723 -0.5359497 -0.116248 -0.6056235 0.5621775 0.4898223 -0.116110906
0.49989098 -0.019853115 0.5997026 0.14171578 0.34047017 0.58263344 -0.5563044 -0.6360597
0.400883 0.6232704 -0.037009723 -0.15573929 0.5500384 0.4473186 -0.2089236 0.7122568
-0.4473702 0.43199977 -0.39866272 -0.053758677 -0.47596207 -0.6324773 0.5487923 -0.7744872
0.027188538 -0.6415565 0.33175564 0.5393534 -0.09787238 0.089705944 0.16520603 -0.45918474
-0.35706058 -0.4171882 -0.55025077 -0.04648456 -0.30848104 0.139323 0.28049496 0.6182332
-0.6144394 -0.26220956 -0.024533723 0.6165179 0.45168403 -0.33600873 0.017450789 0.62193483
-0.5602065 -0.14163828 -0.10370779 -0.1707573 -0.24571142 -0.25333923 0.4506676 0.013632313
0.4306749 0.31808525 -0.34717354 0.049813032 0.06652165 0.25515574 -0.42205212 0.10520285
-0.17395589 0.58297217 -0.24607915 -0.35031947 -0.5071119 -0.28264713 -0.5903868 0.25739828
0.027504481 0.7086775 -0.41215506 0.30284372 0.19957124 0.23520228 0.30627567 0.69942546
0.60908514 0.40888122 -0.23700318 0.015336335 0.6109855 -0.6784172 0.20820092 0.6461521
0.0753498 0.68589985 0.722791 0.48236734 0.6275494 -0.6775667 -0.41360027 0.04934466

q_net.net.0.bias f4 [64]
00000000: c926 0a3d 6580 613e 00ef 53be 73cb 023f
00000010: 7ad3 27bf fca4 993e b9e2 27bf e9fc 073f
00000020: c09f de3d 92a8 103c dd7c bfbe c9e6 833e
00000030: c563 2fbf 2406 e43e 133a 073f de3e bf3e
00000040: a3f1 1bbf 096b 863e 4b71 09be a779 233f
00000050: 0b57 9d3e 5371 043f 6278 23bf 47e6 e73d
00000060: fbf5 3a3e 5d0a 0e3f 9ca1 c63e beaf 083c
00000070: 3642 263f b0a4 ae3e 664d 06bf 00d4 80be
00000080: 4f03 90be 9da6 123f fd24 1fbf 8d52 e1bd
00000090: c310 1f3f 058d 993e d8c5 b83e b4d1 81be
000000a0: eb7c 1ebf 3056 f0be 7452 8dbe cfe4 88be
000000b0: d66d 11bf e1ee e8be 6d83 a93d de73 7abe
000000c0: 72ad 99be 0f86 94bd b732 f43e 9beb adbd
000000d0: 6c6d 43bc 8cf7 f4be 1d69 1fbf 112e ed3e
000000e0: 423a 983e 1838 50be 6417 63be 749e 863e
000000f0: f164 d33e bcfc 37be de6d b3be cc04 80be
0.033728395 0.22021635 -0.2069664 0.5109169 -0.6555706 0.30008686 -0.65580326 0.53120285
0.10870314 0.008829253 -0.3739995 0.25762013 -0.6851161 0.44535935 0.5282299 0.3735265
-0.60915583 0.26253536 -0.13422124 0.638575 0.3073047 0.5173542 -0.63855565 0.11323219
0.18257897 0.55484563 0.38795173 0.008342681 0.6494478 0.34110022 -0.5246185 -0.25161743
-0.28127524 0.5728548 -0.62165815 -0.110020734 0.6213495 0.29990402 0.36088443 -0.25355303
-0.6190936 -0.46940756 -0.2760197 -0.26737067 -0.5680822 -0.4549475 0.082770206 -0.24458262
-0.3001514 -0.07252132 0.47694942 -0.08492204 -0.011927944 -0.47845113 -0.62269765 0.46324208
0.29731947 -0.20333898 -0.22176892 0.26292765 0.4128795 -0.17967504 -0.3504476 -0.2500366

q_net.net.2.weight f4 [64, 64]
00000000: 8966 493b 9d32 523d 3dbf b13d d490 953c
00000010: 409c df3d 74f0 b63c b0fc 2fbc f9e7 90bd
00000020: bfc0 ae3d 8eff e6bd 7af6 bb3d e17c 2c3e
00000030: 4541 cfbd e15f 4f3c a165 c83c 4cb5 ddbd
00000040: 8006 d2bd 854f 9c3d c39a 39bc a465 52ba
00000050: 85e2 323d 163a 2fbc 2d0a 443e 6d39 efbc
00000060: 9653 dcbd d8e6 253d a083 babc ff3e 6a3d
00000070: 5bdd f2bd 80e1 93bc 58ba 9f3d f32f 17bc
00000080: c2b4 023e 89e9 0ebe e04e acbc d419 923d
00000090: 549b 323e 1588 bf3d a719 c13d 70a9 9f3c
000000a0: f059 463c d067 fabc 30df dc3c 2918 433e
000000b0: fab5 023f 1cb8 2d3d 0bae 013c a485 b4bd
000000c0: 8f9a 10be 2a14 903a 9938 eb3c e919 583d
000000d0: a8fb ab3d e04e ab3d dc76 8bbc b8b3 1a3d
000000e0: 99ed 48bd a8f6 f53d 49c5 5dbe 21db cb3d
000000f0: eb01 9cbd 2d2f 37bd a80f 93bd 60da 4bbd
00000100: 23fd 9b3d b425 3a3e 7f34 03be fcf5 a93c
00000110: 0c59 3a3d ad14 213d e06c 0bbc 99ac 003e
00000120: 9fcc bdbd 0bc3 523e d004 d13d e07d 133e
00000130: cf26 7d3e a19b 6a3d 1299 c8bc f859 943d
00000140: 0c75 f3bd 6eae 73bd 544e 28bd 343b 353d
00000150: 3741 0b3e 71e9 ab3d 762f 2ebe a406 b1bd
00000160: 0be6 b4bd 784b 003e 4772 c43c 76bc 173e
00000170: 58c9 f0bc 8f0c c3bd 0082 b2b9 2e5e f63d
00000180: 8c61 b6bd 0e97 173e 7420 cbbd 63b5 013d
00000190: 38e8 e93d f085 e83d 0a7a 693d b619 61be
000001a0: ac1d 393d fe5f 88bd 9896 003d d99f dabc
000001b0: 6765 d2be e0a3 b5bc 0111 debd 9876 e0bd
000001c0: 4354 a2be bd71 7f3c 41ea f03c e4be 16be
000001d0: 8386 9ebd 76bb 953d f0ee f5bd 19c9 c0bd
000001e0: 3c52 7dbc fcc8 4b3d fe57 a73d a3d7 cfbc
000001f0: 8b09 b7bd 4612 edbd 2a9e 013e 6486 a73d
00000200: 9e52 64bd 33cf 66bb 1d77 353e 6a95 94bd
00000210: 84a7 bc3d 2473 ae3c 68a2 9c3d 6be5 3fbc
00000220: 019a e7bc 1686 72bd 7880 283d bb93 153e
00000230: 8b45 17be 414c 193e f7ed f9bd 1acb e53d
00000240: 6007 f3bd b9b0 a43d 2fcc 9c3d fff1 09bc
00000250: 1af6 dd3d 73b4 813b 134b 333e 4494 123e
00000260: b58f ee3c baa6 963d 8625 d53c c661 b4bc
00000270: 8bff 5d3c c577 4dbd 683a 3a3d d91c bbbd
00000280: 1efc ef3d 3ccc 11be 8896 aebc 2c41 b43c
00000290: cf4c ee3c fb90 ca3d 384a 65bd b326 013e
000002a0: fc82 f3bd 2051 c13c 0e56 e6bd 3361 6c3e
000002b0: 69b7 033f 245c c0bd e2c1 c43d 7484 633d
000002c0: 338c 43bd d0d9 0dbe 5616 bc3d 3c7b 153e
000002d0: c2bf 033d b126 ecbc 24de f03d b9b1 e03d
000002e0: 7327 4b3d 80ac 383b d08e 39be 2236 813d
000002f0: 6c17 633d 51c1 2d3e decd 15be 0a53 b73d
00000300: fa24 913d a2f3 86bc bd82 0d3e a528 dbbc
00000310: 7c34 903d f095 e13d 740c 0fbd 5631 303d
00000320: 670b 33bc a66f 803d 4631 8e3d c3e8 883c
00000330: b4d3 17be c0c6 98bb 7694 99bc 4468 a73c
00000340: 966c ac3d 5504 43bd e3eb ac3d f3a0 cebd
00000350: 237f 84bd 22e9 0fbd 11b0 a53e d588 563c
00000360: 5690 a63d a9b2 78bd 66a5 2a39 87a2 23bd
00000370: d367 c1bc cc7e 043e 1e6e a3bd 6d89 4a3d
00000380: d071 4bbc 9d5b 973d 5817 bfbd 45ac ca3d
00000390: 7580 1a3e 570e 34bd 4ff5 e43d ff9b df3c
000003a0: c855 ecbc 2c1a afbd a0fe c8bb 2ba9 423e
000003b0: 92eb e23e 2249 ae3d 0c7b fe3c f452 2abd
000003c0: 44f1 00be 63af 97bd 9fc7 943d 6a49 133e
000003d0: b589 8b3d a4d0 f23d e4aa 39bd a9f9 8ebd
000003e0: b573 57ba 0039 b8bd f31f a7be 0355 dd3d
000003f0: af75 223c fa9d bfbc 9902 dfbe 000a 37ba
0.0030731282 0.0513178 0.08679054 0.018257536 0.10918474 0.022331454 -0.010741398 -0.07075495
0.08532857 -0.11279212 0.09177871 0.16844513 -0.10119871 0.012657137 0.024462523 -0.10825595
-0.10255146 0.07632355 -0.011328402 -0.000802601 0.043673057 -0.010695001 0.19144507 -0.029202187
-0.1075813 0.040503353 -0.022767842 0.057188984 -0.118586265 -0.018051863 0.07799214 -0.009227741
0.12764266 -0.13956274 -0.021033704 0.071338326 0.17442065 0.093521275 0.09428721 0.019489974
0.012106404 -0.03056708 0.026961893 0.19052185 0.51058924 0.04241191 0.00791503 -0.088145524
-0.1412146 0.0010992337 0.028713511 0.052759085 0.08397609 0.083646536 -0.01702445 0.03776905
-0.049054716 0.120099366 -0.2165729 0.09953905 -0.07617553 -0.044722725 -0.071807206 -0.049768806
0.07616641 0.18178445 -0.12812994 0.020747177 0.045495078 0.03932636 -0.008509845 0.12565841
-0.09267544 0.20582215 0.10205996 0.14403486 0.24721836 0.057277326 -0.024487052 0.07243723
-0.11887559 -0.05949252 -0.041090325 0.044245914 0.13599096 0.08394135 -0.17010292 -0.08643845
-0.0883294 0.12528789 0.023980273 0.14817986 -0.029392883 -0.0952388 -0.00034047663 0.12029682
-0.08905324 0.14803717 -0.09918299 0.031667124 0.11421245 0.113536716 0.05700115 -0.21982464
0.045194313 -0.06658934 0.031393617 -0.02668755 -0.4109299 -0.022172868 -0.10843087 -0.1096012
-0.31704912 0.015591082 0.029408576 -0.14721256 -0.077405 0.07311146 -0.12008464 -0.09413356
-0.015461501 0.04975222 0.0817108 -0.025371378 -0.08937367 -0.11575751 0.12657991 0.0817993
-0.055742852 -0.0035218715 0.1772122 -0.07255061 0.092116386 0.021295138 0.07648164 -0.011712412
-0.028271677 -0.059209906 0.041138142 0.14607136 -0.14772622 0.14970495 -0.12203591 0.11220379
-0.11866641 0.0804152 0.076561324 -0.008419513 0.10837956 0.003958279 0.17509107 0.14314371
0.02912126 0.07356019 0.02601887 -0.022019278 0.013549696 -0.05016305 0.045465857 -0.09136362
0.117180094 -0.14238065 -0.021312013 0.022003733 0.02908936 0.09890934 -0.055978984 0.12612419
-0.11890218 0.023598254 -0.112468824 0.23083954 0.51451737 -0.093925744 0.09607293 0.05554624
-0.047741126 -0.1385262 0.09183948 0.14597791 0.032165296 -0.028827043 0.1176112 0.10971398
0.04959817 0.002817899 -0.18120885 0.06309153 0.05544226 0.16968276 -0.14629313 0.08951385
0.07087131 -0.016473595 0.13819404 -0.02675278 0.070412606 0.110149264 -0.034923986 0.0430158
-0.0109280115 0.06271295 0.06942992 0.016712552 -0.14826852 -0.0046623647 -0.01874755 0.02043546
0.084191486 -0.047611553 0.08443429 -0.100892924 -0.06469562 -0.035134442 0.3236089 0.013094147
0.08132999 -0.06071726 0.00016274079 -0.03994992 -0.023609078 0.12938994 -0.079799876 0.049447466
-0.012417272 0.07390521 -0.09330624 0.09896139 0.15088065 -0.043958988 0.111796014 0.027296064
-0.028849497 -0.08549914 -0.0061338693 0.19009845 0.4432035 0.08510043 0.031064533 -0.041583017
-0.12592036 -0.07406499 0.07264637 0.14383474 0.06813375 0.11856201 -0.04532899 -0.06981213
-0.0008218841 -0.08995247 -0.32641563 0.1080723 0.009915753 -0.023390759 -0.4355667 -0.0006982386

q_net.net.2.bias f4 [64]
00000000: df1f dc3d 4c27 b43d 53b2 06bd 72f0 863d
00000010: 2b04 1a3d 005a 14bb 9867 973d 91cf ab3d
00000020: ef3c cb3d 165f 9c3d 7c26 de3d a219 2dbd
00000030: 0618 433d fa16 ab3d 2806 db3d 8824 7eba
00000040: 635a 57bd 0b0f e63d 5053 733c 5555 e1bd
00000050: e0be a0bd 166f 3b3d 44fe 993c 47c0 c9bd
00000060: 8629 353d cdef 68bd 57e6 183d b4d4 83bd
00000070: 1e39 18bd 4da5 7e3d b8f5 8abc 38b9 db3b
00000080: ec53 803c 3d15 473d cd5e 873d ba90 9e3d
00000090: fe11 bdbd 9ebb 733d 7e87 2a3d dcf1 753d
000000a0: c2a4 d03d 752c 39bd 50db 5b3b bc82 d5bd
000000b0: 687c 09bd 1dea 31bd e7fb 0c3e ed42 c1bd
000000c0: 9f34 c43c 34f9 313d ef71 943d 8f99 023e
000000d0: 9935 01bc 0ab5 c2bd 3858 e53d c971 a9bc
000000e0: 7c56 ec3b 418f c93c 3543 6c3d cdde a43d
000000f0: 11fe 9e3d 7a57 ffbd 7ad1 cfbc 03e2 a93d
0.107482664 0.08796558 -0.032884907 0.0658883 0.03760163 -0.0022636652 0.07392806 0.083891995
0.099237315 0.07635324 0.10847184 -0.042260773 0.047630332 0.08353992 0.106945336 -0.00096947746
-0.052576434 0.11233338 0.014851406 -0.11002604 -0.078489065 0.045760237 0.018798001 -0.09851127
0.044229053 -0.056869317 0.037329044 -0.06437054 -0.037163846 0.06216936 -0.016962871 0.0067054294
0.015665017 0.04860424 0.06609879 0.07742448 -0.09231947 0.059505098 0.04163312 0.06004511
0.10187675 -0.045208413 0.0033547468 -0.10425326 -0.03356591 -0.04343616 0.13767968 -0.09436593
0.023950873 0.04345055 0.072482936 0.1275389 -0.007886314 -0.09507187 0.11198467 -0.02068414
0.007212458 0.024604442 0.05768128 0.080503084 0.07763303 -0.12467857 -0.02536844 0.082950614

q_net.net.4.weight f4 [1, 64]
00000000: b617 00be 5291 ce3d 9b74 e4bd fc63 8cbd
00000010: 67c9 10be 3e0f 9abd bcd5 97bd 2ab1 15be
00000020: e790 b93d dc6c 9dbd 6e67 b8bd c9d5 5dbe
00000030: e803 ad3d 4eb8 d6bc a105 e63d bca4 143e
00000040: e171 19be 825a ca3d 94f8 1a3d 762a 11be
00000050: 242e bdbd c59c 333e 16d2 b1bd 2f6b 503e
00000060: 74af b2bd a605 a3bd 8e0d 6e3b ece1 1c3e
00000070: 6354 663d 6b7c 10be 14cf f1bd ec46 edbd
00000080: 0c05 e3be ce62 d5bd 958f c1bd 751e a8bd
00000090: 0ac1 5c3e f08c 8b3d 0b74 16be 6af9 67bd
000000a0: 2098 94bc 9b43 fa3d 7f08 0cbe 87b2 103e
000000b0: 1dfa 8b3d 596c 4dbe b28b 3a3d 21b8 6fbd
000000c0: 060b 3a3e a7f5 e23d cfc4 1bbd 434d 11be
000000d0: efc0 013d f883 a4bc d471 a83d 05fd 293e
000000e0: 638b cf3d 4af2 f2bd 4f69 e13a 4253 153e
000000f0: aea3 76bd 8008 a2bb d8fd 0bbe 986e a53c
-0.12509045 0.100863114 -0.11155053 -0.06855008 -0.14139329 -0.075224385 -0.074138135 -0.14618364
0.09060841 -0.07686779 -0.09004103 -0.21663584 0.08448011 -0.02621093 0.112315424 0.14515966
-0.14984848 0.09880544 0.03783472 -0.14176354 -0.09237316 0.17540272 -0.08682649 0.20353387
-0.08724871 -0.07960062 0.0036323997 0.15320557 0.05623282 -0.14109962 -0.11807075 -0.11585793
-0.44339788 -0.10419236 -0.09451214 -0.08208934 0.21558014 0.06813991 -0.14692704 -0.056634344
-0.018138945 0.12219926 -0.13675116 0.14130603 0.06834815 -0.20060863 0.04554338 -0.05852521
0.18168268 0.11082011 -0.03802949 -0.1418963 0.031678136 -0.020082459 0.08224836 0.16600426
0.10134008 -0.11862619 0.0017197522 0.14582542 -0.06021469 -0.004944861 -0.13671052 0.020194337
