models/saved/simple_hjb_model_fc_analytical_q_best.pth (torch, 798629 bytes, 9 tensors)

Y_net.net.0.weight f4 [256, 2]
0.687675 0.54410535 -0.22937791 -0.42944282 0.24738953 -0.29597032 -0.20546898 -0.45536968
0.5439087 -0.6818551 0.15390486 0.6289364 -0.0689219 0.13365653 0.65000576 0.40508527
0.25425607 -0.14776844 -0.44236913 0.40985963 -0.7089026 -0.45352128 0.66993535 -0.6601463
0.6527542 -0.52303445 -0.11728529 -0.6707643 -0.5089237 0.027081609 -0.37095365 0.27180162
0.67504454 0.40398014 0.21379876 -0.5571967 -0.14235485 -0.44655997 0.024821706 0.1664186
-0.06707585 -0.35717717 -0.1093235 -0.21810481 0.050265014 -0.37809846 0.11024222 -0.61773634
-0.1379245 -0.39081356 -0.23147833 -0.3647166 0.5599222 -0.123117946 0.03955296 -0.6785717
0.66543 0.5251208 0.31389263 -0.33186832 0.24614903 -0.16692342 0.64862657 -0.6098953
-0.12712328 0.590211 0.2577441 0.41408813 0.33254623 -0.17244013 -0.47218 -0.16345221
0.30391106 -0.36429757 0.54835916 -0.010075331 0.25097078 -0.6614311 -0.47526255 -0.64636403
0.32086933 -0.13624406 -0.2582441 -0.0045255423 0.6356846 -0.2670681 -0.22202286 0.64080966
0.06832868 -0.5837981 -0.5576963 -0.4783625 -0.6658404 -0.11481307 -0.42768052 -0.7208788
-0.5572662 -0.57157785 -0.43179697 0.13319936 0.42893526 0.40722904 0.680441 0.16395772
-0.5662977 0.6450288 0.6620274 -0.18041056 -0.018454265 -0.26788396 -0.36860967 -0.13409972
0.5220298 0.5769016 -0.38978028 -0.15725881 -0.21942595 0.20824434 -0.40456855 0.5836542
0.18521483 -0.45194048 -0.0008487642 0.15748422 -0.6592946 0.49306178 0.2793182 -0.6496043
0.22015254 0.25637984 0.5864505 -0.3029567 0.26837808 0.4248074 -0.73773545 -0.12261272
-0.26697576 -0.6787939 0.46781915 0.0418877 0.038374487 -0.6346968 0.2804739 0.15129578
0.2498144 -0.1288786 -0.6689242 -0.5843481 -0.5500344 0.7147588 0.2884623 0.48489
-0.7376375 -0.11279172 -0.5760029 -0.1368137 0.5652626 0.26088855 0.28762764 -0.46894407
-0.3461369 0.5097292 0.49543682 -0.7148415 0.38748303 0.23261683 0.3317161 0.6444174
0.44706008 -0.46053055 0.26666662 -0.07023659 0.40769464 -0.14391479 0.31541878 -0.6569063
0.52396834 0.55298793 0.4005984 -0.1464375 0.5524373 0.69243884 -0.27668017 -0.55677116
-0.50791544 0.705696 0.43560976 -0.3831071 0.27416033 0.5398648 0.59581584 0.38269392
0.44346893 0.6509891 -0.52878636 0.47895324 -0.12480657 -0.6136707 0.40821823 -0.16063301
-0.032510825 0.088766865 0.432934 0.00116992 0.667525 -0.03503885 0.11224644 -0.6357564
-0.6090651 0.56231683 -0.027951572 -0.71630096 -0.35788128 0.33190614 -0.23282447 -0.38799536
0.5146194 0.06673948 -0.05902024 0.21997678 -0.1471024 0.17430419 -0.10540207 -0.35358077
0.32468158 0.055187132 -0.10742278 0.3214866 0.5930201 0.35819086 0.36902484 0.3051215
-0.15232705 -0.10791005 -0.018591376 0.59425765 0.69815785 0.4433213 0.5988377 0.2589512
-0.29969704 -0.36344707 -0.67504144 -0.30395797 0.102297306 0.06392026 -0.031465124 -0.63956773
0.2550437 0.28088245 0.099989906 -0.37831065 0.42123318 0.6898492 0.6182122 0.33213678
00000000: 780b 303f 7d4a 0b3f 0be2 6abe eedf dbbe
00000010: ae53 7d3e 6c89 97be 7666 52be 3726 e9be
00000020: 9a3d 0b3f 0e8e 2ebf 3c99 1d3e fa01 213f
00000030: ed26 8dbd 42dd 083e c766 263f 5667 cf3e
00000040: da2d 823e 9c50 17be 357e e2be 1fd9 d13e
00000050: a47a 35bf f133 e8be e280 2b3f 59ff 28bf
00000060: e61a 273f 96e5 05bf 4533 f0bd 36b7 2bbf
00000070: d348 02bf 40da dd3c a3ed bdbe 9529 8b3e
00000080: b8cf 2c3f 7cd6 ce3e 10ee 5a3e 71a4 0ebf
00000090: 78c5 11be 82a3 e4be e456 cb3c a369 2a3e
000000a0: 105f 89bd eddf b6be 00e5 dfbd de56 5fbe
000000b0: b0e2 4d3d 1f96 c1be acc6 e13d f823 1ebf
000000c0: 153c 0dbe b718 c8be a808 6dbe 22bc babe
000000d0: 1057 0f3f 4325 fcbd 4902 223d e0b6 2dbf
000000e0: 9f59 2a3f 516e 063f 89b6 a03e a5ea a9be
000000f0: 7e0e 7c3e f9ed 2abe 640c 263f 1922 1cbf
00000100: 9b2c 02be 1118 173f 09f7 833e 5c03 d43e
00000110: 8043 aa3e 2594 30be 94c1 f1be 0460 27be
00000120: 3b9a 9b3e 3685 babe 4461 0c3f 0013 25bc
00000130: 3e7f 803e 8c53 29bf 9d55 f3be 1d78 25bf
00000140: fc48 a43e 9083 0bbe 9238 84be 004b 94bb
00000150: 3abc 223f 26bd 88be f659 63be 1a0c 243f
00000160: e8ef 8b3d cb73 15bf 2fc5 0ebf eeeb f4be
00000170: 8474 2abf 1d23 ebbd f1f8 dabe 838b 38bf
00000180: ffa8 0ebf ed52 12bf 7e14 ddbe 6a65 083e
00000190: 679d db3e 5380 d03e 6231 2e3f 88e4 273e
000001a0: e3f8 10bf 9c20 253f a17a 293f 8cbd 38be
000001b0: 662d 97bc 1628 89be 68ba bcbe 7051 09be
000001c0: bfa3 053f d3af 133f 4891 c7be 7408 21be
000001d0: 32b1 60be 013e 553e 9c23 cfbe 5d6a 153f
000001e0: f5a8 3d3e be64 e7be 9a7f 5eba 8b43 213e
000001f0: 88c7 28bf 9872 fc3e cc02 8f3e 784c 26bf
00000200: ab6f 613e 3844 833e 9f21 163f 241d 9bbe
00000210: da68 893e 5b80 d93e 3bdc 3cbf 611c fbbd
00000220: 0cb1 88be 70c5 2dbf fe85 ef3e 7092 2b3d
00000230: 912e 1d3d 7d7b 22bf 469a 8f3e 48ed 1a3e
00000240: 59cf 7f3e c0f8 03be 9e3e 2bbf d697 15bf
00000250: 0ecf 0cbf 6ffa 363f 55b1 933e 8143 f83e
00000260: d0d5 3cbf 58ff e6bd ed74 13bf e418 0cbe
00000270: 0db5 103f 2f93 853e ee43 933e 7019 f0be
00000280: db38 b1be 9d7d 023f e5a9 fd3e daff 36bf
00000290: 2d64 c63e 1b33 6e3e b1d6 a93e 8af8 243f
000002a0: 0fe5 e43e a9ca ebbe 8788 883e 34d8 8fbd
000002b0: 5abd d03e 665e 13be 927e a13e 032b 28bf
000002c0: ca22 063f 9e90 0d3f 3c1b cd3e b6f3 15be
000002d0: 886c 0d3f ac43 313f 06a9 8dbe 8e88 0ebf
000002e0: bf06 02bf 7ea8 343f 3e08 df3e 9d26 c4be
000002f0: be5e 8c3e 9434 0a3f 6387 183f 75f0 c33e
00000300: 5c0e e33e 39a7 263f 8b5e 07bf 5c39 f53e
00000310: 969a ffbd 8619 1dbf fb01 d13e fb7c 24be
00000320: 122a 05bd 67cb b53d 86a9 dd3e 0058 993a
00000330: ebe2 2a3f e684 0fbd 76e1 e53d eec0 22bf
00000340: b1eb 1bbf fff3 0f3f b2fa e4bc 805f 37bf
00000350: 373c b7be 9aef a93e 8a69 6ebe 54a7 c6be
00000360: 19be 033f b5ae 883d 35bf 71bd 9841 613e
00000370: 03a2 16be cc7c 323e 0add d7bd 8a08 b5be
00000380: aa3c a63e e70b 623d 7900 dcbd e499 a43e
00000390: 2ad0 173f cb64 b73e d3f0 bc3e e338 9c3e
000003a0: 9ffb 1bbe f2ff dcbd f14c 98bc 4521 183f
000003b0: 79ba 323f 02fb e23e 6d4d 193f 4095 843e
000003c0: e471 99be bc15 babe 84cf 2cbf 61a0 9bbe
000003d0: 4081 d13d a0e8 823d 93e1 00bd b6ba 23bf
000003e0: 1695 823e d3cf 8f3e 82c7 cc3d efb1 c1be
000003f0: e0ab d73e f599 303f 2843 1e3f d50d aa3e

Y_net.net.0.bias f4 [256]
-0.1817323 -0.007632327 -0.42236322 -0.011683022 0.41049153 0.14852817 -0.1499642 -0.4857859
-0.6480029 0.023889784 0.1731575 0.6947761 -0.3084591 0.18706124 -0.44694945 0.45952722
-0.69347715 0.7006244 0.12186299 0.013934147 -0.63818634 -0.32916546 -0.705723 -0.5987091
-0.4157814 0.4153072 -0.5572361 -0.7144574 0.6898197 -0.3452426 -0.42748913 -0.38400885
-0.14790347 0.2211127 -0.45169842 0.023900986 0.4727042 -0.40565455 0.58084613 0.19163464
-0.5017082 -0.22537935 0.12997915 0.6875637 -0.3708423 -0.36196 0.5185755 -0.16298212
0.23684956 0.57674575 0.21682759 -0.061428584 0.13845374 -0.039246287 -0.39122018 -0.43209648
0.63198626 -0.36751217 0.7087017 -0.09971267 -0.19956939 0.3825575 0.6021593 0.32874164
0.34239253 0.5292584 0.55698436 0.5432847 -0.25569174 -0.6630193 0.0756225 -0.079139575
0.04675147 0.177492 -0.2850486 0.36669347 0.50852907 0.30729938 -0.0886456 -0.32828805
-0.33062935 0.036377776 -0.42643288 -0.6339188 -0.5952519 0.22649787 0.44444814 -0.6650848
-0.44529805 0.43759558 -0.08115127 -0.30840653 0.13329123 0.5264725 0.008056488 -0.49882394
0.2225148 0.42803574 -0.1127353 0.5667066 0.47659782 -0.46522912 -0.16431499 0.09212241
0.51023096 0.5157469 0.27290925 0.06147252 -0.044753447 0.12539403 0.5890879 -0.4363051
-0.42104188 0.13934973 -0.5597664 0.30234292 0.3589327 0.108674556 0.576579 0.30199558
0.3842122 0.09084839 -0.3415636 -0.1535066 -0.35156178 0.54360104 0.614932 -0.037477866
0.4869683 0.47176403 0.10821118 -0.6740988 0.42632213 0.61299986 -0.076855704 0.14630884
0.2120456 -0.52550244 -0.50092596 0.2880006 0.15400432 -0.5978356 -0.09033187 0.17683953
0.33320507 -0.6804008 -0.07958378 -0.2620217 -0.4427069 -0.7156424 -0.06106643 0.12635529
0.4357517 -0.49814525 -0.5286858 0.09297288 0.62905407 -0.68566316 0.25056753 -0.010471672
0.6650448 0.09336342 -0.023045866 -0.40395978 -0.025662657 -0.7121781 -0.4279316 0.6958176
-0.29363993 -0.49671385 -0.2977705 -0.1553778 -0.4683446 0.4592759 -0.30937672 -0.03869085
-0.6938034 0.32114184 -0.25714436 -0.65094006 -0.25637195 0.00417916 0.40211764 -0.42975757
-0.39279738 0.37404552 0.5845035 0.49559808 -0.6141264 0.5120263 0.32385886 -0.3129642
0.43197885 0.5508507 -0.35899386 0.06387025 -0.115241066 -0.59530145 -0.6470229 0.2474925
-0.06365942 0.60909736 0.2977898 0.09801127 -0.24629235 0.12729608 0.2293376 -0.028376672
-0.54096 -0.408028 -0.19054866 0.3709224 0.19505627 0.25101256 0.52769595 0.5306342
0.25618333 -0.48446167 -0.39833444 0.67070395 0.57485604 -0.11132119 -0.12025746 -0.51919246
0.19254522 0.6020132 0.1683296 0.66490775 0.41713005 -0.23352271 0.39336208 0.47842443
-0.0040255045 -0.5488322 -0.46295312 0.026987905 -0.15687968 0.12554449 0.1811491 -0.48897648
-0.3542322 -0.53189933 -0.032622937 0.29993048 0.33356035 0.41081738 -0.53590214 0.19828832
-0.1323995 0.29964885 -0.45866838 0.48919544 0.55789334 0.52920365 -0.38847038 -0.6291866
00000000: 0818 3abe 9918 fabb fe3f d8be 256a 3fbc
00000010: f22b d23e c517 183e 3790 19be eeb8 f8be
00000020: 85e3 25bf 82b4 c33c 3350 313e d9dc 313f
00000030: 5aee 9dbe fb8c 3f3e 8fd6 e4be 2747 eb3e
00000040: b887 31bf 1f5c 333f 4e93 f93d 0c4c 643c
00000050: 2e60 23bf 6088 a8be 43aa 34bf 0045 19bf
00000060: 4de1 d4be 25a3 d43e 06a7 0ebf aee6 36bf
00000070: 0698 303f a3c3 b0be dbdf dabe cf9c c4be
00000080: 0274 17be 5e6b 623e 0445 e7be 00cc c33c
00000090: 4906 f23e f4b1 cfbe 55b2 143f df3b 443e
000000a0: f36f 00bf d8c9 66be 4119 053e 2d04 303f
000000b0: 0bdf bdbe d252 b9be 5dc1 043f c9e4 26be
000000c0: b188 723e 9ca5 133f 0d08 5e3e 8a9c 7bbd
000000d0: d1c6 0d3e b7c0 20bd 034e c8be c03b ddbe
000000e0: dac9 213f 8e2a bcbe 7a6d 353f 2836 ccbd
000000f0: eb5b 4cbe 94de c33e 1d27 1a3f d350 a83e
00000100: 134e af3e 7a7d 073f 8796 0e3f b514 0b3f
00000110: 07ea 82be a2bb 29bf f8df 9a3d ee13 a2bd
00000120: 787e 3f3d 76c0 353e e4f1 91be 3fbf bb3e
00000130: f62e 023f 5856 9d3e d38b b5bd 5f15 a8be
00000140: 4048 a9be dd00 153d 6955 dabe 8148 22bf
00000150: 6e62 18bf 0fef 673e b58e e33e ff42 2abf
00000160: 1bfe e3be 870c e03e a332 a6bd 76e7 9dbe
00000170: 7f7d 083e e7c6 063f 5cff 033c da65 ffbe
00000180: ebda 633e 8027 db3e c4e1 e6bd af13 113f
00000190: a104 f43e 8332 eebe 3042 28be adaa bc3d
000001a0: 7f9e 023f fd07 043f c3ba 8b3e 9cca 7b3d
000001b0: 644f 37bd 4b67 003e 77ce 163f 6263 dfbe
000001c0: cd92 d7be b2b1 0e3e da4c 0fbf b1cc 9a3e
000001d0: 07c6 b73e c490 de3d ae9a 133f 2a9f 9a3e
000001e0: 76b7 c43e b80e ba3d 6de1 aebe d630 1dbe
000001f0: e8ff b3be 7029 0b3f 2f6c 1d3f 6482 19bd
00000200: e953 f93e 0e8b f13e d39d dd3d bd91 2cbf
00000210: e546 da3e 8fed 1c3f 8666 9dbd fcd1 153e
00000220: 7b22 593e 5487 06bf af3c 00bf d174 933e
00000230: 4fb3 1d3e c10b 19bf eaff b8bd 6c15 353e
00000240: db99 aa3e bf2e 2ebf d2fc a2bd b527 86be
00000250: 7baa e2be 5734 37bf cb20 7abd 4863 013e
00000260: d91a df3e e50c ffbe f457 07bf 9168 be3d
00000270: b009 213f 9f87 2fbf 634a 803e 6091 2bbc
00000280: 6040 2a3f 5235 bf3d afca bcbc d1d3 cebe
00000290: 7e3a d2bc 4e51 36bf da19 dbbe 1a21 323f
000002a0: f957 96be 4751 febe 6075 98be 5c1b 1fbe
000002b0: ddca efbe 3626 eb3e a066 9ebe 4c7a 1ebd
000002c0: 1a9d 31bf b46c a43e 6da8 83be 02a4 26bf
000002d0: 2f43 83be 56f1 883b 5de2 cd3e 2f09 dcbe
000002e0: bd1c c9be e582 bf3e 05a2 153f 08bf fd3e
000002f0: 6337 1dbf 2814 033f d4d0 a53e d83c a0be
00000300: 552c dd3e 8d04 0d3f 0bce b7be 68ce 823d
00000310: 8203 ecbd ad65 18bf 4ba3 25bf ad6e 7d3e
00000320: df5f 82bd ceed 1b3f e877 983e 22ba c83d
00000330: 1034 7cbe e759 023e 7ad7 6a3e 3276 e8bc
00000340: 5b7c 0abf 0ce9 d0be 301f 43be 8ae9 bd3e
00000350: d5bc 473e b884 803e 1517 073f a5d7 073f
00000360: 762a 833e 5c0b f8be 7ef2 cbbe 41b3 2b3f
00000370: c429 133f 5dfc e3bd 8b49 f6bd cce9 04bf
00000380: 932a 453e 891d 1a3f 985e 2c3e 6537 2a3f
00000390: 1292 d53e 9420 6fbe c166 c93e 0cf4 f43e
000003a0: 61e8 83bb 4480 0cbf 3108 edbe bd15 dd3c
000003b0: 11a5 20be bc8e 003e 267f 393e 205b fabe
000003c0: ec5d b5be 8e2a 08bf a19f 05bd 7d90 993e
000003d0: 6cc8 aa3e a856 d23e e230 09bf 180c 4b3e
000003e0: bc93 07be 936b 993e 95d6 eabe d377 fa3e
000003f0: 19d2 0e3f e479 073f 97e5 c6be 5f12 21bf

Y_net.net.2.weight f4 [256, 256]
0.043979138 -0.02955228 0.0029200763 0.02297441 0.0018457174 -0.023935989 -0.0016140416 -0.034623608
-0.031086244 0.034600668 0.011867218 -0.05607439 -0.04246416 -0.031040676 -0.06080482 -0.0072868094
0.05449427 -0.041451626 -0.009517245 -0.052409552 -0.06158667 -0.026571281 0.0070910305 0.025949478
0.029653423 0.039240643 0.027864546 0.0076876134 -0.04054801 0.05538413 0.00097530335 -0.03483583
0.056425005 -0.05030615 0.06247828 -0.046303995 0.029444225 0.05055576 -0.026001662 0.040397614
0.015182525 -0.038830064 0.015727505 -0.03255374 0.0004684925 0.02137293 -0.02945584 0.027807608
0.013499528 -0.055746235 -0.04281404 3.6127865e-05 -0.013678998 -0.048986845 -0.04578563 -0.061210133
-0.056815036 -0.039935812 -0.031977914 0.0013946965 0.046660982 -0.0063370764 -0.020576864 -0.011857241
0.05523201 0.017523251 0.048263855 0.033921935 0.024785198 -0.029183887 -0.039729677 -0.053378396
-0.032341816 -0.05433988 -0.014870338 -0.05532874 -0.008436814 0.038293585 0.050244965 0.0188701
-0.017723791 -0.0058367476 -0.035014518 -0.048122786 0.02581697 0.059165515 -0.0030216873 -0.006312631
0.02998586 0.044992365 -0.0219355 0.0436666 0.03792616 -0.0354143 0.025696784 0.008366205
-0.016546287 0.020372957 -0.03022468 0.04203046 -0.02387005 -0.008426651 -0.01986359 -0.0015747175
-0.05820816 -0.027596906 0.03851208 0.022434026 0.023958795 0.02273433 -0.018862657 0.0005651638
0.020644478 -0.016107522 0.035027437 -0.05576387 -0.040781684 0.043222196 -0.0017312914 -0.06022226
-0.003948316 -0.01101955 0.029358 0.028301701 -0.028394789 0.026848301 0.042573012 0.058785602
0.05619485 -0.0046562403 0.023797773 0.023220398 -0.013548583 -0.0034920052 -2.783537e-05 -0.023626395
-0.03061527 0.03754226 0.0328181 0.050654143 0.025698356 0.048819833 -0.034784228 0.054274663
0.01262714 0.007692717 -0.027338363 0.019791938 0.003485404 -0.020397276 0.0624237 0.0586228
-0.057013996 0.04075831 0.042030238 0.019619063 -0.003733769 0.037691206 0.010655507 0.011977248
-0.049000338 0.027735598 -0.0027527884 -0.00079628825 0.017402977 -0.0006902814 -0.05005523 0.0023718178
-0.026036628 -0.058078714 0.04308994 0.039105974 -0.026961528 0.0037843958 -0.01425451 0.04699382
0.028766252 -0.0026735514 -0.013593055 -0.01424852 0.019038431 -0.060237914 -0.061439022 0.018150777
0.062407814 -0.037042193 -0.03737373 -0.046864696 -0.027938299 -0.05695264 0.051364206 -0.01902479
0.059114605 -0.0341888 -0.008288637 -0.058203362 -0.004707977 -0.044959873 -0.02081149 0.060379528
0.041291133 0.044724822 -0.041412927 -0.042128436 0.03658127 -0.05131431 -0.058815353 -0.060492456
0.05029855 -0.018436432 -0.037751287 0.030287698 0.0025810003 0.057310037 -0.03487049 0.054168403
-0.020339184 -0.018309802 -0.013207287 -0.026201166 0.0019237474 0.010441139 0.030532695 -0.04101737
-0.03623607 0.020114817 -0.04469818 -0.044641025 0.05172748 -0.05083064 -0.028444454 -0.01350376
-0.043263786 -0.043632813 -0.014714561 0.018724822 0.015422627 -0.017736152 -0.025971606 0.06109201
0.0076079965 -0.053505093 0.034042418 0.056718983 -0.050179496 0.058348738 0.026330471 -0.01619593
-0.021604963 -0.045572042 -0.010663524 0.0021961331 -0.06012653 -9.132922e-05 -0.05529941 -0.03589458
00000000: 7823 343d a017 f2bc c05e 3f3b d434 bc3c
00000010: 00ec f13a 6815 c4bc 408e d3ba 7cd1 0dbd
00000020: 94a8 febc 6eb9 0d3d b86e 423c 42ae 65bd
00000030: e6ee 2dbd 0449 febc 7a0e 79bd 30c6 eebb
00000040: 6235 5f3d 2ec9 29bd 38ee 1bbc 66ab 56bd
00000050: 4e42 7cbd 04ac d9bc e05b e83b 0094 d43c
00000060: bceb f23c ccba 203d 3044 e43c 60e8 fb3b
00000070: ac15 26bd 78da 623d 80ab 7f3a 04b0 0ebd
00000080: e81d 673d d20d 4ebd 3ae9 7f3d 42a9 3dbd
00000090: 0435 f13c 8e13 4f3d 7001 d5bc f877 253d
000000a0: 20c0 783c 460c 1fbd f8d6 803c 1257 05bd
000000b0: 00a0 f539 4816 af3c 604d f1bc c8cc e33c
000000c0: 202d 5d3c 2a56 64bd c65d 2fbd 0088 1738
000000d0: e01d 60bc 6ea6 48bd b689 3bbd 7ab7 7abd
000000e0: e2b6 68bd bc93 23bd 46fb 02bd 40ce b63a
000000f0: 961f 3f3d 40a7 cfbb d090 a8bc e044 42bc
00000100: f63a 623d ec8c 8f3c 52b0 453d baf1 0a3d
00000110: 540a cb3c 0c13 efbc 96bb 22bd 4ea3 5abd
00000120: da78 04bd 7e93 5ebd b8a2 73bc 64a0 62bd
00000130: 903a 0abc bcd9 1c3d aacd 4d3d 7895 9a3c
00000140: 7c31 91bc 3042 bfbb 626b 0fbd 661c 45bd
00000150: 1c7e d33c 8a57 723d 8007 46bb 30da cebb
00000160: e8a4 f53c ea49 383d 14b2 b3bc c0db 323d
00000170: 7658 1b3d 960e 11bd 1082 d23c 6812 093c
00000180: 148c 87bc 30e5 a63c c099 f7bc 2228 2c3d
00000190: 208b c3bc f00f 0abc f8b8 a2bc c066 ceba
000001a0: ae6b 6ebd e812 e2bc d8be 1d3d 90c7 b73c
000001b0: 3c45 c43c 583d ba3c dc85 9abc 8027 143a
000001c0: 9c1e a93c ecf3 83bc ee78 0f3d a868 64bd
000001d0: b20a 27bd c209 313d 80ec e2ba 9eab 76bd
000001e0: e060 81bb 588b 34bc 3080 f03c f8d8 e73c
000001f0: 309c e8bc f8f0 db3c 0a61 2e3d 2cc9 703d
00000200: 922c 663d 6093 98bb 8cf3 c23c b438 be3c
00000210: e0fa 5dbc 20da 64bb 0080 e9b7 248c c1bc
00000220: e0cc fabc eac5 193d 466c 063d b87a 4f3d
00000230: 5c85 d23c 4ef7 473d e879 0ebd 1c4f 5e3d
00000240: 10e2 4e3c 3013 fc3b b4f4 dfbc b422 a23c
00000250: 606b 643b 3018 a7bc feaf 7f3d 761e 703d
00000260: 8287 69bd 30f2 263d e627 2c3d 28b8 a03c
00000270: 40b2 74bb 1862 1a3d 7094 2e3c 383c 443c
00000280: 94b4 48bd c435 e33c 2068 34bb 00be 50ba
00000290: b090 8e3c 00f4 34ba b606 4dbd 8070 1b3b
000002a0: c44a d5bc f2e3 6dbd 147f 303d 962d 203d
000002b0: 6cde dcbc a003 783b c08b 69bc 987c 403d
000002c0: 34a7 eb3c c036 2fbb 68b5 5ebc a072 69bc
000002d0: 7cf6 9b3c 08bc 76bd 7ca7 7bbd f0b0 943c
000002e0: 569f 7f3d 8eb9 17bd 3215 19bd 32f5 3fbd
000002f0: dcde e4bc 2c47 69bd 4663 523d e0d9 9bbc
00000300: 2822 723d 8e09 0cbd 10cd 07bc a666 6ebd
00000310: 6045 9abb d827 38bd dc7c aabc 8650 773d
00000320: e420 293d 6031 373d 9aa0 29bd de8e 2cbd
00000330: 3ed6 153d f42e 52bd 5ee8 70bd f0c6 77bd
00000340: da05 4e3d 0008 97bc 18a1 1abd e81d f83c
00000350: 0026 293b eebd 6a3d 5cd4 0ebd b0df 5d3d
00000360: 5c9e a6bc 70fe 95bc 6063 58bc d4a3 d6bc
00000370: 4026 fc3a 5011 2b3c b41f fa3c d401 28bd
00000380: 466c 14bd d4c7 a43c 7015 37bd 82d9 36bd
00000390: 32e0 533d ca33 50bd 5804 e9bc e03e 5dbc
000003a0: 5e35 31bd 52b8 32bd 5815 71bc cc64 993c
000003b0: 30af 7c3c 684b 91bc 68c2 d4bc 9e3b 7a3d
000003c0: 804c f93b 2828 5bbd 1070 0b3d 2a52 683d
000003d0: 0489 4dbd 16ff 6e3d 00b3 d73c 54ad 84bc
000003e0: e4fc b0bc c0a9 3abd 10b6 2ebc 00ed 0f3b
000003f0: 3c47 76bd 0088 bfb8 a281 62bd 3206 13bd

Y_net.net.2.bias f4 [256]
-0.00836698 0.0312215 0.04788608 0.04322588 -0.07149321 -0.059475046 0.012624204 -0.01839345
-0.046370897 0.024700448 -0.014182036 -0.030664058 -0.004544612 -0.03974715 0.050031886 0.0049385014
0.01790587 -0.021689812 -0.025535861 -0.01892763 -0.05932361 -0.00563011 -0.056359176 -0.016377881
0.03164365 0.049155086 -0.002513826 -0.017210362 -0.027712557 0.012617042 0.052229796 -0.03412417
-0.0056508016 -0.017194016 0.0152832195 -0.014276177 -0.035556965 0.037595153 0.025558518 0.067370504
0.08281785 0.029356904 0.03388492 -0.05830811 -0.017871264 -0.06601299 0.002298859 0.01899228
0.05993341 -0.010760968 0.047502156 0.02439351 0.020298276 -0.0031586403 -0.06266357 0.053265702
-0.051220644 0.043429293 -0.05296178 -0.044555187 0.012301812 -0.038166706 -0.049385034 0.055997953
-0.033861507 0.03193309 -0.0019267993 -0.02125955 -0.0071261395 -0.0022745049 -0.0012097768 -0.0034206312
0.053728417 -0.029554524 0.02410946 -0.019434374 -0.0053593153 0.02098306 -0.023978734 -0.012078725
0.013116444 -0.007990913 -0.0132500455 -0.07075089 -0.015353961 0.028184168 -0.017358994 0.058677316
-0.018716704 -0.04977306 -0.05975777 0.0012390101 -0.05381827 0.05695946 -0.061691627 -0.041864797
-0.0487234 -0.0034238696 0.0039207824 -0.056920182 0.017724529 -0.00921566 -0.026624646 -0.04394499
-0.045712493 0.012210876 0.01598518 0.05441701 -0.0011531159 0.023130506 0.00824096 0.010040735
-0.019941831 -0.061997846 0.03016154 0.03048442 0.034107983 0.03671585 0.055930957 0.023677794
-0.0070559955 -0.06276055 -0.040260974 0.08228695 -0.042280577 -0.012136498 -0.00635947 -0.040350147
0.024573136 -0.04742057 -0.015486424 -0.051651232 0.016094888 0.039610643 0.026554335 -0.03868714
0.0017482638 0.034862224 0.051257905 0.021527546 0.0060607195 -0.058688335 -0.067342214 0.014496134
-0.052986752 -0.016754087 0.03130737 0.03447441 -0.01636658 0.0019019105 0.016604241 -0.0036249335
-0.0028336118 0.061477114 0.010639309 -0.03364776 0.03268668 -0.059742242 0.04953098 0.04029686
0.020204917 0.012946234 -0.047783516 -0.068819076 -0.03788767 -0.061471134 -0.039394584 0.022265103
-0.061793193 0.044277612 -0.028949551 0.03950465 0.027320307 0.06166262 0.0039623026 0.00811752
-0.018414691 0.057887264 0.010405788 -0.018652879 -0.011835353 0.030651085 0.0034450537 0.044271417
-0.019921621 -0.0160017 -0.058424614 0.055008933 -0.04856495 -0.038865246 0.05074965 -0.02587618
-0.047184426 -0.016084805 -0.009901309 -0.037028827 0.022654172 -0.019545024 -0.0036547133 -0.015647834
0.049880017 -0.0012250617 -0.048279744 -0.058793467 -0.027231254 -0.0009908295 -0.06718179 0.012407325
-0.008344705 -0.025157211 0.03562715 0.047735143 -0.050041527 -0.059072427 0.048706997 -0.06297256
0.040461324 -0.056246568 0.045066666 0.021118551 -0.015424756 0.03647188 -0.032410063 0.039666332
0.05110684 -0.06340631 -0.017361686 -0.016375545 -0.011612366 0.017147858 0.050030183 0.051113416
-0.03486948 0.05371043 -0.04966219 -0.008645466 0.018486835 0.035442233 -0.026303487 0.02348237
-0.0099518625 -0.0045538424 -0.015970128 -0.02115516 0.0026151459 -0.055587124 0.015284628 0.030659795
-0.0071960194 -0.03622903 0.017404629 0.013179839 0.04243412 0.0013320836 0.019978901 0.012249224
00000000: a815 09bc 3bc4 ff3c 3224 443d 9f0d 313d
00000010: 086b 92bd 1b9c 73bd c0d5 4e3c dcad 96bc
00000020: 69ef 3dbd 9858 ca3c c55b 68bc 3133 fbbc
00000030: f8ea 94bb e8cd 22bd 3cee 4c3d 27d3 a13b
00000040: 55af 923c d5ae b1bc 9530 d1bc 1e0e 9bbc
00000050: 50fd 72bd c97c b8bb e1d8 66bd e82a 86bc
00000060: c69c 013d d856 493d 00bf 24bb bffc 8cbc
00000070: 7205 e3bc b6b7 4e3c e9ee 553d c9c5 0bbd
00000080: 5c2a b9bb 77da 8cbc 7866 7a3c a0e6 69bc
00000090: 2ea4 11bd 60fd 193d 1960 d13c 8cf9 893d
000000a0: 689c a93d e47d f03c eaca 0a3d 7cd4 6ebd
000000b0: c266 92bc d231 87bd 74a8 163b b395 9b3c
000000c0: bc7c 753d c54e 30bc 9f91 423d e6d4 c73c
000000d0: 9248 a63c 3101 4fbb c255 80bd 232d 5a3d
000000e0: bdcc 51bd eae2 313d 74ee 58bd 807f 36bd
000000f0: 8a8d 493c b154 1cbd f647 4abd 1c5e 653d
00000100: 5db2 0abd 46cc 023d a88c fcba 8228 aebc
00000110: 6482 e9bb dc0f 15bb 6091 9eba ab2c 60bb
00000120: 5412 5c3d 541c f2bc 3481 c53c d634 9fbc
00000130: 329d afbb abe4 ab3c 0d6f c4bc d8e5 45bc
00000140: 5be6 563c 52ec 02bc b816 59bc d8e5 90bd
00000150: 2e8f 7bbc 7ce2 e63c 7334 8ebc a057 703d
00000160: c653 99bc d6de 4bbd 90c4 74bd 4866 a23a
00000170: 8c70 5cbd 534e 693d 5cb0 7cbd 6c7a 2bbd
00000180: 3092 47bd 0063 60bb e879 803b 2325 69bd
00000190: 0833 913c 48fd 16bc ee1b dabc a9ff 33bd
000001a0: 063d 3bbd 2010 483c 5af3 823c 5fe4 5e3d
000001b0: 2624 97ba 307c bd3c 1705 073c e581 243c
000001c0: 0d5d a3bc 74f1 7dbd 5515 f73c 76ba f93c
000001d0: d0b4 0b3d 5c63 163d dc17 653d eff7 c13c
000001e0: fb35 e7bb 9a88 80bd b1e8 24bd 0f86 a83d
000001f0: 662e 2dbd 29d8 46bc 1a63 d0bb 3246 25bd
00000200: 9a4d c93c 123c 42bd c5ba 7dbc 3e90 53bd
00000210: 6dd9 833c c53e 223d 7a88 d93c 6876 1ebd
00000220: 0026 e53a b1cb 0e3d cff3 513d 895a b03c
00000230: 0099 c63b 2e63 70bd b7ea 89bd 3181 6d3c
00000240: a308 59bd de3f 89bc 283c 003d 0a35 0d3d
00000250: 3513 86bc 8749 f93a 9e05 883c 4b90 6dbb
00000260: 1eb4 39bb 6dcf 7b3d 7f50 2e3c 3cd2 09bd
00000270: 78e2 053d 48b4 74bd ffe0 4a3d 520e 253d
00000280: c884 a53c 711c 543c a6b8 43bd 04f1 8cbd
00000290: 1a30 1bbd 28c9 7bbd 375c 21bd 4e65 b63c
000002a0: dc1a 7dbd 715c 353d 9c27 edbc a1cf 213d
000002b0: d6ce df3c f291 7c3d 34d6 813b 59ff 043c
000002c0: 68da 96bc 321b 6d3d 0a7d 2a3c eccd 98bc
000002d0: 12e9 41bc fc17 fb3c 69c6 613b f255 353d
000002e0: ab32 a3bc ff15 83bc a64e 6fbd 0c51 613d
000002f0: 0aec 46bd 2a31 1fbd ddde 4f3d 48fa d3bc
00000300: 7544 41bd 48c4 83bc 1a39 22bc 8aab 17bd
00000310: 3e95 b93c e31c a0bc ea83 6fbb e32f 80bc
00000320: fd4e 4c3d 4092 a0ba fbc0 45bd 6bd1 70bd
00000330: 1414 dfbc b9de 81ba 9b96 89bd 1848 4b3c
00000340: 3bb8 08bc 7f16 cebc c6ed 113d ed85 433d
00000350: 58f8 4cbd eef5 71bd fd80 473d c2f7 80bd
00000360: c6ba 253d cd62 66bd d397 383d d000 ad3c
00000370: 1eb8 7cbc 8a63 153d 6ac0 04bd 2a79 223d
00000380: 6855 513d 2bdb 81bd 183a 8ebc 0226 86bc
00000390: cb41 3ebc aa79 8c3c 73ec 4c3d 4d5c 513d
000003a0: 4dd3 0ebd 78ff 5b3d 956a 4bbd b6a5 0dbc
000003b0: b471 973c e02b 113d 697a d7bc 195e c03c
000003c0: 230d 23bc 6638 95bb c9d3 82bc 964d adbc
000003d0: de62 2b3b 53af 63bd 606c 7a3c 402a fb3c
000003e0: 96cc ebbb e464 14bd 2794 8e3c 40f0 573c
000003f0: 66cf 2d3d 4f99 ae3a cbaa a33c f8b0 483c

Y_net.net.4.weight f4 [256, 256]
-0.052469768 0.045754183 -0.023581855 -0.053904224 0.074223794 -0.019873029 0.0016322478 0.0071632103
-0.028566837 0.0018995333 -0.067359075 0.00022724908 -0.014927552 -0.021761194 0.05604828 0.032509107
0.05170844 -0.0140759135 0.00015481643 0.049763024 0.02986083 0.023268834 0.017059414 -0.038529932
-0.050869763 -0.053030968 -0.0012271479 -0.05426649 -0.017921897 0.05841441 -0.015374448 -0.004372707
0.06977891 0.0042139264 -0.03830734 -0.04229722 0.0556226 -0.046279773 0.012742722 0.03434516
-0.007544144 -0.0049883425 -0.023661349 0.037282046 0.050337184 0.048939276 0.04654919 0.031299215
-0.011493362 -0.006314633 -0.027969375 0.04895587 -0.006880301 0.013623176 0.044948522 0.026052376
0.04263087 0.05258772 0.03859145 0.05273653 -0.056866445 0.06984928 -0.04820844 0.028178953
-0.0006638868 -0.039584786 -0.045704547 0.008485654 0.042703085 -0.06572882 -0.0016427692 -0.03797319
0.043779105 -0.05917614 0.03616532 -0.045960683 0.046480097 0.054361474 0.008873659 -0.037236236
0.021558296 0.05904192 -0.022601843 0.025347928 -0.015150069 0.049320564 -0.071795024 -0.030133221
-0.048106004 0.030363377 -0.028072722 0.059486195 -0.05641783 0.04282811 -0.048343427 0.054205835
0.05002524 0.0028129742 -0.0025377143 -0.013226943 -0.038281344 0.0011983961 0.021611916 -0.055623077
-0.056133583 0.018642556 -0.05501544 0.053505458 -0.019308917 0.0033070163 -0.049968984 0.052270576
-0.011962118 0.013251878 0.040288333 0.0065892735 -0.05541936 -0.032627717 -0.017031526 -0.05601614
-0.0008274375 -0.047150448 -0.026091043 0.05313919 -0.015261948 0.05404546 0.062184885 -0.013793202
0.023951836 -0.034547996 -0.02427004 0.010473232 -0.016607149 0.041433252 -0.0095430175 0.03410822
-0.048160262 -0.07924292 -0.04988337 0.09246713 0.037059233 -0.0072550634 -0.04158843 0.054634344
0.018285736 0.028997444 0.003982681 -0.037933655 0.037204325 -0.028165508 -0.02729019 0.028743885
-0.019947229 -0.045059692 -0.053579107 0.009990645 -0.0001461556 0.0008932425 0.015992234 -0.0040159686
0.056045316 0.06616985 0.060427397 -0.00016543388 -0.050591014 -0.039631985 0.053795498 -0.031388514
-0.059880406 0.029843088 0.05771405 0.015843317 -0.039841037 -0.060409047 0.061126474 0.0015009147
0.035529964 0.046481874 -0.023234028 0.017589055 0.05721726 0.048323363 0.004231392 -0.025849808
0.011036511 -0.056564473 0.011349944 0.027451182 -0.042063743 -0.03282039 0.035329 -0.007849813
0.07578248 -0.018031145 0.033227324 -0.00904606 -0.030877281 0.04085885 -0.04764092 0.0024501982
0.048607647 -0.029003501 0.0067291325 0.045079675 0.015857577 0.006977202 0.047331747 -0.060138814
-0.045221247 0.028902933 0.05672609 0.010666856 -0.015497059 -0.008921966 -0.04893862 0.0055979467
-0.04669435 -0.0004819664 0.049187906 0.023791224 0.017115675 -0.028705409 0.0036712787 0.04581128
-0.016470926 -0.061721824 0.032791182 0.041684628 -0.010158541 0.048623808 -0.050852302 0.04015486
-0.043032784 0.00030209977 0.06271696 -0.032707952 -0.008991006 -0.013695188 0.029721485 -0.043163136
0.032643985 0.041750167 -0.037118435 0.031968195 -0.061491277 0.020952977 0.0117795095 -0.057188492
-0.05264389 0.036558002 -0.017096495 -0.03406526 -0.008385203 0.0388896 -0.028134346 0.047695648
00000000: 8aea 56bd bd68 3b3d bc2e c1bc adca 5cbd
00000010: a502 983d c3cc a2bc 26f1 d53a 5db9 ea3b
00000020: 0005 eabc c3f9 f83a 8ef3 89bd b649 6e39
00000030: b192 74bc 8844 b2bc e292 653d 4528 053d
00000040: 3bcc 533d a99e 66bc 3856 2239 50d4 4b3d
00000050: b39e f43c 489e be3c 2fc0 8b3c 90d1 1dbd
00000060: d05c 50bd 0037 59bd 40d8 a0ba 8a46 5ebd
00000070: f1d0 92bc f343 6f3d 1ce5 7bbc ed48 8fbb
00000080: 3fe8 8e3d fa14 8a3b 28e8 1cbd da3f 2dbd
00000090: 86d4 633d dc8f 3dbd dac6 503c 83ad 0c3d
000000a0: de34 f7bb 4075 a3bb 72d5 c1bc 0fb5 183d
000000b0: 5d2e 4e3d 8d74 483d 5daa 3e3d 9b33 003d
000000c0: a74e 3cbc fbea cebb 0820 e5bc f385 483d
000000d0: 2674 e1bb be33 5f3c f11b 383d cb6b d53c
000000e0: b59d 2e3d 3966 573d 1112 1e3d 4202 583d
000000f0: caec 68bd 240d 8f3d 3776 45bd 8cd7 e63c
00000100: b008 2eba a823 22bd b134 3bbd 6a07 0b3c
00000110: 6ee9 2e3d d59c 86bd 3052 d7ba c789 1bbd
00000120: b851 333d ae62 72bd 1622 143d 4541 3cbd
00000130: ea61 3e3d 23aa 5e3d d362 113c 0685 18bd
00000140: 069b b03c f1d5 713d 8027 b9bc 75a6 cf3c
00000150: ff37 78bc 5c04 4a3d 4509 93bd f2d9 f6bc
00000160: cd0a 45bd 9ebc f83c c4f8 e5bc cca7 733d
00000170: 6216 67bd 876c 2f3d c203 46bd f006 5e3d
00000180: 44e7 4c3d e059 383b c84f 26bb d2b5 58bc
00000190: e6cc 1cbd 8013 9d3a 790b b13c 06d5 63bd
000001a0: 54ec 65bd 46b8 983c df57 61bd 8a28 5b3d
000001b0: bc2d 9ebc 87ba 583b 47ac 4cbd ac19 563d
000001c0: c2fc 43bc 681e 593c 6105 253d d5ea d73b
000001d0: 69ff 62bd a4a4 05bd b385 8bbc 2e71 65bd
000001e0: 64e8 58ba d420 41bd e2bc d5bc 7ba8 593d
000001f0: 400d 7abc c65e 5d3d 94b5 7e3d e2fc 61bc
00000200: a436 c43c 3382 0dbd f7d1 c6bc eb97 2b3c
00000210: b70b 88bc eab5 293d 515a 1cbc 10b5 0b3d
00000220: b243 45bd 1d4a a2bd 8152 4cbd 685f bd3d
00000230: 6ccb 173d e2bb edbb a158 2abd 43c8 5f3d
00000240: f8cb 953c 0c8c ed3c 2681 823b 5260 1bbd
00000250: 9063 183d 5abb e6bc ad8f dfbc 4c78 eb3c
00000260: 5f68 a3bc 8390 38bd c475 5bbd cdaf 233c
00000270: 5841 19b9 7d28 6a3a 2502 833c 6398 83bb
00000280: c68f 653d 0f84 873d b882 773d 5278 2db9
00000290: 8638 4fbd 2655 22bd ab58 5c3d 3e91 00bd
000002a0: 2845 75bd 7e79 f43c 9165 6c3d d8c9 813c
000002b0: 5b30 23bd 7a6f 77bd c15f 7a3d 57ba c43a
000002c0: de87 113d c763 3e3d 4a55 bebc ec16 903c
000002d0: a55c 6a3d b8ee 453d 7da7 8a3b fac2 d3bc
000002e0: 7bd2 343c 26b0 67bd 1ef5 393c 4de1 e03c
000002f0: 084b 2cbd ac6e 06bd 24b5 103d 819c 00bc
00000300: d833 9b3d 0db6 93bc 6019 083d ed35 14bc
00000310: 5af2 fcbc 9c5b 273d 2023 43bd 8193 203b
00000320: d018 473d c098 edbc 0e80 dc3b 77a5 383d
00000330: c0e7 813c 03a1 e43b efde 413d 1e54 76bd
00000340: ea39 39bd d8c5 ec3c 9e59 683d 09c4 2e3c
00000350: 60e7 7dbc 702d 12bc dd73 48bd fb6e b73b
00000360: 9342 3fbd 6fb0 fcb9 4279 493d d0e5 c23c
00000370: 2c36 8c3c 9b27 ebbc d699 703b 9ca4 3b3d
00000380: 09ee 86bc 06d0 7cbd 0c50 063d 80bd 2a3d
00000390: 0270 26bc c229 473d 814a 50bd 6c79 243d
000003a0: 2543 30bd 2563 9e39 c071 803d c6f8 05bd
000003b0: 034f 13bc c861 60bc 797a f33c d4cb 30bd
000003c0: b3b5 053d 3902 2b3d 8009 18bd 15f1 023d
000003d0: 47de 7bbd 94a5 ab3c d8fe 403c 7b3e 6abd
000003e0: 1fa1 57bd d8bd 153d f30d 8cbc 0488 0bbd
000003f0: 1762 09bc b44a 1f3d 007a e6bc 835c 433d

Y_net.net.4.bias f4 [256]
-0.03271857 -0.04929284 -0.020499133 -0.05959085 -0.0688782 -0.009557177 0.015469071 0.051623944
0.08855654 0.03960861 -0.06890453 0.011263066 -0.006394914 0.042797543 0.014755669 -0.016010858
0.043377727 0.0052477373 -0.039852764 -0.024199085 0.055158116 0.022574848 -0.011604809 0.0006889238
-0.063633405 -0.06250681 0.014854194 0.006054862 -0.038933806 0.026598174 0.017461488 0.0018853067
-0.007643377 0.0040888437 0.028892994 0.06791065 -0.010222591 0.03629288 0.020311616 -0.03111143
-0.03808337 -0.0038115566 -0.05766813 -0.0022143866 -0.023855276 -6.0662627e-05 -0.050844118 0.03515657
-0.017240372 -0.062795155 -0.012826151 -0.0684323 -0.040625293 -0.06792803 0.020479532 -0.04019824
0.05415077 -0.011933856 0.034675363 0.015550943 0.032507982 0.02011744 -0.033354715 -0.015930358
0.052614067 -0.017877586 0.026795212 -0.023628924 -0.02248034 -0.055649094 -0.006446562 -0.06636401
0.004503337 -0.04664738 -0.008805046 0.04124604 0.005814308 0.039009403 0.009888911 -0.008813312
-0.012354486 -0.016339442 -0.0061126454 0.0179323 0.054365844 -0.03636618 0.01352774 -0.04161307
-0.044836998 0.0039530834 -0.03446806 0.003732346 0.012415375 -0.03851798 -0.06851859 0.036359064
-0.016283315 0.05044977 0.043445177 0.016054241 0.009804383 0.054065652 0.047676023 0.012279018
-0.045502618 0.026934225 -0.045098297 -0.036389712 0.0155490525 0.059254244 -0.017057627 0.050623678
-0.0525047 0.017065668 0.031879153 0.05624059 -0.014082603 -0.03694271 -0.062221553 0.020382978
0.026353192 0.011495165 0.054677602 0.013909949 0.047949724 -0.010131427 0.0602055 -0.021793254
0.021571493 -0.001995337 0.022493977 -0.017682131 -0.03897842 0.021601692 0.05318872 0.02076745
0.04399281 -0.031302176 -0.0547754 -0.02842311 -0.056589983 0.0017829632 0.026302963 -0.045633964
-0.0030649316 0.030836571 0.050939426 0.046161745 0.033093665 0.023534702 0.023007803 -0.0034267781
-0.002491474 0.056035772 0.027114004 0.018291865 -0.00013787845 0.0072655375 0.033008993 -0.013732152
0.009801583 0.075434946 -0.04620851 -0.057578538 -0.036876753 -0.02609658 -0.059168935 -0.029514901
0.051945608 -0.061122417 0.046203174 -0.001206628 -0.04283768 -0.051427636 -0.0011573719 -0.048591115
-0.031864043 0.036084276 -0.044315435 0.038146745 0.023186944 -0.016098175 0.027091054 0.037515927
0.06103814 0.053620894 -0.00790622 0.0018800354 0.04610235 0.053281963 -0.022972273 0.03488577
-0.037257228 -0.018561231 0.036503516 0.04111301 -0.018444192 0.03801533 0.0017041604 0.02621551
0.005808291 0.051015828 0.013428007 -0.05024112 0.018185932 0.03147588 -0.0436712 -0.038141113
0.049615316 -0.049487904 -0.047272377 -0.027246099 0.032354306 -0.05568342 0.04540184 0.0016835431
0.041498926 -0.066392355 -0.026705569 0.04729146 -0.055233084 -0.03936832 -0.03511102 -0.044088222
-0.06054307 -0.016521782 0.027694292 0.052352518 -0.015630493 0.0019145189 -0.038832873 -0.02795074
-0.024268948 0.026189586 0.017915605 -0.06369099 -0.05660825 0.0020115522 0.059818897 5.9979637e-05
0.04250335 -0.015206876 0.029831694 -0.06322277 0.022170708 0.048313074 0.0043732207 0.008715881
-0.023324974 0.008339355 -0.038414612 -0.045829814 -0.01658424 -0.0025505133 0.0070229904 -0.06331866
00000000: e803 06bd 4ae7 49bd cced a7bc 8915 74bd
00000010: 0410 8dbd b595 1cbc fd71 7d3c a173 533d
00000020: 225d b53d a33c 223d d11d 8dbd b988 383c
00000030: 6d8c d1bb 7a4c 2f3d c3c1 713c 3429 83bc
00000040: d8ac 313d 36f5 ab3b a73c 23bd 293d c6bc
00000050: 7aed 613d e3ee b83c 1922 3ebc e598 343a
00000060: 3b52 82bd 9203 80bd 015f 733c dd67 c63b
00000070: 0e79 1fbd 6ae4 d93c 650b 8f3c 651c f73a
00000080: 4b75 fabb b5fb 853b 00b1 ec3c bd14 8b3d
00000090: a87c 27bc d8a7 143d 8c64 a63c 66dd febc
000000a0: 4ffd 1bbd 4fcb 79bb 6b35 6cbd 3e1f 11bb
000000b0: 246c c3bc 0070 7eb8 ec41 50bd 5600 103d
000000c0: ae3b 8dbc bf9a 80bd c724 52bc 3c26 8cbd
000000d0: b566 26bd da1d 8bbd b1c4 a73c e9a6 24bd
000000e0: 33cd 5d3d 3886 43bc c107 0e3d 62c9 7e3c
000000f0: 1727 053d 54cd a43c f49e 08bd 6280 82bc
00000100: d981 573d 0474 92bc a281 db3c 7291 c1bc
00000110: b128 b8bc 4ef0 63bd ae3d d3bb dbe9 87bd
00000120: bb90 933b 5311 3fbd 0a43 10bc 9cf1 283d
00000130: f385 be3b 53c8 1f3d 1905 223c b665 10bc
00000140: 786a 4abc 4bda 85bc 964c c8bb c2e6 923c
00000150: b8ae 5e3d b4f4 14bd 74a3 5d3c 7772 2abd
00000160: 00a7 37bd de88 813b 612e 0dbd 609a 743b
00000170: db69 4b3c 08c5 1dbd 7953 8cbd 3eed 143d
00000180: 9664 85bc 6ba4 4e3d 92f3 313d 2f84 833c
00000190: 90a2 203c f273 5d3d ef47 433d ef2d 493c
000001a0: f460 3abd 2aa5 dc3c feb8 38bd 610d 15bd
000001b0: 74c1 7e3c 94b4 723d 70bc 8bbc c65a 4f3d
000001c0: 2b0f 57bd 4dcd 8b3c b793 023d 885c 663d
000001d0: b8ba 66bc 3d51 17bd 07dc 7ebd 34fa a63c
000001e0: a6e2 d73c 3756 3c3c 9ff5 5f3d 8ee6 633c
000001f0: ee66 443d 49fe 25bc 0b9a 763d c487 b2bc
00000200: b3b6 b03c 33c4 02bb 4a45 b83c 1eda 90bc
00000210: d6a7 1fbd 08f6 b03c 6adc 593d 8020 aa3c
00000220: ce31 343d b636 00bd 2b5c 60bd 95d7 e8bc
00000230: e6ca 67bd 51b2 e93a 5079 d73c aeea 3abd
00000240: 05dd 48bb fa9c fc3c dca5 503d 1914 3d3d
00000250: 398d 073d d9cb c03c dc7a bc3c cc93 60bb
00000260: ff47 23bb c485 653d 301e de3c d2d8 953c
00000270: 7793 10b9 bf13 ee3b 7034 073d d2fc 60bc
00000280: d296 203c a37d 9a3d 2245 3dbd 79d7 6bbd
00000290: 140c 17bd 7fc8 d5bc 205b 72bd 3cc9 f1bc
000002a0: ebc4 543d 805b 7abd 8a3f 3d3d b827 9eba
000002b0: 9076 2fbd c9a5 52bd f5b2 97ba 7a07 47bd
000002c0: df83 02bd 1bcd 133d 1a84 35bd c33f 1c3d
000002d0: 8cf2 bd3c 52e0 83bc 0fee dd3c 4daa 193d
000002e0: 2103 7a3d 95a1 5b3d 1789 01bc 856b f63a
000002f0: d1d5 3c3d 303e 5a3d 5930 bcbc 62e4 0e3d
00000300: 099b 18bd b90d 98bc b684 153d 1e66 283d
00000310: 4618 97bc f6b5 1b3d 225e df3a e9c1 d63c
00000320: 7a53 be3b f9f5 503d 2501 5c3c a2c9 4dbd
00000330: aafa 943c daec 003d 92e0 32bd db39 1cbd
00000340: 6e39 4b3d d4b3 4abd aea0 41bd 3633 dfbc
00000350: f385 043d 4c14 64bd 48f7 393d 55aa dc3a
00000360: c7fa 293d b7f8 87bd a3c5 dabc b1b4 413d
00000370: 163c 62bd ad40 21bd 93d0 0fbd da95 34bd
00000380: 03fc 77bd b058 87bc 24df e23c 986f 563d
00000390: 850b 80bc 98f0 fa3a 380f 1fbd f3f8 e4bc
000003a0: accf c6bc 8b8b d63c bfc3 923c 6c70 82bd
000003b0: 0dde 67bd 3fd4 033b a904 753d a592 7b38
000003c0: fe17 2e3d 4326 79bc 9961 f43c f17a 81bd
000003d0: 589f b53c eee3 453d 3c4d 8f3b 0ecd 0e3c
000003e0: 0414 bfbc caa1 083c a458 1dbd 0bb8 3bbd
000003f0: acdb 87bc 8326 27bb 1d21 e63b 37ad 81bd

Y_net.net.6.weight f4 [256, 256]
0.0069911554 0.057079963 -0.033683136 0.03855798 0.023240522 -0.03608166 -0.005989119 -0.05177812
0.05468234 -0.01699973 0.0052518127 -0.031233357 0.022520775 0.008879225 0.046869766 0.0039482936
-0.06746649 -0.025746537 0.02137843 0.044697043 -0.01663935 0.032957405 0.03565862 0.0038486416
0.018571898 -0.03805504 0.009959584 -0.013815968 -0.0010857433 0.05676811 -0.06964659 -0.041657105
-0.028666193 -0.03452353 0.047105327 0.029425105 0.030544475 -0.04390208 0.024849132 -0.002098354
0.004738509 0.027875014 -0.008072352 0.022277238 -0.05078484 0.05699706 -0.060642496 0.004778502
0.03905619 0.015183599 0.0484447 -0.010208392 0.041072868 0.05083874 -0.037496552 0.062399697
-0.026114248 -0.017763851 0.05604363 -0.0010041018 -0.012229354 0.06405535 -0.051503047 0.019489633
-0.013230992 0.048208192 -0.0111979535 -0.053623367 0.052644342 -0.0018174872 -0.040752158 -0.052645937
0.046755645 0.031545267 0.043332938 0.01242856 -0.00088491157 0.067123584 -0.013232268 0.04051173
0.021340033 0.022325091 0.030292114 -0.046919864 0.04536211 0.043837626 -0.06123757 -0.022782205
-0.029319154 0.055122115 -0.026192306 -0.021609971 0.04260688 0.01424663 -0.018209258 -0.010252262
-0.033698965 0.04017239 -0.03318435 0.0074728504 0.04043833 0.029040473 0.0333655 0.03913348
-0.0342589 -0.043384135 0.06786443 -0.010304669 0.033235986 0.02131977 -0.010684319 0.007746508
-0.04385009 -0.019237412 0.028727489 -0.013641212 0.038991433 -0.009235732 0.06131573 0.01757768
0.034097802 -0.073971465 -0.020255547 0.007400923 0.033131972 0.045052543 0.04790097 0.0043675303
-0.003914796 -0.0065504145 -0.051206388 0.001980265 0.028717505 -0.026385518 0.027652297 -0.041410018
-0.009430975 0.038691178 0.04463213 0.035949897 -0.040213585 0.020948656 -0.001144674 -0.07549867
0.054519925 0.021198882 -0.01844813 -0.015748082 -0.05780857 0.026605273 0.022744551 0.015316268
-0.037401874 -0.006701741 -0.03377818 0.0029584863 0.039992422 -0.043401353 0.06541866 -0.06365804
-0.023828428 -0.02204577 0.054507144 0.039115716 0.02689585 -0.030716099 -0.02876183 0.00946011
0.066666454 -0.051599182 -0.016825095 -0.0029222243 0.06280409 -0.0031356288 -0.049721595 -0.030058052
-0.016261006 0.04199365 0.0009780526 -0.058958493 -0.06990347 0.01736232 -0.024578298 0.01945438
0.023542676 0.0471163 0.040926836 0.05380335 0.029996844 0.0028902274 0.028740555 0.057385538
-0.0380679 0.06560209 -0.057026256 0.047037717 0.032592434 -0.002276506 -0.060646906 0.0338748
-0.0489837 0.010140922 -0.047331844 -0.009560287 0.012812974 0.0620157 -0.012899996 -0.031884532
0.03878196 0.0039820937 -0.050588947 0.046501916 0.012409504 0.06209805 0.036409173 -0.00647905
-0.013822623 -0.054482743 0.01145733 -0.009990989 -0.046200678 0.03192222 0.066966996 -0.007963958
0.057657413 0.054992672 0.04108101 0.0022123458 -0.043570083 -0.06316876 0.00072527677 0.04105789
0.06685936 0.022967905 -0.049798995 0.01566444 -0.004272755 0.024266262 0.03303992 -0.10500417
0.0048525715 -0.02320908 0.012759396 -0.051526327 0.008664033 -0.06932336 0.0026530044 -0.010960973
0.059129145 0.0258665 0.030826207 0.05949332 -0.023203745 -0.023896312 0.060672473 -0.03188395
00000000: 1016 e53b aecc 693d 54f7 09bd f9ee 1d3d
00000010: e862 be3c 5dca 13bd 5f40 c4bb 4b15 54bd
00000020: 97fa 5f3d 0543 8bbc 6617 ac3b 19dd ffbc
00000030: 7d7d b83c 2b7a 113c 83fa 3f3d b060 813b
00000040: df2b 8abd 67ea d2bc d121 af3c 3f14 373d
00000050: 3f4f 88bc 58fe 063d c60e 123d 7e39 7c3b
00000060: 1824 983c 9adf 1bbd 862d 233c 5f5c 62bc
00000070: 804f 8eba ad85 683d dfa2 8ebd a4a0 2abd
00000080: 5dd5 eabc 8c68 0dbd 84f1 403d eb0c f13c
00000090: 6838 fa3c abd2 33bd 6890 cb3c 8a84 09bb
000000a0: 7f45 9b3b 245a e43c e641 04bc c17e b63c
000000b0: c403 50bd c075 693d 4464 78bd fb94 9c3b
000000c0: 62f9 1f3d a1c4 783c f36d 463d 1941 27bc
000000d0: 063c 283d 483c 503d fc95 19bd d396 7f3d
000000e0: 8ced d5bc 7f85 91bc 018e 653d 119c 83ba
000000f0: a15d 48bc 742f 833d dcf4 52bd b9a8 9f3c
00000100: cdc6 58bc f475 453d 9f77 37bc 2da4 5bbd
00000110: 98a1 573d c038 eeba bceb 26bd 44a3 57bd
00000120: d982 3f3d 9c35 013d e17d 313d 29a1 4b3c
00000130: 69f9 67ba 1778 893d 28cc 58bc a1ef 253d
00000140: 4bd1 ae3c 1ce3 b63c 2b27 f83c 0b2f 40bd
00000150: 9fcd 393d 158f 333d 3fd4 7abd bfa1 babc
00000160: b92e f0bc bac7 613d 3f91 d6bc 6507 b1bc
00000170: 8d84 2e3d b26a 693c 952b 95bc 1bf9 27bc
00000180: ed07 0abd ce8b 243d 50ec 07bd d0de f43b
00000190: aaa2 253d 49e6 ed3c 43aa 083d 6e4a 203d
000001a0: 0f53 0cbd 90b3 31bd 82fc 8a3d ead4 28bc
000001b0: 7522 083d cca6 ae3c 480d 2fbc 6bd6 fd3b
000001c0: 279c 33bd c797 9dbc e955 eb3c 647f 5fbc
000001d0: 7bb5 1f3d 7851 17bc 3426 7b3d 11ff 8f3c
000001e0: 23aa 0b3d 5a7e 97bd f6ee a5bc 7183 f23b
000001f0: 64b5 073d 0489 383d cf33 443d 801d 8f3b
00000200: b047 80bb dca4 d6bb cabd 51bd 55c7 013b
00000210: f940 eb3c 7126 d8bc 1287 e23c 8d9d 29bd
00000220: 6084 1abc a47a 1e3d 2ed0 363d 3340 133d
00000230: 00b7 24bd 849c ab3c e308 96ba 0c9f 9abd
00000240: 4950 5f3d 47a9 ad3c 8820 97bc 1f02 81bc
00000250: aec8 6cbd 4df3 d93c c852 ba3c 16f1 7a3c
00000260: b532 19bd 479a dbbb fd5a 0abd 2ae3 413b
00000270: 18cf 233d 9ec5 31bd 38fa 853d 255f 82bd
00000280: d633 c3bc 5599 b4bc e242 5f3d cd37 203d
00000290: b054 dc3c 54a0 fbbc ee9d ebbc 94fe 1a3c
000002a0: 6c88 883d aa59 53bd c8d4 89bc ca82 3fbb
000002b0: 6e9f 803d 1f7f 4dbb dfa8 4bbd 4e3c f6bc
000002c0: cd35 85bc 8901 2c3d 0032 803a 767e 71bd
000002d0: 8d29 8fbd 6d3b 8e3c 6d58 c9bc cb5e 9f3c
000002e0: 92dc c03c 05fd 403d e6a2 273d e760 5c3d
000002f0: f1bb f53c f869 3d3b 5071 eb3c 190d 6b3d
00000300: 16ed 1bbd 635a 863d 5d94 69bd 9faa 403d
00000310: a57f 053d 6f31 15bb e468 78bd 4dc0 0a3d
00000320: 22a3 48bd 1c26 263c 09df 41bd c0a2 1cbc
00000330: 82ed 513c 2d04 7e3d 815a 53bc 5b99 02bd
00000340: d5d9 1e3d 397c 823b 5b36 4fbd cb78 3e3d
00000350: 3b51 4b3c 865a 7e3d c921 153d 364e d4bb
00000360: 4878 62bc 4c29 5fbd 86b7 3b3c 3fb1 23bc
00000370: ec3c 3dbd e0c0 023d fe25 893d 437b 02bc
00000380: 2e2a 6c3d ff3f 613d 9044 283d 01fd 103b
00000390: 8b76 32bd 9f5e 81bd 8020 3e3a 512c 283d
000003a0: 8fed 883d 3027 bc3c 08fa 4bbd b652 803c
000003b0: 7702 8cbb 0aca c63c de54 073d 6d0c d7bd
000003c0: 5202 9f3b f820 bebc c90c 513c 450d 53bd
000003d0: 97f3 0d3c 68f9 8dbd 07de 2d3b a795 33bc
000003e0: 6731 723d fbe5 d33c 3e87 fc3c 44af 733d
000003f0: c815 bebc 33c2 c3bc b383 783d bf98 02bd
