models/saved/simple_hjb_model_fc_pinn.pth (torch, 798421 bytes, 9 tensors)

Y_net.net.0.weight f4 [256, 2]
000000 54 95 4b 3e ef 9d 87 3e 69 68 e4 bd d4 02 0c bf
       0.19881183 0.2648768 -0.11152727 -0.54691815
000010 6b 7c b9 be 24 cd 40 3e dd 33 a1 3e 7c af 48 be
       -0.36227736 0.18828255 0.3148488 -0.19598192
000020 ce 41 d5 be 99 7c 0c 3f 2a 69 10 bf 6c fa 0d 3f
       -0.41651767 0.5487762 -0.5641047 0.5546024
000030 0d 2e 14 bf cc 36 be be 09 3c 64 3e d5 8f 0b 3f
       -0.5788277 -0.37151182 0.22288527 0.54516345
000040 4c c9 15 bf b7 fb 40 3e cc 34 27 3f bc d7 92 be
       -0.5851028 0.18846022 0.65314937 -0.28680217
000050 bb 1b 38 bf f8 04 2e 3e 0d 8b bb be b0 06 e6 3e
       -0.71917313 0.16994083 -0.36629525 0.44926977
000060 05 ca bb 3e 33 f3 2c be d0 1b 15 bf 0a 24 88 3d
       0.36677566 -0.16889648 -0.58245564 0.06647499
000070 5a 70 b8 3e 81 41 01 bf d5 d6 08 bf 92 c6 0c bf
       0.36023217 -0.50490576 -0.5345281 -0.54990494
000080 62 7c 01 be cc 35 df be 2a bf d5 bc a3 ff 37 3f
       -0.12645105 -0.4359573 -0.02609213 0.71874446
000090 4e f2 2e be 30 a3 a3 3e c4 00 97 be 66 94 a0 be
       -0.1708462 0.3196044 -0.29492772 -0.3136322
0000a0 39 ef 32 bf 4b e8 c0 be 60 5d e2 3e d0 12 4c 3e
       -0.69896275 -0.37677225 0.44211864 0.19929051
0000b0 2e 2c 0c bf 97 b1 1b 3e 8d ba 1c bf e6 ce 85 3e
       -0.5475491 0.15204464 -0.61222154 0.26134413
0000c0 4a dd 4b be 7c 1f 40 3e 9f d2 d0 be c7 18 16 3f
       -0.19908634 0.1876201 -0.4078569 0.5863156
0000d0 da 22 b9 be c6 64 cd be c6 a6 a0 3e 87 b7 24 be
       -0.36159402 -0.40115947 0.31377238 -0.16085635
0000e0 40 63 25 3f c3 e7 e0 3e 0a f0 2e bf 3d fb b7 3e
       0.6460457 0.4392682 -0.6833502 0.35933867
0000f0 12 dc 0d bc ae 4c fc 3e 35 bb 35 3f d3 8e c0 be
       -0.008658426 0.49277252 0.7098878 -0.37608966
000100 4a 8a bd 3e c1 9e 59 3d f3 9f 0d bf 70 21 0a bd
       0.3701957 0.053129915 -0.5532219 -0.033723295
000110 a2 45 11 bf 7e 94 11 bf 27 c9 02 bf ae 92 72 3e
       -0.56746876 -0.56867206 -0.51088184 0.23688766
000120 b5 7b 0d bf 71 ad 95 3e d3 31 d3 be aa a6 37 bf
       -0.55266887 0.29233888 -0.4124895 -0.71738684
000130 45 26 14 3f a6 54 0e bf 90 61 d2 bd 99 28 34 3f
       0.57870895 -0.55597913 -0.10272515 0.7037445
000140 5e ca bb be 3a 49 db 3d e3 54 d2 3e b1 c2 07 3f
       -0.3667783 0.10707326 0.41080388 0.5303145
000150 f9 4e fc 3e 46 93 01 bf d4 42 40 be 00 69 bd bb
       0.49279 -0.50615346 -0.18775493 -0.0057803392
000160 73 ca a3 3e da 09 ea be 64 26 26 bf ec 7f d0 3e
       0.31990394 -0.4571064 -0.6490233 0.40722597
000170 cb ba d7 3e 39 63 37 3f 46 3e 0b 3f ac cd 4a be
       0.421347 0.71635777 0.54391897 -0.1980502
000180 f1 3d f1 bd 0a b4 10 bf ae 4f 18 bf 76 77 b1 3d
       -0.117793925 -0.5652472 -0.5949658 0.086653635
000190 5d e1 84 3e 58 04 fa bd 07 1d 5f 3e f4 9a df 3e
       0.2595319 -0.1220786 0.21788417 0.43672907
0001a0 1e ef 2b bf 1e c7 b5 3e 2f 7e 31 be 98 14 a4 3e
       -0.6716174 0.35503477 -0.17333291 0.32046962
0001b0 d1 f0 df 3e 38 c3 e7 3e 0f 11 e7 be 40 6b 16 3f
       0.43738416 0.45266128 -0.45130202 0.587574
0001c0 07 13 b5 3e 68 6d 9c 3e 7f db 0b bf 2d d7 00 bf
       0.3536608 0.3055222 -0.546318 -0.5032833
0001d0 e2 8f d0 be 97 e4 0f bf 9a cd 04 3f 7f 5c 12 3f
       -0.40734774 -0.56208175 0.51876223 0.5717239
0001e0 5b 55 02 bf c1 09 ab 3e f4 d5 18 bf 5e 2d 01 bf
       -0.5091149 0.3340588 -0.59701467 -0.5045985
0001f0 e7 b2 5d be 03 1e c7 bd 5d 30 2b bf 13 bc 04 bf
       -0.21650277 -0.09722521 -0.6687067 -0.5184948
000200 74 53 12 3f 4f fa 85 3d 7e 9d 52 3e 44 c4 0a bf
       0.5715859 0.06541883 0.20567891 -0.5420573
000210 a6 78 57 3e 42 0f 32 bf 7e 4e 4b be 2a 36 25 bf
       0.21042117 -0.6955453 -0.19854161 -0.6453577
000220 31 95 27 bf 42 e9 fc 3e af a2 95 3e a6 d9 12 3b
       -0.65462023 0.49396712 0.2922568 0.002240756
000230 d4 a4 2b bf 9e 1e 7c be 7d 51 90 3d 08 2d 86 3d
       -0.6704838 -0.24621055 0.07046793 0.06551558
000240 39 76 bd 3e ec fa 14 bf d6 88 d0 be 33 28 6a be
       0.3700426 -0.58195376 -0.40729398 -0.22866897
000250 cc d3 2d 3f 16 80 03 3e 7e d9 02 3e a0 96 eb 3e
       0.679013 0.1284183 0.12778279 0.46013355
000260 a6 2a 02 bf 3b b2 63 3d d5 5d 36 3f 58 18 96 be
       -0.50846326 0.055589896 0.71236926 -0.29315448
000270 6c ad c0 3e 88 60 c7 3e f6 77 ed bd b3 45 32 3f
       0.3763231 0.38940835 -0.11595146 0.696376
000280 4c 19 62 be 6c 27 f6 be 52 e7 19 3e 03 14 eb 3d
       -0.22079962 -0.48076952 0.15029648 0.11478426
000290 e2 fd 68 3e 5d c5 18 bf f5 d8 e2 be bd 82 2f 3f
       0.22753099 -0.5967615 -0.4430615 0.68558866
0002a0 23 e9 bf bd 41 92 11 3f b6 59 e0 be c1 5b fd be
       -0.09370639 0.5686379 -0.43818444 -0.49484065
0002b0 ba dd 04 bf 33 ae 17 3f 6d fa ee be 37 e4 26 3f
       -0.5190083 0.5925018 -0.46675435 0.6519198
0002c0 70 1b e3 3e 4d ce ad bb a9 49 6b be 7c 45 10 3f
       0.4435687 -0.005304134 -0.22977318 0.56356025
0002d0 61 0a 7e be 93 4f b5 be d5 05 e8 3e 8d 2c 07 bf
       -0.24808647 -0.35412273 0.4531695 -0.52802354
0002e0 b5 6a 17 be 42 a6 3e be 39 1b c5 be bb 5f 24 bf
       -0.14786799 -0.1861811 -0.38497332 -0.64208573
0002f0 e0 fa 2b be 6c 1f 03 3f a0 51 2f bf 0f 4e 10 3f
       -0.1679492 0.5121982 -0.68483925 0.5636911
000300 d8 22 b0 3e 16 6e 3d be 12 a6 24 bf 80 97 ba 3c
       0.34401584 -0.18499026 -0.64315903 0.022777319
000310 3b c1 c4 bd 31 4c 2b 3f c6 08 5c 3e ac 47 07 bf
       -0.09607168 0.66913134 0.21487722 -0.5284374
000320 b8 4c 11 bf ba 97 1d bf a0 49 2f bf 69 c9 f2 be
       -0.5675769 -0.6155964 -0.6847172 -0.4741929
000330 ab f3 92 3d 1b e1 0e 3e 2d a3 bc be 6e f3 1d bf
       0.07175382 0.13953058 -0.36843243 -0.6169957
000340 b1 99 a4 be b1 90 2c 3f cd 7c 0e 3f 6a 88 52 be
       -0.32148507 0.6740828 0.5565918 -0.2055985
000350 87 e4 fb bc cd 61 11 3f ed 22 ad 3e 6a de c8 3e
       -0.030748619 0.5678986 0.3381571 0.39232188
000360 19 23 d8 3d 54 6c 8e bd dd 78 23 bf a6 93 29 bf
       0.10553569 -0.06954256 -0.638563 -0.6624092
000370 ce b9 bc be 74 ce a4 3e 6d 7a b9 3e 7f aa 28 3e
       -0.36860508 0.3218876 0.36226216 0.16471289
000380 f3 5a 20 bf 60 85 bb 3e fc 20 db be 0d 38 5c be
       -0.6263878 0.36625195 -0.42798603 -0.21505757
000390 fb 65 f0 3e e5 c0 f9 be 6a ea 17 3f 4b a3 a9 3d
       0.46952805 -0.4877998 0.5934206 0.08283099
0003a0 d1 e9 c3 3e b7 69 0e be c8 f1 15 bf d1 9c 90 3e
       0.38264325 -0.13907515 -0.58572054 0.2824464
0003b0 28 b4 e3 be f3 c6 5a 3e 46 29 64 bd d8 a3 8b 3d
       -0.44473386 0.21364956 -0.055703424 0.0681836
0003c0 ec c4 98 3e a9 bc 29 be 24 c4 d8 3e 04 26 03 3f
       0.2983774 -0.16575874 0.42337143 0.5122988
0003d0 d8 50 d0 be 60 e1 ca be ff 9d fa be c1 0d eb be
       -0.4068668 -0.39625072 -0.48948666 -0.4590893
0003e0 2c 1b 81 be ce 38 52 be 96 f5 79 3c 5b cb 3c 3e
       -0.25216043 -0.20529482 0.015256306 0.18436949
0003f0 fc 5f 2f bf 3f 37 08 3e ba f3 6c be 7c d0 e4 be
       -0.68505836 0.13302325 -0.2313985 -0.4469031

Y_net.net.0.bias f4 [256]
000000 88 5e 85 be 5c 69 4e 3e 54 77 2d be 7f 88 c0 be
       -0.26048684 0.20157379 -0.16940051 -0.37604138
000010 d5 b8 80 3e 44 8b 11 3e 62 d7 28 3e 40 87 04 3d
       0.25141016 0.14213282 0.16488412 0.032355547
000020 7f 0a a9 3d f0 54 2c bf 22 f9 d4 3e b2 8f f6 be
       0.08253955 -0.67317104 0.41596323 -0.48156506
000030 ef 92 22 3f 3a e3 9e 3e 17 a3 87 be 09 89 bd 3e
       0.6350545 0.31032735 -0.26491615 0.37018612
000040 d5 e9 d4 3d 2d 85 29 be 15 68 01 be 73 39 22 3f
       0.103961624 -0.16554709 -0.1263736 0.6336891
000050 39 3c a7 3e 57 ed fb be a5 8b 25 3e c3 b5 b0 be
       0.32663134 -0.49204513 0.16166551 -0.34513673
000060 06 e6 61 3e b7 66 23 3f 86 18 2e bf 4b 70 7b bd
       0.22060403 0.63828605 -0.6800617 -0.061386388
000070 de 67 32 3f f5 03 ba 3e 48 62 24 bf 61 39 19 bf
       0.6968974 0.36331144 -0.64212465 -0.5985318
000080 8f 8e dd 3e 2a 33 16 bf e2 eb b3 be 7e b2 16 3f
       0.43272826 -0.5867182 -0.35140902 0.5886611
000090 9e 10 16 bf d1 00 7c 3e 63 5b f7 be 1e 47 e1 3e
       -0.58619106 0.24609686 -0.4831191 0.4399957
0000a0 9d a3 08 3e 40 60 93 3c 1c 1e be be 0b 3d ce be
       0.13343664 0.017990232 -0.37132347 -0.40280947
0000b0 05 7a 25 3f 69 21 b9 be c7 5f ec 3d e2 77 93 3e
       0.6463931 -0.36158302 0.115417056 0.288024
0000c0 7e ab fc be 39 4a 92 3e 67 8c 49 3e c3 2e bb be
       -0.49349588 0.28572252 0.19682465 -0.36559114
0000d0 71 86 c1 3e f2 6a 1f bb 92 6a 84 3e 53 4b ae 3e
       0.37797883 -0.002432522 0.25862557 0.34041843
0000e0 2b c3 df bd 5b b0 ca be 95 53 ca bd 86 c4 fd 3e
       -0.10925897 -0.39587674 -0.09879223 0.49563998
0000f0 17 1f 2c 3f d1 a6 97 3e 1f ed 30 3f 34 c8 83 3e
       0.6723494 0.29619458 0.6911182 0.2573868
000100 76 58 85 be d9 3a 42 3e 56 b6 c4 be 7d fa 2d 3f
       -0.26044053 0.18967761 -0.3842036 0.6796034
000110 67 78 e9 3d 96 03 d4 bd b2 99 d9 be 5b 1a 9d be
       0.11399918 -0.103522465 -0.42500073 -0.3068417
000120 b1 1c 2e be 31 2c e4 bd 78 0d 85 3d 2c 1c 02 3e
       -0.17003132 -0.11141241 0.064967096 0.12706059
000130 4e 95 02 3f fa bb f8 be a7 28 e8 3e d1 f5 0b 3f
       0.5100907 -0.48580915 0.45343515 0.5467196
000140 3d 87 92 3e 1d ab 0b bf bf 5f 4c bc 52 01 31 3f
       0.28618804 -0.54557973 -0.0124739995 0.6914264
000150 ea 4c af be c6 3a 33 3e 6e 54 bd 3d 58 28 0a bf
       -0.34238368 0.17502889 0.09244619 -0.5396781
000160 59 27 76 be 8b 37 ca be 99 0c cf be 30 20 16 3f
       -0.24038447 -0.394955 -0.404393 0.58642864
000170 3d e2 40 be 6c d6 04 bf 91 d6 9e bd 6e fe 27 be
       -0.18836303 -0.5188968 -0.07755769 -0.16405651
000180 69 74 55 be ad 8b 25 bf e4 2c aa 3e 74 58 af be
       -0.20845188 -0.64666253 0.33237374 -0.34247172
000190 8c d9 56 3e f2 d6 51 3c 45 aa e8 3e 35 40 e7 bd
       0.20981425 0.012807595 0.45442405 -0.112915434
0001a0 a6 12 19 3f 1f ff 29 be c7 83 da 3b 89 0d 4d be
       0.5979408 -0.16601227 0.006668541 -0.20024695
0001b0 0c 86 a3 be f0 62 7b be 5b 43 1a 3f 2f 2f f0 bd
       -0.31938207 -0.2454946 0.60259026 -0.117277496
0001c0 76 09 a6 3e e3 67 ad bd 98 4d 03 3f 51 85 fa 3e
       0.32429093 -0.084670804 0.51290274 0.48929837
0001d0 e6 77 0c bf 24 45 21 3f 5e cf 94 be 56 50 30 3e
       -0.5487045 0.62996125 -0.2906446 0.17218146
0001e0 de 2b 73 3e 8f e6 fc 3e 39 23 8e bd c8 2d 17 bf
       0.23747203 0.49394652 -0.06940312 -0.5905423
0001f0 e4 5d e1 be 90 6f b0 be f3 0f 3b 3b 13 96 4b 3e
       -0.44016945 -0.34460115 0.0028543442 0.19881468
000200 43 79 fe 3e da 40 12 3e 79 ef 83 3e 77 c0 1c bf
       0.4970189 0.14282551 0.2576864 -0.6123118
000210 a3 7a 86 3e f6 8a 2b bf d6 8b 1e bf 1e 26 29 3f
       0.2626544 -0.6700891 -0.6193212 0.6607379
000220 a6 16 fe 3e 0c cf 06 3f b5 b4 a7 3d c7 1f 12 bf
       0.49626654 0.5265968 0.08188764 -0.5707974
000230 2e 95 65 3d aa 74 05 3f 58 73 25 3d 1e c9 fa bd
       0.056050472 0.5213114 0.040393203 -0.12245391
000240 f6 d4 70 3d f6 b6 d3 3e 81 81 76 3e 62 f0 0c bf
       0.058796845 0.41350526 0.2407284 -0.55054295
000250 bc 71 9f be 55 48 10 3f 5e 79 ee be 5d c0 f8 be
       -0.3114146 0.5636037 -0.4657697 -0.48584262
000260 f0 a2 2f be 9f 21 74 3d b9 3b e6 be 11 9b db be
       -0.17152 0.059602376 -0.4496744 -0.42891744
000270 2a 2e 26 3f c8 ea ef be e2 bb b5 be 4d 73 ad be
       0.6491419 -0.4685881 -0.35494906 -0.3387703
000280 78 b7 86 bd 37 a0 f7 3e e3 3d 23 bf b9 98 04 bf
       -0.06577963 0.48364422 -0.63766307 -0.51795536
000290 73 d4 81 3e 04 2a 38 be 9e 83 a5 be 4f 8d db 3e
       0.25357398 -0.17984778 -0.32326978 0.42881247
0002a0 47 a1 24 bf 72 76 c4 be e6 74 03 be 80 f6 99 be
       -0.6430859 -0.38371617 -0.12837562 -0.30070877
0002b0 f4 07 55 3e 75 ae 22 3f d4 c7 2c be 8a c0 26 bf
       0.20803815 0.6354745 -0.16873103 -0.6513754
0002c0 8d 85 e3 bd f2 3b 18 bf 57 fe a0 be e6 0e be bd
       -0.11109457 -0.5946647 -0.31444046 -0.092801854
0002d0 b3 3f 9b be 92 5d 43 3b c1 89 21 3f b0 0e 19 bf
       -0.30322036 0.002981041 0.6310082 -0.59788036
0002e0 7d 8b 35 be 40 48 f3 be 6d 9e 8c 3e 76 29 18 3f
       -0.17728992 -0.4751606 0.2746462 0.59438264
0002f0 94 be dd 3d ad fd 07 3f 2b 8b 10 3f 7c 10 1c bf
       0.108273655 0.53121454 0.56462353 -0.60962653
000300 c9 b8 05 3f cd ba 25 3f c5 cb 1c bf 07 2a 33 bf
       0.52235085 0.6473816 -0.6124843 -0.69986004
000310 46 b5 25 3f 7f d5 1b bf 80 88 be bd 2a 04 52 bd
       0.64729726 -0.60872644 -0.09303379 -0.051273502
000320 33 8f 5a be 27 40 c4 bc 2a 6b d6 be ed 31 cf bd
       -0.21343689 -0.023956371 -0.41878635 -0.101169445
000330 df 70 53 3e 38 78 48 be 16 6b f5 be ac 30 ba 3e
       0.20648526 -0.1957711 -0.47933263 0.3636526
000340 d2 27 12 3f 00 f1 a5 be 03 4c cd 3e d7 73 9c be
       0.5709201 -0.3241043 0.40097055 -0.3055713
000350 f1 ee 08 be 51 b7 7e 3d 41 7f 26 3f 65 02 1b 3f
       -0.13372399 0.062186543 0.65037924 0.6055053
000360 02 42 80 bd 23 84 f2 3b 8d ad f9 3e 56 e2 06 bf
       -0.0626259 0.007401006 0.4876522 -0.5268911
000370 1b db 2a 3e a6 14 17 3f f2 b2 6f 3e a6 3e c5 3d
       0.16685145 0.5901588 0.23408106 0.0963109
000380 3e c6 87 be c2 52 0d 3f 23 68 2f bf e5 18 ad 3e
       -0.26518434 0.55204403 -0.68518275 0.33808056
000390 84 31 8f be 3e 8a 0c bf d9 fa 27 bf d5 b4 22 bf
       -0.27967465 -0.5489844 -0.6561714 -0.6355718
0003a0 74 83 11 be 39 44 6c be cb 3a d4 3e 80 c6 1f 3f
       -0.14210302 -0.230729 0.41451105 0.6241226
0003b0 27 1e cc be 2a 7f eb 3d ac 73 bc 3e fa bd 89 bd
       -0.39866754 0.11498864 0.36807 -0.06725688
0003c0 79 9e 02 bf cd 6f be 3c 6d e8 1b bf 1a 00 37 3f
       -0.5102306 0.02324667 -0.6090153 0.7148453
0003d0 de 04 d1 be 14 90 d3 3e 1a 98 36 3c 08 11 42 be
       -0.40824026 0.4132086 0.011144662 -0.1895181
0003e0 87 70 42 bc 7d 79 a7 be a1 bb 08 bf 65 5f 43 3e
       -0.011867649 -0.32709876 -0.534113 0.19079359
0003f0 65 e2 55 be 56 d5 86 3e ba cb 06 3d 37 95 0b bf
       -0.20887144 0.26334637 0.032909133 -0.5452456

Y_net.net.2.weight f4 [256, 256]
000000 8e 97 37 bd e7 d0 78 3c 00 3e 88 b9 13 94 e3 3b
       -0.04482227 0.015186525 -0.00025986135 0.006945142
000010 8e 86 70 bd 6d 7a 1d bd bd 44 56 bd 33 63 76 bd
       -0.05872207 -0.038446832 -0.052311648 -0.060153197
000020 90 9b 23 3d 6f 1b 6f bd 8b 40 52 bd 18 d1 8d bc
       0.039943278 -0.058375772 -0.051331084 -0.017311618
000030 a5 c4 8b 3c 7b 2d 2f bd a9 58 50 3d 06 77 34 3d
       0.01706154 -0.042767983 0.050865803 0.044058822
000040 19 91 39 3d 21 f0 5e 3d d2 bc 1e 3d c8 2e 03 3d
       0.04530439 0.054428224 0.03875429 0.032027036
000050 9b ed 45 3d 4c 63 13 3d 1d c1 3e bd f8 60 95 3c
       0.0483223 0.03598337 -0.046570886 0.018234715
000060 80 82 85 bd 33 ba 0f bd 3d 58 88 3d 0f 90 69 3d
       -0.065190315 -0.035089683 0.06657455 0.05702215
000070 c8 6e 5e bd b9 41 15 bd ca ec 76 bd 31 65 e8 3b
       -0.054304868 -0.03643963 -0.060284413 0.007092141
000080 0d b7 fa 3c d0 c2 64 3c ec 5b 21 3d 86 63 97 bd
       0.030604864 0.013962463 0.039394304 -0.073920295
000090 98 29 7b 3c f5 9f ad bc 04 75 c5 bb 9a fb 9a 3b
       0.015329741 -0.021194438 -0.0060259122 0.0047297003
0000a0 2f 0b bd 3c 27 84 39 3c 04 1d dd ba 92 8a 56 3d
       0.023076622 0.0113230115 -0.0016869609 0.052378245
0000b0 8f 37 0b 3b e0 db 99 3b 68 59 ec bc ce 15 73 3c
       0.0021242832 0.0046954006 -0.028851226 0.014836742
0000c0 a7 fd 51 3d d8 fa 10 3d bc 42 fc 3c 00 38 65 bb
       0.051267292 0.035395473 0.03079354 -0.0034976006
0000d0 60 60 12 3c 10 27 23 bd 45 da 0a bd 24 37 ea bb
       0.00893411 -0.039832175 -0.033899564 -0.0071476866
0000e0 0c 05 30 bd 40 ed 37 bd 2d af 6c bd 27 5c 45 bd
       -0.042973563 -0.044903994 -0.05778425 -0.048183586
0000f0 26 8b 85 bd 1e 54 34 3d db bd 65 3c 25 bf 17 3d
       -0.06520681 0.044025533 0.014022316 0.037047524
000100 a0 54 0e 3d e8 f4 5f 3d 19 66 3f 3d 52 8f d9 bb
       0.034748673 0.05467692 0.046728227 -0.0066393996
000110 6e 66 63 bb 30 54 67 bc c6 dc 5d 3d 90 59 80 3b
       -0.0034698504 -0.014119193 0.054165624 0.0039169267
000120 56 ad ee 3c d1 96 d5 bc 59 70 5e 3d 45 1a 4f bd
       0.029135387 -0.026072891 0.05430636 -0.050562162
000130 e3 05 ec 3c ab 20 bf bc 56 40 ae bc b4 48 0d 3d
       0.0288114 -0.023331007 -0.021270912 0.034493163
000140 2d ea a3 3c ac 8c 15 3d e0 d1 97 3c 22 8b 57 3d
       0.020009125 0.03651111 0.018532693 0.05262292
000150 74 d8 93 bc 27 9c 97 bc 9b 2d 19 3d 60 c5 4a bb
       -0.018047549 -0.018507076 0.03739701 -0.0030940399
000160 c4 97 c6 bc 20 e1 36 3c 86 e2 3a bc 40 cb 77 bc
       -0.02424229 0.011162072 -0.011406546 -0.015124142
000170 7d ef 34 3d 25 4e 65 bc 76 8d 53 3c b1 0e 57 3d
       0.044173706 -0.013995682 0.012912145 0.052504245
000180 fb e8 28 bd 3e 5c 19 3d 75 2a c3 3c 44 e9 68 bd
       -0.041237812 0.037441485 0.023823956 -0.056863084
000190 44 83 1a bd c1 27 85 bd 26 5d 8c 3c af c0 d7 3b
       -0.03772284 -0.06501723 0.01713426 0.006584249
0001a0 9a e8 05 bd ea ae 26 bd f3 92 90 3c 38 4a fb 3c
       -0.03269253 -0.040694155 0.017648196 0.030675039
0001b0 95 ac c2 3b 3f b2 6f bd 62 7a a6 3c 37 c0 fd bb
       0.0059409835 -0.058519598 0.020322029 -0.007743861
0001c0 03 b4 d8 3c 60 cb 1a bd cb f5 73 bd 07 cd c5 bc
       0.026453024 -0.03779161 -0.05956058 -0.024145616
0001d0 db 22 30 ba 60 16 ce 3c c0 8a c7 3c 30 21 3f 3c
       -0.0006719061 0.025157154 0.024358153 0.011665627
0001e0 6c c7 ba 3c 4e da 6b 3d 86 d2 b6 bc 8d f0 da 3b
       0.02280017 0.05758124 -0.022317182 0.006681508
0001f0 f9 ba 01 bc 82 6a 71 3d ee cd 18 bd 55 9b 1a 3d
       -0.007918113 0.058939464 -0.037305765 0.037745792
000200 38 fb 2f bd 87 fa 0f 3d b8 49 1d 3d 74 c3 25 bd
       -0.04296419 0.03515103 0.03840038 -0.0404696
000210 1e 97 cb 3c b2 2f a0 b9 40 bd 11 bd f6 e9 f2 3c
       0.024852332 -0.00030553114 -0.035580873 0.029652577
000220 d5 e7 31 bd f0 e2 3d 3d b3 35 8e bc cd d5 93 3d
       -0.043433983 0.046359003 -0.01735959 0.07218514
000230 ae d7 e8 bc 1d f7 99 bc 99 a2 12 bd 0e cf b7 3c
       -0.028423157 -0.01879459 -0.035799596 0.022437599
000240 66 21 3d 3c 29 28 66 3d ee cd 54 3d fa f8 17 bd
       0.011543607 0.056190643 0.051954202 -0.037102677
000250 e9 ff 42 3d c7 ab 64 3c ad aa 03 bd f0 50 18 bc
       0.047607336 0.013956971 -0.03214519 -0.009296641
000260 4b 19 7d ba d0 6c 61 bb 8d b8 21 bb d0 61 07 3c
       -0.0009654953 -0.0034397133 -0.0024676651 0.008263066
000270 b2 69 14 3a cc d2 2a bd c0 cb 1d 3d 42 f3 ff bc
       0.0005661502 -0.041704938 0.03852439 -0.031243924
000280 cb 43 24 bd 28 fe fb bb 59 27 9b 3c c3 7c 54 3c
       -0.040103715 -0.00769021 0.01893966 0.012969199
000290 6e 14 72 bd 50 f2 1d bd e8 a7 37 bd 75 e5 d6 bc
       -0.059101515 -0.038561165 -0.044837862 -0.02623246
0002a0 12 8e 32 3d 25 05 5e 3d 76 f0 3b bd e1 7d 5f 3d
       0.04359252 0.054204125 -0.04588362 0.054563407
0002b0 13 63 58 3c 8a 40 00 bb 9c 5e 96 3c 5c af 54 bd
       0.013207215 -0.0019569718 0.01835566 -0.05192505
0002c0 96 c6 bf 3c a5 6c 74 ba b0 12 66 bd bc d0 f0 3c
       0.023410123 -0.00093240506 -0.056170166 0.029396407
0002d0 20 a7 36 3c 3a 8e 8c bd 95 7f 4b 3d b5 2f 6f 3d
       0.011148244 -0.06863065 0.04968222 0.058395106
0002e0 aa b4 0e bd 70 d2 76 bd 78 7f 20 3c 7e eb 58 bd
       -0.034840263 -0.060259283 0.009796016 -0.052958958
0002f0 32 51 de bb db db 39 bd 85 36 e0 bb 86 69 6c 3b
       -0.0067845816 -0.045375686 -0.0068424367 0.003607364
000300 03 6f 13 bd cd 8d 88 bd b8 b0 11 3c 60 b5 80 bc
       -0.03599454 -0.06667671 0.008892231 -0.015711486
000310 4a 66 46 bd 68 b7 38 3d bf 85 0d bd d6 1d fa 3b
       -0.048437394 0.045096785 -0.03455138 0.0076329513
000320 6f f1 68 3c 95 23 88 bc e8 44 b5 bc e2 be 49 bc
       0.0142177185 -0.01661853 -0.022127584 -0.012313576
000330 cc a3 1b 3c 78 f4 51 bd e6 ab 3c 3d da 2a 59 3d
       0.009499501 -0.051258534 0.046062373 0.053019382
000340 c6 98 22 3c 1a a9 04 bd 00 ce 06 bc c0 53 6e bd
       0.009924119 -0.03238783 -0.008227825 -0.05818534
000350 3e 02 1c 3d 2a 0d 1b bd 3b 2e 72 bc 47 39 80 bd
       0.038088076 -0.03785435 -0.01478153 -0.06260925
000360 40 cf 65 3b 28 fc 10 bc 41 ff 00 3d 9f 95 15 bd
       0.0035066158 -0.008849181 0.03149343 -0.036519643
000370 43 64 15 bd 6c 27 2e 3d ff 2f 8d bc c5 23 1f bd
       -0.03647257 0.042518064 -0.0172348 -0.03885247
000380 fd ec f9 3c 05 08 8b bc 10 e6 55 3d 59 fe 29 3d
       0.030508513 -0.016971597 0.052221358 0.04150233
000390 d0 a4 18 bd c6 27 1d bc 26 e7 6e 3d c8 eb 03 3c
       -0.037266552 -0.009592002 0.05832591 0.00805182
0003a0 5a aa ea 3b d1 b2 50 3d c3 1e 3e bd 14 a1 a4 b9
       0.007161421 0.050951783 -0.046416055 -0.0003140053
0003b0 90 ed 8f bc 23 23 43 bd 3f 12 85 bd c2 e4 60 bc
       -0.017569333 -0.04764093 -0.06497621 -0.013726415
0003c0 35 e5 5d bd d1 0c f6 3c 90 d4 a9 bc 4b d0 60 3d
       -0.054173667 0.030035408 -0.02073124 0.054886144
0003d0 22 62 62 bd f1 22 3b 3d 7a 5d bc 3b d1 84 10 bd
       -0.055269368 0.04568762 0.005748448 -0.035282914
0003e0 ff 63 59 3d f5 52 71 bd b0 50 85 bc 46 2a c6 3c
       0.05307388 -0.058917005 -0.016273826 0.02419008
0003f0 5d 6d 72 bd d9 5b a1 3c 8f 03 6a bd 66 b2 09 bd
       -0.05918633 0.019697117 -0.0571323 -0.0336174

Y_net.net.2.bias f4 [256]
000000 9b a5 26 3b 94 12 75 bd cc 90 c3 bb 18 f4 06 bc
       0.0025428298 -0.05983217 -0.005968189 -0.008236907
000010 60 3b f0 3c e8 d3 4b 3d 30 13 f1 bc aa 65 1d bd
       0.029325187 0.049762636 -0.029428095 -0.038427033
000020 85 0b c8 3b 73 4f 42 bd 46 b9 97 3b 99 21 50 bd
       0.006104889 -0.04743905 0.0046302406 -0.05081329
000030 48 8f 00 3c cd f4 96 bc cc 97 a9 bc 46 9b 62 bd
       0.007846661 -0.018427277 -0.020702265 -0.05532386
000040 32 8e 87 bd 76 a9 ac bc 84 72 92 3c c4 c2 2b 3d
       -0.066189185 -0.021076899 0.01787687 0.04193379
000050 ee a1 dc bb dc e4 3a bc 98 4d 3d 3d ca 20 77 3d
       -0.0067331707 -0.011407103 0.046216577 0.060334004
000060 fe 58 b3 bc f9 6c c9 3c 90 96 bc bb a2 a4 89 3c
       -0.02189302 0.024588095 -0.005755253 0.016802136
000070 56 88 55 bc c0 77 b3 3c 50 77 b0 3b c4 3b c8 b9
       -0.013032993 0.021907687 0.005385317 -0.00038191502
000080 93 8b 3b bd 85 8c 91 bd 04 21 ed 3b 2f ab 8a bd
       -0.045787405 -0.0710688 0.007236602 -0.06770932
000090 f7 71 dc bc 04 2a 20 3d ad 46 53 3d 93 74 85 bd
       -0.026909811 0.03910257 0.051581074 -0.065163754
0000a0 f6 05 66 bc 22 0d 1d bd fa 6f 25 3d a4 81 34 3d
       -0.014039507 -0.038342603 0.040389992 0.044068947
0000b0 b2 ab 38 bd 6f 19 e2 3b 16 68 32 bd e2 cd 3c bd
       -0.045085616 0.0069000046 -0.043556295 -0.046094783
0000c0 10 a1 0e 3c 13 f6 3f 3d 7c 13 1d 3d 12 a1 e7 bc
       0.0087053925 0.046865534 0.03834866 -0.028275046
0000d0 8e 43 90 3c 5e 69 67 bd 98 07 fb 3a e0 7c 96 3d
       0.017610338 -0.05649697 0.0019152043 0.07348037
0000e0 a8 8d 6d bd 60 b6 62 3b 66 36 a4 3c d6 4d 79 3b
       -0.057996422 0.0034593567 0.02004547 0.0038040779
0000f0 3c 09 da 3b 89 ec 3d 3d 81 de 49 bd e1 c8 c3 3c
       0.006653933 0.046368156 -0.049284462 0.023899497
000100 68 56 68 3d d4 7a 6a 3d b6 ea 00 3d 89 f1 1a 3d
       0.05672303 0.057246044 0.031473838 0.037828002
000110 29 85 88 39 19 a9 df bc 01 89 44 bc 50 e7 44 3c
       0.00026039153 -0.027302312 -0.011995555 0.01201804
000120 c5 cd f3 bc d0 06 67 bc 7d 20 78 bd 2d 37 30 bd
       -0.029761204 -0.014100745 -0.06057786 -0.04302137
000130 9b 3d ce bc f7 97 3a 3d 72 4a 2c 3d c5 ea 28 3c
       -0.02517586 0.04555508 0.042063184 0.01030988
000140 98 ed 7a 3d 83 48 ec 3c a0 49 94 bc 88 79 33 3d
       0.061261743 0.02884317 -0.018101513 0.043817073
000150 11 70 bd bc 27 9a 98 ba 90 0d 7f 3d 41 cf 80 3d
       -0.023124726 -0.0011642621 0.062268794 0.062895305
000160 ac 5e 3b bd 86 ee 89 bd 67 0c 82 bd 29 2b cd 3c
       -0.045744583 -0.06734948 -0.06350022 0.025044994
000170 7a 8f 84 bc ce cc 1d 3c e8 88 83 3c 2e 6e 33 3d
       -0.016181696 0.009631349 0.016056493 0.043806247
000180 3c 8e 4e bd a8 8b 17 3c 07 9d 27 3d be ec 25 3d
       -0.050428614 0.009249605 0.040921237 0.040508978
000190 59 91 86 bc ba cd 9b 3a 47 68 6f bd 89 05 4e 3c
       -0.016426729 0.0011886873 -0.058449056 0.012574562
0001a0 ed 4e ab ba bd 23 2a bd 8f c9 bb bc 3d 75 52 bd
       -0.0013069786 -0.04153799 -0.022923259 -0.05138134
0001b0 d7 20 0d bd 9a fe 55 bd 36 41 3a bc 40 31 4f 3d
       -0.034455147 -0.05224476 -0.011368087 0.050584078
0001c0 e2 87 52 3d 2d 58 1a 3d a9 94 24 bb 34 5e 0b 3d
       0.05139912 0.037681747 -0.0025113022 0.034025386
0001d0 90 b0 2e bd 5f c2 27 3d db c8 27 3b 44 2b a8 3c
       -0.042648852 0.04095685 0.0025601897 0.020528443
0001e0 0d 8f c6 bc 70 34 a4 3b 70 bb 5f 3d e1 f6 e3 3c
       -0.024238134 0.005011134 0.054622114 0.027827682
0001f0 93 ee 86 3c 6e 57 dc bc 16 4f 9d bc df 12 3d bd
       0.016471183 -0.026897158 -0.01920275 -0.046160575
000200 ea 2e bd 3c 0b 59 c1 3b e6 a2 28 3d 3c 2c ef bc
       0.02309366 0.0059005073 0.041170977 -0.029195897
000210 4c 67 b3 3c 85 e1 53 bd 72 3e b4 3c 4b 3f 05 3d
       0.021899842 -0.051728744 0.022002432 0.032531064
000220 9f 82 0b 3d 7b d8 b4 bb cd 65 3c bd c2 c3 12 bd
       0.034060117 -0.0055189705 -0.045995522 -0.03583122
000230 72 ab 8f 3c 96 ca 59 bd 1e e8 76 bd 15 af 19 3c
       0.017537806 -0.053171717 -0.060279958 0.009380122
000240 14 f9 48 3d e2 66 f7 3b 87 b3 7b bc 14 25 26 3d
       0.049065664 0.0075501064 -0.015362627 0.040562704
000250 b8 b5 0b bb ce 28 6a 3d c8 8e 1a bd 3b da a5 bc
       -0.002131803 0.05716782 -0.037733823 -0.020245662
000260 a0 8b d6 3c d2 74 bf bb 78 fa 23 bd e0 f7 52 bb
       0.026189625 -0.0058427835 -0.040033787 -0.0032191202
000270 35 ff ec 3c dd cb 49 bd 39 ba 78 bb 0c 9e 1c bd
       0.028930286 -0.049266685 -0.0037952794 -0.038236663
000280 f7 af 42 bd 3c a5 86 bd 5b 72 37 3d 3e 3a 80 bd
       -0.047531094 -0.06574485 0.044786792 -0.06261109
000290 f1 23 54 3c 81 e4 c6 3c ca a8 22 3c 62 c2 81 3d
       0.012948022 0.024278881 0.009927938 0.06335904
0002a0 9e ad 12 3d 02 ee 27 3d fb 10 2e 3c ad 87 2f 3d
       0.035810106 0.040998466 0.010624166 0.042854
0002b0 f8 80 52 3d b0 1c 18 bd eb a5 25 bd 81 96 64 3d
       0.051392525 -0.037136734 -0.040441435 0.055807594
0002c0 95 3d 0b 3d e3 6b 1e bd fc 05 67 bd 51 60 e3 bc
       0.033994276 -0.038677108 -0.05640219 -0.027755888
0002d0 8c 32 fb 3b 71 fc 37 bd 91 67 3e 3d be f1 41 bd
       0.0076659378 -0.04491848 0.046485487 -0.047349684
0002e0 a4 09 23 bd 02 8e bd bc 83 9f 03 bd fb b6 41 bd
       -0.039804116 -0.023139004 -0.032134544 -0.047293644
0002f0 cd 17 4b 3c 2c 7b f9 3c ce 0e b4 3c 92 d6 8f bc
       0.012395811 0.03045424 0.021979716 -0.01755837
000300 ca 39 4d 3d d2 09 80 bd e9 6f 82 bd a0 2f cb bc
       0.05010394 -0.06251873 -0.063690014 -0.024802983
000310 3e 5c 18 bd 2a 12 6c 3d 85 85 79 bd 3b c8 17 3d
       -0.037197344 0.05763451 -0.06091835 0.03705619
000320 08 62 8f 3c 7b 58 07 bd 80 68 1a bd f5 60 75 bd
       0.0175028 -0.033043366 -0.037697315 -0.05990692
000330 e6 eb 9e 3d 87 e2 91 bd 98 06 de 3b 5c 5b fe 3c
       0.07759838 -0.07123285 0.0067756884 0.031049423
000340 85 6b ae 3c 19 3c b7 3c 92 26 84 bd b2 91 9f 3c
       0.021291504 0.022367524 -0.06452669 0.019478653
000350 ac 94 15 3d 87 08 22 bc 2e 0b 2f bd 2e 5b 5b bd
       0.036518738 -0.009889728 -0.04273527 -0.053553753
000360 fe 98 1f 3d 7d 4f c8 3c 54 78 7e bc a0 d2 bc bc
       0.038964264 0.024451965 -0.015531618 -0.023049653
000370 38 56 c4 3c 2c 23 7f bd d4 28 88 3d ae d9 8b 3c
       0.023966894 -0.062289402 0.06648412 0.017071571
000380 00 67 2b bd 98 d9 52 3d e9 9e 1d bd e0 29 66 bd
       -0.041846275 0.051477045 -0.038481627 -0.05619228
000390 50 82 7b 3c dd f5 02 bd 37 fe 2b 3d 52 c2 cd bb
       0.015350893 -0.031972755 0.041990485 -0.0062792683
0003a0 50 8b e5 3b b0 f8 aa 3b 43 53 dc 3c f5 d4 31 bc
       0.0070051327 0.005217634 0.026895171 -0.010853996
0003b0 4e 21 d5 3c 33 67 b9 bc d4 17 91 3c f7 5e 3a 3d
       0.026016857 -0.022632217 0.017711557 0.04550072
0003c0 6f c4 07 3d 21 52 88 3d 18 c8 8f 3b 2b 7c c3 bc
       0.033146318 0.0665629 0.0043878667 -0.023862919
0003d0 45 67 4d 3d 6d 2c 2b bc d1 e4 79 bd 73 52 06 bd
       0.050147314 -0.010447604 -0.061009232 -0.032793473
0003e0 5b 0f 55 bd ae 47 77 3d 41 8b e9 3c b3 11 2a 3d
       -0.052016597 0.060371093 0.028508784 0.041520786
0003f0 e9 1e f3 bc 20 d2 18 bd 60 bc ee 3b 9a 99 3f 3d
       -0.029677825 -0.037309766 0.0072856396 0.046777345

Y_net.net.4.weight f4 [256, 256]
000000 30 9a 87 bb e8 02 6a bc d4 94 8c bc c0 07 5a bc
       -0.0041382536 -0.0142829195 -0.01716081 -0.013307512
000010 e4 86 19 3d b0 4d ad 3b 52 39 3f 3d 58 bf 30 3d
       0.037482157 0.005288802 0.046685524 0.04315123
000020 48 65 06 bd 6c 0d 1f 3d 20 4b 51 3d 14 74 28 bd
       -0.032811433 0.03883116 0.051097035 -0.041126326
000030 ee 21 10 3d c8 fd a4 bc 20 65 da bc 3c c6 ae 3c
       0.035188608 -0.020140544 -0.026659548 0.02133476
000040 74 88 e4 3c 50 44 97 bb b0 83 ca bc f0 07 74 3c
       0.027897097 -0.004616298 -0.024720997 0.014894471
000050 0e dc 33 3d 98 1b c7 3c f6 b9 76 3d 28 d1 05 3c
       0.043911032 0.02430515 0.06023594 0.0081675425
000060 ae 3e 4f bd a8 f2 44 3d e2 5c 0f 3d 50 a8 a9 bb
       -0.050596885 0.048082978 0.03500069 -0.005177535
000070 40 9a e4 ba c0 d0 3a bc ac 06 44 bd e2 20 45 bd
       -0.001744099 -0.011402309 -0.047857925 -0.048127063
000080 50 c9 a4 bc a4 4b e0 bc 64 17 17 bd 46 b6 04 bd
       -0.020115525 -0.027379818 -0.03688754 -0.032400392
000090 ca 58 4e bd e6 6f 65 3d b8 b0 1f bc 36 30 47 3d
       -0.050377645 0.056014918 -0.009746723 0.048629962
0000a0 78 e1 0b bd a8 b8 3a 3c 3a 95 5f 3d c8 44 51 bd
       -0.03415057 0.011396565 0.054585673 -0.051090986
0000b0 20 70 4a bd a8 0a 11 bc 80 56 ce ba 04 a5 fb 3c
       -0.049423337 -0.008852638 -0.0015742332 0.030718334
0000c0 b0 9b 08 3d 0e aa 1e bd 08 f0 36 bc b0 8b f6 bb
       0.0333516 -0.038736396 -0.011165626 -0.0075239763
0000d0 4c 38 fa bc 50 9d 2e bd 8c 5b cb 3c 30 34 d6 3b
       -0.030544423 -0.042630494 0.024823926 0.006536983
0000e0 d4 94 bd bc 44 7a 3a 3d 18 4a 08 3c 40 b3 cb 3b
       -0.023142256 0.045526758 0.008318447 0.0062164366
0000f0 ec c0 53 bd a0 06 d5 3b 78 2b 7e 3d 38 7f c6 bc
       -0.051697657 0.006501034 0.062053174 -0.024230585
000100 54 ad 8a bc da e4 11 bd 96 19 63 3d 9e 82 44 bd
       -0.016928352 -0.03561864 0.055444323 -0.04797613
000110 84 13 7c bd 60 ca b1 3c 7a e7 1c bd a4 de f8 3c
       -0.06154205 0.021702945 -0.03830669 0.0303796
000120 be bd 05 3d bc 40 be 3c c0 15 9c 3a 40 06 1d 3b
       0.032651655 0.023224227 0.0011908337 0.0023960024
000130 a8 1f 20 bd d0 1f c5 3b 40 51 c2 bb 44 6d 17 bd
       -0.03909269 0.0060157552 -0.005930096 -0.03696944
000140 f0 bc ae bc 40 3f aa 3b d4 3e 1c 3d 48 e1 93 bc
       -0.021330327 0.0051955283 0.038145855 -0.018051758
000150 2a 8e 47 3d 90 0c 12 bd b8 e7 03 3c 80 c8 ee 3b
       0.048719563 -0.03565651 0.0080508515 0.007287085
000160 b4 85 d7 3c a6 83 75 3d 20 88 93 bc 10 c2 48 bc
       0.026308872 0.059940003 -0.018009245 -0.012253299
000170 40 9f 34 bc 3e b7 25 3d cc 46 c4 3c 40 f1 39 3d
       -0.011024296 0.040457956 0.02395954 0.04539609
000180 b0 53 8f 3b 38 14 44 bd 64 a5 b2 bc 60 cb e1 bb
       0.00437399 -0.047870845 -0.02180738 -0.0068906993
000190 b8 9e d4 bc 10 fb 95 3c 00 82 08 bd 20 ec 6e bd
       -0.02595459 0.018308192 -0.033327103 -0.058330655
0001a0 18 29 e5 3c f0 4b 8a 3b 7e 69 65 bd d4 70 00 3d
       0.027973697 0.0042204782 -0.05600881 0.0313576
0001b0 70 76 e0 bc f8 48 9e 3c b6 51 0f bd 88 39 d9 bc
       -0.027400225 0.019321904 -0.034990035 -0.02651669
0001c0 a8 18 66 bd 34 7b fa 3c 00 7f b5 bc 70 8b 71 3c
       -0.056175858 0.030576326 -0.022155285 0.014742717
0001d0 ae 69 35 bd c0 40 4c bd d8 60 03 3d 98 dd 48 bd
       -0.044290237 -0.049866438 0.03207478 -0.049039453
0001e0 7e 03 2b 3d 90 d5 60 bd 7c 6e d5 bc c6 eb 1d bd
       0.041751377 -0.05489117 -0.02605366 -0.03855493
0001f0 00 c8 bd 38 ae 61 54 bd d8 4d ba 3c 60 d7 e1 bb
       9.049475e-05 -0.051850967 0.022742197 -0.00689213
000200 92 5f 10 bd 1e f0 18 bd ac 0c 77 3d 96 1b 61 bd
       -0.035247393 -0.03733837 0.06031482 -0.05495795
000210 e4 8d ec bc 56 91 76 3d 26 12 21 3d 56 32 18 bd
       -0.028876252 0.060197197 0.03932395 -0.03715738
000220 f8 10 a7 3c 1a ca 26 3d 1c a7 ad 3c 30 6d 08 3d
       0.020393834 0.040720083 0.021197848 0.033307254
000230 a0 ae 6b 3c 22 1f 77 bd 78 e7 0e bd d8 13 49 bd
       0.014384896 -0.060332425 -0.034888715 -0.04909119
000240 ca 89 68 3d 60 24 dd 3c 82 2b 74 3d 46 db 35 bd
       0.05677203 0.026994884 0.059611805 -0.04439857
000250 64 f0 e4 3c 30 fb 8e 3b e0 66 a3 3c 70 a2 52 3c
       0.027946658 0.00436344 0.019946516 0.012856111
000260 4a d3 5a bd e2 a2 52 3d 80 61 fa 3b cc 44 fc 3c
       -0.053424157 0.05142487 0.0076410174 0.030794524
000270 c8 ae 00 3c e8 0d 4f bd 08 5d 56 3d 34 e1 c0 3c
       0.007854171 -0.05055037 0.052334815 0.023544885
000280 64 76 63 3d d4 d1 28 3d 04 00 5e bd 10 15 5e bc
       0.055532828 0.041215733 -0.054199234 -0.013554826
000290 a8 18 64 bc fc d3 25 bd ec 02 56 bd c8 10 25 3c
       -0.013921894 -0.040485367 -0.05224888 0.010074802
0002a0 ca a4 77 3d 8e 33 61 bd 08 79 63 3c f0 3c da 3b
       0.06045989 -0.054980807 0.013883837 0.0066600963
0002b0 22 18 27 bd fe db 6c bd 14 31 b2 bc e0 b3 33 bb
       -0.0407945 -0.05782699 -0.021751918 -0.0027420446
0002c0 c4 6e c3 bc d8 15 58 bc c8 86 0e bd 88 12 59 bd
       -0.023856528 -0.013188802 -0.034796506 -0.05299619
0002d0 60 e5 eb 3c c4 6c 48 bd d0 1e bd 3b 44 1b 37 bd
       0.028795898 -0.048931852 0.0057714954 -0.044703737
0002e0 7c 1f 0b 3d 34 c6 a3 bc cc a5 f6 bc 20 80 1b bb
       0.033965573 -0.019991972 -0.030108355 -0.0023727491
0002f0 74 e2 36 bd f2 f4 36 bd ba a8 52 bd 58 29 f1 bc
       -0.044649556 -0.04466719 -0.05143044 -0.02943866
000300 84 b0 19 3d 4c da d6 bc 74 a9 46 3d 5c 57 e6 bc
       0.037521854 -0.026227139 0.048501447 -0.028117828
000310 7a 37 0f 3d 40 49 9f 3a c8 ee 62 bd fe 42 64 3d
       0.034965016 0.0012152568 -0.0554035 0.05572795
000320 6e 48 58 bd 58 e6 f4 bc fe 3f 5d 3d 6e 46 17 3d
       -0.05280345 -0.029894993 0.054016106 0.0369324
000330 40 06 42 bc 7a 3c 18 bd 7a 5e 10 bd 20 53 16 3b
       -0.01184231 -0.03716705 -0.03524635 0.002293773
000340 f0 a8 65 bd 30 e2 78 bd c6 f5 0a 3d 38 cd 16 bd
       -0.056069314 -0.060762584 0.033925794 -0.036816806
000350 6c fe 5b bd a0 71 01 bb 5c 4c b8 3c f8 30 0b bd
       -0.053709432 -0.0019751564 0.022497348 -0.033982247
000360 d0 81 6b bc 30 94 9f bb bc 6b 81 3c e0 18 15 3b
       -0.014374211 -0.0048699602 0.015798442 0.0022750422
000370 80 eb c9 bb 78 a5 6c 3d 2a 81 5b bd c4 4a 34 bd
       -0.006162107 0.05777499 -0.053589977 -0.044016615
000380 80 fd 31 3c e0 e8 31 bc 4c a3 23 bd ac 7b b3 3c
       0.010863662 -0.010858744 -0.039950654 0.021909557
000390 d4 35 f8 3c 0c 5f 46 3d a0 cc d1 3c b4 1d b9 bc
       0.030299105 0.048430488 0.025610268 -0.022597171
0003a0 84 c2 74 3d 3c 20 41 3d ae 88 05 3d f8 03 1b 3c
       0.059755817 0.04714988 0.03260105 0.009461395
0003b0 4c 26 16 3d 30 fc cf bb 46 36 10 3d 44 f2 eb bc
       0.036657616 -0.0063472018 0.03520801 -0.028802045
0003c0 60 c1 08 bd e4 47 fe 3c 40 6b f5 3b 70 b6 fd bb
       -0.03338754 0.03104014 0.007489592 -0.0077426955
0003d0 94 6d 77 bd 0c 3b af 3c e2 06 22 3d 88 81 20 bc
       -0.060407236 0.02139046 0.039557345 -0.009796508
0003e0 92 53 64 bd fc 35 5d 3d 00 64 2f 39 a0 f5 da bc
       -0.05574376 0.05400656 0.00016726553 -0.026728451
0003f0 94 ae bc bc 88 a7 f8 bc 7c 29 52 3d c0 b1 e7 ba
       -0.023032464 -0.030353323 0.051309094 -0.0017676875

Y_net.net.4.bias f4 [256]
000000 d0 40 14 3c 29 ac 7f 3d de a7 c7 3c 7f 83 04 3d
       0.009048656 0.062420044 0.024372038 0.032351967
000010 9c 49 e8 3c 72 07 2d 3d e2 60 d0 3c c3 20 56 3d
       0.028355412 0.04224343 0.025436822 0.052277338
000020 fb 17 61 3d e3 11 54 bd f2 2e 66 3d 99 87 8c bc
       0.05495451 -0.05177487 0.056197114 -0.017154502
000030 a9 54 9e bc a3 7d f1 bb 99 8b 5d bd e7 d1 07 bd
       -0.019327478 -0.0073697134 -0.05408821 -0.033159163
000040 a0 6d 18 bd 4e 42 02 3d e5 4c 4a bc 24 85 db bc
       -0.03721392 0.031801514 -0.012347435 -0.026796885
000050 dd ee 64 3d 57 1c a1 3c 57 16 f3 bc cf 95 16 bd
       0.05589186 0.019666834 -0.029673738 -0.036763962
000060 a5 9d 3d bd 37 0c 8a bc 28 46 67 bd 4e 40 06 bd
       -0.04629292 -0.016851528 -0.05646339 -0.03277617
000070 e8 87 8a 3b 98 57 7d bd dd b0 7f bc 33 e9 d2 b8
       0.004227627 -0.061851114 -0.015606132 -0.00010057017
000080 6b 9d 8b 3c 3a 37 22 3d c1 6d 33 bc 4e 9d f0 bb
       0.017042836 0.03960345 -0.01095146 -0.007342971
000090 42 9b d8 3c 65 08 a3 bd ad 2f fd 3c 00 63 8c bb
       0.02644122 -0.079605855 0.030906523 -0.0042842627
0000a0 e2 04 f2 bc 71 8a 0d 3d ee 0b 0b bd f8 77 51 3d
       -0.029543344 0.034555856 -0.033946924 0.0511398
0000b0 79 6a 4a bd 3a 3f 44 3d c4 b0 01 bd 30 0b 9c 3b
       -0.049417946 0.04791186 -0.031662717 0.004762076
0000c0 7f 73 17 bd df d2 0b 3d eb 59 f3 bc 67 b9 3a 3d
       -0.03697538 0.03413665 -0.029705962 0.04558697
0000d0 41 9b de 3b 87 4d de bc 1c 79 78 bc ef 09 f4 bc
       0.00679341 -0.027136577 -0.0151655935 -0.029789893
0000e0 b4 10 9c bd e0 d3 17 3c 08 a1 a2 bc 19 0f c3 bb
       -0.07620373 0.0092668235 -0.019852176 -0.0059527275
0000f0 65 1d e6 bb 41 2f b3 bb 63 a5 1e 3d 2f c3 85 3c
       -0.007022547 -0.0054682796 0.038731944 0.016328422
000100 41 85 2b 3c d4 23 2f bc 9c 7e 11 bd 16 39 31 3d
       0.010468782 -0.010689694 -0.035521135 0.043267332
000110 2d 69 58 bd b8 1e a0 bc 2e 04 4a 3d 37 3f 19 bc
       -0.05283468 -0.019545898 0.049320392 -0.0093534505
000120 53 be 2e bd f4 b0 16 bd 4f e8 22 3c 30 7f 9b bc
       -0.042661976 -0.03678985 0.009943082 -0.018981546
000130 39 a1 cd bc b3 77 4b bc 2e 9f 87 bc b1 3e 07 3d
       -0.025101291 -0.012418675 -0.016555395 0.03301877
000140 5d 1d 4b 3d 24 d5 c4 3b 84 2e 7e bd af 29 8b 3c
       0.04958855 0.0060068537 -0.06205608 0.01698765
000150 2a b9 93 bc 31 e8 b2 bc 7a d1 f2 bc 4e ef 27 bd
       -0.018032629 -0.021839233 -0.029640902 -0.040999703
000160 62 a7 17 bc de 47 55 3d 58 57 39 3d c0 46 b0 3a
       -0.009256216 0.05207049 0.045249313 0.001344882
000170 39 cb 1b bc 79 98 58 bd 94 c1 2c bd 72 39 a4 3c
       -0.009508901 -0.052879784 -0.042176798 0.020046923
000180 8f 1f 5e bd 76 fb 74 bd ca d8 c8 3b 54 6e 29 bc
       -0.054229315 -0.059810124 0.006129359 -0.010341246
000190 31 e1 0a 3d 50 d9 03 3d 19 af e1 bc 17 3e 2d 3d
       0.033906166 0.032189667 -0.027549313 0.04229554
0001a0 7c 1b c1 ba 15 0b 9d bc c6 53 98 bb 01 58 7f bd
       -0.0014732922 -0.019170323 -0.0046486584 -0.062339786
0001b0 8c 81 41 3d 4f 48 51 bc f0 cd 7e bc 83 12 b7 3c
       0.047242686 -0.012773587 -0.015552029 0.022347694
0001c0 cd 87 19 3d 72 58 09 bd 3e 91 48 bd 7a 99 5d bd
       0.037483025 -0.033531614 -0.04896664 -0.054101445
0001d0 05 a8 30 3d 60 da 8d bb 34 d9 3e bd e5 d7 03 3d
       0.043128986 -0.004329011 -0.04659386 0.032188315
0001e0 4f d0 1b 3d cb 48 e2 3c b3 74 43 bd ff 99 42 3d
       0.038040455 0.027622601 -0.047718715 0.047510143
0001f0 a3 4d a1 3c c1 01 2a 3d f7 cb 95 3a 22 e3 ca bc
       0.01969034 0.04150558 0.0011428584 -0.024766508
000200 c0 f1 91 bb a2 1f 7c 3d cf 77 81 bc dc c9 36 3c
       -0.0044538677 0.061553605 -0.0158042 0.011156525
000210 51 8f 01 bb 60 01 0d bb d8 9d dd 3a 97 51 a1 3c
       -0.001976926 -0.0021515712 0.0016908003 0.019692225
000220 d5 ee da bc 4e 83 53 3c b4 29 74 3c 21 31 0e 3d
       -0.026725212 0.012909723 0.014902521 0.03471482
000230 a4 f7 3e 3c 94 79 c0 bc c6 d4 1a 3d 58 61 cf 3c
       0.011655722 -0.023495473 0.037800573 0.025314972
000240 9c ed 55 3d 60 8c c6 bb e2 fb 61 bd be 43 c8 3c
       0.052228555 -0.0060592145 -0.055171855 0.024446364
000250 01 78 de 3c 83 b0 2f 3d ce 58 85 bd f1 55 0b 3c
       0.027156832 0.042892944 -0.06511079 0.008504377
000260 9b bd a0 3d ea 3c b1 bc f1 1d 67 bd ea 25 4e bd
       0.078486644 -0.021635491 -0.05642504 -0.050329126
000270 da f0 8c bc 34 cd 02 3d 74 18 37 3d 72 6b e9 bc
       -0.01720469 0.03193398 0.044701055 -0.028493617
000280 0b 56 6f bd c2 f9 f3 bc 90 79 d6 39 f1 de 6d 3d
       -0.058431666 -0.02978218 0.00040907832 0.05807394
000290 d8 f7 3c bd 60 fd 52 bd 61 54 a4 bb 3f d1 bf bc
       -0.0461348 -0.05151117 -0.0050149416 -0.023415206
0002a0 46 9f 97 bc a6 a7 8b 3d 1f 55 0d bc be a7 7a bb
       -0.018508565 0.06819086 -0.0086262515 -0.0038246955
0002b0 7d ee 39 bc 90 57 66 bd f7 46 36 3d 4f b4 2a bc
       -0.011348364 -0.05623585 0.04450127 -0.0104189655
0002c0 32 5a 4e 39 9a d9 4e bc e6 43 7a bd 3d 79 21 bd
       0.00019679291 -0.012625122 -0.06109991 -0.039422262
0002d0 13 37 1f 3d d2 21 62 bd 9b 60 29 3d ee a0 5b bd
       0.038870882 -0.055208035 0.041351896 -0.05362027
0002e0 bc 3a f7 3c d0 77 49 bd 2f 30 0d 3d 20 e3 5a ba
       0.030179374 -0.049186528 0.03446978 -0.00083498843
0002f0 64 0b e1 ba ee db 80 3c c6 41 0c bd d8 ba 45 3d
       -0.0017169532 0.01572987 -0.034242414 0.04827389
000300 2a cd d6 bc 42 55 d3 bc 88 4c 9b 3c 05 64 31 bd
       -0.026220877 -0.02579749 0.018957391 -0.043308277
000310 75 33 90 3a 23 1a 9b 3c f3 f2 b3 3c 16 62 75 bc
       0.0011001664 0.018933361 0.021966433 -0.014976999
000320 01 70 08 bd c4 90 b1 bc cd 0d 98 3c 86 1a 9b 3c
       -0.03330994 -0.021675475 0.018561268 0.018933546
000330 26 33 03 bb 8e 7e 88 bd 55 a8 11 3d 23 39 6c 3c
       -0.00200195 -0.066647634 0.035560925 0.014417919
000340 0e 36 15 bd 62 0f 09 3d 7b 74 3f 3d 18 69 3e bd
       -0.036428504 0.033461936 0.046741944 -0.046486944
000350 fe 24 bd bc 40 c9 71 3d 57 af 19 bd 1d 05 70 3b
       -0.023088928 0.059029818 -0.037520733 0.0036624142
000360 86 8c 04 bd 23 1e 8b 3c f0 d7 2c bd ad 9e 1b 3c
       -0.032360576 0.016982144 -0.04219812 0.0094982805
000370 e3 9f 12 bd bc bb 5d bd 9a 01 16 3c 2f 30 43 bd
       -0.03579701 -0.054134116 0.009155655 -0.047653373
000380 e0 d8 bd 3c d2 0a b9 3c 1e 8a 69 3d 20 52 da bc
       0.023174703 0.022588167 0.057016484 -0.026650488
000390 4a 7b a8 3c 2b a6 85 bd fe f3 4f 3d 5b 54 2d 3c
       0.020566601 -0.06525835 0.0507698 0.010579194
0003a0 46 41 37 bd df 43 d3 3c b8 d5 4f bd 95 85 5c 3d
       -0.044739984 0.0257892 -0.050740927 0.05383833
0003b0 e0 e9 76 3c ad b6 8a bd 55 91 14 bc 7c ae 92 3c
       0.015070409 -0.06773124 -0.009067853 0.017905466
0003c0 96 b4 2c 3d 79 e1 af bc ac 7f 93 bd cd 5c f9 3c
       0.042164408 -0.021469818 -0.07202086 0.030439759
0003d0 a6 e4 4e 3d 21 09 ae bc 13 c3 8f bd f5 ca 59 bd
       0.050511025 -0.021244587 -0.07019629 -0.05317207
0003e0 d6 3e 75 3d 8d e7 3c 3d 3d e0 58 3d fc 8d e4 bb
       0.05987438 0.04611926 0.052948225 -0.0069749337
0003f0 06 a9 27 3d c0 dd d8 bc 1d 73 9d 3a c5 6d 6c 3d
       0.040932678 -0.026472926 0.0012012456 0.057721872

Y_net.net.6.weight f4 [256, 256]
000000 38 3f 0e bd 93 c5 81 3d 95 65 3a bc c5 9c 3d 3d
       -0.03472826 0.063365124 -0.011376758 0.046292085
000010 10 58 ae 3b ef 06 92 ba c3 1f 06 3d 37 24 2c 3d
       0.0053205565 -0.0011140982 0.032745134 0.042026725
000020 d4 ba f7 bc 29 59 83 3d 33 c8 e5 bc 8c 5e 84 3b
       -0.030240454 0.0641349 -0.028049564 0.004039591
000030 a1 92 b8 bc 79 8b 39 3c 68 21 63 ba 3e 23 8d 3d
       -0.022530856 0.011324757 -0.0008664341 0.068914875
000040 62 9d 3b bd bb 2e fe bb 2e a2 3c 3d 8a c1 cd ba
       -0.04580439 -0.0077570355 0.046053104 -0.0015697938
000050 2a 1a 2b bc e2 c2 18 bd 1e f9 ce 3c ca 77 fb bc
       -0.01044325 -0.03729523 0.025265273 -0.030696768
000060 56 6d 13 bb a9 52 0f bd 70 09 35 bd 4f e1 d2 3c
       -0.002249559 -0.03499094 -0.044198453 0.025742201
000070 d6 6d 2b 3d 89 6b 22 3d 95 f2 c0 bc f4 aa 0d bd
       0.041852795 0.039653335 -0.023553172 -0.03458686
000080 f2 39 8b 3d 9f c6 87 bd d8 9a d6 3c dc a9 40 3d
       0.067981616 -0.06629681 0.026196882 0.04703699
000090 d9 b0 24 bc 18 83 0b bd 42 9b 03 bc d0 a2 92 bc
       -0.010051929 -0.034060568 -0.008032622 -0.0178999
0000a0 d6 6a ee 3c d1 d4 ea bb 64 6c 0c 3d c0 56 8b 3d
       0.029103678 -0.007166483 0.034283057 0.068036556
0000b0 c6 9d c6 3c 87 51 10 3d e4 cf 2a 3d b1 cf 94 bc
       0.024245154 0.035234 0.041702166 -0.018165441
0000c0 96 c2 32 bd 86 54 87 3c 7b 3a 92 3c bd 59 3a bb
       -0.043642603 0.016519796 0.017850151 -0.0028434836
0000d0 02 cb 78 3d fc 93 47 bd 8a 70 a1 3c 00 e6 75 bd
       0.06074048 -0.048725113 0.019706983 -0.0600338
0000e0 36 32 1b bd fa 53 42 bd 27 f0 a3 3c 30 90 be bc
       -0.03788968 -0.047443368 0.020011974 -0.023262113
0000f0 bb c1 41 3d 77 88 97 3c d8 40 3f 3c 48 ad a2 bc
       0.047303896 0.018497689 0.011673175 -0.019858018
000100 a7 a7 36 bd 09 06 f0 ba 2b 6b 82 bd f6 9c 19 3d
       -0.04459348 -0.0018312345 -0.06368097 0.037503205
000110 6b 19 b7 3c d2 0c 6a bd 20 f3 4c ba a0 d8 2f bd
       0.022350987 -0.057141133 -0.0007818211 -0.0429312
000120 bf 2c 1a 3b a8 9e 84 bd e6 0a 95 bc 18 1d 00 3d
       0.0023525206 -0.06475574 -0.018193673 0.031277746
000130 3c 03 8d bd 62 66 46 3b 40 90 f9 3b d4 1d c8 3c
       -0.068853825 0.0030273427 0.007616073 0.024428286
000140 91 e6 9a 3d 79 d9 67 3d 04 29 46 3d d8 e7 2b bd
       0.07563508 0.056603882 0.04837896 -0.04196915
000150 5d 4e 85 bd 81 ee 5a bd ea 75 8c 3c 9f f9 02 bd
       -0.06509087 -0.05345011 0.01714607 -0.03197634
000160 b5 8d 5e 3c bb 37 07 3d a0 85 81 3d d0 4a 04 3c
       0.01358359 0.033012133 0.06324315 0.008074477
000170 76 56 5e bd a8 47 3e bd 53 b9 8d 3c 5a 9e cb 3c
       -0.054281674 -0.046455055 0.017300284 0.024855781
000180 60 f4 af 3c e8 11 39 3c 3f 4c 13 3d 00 02 3d 39
       0.021478832 0.011295773 0.035961386 0.0001802519
000190 40 82 1c bc 50 2a 08 3d fc c1 79 3d f6 11 26 bd
       -0.009552538 0.033243477 0.060976014 -0.040544473
0001a0 98 85 48 bd 28 cf 83 bd 80 76 11 bd b7 ab 7d 3d
       -0.04895553 -0.06435996 -0.0355134 0.06193134
0001b0 1d 2e a9 3c 72 57 9a 3b 1f 95 6b bd b5 4f 7c bd
       0.020651871 0.0047101313 -0.05751526 -0.061599452
0001c0 ce 04 50 3d c8 58 1b bd 33 69 12 bc f8 ee 13 bc
       0.050785832 -0.037926465 -0.008936214 -0.009029143
0001d0 b2 fb 46 bd 13 ac 55 3d 3b b1 56 bc fd 3e a2 bd
       -0.04857988 0.052166056 -0.0131037785 -0.0792217
0001e0 b6 d5 81 bb f8 26 84 3d 7f 90 25 bb b0 4f 68 bc
       -0.003962244 0.06452745 -0.0025263128 -0.014179155
0001f0 13 a8 13 3d bd 16 18 bd 22 0e 78 3c a7 38 54 3d
       0.03604896 -0.03713106 0.015140088 0.05181184
000200 1c d5 7c bd f0 0c 19 bd 33 a5 82 bd f1 bb 59 bd
       -0.061726674 -0.037365854 -0.063791655 -0.05315775
000210 82 b4 4f 3b 35 a3 91 bc 6a a3 b4 3c d8 ca 48 3d
       0.0031693284 -0.017778018 0.022050578 0.049021572
000220 77 85 2c 3d 1c 55 0a bd 16 d8 08 3d cd 7d 3c 3d
       0.04211947 -0.033772573 0.0334092 0.04601841
000230 30 7a 4d bd e0 3d 3d 3d d3 96 85 3d 40 75 68 bd
       -0.050165355 0.046201587 0.06522908 -0.056752443
000240 06 40 b6 bc 80 04 6c bb ad 6f c0 bc 25 24 2f 3d
       -0.022247326 -0.0036013424 -0.023490751 0.04275908
000250 c2 54 27 3d cd 7b b0 3c 8d ca 94 3c 49 b7 a4 bc
       0.040852316 0.021543408 0.01816299 -0.020106928
000260 51 c7 7d b9 47 95 45 bb 8d f6 a2 bc eb c0 84 3c
       -0.00024202211 -0.003014879 -0.019892955 0.016205272
000270 2f 24 6d bd f2 72 d5 bc 33 89 84 3d f7 42 4a bd
       -0.057895835 -0.026055787 0.06471481 -0.04938027
000280 af 44 c2 bc 8e e8 10 bd e3 66 79 bd dd 8b 62 bc
       -0.023714392 -0.03537803 -0.060889136 -0.013827291
000290 39 56 cc 3c 7b e6 12 3d 24 ba 05 3d 9a 52 b1 3b
       0.024943458 0.035864335 0.03264822 0.005411458
0002a0 a6 16 fb 3c 23 2e 88 bc 85 67 4b bd 4f d3 a1 bb
       0.030650448 -0.016623562 -0.04965927 -0.00493852
0002b0 94 68 6f bc 62 70 26 3d 57 75 d1 3c e1 e7 18 3c
       -0.014612336 0.04063452 0.025568647 0.009332628
0002c0 38 6f 8b 3d 1f 1b 1a bc 4a d2 33 3d af da 8a bc
       0.06808323 -0.00940588 0.04390172 -0.01694998
0002d0 76 fa 91 bd e2 9b 70 3d 12 70 82 3d 34 19 66 bc
       -0.0712785 0.05874241 0.06369032 -0.014044095
0002e0 9b 91 27 3c 6c b2 ab 3c 77 fc 65 bd 54 bc c1 3c
       0.010227586 0.020959102 -0.056148972 0.023649372
0002f0 9d 12 fd bc b3 ab c8 bc 25 cf 64 3c f2 39 2e 3d
       -0.030892665 -0.024495935 0.013965403 0.04253573
000300 07 bb f6 3a af 64 7f 3c 74 0e 2d bd 4d df d3 3c
       0.0018824049 0.01558797 -0.04225011 0.025863314
000310 8f 30 b8 bb f7 42 0e 3c 42 9e 37 bd a2 d6 46 3d
       -0.005621023 0.008682958 -0.04482866 0.048544534
000320 eb d6 76 3b 99 19 4a 3d 42 73 e3 3c 2e 22 73 3d
       0.0037664722 0.049340818 0.02776492 0.05935877
000330 3a 05 76 3d 6d d8 ed bc 6c a1 0a 3d 0a a0 47 bd
       0.06006358 -0.029033864 0.03384535 -0.04873661
000340 2c f9 c1 3c 23 54 7a bd 49 44 89 bc 18 67 eb 3c
       0.023678385 -0.061115395 -0.016756194 0.028735682
000350 9f a5 7b bd b7 87 9a bb 57 e2 a8 bc 6a 6c 2d bd
       -0.061437245 -0.0047158855 -0.02061574 -0.04233972
000360 a6 8a 02 bb 4e 69 0d bd 9a 56 86 3c 18 89 07 bd
       -0.0019919067 -0.034524255 0.016398717 -0.033089727
000370 5d ed 0b bd e6 cb 56 3d 21 07 4e bb 48 af 47 bd
       -0.034161914 0.052440546 -0.0031437355 -0.048751146
000380 39 96 65 bd a7 72 23 3d dd 37 be 3c 28 fe e2 3c
       -0.056051467 0.039904263 0.023219997 0.027709082
000390 cc 70 30 bd 22 a0 0a bc b8 1e 85 bd 74 a1 43 bd
       -0.04307632 -0.00846103 -0.065 -0.047761396
0003a0 dd 5f 40 3c 89 a5 4f 3c 25 17 12 bc 1d 6a b0 3c
       0.011741606 0.012673744 -0.008916651 0.021534974
0003b0 fc 68 45 3c b0 b5 13 bc bf 92 53 bc f0 cb 5f 3c
       0.012048956 -0.009015486 -0.012913405 0.013659462
0003c0 45 f3 13 ba 1f b4 d2 3b 7b 4a 24 bd bc 0a 19 bd
       -0.0005643855 0.0064301635 -0.040110093 -0.037363753
0003d0 b1 13 81 3c 5d 74 40 bd 8b 2e 8b bc c6 01 83 bd
       0.01575646 -0.046985973 -0.016989967 -0.06396823
0003e0 b1 05 23 bd 0d 0c 88 3c a8 99 56 3d 82 7b fd 3b
       -0.03980035 0.016607309 0.05239263 0.0077356705
0003f0 d7 98 5a 3b 64 f5 72 3d 15 6d 5f 3d 58 e4 70 bd
       0.003335526 0.059316054 0.054547388 -0.058811516
