models/saved/simple_hjb_model_goat.pth (torch, 40625 bytes, 10 tensors)

Y_net.net.0.weight f4 [64, 2]
-0.3567267 0.65891784 -0.35588822 0.40457124 0.6608779 0.2211649 0.29830426 -0.017454088
0.5373374 0.63473666 -0.48580438 0.02332431 0.056277517 -0.5832924 0.36577287 -0.48621875
0.19841851 0.027899154 -0.26710203 -0.1172393 0.52604616 0.35776216 0.38635674 0.24334511
0.6879157 -0.44558218 -0.5618962 0.10636107 -0.39444536 -0.4685532 -0.18002668 0.4795616
0.6879289 0.15446429 -0.54664046 -0.6415359 -0.14993146 0.14880966 -0.63622075 -0.5615543
-0.6869987 -0.6682579 0.23963238 -0.3715371 -0.3104449 -0.5688117 -0.24261649 0.5438108
-0.56699294 -0.2860537 -0.18479495 0.6389477 -0.22036791 -0.14066719 -0.41154912 0.62223643
0.3051567 -0.505625 -0.07871613 0.46759352 -0.14197809 0.2046165 -0.49589747 0.5695821
-0.0010237187 0.0683959 0.20411776 -0.33859798 -0.3382043 0.5977515 0.676188 0.10505784
-0.05692016 -0.30775896 -0.25820065 0.79262763 0.16792585 -0.359461 -0.42632183 0.6482489
0.26230663 -0.21731435 0.048559852 -0.35497198 -0.20627017 0.7006661 -0.2668074 0.035598397
-0.38362944 0.69428676 -0.033700462 -0.49881896 0.3139489 -0.07616898 -0.2931939 -0.3737825
0.18421368 0.4109553 0.11455046 0.40437147 -0.2802671 -0.6579755 -0.6965891 0.034412824
-0.014832735 0.1257698 0.18902336 -0.5913266 0.6516153 -0.046783067 -0.39513886 -0.4489312
-0.5149896 -0.4435813 0.22752081 0.40652272 0.17993923 -0.29288533 0.18189085 -0.17667133
-0.066221654 -0.036961913 -0.39027345 -0.3426662 -0.035523202 -0.4720053 0.33804888 -0.2759134
00000000: e2a4 b6be d7ae 283f fb36 b6be f623 cf3e
00000010: 4b2f 293f 0d79 623e 56bb 983e e0fb 8ebc
00000020: f28e 093f 1a7e 223f 5abb f8be a012 bf3c
00000030: 4183 663d a752 15bf 9546 bb3e aaf1 f8be
00000040: 392e 4b3e c48c e43c 99c1 88be 281b f0bd
00000050: f6aa 063f 9a2c b73e 8dd0 c53e 762f 793e
00000060: 3e1b 303f 5923 e4be 6ed8 0fbf d5d3 d93d
00000070: bef4 c9be 34e6 efbe ea58 38be 1989 f53e
00000080: 1c1c 303f e32b 1e3e a1f0 0bbf b23b 24bf
00000090: a287 19be 8f61 183e 5ddf 22bf 06c2 0fbf
000000a0: 26df 2fbf f312 2bbf 3162 753e 1c3a bebe
000000b0: a2f2 9ebe a59d 11bf 7570 78be 2f37 0b3f
000000c0: 7326 11bf a175 92be e33a 3dbe 1492 233f
000000d0: 20a8 61be 0f0b 10be 91b6 d2be e34a 1f3f
000000e0: 803d 9c3e a470 01bf ec35 a1bd 6b68 ef3e
000000f0: b462 11be fd86 513e 46e6 fdbe 22d0 113f
00000100: 4d2e 86ba 2613 8c3d 3f04 513e b75c adbe
00000110: 1d29 adbe 3e06 193f a81a 2d3f 9128 d73d
00000120: 1d25 69bd 9592 9dbe e032 84be a5e9 4a3f
00000130: c1f4 2b3e 460b b8be db46 dabe a4f3 253f
00000140: 0e4d 863e a787 5ebe b2e6 463d e3be b5be
00000150: 7d38 53be db5e 333f fb9a 88be a0cf 113d
00000160: 146b c4be c7bc 313f 7f09 0abd 3365 ffbe
00000170: e9bd a03e 7bfe 9bbd 831d 96be 6b60 bfbe
00000180: 83a2 3c3e bc68 d23e 6e99 ea3d c709 cf3e
00000190: 2b7f 8fbe 1571 28bf aa53 32bf 76f4 0c3d
000001a0: 0005 73bc ccc9 003e 578f 413e 2e61 17bf
000001b0: 43d0 263f 9a9f 3fbd a44f cabe 4fda e5be
000001c0: 5cd6 03bf 171d e3be 37fb 683e bf23 d03e
000001d0: fd41 383e 11f5 95be 9841 3a3e 54e9 34be
000001e0: 389f 87bd 6065 17bd ecd1 c7be f271 afbe
000001f0: c780 11bd aeaa f1be be14 ad3e 8544 8dbe

Y_net.net.0.bias f4 [64]
-0.58298653 0.11579356 -0.2148559 -0.32947505 0.0015927127 -0.16517437 -0.046207502 -0.20117065
0.6820088 -0.18141472 0.22007893 0.27683133 0.67279726 0.45979017 0.7245904 -0.40642
-0.6974561 -0.23875786 0.33222613 -0.47634113 0.34575322 -0.29790708 -0.31159177 0.3678371
-0.48291427 -0.26496047 0.65912247 0.49268982 -0.29337144 -0.47094834 0.13738325 -0.1039666
0.5744233 -0.0070245843 -0.07654599 -0.11385277 -0.37500122 -0.5817525 -0.505844 -0.32546178
-0.30187765 -0.60169727 0.11909146 -0.12472272 0.31953654 -0.15675917 0.43686077 0.4320767
-0.62363005 -0.4662326 -0.2099339 0.6778232 -0.63655335 0.60346675 0.26675516 0.49812067
-0.37483045 0.42209843 -0.14216526 -0.5298628 -0.13962752 -0.1416023 -0.6088389 0.4446079
00000000: 9b3e 15bf 2d25 ed3d 2f03 5cbe f4b0 a8be
00000010: 92c2 d03a 7823 29be 1444 3dbd aeff 4dbe
00000020: 2198 2e3f c8c4 39be 5f5c 613e d6bc 8d3e
00000030: 713c 2c3f 9e69 eb3e c27e 393f 4816 d0be
00000040: 7c8c 32bf f17c 74be 8b19 aa3e fce2 f3be
00000050: 9106 b13e 4787 98be f588 9fbe 2555 bc3e
00000060: 8a40 f7be e6a8 87be 40bc 283f d741 fc3e
00000070: c834 96be 2420 f1be 32ae 0c3e 71ec d4bd
00000080: 680d 133f 7c2e e6bb 25c4 9cbd a42b e9bd
00000090: 2900 c0be bbed 14bf fe7e 01bf eda2 a6be
000000a0: b58f 9abe d508 1abf 39e6 f33d a06e ffbd
000000b0: 4b9a a33e 7a85 20be 37ac df3e 2839 dd3e
000000c0: 38a6 1fbf 0ab6 eebe eaf8 56be d285 2d3f
000000d0: 29f5 22bf cc7c 1a3f 2294 883e ac09 ff3e
000000e0: c7e9 bfbe 491d d83e c593 11be 17a5 07bf
000000f0: 84fa 0ebe 3100 11be dedc 1bbf a6a3 e33e

Y_net.net.2.weight f4 [64, 64]
0.1245812 -0.059424102 -0.055854067 0.09463024 0.107915655 -0.12237425 0.055073977 -0.05872573
-0.04529901 -0.11268513 0.075695544 -0.029134944 -0.07498166 0.058205664 -0.12020506 -0.024235174
-0.05640441 -0.03696069 -0.09318887 -0.0004003942 0.041425705 -0.1090723 -0.11159104 0.08512299
0.10422814 -0.1224449 0.023500577 -0.036784038 0.0004196167 -0.10342896 -0.042946547 0.082624495
0.038834214 0.021143362 0.054967657 -0.08619116 -0.107433364 -0.06871541 0.06134838 -0.112717465
-0.09034054 -0.019912317 0.011551261 0.024309814 -0.029190138 0.0040839612 -0.09650393 0.05764261
0.0018591285 0.0018633604 0.04525602 0.10713962 0.09697211 -0.057141602 0.045301557 0.024176002
-0.051781863 -0.059406757 0.06363717 0.103222296 -0.07721372 -0.0135943 0.06320508 -0.016146243
0.025148004 -0.015120292 0.06564351 -0.061440364 0.0024453762 -0.03164053 -0.07365096 0.038853206
-0.0023678292 -0.09722905 -0.021470321 0.031161577 -0.0410049 -0.19719274 0.03723009 0.068772614
-0.08775757 -0.12499133 0.084691785 0.012825623 0.017841434 -0.107007466 0.115737006 -0.057660095
-0.06626481 -0.0011206991 -0.026292175 0.061336312 0.024116443 -0.07050556 -0.028679136 0.09265448
-0.01804995 0.071940176 -0.020088159 -0.031381205 -0.009728543 0.0009860097 0.042156547 0.02870958
0.053884406 0.061929706 -0.07172562 -0.036205024 -0.12380951 0.08737774 0.028773613 -0.032437205
-0.015607054 0.02641149 -0.061179012 0.016278086 -0.038853735 0.11085193 0.048435263 0.09299903
-0.106234506 -0.014223879 0.08614429 -0.08230379 0.039559096 -0.08692019 -0.06906662 0.0073619056
0.15735343 0.15298808 0.08216704 -0.0539515 -0.1208617 -0.11484948 0.051476847 0.05053453
0.045699406 0.011284605 0.018001316 -0.026496526 -0.005756297 -0.0360046 0.13528961 0.07561568
-0.1206253 -0.03618483 -0.043048795 -0.03915304 -0.020358471 -0.14091069 -0.12180888 0.04159469
0.028027445 0.039909862 0.13415433 -0.018179296 0.105953686 0.017161006 0.1160793 0.17211586
0.1359234 0.14901032 0.03367119 -0.09803669 -0.086096875 0.015907917 0.047057312 0.0996354
-0.03057904 -0.00797151 0.13042347 -0.06367977 0.1414143 0.07423973 -0.06095339 0.033783406
-0.11841241 -0.05294543 0.10211182 0.08720562 -0.08266842 -0.08151248 -0.12264257 -0.020840716
-0.072683066 0.03741482 0.040310163 0.037879005 0.034342647 -0.0056740707 -0.035159603 0.062281083
-0.0066198707 0.17381705 -0.110049136 -0.08439581 0.13101372 0.082485184 -0.03146994 0.09364589
0.0056575513 0.09760451 0.041514754 0.030831432 -0.13048303 0.09790269 0.11973081 0.1238932
0.060415465 -0.031433687 0.062064726 -0.087480456 -0.00034857393 0.10177337 0.1208718 0.13309385
0.028496325 0.027513415 0.124775104 0.13800779 0.05961594 -0.030903514 0.1780475 0.014217826
0.13362502 0.26892626 0.09075521 -0.12788267 0.03901452 0.049652096 0.12123133 0.17390242
0.041100502 -0.10865112 0.045208678 0.07709347 -0.02138506 -0.03269904 -0.022701848 -0.00073934905
-0.07438953 -0.094578356 -0.0969753 0.11532289 0.07460266 -0.09206321 -0.014706226 -0.06078589
0.046799958 0.012787998 -0.06715335 -0.118546814 -0.07015467 0.11571942 -0.039939523 -0.1090783
00000000: 6e24 ff3d b066 73bd 3cc7 64bd 80cd c13d
00000010: e202 dd3d 5a9f fabd 4095 613d 648a 70bd
00000020: 748b 39bd 76c7 e6bd 4406 9b3d 68ac eebc
00000030: fc8f 99bd 1069 6e3d 122e f6bd d888 c6bc
00000040: 5008 67bd 1864 17bd ced9 bebd 00ec d1b9
00000050: 00ae 293d 4c61 dfbd d889 e4bd f654 ae3d
00000060: 9075 d53d 64c4 fabd 4884 c03c dcaa 16bd
00000070: 0000 dc39 90d2 d3bd b8e8 2fbd 0837 a93d
00000080: a010 1f3d d834 ad3c c425 613d fe84 b0bd
00000090: 0606 dcbd aaba 8cbd 7048 7b3d 6ad8 e6bd
000000a0: 7604 b9bd 281f a3bc 8041 3d3c 6025 c73c
000000b0: 2820 efbc c0d2 853b daa3 c5bd a81a 6c3d
000000c0: 00ae f33a 003c f43a 605e 393d 046c db3d
000000d0: 5099 c63d 500d 6abd 208e 393d c00c c63c
000000e0: 3819 54bd 8054 73bd 3454 823d 3666 d33d
000000f0: 3a22 9ebd a0ba 5ebc aa71 813d 2045 84bc
00000100: 3003 ce3c 1abb 77bc 1b70 863d e4a8 7bbd
00000110: 9b42 203b 8099 01bd 51d6 96bd 8a24 1f3d
00000120: 952d 1bbb 0620 c7bd 87e2 afbc 9046 ff3c
00000130: c1f4 27bd e5ec 49be 947e 183d a8d8 8c3d
00000140: 3eba b3bd 74fb ffbd e372 ad3d 9022 523c
00000150: 3328 923c bb26 dbbd 8607 ed3d fe2c 6cbd
00000160: d8b5 87bd 6ce4 92ba b062 d7bc c93b 7b3d
00000170: d98f c53c 3865 90bd 82f0 eabc a2c1 bd3d
00000180: 7ddd 93bc 5f55 933d ec8f a4bc 9489 00bd
00000190: 7864 1fbc ff3c 813a 58ac 2c3d 5a30 eb3c
000001a0: e5b5 5c3d 01aa 7d3d e2e4 92bd b84b 14bd
000001b0: d78f fdbd 1af3 b23d a4b6 eb3c e0dc 04bd
000001c0: bbb4 7fbc e95c d83c d896 7abd 9f59 853c
000001d0: 1825 1fbd 5606 e33d 0e64 463d 4776 be3d
000001e0: 7a91 d9bd 460b 69bc 6b6c b03d e48e a8bd
000001f0: b808 223d 3603 b2bd cd72 8dbd 243c f13b
00000200: 4221 213e e8a8 1c3e 3147 a83d 40fc 5cbd
00000210: 5786 f7bd 3436 ebbd 63d9 523d 4cfd 4e3d
00000220: 4d2f 3b3d 10e3 383c 7f77 933c 3e0f d9bc
00000230: 529f bcbb 8f79 13bd 5c89 0a3e 65dc 9a3d
00000240: 660a f7bd 8b36 14bd ef53 30bd f05e 20bd
00000250: cfc6 a6bc e44a 10be ef76 f9bd 325f 2a3d
00000260: d099 e53c 8678 233d c15f 093e bfec 94bc
00000270: 3ffe d83d 3d95 8c3c fcba ed3d 243f 303e
00000280: 812f 0b3e 2996 183e cdea 093d 76c7 c8bd
00000290: 8f53 b0bd 5251 823c 2bbf 403d a50d cc3d
000002a0: e580 fabc f09a 02bc bb8d 053e 8a6a 82bd
000002b0: e9ce 103e 000b 983d 43aa 79bd 7860 0a3d
000002c0: 3582 f2bd 4fdd 58bd 0020 d13d dc98 b23d
000002d0: 104e a9bd 04f0 a6bd 072c fbbd 26ba aabc
000002e0: dcda 94bd 4840 193d 451c 253d 0427 1b3d
000002f0: e0aa 0c3d 8eed b9bb 8403 10bd 731a 7f3d
00000300: 80eb d8bb 19fd 313e 7161 e1bd b6d7 acbd
00000310: 7628 063e feed a83d a0e6 00bd 6bc9 bf3d
00000320: fb62 b93b e0e4 c73d 600b 2a3d 3392 fc3c
00000330: 589d 05be 3581 c83d 6d35 f53d b8bb fd3d
00000340: 3576 773d 9cc0 00bd 9537 7e3d f428 b3bd
00000350: cdc0 b6b9 8e6e d03d a28b f73d c149 083e
00000360: 2071 e93c d063 e13c 178a ff3d ea51 0d3e
00000370: d82f 743d 5e29 fdbc 1552 363e e2f1 683c
00000380: ffd4 083e b4b0 893e dedd b93d adf3 02be
00000390: b0cd 1f3d ff5f 4b3d 2248 f83d 7a13 323e
000003a0: 0059 283d 7a84 debd bc2c 393d 2ee3 9d3d
000003b0: b92f afbc 6eef 05bd 3af9 b9bc e0d0 41ba
000003c0: 8a59 98bd 4cb2 c1bd fc9a c6bd 682e ec3d
000003d0: 48c9 983d a38b bcbd 62f2 70bc a0fa 78bd
000003e0: 50b1 3f3d c084 513c b287 89bd acc8 f2bd
000003f0: 40ad 8fbd 4efe ec3d a097 23bd 7264 dfbd

Y_net.net.2.bias f4 [64]
-0.110692635 -0.03858594 -0.014697055 -0.064227186 0.09503352 -0.024917843 0.0010591596 -0.039838236
0.016998941 0.10763941 0.104013965 -0.112115115 -0.051461834 -0.033410642 -0.01591832 0.060506273
0.10930401 0.07992903 0.110795036 -0.06335488 0.092955366 0.07721927 0.13553117 0.068186864
0.0992124 -0.11288352 -5.288789e-05 -0.08926974 0.052147556 -0.07130028 0.068188354 -0.098972164
0.03758675 0.08570532 -0.0008584358 -0.058619637 0.097866096 0.0118970545 0.09763148 -0.09675639
-0.074049905 0.07399791 -0.0060906927 -0.004487146 0.051039003 0.075230226 0.05583912 -0.050646797
0.055228297 -0.0009000356 -0.07054706 -0.063088015 0.033724114 -0.095075935 0.026229614 0.023725368
0.039713006 -0.07075021 0.0993516 -0.059361283 0.057396896 0.12466361 -0.11297865 -0.014041423
00000000: d2b2 e2bd 4a0c 1ebd ebcb 70bc 8b89 83bd
00000010: efa0 c23d 8120 ccbc 80d3 8a3a 6b2d 23bd
00000020: 5d41 8b3c 0d72 dc3d 4605 d53d 9c9c e5bd
00000030: a5c9 52bd 99d9 08bd 2367 82bc 6dd5 773d
00000040: c8da df3d d5b1 a33d 82e8 e23d 34c0 81bd
00000050: 625f be3d 2325 9e3d afc8 0a3e 8ea5 8b3d
00000060: df2f cb3d 7a2f e7bd f1d3 5db8 0ed3 b6bd
00000070: ad98 553d e205 92bd 56a6 8b3d ebb1 cabd
00000080: 90f4 193d 4586 af3d a708 61ba 251b 70bd
00000090: 056e c83d ddeb 423c 03f3 c73d 3728 c6bd
000000a0: 7aa7 97bd 378c 973d 6f94 c7bb e908 93bb
000000b0: 460e 513d 4e12 9a3d 90b7 643d 0473 4fbd
000000c0: 1137 623d 5ef0 6bba fa7a 90bd 4a34 81bd
000000d0: 4c22 0a3d 2cb7 c2bd 7ddf d63c b45b c23c
000000e0: 1baa 223d 7ce5 90bd da78 cb3d d124 73bd
000000f0: 0219 6b3d a24f ff3d 5a61 e7bd ff0d 66bc

Y_net.net.4.weight f4 [1, 64]
-0.076123714 0.031771373 0.14729601 0.17728642 0.09793714 0.1186505 0.069835186 -0.102972426
0.02690419 -0.09883351 0.057465095 0.08156719 0.041689735 0.0906545 0.12975834 0.07417738
0.068848856 -0.10978143 0.12943527 -0.06084523 -0.055534493 0.11546229 0.11777869 0.11561076
0.041539673 -0.04160787 0.06814368 0.08707607 0.021422973 0.12325261 -0.06745075 -0.017854707
0.049696367 0.123458214 0.10526025 0.09129734 -0.07791257 0.03367844 0.12563923 -0.037067633
0.12452317 0.049938165 0.015895331 0.02272517 -0.1040668 -0.013089995 -0.015927525 -0.0298037
0.10615977 -0.07527091 0.14228895 0.037812755 0.038186554 0.10160953 -0.0058395695 -0.105082855
-0.04777915 -0.048942134 -0.011274108 -0.11635328 -0.015466922 0.02436952 -0.00208209 0.038197428
00000000: c0e6 9bbd b322 023d c4d4 163e 928a 353e
00000010: 4493 c83d 09ff f23d c005 8f3d 35e3 d2bd
00000020: 2d66 dc3c 3969 cabd 8560 6b3d b30c a73d
00000030: dbc2 2a3d 11a9 b93d 5fdf 043e 4fea 973d
00000040: a100 8d3d 16d5 e0bd ae8a 043e d938 79bd
00000050: 2378 63bd 7e77 ec3d f435 f13d 56c5 ec3d
00000060: 8125 2a3d 046d 2abd ea8e 8b3d f054 b23d
00000070: 3b7f af3c dd6b fc3d 9e23 8abd 0944 92bc
00000080: 6b8e 4b3d a9d7 fc3d b092 d73d 1afa ba3d
00000090: a090 9fbd 67f2 093d 92a7 003e 3bd4 17bd
000000a0: 0106 ff3d f68b 4c3d ed36 823c 232a ba3c
000000b0: f920 d5bd 6b77 56bc 717a 82bc e426 f4bc
000000c0: 4b6a d93d a327 9abd 32b4 113e 8ce1 1a3d
000000d0: 8169 1c3d a818 d03d dc59 bfbb ae35 d7bd
000000e0: 12b4 43bd 8c77 48bd 09b7 38bc a14a eebd
000000f0: f968 7dbc 96a2 c73c ac73 08bb e874 1c3d

q_net.net.0.weight f4 [64, 2]
0.48626485 -0.24512188 0.42951864 0.44613448 -0.2873152 0.5005389 -0.49104357 0.46261457
0.4148001 -0.51881504 -0.5713035 -0.4875586 0.7068496 -0.5691183 0.20498842 -0.58150226
0.24144462 -0.4154175 0.01447906 0.6061826 0.2861172 -0.2960229 -0.09630514 -0.5240597
0.31870267 0.06464279 -0.23979533 -0.34820226 -0.20414686 0.03334254 0.35993803 0.45443434
0.022818431 0.6638997 0.39204323 -0.1862043 -0.447919 -0.38136846 0.3063985 -0.2612448
0.20089526 -0.33236247 -0.25259212 -0.29787946 -0.25149572 0.29290682 0.5279502 -0.7188676
-0.5805367 -0.046733666 0.5730025 0.31398457 0.69893014 -0.15641981 -0.60429895 -0.6578051
0.28957772 -0.26213965 -0.28118533 0.35251543 -0.18680751 0.4782091 -0.12800045 -0.43957525
-0.69592726 0.04243183 -0.60715383 -0.27913266 -0.25095704 0.529419 0.17036697 0.28042284
-0.04256308 0.08233768 0.5870058 0.11391665 -0.03042397 0.5656301 0.03488691 -0.2866567
0.20442075 0.11652998 0.30904594 0.20718063 0.12368 -0.56919193 0.5966631 -0.3537957
-0.3510571 0.17508483 0.62134314 0.57011396 0.28879195 0.6868818 0.6964753 -0.09748242
-0.5868092 -0.41636777 -0.18766314 0.09578526 -0.27003714 -0.041164577 0.6413269 -0.23767713
0.3894692 -0.011595196 0.5459095 -0.17500997 0.17441173 -0.66476333 0.31117925 -0.2521078
0.5802024 0.538071 0.4093248 -0.20818825 -0.21068083 0.28060922 0.12971169 -0.67478985
-0.36292753 -0.26301792 0.38020754 -0.6048527 0.53930813 0.030544031 0.12734239 0.53159475
00000000: b5f7 f83e 3b01 7bbe dee9 db3e bd6b e43e
00000010: fa1a 93be 5123 003f 106a fbbe d1db ec3e
00000020: ae60 d43e 10d1 04bf f240 12bf 48a1 f9be
00000030: 18f4 343f bdb1 11bf 7ce8 513e 55dd 14bf
00000040: 423d 773e 9ab1 d4be 9439 6d3c c82e 1b3f
00000050: f47d 923e 5090 97be a13b c5bd c728 06bf
00000060: ff2c a33e 7063 843d e88c 75be 9147 b2be
00000070: e00b 51be 3092 083d cc49 b83e 9eab e83e
00000080: b8ed ba3c 55f5 293f e4b9 c83e 57ac 3ebe
00000090: a455 e5be ba42 c3be 44e0 9c3e e1c1 85be
000000a0: 7db7 4d3e 6a2b aabe c153 81be a883 98be
000000b0: 0cc4 80be e2f7 953e bf27 073f b507 38bf
000000c0: 0e9e 14bf cd6b 3fbd 4bb0 123f 96c2 a03e
000000d0: 16ed 323f 842c 20be 56b3 1abf ea65 28bf
000000e0: 8843 943e 2b37 86be 86f7 8fbe e77c b43e
000000f0: 784a 3fbe d3d7 f43e 8d12 03be 0210 e1be
00000100: 4a28 32bf 00cd 2d3d 6f6e 1bbf 7aea 8ebe
00000110: 717d 80be 0188 073f ae74 2e3e 9593 8f3e
00000120: a056 2ebd a8a0 a83d 0346 163f 224d e93d
00000130: b13b f9bc 22cd 103f 94e5 0e3d abc4 92be
00000140: ac53 513e 45a7 ee3d 453b 9e3e 2927 543e
00000150: f14b fd3d 90b6 11bf eabe 183f b624 b5be
00000160: c2bd b3be 7049 333e 5810 1f3f fdf2 113f
00000170: 8adc 933e 7cd7 2f3f 354c 323f dda4 c7bd
00000180: 2139 16bf 282e d5be c42a 40be 102b c43d
00000190: 4f42 8abe 309c 28bd 002e 243f a261 73be
000001a0: 8268 c73e c7f9 3dbc bac0 0b3f d035 33be
000001b0: fd98 323e ee2d 2abf e352 9f3e 4614 81be
000001c0: 2588 143f 05bf 093f 0593 d13e 4d2f 55be
000001d0: b7bc 57be 03ac 8f3e 24d3 043e 07bf 2cbf
000001e0: a3d1 b9be 49aa 86be 90aa c23e a0d7 1abf
000001f0: 1910 0a3f 7a37 fa3c 0b66 023e 9816 083f

q_net.net.0.bias f4 [64]
-0.44562015 0.2762024 -0.016604068 0.3136132 -0.41556716 -0.7010303 -0.109736696 0.71821153
-0.5019001 0.49810353 -0.006993094 -0.3763103 -0.009250367 0.42717165 -0.09722233 -0.59244186
0.72300905 -0.1421471 -0.31732556 0.68089014 0.6231601 -0.08971632 0.53451514 0.168126
0.516057 -0.23005539 -0.5299987 -0.5540821 0.40413374 -0.28046116 -0.28090674 0.17253008
-0.11686647 -0.12943363 0.6457032 -0.41245553 -0.70155257 -0.5410784 0.43215165 -0.033593416
-0.46038067 -0.3440694 0.29804227 0.37749255 -0.37980437 -0.5852478 -0.26716313 0.17549704
-0.7036377 -0.27269113 -0.0067383647 -0.39828217 0.0043910076 0.53821814 0.53032917 0.3197364
0.5487703 -0.06638816 0.21193463 -0.037005957 -0.681776 0.110275716 0.34851977 0.08065217
00000000: 5328 e4be 676a 8d3e 4105 88bc e991 a03e
00000010: 38c5 d4be b976 33bf a2bd e0bd b6dc 373f
00000020: 867c 00bf 6d07 ff3e 5326 e5bb beab c0be
00000030: da8e 17bc 3eb6 da3e 801c c7bd 45aa 17bf
00000040: 1f17 393f 028f 11be 7f78 a2be d14e 2e3f
00000050: 6c87 1f3f 31bd b7bd fcd5 083f 3929 2c3e
00000060: 501c 043f a493 6bbe ffad 07bf 53d8 0dbf
00000070: 9eea ce3e 9b98 8fbe 02d3 8fbe baab 303e
00000080: b057 efbd 408a 04be ce4c 253f 5f2d d3be
00000090: f398 33bf 1d84 0abf fb42 dd3e 4099 09bd
000000a0: 04b7 ebbe dd29 b0be ff98 983e b446 c13e
000000b0: b875 c2be cdd2 15bf 9bc9 88be 7fb5 333e
000000c0: 9a21 34bf 2c9e 8bbe 80cd dcbb a4eb cbbe
000000d0: 71e2 8f3b aac8 093f a7c3 073f 7db4 a33e
000000e0: 367c 0c3f 84f6 87bd 6405 593e 8f93 17bd
000000f0: df88 2ebf 3cd8 e13d 2f71 b23e f72c a53d

q_net.net.2.weight f4 [64, 64]
-0.03706552 -0.027474396 0.10746225 0.08219249 -0.1079327 -0.0565646 -0.0060155615 -0.013181691
0.039118484 0.059632726 0.06871435 -0.09079489 0.06699889 0.036768973 0.059401244 -0.03741634
0.1338135 -0.11238066 0.024378538 -0.056378163 0.0050542485 -0.006788641 0.14270148 -0.07998689
-0.04054451 0.058550537 -0.1372462 -0.007999375 0.052344248 0.081723765 -0.072386906 -0.00031864384
0.09149912 -0.04166615 0.016256593 -0.06346632 0.049072698 0.044456836 -0.021481361 -0.12735525
-0.07850999 0.06233871 0.0022555548 0.03972617 0.03760512 -0.026357612 0.0708179 -0.015461737
0.047334924 0.10381955 -0.043570146 -0.16920424 0.0866387 0.06748426 0.03112421 0.07355323
0.04507382 -0.09037169 0.08930845 -0.096255004 0.004400149 -0.1704136 -0.044452794 -0.05295347
0.07262002 -0.119618714 -0.022500262 -0.071085885 0.061905637 0.0042871833 0.05458483 0.10294114
-0.03660676 -0.07701357 -0.04532641 0.059189916 -0.0038300157 0.04159537 -0.1137684 -0.059512883
-0.10099921 0.05272554 -0.03361143 -0.100059524 -0.04570155 0.08768165 -0.08973396 -0.123534545
0.098248035 -0.046194777 0.12325984 -0.07861149 -0.011694923 0.0029294193 0.032513022 0.045165107
0.016794115 -0.012239993 -0.09256421 0.085249454 0.056290522 0.007999122 -0.012340769 0.11142929
0.10163726 -0.09780425 -0.010265231 0.046075135 -0.037135646 -0.04554811 0.108157426 -0.101729065
0.040404037 0.11420487 -0.029403254 0.08780943 -0.08833301 0.036626637 -0.033388883 0.021119684
0.08126561 0.01917705 -0.09139182 -0.12247285 -0.0760452 -0.12106033 0.009017363 -0.08867824
0.057559747 0.10556758 -0.016759451 -0.045628715 0.09959685 0.043095738 -0.16638239 -0.00067193253
-0.10514 -0.033890266 -0.17172974 -0.11885397 0.009987285 0.058249194 0.016208157 -0.016464384
-0.035886027 0.0024928956 0.09530133 0.118990526 0.044714708 -0.049665455 0.15578772 -0.09788805
-0.009769819 0.04975201 -0.10587046 -0.003117159 -0.041122295 -0.06798605 -0.0075985077 -0.07813827
0.03491929 0.06380975 -0.0658423 -0.038130835 0.078809574 0.026245268 0.14257105 0.07981813
0.061694935 0.13189155 -0.09131661 -0.022329036 0.07736856 0.11468193 0.011441361 0.09550658
0.09648743 0.07100338 -0.08755666 0.01192528 0.15366143 0.09343557 0.06473558 0.058303438
0.10981213 0.06087591 -0.0067138285 -0.12674315 -0.05236046 0.0059954557 0.14688323 0.056283142
-0.045159448 0.04824306 -0.027929518 -0.010558931 -0.1123613 -0.008090824 -0.08356769 0.079918444
-0.046570167 0.010836988 -0.06399255 0.0994916 0.089134336 -0.053909287 0.0814385 0.13067214
0.10355503 -0.051731497 -0.08221321 0.18627161 0.06770458 -0.025194421 0.1642016 -0.016395222
-0.026255842 -0.01398657 -0.08587494 0.09803529 0.17937428 0.13940029 0.13684787 -0.07865301
-0.114514336 -0.118838474 -0.01524439 -0.04782779 0.04818727 0.10004727 0.016597543 0.06689405
0.089045666 0.063466035 0.01696754 0.013828605 0.10041851 0.0050474233 0.03971393 0.03030646
0.10236977 -0.018087089 0.013168678 -0.034434162 0.03903031 0.09671969 0.043953244 0.120953366
0.17637114 -0.038336497 0.05389626 0.0981761 -0.08568664 -0.12397304 -0.053700827 0.09051733
00000000: 04d2 17bd fc11 e1bc 2b15 dc3d 8954 a83d
00000010: d20b ddbd 48b0 67bd 301e c5bb 05f8 57bc
00000020: b43a 203d 7241 743d 1cba 8c3d acf2 b9bd
00000030: b736 893d 109b 163d b84e 733d e041 19bd
00000040: 6806 093e d527 e6bd 80b5 c73c caec 66bd
00000050: 1c9e a53b 4073 debb 5620 123e 2bd0 a3bd
00000060: 0012 26bd b0d2 6f3d 458a 0cbe d00f 03bc
00000070: ec66 563d ca5e a73d 963f 94bd a70f a7b9
00000080: e463 bb3d 20aa 2abd 8c2c 853c a1fa 81bd
00000090: 7400 493d 5f18 363d aef9 afbc 6a69 02be
000000a0: d8c9 a0bd e056 7f3d eed1 133b e9b7 223d
000000b0: d407 1a3d ebeb d7bc fa08 913d 3a53 7dbc
000000c0: 44e2 413d 589f d43d 9c76 32bd e043 2dbe
000000d0: a16f b13d 3035 8a3d 33f8 fe3c 13a3 963d
000000e0: 539f 383d cb14 b9bd 59e7 b63d 5821 c5bd
000000f0: 202f 903b e780 2ebe 2214 36bd bde5 58bd
00000100: ceb9 943d a8fa f4bd 7852 b8bc 7a95 91bd
00000110: c490 7d3d 807b 8c3b 5894 5f3d ced2 d23d
00000120: f8f0 15bd 4ab9 9dbd 30a8 39bd 2071 723d
00000130: 0001 7bbb e85f 2a3d 68ff e8bd c8c3 73bd
00000140: acd8 cebd bcf6 573d 24ac 09bd 02ec ccbd
00000150: 8c31 3bbd 7092 b33d 70c6 b7bd aeff fcbd
00000160: 4436 c93d bc36 3dbd a86f fc3d 10ff a0bd
00000170: 109c 3fbc 80fb 3f3b 602c 053d 0cff 383d
00000180: d093 893c 408a 48bc 4e92 bdbd 4497 ae3d
00000190: e490 663d c00e 033c f030 4abc 0a35 e43d
000001a0: 3227 d03d 984d c8bd 802f 28bc 48b9 3c3d
000001b0: 8c1b 18bd a890 3abd a481 dd3d 5457 d0bd
000001c0: b47e 253d 3ee4 e93d 18df f0bc 6ed5 b33d
000001d0: f0e7 b4bd d005 163d c8c2 08bd 3003 ad3c
000001e0: 966e a63d 3019 9d3c a22b bbbd 0cd3 fabd
000001f0: 96bd 9bbd 7aee f7bd 90bd 133c f09c b5bd
00000200: c5c3 6b3d d133 d83d 1e4b 89bc 2de5 3abd
00000210: 6ff9 cb3d 2885 303d 2560 2abe a124 30ba
00000220: a453 d7bd 85d0 0abd ecd9 2fbe b669 f3bd
00000230: b6a1 233c b596 6e3d f8c6 843c 51e0 86bc
00000240: 3afd 12bd d95f 233b 582d c33d 4eb1 f33d
00000250: c526 373d 016e 4bbd d186 1f3e 8879 c8bd
00000260: 9711 20bc c3c8 4b3d 9dd2 d8bd 4049 4cbb
00000270: da6f 28bd 453c 8bbd e7fc f8bb f506 a0bd
00000280: 8807 0f3d b0ae 823d 54d8 86bd 142f 1cbd
00000290: ea66 a13d 5100 d73c 25fe 113e b077 a33d
000002a0: d4b3 7c3d 940e 073e 3404 bbbd 62eb b6bc
000002b0: 6873 9e3d 5cde ea3d 8c74 3b3c f498 c33d
000002c0: 349b c53d 386a 913d e850 b3bd 4062 433c
000002d0: 6c59 1d3e 265b bf3d 1694 843d 96cf 6e3d
000002e0: 2fe5 e03d 0559 793d adff dbbb f5c8 01be
000002f0: ec77 56bd 8775 c43b 8f68 163e 2789 663d
00000300: 1df9 38bd 849a 453d 72cc e4bc 5eff 2cbc
00000310: ae1d e6bd 608f 04bc 8925 abbd 48ac a33d
00000320: 5cc0 3ebd 9f8d 313c 870e 83bd 41c2 cb3d
00000330: 108c b63d fccf 5cbd 3ac9 a63d ebce 053e
00000340: a914 d43d 68e4 53bd 665f a8bd fcbd 3e3e
00000350: b3a8 8a3d 8864 cebc 7724 283e 464f 86bc
00000360: 7e16 d7bc ed27 65bc 33df afbd bac6 c83d
00000370: e4ad 373e f3be 0e3e d921 0c3e d414 a1bd
00000380: 7e86 eabd 9661 f3bd 9bc3 79bc 13e7 43bd
00000390: 0460 453d 95e5 cc3d 92f7 873c bfff 883d
000003a0: 935d b63d 7bfa 813d 83ff 8a3c 6091 623c
000003b0: 38a8 cd3d db64 a53b 13ab 223d 4145 f83c
000003c0: 3ea7 d13d 602b 94bc 70c1 573c d60a 0dbd
000003d0: 3fde 1f3d f914 c63d 5108 343d 66b6 f73d
000003e0: a39a 343e bb06 1dbd 53c2 5c3d 8d10 c93d
000003f0: 7a7c afbd 94e5 fdbd 66f5 5bbd 2661 b93d

q_net.net.2.bias f4 [64]
-0.09563127 -0.12329757 0.040225733 -0.025688848 -0.043271124 -0.109184474 -0.07217436 0.07197588
-0.06965639 0.08966443 0.07017141 -0.05968365 -0.003406595 -0.071045525 -0.09475869 0.077086456
0.09547785 0.02931533 -0.09141011 -0.121261925 0.07755048 0.062757276 -0.054050148 -0.06449444
-0.074323036 -0.02794185 0.059476417 -0.12165189 0.054205876 -0.12762257 -0.0313968 0.12524599
0.053169563 0.11741495 0.05727593 -0.07881908 0.042206153 -0.072289154 0.0504209 -0.04073887
0.14492822 0.009494259 -0.03642481 -0.03423823 0.018681154 -0.046168998 -0.08622576 -0.033336118
-0.019901268 -0.081548385 0.11104244 0.12958634 0.09972241 -0.03782556 0.059031952 -0.06082988
-0.09998682 0.018880846 0.03570297 -0.026075691 0.021609515 0.09446405 0.11568691 -0.06434834
00000000: 54da c3bd 7083 fcbd bdc3 243d 6b71 d2bc
00000010: 103d 31bd 1c9c dfbd 27d0 93bd 1768 933d
00000020: 02a8 8ebd fca1 b73d 07b6 8f3d d876 74bd
00000030: 2e41 5fbb 5180 91bd d810 c2bd 81df 9d3d
00000040: e489 c33d b426 f03c 3935 bbbd 2c58 f8bd
00000050: c9d2 9e3d e386 803d b063 5dbd a915 84bd
00000060: ad36 98bd 4ee6 e4bc 8b9d 733d a024 f9bd
00000070: fb06 5e3d 7eaf 02be ee99 00bd 7c40 003e
00000080: 54c8 593d 4077 f03d 2a9a 6a3d e66b a1bd
00000090: 5ce0 2c3d 560c 94bd 2586 4e3d cddd 26bd
000000a0: 1068 143e cf8d 1b3c 2e32 15bd 633d 0cbd
000000b0: 3809 993c b41b 3dbd 2297 b0bd 748b 08bd
000000c0: fc07 a3bc d702 a7bd 386a e33d 48b2 043e
000000d0: 433b cc3d f9ee 1abd 7dcb 713d c128 79bd
000000e0: e4c5 ccbd 01ac 9a3c 473d 123d b09c d5bc
000000f0: 7006 b13c 5e76 c13d 42ed ec3d 10c9 83bd

q_net.net.4.weight f4 [1, 64]
-0.09113384 0.044716045 -0.1442453 -0.064674646 -0.11931084 -0.0032259822 0.03866983 -0.16835238
0.066333406 0.025380865 0.12772183 -0.033264995 0.08308592 -0.09702299 -0.01597251 0.057316914
-0.087505184 -0.13527244 0.15712069 -0.0043373257 0.05412649 0.13153471 0.016481534 -0.12174589
0.061419483 0.148213 -0.18803036 -0.05217047 -0.15809123 0.08855124 0.10003952 -0.1568182
-0.09806906 -0.1704153 0.026994301 0.07000573 -0.006061271 0.17514434 0.14321151 -0.0863217
-0.15374613 0.15060294 0.05673916 -0.00077012635 -0.09585288 -0.050850585 -0.022297442 0.08899942
0.09230641 -0.074526496 0.10378952 -0.08411898 -0.09486792 -0.14308305 -0.11815737 -0.08725244
0.047561735 0.04964332 -0.04634067 0.046393067 0.10367628 -0.029352691 -0.13816786 -0.10742441
00000000: 61a4 babd 2c28 373d 0ab5 13be 2474 84bd
00000010: 3e59 f4bd 006b 53bb 4164 1e3d 9164 2cbe
00000020: cfd9 873d 88eb cf3c 83c9 023e e040 08bd
00000030: f328 aa3d fdb3 c6bd c8d8 82bc 24c5 6a3d
00000040: eb35 b3bd dc84 0abe 3fe4 203e 2020 8ebb
00000050: bdb3 5d3d 09b1 063e 4804 873c e955 f9bd
00000060: ff92 7b3d 26c5 173e 088b 40be b4b0 55bd
00000070: abe2 21be 5a5a b53d 85e1 cc3d f394 20be
00000080: 6ed8 c8bd 5981 2ebe 2723 dd3c 2a5f 8f3d
00000090: a09d c6bb 0a59 333e 0aa6 123e 6ec9 b0bd
000000a0: a06f 1dbe a837 1a3e 5267 683d 4ee2 49ba
000000b0: 844e c4bd b448 50bd 20a9 b6bc 5445 b63d
000000c0: 250b bd3d 59a1 98bd 9a8f d43d 9246 acbd
000000d0: 1d4a c2bd 5d84 12be 7efc f1bd 68b1 b2bd
000000e0: 18d0 423d cb56 4b3d b7cf 3dbd a806 3e3d
000000f0: 3b54 d43d 0e75 f0bc e07b 0dbe 5401 dcbd
