models/saved/simple_hjb_model_naisnet_analytical_q_best.pth (torch, 809909 bytes, 15 tensors)

Y_net.layer1.weight f4 [256, 2]
000000 da 14 06 3f 9d 93 ef 3e 57 43 05 be 91 34 8c 3e
       0.52375567 0.46792307 -0.1301397 0.27383855
000010 b9 2d 04 3e 84 d3 c2 be 76 93 32 bf bf cd 42 bd
       0.12908067 -0.38052 -0.6975626 -0.047559496
000020 44 f3 1f 3c 53 b8 f4 3e 91 98 3a bd d0 2a fc be
       0.009762589 0.47796878 -0.045555655 -0.49251413
000030 c3 d3 39 bf fd 70 8d be 05 65 e7 3e 0c eb 26 bf
       -0.7258875 -0.27625266 0.4519426 -0.65202403
000040 d1 d8 e7 bd b2 a1 09 3f 5a 31 dc be c2 ca a5 be
       -0.11320651 0.5376235 -0.43006402 -0.32381254
000050 d8 3d e3 bd 0e 34 31 3f 1e f2 33 3f 2a 45 33 bf
       -0.1109578 0.69220054 0.70291317 -0.7002741
000060 2c b2 a1 3d 89 50 46 3e 7e 78 2d 3f 5b a7 16 bf
       0.07895312 0.19366659 0.6776198 -0.58849114
000070 3e f5 2f bf f6 ee eb be d4 8e b5 3e 4e 9a 92 3e
       -0.68733585 -0.4608075 0.35460532 0.2863335
000080 e4 0a eb be 8a e6 0d 3f 6b 47 72 3e 4d 0b 83 3d
       -0.45906746 0.554299 0.23660056 0.0639864
000090 6f 10 87 3e d5 08 ec 3c b4 a7 0b 3f 38 f3 87 be
       0.26379725 0.028812805 0.5455277 -0.2655275
0000a0 9d 0d 8b be 7d e2 b3 be 8a d3 dd be 60 7f e6 be
       -0.27158824 -0.35133734 -0.43325454 -0.45019054
0000b0 a3 78 03 bf d7 25 14 bf b0 00 15 bf d3 47 02 3e
       -0.5135595 -0.5787024 -0.58204174 0.12722711
0000c0 ae 24 7a 3e 6e 64 04 be 4c 99 ab 3e c5 b2 08 3d
       0.24428055 -0.12928936 0.33515394 0.033373613
0000d0 99 94 07 bf 32 33 06 bf db 04 b8 3e b7 45 22 3f
       -0.5296112 -0.5242187 0.35941204 0.63387626
0000e0 f1 f8 aa 3e 6d 0f 06 3f a7 89 1c bf 20 6d 7c 3e
       0.33393052 0.5236729 -0.6114754 0.24651003
0000f0 30 53 69 3d 72 26 98 be 35 25 6f be 13 8b 1c 3f
       0.0569641 -0.2971683 -0.23354037 0.6114971
000100 ca e8 24 3f 2b b3 96 bd 83 5e 3b bc 52 c3 90 3e
       0.6441771 -0.07358392 -0.011436108 0.28274018
000110 9c 44 34 3f 8a d3 bb be e0 95 2f bf f3 63 0e bf
       0.7041719 -0.3668483 -0.68588066 -0.5562126
000120 6e f9 29 3f 0e 9d 8c be d2 f4 23 bf 90 5b 6e 3e
       0.66396224 -0.27463573 -0.6404544 0.23277116
000130 fe 06 81 3e 2a 30 ab be 52 0a 2e be fd eb 0a 3f
       0.25200647 -0.33435184 -0.16996124 0.5426634
000140 78 66 01 be 20 4b 01 bd 09 52 27 3f 84 4a 0c bf
       -0.12636745 -0.031565785 0.6535955 -0.548012
000150 26 49 df 3d 95 b3 ed be fb 7e d0 3e 66 ea cf be
       0.10902624 -0.46426073 0.40721878 -0.4060852
000160 3e 96 24 3f 2b b9 39 be 0c 0a 52 3e ae 08 4b be
       0.6429175 -0.18137042 0.20511645 -0.1982753
000170 1d fd eb be a7 87 b1 be 1e df 0d 3f 19 bb 4a be
       -0.46091548 -0.34673807 0.55418575 -0.19797935
000180 64 f1 03 bf a2 5a eb 3d 45 d2 01 3e cd 1c ea be
       -0.5154021 0.11491896 0.12677868 -0.45725098
000190 9a bd 17 3e 1b cd 27 bf 98 80 10 3f 1e d7 5c 3e
       0.14818421 -0.6554734 0.5644622 0.21566436
0001a0 74 a3 8a 3e 80 39 19 bf 66 87 67 bd e6 87 19 bf
       0.2707783 -0.59853363 -0.05652561 -0.5997299
0001b0 9f c6 30 bf 05 11 ac 3e f2 66 86 bc 54 27 fe 3d
       -0.6905307 0.33606735 -0.01640651 0.12409845
0001c0 e9 65 df 3d 2d 19 aa 3e 32 3d ec bd 97 53 fd 3e
       0.1090811 0.33222333 -0.115351096 0.49477836
0001d0 44 0f 48 3e be 57 9b 3e 27 f5 e6 3d 46 d3 d5 3e
       0.19537073 0.3034038 0.11277228 0.4176275
0001e0 b8 30 3d be 80 57 30 3c 24 3f 09 bf 4e 12 db be
       -0.18475616 0.010763049 -0.5361197 -0.42787403
0001f0 b1 52 fe 3e c8 43 ec be c4 91 c1 3e 68 71 53 bc
       0.49672464 -0.46145463 0.37806523 -0.012905456
000200 58 c0 14 be 60 ef 67 3d 35 a9 c8 3e 93 a8 89 3e
       -0.14526498 0.05662477 0.39191595 0.26886424
000210 69 e2 2d bf 58 e4 b9 3d 93 4c 4d 3e f4 39 97 3e
       -0.679236 0.09076756 0.20048742 0.29536402
000220 da 3b c4 bd b4 20 0b bf 9b ba 88 3e 61 7f fb 3e
       -0.09581728 -0.54346776 0.2670487 0.4912062
000230 ab 34 c6 be 68 82 0d 3e f6 2d c2 be db 64 0e bf
       -0.38712057 0.13819277 -0.3792569 -0.55622643
000240 b6 2d c5 bb 89 c3 72 3e e0 5c 02 be d6 69 e8 3c
       -0.006017412 0.23707403 -0.12730742 0.028370779
000250 86 2f 62 3e 67 f7 ab be 04 0b 0d 3e e5 45 99 be
       0.22088441 -0.3358719 0.13773733 -0.29936138
000260 6d 91 92 be 77 70 af 3e 6e 18 68 3e 8f e7 e9 3c
       -0.28626576 0.3426549 0.22665569 0.028552799
000270 2a e4 05 3f 1d 5b ce bc 93 e6 3c be bb 98 02 bf
       0.52301276 -0.02518993 -0.18447332 -0.510143
000280 53 6a 3e 3e aa 2a cd be b5 f1 08 3e 0f ed b9 3e
       0.18595247 -0.40071613 0.13373454 0.36313674
000290 a5 6b e0 3e fd be e6 3e 38 34 91 3e 1b 9c bb 3e
       0.43832126 0.45067587 0.28360152 0.36642537
0002a0 0c 44 90 3c 60 c3 6d 3d 04 fc 23 bf 1e cf 24 bf
       0.017610572 0.058047652 -0.6405642 -0.64378536
0002b0 34 4c 19 be dc be 2b be 59 97 d3 3e db 24 ba bd
       -0.14970475 -0.16772026 0.41326407 -0.09089061
0002c0 6b 4b 33 3f a7 ba 1a 3f 2a 0d 84 3e f8 e6 5c be
       0.70036954 0.6044106 0.25791293 -0.21572483
0002d0 af 62 10 3f c6 34 b5 3d 30 7d d1 be 08 ec e4 bd
       0.5640058 0.08847956 -0.40915823 -0.11177832
0002e0 cf 14 cb be ff 65 b5 3d de 06 15 3e 35 79 c8 be
       -0.39664313 0.08857345 0.14553401 -0.39154974
0002f0 b9 2a 13 be dd 90 0b bf 7d 63 f5 3e 46 d6 b9 be
       -0.14371766 -0.5451792 0.47927466 -0.3629629
000300 42 21 c1 be a1 00 00 3f 45 b4 32 bf 08 da 25 bf
       -0.37720686 0.5000096 -0.6980632 -0.64785814
000310 6e 3f d2 3e 5d bf e3 3e e3 d5 59 be 96 6f a9 3d
       0.41064018 0.44481936 -0.21272998 0.082732365
000320 92 15 df 3e c2 9e 2b bf d7 53 20 3f 81 fb 7e be
       0.43571144 -0.6703912 0.6262793 -0.24900629
000330 03 fe e2 be 71 76 8b be 96 c2 c6 3d f2 82 fc be
       -0.4433442 -0.272388 0.09705083 -0.49318653
000340 d3 50 34 3f ad 10 83 bd 20 ec 97 be d8 6c 28 bd
       0.7043583 -0.06399665 -0.29672337 -0.041119426
000350 32 6f 0c 3f bb 63 be be 65 88 81 be 94 f3 cd be
       0.5485717 -0.37185463 -0.25299373 -0.40224898
000360 16 7d 20 bf 55 a8 e4 be d9 ae 2d bc 46 54 07 3f
       -0.62690866 -0.44659677 -0.010600769 0.52862966
000370 d3 d2 ab be 89 74 28 3f a1 37 15 3f b4 f8 ae bd
       -0.33559284 0.6580282 0.5828801 -0.0854353
000380 cc 7f b9 be 96 30 31 3f 0c d1 98 be 69 49 1b bf
       -0.36230314 0.6921476 -0.2984699 -0.6065889
000390 4c 2c c0 ba f0 5c 81 3e 8e 15 a1 3e e0 10 1c be
       -0.0014661639 0.25266218 0.31461757 -0.15240812
0003a0 2d 09 9d be 27 e5 9f be a6 0e 09 3e 5e 8e f4 bd
       -0.30671063 -0.31229517 0.13384494 -0.11941217
0003b0 7d 5b b3 be 29 6f 05 3f 8f 8e 91 be d7 c7 b8 3e
       -0.35030738 0.5212274 -0.28429076 0.36089966
0003c0 0c 68 43 3e 01 15 82 be 21 e3 d4 3e 1e 0a d1 be
       0.1908266 -0.2540665 0.41579536 -0.4082803
0003d0 99 a0 91 bc fe 48 26 bf f8 ed f3 3e 6b 0b dd be
       -0.017776774 -0.6495513 0.47642493 -0.43172774
0003e0 a2 96 27 3e a5 22 02 bf 9e 03 d6 be 88 ce 21 3f
       0.16366056 -0.50834113 -0.41799635 0.63205767
0003f0 2c e5 2d be 30 b5 01 bd dc c5 dd be 77 79 16 3f
       -0.16981953 -0.031666934 -0.43315017 0.5877909

Y_net.layer1.bias f4 [256]
000000 73 d5 16 3f 5a 87 20 be aa 10 10 3f f5 87 d6 3d
       0.5891945 -0.15676633 0.5627543 0.104751505
000010 5c f1 ce ba 09 b7 a2 be a9 e1 0d 3f 1f 93 05 3e
       -0.0015788483 -0.3178027 0.55422455 0.13044403
000020 66 6c 99 3e 25 2a 00 3f 02 55 ca 3e 8d 00 9f bc
       0.29965514 0.5006431 0.3951798 -0.019409442
000030 5d 81 29 be 75 05 a4 be 29 63 8b be fa 46 29 3f
       -0.16553254 -0.32035413 -0.2722409 0.66123927
000040 15 91 8e be 9b f6 25 bd e9 b9 3a 3e 04 2a 2b 3f
       -0.27845064 -0.040518384 0.18234982 0.66860986
000050 8b 7b ae 3e a8 98 16 3d 47 bc 48 3e 24 05 e9 3e
       0.3407863 0.036766678 0.19603072 0.45511734
000060 92 8f b4 3e 02 0a f0 3e d9 24 04 3f f5 64 a4 be
       0.35265785 0.46882635 0.51618725 -0.32108274
000070 65 f2 09 3f 22 4b 0c bf 0c 9d 33 bf e3 c3 8c 3e
       0.5388549 -0.54802144 -0.7016151 0.274932
000080 f5 ea 52 bb 5f ff 66 3c 9e f1 dd be 63 41 a2 3d
       -0.0032183502 0.014098971 -0.43348402 0.07922628
000090 c5 b1 5e be f0 c8 f4 bd 22 41 27 3f a5 68 d6 be
       -0.21747501 -0.11952388 0.6533376 -0.41876712
0000a0 85 7a aa be 7d 4f a5 3e 65 eb c6 be 60 7d 1f 3f
       -0.332966 0.32287207 -0.38851467 0.6230068
0000b0 49 a9 ae 3e 66 93 63 be 81 c0 cd be f9 67 e0 3e
       0.3411353 -0.22224197 -0.4018593 0.43829325
0000c0 0c b3 ce 3e 70 da 0f bf 3c 07 3c be 3d 4d 02 be
       0.40370977 -0.56192684 -0.18362135 -0.12724777
0000d0 d0 df 1e 3e a9 a5 08 bf 21 89 12 3f c7 5a 80 3d
       0.15515065 -0.5337778 0.5724049 0.062673144
0000e0 1e ef 06 3f f4 8d b4 3e d6 13 23 3f 23 13 dc be
       0.52708614 0.35264552 0.6370214 -0.4298335
0000f0 88 47 31 be d0 69 9e be ac 35 ef 3e 4d 4a c7 3e
       -0.17312443 -0.30940104 0.46720636 0.38923874
000100 1e 52 6f be c2 0d ea 3e 4b 79 16 bf 76 b1 6b 3e
       -0.23371169 0.4571362 -0.5877883 0.23016915
000110 43 6c 06 bf 42 61 17 3d a4 00 ce be 05 33 0f bd
       -0.52508944 0.036957987 -0.40234864 -0.034960765
000120 b3 53 7a be 3e df e8 3e 21 98 1f be ad be 22 bf
       -0.24445991 0.4548282 -0.15585376 -0.635722
000130 1c b0 5a be 4f 09 3d bc ec d5 34 3f 33 04 ad 3e
       -0.21356243 -0.011537864 0.7063892 0.33792266
000140 2c 4a ff be f2 46 98 3e a8 20 1f be 38 ce 8e be
       -0.49861276 0.29741627 -0.15539801 -0.27891707
000150 67 83 e0 bd 43 78 19 3f 50 59 16 bf ab ab 21 3f
       -0.10962563 0.5994913 -0.5873003 0.6315257
000160 cb 7e 32 be 1b c5 33 be a4 1e 8b be 6a a0 27 bf
       -0.1743118 -0.17555659 -0.27171814 -0.6547915
000170 2e 28 a6 3d 4c d6 c1 3e 05 3d b1 3e d0 e5 1d 3f
       0.081131324 0.37858808 0.34616867 0.6167879
000180 31 34 6a be 31 b7 84 3e e2 18 2a 3f fd c0 ef bb
       -0.22871472 0.25921014 0.6644422 -0.007316707
000190 be d6 40 3d f8 de 63 bd f0 eb 16 bd 78 0e 8f be
       0.047079794 -0.05563256 -0.0368461 -0.27940726
0001a0 d5 82 04 3f fe d6 15 3f 86 2d ba 3e 6f 07 2d 3f
       0.51762134 0.5853118 0.36362857 0.6758947
0001b0 8c 66 28 be 15 07 02 bd 38 77 34 3e 1f b4 11 3f
       -0.16445369 -0.031745035 0.17623603 0.5691547
0001c0 06 3f d5 bd 7c 3f 24 bf a6 b3 67 be 2d 81 2a bf
       -0.104124114 -0.6415937 -0.22627124 -0.66603357
0001d0 41 5f 0f bf c2 64 88 3e 72 58 3b be 03 4a 74 be
       -0.5600472 0.26639372 -0.18295458 -0.23856358
0001e0 d8 8d 25 bf 9b af 1d 3f 44 9f 8a 3e a6 7d b5 3c
       -0.6466956 0.6159608 0.27074635 0.02215464
0001f0 22 96 32 3f c7 75 13 3e b3 60 1c bf 8f ef 3e be
       0.69760334 0.14400397 -0.6108505 -0.18646072
000200 a8 e5 e1 be 13 ba be be 9c 19 fa be 2a e8 88 3e
       -0.44120526 -0.37251338 -0.48847663 0.26739627
000210 c2 b7 9f bd eb 1c 06 bf f8 20 4a 3d f4 b2 05 3f
       -0.07798721 -0.52387875 0.049347848 0.52226186
000220 80 eb 66 be 56 fd d8 be ed e6 8b be 93 de 60 be
       -0.22550774 -0.4238078 -0.2732462 -0.21959905
000230 5f 3a 11 bf 28 c9 0c 3f 49 b3 23 3f 22 7f 62 3d
       -0.5672969 0.5499444 0.6394544 0.055297025
000240 9b ce cc bd f4 77 77 bd b3 ec 0b 3f dc 10 34 3f
       -0.10000344 -0.06041713 0.5465805 0.70338225
000250 d7 4a ed 3e 1f ed 1a 3f bc 15 8f be 2b b4 a0 be
       0.4634616 0.6051807 -0.2794627 -0.31387457
000260 12 5b 00 3f c8 7f 64 be 0f 92 02 bf e1 fa 12 3f
       0.5013896 -0.2231437 -0.5100412 0.5741406
000270 67 55 12 bf 4a ad 0f bf 66 91 a4 3d 61 aa d8 3c
       -0.57161564 -0.56123793 0.08035545 0.02644843
000280 42 50 13 bf ad bd 97 be b4 5d 23 bf 82 fd dc 3d
       -0.5754434 -0.296369 -0.63814855 0.1079054
000290 d3 cb 05 3f 97 4a e1 be ca d4 e8 3e a2 91 27 be
       0.52264136 -0.4400222 0.45474845 -0.16364148
0002a0 a1 e4 26 bf 12 bd aa 3e e5 b8 d0 3e 7b 50 dd 3e
       -0.6519261 0.33347374 0.40766063 0.43225464
0002b0 05 3a 04 bf 94 53 a0 3e 23 46 8c 3d ff 00 95 3e
       -0.5165103 0.31313765 0.06849315 0.29102322
0002c0 3e a9 6c be 97 d7 2a 3f 58 59 3a 3e a2 f6 2c bf
       -0.23111436 0.66735214 0.18198144 -0.6756383
0002d0 41 fc 84 3e d1 17 1d bc c3 df 2d bf e2 9c 3c 3e
       0.25973704 -0.009588198 -0.6791956 0.18419221
0002e0 69 34 29 3f 04 f4 a3 be 69 bd b6 be 9b d7 9c 3e
       0.66095597 -0.32022107 -0.35691383 0.30633244
0002f0 f5 d4 0d 3f 1c 3a 8b 3e b1 07 6c be 6d 78 0d 3d
       0.5540307 0.2719277 -0.23049809 0.034538675
000300 3d f9 b6 be 9a 06 29 3f 98 f1 a3 be 4b e7 0a bf
       -0.3573703 0.660257 -0.3202026 -0.54259175
000310 1d e3 e8 3e 30 f6 28 bd 95 1a 0c bf 3d 1e 1d bf
       0.45485774 -0.041250408 -0.5472806 -0.61374265
000320 59 02 0e 3e 5b fc 26 bf 7b 33 b8 be 31 cf 0d bf
       0.13868083 -0.65228814 -0.35976776 -0.55394274
000330 11 1a 43 3e 89 a9 82 3a a5 9e 25 bf ef 2f a9 3e
       0.19052912 0.0009968738 -0.646952 0.33044383
000340 97 49 dc 3e f0 77 2f 3e 96 cc fe be 13 13 fb bd
       0.43024895 0.17135596 -0.49765462 -0.122594975
000350 02 75 8e 3e 1b c9 df 3e 84 61 19 bf c3 ea 10 3f
       0.27823645 0.4370812 -0.5991442 0.5660822
000360 21 6f 1b 3f 37 f8 04 3f 9a 8c c0 be 92 3c 05 bf
       0.60716444 0.51941246 -0.3760727 -0.5204555
000370 09 8d c5 3e 8b 4e f8 bd 36 3e a8 3c a7 35 08 3f
       0.38584164 -0.12124356 0.020537477 0.53206867
000380 9c 5b 97 3e 5d 16 34 bf 0b 41 15 3f 99 ae 0a 3f
       0.2956208 -0.70346624 0.5830237 0.54172665
000390 f0 3d 6d bd 3c 40 32 be b0 12 9c 3e fd a9 a8 3e
       -0.057920396 -0.17407316 0.30483007 0.3294219
0003a0 01 4d 34 bf ac 2c a9 3e 71 22 29 bf d2 95 4f 3d
       -0.7043 0.33041894 -0.6606818 0.05067999
0003b0 31 e9 4b 3e df a3 31 3f 12 7e 20 bf c3 89 3a be
       0.19913174 0.6939067 -0.6269237 -0.18216614
0003c0 fe 32 e6 3e 80 dc cb bb ae 11 87 be a6 b1 c9 be
       0.4496078 -0.006221354 -0.26380676 -0.39393348
0003d0 20 70 56 3e 30 ab 3d 3e 5b 1b 1b bf 9c 6a 0d bf
       0.2094121 0.18522334 -0.60588616 -0.552408
0003e0 ee fa de be 11 0c f9 3e ca 36 da 3e 3c 17 b4 3e
       -0.4355082 0.48642018 0.42619926 0.35173976
0003f0 00 02 ce 3e e8 c6 68 3e b4 13 f1 3e 91 5c 86 3e
       0.402359 0.22732127 0.47085345 0.26242498

Y_net.layer2.weight f4 [256, 256]
000000 db a7 a5 bb a1 be 24 3d cc b1 a9 bc f2 98 15 3d
       -0.0050554103 0.04022086 -0.020714663 0.036522813
000010 3d 99 3e 3d 2b eb 1f 3c d2 56 30 3c 1e da a2 bb
       0.04653286 0.009760658 0.010762887 -0.0049698493
000020 c5 02 38 bd 31 e6 31 3d 35 3e 22 bd 4e f5 ea 3c
       -0.044924516 0.04343242 -0.039610106 0.028681424
000030 5a 0c 49 3d 98 8b dd bc 9e 1e 3f bd fa 7f 18 3b
       0.049084045 -0.027044103 -0.04666006 0.002326964
000040 af 71 ba bb 28 f3 12 bd b2 ec 53 3d 9c a4 53 bd
       -0.0056898217 -0.035876423 0.051739402 -0.051670656
000050 65 92 9b bc 2d 50 13 b8 44 31 22 bc 12 87 60 bd
       -0.018990705 -3.51222e-05 -0.009899441 -0.054816313
000060 d1 a0 07 3d 5c 27 25 3d a3 13 7c 3c 3f 33 c0 3c
       0.03311235 0.04032074 0.015385541 0.023461936
000070 41 ee 6f 3d 88 fd 0a bd 7f be 80 bd fc 50 53 3d
       0.058576826 -0.033933192 -0.06286334 0.051590905
000080 39 3f 99 bb 77 f0 ba bc 8b ec 97 3d 14 dd 9a bc
       -0.004676726 -0.02281974 0.07418164 -0.018904246
000090 dd c3 88 3c 85 36 06 3c c4 87 2d bd 19 e3 79 3c
       0.016694957 0.008191709 -0.042365804 0.015251898
0000a0 7f 7a 5f 3c cd e8 96 3b e9 ee 06 3c 33 4c 2b bd
       0.013640045 0.0046053887 0.008235672 -0.041820716
0000b0 d8 54 0c bc 58 11 0d bc e1 95 1b 3d 13 7c 73 3c
       -0.00856515 -0.008610092 0.037984733 0.014861125
0000c0 a5 6a 17 3d 0d b4 59 3d 88 c0 0d 3d d2 82 05 3d
       0.03696694 0.053150225 0.03460744 0.032595463
0000d0 9d 53 66 3d 30 bd b0 3c a4 df 75 bc 42 ef 14 3d
       0.056232084 0.021574587 -0.015006933 0.036360987
0000e0 b8 30 15 3d ca 87 08 3c 53 95 3e 3d 42 48 c4 bc
       0.036423415 0.008333156 0.046529125 -0.023960236
0000f0 30 89 6a bd 06 ed dd 3c 58 ac 84 3d 8f d2 60 3d
       -0.05725974 0.02709056 0.064781845 0.054888304
000100 f4 d5 09 bc b1 61 3c 3d c2 ae d6 bc 9c 8b aa 3a
       -0.008412827 0.045991603 -0.026206378 0.0013011578
000110 86 cb 2d bd 8a 72 16 3c 9a c9 39 bc 08 ef c6 3c
       -0.042430423 0.009182582 -0.011339569 0.0242839
000120 25 0a 01 3c d1 d5 16 bd bc 15 2e bd 2a 83 11 3d
       0.007875954 -0.036825005 -0.042501196 0.03552548
000130 a2 19 da 3c cc c1 64 3c 86 96 55 bd e9 91 5a 3d
       0.02662355 0.01396222 -0.052145503 0.053361807
000140 34 5c 64 3d 44 62 2b bd 10 77 ca bb e1 9a c3 3c
       0.055751994 -0.04184176 -0.006178744 0.023877563
000150 ba 31 3a bd 63 cf 63 3d 5d 8d 90 bc 1e 9f 70 3d
       -0.04545758 0.0556177 -0.017645532 0.058745496
000160 5f df 65 3d 68 b9 25 bd 39 41 1b 3b da 35 32 3d
       0.056121226 -0.04046002 0.0023689999 0.043508388
000170 5a 5c 6f bd 29 19 06 3d 38 8f 87 3d 14 65 9f bc
       -0.058437683 0.03273884 0.06619114 -0.019457377
000180 32 9e 25 bd 39 ba 22 bd ad a3 36 3d f2 61 44 bd
       -0.04043407 -0.039728377 0.044589687 -0.04794497
000190 6b 43 54 bd 97 7e 82 3d 23 ae f8 bb dc 02 be bc
       -0.051822107 0.06371801 -0.007589118 -0.023194723
0001a0 36 13 30 3d bc e4 6e 3d 39 cf 3f 3c bb 47 13 bd
       0.04298707 0.058323607 0.011707121 -0.03595708
0001b0 ba d1 72 bb 0d 77 96 3c 46 b5 fe 3c bf 70 d8 3c
       -0.0037051276 0.018367315 0.031092297 0.026420949
0001c0 a4 55 bd bc 3f 7d 48 bb c7 1d 43 3c a1 df 7f bd
       -0.023112126 -0.003059223 0.011908955 -0.06246913
0001d0 d1 6f fa 3a 0c 6b 75 3d 9f 25 2a bc 1e f1 0e bd
       0.001910681 0.05991654 -0.010384946 -0.034897916
0001e0 fc d9 0a bd d1 6d c3 3c 9e d6 5e 3d ed c2 51 bc
       -0.033899292 0.023856075 0.054403894 -0.012802822
0001f0 d9 cf 4a 3d cf e1 2a 3c b0 3b ae bc 58 1f 19 bd
       0.049514625 0.0104298135 -0.021268696 -0.037383407
000200 eb 8a f8 3b 29 90 7e 3d e9 48 03 3b c0 53 9e bb
       0.0075849197 0.0621492 0.0020032472 -0.004831761
000210 1a bc 30 3d ac ed 53 bd db 5f 1f bd b8 54 68 bc
       0.043148138 -0.051740333 -0.038909774 -0.014180355
000220 7d 7a 5a 3d 12 7f 7e bc c7 15 e1 3b c4 6b 60 bd
       0.05333947 -0.015533226 0.006869051 -0.054790273
000230 fc 35 0b 3d 53 5e 43 3c 8a cd d9 bc c4 a4 0a 3d
       0.03398703 0.011924344 -0.026587266 0.03384854
000240 c6 73 8a bc ec 3d f2 bc c4 f1 5f bd 0d 27 44 3d
       -0.016900908 -0.029570542 -0.054673925 0.047888804
000250 24 01 b8 bc 1a f9 5e bc 47 43 47 bd b9 a4 7b 3d
       -0.022461481 -0.013609195 -0.048648145 0.06143639
000260 12 93 38 3d bf 20 69 3c 5e db 1d bc df b2 8e 3c
       0.045062132 0.014228999 -0.009634821 0.017419277
000270 51 b3 e3 bb e8 40 33 3d bd a4 20 bc cc 57 a5 bb
       -0.0069488664 0.04376307 -0.009804902 -0.0050458666
000280 83 4a 11 bb 15 87 2c bd 47 50 7c bc c0 48 3b bd
       -0.0022169657 -0.04212101 -0.015399999 -0.045723677
000290 19 94 30 ba d3 f9 1a 3d 7f d1 50 bd a9 37 29 3d
       -0.00067359355 0.037835907 -0.05098104 0.041312847
0002a0 c4 7e f0 bc 07 2b f3 3a 16 48 d9 bc 01 5d 29 3d
       -0.029357322 0.0018552252 -0.026523631 0.04134846
0002b0 8b 4f 21 3d 1c 5b ac 3c 7a 3f 58 3c 64 2e e2 3c
       0.0393825 0.021039538 0.013198728 0.027610011
0002c0 af f1 ee bc 01 7f 44 bc e5 fa b2 3c 0f f4 c9 bc
       -0.029167978 -0.011993171 0.021848151 -0.024652509
0002d0 d3 b9 a9 3c cd c6 4a 3d 26 02 3d 3d bf 4c 62 3d
       0.02071849 0.049505997 0.046144627 0.055248972
0002e0 9d 35 9e 3c 62 67 47 bd a5 51 56 3d 49 e0 44 bd
       0.019312674 -0.048682578 0.052323956 -0.048065457
0002f0 7d 44 a0 3a 11 1d 59 bd 81 de a9 bc a9 e3 30 bd
       0.0012227442 -0.053006236 -0.020735981 -0.043185864
000300 0a 43 67 bd 88 cf 4e bd 61 39 5e 3d 7b a9 8c bc
       -0.056460418 -0.050490886 0.05425394 -0.017170658
000310 36 81 74 3d 06 5b 0c 39 c3 ba b6 bc a9 03 49 3d
       0.059693538 0.0001338535 -0.022305852 0.049075756
000320 c3 eb 3c bd 17 48 42 3d e7 36 5d 3b b1 cf 9e bc
       -0.046123277 0.04743203 0.0033754648 -0.019386144
000330 d4 8f 58 3b d5 f7 3d 3a 20 40 d2 3c 9e c7 39 3d
       0.0033044713 0.00072467077 0.025665343 0.045356385
000340 58 88 7d 3d 3c da af 3c 64 6b 55 bc 9d 8a ae bc
       0.061897606 0.021466367 -0.013026092 -0.02130633
000350 33 24 ef 3a 27 85 81 bd 52 79 6a bd 63 59 69 bd
       0.0018245041 -0.06324225 -0.057244606 -0.05697001
000360 dd d5 9e 3c a7 fe 62 3d 65 95 86 3c 75 ce cb bb
       0.019389087 0.055418637 0.016428659 -0.00621968
000370 71 12 47 bd e8 d0 04 3b 54 49 cf bc ae c0 05 3d
       -0.04860157 0.002026612 -0.02530352 0.032654457
000380 8d a7 32 ba 30 1e 6d bd 2f 4e c3 3c 65 f2 1c bd
       -0.0006815128 -0.057890117 0.023840992 -0.038317103
000390 aa f3 8c bc 15 17 61 3d 74 98 14 3d d4 4a 6a bc
       -0.017206032 0.054953653 0.036278203 -0.014300067
0003a0 f5 0b 02 3c c4 ac 5b 3d e0 43 a0 bc 00 0c 25 3d
       0.007937421 0.05363156 -0.019563615 0.040294647
0003b0 8d 75 48 bc d5 99 4e 3d 48 b3 1e bd b8 e6 3f bd
       -0.012235058 0.050439674 -0.038745195 -0.04685089
0003c0 ba e7 51 bd 0e eb 94 bc c0 23 35 3c 54 4f eb 3b
       -0.051246382 -0.018178489 0.011055887 0.0071810875
0003d0 e5 78 05 bd ad 3f 0d 3c 55 96 34 bb 59 01 6b 3d
       -0.032585997 0.0086211385 -0.0027555425 0.057374332
0003e0 d4 d3 0e 3d 67 77 51 bd 15 33 24 bd 1d 74 2e 3d
       0.034869984 -0.05113926 -0.040087778 0.042591203
0003f0 fb 59 6e bd 90 af cc 3c 29 ec 1e 3d bf 09 13 3d
       -0.05819128 0.024986058 0.03879944 0.035897966

Y_net.layer2.bias f4 [256]
000000 fc ad 40 3d 02 16 20 3d 30 b2 14 bc e1 98 ac 3c
       0.047040924 0.03908349 -0.009075686 0.021068992
000010 73 77 37 3d 08 5c 56 3d 48 42 07 bd 56 4c c8 3b
       0.04479165 0.05233386 -0.033022195 0.0061126156
000020 ae df f8 bc 14 f6 4f bd a5 ba b6 ba 10 da 85 bc
       -0.030380096 -0.050771788 -0.0013941122 -0.016339332
000030 c3 d7 d9 3c 0a 6a 0e bd e1 63 71 bd d2 ee 0f 3c
       0.026592141 -0.034769095 -0.058933143 0.008784967
000040 98 72 da 3c f9 f8 23 bd 12 4f 9a ba 1d 4e 5b 3d
       0.02666597 -0.04003236 -0.0011772832 0.05354129
000050 3d 09 ae 3c 70 2b 40 ba 78 68 d7 3c 4d a3 0d bd
       0.02124464 -0.00073306914 0.026294932 -0.034579564
000060 1f 60 32 bc 37 af 8e 3c a8 60 8b 3c 21 0d a5 bd
       -0.010887175 0.017417533 0.017013863 -0.08059145
000070 66 29 1e 3d 31 1f b5 3c aa f2 e3 b8 31 6f 9d 3c
       0.0386137 0.0221096 -0.00010869403 0.01921806
000080 9d 95 5d 3d fc cf 55 3d 63 f2 2b bc ec cd ce 3b
       0.05409776 0.052200302 -0.010494801 0.006311169
000090 d8 d2 6d 3d 87 e2 21 3c d1 fa 40 3d 8c 62 7f bd
       0.058062404 0.0098806685 0.047114197 -0.06234984
0000a0 2b 6c ca bb 28 f5 18 3d 49 fb 96 3b cf 1d 76 ba
       -0.0061774454 0.037343174 0.0046075922 -0.0009388597
0000b0 90 bf 7e 3d a0 1f 85 3b 80 3f d1 bc 92 a6 8f bb
       0.062194407 0.004062608 -0.025542974 -0.0043838704
0000c0 9f ad 11 bd 58 2c 16 3d 08 5f 09 bb c2 6b c7 3c
       -0.03556597 0.036663383 -0.0020961184 0.024343375
0000d0 7d d5 76 bd bc 25 97 ba b2 25 97 3c 6b 2d 76 3b
       -0.060262192 -0.0011531631 0.018450592 0.0037563692
0000e0 1e 37 4b b9 30 0c 88 3c 3c d7 9a 3c 46 b1 83 bc
       -0.00019380121 0.016607374 0.01890146 -0.016075741
0000f0 ff 22 28 3d 1e 22 3e bd b3 ec 57 bc 9f a8 e3 bc
       0.041049 -0.046419255 -0.013178992 -0.027790366
000100 c8 61 2b bd 1e cc e7 bc 0c 00 4f 3d 9e c6 e1 3c
       -0.0418413 -0.028295573 0.050537154 0.027560528
000110 90 2e 7c bb 2a 61 b9 3c 06 78 15 bd 10 7f ac bc
       -0.0038479902 0.02262934 -0.036491416 -0.021056682
000120 16 28 44 bd 70 81 4b bd c5 e6 8e 3c aa 01 3f 3c
       -0.04788979 -0.049683988 0.017444024 0.011658112
000130 ee 61 44 bd f1 37 7f bd ee db d5 bc 0e 77 3d 3d
       -0.047944956 -0.06230921 -0.026105847 0.046256118
000140 ee f2 7c bd de a0 2b 3a 25 fd 2a 3d c0 63 15 bd
       -0.061755113 0.00065471034 0.041745324 -0.036472082
000150 e8 0a 15 bd 00 af 4a 3c 20 5b 15 bd ec 45 88 bc
       -0.036387354 0.012370825 -0.036463857 -0.016634904
000160 b8 1d 21 bc 88 25 0b bc 73 87 e4 3c f0 bb 20 3c
       -0.009833746 -0.008492835 0.027896618 0.009810433
000170 eb 91 4e bd 79 a7 2c bd 7a 73 e7 bc dc aa 1a bd
       -0.050432127 -0.042151902 -0.028253306 -0.0377606
000180 33 33 48 3c b0 c4 04 bd 42 a8 aa bc fb 5c 55 bd
       0.012219238 -0.03241414 -0.020832185 -0.052090626
000190 27 e6 2d bd 9c b0 39 bd 58 1a 5f bd ba 9e 7e bd
       -0.04245582 -0.045334443 -0.054468483 -0.062163092
0001a0 b7 18 6b bd a0 63 49 3d 8c 2f 35 bc de 2a b2 bc
       -0.057396617 0.049167275 -0.011058699 -0.021748956
0001b0 bc 14 76 bc c0 48 8f 3d 67 5c 34 3d 60 2e ef 3c
       -0.015019592 0.06996298 0.044033434 0.029196918
0001c0 fe 0f 1c bd 25 78 33 bd 28 d4 ad 3c c3 95 2e bd
       -0.03810119 -0.04381575 0.021219328 -0.042623293
0001d0 9a 34 6a 3d 03 1e 4d bd 37 cf a2 3c 10 25 7b bd
       0.05717907 -0.05007745 0.019874198 -0.061314642
0001e0 45 18 5a 3c e3 77 be 3b 18 5f ef 3b 6f 12 51 3a
       0.01331145 0.0058126315 0.007305037 0.0007975464
0001f0 db fd 89 3d 29 1d 8a bd 3a b2 f1 3c e8 80 97 3d
       0.06737872 -0.06743843 0.02950393 0.07397634
000200 ef a7 85 bc 18 c4 ba bc 2f 9c 7e bd a2 48 7e bd
       -0.016315429 -0.022798583 -0.062160667 -0.062080987
000210 00 a1 0b bc 8f 89 46 bd 89 2e 0d 3d fc 5b 0f 3d
       -0.008522272 -0.04847103 0.034468208 0.034999833
000220 18 02 97 bc 9f 7f ac bc ba 35 0a 3c 1b 41 4b 3d
       -0.018433616 -0.021056948 0.008435661 0.049622636
000230 a6 bf 5c 3d cb 06 1c bd de 0a 6c bb d8 39 33 3d
       0.053893708 -0.038092416 -0.003601722 0.043756336
000240 dc 2d 9e 3c 78 43 f1 bc 00 2c 6a bc f3 7e 9b bb
       0.019308977 -0.029451117 -0.014292717 -0.004745358
000250 b4 8c 7e 3d c4 a8 31 3c 93 82 14 bd 64 7e 52 3c
       0.062145904 0.0108434595 -0.036257338 0.012847517
000260 75 87 ba 3c 41 66 e1 3b 74 86 94 bc 5f 05 26 bd
       0.02276967 0.0068786447 -0.018130518 -0.040532466
000270 7c 65 38 bd f7 dc 4c 3d f6 3b d9 bc f2 07 5c 3d
       -0.045018658 0.050015416 -0.02651785 0.053718515
000280 07 8d 83 3c b5 47 51 3d 8b 5b a9 3b d0 43 99 bc
       0.016058458 0.051093776 0.0051683835 -0.018709093
000290 e4 82 15 3d 1a 45 e5 3c f2 76 d1 bc 80 8f a3 bb
       0.03650178 0.027987052 -0.025569413 -0.004991472
0002a0 48 25 0a bc 6f c1 83 bc 01 27 c7 bc 6a 11 46 bd
       -0.00843174 -0.016083447 -0.02431059 -0.04835645
0002b0 11 69 b5 bc 70 6d 12 bd 81 eb 16 bd 17 ed ce bd
       -0.022144826 -0.0357489 -0.036845688 -0.10103815
0002c0 6c f7 ad bc aa 78 0c 3d 76 ee 1b 3d 59 cb b9 bc
       -0.021236144 0.03429476 0.03806921 -0.022679972
0002d0 7a df 5d 3c 97 0c 08 3d 59 5c 77 3d 4d 9e cc 3c
       0.0135420505 0.03321513 0.060390804 0.024977827
0002e0 ab bf 38 3d 74 e9 2e 3c 01 8a fc bc 58 8b fb bc
       0.045104664 0.010675777 -0.030827524 -0.030706093
0002f0 30 c3 87 bd b6 b6 5d 3c 4d 1b 58 3c be 54 72 bd
       -0.06629026 0.013532331 0.013190103 -0.059162848
000300 e0 e1 84 3d 20 10 52 3d 82 7c 9f bc bc 62 09 3c
       0.06488395 0.05128491 -0.01946855 0.0083853565
000310 9d d5 07 3d b9 2a be 3d 0f 0a 25 3b fb 5c 43 bc
       0.033162702 0.092854924 0.0025182997 -0.011924024
000320 2a 97 70 bd b1 dc 86 bd 2f a0 b7 3c b3 ad 3a 3c
       -0.05873791 -0.06585062 0.022415249 0.011393952
000330 e3 a7 81 bd b3 9e d6 3c a8 fb 26 3c 33 93 2d 3d
       -0.0633085 0.02619872 0.010191835 0.04237671
000340 70 ce 51 bd 72 b3 b3 3c e4 31 4c 3d 89 01 29 bb
       -0.051222265 0.021936152 0.049852267 -0.0025788269
000350 48 21 07 3d 90 1f af 3c 14 6a 4d bd 8f 36 8d 3d
       0.032990724 0.021377355 -0.050149992 0.06895172
000360 44 32 ae bc 97 2c 6a 3d 00 1d 12 3c 4f 22 14 bd
       -0.021264203 0.05717143 0.008918047 -0.03616553
000370 43 18 9f bc 44 c1 28 3d c1 aa 4c bd 8a 64 0e bd
       -0.019420749 0.041199937 -0.04996753 -0.03476385
000380 47 90 11 bd 6c 0e 57 3d 0e f1 73 bd b8 cc 0d 3d
       -0.035537984 0.05250399 -0.05955606 0.034619063
000390 c0 7c 2f bc d3 18 f5 3c 5b b8 aa bb 55 69 56 bc
       -0.010710895 0.029919064 -0.005209965 -0.013086637
0003a0 17 b8 2c bd 4c 19 2c 3d c4 d3 21 bd 98 33 37 bd
       -0.04216775 0.042016312 -0.039508596 -0.044726938
0003b0 6a 53 65 bd 84 83 46 bc 60 1a ae 3c 38 cb 0e 3d
       -0.055987753 -0.012116317 0.021252811 0.034861773
0003c0 34 e0 05 3d 35 00 88 3d bb b4 d4 3c 1d 14 d3 3c
       0.03268452 0.066406645 0.025965085 0.025766427
0003d0 e2 eb af bc 03 f9 57 3d d7 fe 87 3d 6a e2 1d bd
       -0.021474782 0.05272771 0.06640404 -0.038546003
0003e0 4d 19 fb bc a0 f1 30 bd 82 c9 e0 bc 15 f4 e7 bc
       -0.030651713 -0.04319918 -0.027439836 -0.02831463
0003f0 6c 84 0d 3d d3 e9 77 bc d7 bc cc 3c bd ce a3 bc
       0.034550115 -0.015131432 0.02499239 -0.019996041

Y_net.layer2_input.weight f4 [256, 2]
000000 9a ba c2 bd b6 80 c4 3e d2 a6 d4 be 77 df 22 be
       -0.09508248 0.3837945 -0.41533524 -0.15905558
000010 26 fa c7 be 6e 3a 22 bf 39 05 6f bd 54 9e 8a 3e
       -0.39058036 -0.63370407 -0.05835459 0.2707392
000020 be ed 2b bf b5 84 ff 3e c5 20 02 3f 93 e7 37 be
       -0.6715964 0.49905935 0.5083125 -0.17959432
000030 83 2b 07 bf 9c f8 02 be 3a 33 a7 3e 9a 9f 3a 3e
       -0.5280077 -0.1279015 0.3265627 0.18224946
000040 c2 99 a6 be 15 8a ff be d9 fe d5 3e c3 e9 01 3f
       -0.32539183 -0.49910036 0.41795996 0.5074732
000050 b7 1b ff be 76 65 09 bf e2 40 f9 be 14 87 19 be
       -0.49825832 -0.5367044 -0.48682314 -0.14992934
000060 b3 03 53 3e c4 e0 2d 3f 15 5d 3b be bb 8f 22 bf
       0.2060688 0.6792109 -0.18297227 -0.63500565
000070 99 07 8d 3e 15 85 a0 be ec d1 26 be a0 54 80 3e
       0.2754486 -0.31351534 -0.16291016 0.25064564
000080 f8 a6 f7 3d b3 37 01 bf d4 e8 6c bd 82 ef c7 be
       0.12092394 -0.50475615 -0.05783923 -0.39049917
000090 97 f4 0c 3f eb d0 b4 3e 34 45 2e be b9 57 d8 3e
       0.55060714 0.35315642 -0.17018586 0.42254427
0000a0 79 62 9b 3e ca 4f 11 bf 50 7b 4b 3e dc e4 d4 3e
       0.30348566 -0.56762373 0.19871259 0.41580856
0000b0 db d2 9b 3e 3d ef ff be 96 08 03 be ec 45 f0 3e
       0.30434307 -0.49987212 -0.12796244 0.46928346
0000c0 88 2c 2b bf 44 44 17 3f a1 8c b2 3e 26 15 a7 be
       -0.66864824 0.5908854 0.34872916 -0.32633322
0000d0 fa 62 b0 be 69 47 9d be 7b ff 18 3e ec 0f 02 bf
       -0.34450513 -0.30718544 0.14941208 -0.50805545
0000e0 50 4f 6a be 83 17 24 bf 12 be 1f 3f af 97 89 be
       -0.22881818 -0.64098376 0.623994 -0.26873538
0000f0 28 1a af 3e 73 09 0d 3f 01 09 0a 3f df cd eb be
       0.34199643 0.55092543 0.5391999 -0.46055505
000100 51 97 26 3e 40 51 e9 3e 9e 3e ef 3e 71 af b7 3e
       0.1626866 0.455698 0.4672746 0.3587604
000110 12 5f 2b 3d d6 47 0e be 9f 58 e9 3e c0 30 d9 be
       0.041838713 -0.1389459 0.45575425 -0.42420006
000120 b5 9b bb 3e 9b fd 5a be 28 ae 93 bd b5 06 f8 3e
       0.36642233 -0.21385805 -0.07210952 0.48442617
000130 f8 b3 36 3d e7 3f b2 be f2 e3 29 3f 6f 6e 21 3f
       0.044605225 -0.3481438 0.6636344 0.63059133
000140 59 12 aa be 5b 26 5b be 57 68 01 bf aa 8e 2f be
       -0.33217123 -0.2140135 -0.50549835 -0.17144266
000150 dd 71 03 bf 52 9f c1 be b7 30 96 3e ec fa 92 3e
       -0.51345617 -0.37816864 0.2933404 0.28707063
000160 04 a5 f3 bd f8 c7 2a bf 20 7c 1b bd 20 4a 59 bd
       -0.118967086 -0.6671138 -0.03796017 -0.053049207
000170 32 35 ab be 6b 2d fb 3d c9 5d f2 3e 8c 3d 17 3e
       -0.33439022 0.12264522 0.47337177 0.14769572
000180 eb de d8 be cd 0e a5 3e 95 58 ee 3e db 86 1e 3f
       -0.42357573 0.32237855 0.46551958 0.61924523
000190 4a 16 6a be 78 ed 95 3e 71 03 bb 3e b5 13 66 3e
       -0.22860065 0.29282737 0.36526063 0.22468455
0001a0 e6 57 da 3e 71 3f c5 3e 65 fb 23 3e 51 71 1b bf
       0.42645186 0.38524964 0.16013868 -0.6071978
0001b0 9b 1d e1 be 3c 9a 90 3e 46 d2 0d be 1d 46 1a bf
       -0.439679 0.2824267 -0.13849744 -0.60263234
0001c0 ac 96 04 3e 90 a3 b1 bd 42 b2 1d be 98 c1 20 3f
       0.12948102 -0.08673775 -0.15400031 0.627954
0001d0 1e 72 6f be 1a e8 12 bf 91 08 42 be 8b 27 fa bd
       -0.23383376 -0.5738541 -0.1894858 -0.122145735
0001e0 ff 35 15 3d 46 de 12 3f f2 ad 0d 3f e4 c7 88 be
       0.036428448 0.5737041 0.55343544 -0.26715004
0001f0 74 6e d7 be 30 9f 1d 3e 16 13 33 3f 67 a8 c5 be
       -0.42076457 0.15392756 0.69951 -0.38605043
000200 2f a8 2a bf d0 f7 1a 3d 74 3b 86 3e c9 95 08 3f
       -0.6666288 0.03783399 0.26217234 0.53353554
000210 79 0c 46 3e e9 b5 b4 bc 26 73 d6 3e 13 3f 29 3e
       0.19340695 -0.022059398 0.41884726 0.16527967
000220 05 67 5d 3e 8d 6d 06 3f 38 a4 7b 3d ea d1 1c 3f
       0.2162133 0.5251091 0.061435908 0.61257803
000230 6f b7 b4 be 96 d0 6d be 2c 0d 14 3e f8 4a ac bd
       -0.352962 -0.232241 0.1445815 -0.08412737
000240 da 3c c4 be f8 38 d2 3d a4 f3 dd bd df e0 1b 3f
       -0.38327676 0.10264772 -0.108374864 0.6089
000250 35 6b 0e bd 93 46 07 3f 86 a1 f9 bb ee 45 1b bf
       -0.03477021 0.5284206 -0.007618132 -0.6065358
000260 17 df 1e 3f 77 4c 6c be f7 54 f7 3e 0a cd 21 bf
       0.6205916 -0.23076044 0.4830701 -0.6320349
000270 4d f3 da bd 66 31 01 3f e6 13 1d bf 20 a9 44 be
       -0.10690937 0.50466 -0.6135849 -0.19205141
000280 35 d9 a2 3b 38 6f 28 be 03 4e 17 3f 97 0f 49 3c
       0.0049697408 -0.16448677 0.5910341 0.012271783
000290 ac 85 c2 bd d2 a7 0b bf c0 69 c1 be d5 06 b2 be
       -0.09498152 -0.5455295 -0.37775993 -0.34770837
0002a0 aa eb 21 3f 18 15 1c bf 70 10 7a bd 46 62 62 be
       0.6325022 -0.60969687 -0.061050832 -0.22107801
0002b0 f6 8c 16 bd 7c 81 26 bf 2b 98 05 bf b0 b3 1b 3d
       -0.036755525 -0.6504133 -0.52185315 0.03801316
0002c0 dc 9b 04 be d4 08 01 3e 91 dd c9 be 79 51 23 bf
       -0.1295008 0.12601024 -0.39426854 -0.6379619
0002d0 91 96 19 bf b2 bb 19 bf 02 31 0b be 3f b5 90 3c
       -0.5999537 -0.60052025 -0.13592914 0.01766455
0002e0 e3 01 e7 3e d5 62 48 bd fc d8 18 3f bf 72 7b be
       0.45118627 -0.04892238 0.5970609 -0.24555491
0002f0 dd 5f 1c 3d 91 1d 2a 3f 19 8e 64 be 89 97 07 bf
       0.03817736 0.66451365 -0.22319831 -0.529656
000300 d0 47 b6 3c 18 a0 1e bf e0 83 01 3f 03 6e c8 3e
       0.02225104 -0.61963034 0.5059185 0.39146432
000310 8a 4f 1b 3f b5 70 6c be 88 5d 4d be 05 18 06 bf
       0.6066824 -0.2308987 -0.2005521 -0.523804
000320 11 c4 27 3f d1 f3 11 bf 77 10 95 be 04 32 4f be
       0.6553355 -0.5701266 -0.29114124 -0.20233923
000330 2b a4 c0 be a6 de 30 3e 72 9a 0b bf 5b ad 8d bd
       -0.3762525 0.17272434 -0.5453254 -0.069178306
000340 be 81 53 be c8 65 fb 3e 7b 1f 88 be 3a 7e fb be
       -0.20654961 0.4910109 -0.26586518 -0.4911974
000350 86 c5 ea 3e bb 69 9b be 34 5d 30 3f 22 e8 75 be
       0.45853823 -0.30354103 0.68892217 -0.24014333
000360 30 18 66 be ca c7 fd be 97 55 09 3f 15 7b 2a bf
       -0.22470164 -0.4956649 0.53646225 -0.6659406
000370 14 76 a3 3e 21 68 ed be 3a f9 0b bf ba ba 1a 3f
       0.31926024 -0.46368507 -0.54677165 0.6044117
000380 62 70 1c bf 00 6c 3c 3a f7 3a a5 3e 41 22 cf 3e
       -0.6110898 0.0007187724 0.3227155 0.4045582
000390 f4 df dc 3e 4c d4 0d bf 3c a4 b3 be 00 ed 30 bf
       0.43139613 -0.55402064 -0.35086238 -0.69111633
0003a0 1d d6 25 3f 36 17 db 3e ac 5b 8d be 8f 67 ba 3d
       0.64779836 0.42791146 -0.27609003 0.091017835
0003b0 b9 a6 77 be 54 ce 05 bf 1b 74 bf 3e 2b 51 09 3f
       -0.24184693 -0.52267957 0.3739327 0.5363948
0003c0 63 2e d0 3e 94 26 59 be cc af 50 3e 45 94 bc be
       0.4066039 -0.21206123 0.20379561 -0.3683187
0003d0 ee 67 8f bd 09 67 6a 3e eb 99 ff 3e fa 0e 11 bf
       -0.07002245 0.22890867 0.49922118 -0.5666348
0003e0 dc 38 33 be 17 fc 10 bf 61 7e fb be ba ae 31 3e
       -0.17502159 -0.5663466 -0.49119857 0.17351809
0003f0 da 2f d3 3e a9 d1 bf 3e ca 1d 31 bf 3b db ac 3e
       0.41247445 0.37464646 -0.6918608 0.3376101

Y_net.layer2_input.bias f4 [256]
000000 1c c8 96 3e e7 54 06 3f 3e d3 f3 3e 45 1c 14 bf
       0.29449546 0.524733 0.47622102 -0.57855636
000010 b6 b2 86 3e bf 40 30 bf 64 e1 b3 be 29 f1 98 be
       0.2630822 -0.68848795 -0.35132897 -0.2987149
000020 79 7f 8f be af 42 29 bf 3a 3e 86 be c8 80 bd 3d
       -0.2802694 -0.66117376 -0.2621935 0.09253079
000030 2a 92 6a 3e e2 2e 95 3e 60 54 fe bd b5 4e af bd
       0.2290732 0.2913733 -0.12418437 -0.08559934
000040 46 70 35 bf 85 5b ba bd d5 4b 6b 3d f5 16 32 3f
       -0.7087444 -0.09099487 0.057445366 0.6956628
000050 38 dd 3a be 24 c8 a7 bd 02 1a 24 bf cb 24 24 3e
       -0.18248451 -0.08192471 -0.64102185 0.1602966
000060 95 74 2c 3f c1 6d f6 3e db aa 25 bf 84 0b e1 be
       0.6736539 0.4813061 -0.6471383 -0.43954098
000070 ff 21 28 bf ef fe 06 3d 92 3f 0f 3f 99 b8 f6 3d
       -0.65676874 0.032957967 0.55956376 0.12046928
000080 f9 be 03 3e 2e 2e 61 be 39 58 50 3e d7 0c ee 3e
       0.12865819 -0.21990272 0.20346154 0.4649417
000090 70 00 d0 bd 92 00 20 be ce 29 c7 3e 95 10 1e bf
       -0.101563334 -0.15625218 0.38899082 -0.6174405
0000a0 09 47 0d 3f 7a c3 d2 3d 2b 75 53 3c e1 c0 5b be
       0.55186516 0.102911904 0.012906353 -0.21460296
0000b0 d1 b1 c9 bc 44 69 37 be 4b f7 8f 3e ba 22 c8 be
       -0.024620922 -0.1791125 0.28118357 -0.39088994
0000c0 2d e8 bc 3e 42 f4 1f bf fe 05 81 be 24 20 a0 3e
       0.36895886 -0.6248208 -0.25199884 0.3127452
0000d0 9f 2b 2e 3f 91 29 a3 3e 21 2a 11 bd 65 ba 01 3f
       0.6803531 0.3186765 -0.035440568 0.5067504
0000e0 35 c5 14 3d fa f3 c9 3e d0 0f fe be d8 eb da 3e
       0.036320884 0.39443952 -0.4962144 0.4275806
0000f0 bc a4 0a 3f fc 07 05 3f fc e5 29 be ce 65 69 bd
       0.54157615 0.5196531 -0.16591638 -0.056981854
000100 7c 89 10 be d5 01 6b 3e da 67 cb 3e c0 ca 04 be
       -0.14114946 0.22949918 0.3972767 -0.12967968
000110 76 73 56 3e bb c8 bc be e9 86 d5 be d0 95 10 be
       0.20942482 -0.36871895 -0.4170449 -0.14119649
000120 68 b0 0d be 27 62 a2 bd 64 3c 9d bd 6a 65 55 be
       -0.13836825 -0.07928877 -0.07677534 -0.20839468
000130 d7 de 31 be 93 3d 03 3f 00 59 9b be 69 44 30 bf
       -0.17370163 0.5126583 -0.3034134 -0.68854386
000140 6f ee 89 3e c6 a6 02 bf fd 6b 0a 3f 3e 0b 0b bf
       0.26939723 -0.51035726 0.5407103 -0.5431403
000150 3d ea 2d bf 6b d4 8b be aa 64 1a 3f 9d 86 29 bf
       -0.67935544 -0.273105 0.6030985 -0.6622103
000160 0b 13 e6 be e1 04 e5 3e 49 70 d4 3d 60 f2 e0 3e
       -0.44936404 0.44730285 0.10372979 0.43934917
000170 3e 18 01 3f d5 6d 17 be 93 4f c1 3d 02 ea c3 3e
       0.50427616 -0.14787991 0.09439006 0.3826447
000180 81 cd 12 3e 6e 4c 42 bc cb af 33 3e 43 dd 30 3e
       0.14336206 -0.011859043 0.17547528 0.17271905
000190 9f d6 24 3f 71 bb 08 bf da 0f 00 3f f6 2f 2a 3f
       0.64389986 -0.5341101 0.5002419 0.6647943
0001a0 a9 09 05 bd 24 07 28 bf e0 ca 19 be 0f 69 11 bf
       -0.032479916 -0.65635896 -0.15018797 -0.5680093
0001b0 67 5e 63 be b3 55 d5 be 05 bb 65 3e 35 3b 25 be
       -0.2220398 -0.41666946 0.22434624 -0.16135867
0001c0 6c 63 a9 be 8c e8 da be 01 bb 14 3e 83 41 ef 3e
       -0.33083665 -0.42755544 0.14524461 0.4672967
0001d0 9c 77 07 bf d0 68 a3 3e 49 8f a8 be 60 7e 04 bf
       -0.52916884 0.31915903 -0.32921818 -0.5175533
0001e0 95 58 59 3d ef 63 27 3e 70 36 cb 3e 9c 84 77 bc
       0.053062994 0.16346715 0.3968997 -0.0151073
0001f0 43 30 0d be 64 c5 6c 3e 11 17 47 be f6 ed 90 3e
       -0.13787942 0.23122174 -0.19442393 0.2830655
000200 bd 8a e8 be e1 bf 29 3f 7d 59 99 3e cb 38 aa be
       -0.4541835 0.6630841 0.29951087 -0.33246455
000210 e0 be 1e 3f 56 e5 1d bd 73 0b 04 be 66 c7 cc be
       0.6201 -0.03854879 -0.12894993 -0.3999588
000220 50 e8 e6 be 3d d4 30 3d 38 5d fe be 01 55 a0 be
       -0.45099115 0.043171156 -0.49680495 -0.31314853
000230 97 10 0e bf 35 3c 78 be 5a 95 8a bd c1 be 01 3e
       -0.55494064 -0.24241717 -0.06766768 0.12670423
000240 00 95 24 be a0 c3 00 bf 1f 00 c8 be 3c ee e4 be
       -0.16072464 -0.502985 -0.39062592 -0.44713008
000250 b1 4c c3 be 08 c7 c2 be ad 63 b0 bd 63 c5 b2 3e
       -0.38144448 -0.38042474 -0.08612762 0.3491622
000260 1e c9 0b be 18 64 a1 be 3d 66 0c bf 3e 3f 12 be
       -0.13650939 -0.31521678 -0.54843503 -0.14281937
000270 f3 90 d8 3e 6d a1 02 3f 7e 50 02 bf b8 27 15 be
       0.42298087 0.51027566 -0.5090407 -0.14565933
000280 56 cf 36 3e 5f d4 c2 be 67 d7 00 3f 4b dd d4 be
       0.1785253 -0.3805265 0.5032868 -0.41575083
000290 e4 5b 06 3d a1 fa 39 bb 20 38 00 3e 87 55 29 bf
       0.032802477 -0.0028378146 0.1252141 -0.6614613
0002a0 3e 1a 26 3f 73 7d e6 be 12 96 01 bf 28 57 fc 3d
       0.6488379 -0.45017585 -0.50619614 0.12321311
0002b0 ff 6c f6 3e 50 5c 06 be 47 a6 21 be 45 ca a1 3e
       0.48130032 -0.13121152 -0.15786086 0.31599632
0002c0 61 5f 58 3d ad 1a 34 bf 37 55 9e 3e 26 e3 00 3d
       0.052825335 -0.70353204 0.3092439 0.031466626
0002d0 fd 45 1a bf 99 bd 12 3f 31 b2 32 bf df 20 38 be
       -0.60263044 0.57320553 -0.6980315 -0.1798129
0002e0 7b 58 64 3d 76 d8 bd be 17 1b 5a 3e dd 11 0b 3f
       0.055748444 -0.3707921 0.21299396 0.5432413
0002f0 39 9c 1f bd 3b 8f 2f bf cd 37 9d 3d 0a e2 e7 3e
       -0.038967345 -0.6857793 0.07676659 0.45289642
000300 8d 55 a4 3d 53 fc 34 3f 5e 2f 19 3f 16 9a 95 3e
       0.0802413 0.70697516 0.598379 0.2921912
000310 ad d0 f5 3d 5a e6 d4 be 8e 50 46 3e ee 16 09 3f
       0.12002692 -0.41581994 0.19366667 0.5355061
000320 67 f8 dd 3e 80 83 07 3f 1f 08 21 3f 9a e7 b9 3e
       0.43353578 0.5293503 0.62903017 0.3630951
000330 77 bb e9 be 2a 02 b7 3e 19 52 28 bf 96 b5 c8 3e
       -0.45650837 0.3574384 -0.6575027 0.3920104
000340 60 ef 22 bd f8 63 81 bd fd e2 e0 be ec 80 09 3f
       -0.039779067 -0.06317896 -0.43923178 0.53712344
000350 08 56 25 3d 35 29 28 be cd 83 17 3f a1 00 89 be
       0.04036525 -0.16421969 0.5918549 -0.26758292
000360 a2 8c db 3e 03 3e 52 3e 88 4e f7 3e 14 2c a2 3e
       0.42880732 0.20531468 0.48302102 0.31674254
000370 cf 56 0f 3f 3f 69 34 bb e7 51 43 3e 89 89 bf be
       0.55991834 -0.0027528552 0.19074212 -0.37409618
000380 00 1d 0c 3f d6 90 97 be 32 91 1a 3f 9b a9 ee be
       0.5473175 -0.2960269 0.603778 -0.46613774
000390 95 63 80 be c7 3f 75 3e f0 dd 2e 3f 6b 16 66 3e
       -0.25075975 0.2395011 0.683074 0.2246949
0003a0 ba ee aa 3d 3a 92 65 3d 29 9b 08 3f 92 a8 2d be
       0.08346315 0.056047656 0.53361756 -0.16958836
0003b0 11 05 8b bd eb 0b 2a 3d b1 07 a4 be e5 de 2d bd
       -0.06788076 0.041515272 -0.32037118 -0.042448897
0003c0 32 16 a3 3e 26 b7 bb 3e bc 74 df be ac f1 4d 3e
       0.3185287 0.3666317 -0.4364375 0.20111722
0003d0 e1 de 80 3e 34 67 f3 3e 8d 73 f0 be 50 52 85 3d
       0.25170043 0.47539675 -0.46963158 0.065098405
0003e0 b9 d9 c1 3e 63 d6 bd 3e 2e af 0d 3c e4 70 be bd
       0.37861422 0.37077627 0.008647723 -0.09298876
0003f0 8c 93 39 3e 94 15 2e 3f f8 0f f6 be 0c 12 b4 3e
       0.18122691 0.68001676 -0.48059058 0.3517002

Y_net.layer3.weight f4 [256, 256]
000000 0f 93 51 3b c9 7d bc 3c 05 ad 06 bc 58 2b 88 3c
       0.0031978523 0.023009198 -0.008219962 0.01662223
000010 1c 7a e2 bc 96 60 0f bd 07 8e 50 3d 08 da 0e 3b
       -0.027646117 -0.03500422 0.050916698 0.0021797437
000020 b2 03 26 bd af ea b8 3c 7e 8f e0 bc 90 19 ac bc
       -0.040530868 0.022572843 -0.027412172 -0.021008283
000030 c9 ef 4d 3d b4 df e4 3b 82 2e 1f 3c ea 8a 03 bd
       0.050277505 0.0069846753 0.009715678 -0.0321149
000040 36 10 32 3d 01 74 08 3d 6a 85 ae bc 0f 4e 3d bd
       0.04347249 0.033313755 -0.021303851 -0.04621702
000050 c7 0c 95 bd 16 ea ca bb 9a 55 62 bd 95 13 1d 3d
       -0.07277828 -0.006192456 -0.055257417 0.038348753
000060 cc 90 74 bc 7b c2 14 3d 9a f0 ad bc e6 a1 cc bc
       -0.0149271 0.036318284 -0.021232892 -0.024979543
000070 d8 3e 64 ba f5 79 52 bd f4 be 66 bd 63 fa fd bc
       -0.0008706874 -0.05138584 -0.05633445 -0.031003183
000080 17 5e 00 3d ae 16 e3 bb da 6f cf 3c d2 e7 81 3d
       0.03133973 -0.006930194 0.02532189 0.06343044
000090 c1 74 81 3a 19 c7 04 bd df 14 57 3d fd 28 f9 3c
       0.0009876714 -0.032416437 0.05251014 0.030415053
0000a0 53 3e 07 3d 4b d3 32 3d ae 2c 6e 3c 23 fb 12 bd
       0.03301842 0.043658536 0.01453702 -0.035884034
0000b0 79 ec ee bc 6b eb 4d bc 73 0f 75 3d 8e 98 6a bd
       -0.029165493 -0.012568335 0.059829187 -0.057274394
0000c0 cc 77 77 3d d0 c8 6b bd cd 39 c9 bb 1b 49 74 3c
       0.06041698 -0.057564557 -0.0061409236 0.014910008
0000d0 df ff 8e bc 74 7b e3 3c 88 5a 47 bb af 4e 4e bd
       -0.017455993 0.027768828 -0.003041895 -0.050368007
0000e0 e6 f2 5e 3c 93 ca 43 bd 2c b9 9b bc c5 49 03 bd
       0.013607716 -0.04780061 -0.019009195 -0.032052774
0000f0 f0 16 11 3b 87 2b db 3c 92 3e 03 bd 8e 82 10 3d
       0.0022138916 0.026754154 -0.032042094 0.035280757
000100 4c 2f 88 3c b9 51 f1 3a 65 c0 45 3c 37 65 7c bd
       0.016624115 0.0018411196 0.012069796 -0.061619963
000110 1d ff 82 bc bf 16 8f 3c 14 5d 2a bd ac 2e c2 bb
       -0.015990788 0.0174669 -0.041592672 -0.005925974
000120 c5 a2 5a 3c 63 39 58 3c a1 42 6c bd 52 b4 53 bb
       0.013344471 0.013197276 -0.05768073 -0.0032303524
000130 d1 0e 34 3d 73 b1 5a bc 6d 97 18 3d 35 76 05 bd
       0.043959443 -0.013347971 0.037253786 -0.032583434
000140 e7 4e 94 3c 65 4b 20 bd 0c f0 03 bd ec 86 00 3c
       0.01810403 -0.0391344 -0.03221135 0.007844668
000150 34 a3 0e 3d 91 5f 5e bd 64 72 c8 bc a6 83 64 3b
       0.03482361 -0.054290358 -0.024468608 0.0034868508
000160 d5 a9 80 bc 5c af a7 3b b6 12 3e 3c 95 d9 82 3c
       -0.015705982 0.00511734 0.011601141 0.015972892
000170 25 fd 61 3d 11 f6 11 bd f4 1a eb bc f7 0c 41 3d
       0.055173058 -0.035635058 -0.028699376 0.047131505
000180 0d 19 9b 3b 54 45 50 3d d3 82 a7 ba c2 73 89 bd
       0.004733211 0.050847366 -0.0012780078 -0.06711532
000190 0c b7 43 bd 63 c0 e2 3c 2e 96 95 38 4c 58 83 3c
       -0.04778199 0.027679628 7.132847e-05 0.016033314
0001a0 80 b9 29 bd d7 12 5a 3c 90 a3 cd 3b 05 39 50 3d
       -0.041436672 0.013310156 0.0062756017 0.050835628
0001b0 93 36 8c bc f6 e1 0b 3c 7e 40 60 bd 72 af 54 bd
       -0.017115867 0.00853776 -0.054749005 -0.05192513
0001c0 5d eb 4b 3d d8 d9 0a bd ab c6 33 3d 21 45 6c 3c
       0.049785007 -0.03389916 0.043890636 0.0144207785
0001d0 26 9c 22 bd 23 0e cb bc ca d8 ed bc 35 d0 42 bd
       -0.039699696 -0.024787014 -0.029034037 -0.047561843
0001e0 c4 0c e7 3c 7c df 56 bd 9b 56 55 3c 40 47 ff bc
       0.02820433 -0.052459225 0.013021137 -0.031161904
0001f0 35 08 5e 3d 50 cb d4 3c 31 bd d4 bc 7a ea 6b 3d
       0.054207046 0.025975853 -0.02596912 0.05759666
000200 2d 3b 1c 3d d8 0a be bb e8 33 61 3c d1 91 03 bc
       0.038142372 -0.0057996325 0.013745286 -0.008030371
000210 3b de 14 3d 20 cf 1e bb f9 74 2d 3d bb e4 86 ba
       0.036344748 -0.0024232343 0.042347882 -0.0010291556
000220 c1 94 81 3c f1 0e b5 3b 19 53 ea 3b 0c e5 06 bd
       0.015818002 0.005525463 0.0071510193 -0.03293328
000230 a1 91 14 bc d5 e4 27 3d 39 ae cd 3c 66 56 46 bd
       -0.009067924 0.040989716 0.02510749 -0.04842224
000240 06 bf 74 3d 2a c2 60 bc d2 72 2d 3c 35 60 56 bd
       0.059752487 -0.013718167 0.010586457 -0.052337844
000250 91 a8 a8 bd d9 1b 41 3d ec 52 80 bd d2 58 e6 3c
       -0.082352765 0.0471457 -0.06265816 0.028118525
000260 e2 52 25 bd 25 eb 4e bd 7a 1b ef 3c 10 a3 a7 3c
       -0.040362246 -0.05051722 0.029187907 0.020463496
000270 dd a6 83 3b cd a4 f6 ba a4 6b 03 bd a6 5a 1a 3d
       0.0040176944 -0.0018817425 -0.032085076 0.037684105
000280 e6 34 de bc 81 70 22 3d ea b9 3c 3c 58 74 09 3d
       -0.027124833 0.039658073 0.011518935 0.03355822
000290 c4 85 1c bd cb e5 61 bc f8 ed aa 3c 0c a9 50 3d
       -0.038213506 -0.013787697 0.020865425 0.050942466
0002a0 1a 35 af bb e8 7f 2e bd db 21 26 3c 04 d3 ea bc
       -0.0053469064 -0.04260245 0.010139908 -0.028665073
0002b0 1c e2 5d 3d 34 e9 4e bd fc 34 0a bd 1d cf a0 bb
       0.054170713 -0.05051537 -0.033741936 -0.0049075023
0002c0 b0 7d cb 3c 67 2a 51 3d eb 0b 89 3d 8d 6f 0e 3d
       0.024840206 0.05106583 0.06691726 0.034774352
0002d0 a5 06 b0 3c 1d 2e 5f bd 9f c9 20 bc 62 52 85 bd
       0.021487543 -0.054487336 -0.009813695 -0.06509854
0002e0 59 cb 94 3c 2f 51 e2 39 78 9c 34 bd 08 77 62 bd
       0.01816337 0.00043166566 -0.044094533 -0.0552893
0002f0 95 33 91 3c be 1c 2a 3d 30 b2 cf bb 9c 0e 2d bd
       0.017724792 0.041531317 -0.0063383803 -0.04225026
000300 eb 33 15 bd e7 b2 55 3d 31 a2 1c 3d cd 31 e6 3c
       -0.036426466 0.052172568 0.038240615 0.028099919
000310 27 15 02 bd ba b8 5b 3c 7b 45 01 3d de 0a 43 bd
       -0.031758454 0.013410741 0.031560402 -0.047617786
000320 32 87 67 bd c4 0a ea b9 e1 08 07 3c cf 30 6b 3d
       -0.056525417 -0.0004463998 0.008241863 0.057419594
000330 a6 f9 85 3c a0 83 47 bd 8c 56 99 3c 59 6e c3 3c
       0.016354393 -0.04870951 0.018718027 0.023856329
000340 6a 3e 14 3d f4 8e 51 3d 65 35 5c bd 9d e9 4e 3d
       0.036192335 0.05116172 -0.05376186 0.05051576
000350 ad 58 0f 3d f1 8b 2c b9 de b5 b5 bc 01 74 90 bc
       0.034996677 -0.0001645533 -0.022181448 -0.01763344
000360 2b f7 64 3d cc c5 40 3b c8 89 39 3c d9 27 f5 3c
       0.05589978 0.002941477 0.0113243535 0.029926227
000370 78 c3 1d 3d b3 a2 fd bb d6 6d 43 3c 15 f2 eb 3c
       0.03851649 -0.0077403425 0.011928042 0.028801957
000380 23 5d bf 3c b8 39 8e bb d8 f1 6d bd ee 22 fc 3c
       0.02335984 -0.0043403767 -0.05809197 0.030778375
000390 a0 b8 84 3c a9 ca f8 3c bb b0 1b bd 6a f9 c8 3c
       0.016201317 0.030370073 -0.03801034 0.024532992
0003a0 63 1a 56 3d a3 48 a8 3c ed 62 ec bc 5c 7c 52 3d
       0.052271258 0.020542448 -0.028855765 0.05138813
0003b0 6a 94 3a bd 15 e9 2f bd ff c9 87 bc 81 67 4c 3c
       -0.045551695 -0.042946894 -0.016575811 0.012475849
0003c0 4d df ea bc c8 96 d0 3c 66 9e 07 ba 2d e2 80 bb
       -0.028670931 0.025462523 -0.00051734445 -0.0039332123
0003d0 98 95 4a 3c 85 4e 86 bb ab 06 21 3d bf 72 7a bd
       0.0123647675 -0.0040987157 0.039313 -0.061144587
0003e0 ad e0 d1 bc e9 e4 27 3d e9 fa 3f bd f8 80 71 bd
       -0.02561983 0.04098979 -0.046870146 -0.058960885
0003f0 69 7b a2 bc f5 d4 49 bd f4 0b 48 3d 28 ad b7 3c
       -0.019834237 -0.049275357 0.048839524 0.022421435
