models/saved/simple_hjb_model_naisnet_analytical_q.pth (torch, 809735 bytes, 15 tensors)

Y_net.layer1.weight f4 [256, 2]
0	0x3f062fbd	0.5241659
1	0x3eefa534	0.46805727
2	0xbe0536d2	-0.13009194
3	0x3e8c3932	0.27387387
4	0x3e044667	0.12917481
5	0xbec2dabd	-0.3805751
6	0xbf348c3d	-0.70526487
7	0xbd42f906	-0.04760077
8	0x3c29e36f	0.010369166
9	0x3ef508bc	0.47858226
10	0xbd4dc488	-0.050236255
11	0xbefa5de4	-0.48899758
12	0xbf3b0d01	-0.7306672
13	0xbe8da04f	-0.27661368
14	0x3ee73afe	0.45162195
15	0xbf270d51	-0.65254694
16	0xbde5a055	-0.112122215
17	0x3f09a8d7	0.53773254
18	0xbeda69c7	-0.42658827
19	0xbea60edf	-0.3243322
20	0xbde31484	-0.110878974
21	0x3f3136f1	0.6922446
22	0x3f33f0c1	0.70289236
23	0xbf3376f1	-0.70103365
24	0x3da3e976	0.080035135
25	0x3e46742f	0.19380258
26	0x3f2dbf02	0.6786958
27	0xbf16716b	-0.5876681
28	0xbf2ff53e	-0.68733585
29	0xbeebeef6	-0.4608075
30	0x3eb6281f	0.35577485
31	0x3e930b11	0.2871938
32	0xbeeae2d4	-0.4587618
33	0x3f0df260	0.5544796
34	0x3e725a09	0.23667158
35	0x3d82f06e	0.063935146
36	0x3e873262	0.26405627
37	0x3cecab42	0.028890256
38	0x3f0bb5a0	0.5457401
39	0xbe87f316	-0.26552647
40	0xbe884240	-0.26613045
41	0xbeb51182	-0.3536492
42	0xbedf493f	-0.4361057
43	0xbee6559c	-0.4498719
44	0xbf05db04	-0.52287316
45	0xbf1427e1	-0.5787335
46	0xbf1316a9	-0.5745645
47	0x3e02ba93	0.12766485
48	0x3e7a3d83	0.24437527
49	0xbe046c4d	-0.12931938
50	0x3eabc421	0.33548072
51	0x3d09b0e0	0.033615947
52	0xbf0923fc	-0.5357053
53	0xbf081c0f	-0.53167814
54	0x3eb8b072	0.36072117
55	0x3f2264b9	0.6343494
56	0x3eaba0ed	0.33521214
57	0x3f062811	0.52404886
58	0xbf1c89a7	-0.6114754
59	0x3e7c6d20	0.24651003
60	0x3d695330	0.0569641
61	0xbe982672	-0.2971683
62	0xbe6cee9a	-0.23137894
63	0x3f1cde2e	0.6127652
64	0x3f254c4d	0.6456955
65	0xbd98693f	-0.07441949
66	0xbc3a393e	-0.011366187
67	0x3e90c488	0.2827494
68	0x3f3566ba	0.70859873
69	0xbebd66f4	-0.3699261
70	0xbf2fd1d6	-0.6867956
71	0xbf0e63a4	-0.5562079
72	0x3f2a2794	0.6646664
73	0xbe8c7d2c	-0.2743925
74	0xbf249f65	-0.64305717
75	0x3e6e7b42	0.23289207
76	0x3e81390b	0.25238833
77	0xbeab2389	-0.3342555
78	0xbe2ef2c8	-0.17084801
79	0x3f0b0600	0.5430603
80	0xbe016678	-0.12636745
81	0xbd014b20	-0.031565785
82	0x3f2751c0	0.65359116
83	0xbf0c5047	-0.54809994
84	0x3dd99775	0.10624591
85	0xbeed6132	-0.46363217
86	0x3ed09773	0.40740547
87	0xbecfe90d	-0.4060749
88	0x3f24d15f	0.64381975
89	0xbe398835	-0.18118365
90	0x3e485f2a	0.19567552
91	0xbe4fca18	-0.20291936
92	0xbeebfd1d	-0.46091548
93	0xbeb187a7	-0.34673807
94	0x3f0df14c	0.55446315
95	0xbe4aa491	-0.1978934
96	0xbf037cf1	-0.5136252
97	0x3deba20c	0.11505517
98	0x3dffb667	0.12485962
99	0xbee9ac91	-0.4563947
100	0x3e16d485	0.14729507
101	0xbf280e02	-0.65646374
102	0x3f108a03	0.5646059
103	0x3e5ce97b	0.2157344
104	0x3e8a9c00	0.27072144
105	0xbf19438a	-0.5986868
106	0xbd710a8c	-0.05884795
107	0xbf192810	-0.59826756
108	0xbf30affc	-0.6901853
109	0x3eac1687	0.33610937
110	0xbc877eba	-0.01653992
111	0x3dfe244f	0.12409269
112	0x3ddfad72	0.10921754
113	0x3eaa206b	0.33227858
114	0xbdec5cee	-0.115411624
115	0x3efd5ba9	0.49483994
116	0x3e48403b	0.19555752
117	0x3e9b62e9	0.303489
118	0x3de8382b	0.11338838
119	0x3ed5ec3b	0.41781792
120	0xbe3d30b8	-0.18475616
121	0x3c305780	0.010763049
122	0xbf093f24	-0.5361197
123	0xbedb124e	-0.42787403
124	0x3efe6a91	0.4969068
125	0xbeec418b	-0.46143755
126	0x3ec1b8d8	0.37836337
127	0xbc526122	-0.012840541
128	0xbe14c058	-0.14526498
129	0x3d67ef60	0.05662477
130	0x3ec8ee17	0.39244148
131	0x3e89c13d	0.26905242
132	0xbf2de269	-0.679236
133	0x3db9e458	0.09076756
134	0x3e4df849	0.20114245
135	0x3e974964	0.2954818
136	0xbdc43be7	-0.09581738
137	0xbf0b2783	-0.54357165
138	0x3e8902a2	0.2675982
139	0x3efb85ea	0.49125606
140	0xbec634ab	-0.38712057
141	0x3e0d8268	0.13819277
142	0xbec43f1e	-0.38329405
143	0xbf0e0e53	-0.5549061
144	0xbbcc4e60	-0.006234929
145	0x3e72c3ec	0.23707551
146	0xbe0233c0	-0.12715054
147	0x3ce81ce7	0.028334094
148	0x3e605881	0.21908762
149	0xbeab612c	-0.33472574
150	0x3e0d0b04	0.13773733
151	0xbe9945e5	-0.29936138
152	0xbe92aa81	-0.2864571
153	0x3eaf7993	0.3427244
154	0x3e68af42	0.22723106
155	0x3ceb41df	0.028717933
156	0x3f060c90	0.5236292
157	0xbccd2cfd	-0.025045866
158	0xbe352c4f	-0.17692684
159	0xbf045a47	-0.5170025
160	0x3e3bc4a3	0.1833673
161	0xbecc7c94	-0.39938796
162	0x3e089aff	0.13340376
163	0x3eb9fa21	0.36323646
164	0x3ee07ab6	0.4384362
165	0x3ee6c8c4	0.45075047
166	0x3e917d10	0.28415728
167	0x3ebbda3b	0.36689934
168	0x3c8ff29c	0.01757174
169	0x3d6dc6d0	0.05805093
170	0xbf2909e3	-0.6603071
171	0xbf27e787	-0.6558766
172	0xbe194c34	-0.14970475
173	0xbe2bbedc	-0.16772026
174	0x3ed3b51b	0.4134911
175	0xbdb9ff64	-0.09081915
176	0x3f337bb2	0.7011062
177	0x3f1abf65	0.60448295
178	0x3e8552be	0.2603969
179	0xbe5ae1fa	-0.21375266
180	0x3f105b40	0.56389236
181	0x3db5233b	0.0884461
182	0xbed17d30	-0.40915823
183	0xbde4ec08	-0.11177832
184	0xbeccc921	-0.399972
185	0x3db57988	0.08861071
186	0x3e150951	0.14554335
187	0xbec85824	-0.39129746
188	0xbe07cc82	-0.13261607
189	0xbf0cf61b	-0.5506303
190	0x3ef57512	0.4794088
191	0xbeb9d30e	-0.36293834
192	0xbec0e9d7	-0.37678406
193	0x3f000be0	0.5001812
194	0xbf34818b	-0.70510167
195	0xbf25b6b0	-0.64731884
196	0x3ed23c65	0.41061702
197	0x3ee3bd4d	0.44480363
198	0xbe561f44	-0.20910364
199	0x3da9684d	0.08271847
200	0x3edef7f7	0.43548557
201	0xbf2bcbd5	-0.671079
202	0x3f20715e	0.62672985
203	0xbe7ec2ae	-0.24878952
204	0xbee2fe03	-0.4433442
205	0xbe8b7671	-0.272388
206	0x3dad5ffe	0.08465575
207	0xbefebe80	-0.49754715
208	0x3f344f71	0.7043372
209	0xbd83359f	-0.06406712
210	0xbe97f721	-0.29680732
211	0xbd28a32d	-0.04117124
212	0x3f0c90ce	0.54908454
213	0xbebe1674	-0.37126505
214	0xbe816eaa	-0.25279742
215	0xbecde6d3	-0.40215167
216	0xbf207d16	-0.62690866
217	0xbee4a855	-0.44659677
218	0xbc40efff	-0.0117759695
219	0x3f0775bf	0.5291404
220	0xbeac8939	-0.33698443
221	0x3f287391	0.6580134
222	0x3f1534d3	0.5828373
223	0xbdaf0bcb	-0.08547171
224	0xbeb98fdb	-0.36242566
225	0x3f31236a	0.6919466
226	0xbe98d10c	-0.2984699
227	0xbf1b4969	-0.6065889
228	0xbb06c0db	-0.0020561728
229	0x3e815af8	0.25264716
230	0x3ea1158e	0.31461757
231	0xbe1c10e0	-0.15240812
232	0xbe9d092d	-0.30671063
233	0xbe9fe527	-0.31229517
234	0x3e093f31	0.13403012
235	0xbdf46190	-0.11932671
236	0xbeb2ea82	-0.3494454
237	0x3f057bad	0.5214184
238	0xbe9181f4	-0.2841946
239	0x3eb8c4a1	0.36087516
240	0x3e43680c	0.1908266
241	0xbe821501	-0.2540665
242	0x3ed50a9f	0.41609666
243	0xbed10489	-0.40823773
244	0xbcd45f00	-0.025924206
245	0xbf2743ed	-0.6533802
246	0x3ef400a2	0.47656733
247	0xbedd3cf1	-0.43210557
248	0x3e27d5cd	0.16390152
249	0xbf021d2a	-0.5082575
250	0xbed6fd16	-0.41989964
251	0x3f21bcd1	0.63178736
252	0xbe2de52c	-0.16981953
253	0xbd01b530	-0.031666934
254	0xbedb83f2	-0.42874104
255	0x3f16e425	0.5894187

Y_net.layer1.bias f4 [256]
0	0x3f16f105	0.58961517
1	0xbe203442	-0.15644935
2	0x3f101dd9	0.56295544
3	0x3dd4cd96	0.10390775
4	0xb8ed0b3b	-0.000113031325
5	0xbea51d2b	-0.32248816
6	0x3f0c47ea	0.5479723
7	0x3e048907	0.12942897
8	0x3e9a1729	0.30095795
9	0x3f00cbca	0.5031096
10	0x3eca67ce	0.39532322
11	0xbca4b3e0	-0.020105302
12	0xbe28c59c	-0.16481632
13	0xbea3b94c	-0.31977308
14	0xbe8b6329	-0.2722409
15	0x3f29f5c6	0.66390646
16	0xbe8d3e5d	-0.27586642
17	0xbd25b273	-0.040453386
18	0x3e3ac600	0.18239594
19	0x3f2b2cb5	0.6686509
20	0x3eb00714	0.343804
21	0x3d089734	0.033347324
22	0x3e3eb366	0.18623123
23	0x3eecd877	0.462589
24	0x3eb498e3	0.35272893
25	0x3ef02603	0.46904
26	0x3f01ccb4	0.5070298
27	0xbea2b9cd	-0.3178238
28	0x3f0a80a2	0.5410253
29	0xbf0c4b22	-0.54802144
30	0xbf339d0c	-0.7016151
31	0x3e8e940a	0.2784732
32	0xbb7f8f7f	-0.0038995442
33	0x3c67fe1c	0.0141597055
34	0xbedba1bc	-0.4289683
35	0x3da05052	0.0782782
36	0xbe5e2808	-0.21694958
37	0xbdf2f9ce	-0.11864053
38	0x3f274ef2	0.65354836
39	0xbed5a230	-0.41725302
40	0xbeaa7a85	-0.332966
41	0x3ea54274	0.32277262
42	0xbec8577e	-0.3912925
43	0x3f1f7aa3	0.62296504
44	0x3eaeb9d4	0.3412615
45	0xbe6d4c97	-0.23173748
46	0xbecdc081	-0.4018593
47	0x3ee07265	0.43837276
48	0x3ecfd687	0.4059336
49	0xbf105844	-0.5638468
50	0xbe3d6a88	-0.1849767
51	0xbe021e12	-0.12706783
52	0x3e1df26a	0.15424505
53	0xbf093dda	-0.53610003
54	0x3f12a4bf	0.5728263
55	0x3d7ed21f	0.062212106
56	0x3f06f05f	0.5271053
57	0x3eb48b52	0.35262543
58	0x3f231f22	0.6371938
59	0xbedba7c1	-0.42901424
60	0xbe314788	-0.17312443
61	0xbe9e69d0	-0.30940104
62	0x3eef3ccd	0.46726075
63	0x3ec751f9	0.38929728
64	0xbe6f521e	-0.23371169
65	0x3eea7ceb	0.4579843
66	0xbf16794b	-0.5877883
67	0x3e6c5068	0.23077548
68	0xbf066c43	-0.52508944
69	0x3d1a622d	0.037691284
70	0xbece00a4	-0.40234864
71	0xbd203bb0	-0.039119422
72	0xbe7adf3a	-0.24499217
73	0x3ee90866	0.4551422
74	0xbe21109a	-0.15728989
75	0xbf22bead	-0.635722
76	0xbe5a16df	-0.21297787
77	0xbc3fa3ac	-0.011696737
78	0x3f34eab3	0.7067062
79	0x3eaaffda	0.33398324
80	0xbf004e80	-0.5011978
81	0x3e98712b	0.2977384
82	0xbe1ecb3a	-0.15507212
83	0xbe8e119e	-0.27747816
84	0xbde09763	-0.10966375
85	0x3f140f65	0.5783599
86	0xbf165950	-0.5873003
87	0x3f21adb1	0.6315566
88	0xbe320e1d	-0.17388196
89	0xbe31da7a	-0.17368498
90	0xbe8b8049	-0.2724631
91	0xbf27a06a	-0.6547915
92	0x3da63d7d	0.08117197
93	0x3ec1d557	0.37858078
94	0x3eb11415	0.34585634
95	0x3f1ddaa4	0.61661744
96	0xbe67856c	-0.2260949
97	0x3e80bc45	0.25143638
98	0x3f2a1c05	0.66449004
99	0xbbd5e9b9	-0.006528106
100	0x3d4339ce	0.04766255
101	0xbd61e232	-0.055147357
102	0xbd16ebf0	-0.0368461
103	0xbe956cf6	-0.29184693
104	0x3f047948	0.5174756
105	0x3f15d900	0.5853424
106	0x3eba4535	0.36380926
107	0x3f2d0878	0.6759105
108	0xbe28668c	-0.16445369
109	0xbd05ce37	-0.032667365
110	0x3e339ad6	0.17539534
111	0x3f11ad0c	0.56904674
112	0xbdd32bc7	-0.10311084
113	0xbf243f7c	-0.6415937
114	0xbe6882ec	-0.22706193
115	0xbf2a812d	-0.66603357
116	0xbf0f5f41	-0.5600472
117	0x3e886a3b	0.26643547
118	0xbe382418	-0.17982519
119	0xbe7470b2	-0.23871115
120	0xbf258dd8	-0.6466956
121	0x3f1d9d8d	0.6156853
122	0x3e872fa5	0.26403537
123	0x3cb3110d	0.021858716
124	0x3f329bb5	0.6976884
125	0x3e121acf	0.14268039
126	0xbf1c60b3	-0.6108505
127	0xbe310926	-0.17288646
128	0xbee1e5a8	-0.44120526
129	0xbebeba13	-0.37251338
130	0xbefa199c	-0.48847663
131	0x3e83e5f7	0.25761387
132	0xbd9d5e08	-0.07683951
133	0xbf061ceb	-0.52387875
134	0x3d48e791	0.049048964
135	0x3f05d5ea	0.5227953
136	0xbe672da9	-0.22576012
137	0xbed8fd56	-0.4238078
138	0xbe8be6ed	-0.2732462
139	0xbe6fb0a8	-0.23407233
140	0xbf113a5f	-0.5672969
141	0x3f0cd642	0.5501443
142	0x3f23ad3e	0.6393622
143	0x3d62b196	0.05534514
144	0xbdcc6253	-0.09979691
145	0xbd5d7a23	-0.054071557
146	0x3f0c5856	0.5482229
147	0x3f33f578	0.7029643
148	0x3ee165d6	0.44023007
149	0x3f1b9efe	0.6078948
150	0xbe8f12b8	-0.2794397
151	0xbea0b42b	-0.31387457
152	0x3f00862e	0.5020474
153	0xbe647fc8	-0.2231437
154	0xbf02920f	-0.5100412
155	0x3f13619c	0.57570815
156	0xbf125567	-0.57161564
157	0xbf0fad4a	-0.56123793
158	0x3d991a06	0.07475667
159	0x3ce07204	0.027398117
160	0xbf135042	-0.5754434
161	0xbe97f1ef	-0.29676768
162	0xbf235db4	-0.63814855
163	0x3dd57c1b	0.10424062
164	0x3f05d428	0.5227685
165	0xbee0a7ee	-0.4387812
166	0x3ee7d340	0.45278358
167	0xbe27946c	-0.16365212
168	0xbf26e4a1	-0.6519261
169	0x3eaa4ad4	0.33260214
170	0x3ed4c8ee	0.41559547
171	0x3edd45a6	0.432172
172	0xbf03efc7	-0.51537746
173	0x3ea04131	0.31299737
174	0x3d851820	0.06498742
175	0x3e95217a	0.29127103
176	0xbe6ca93e	-0.23111436
177	0x3f2ae2c1	0.6675225
178	0x3e3a943e	0.18220612
179	0xbf2cf6a2	-0.6756383
180	0x3e86c3be	0.26321214
181	0xbb358488	-0.0027697403
182	0xbf2ddff7	-0.6791987
183	0x3e3cac4f	0.18425106
184	0x3f28aeb9	0.65891606
185	0xbea354de	-0.31900686
186	0xbeb6bd69	-0.35691383
187	0x3e9d7eff	0.30760953
188	0x3f0dd41a	0.55401766
189	0x3e8a8200	0.27052307
190	0xbe708ead	-0.23491926
191	0x3d384121	0.044983987
192	0xbeb6f93d	-0.3573703
193	0x3f2912bd	0.6604422
194	0xbea4e309	-0.32204464
195	0xbf0c11b2	-0.547145
196	0x3ee90dcf	0.45518348
197	0xbd28f630	-0.041250408
198	0xbf088500	-0.5332794
199	0xbf1c7f0d	-0.61131364
200	0x3e15d252	0.14631012
201	0xbf26fc5b	-0.65228814
202	0xbeb7f8c3	-0.35931978
203	0xbf0bbcab	-0.5458476
204	0x3e39abc8	0.18131936
205	0x3a796388	0.00095134275
206	0xbf25cd07	-0.6476597
207	0x3e9f09db	0.31062207
208	0x3edc46d7	0.43022797
209	0x3e2faaf5	0.17155059
210	0xbefecc96	-0.49765462
211	0xbdf7b622	-0.12095286
212	0x3e8e544a	0.27798682
213	0x3edfccb5	0.43710867
214	0xbf189d39	-0.596149
215	0x3f10dee8	0.5659013
216	0x3f1b7f49	0.60741097
217	0x3f04ffe1	0.5195294
218	0xbec08c9a	-0.3760727
219	0xbf053c92	-0.5204555
220	0x3ec6024d	0.3867363
221	0xbdf9434e	-0.121710405
222	0x3ca3d58a	0.019999284
223	0x3f0830eb	0.5319964
224	0x3e95b0ba	0.29236394
225	0xbf34165d	-0.70346624
226	0x3f15851b	0.5840623
227	0x3f0ab71d	0.5418566
228	0xbd6d3df0	-0.057920396
229	0xbe32403c	-0.17407316
230	0x3e94ab7d	0.29037085
231	0x3ea8b1b2	0.3294807
232	0xbf345845	-0.7044719
233	0x3ea92b16	0.33040684
234	0xbf292271	-0.6606818
235	0x3d4a3344	0.049365297
236	0x3e4c1d4c	0.19933051
237	0x3f324a29	0.6964441
238	0xbf207e12	-0.6269237
239	0xbe361079	-0.17779721
240	0x3ee645af	0.4497504
241	0xbbcbdc80	-0.006221354
242	0xbe89ff63	-0.26952657
243	0xbec2e728	-0.38066983
244	0x3e568579	0.20949353
245	0x3e3ee504	0.1864205
246	0xbf1b1b5b	-0.60588616
247	0xbf0dd06e	-0.55396163
248	0xbedefc18	-0.43551707
249	0x3ef926a8	0.48662305
250	0x3ed99493	0.42496166
251	0x3eb4412c	0.35205972
252	0x3ecdff36	0.40233773
253	0x3e693c24	0.22776848
254	0x3ef192d3	0.4718233
255	0x3e865f9c	0.2624482

Y_net.layer2.weight f4 [256, 256]
0	0xbb9aada8	-0.0047204085
1	0x3d23973b	0.039939146
2	0xbca30105	-0.019897947
3	0x3d1012e1	0.035174254
4	0x3d3ecfd7	0.04658493
5	0x3c0348a2	0.0080129225
6	0x3c2e52b9	0.01063984
7	0xbb9c00d5	-0.0047608414
8	0xbd3740ac	-0.04473941
9	0x3d347017	0.04405221
10	0xbd219120	-0.039445043
11	0x3ce9e369	0.02855082
12	0x3d49cdad	0.049268413
13	0xbcad5301	-0.021157743
14	0xbd55e18c	-0.05221705
15	0x3b2bf622	0.0026239236
16	0xbbbae8b2	-0.005704009
17	0xbd0f4d34	-0.034985736
18	0x3d553e05	0.0520611
19	0xbd52c350	-0.051455796
20	0xbca6ec65	-0.020376394
21	0x39a6a2ab	0.00031783184
22	0xbc20038b	-0.00976647
23	0xbd5f3b90	-0.054500163
24	0x3d0a0a91	0.033701483
25	0x3d2a7ca6	0.04162278
26	0x3c798104	0.015228514
27	0x3cc2a7ae	0.023761597
28	0x3d70d307	0.058795
29	0xbd0b3980	-0.033990383
30	0xbd80d316	-0.062902614
31	0x3d53dc6f	0.051723894
32	0xbb914760	-0.0044335574
33	0xbcb0a765	-0.021564195
34	0x3d9d43da	0.07678957
35	0xbc9abfa1	-0.018890204
36	0x3c8b4c75	0.017004231
37	0x3c05b95a	0.008161867
38	0xbd2b1c07	-0.041774776
39	0x3c71bd15	0.014754553
40	0x3c629c15	0.013831158
41	0x3b996ee1	0.0046824072
42	0x3bd00422	0.006348149
43	0xbd2a53fb	-0.041583996
44	0xbc04bb9f	-0.008101373
45	0xbbe967bf	-0.007122963
46	0x3d1d9710	0.038474143
47	0x3c74db43	0.014944854
48	0x3d17bab0	0.037043273
49	0x3d585a93	0.052820753
50	0x3d0ea7ec	0.03482811
51	0x3d15440e	0.036441855
52	0x3d66ae74	0.056318715
53	0x3cb4a3dd	0.022050792
54	0xbc74ba65	-0.014937018
55	0x3d1d7878	0.038444966
56	0x3d15f4d6	0.036610447
57	0x3c208b8b	0.009798895
58	0x3d3f8466	0.046757124
59	0xbcc273c6	-0.023736846
60	0xbd6a4265	-0.057192225
61	0x3cdd146c	0.026987277
62	0x3d84cc57	0.06484287
63	0x3d5fa9ba	0.054605223
64	0xbbf8f9c4	-0.0075981338
65	0x3d3e5f1d	0.046477426
66	0xbcd6e91b	-0.0262342
67	0x3ad6371e	0.001634333
68	0xbd309964	-0.043115035
69	0x3c192afc	0.009348627
70	0xbc423a9b	-0.011854793
71	0x3cb6f4d0	0.022333533
72	0x3bffb583	0.0078036203
73	0xbd1555c4	-0.036458746
74	0xbd2db4af	-0.04240864
75	0x3d1ce6ae	0.03830593
76	0x3cd92c09	0.026510255
77	0x3c689304	0.0141952075
78	0xbd52fc36	-0.05151006
79	0x3d5ffca6	0.054684304
80	0x3d63cca7	0.055615094
81	0xbd2a7f20	-0.041625142
82	0xbbc0262a	-0.0058639245
83	0x3cc57c7c	0.02410721
84	0xbd412dd7	-0.047162857
85	0x3d633395	0.055469114
86	0xbc8e565f	-0.01737517
87	0x3d726f79	0.05918834
88	0x3d66dbde	0.056362025
89	0xbd2894b5	-0.041157443
90	0x3b394a97	0.0028273219
91	0x3d3272ca	0.043566503
92	0xbd6ef75c	-0.05834137
93	0x3d06907e	0.032852642
94	0x3d8ab6ad	0.06773124
95	0xbc9dacba	-0.019247402
96	0xbd269383	-0.040668022
97	0xbd253a62	-0.04033888
98	0x3d376872	0.04477734
99	0xbd3b618b	-0.04574732
100	0xbd5345f3	-0.05158038
101	0x3d8337b1	0.06407107
102	0xbbf9d757	-0.0076245475
103	0xbcc40af9	-0.023931013
104	0x3d2f680d	0.04282384
105	0x3d6c4b19	0.057688806
106	0x3c420baa	0.011843601
107	0xbd136ae5	-0.035990614
108	0xbb7d6338	-0.0038663875
109	0x3c95fbdf	0.018308578
110	0x3d003bd7	0.031307068
111	0x3cd8a09c	0.026443772
112	0xbcbbc6bb	-0.02292191
113	0xbb3579e6	-0.0027691065
114	0x3c429bf0	0.011877999
115	0xbd600fbd	-0.05470251
116	0x3a2103d9	0.0006142236
117	0x3d753fac	0.059875175
118	0xbc29f675	-0.010373701
119	0xbd0eca0f	-0.034860667
120	0xbd0a0deb	-0.03370468
121	0x3cc43c94	0.023954667
122	0x3d66d7e6	0.05635824
123	0xbc5168a2	-0.012781294
124	0x3d4aadce	0.04948216
125	0x3c2de45d	0.010613528
126	0xbcad80a8	-0.021179512
127	0xbd1972ef	-0.037463125
128	0x3bf8eab6	0.007596339
129	0x3d7f31e1	0.062303428
130	0x3b29aeec	0.0025891615
131	0xbaf9ffcd	-0.0019073427
132	0x3d31e2b9	0.04342911
133	0xbd54e31e	-0.05197441
134	0xbd1fab88	-0.038981944
135	0xbc65e75e	-0.014032213
136	0x3d6f6a64	0.05845107
137	0xbc730237	-0.014832071
138	0x3bdcf851	0.006743469
139	0xbd601913	-0.054711413
140	0x3d0ce6b7	0.034399714
141	0x3c4c03ec	0.012452107
142	0xbcd9d994	-0.026593007
143	0x3d0daf52	0.034591027
144	0xbc98714c	-0.018608712
145	0xbcf31998	-0.02967529
146	0xbd5f885a	-0.054573394
147	0x3d4415ba	0.047872283
148	0xbcb18c52	-0.021673355
149	0xbc5b63aa	-0.013390461
150	0xbd4723e8	-0.048618227
151	0x3d7d120d	0.061784793
152	0x3d395e37	0.045255866
153	0x3c5907fb	0.013246532
154	0xbc2e671c	-0.0106447
155	0x3c904e30	0.017615408
156	0xbbe16b84	-0.006879272
157	0x3d32ef10	0.04368502
158	0xbc0c4796	-0.008561989
159	0xbb9c238d	-0.00476498
160	0xbb16a6ad	-0.002298753
161	0xbd2d2e85	-0.042280693
162	0xbc7bddaa	-0.015372673
163	0xbd36b0f3	-0.044602346
164	0xba1c7685	-0.00059685885
165	0x3d1c3c56	0.03814348
166	0xbd50112e	-0.050797634
167	0x3d2cf25e	0.042223327
168	0xbcf1e541	-0.029528262
169	0x3b005b53	0.0019585683
170	0xbcd9f8c0	-0.026607871
171	0x3d298bcf	0.041393097
172	0x3d2284f1	0.039677564
173	0x3caa788b	0.020809432
174	0x3c41b468	0.011822797
175	0x3ce3e45a	0.027818847
176	0xbcf10448	-0.029420987
177	0xbc42ec80	-0.011897206
178	0x3cb4478e	0.022006776
179	0xbcc182a0	-0.023621857
180	0x3ca9f898	0.020748422
181	0x3d4aa0a3	0.0494696
182	0x3d3c26eb	0.045935553
183	0x3d62f50c	0.055409476
184	0x3c9c535d	0.01908272
185	0xbd481b31	-0.048854057
186	0x3d569467	0.05238762
187	0xbd443456	-0.047901474
188	0x3ab47302	0.0013767185
189	0xbd589fd3	-0.052886795
190	0xbcafa97c	-0.021443121
191	0xbd2f63f5	-0.042819936
192	0xbd688fda	-0.056777813
193	0xbd4e0ff2	-0.050308175
194	0x3d5efca9	0.054440174
195	0xbc8ad5b2	-0.016947601
196	0x3d7538ba	0.05986855
197	0x3b639f36	0.0034732348
198	0xbcb57b32	-0.02215347
199	0x3d4e6ae0	0.050394893
200	0xbd3c608b	-0.045990508
201	0x3d429d11	0.04751307
202	0x3b6a9cca	0.003579902
203	0xbc9e224a	-0.01930346
204	0x3b631d0e	0.003465477
205	0x3a50a3bb	0.0007958968
206	0x3cd435fc	0.025904648
207	0x3d396512	0.045262404
208	0x3d7f3ab6	0.06231185
209	0x3cb3f724	0.021968432
210	0xbc42bed7	-0.01188632
211	0xbcae0900	-0.021244526
212	0x3ae1a290	0.0017214585
213	0xbd81a318	-0.06329936
214	0xbd69df80	-0.05709791
215	0xbd6e5dbe	-0.05819487
216	0x3c9fa505	0.019487867
217	0x3d632a20	0.055460095
218	0x3c8d81e9	0.01727386
219	0xbbd06fe9	-0.006360997
220	0xbd456e50	-0.048200905
221	0x3b128f35	0.002236319
222	0xbccd5be1	-0.025068225
223	0x3d065fce	0.03280621
224	0xba0442f5	-0.0005045378
225	0xbd6d85c9	-0.057988916
226	0x3cc422a7	0.023942305
227	0xbd1b0d00	-0.037854195
228	0xbc95efe1	-0.01830286
229	0x3d63764e	0.055532746
230	0x3d1439de	0.036188
231	0xbc6596ec	-0.014013033
232	0x3c0f2607	0.008737094
233	0x3d5b2478	0.053501576
234	0xbc9f925a	-0.019478966
235	0x3d258445	0.040409345
236	0xbc45087c	-0.012025949
237	0x3d4ccf99	0.050002668
238	0xbd191f82	-0.037383564
239	0xbd3ed962	-0.04659403
240	0xbd4f7802	-0.050651558
241	0xbc8fe698	-0.01756601
242	0x3bfcd8ef	0.00771629
243	0x3bda1e1e	0.0066564223
244	0xbd033746	-0.032035135
245	0x3c0f554b	0.008748363
246	0xbb6a5972	-0.003575888
247	0x3d6abdb7	0.057309832
248	0x3d0f3e3e	0.03497147
249	0xbd5165ef	-0.051122602
250	0xbd25315a	-0.04033027
251	0x3d2e2e84	0.04252483
252	0xbd6e2ca0	-0.058148026
253	0x3ccc1f05	0.024917135
254	0x3d2082d0	0.039187253
255	0x3d12f007	0.03587344

Y_net.layer2.bias f4 [256]
0	0x3d41e769	0.04733983
1	0x3d21b684	0.0394807
2	0xbc730720	-0.014833242
3	0x3cac98e1	0.021068992
4	0x3d3b861c	0.045782194
5	0x3d565c08	0.05233386
6	0xbd074248	-0.033022195
7	0x3bbd0e98	0.005769562
8	0xbd027e4f	-0.03185874
9	0xbd511102	-0.05104161
10	0xbab6e90c	-0.0013954951
11	0xbbd89215	-0.006609211
12	0x3cda3b7c	0.026639692
13	0xbd297e33	-0.04138012
14	0xbd64bb4a	-0.055842675
15	0x3c0feed2	0.008784967
16	0x3ccd0639	0.025027381
17	0xbd2ffa3d	-0.042963255
18	0xba8d2cb5	-0.001077077
19	0x3d5b620f	0.053560313
20	0x3cb3fbb2	0.021970604
21	0xba9f900f	-0.001217367
22	0x3cd76878	0.026294932
23	0xbd151e45	-0.03640582
24	0xbc3da3ff	-0.011574744
25	0x3c8f0407	0.017457975
26	0x3c8b60a8	0.017013863
27	0xbda9ef2c	-0.082975715
28	0x3d1e2966	0.0386137
29	0x3cb461b7	0.02201925
30	0xb8f2ddd9	-0.000115807816
31	0x3c8e8ff0	0.01740262
32	0x3d6dd015	0.05805977
33	0x3d546bd7	0.051860657
34	0xbc425417	-0.011860869
35	0x3bcf517c	0.0063268524
36	0x3d70a196	0.05874785
37	0x3c214f6d	0.009845597
38	0x3d4085f2	0.04700274
39	0xbd5e8ca7	-0.054333355
40	0xbbc4dc3c	-0.0060076993
41	0x3d18148e	0.037128977
42	0x3b96fb49	0.0046075922
43	0xba847492	-0.0010105541
44	0x3d8c4dd1	0.0685078
45	0x3b851fa0	0.004062608
46	0xbcd8dd30	-0.026472658
47	0xbb899188	-0.004198257
48	0xbd11c508	-0.035588294
49	0x3d19deb8	0.037565917
50	0xbb0d8761	-0.0021595585
51	0x3cc88c90	0.024481088
52	0xbd76eda2	-0.060285218
53	0xbb1bb2bb	-0.0023757655
54	0x3c9257f2	0.017864201
55	0x3b6ccfef	0.003613468
56	0xb94b371e	-0.00019380121
57	0x3c86e38e	0.016465928
58	0x3c9ad73c	0.01890146
59	0xbc829fda	-0.015945364
60	0x3d283dc5	0.041074533
61	0xbd3ea0e9	-0.046540175
62	0xbc4c325a	-0.012463177
63	0xbcdc9ea5	-0.026931116
64	0xbd2b61c8	-0.0418413
65	0xbce624a6	-0.028093647
66	0x3d4ee2c4	0.05050923
67	0x3ce40d0e	0.027838256
68	0xbb41aee3	-0.0029553703
69	0x3cbe9648	0.023265019
70	0xbd157806	-0.036491416
71	0xbcac7f10	-0.021056682
72	0xbd442816	-0.04788979
73	0xbd495994	-0.049157694
74	0x3c8cb217	0.017174764
75	0x3c1218ba	0.008917028
76	0xbd4405b2	-0.047856994
77	0xbd800f35	-0.062529005
78	0xbcd5fd66	-0.026121806
79	0x3d3d770e	0.046256118
80	0xbd7c54a0	-0.061604142
81	0x39888033	0.00026035457
82	0x3d2afc7b	0.04174469
83	0xbd1563c0	-0.036472082
84	0xbd1b3bd7	-0.037898865
85	0x3c4aaf00	0.012370825
86	0xbd13edd8	-0.036115497
87	0xbc8845ec	-0.016634904
88	0xbc211db8	-0.009833746
89	0xbc0e1db9	-0.008674079
90	0x3d2e4953	0.042550396
91	0x3c225ca7	0.009909785
92	0xbd4e340f	-0.050342616
93	0xbd2d4305	-0.042300243
94	0xbcde6020	-0.027145445
95	0xbd16c605	-0.03680994
96	0x3c4671cb	0.012112091
97	0xbd020050	-0.03173858
98	0xbcadec58	-0.021230862
99	0xbd66eea1	-0.056379918
100	0xbd2e4d77	-0.042554345
101	0xbd39b09c	-0.045334443
102	0xbd5ed129	-0.05439869
103	0xbd7ae683	-0.06125499
104	0xbd61a1cd	-0.055085946
105	0x3d4963a0	0.049167275
106	0xbc267ac4	-0.010161106
107	0xbcb74178	-0.022370085
108	0xbc87146a	-0.016489226
109	0x3da5ee41	0.08102084
110	0x3d2e8bdd	0.042613853
111	0x3d06e8bf	0.032936808
112	0xbd1c0ffe	-0.03810119
113	0xbd350e42	-0.04420305
114	0x3ca348a5	0.0199321
115	0xbd4bdf6b	-0.049773615
116	0x3d778076	0.060425244
117	0xbd49d16c	-0.049271986
118	0x3c9130b6	0.017723422
119	0xbd7ba7c6	-0.061439298
120	0x3c4c589c	0.012472298
121	0x3bbf7758	0.0058430843
122	0x3bf3ea1d	0.00744368
123	0x3a23a90b	0.0006243146
124	0x3d89f0c5	0.06735376
125	0xbd8bb3ae	-0.068213806
126	0x3ceff3c0	0.029291034
127	0x3da07232	0.07834281
128	0xbc871f24	-0.016494341
129	0xbcd1fd68	-0.025633529
130	0xbd81d651	-0.06339706
131	0xbd7e48a2	-0.062080987
132	0xbbe68858	-0.0070352964
133	0xbd3ded45	-0.046368856
134	0x3d28d1a4	0.041215554
135	0x3d0f5bfc	0.034999833
136	0xbc970218	-0.018433616
137	0xbc9df6c1	-0.0192827
138	0x3c09f090	0.008419171
139	0x3d4c59ce	0.049890332
140	0x3d5a481b	0.05329142
141	0xbd1d820b	-0.038454097
142	0xbb6290ba	-0.0034571127
143	0x3d280994	0.04102476
144	0x3c94b802	0.018154148
145	0xbcdf2eaa	-0.02724393
146	0xbc6a2c00	-0.014292717
147	0xbb9c01dc	-0.004760964
148	0x3d7e8cb4	0.062145904
149	0x3c31a8c4	0.0108434595
150	0xbd143a1d	-0.036188234
151	0x3c4a8873	0.012361634
152	0x3cb8732d	0.022515858
153	0x3bcc655b	0.0062376685
154	0xbc948674	-0.018130518
155	0xbd24f193	-0.040269446
156	0xbd3cf310	-0.04613024
157	0x3d4c8a17	0.04993638
158	0xbce19186	-0.027535211
159	0x3d59336c	0.053027555
160	0x3c83aadb	0.016072681
161	0x3d50db0d	0.050990153
162	0x3bb1ece2	0.00542985
163	0xbc9943d0	-0.018709093
164	0x3d1582e4	0.03650178
165	0x3ce936c0	0.02846849
166	0xbcd88cc3	-0.026434308
167	0xbba38f80	-0.004991472
168	0xbc07f338	-0.008297734
169	0xbc83c16f	-0.016083447
170	0xbcc72701	-0.02431059
171	0xbd46116a	-0.04835645
172	0xbca5f008	-0.020256057
173	0xbd07b682	-0.033133037
174	0xbd12feed	-0.035887647
175	0xbdd3271c	-0.10310194
176	0xbca9f024	-0.02074439
177	0x3d0c78aa	0.03429476
178	0x3d127fdd	0.03576647
179	0xbcbd9e08	-0.023146644
180	0x3c5e2c14	0.013560314
181	0x3d0fa8d8	0.03507313
182	0x3d775c7e	0.06039094
183	0x3ccc9d13	0.024977243
184	0x3d37d892	0.044884272
185	0x3c363630	0.011121318
186	0xbcfb3dd7	-0.030669136
187	0xbd024766	-0.031806372
188	0xbd89d14b	-0.067293726
189	0x3c5a5fb9	0.013328486
190	0x3c71b0cf	0.014751627
191	0xbd734450	-0.05939132
192	0x3d8703aa	0.06592496
193	0x3d524ba7	0.05134168
194	0xbca1b5f0	-0.019740075
195	0x3bda8e4b	0.0066697947
196	0x3d066dc2	0.032819517
197	0x3dc2252b	0.094797455
198	0x3b2afe69	0.0026091582
199	0xbc3676b2	-0.011136698
200	0xbd706298	-0.058687776
201	0xbd83fe3a	-0.06444974
202	0x3cb7dd48	0.022444382
203	0x3c3cc80c	0.011522304
204	0xbd84784b	-0.064682566
205	0x3d0d8553	0.034550976
206	0x3c26fba8	0.010191835
207	0x3d239534	0.039937213
208	0xbd51ce70	-0.051222265
209	0x3cb3b372	0.021936152
210	0x3d4c31e4	0.049852267
211	0xbb313d3b	-0.0027044553
212	0x3d06f708	0.03295043
213	0x3cb0751b	0.021540215
214	0xbd4dddf5	-0.050260503
215	0x3d9d6814	0.07685867
216	0xbcacb8a8	-0.021084145
217	0x3d6a74dc	0.057240352
218	0x3beb79cc	0.00718615
219	0xbd13c063	-0.036072146
220	0xbca55c6e	-0.020185675
221	0x3d1db59d	0.038503278
222	0xbd4c7cb0	-0.0499236
223	0xbd0e648a	-0.03476385
224	0xbd0fb97b	-0.035088997
225	0x3d57ea86	0.052713893
226	0xbd7e6ce2	-0.062115557
227	0x3d0dccb8	0.034619063
228	0xbc2f7cc0	-0.010710895
229	0x3cf175d8	0.029475138
230	0xbbaa3499	-0.0051942584
231	0xbc6fc50b	-0.014634381
232	0xbd634150	-0.05548221
233	0x3d2a157b	0.04152439
234	0xbd22e453	-0.03976853
235	0xbd359ad4	-0.04433711
236	0xbd620e94	-0.055189684
237	0xbc7bd5d2	-0.015370803
238	0x3cae1a60	0.021252811
239	0x3d0ca3ab	0.034335773
240	0x3d063c1d	0.032772172
241	0x3d887bf3	0.066642664
242	0x3cd4b4bb	0.025965085
243	0x3ce8dda1	0.028425993
244	0xbcb01bb1	-0.02149758
245	0x3d5ce769	0.053931627
246	0x3d8fcaf3	0.07021131
247	0xbd208d51	-0.03919727
248	0xbcfbd256	-0.030739944
249	0xbd30a3ca	-0.04312495
250	0xbc8a048e	-0.016847875
251	0xbce92f78	-0.028465018
252	0x3d0dd636	0.034628116
253	0xbc77981d	-0.01511195
254	0x3ccce197	0.025009913
255	0xbca3ceb3	-0.019996023

Y_net.layer2_input.weight f4 [256, 2]
0	0xbdc1a61e	-0.094555125
1	0x3ec482d7	0.38381073
2	0xbed481ad	-0.41505185
3	0xbe22dddd	-0.15904947
4	0xbecac610	-0.39604235
5	0xbf226b11	-0.6344462
6	0xbd6f0539	-0.05835459
7	0x3e8a9e54	0.2707392
8	0xbf2bcdc6	-0.6711086
9	0x3eff71f7	0.49891636
10	0x3f0220c5	0.5083125
11	0xbe37e793	-0.17959432
12	0xbf072b83	-0.5280077
13	0xbe02f89c	-0.1279015
14	0x3ea7060f	0.3262181
15	0x3e3a6ee7	0.18206368
16	0xbea75c13	-0.32687435
17	0xbeff1cb5	-0.4982659
18	0x3ed5db62	0.41768938
19	0x3f01dfcf	0.5073213
20	0xbeff1bdd	-0.49825945
21	0xbf096571	-0.5367041
22	0xbefba55d	-0.491496
23	0xbe0a99c1	-0.13535215
24	0x3e5320da	0.20618
25	0x3f2de698	0.67929983
26	0xbe413872	-0.18869188
27	0xbf22b578	-0.6355815
28	0x3e8f27f3	0.27960166
29	0xbe9ffa6b	-0.3124574
30	0xbe26d1ec	-0.16291016
31	0x3e8054a0	0.25064564
32	0x3df44ba9	0.119284935
33	0xbf00ebad	-0.5035961
34	0xbd79a66e	-0.060949735
35	0xbec7b0d8	-0.3900211
36	0x3f0d0497	0.5508513
37	0x3eb4daf2	0.35323292
38	0xbe2e20ce	-0.17004701
39	0x3ed859c6	0.42255992
40	0x3e9c6a6f	0.30549952
41	0xbf11db61	-0.5697537
42	0x3e4a30a1	0.19745113
43	0x3ed4d0a5	0.41565433
44	0x3e9bd2db	0.30434307
45	0xbeffef3d	-0.49987212
46	0xbe06d808	-0.13168347
47	0x3ef006f4	0.46880305
48	0xbf2b6c4f	-0.6696214
49	0x3f172aa7	0.5904946
50	0x3eb2aa3d	0.34895507
51	0xbea6ee46	-0.32603663
52	0xbeb062fa	-0.34450513
53	0xbe9d4769	-0.30718544
54	0x3e168ae8	0.14701426
55	0xbf01d13b	-0.50709885
56	0xbe6a4f50	-0.22881818
57	0xbf241783	-0.64098376
58	0x3f1fb8e4	0.62391496
59	0xbe89a0ca	-0.26880485
60	0x3eaeff20	0.3417902
61	0x3f0d0795	0.55089694
62	0x3f09d375	0.5383828
63	0xbeebfcd6	-0.46091336
64	0x3e2b6268	0.16736758
65	0x3ee9e7d8	0.45684695
66	0x3eef4a57	0.46736404
67	0x3eb7b412	0.3587957
68	0x3d1cc806	0.038276695
69	0xbe0f5792	-0.13998249
70	0x3ee95b38	0.45577407
71	0xbed9309a	-0.42419893
72	0x3ebc1954	0.36738074
73	0xbe5a606e	-0.21325848
74	0xbd93a690	-0.07209504
75	0x3ef806d1	0.484427
76	0x3d32001c	0.043457136
77	0xbeb2ade6	-0.348983
78	0x3f2b4fe5	0.66918784
79	0x3f21db26	0.6322502
80	0xbeaa023c	-0.3320483
81	0xbe5aa059	-0.2135023
82	0xbf0255d5	-0.5091222
83	0xbe2f55db	-0.17122595
84	0xbf0371dd	-0.51345617
85	0xbec19f52	-0.37816864
86	0x3e96272a	0.29326755
87	0x3e92f9be	0.28706163
88	0xbde70f65	-0.11282233
89	0xbf2b27e6	-0.66857755
90	0xbd1b7c20	-0.03796017
91	0xbd594a20	-0.053049207
92	0xbeabdfdd	-0.33569232
93	0x3dfaa120	0.122377634
94	0x3ef27992	0.47358376
95	0x3e175b54	0.14780933
96	0xbed90915	-0.42389742
97	0x3ea4f142	0.32215315
98	0x3eeea371	0.4660907
99	0x3f1e8f0f	0.6193704
100	0xbe6a181c	-0.2286076
101	0x3e95ec6c	0.29281938
102	0x3ebb1878	0.36542106
103	0x3e66244a	0.2247478
104	0x3eda4761	0.42632583
105	0x3ec53553	0.38517246
106	0x3e23b5eb	0.15987365
107	0xbf1b8f66	-0.60765684
108	0xbee123ed	-0.43972722
109	0x3e909587	0.2823908
110	0xbe10c3a8	-0.14137137
111	0xbf1a2d50	-0.6022539
112	0x3e0496ac	0.12948102
113	0xbdb1a390	-0.08673775
114	0xbe1dd28e	-0.15412351
115	0x3f20c534	0.6280091
116	0xbe6f721e	-0.23383376
117	0xbf12e81a	-0.5738541
118	0xbe41d9da	-0.1893076
119	0xbdf9fc05	-0.12206272
120	0x3d15bf3b	0.036559325
121	0x3f12e14d	0.5737503
122	0x3f0dab66	0.5533966
123	0xbe88ccf6	-0.26718873
124	0xbed7d4d7	-0.4215457
125	0x3e1e0c66	0.15434417
126	0x3f333ef6	0.70017946
127	0xbec562ed	-0.38552037
128	0xbf2aa82f	-0.6666288
129	0x3d1af7d0	0.03783399
130	0x3e863ec8	0.26219773
131	0x3f089eb1	0.53367144
132	0x3e4603f9	0.19337453
133	0xbcb4f6c0	-0.022090316
134	0x3ed6b0dd	0.4193181
135	0x3e295105	0.16534813
136	0x3e5db17b	0.21649735
137	0x3f066fd4	0.52514386
138	0x3d7a8279	0.061159585
139	0x3f1cd90b	0.6126868
140	0xbeb4b76f	-0.352962
141	0xbe6dd096	-0.232241
142	0x3e140d2c	0.1445815
143	0xbdac4af8	-0.08412737
144	0xbec43cda	-0.38327676
145	0x3dd238f8	0.10264772
146	0xbddf50b3	-0.10904064
147	0x3f1bd4f2	0.60871804
148	0xbd0e803d	-0.034790266
149	0x3f073bbd	0.5282553
150	0xbc2b71ef	-0.010464176
151	0xbf1b08e7	-0.6056046
152	0x3f1ee4bc	0.6206777
153	0xbe6c6ae5	-0.23087652
154	0x3ef75ddf	0.48313805
155	0xbf21cb85	-0.6320117
156	0xbddae771	-0.10688675
157	0x3f013000	0.5046387
158	0xbf1d13e6	-0.6135849
159	0xbe44a920	-0.19205141
160	0x3ba2c1d5	0.0049669542
161	0xbe28779b	-0.16451876
162	0x3f17479e	0.59093654
163	0x3c911c2f	0.017713634
164	0xbdc38a2c	-0.095478386
165	0xbf0bc218	-0.5459304
166	0xbec169c0	-0.37775993
167	0xbeb206d5	-0.34770837
168	0x3f21dfcf	0.6323213
169	0xbf1b2db4	-0.6061661
170	0xbd7a1070	-0.061050832
171	0xbe626246	-0.22107801
172	0xbd170c90	-0.036877215
173	0xbf265b5f	-0.6498317
174	0xbf05982b	-0.52185315
175	0x3d1bb3b0	0.03801316
176	0xbe049bdc	-0.1295008
177	0x3e0108d4	0.12601024
178	0xbec9e151	-0.39429715
179	0xbf2352d6	-0.6379827
180	0xbf171b23	-0.5902578
181	0xbf19c6bf	-0.6006889
182	0xbe0b10ab	-0.13580577
183	0x3c911ebc	0.01771485
184	0x3ee7107c	0.45129764
185	0xbd481c27	-0.048854973
186	0x3f18de16	0.59713876
187	0xbe7b3c3a	-0.24534693
188	0x3d144e30	0.036207378
189	0x3f2af983	0.66786975
190	0xbe62e0fc	-0.22156137
191	0xbf073131	-0.52809435
192	0x3cc7516a	0.024330813
193	0xbf1e6c7b	-0.6188428
194	0x3f0188b8	0.5059924
195	0x3ec85f07	0.39135
196	0x3f1b4154	0.6064656
197	0xbe6c8f48	-0.23101532
198	0xbe51a561	-0.20473243
199	0xbf0616e4	-0.5237868
200	0x3f27ca8a	0.65543425
201	0xbf11ec4e	-0.570012
202	0xbe951077	-0.29114124
203	0xbe4f3204	-0.20233923
204	0xbec090ca	-0.37610465
205	0x3e30e7aa	0.17275873
206	0xbf0b5534	-0.54426885
207	0xbd8dabbe	-0.06917523
208	0xbe52eadf	-0.20597409
209	0x3efb7731	0.49114373
210	0xbe881f7b	-0.26586518
211	0xbefb7e3a	-0.4911974
212	0x3eeb3911	0.45941976
213	0xbe9a3279	-0.30116633
214	0x3f303486	0.68830144
215	0xbe7595d9	-0.23982944
216	0xbe67999c	-0.22617191
217	0xbefd84ed	-0.49515477
218	0x3f0ca52f	0.5493955
219	0xbf2a78b0	-0.66590405
220	0x3ea3377b	0.31878266
221	0xbeed97f4	-0.46404994
222	0xbf0ba6ee	-0.5455159
223	0x3f1ac4ef	0.60456747
224	0xbf1c7062	-0.6110898
225	0x3a3c6c00	0.0007187724
226	0x3ea50aff	0.32234952
227	0x3ecf0281	0.40431598
228	0x3edcd51e	0.43131346
229	0xbf0e1d92	-0.5551387
230	0xbeb492bb	-0.35268196
231	0xbf31feee	-0.69529617
232	0x3f26314a	0.6491896
233	0x3edb3111	0.42810872
234	0xbe8d4bc8	-0.2759688
235	0x3dba7f0d	0.09106264
236	0xbe79db2a	-0.2440001
237	0xbf056a7b	-0.521156
238	0x3ebf70ce	0.3739075
239	0x3f094cdf	0.5363292
240	0x3ed002b4	0.40627062
241	0xbe598119	-0.21240653
242	0x3e50b7b6	0.2038258
243	0xbebc9643	-0.3683339
244	0xbd933025	-0.07186917
245	0x3e6a80e2	0.22900727
246	0x3effb9f6	0.49946564
247	0xbf112d53	-0.56709784
248	0xbe333dec	-0.1750409
249	0xbf10f7e4	-0.5662825
250	0xbefc0ecc	-0.4923004
251	0x3e31a4d0	0.17348027
252	0x3ed36018	0.4128425
253	0x3ebfdc9d	0.37473002
254	0xbf306053	-0.6889698
255	0x3eacba25	0.33735767

Y_net.layer2_input.bias f4 [256]
0	0x3e96ef4a	0.29479438
1	0x3f066eee	0.52513015
2	0x3ef0e097	0.47046348
3	0xbf141c45	-0.57855636
4	0x3e87348b	0.26407275
5	0xbf3040bf	-0.68848795
6	0xbeb3e164	-0.35132897
7	0xbe991e1c	-0.29905784
8	0xbe904145	-0.28174797
9	0xbf295465	-0.661444
10	0xbe863e65	-0.26219478
11	0x3dd16e2c	0.10226092
12	0x3e6a9ea2	0.22912076
13	0x3e91cc5f	0.28476235
14	0xbdf80012	-0.121093884
15	0xbdaf4eb5	-0.08559934
16	0xbf35dbad	-0.71038324
17	0xbdc05c26	-0.09392576
18	0x3d6bb4eb	0.057545584
19	0x3f321830	0.6956816
20	0xbe3a1ee7	-0.18175851
21	0xbda8c60f	-0.08240902
22	0xbf241a02	-0.64102185
23	0x3e22460f	0.15847038
24	0x3f2c4789	0.67296654
25	0x3ef67310	0.4813466
26	0xbf25aadb	-0.6471383
27	0xbee24409	-0.44192532
28	0xbf2821ff	-0.65676874
29	0x3d06a034	0.032867625
30	0x3f0f3f1b	0.55955666
31	0x3df300cb	0.118653856
32	0x3e07cd94	0.13262016
33	0xbe618730	-0.22024226
34	0x3e4ef220	0.20209551
35	0x3eee0ee3	0.46495733
36	0xbdce9914	-0.10087791
37	0xbe2009c1	-0.15628721
38	0x3ec71b33	0.3888794
39	0xbf1c0335	-0.60942394
40	0x3f0d5228	0.55203485
41	0x3dd2532c	0.1026977
42	0x3c53752b	0.012906353
43	0xbe5bd3b4	-0.21467477
44	0xbc95f9b3	-0.018307542
45	0xbe376944	-0.1791125
46	0x3e8f7d70	0.2802539
47	0xbec80a6a	-0.39070445
48	0x3ebce540	0.36893654
49	0xbf1fb91c	-0.6239183
50	0xbe810e4c	-0.2520622
51	0x3ea0322e	0.31288284
52	0x3f2e2a25	0.6803306
53	0x3ea28951	0.3174539
54	0xbd139107	-0.03602698
55	0x3f01b10a	0.50660765
56	0x3d14c535	0.036320884
57	0x3ec9e171	0.3942981
58	0xbefe0fd0	-0.4962144
59	0x3edafcec	0.4277109
60	0x3f0aa666	0.54160154
61	0x3f05000d	0.519532
62	0xbe292a5a	-0.16520062
63	0xbd65e0d1	-0.056122605
64	0xbe10897c	-0.14114946
65	0x3e6b36c4	0.2297011
66	0x3ecb6432	0.3972488
67	0xbe0481f2	-0.12940195
68	0x3e575d75	0.21031745
69	0xbebc7566	-0.36808318
70	0xbed586e9	-0.4170449
71	0xbe1095d0	-0.14119649
72	0xbe0db068	-0.13836825
73	0xbda14e3c	-0.0787625
74	0xbd9dc98e	-0.07704459
75	0xbe5833f7	-0.21113573
76	0xbe31c7cc	-0.17361373
77	0x3f032f2d	0.5124386
78	0xbe9b5b16	-0.3034293
79	0xbf304469	-0.68854386
80	0x3e8a023b	0.26954827
81	0xbf02c09f	-0.51075166
82	0x3f0a6bf7	0.5407099
83	0xbf0b0b3e	-0.5431403
84	0xbf2e4d4a	-0.68086684
85	0xbe8bd46b	-0.273105
86	0x3f1a7b80	0.60344696
87	0xbf29869d	-0.6622103
88	0xbee6130b	-0.44936404
89	0x3ee4ed1a	0.44712144
90	0x3df27314	0.11838356
91	0x3ee0ff63	0.43944845
92	0x3f011e1f	0.50436586
93	0xbe1794bd	-0.14802833
94	0x3dc39464	0.09549788
95	0x3ec4669b	0.38359532
96	0x3e12b167	0.14325486
97	0xbc373afe	-0.011183498
98	0x3e334744	0.17507654
99	0x3e2c78dd	0.1684298
100	0x3f24d02c	0.64380145
101	0xbf08bb71	-0.5341101
102	0x3f001468	0.5003114
103	0x3f2a6b7a	0.66570246
104	0xbcf7257e	-0.030169245
105	0xbf280724	-0.65635896
106	0xbe18df97	-0.14929043
107	0xbf1191c3	-0.5686304
108	0xbe64dfa9	-0.22350945
109	0xbecfac55	-0.40561166
110	0x3e6446de	0.22292659
111	0xbe2166d0	-0.15761876
112	0xbea9636c	-0.33083665
113	0xbedb1b4f	-0.42794272
114	0x3e13698e	0.14395735
115	0x3eeb984f	0.4601464
116	0xbf06a2dc	-0.52592254
117	0x3ea3d25f	0.31996438
118	0xbea9a933	-0.331369
119	0xbf04868e	-0.51767814
120	0x3d55e8ad	0.05222385
121	0x3e276be7	0.16349755
122	0x3ecb4897	0.3970382
123	0xbc7a5b33	-0.015280533
124	0xbe0d36d1	-0.13790442
125	0x3e6bfa25	0.23044641
126	0xbe474ee0	-0.19463682
127	0x3e932a47	0.28743193
128	0xbee8a233	-0.45436248
129	0x3f290616	0.6602491
130	0x3e98b76f	0.2982745
131	0xbeaa38cb	-0.33246455
132	0x3f1f2056	0.62158716
133	0xbd15490c	-0.036446616
134	0xbdfa4558	-0.122202575
135	0xbeccc766	-0.3999588
136	0xbee6e850	-0.45099115
137	0x3d3818a9	0.044945393
138	0xbefe5f61	-0.49682143
139	0xbea031e6	-0.3128807
140	0xbf0e3813	-0.5555431
141	0xbe789b08	-0.2427789
142	0xbd8a498d	-0.0675231
143	0x3dfde55d	0.12397263
144	0xbe25c3bc	-0.16187948
145	0xbf0032fb	-0.5007779
146	0xbec8001f	-0.39062592
147	0xbee4f045	-0.4471456
148	0xbec34cb1	-0.38144448
149	0xbec2c708	-0.38042474
150	0xbdb03f74	-0.08605853
151	0x3eb285b3	0.3486763
152	0xbe0c0ba4	-0.13676316
153	0xbea1b818	-0.31585765
154	0xbf0c663d	-0.54843503
155	0xbe11fa4e	-0.1425564
156	0x3ed7ff3d	0.4218692
157	0x3f029c3b	0.5101964
158	0xbf02932c	-0.51005816
159	0xbe15dcd7	-0.14635025
160	0x3e36d314	0.17853957
161	0xbec2e1f6	-0.3806302
162	0x3f00e88a	0.50354826
163	0xbed4dd4b	-0.41575083
164	0x3d065be4	0.032802477
165	0xbb1a6d38	-0.0023563635
166	0x3dfeaac8	0.12434918
167	0xbf295587	-0.6614613
168	0x3f262304	0.6489718
169	0xbee67d73	-0.45017585
170	0xbf019612	-0.50619614
171	0x3dfc5728	0.12321311
172	0x3ef76493	0.4831892
173	0xbe03ae91	-0.1285956
174	0xbe20ab1c	-0.15690273
175	0x3ea0bbc0	0.31393242
176	0x3d5a6303	0.05331708
177	0xbf341aad	-0.70353204
178	0x3e9d2764	0.30694115
179	0x3cfdf3a3	0.030999964
180	0xbf1a44c8	-0.602612
181	0x3f13375d	0.5750635
182	0xbf32b231	-0.6980315
183	0xbe382104	-0.17981344
184	0x3d637162	0.055528052
185	0xbebd9e11	-0.37034658
186	0x3e5a4499	0.2131523
187	0x3f0ac9c1	0.542141
188	0xbd23b877	-0.03997084
189	0xbf2f9c9a	-0.6859833
190	0x3da06a7e	0.07832812
191	0x3ee7c414	0.45266783
192	0x3da67757	0.08128231
193	0x3f35000c	0.70703197
194	0x3f191d90	0.59810734
195	0x3e94b937	0.29047558
196	0x3df51cc1	0.11968375
197	0xbed3e7bb	-0.41387734
198	0x3e466861	0.19375755
199	0x3f094a88	0.5362935
200	0x3eddfefa	0.43358594
201	0x3f07df50	0.5307512
202	0x3f210a0c	0.62905955
203	0x3eb9f86c	0.36322343
204	0xbeea6f95	-0.45788255
205	0x3ebb48e8	0.3657906
206	0xbf285219	-0.6575027
207	0x3ec775d7	0.38957092
208	0xbd22ef60	-0.039779067
209	0xbd8163f8	-0.06317896
210	0xbee0e2fd	-0.43923178
211	0x3f0978b2	0.5369979
212	0x3d252bc8	0.040324956
213	0xbe27fe85	-0.16405685
214	0x3f177c8f	0.59174436
215	0xbe84f43a	-0.2596758
216	0x3edba438	0.42898726
217	0x3e525014	0.2053836
218	0x3ef66b90	0.4812894
219	0x3ea2384f	0.31683585
220	0x3f0f24ae	0.55915344
221	0xbbb291cd	-0.0054495097
222	0x3e435d70	0.19078612
223	0xbebf8989	-0.37409618
224	0x3f0c3a6e	0.54776657
225	0xbe977554	-0.29581702
226	0x3f19e97b	0.6012189
227	0xbeeea99b	-0.46613774
228	0xbe806395	-0.25075975
229	0x3e74cb69	0.2390572
230	0x3f2edef7	0.6830897
231	0x3e6480b6	0.22314724
232	0x3d8faa1e	0.07014869
233	0x3d638e69	0.055555735
234	0x3f088a1f	0.53335756
235	0xbe2d4261	-0.16919853
236	0xbd8962a7	-0.067082696
237	0x3d1cb75a	0.038260795
238	0xbea407b1	-0.32037118
239	0xbd300672	-0.042974897
240	0x3ea321ac	0.31861627
241	0x3ebbd617	0.36686775
242	0xbedf74bc	-0.4364375
243	0x3e50aae0	0.20377684
244	0x3e80dbe5	0.25167766
245	0x3ef40504	0.47660077
246	0xbeee8087	-0.46582434
247	0x3d83fcdd	0.06444714
248	0x3ec1ce27	0.37852594
249	0x3ebde020	0.37085056
250	0x3c9d9c8f	0.019239692
251	0xbdbebfba	-0.09313913
252	0x3e39a804	0.18130499
253	0x3f2e16d9	0.6800361
254	0xbef60da8	-0.48057294
255	0x3eb4120f	0.35170028

Y_net.layer3.weight f4 [256, 256]
0	0x3b4f11a3	0.0031596206
1	0x3cdbcc64	0.02683086
2	0xbc12be7c	-0.008956548
3	0x3c822d7e	0.015890833
4	0xbcf1f38b	-0.029535076
5	0xbd11962c	-0.035543606
6	0x3d552ea6	0.05204644
7	0x3b4c2692	0.003115092
8	0xbd2864a5	-0.041111607
9	0x3cb1fd38	0.02172719
10	0xbcea99ee	-0.028637853
11	0xbcac4750	-0.021030098
12	0x3d54662c	0.05185525
13	0x3c116e35	0.008876373
14	0x3bf0fd51	0.0073544164
15	0xbcfca6c5	-0.03084124
16	0x3d34ca6a	0.04413835
17	0x3d1abb48	0.03777626
18	0xbca87a0f	-0.020566015
19	0xbd3517a1	-0.044211987
20	0xbda35206	-0.07974629
21	0xbbafeb50	-0.0053686276
22	0xbd66d096	-0.056351267
23	0x3d253882	0.040337093
24	0xbc3a710c	-0.011379492
25	0x3d1a43f6	0.03766247
26	0xbcc49962	-0.02399892
27	0xbcef0026	-0.029174875
28	0x383df94e	4.5293295e-05
29	0xbd5ac4cf	-0.053410348
30	0xbd6369bc	-0.055520758
31	0xbd060641	-0.032720808
32	0x3ce15cc7	0.02751006
33	0xbc15576b	-0.00911508
34	0x3cd70861	0.026249113
35	0x3d831b4d	0.064016916
36	0x3a921952	0.0011146462
37	0xbd0756da	-0.033041812
38	0x3d54d928	0.05196491
39	0x3cc12418	0.023576781
40	0x3d00baf7	0.031428304
41	0x3d355587	0.04427102
42	0x3c859ac3	0.016309148
43	0xbd18e718	-0.037329763
44	0xbcec2674	-0.02882693
45	0xbc1ba9cb	-0.009500931
46	0x3d75c511	0.06000239
47	0xbd746f3c	-0.059676394
48	0x3d87d199	0.066317745
49	0xbd810f86	-0.06301789
50	0xbc2d8d02	-0.010592701
51	0x3c657023	0.014003786
52	0xbc83ff95	-0.016113082
53	0x3cf0b552	0.029383335
54	0xba07e81f	-0.000518443
55	0xbd52296e	-0.05130904
56	0x3c542e1a	0.012950445
57	0xbd410678	-0.04712531
58	0xbca82e9d	-0.02053004
59	0xbd05ad24	-0.032635823
60	0x3b8367ee	0.004010192
61	0x3cdb525a	0.026772667
62	0xbd00557e	-0.03133153
63	0x3d002b87	0.03129151
64	0x3c470561	0.0121472785
65	0x3ac6bbf2	0.0015162213
66	0x3c5b63c3	0.013390484
67	0xbd7f75c7	-0.06236818
68	0xbc82492b	-0.01590403
69	0x3c8dde1e	0.017317828
70	0xbd2829ee	-0.041055612
71	0xbba0a262	-0.00490217
72	0x3c7586f2	0.014985787
73	0x3c855b18	0.016278788
74	0xbd7294c7	-0.059223916
75	0xbb5c5304	-0.0033618817
76	0x3d37cb4a	0.044871606
77	0xbc69e6c1	-0.014276207
78	0x3d19d581	0.03755713
79	0xbd114eb1	-0.035475437
80	0x3cbf7d6c	0.023375235
81	0xbd18cff0	-0.03730768
82	0xbcf7a8ba	-0.030231822
83	0x3bb672e8	0.005567897
84	0x3d38ee5a	0.045149185
85	0xbd75ba30	-0.059992015
86	0xbcc62f15	-0.024192372
87	0x3b4f542a	0.003163586
88	0xbc8d3f4f	-0.017242102
89	0x3b9c9737	0.0047787684
90	0x3c2622eb	0.010140161
91	0x3c83c1fe	0.016083714
92	0x3d5f481f	0.05451214
93	0xbd1185e2	-0.03552807
94	0xbd155094	-0.0364538
95	0x3d3d68ae	0.04624241
96	0x3c15f0a3	0.009151611
97	0x3d51a450	0.05118209
98	0xb9d3600f	-0.00040316625
99	0xbd8920db	-0.0669572
100	0xbd41afe4	-0.047286883
101	0x3cd7b692	0.026332173
102	0x3a148e1a	0.0005666927
103	0x3c9de6e6	0.01927514
104	0xbd27490c	-0.040841147
105	0x3c90807e	0.017639395
106	0x3ba9b191	0.0051786383
107	0x3d57c4ad	0.0526778
108	0xbc87a319	-0.016557263
109	0x3b076148	0.002065735
110	0xbd64d400	-0.05586624
111	0xbd517f4d	-0.051146794
112	0x3d50eb9d	0.05100595
113	0xbd074420	-0.033023953
114	0x3d341684	0.043966785
115	0x3c02e838	0.007989936
116	0xbd21cd8e	-0.039502673
117	0xbcb57155	-0.022148767
118	0xbce64414	-0.028108634
119	0xbd510fa3	-0.051040303
120	0x3cf07371	0.029351922
121	0xbd51ec47	-0.051250722
122	0x3c737167	0.01485858
123	0xbd021b0b	-0.03176407
124	0x3d60a005	0.054840107
125	0x3cd3f0bd	0.025871629
126	0xbce871dd	-0.028374607
127	0x3d75eaa8	0.06003824
128	0x3d18de0a	0.037321128
129	0xbc69c5ce	-0.014268352
130	0x3c6d8ec3	0.014499369
131	0xbc8a283b	-0.016864887
132	0x3d1ae717	0.03781804
133	0x3b680f48	0.00354095
134	0x3d2ffcb1	0.042965595
135	0xb99cc038	-0.00029897853
136	0x3c248174	0.01004063
137	0x3baffde5	0.0053708428
138	0x3be5aa0c	0.0070087966
139	0xbd0fe930	-0.035134494
140	0xbbdc576a	-0.0067242878
141	0x3d241f85	0.040069122
142	0x3cca0f84	0.024665602
143	0xbd4931ac	-0.049119636
144	0x3d786104	0.060639396
145	0xbc51917e	-0.012791036
146	0x3c1ced6d	0.009578091
147	0xbd55b9c4	-0.052179113
148	0xbdb6bb6c	-0.08922467
149	0x3d43942d	0.047748733
150	0xbd8723e8	-0.065986454
151	0x3d051a5a	0.032495834
152	0xbd32c7d5	-0.043647606
153	0xbd4c713f	-0.049912687
154	0x3ceb917d	0.028755898
155	0x3cabce7d	0.020972485
156	0x3b228790	0.002480004
157	0xba8b8dff	-0.0010647177
158	0xbcfa9f22	-0.030593459
159	0x3d1a533b	0.03767703
160	0xbcd717b5	-0.026256422
161	0x3d205b8e	0.039149813
162	0x3c3849b8	0.011248045
163	0x3d03b6f6	0.032156907
164	0xbd1174c4	-0.035511747
165	0xbc784ebc	-0.0151554905
166	0x3ca2f3a4	0.019891568
167	0x3d488f63	0.04896487
168	0xbba2050d	-0.0049444498
169	0xbd2ed46c	-0.04268305
170	0x3c23c2b3	0.00999515
171	0xbcf1a2f5	-0.02949665
172	0x3d558560	0.05212915
173	0xbd4f066e	-0.05054324
174	0xbd0fe88d	-0.035133887
175	0xbb815038	-0.0039463304
176	0x3ccf38f3	0.02529571
177	0x3d543e4f	0.051817235
178	0x3d95ca9e	0.07314037
179	0x3d0b97b3	0.03408022
180	0x3c9813aa	0.018564064
181	0xbd52e82d	-0.05149095
182	0xbc2e508b	-0.01063932
183	0xbd871c21	-0.06597162
184	0x3ca54dc4	0.020178683
185	0x3a918096	0.0011100944
186	0xbd314f51	-0.043288533
187	0xbd62aac5	-0.05533864
188	0x3c9a4c7d	0.0188353
189	0x3d2def5f	0.04246461
190	0xbbd19bd6	-0.006396751
191	0xbd31ccaf	-0.043408092
192	0xbd14ce45	-0.036329526
193	0x3d5cdb8d	0.053920317
194	0x3d170812	0.03687293
195	0x3cee6050	0.02909866
196	0xbcf437f7	-0.029811842
197	0x3c4d4a9a	0.012529993
198	0x3d002418	0.03128442
199	0xbd41d2bb	-0.04732011
200	0xbd65adbe	-0.056073897
201	0x3b3e5657	0.0029043162
202	0x3bf0d63f	0.007349759
203	0x3d6a2ee6	0.057173632
204	0x3c885f54	0.016647018
205	0xbd5b489c	-0.053536043
206	0x3c81d6b1	0.015849443
207	0x3c99ee91	0.018790515
208	0x3d1706dd	0.03687178
209	0x3d4e7cc9	0.050411973
210	0xbd5e85a6	-0.054326676
211	0x3d4e14ee	0.05031293
212	0x3d128ef3	0.03578086
213	0x3aeb06b6	0.0017931077
214	0xbc9ce1bd	-0.01915061
215	0xbc824db6	-0.015906196
216	0x3d632f2d	0.055464912
217	0x3b803608	0.003912691
218	0x3c001490	0.0078174025
219	0x3cf3ae90	0.029746324
220	0x3d27aad1	0.040934388
221	0xbc0110ac	-0.00787751
222	0x3c868df6	0.016425114
223	0x3cf310ec	0.029671155
224	0x3cbbf1f0	0.022942513
225	0xbbc0c7fe	-0.005883216
226	0xbd6ad98f	-0.057336386
227	0x3cf4e449	0.029894011
228	0x3c766046	0.015037602
229	0x3d1e77dc	0.038688526
230	0xbd192c1e	-0.03739559
231	0x3cc6cadb	0.02426665
232	0x3d5155f0	0.051107347
233	0x3caea155	0.021317163
234	0xbce73e2a	-0.028227884
235	0x3d5ab208	0.05339244
236	0xbd3c58d0	-0.045983136
237	0xbd2c95d6	-0.042135082
238	0xbc8b5ca2	-0.017011944
239	0x3c14385e	0.009046642
240	0xbce616bc	-0.028087012
241	0x3ccd132d	0.025033558
242	0xba5f32ec	-0.0008514363
243	0xba345402	-0.0006878973
244	0x3c420e91	0.011844293
245	0xbbd0839a	-0.0063633444
246	0x3d2640bd	0.040589083
247	0xbd7a6b6d	-0.061137605
248	0xbcc5dbf1	-0.024152728
249	0x3d2a8019	0.04162607
250	0xbd387588	-0.04503396
251	0xbd694ddc	-0.056959018
252	0xbc9ab4dd	-0.01888507
253	0xbd4819b9	-0.048852656
254	0x3d46f913	0.04857738
255	0x3cbd707b	0.023124924
