saved/almgren_supervised_FC_ReLU/model_best.pth (torch, 800181 bytes, 9 tensors)

Y_net.net.0.weight f4 [256, 4]
00000000: fa75 f3be 9aa9 d5be 622d dc3e 44c9 4f3e
00000010: 0930 793e 16ce b9bd 2319 34be 0fe2 163c
00000020: 04a5 1f3e 074d e7be 6821 1d3e 58d5 a4be
00000030: 29eb 5fbd 0aa6 64be 52db 1b3d 7ca3 4bbe
00000040: bc37 d2be 79ed 9dbe af11 1ebe 4677 9bbe
00000050: 34d5 e4be 2355 c43e 1b7e 2e3e 0193 c3be
00000060: 9ec7 0d3f b0eb e63d 8096 643d 7e72 133e
00000070: 4ed9 823e 110f 86be 8d47 2cbe 80f7 1abc
00000080: a2ce 20be 321e 08be 1f52 f63c 620d 12be
00000090: 86f9 11bf 9812 ccbd 5e31 4b3d ff4d 543e
000000a0: 4efb 04bf 8212 d03e ab22 db3e 22fd 40bb
000000b0: 3238 503e 395f e9be 8fac bb3b 4277 e53d
000000c0: 7f81 cfbe f3b2 a6be b5c0 a7be 3de3 9b3e
000000d0: 34d3 e83e 4a97 27be ca98 963e bb2a 2d3e
000000e0: afea 39bc be7d d73e 267f c23d 9cf4 8f3d
000000f0: 889a d73e 99d5 69be f3a4 ff3d 3f7e cb3c
00000100: 55d6 d5be aac1 1c3d 467e bc3e 6d4e 9abe
00000110: 41f8 eb3e da7b fdbd 0d48 af3e b242 c6be
00000120: c29c cf3e 53a2 d93e 0287 2bbe e355 bcbe
00000130: eab2 b5be 8764 8dbe 57e7 0ebd 3ac8 3ebe
00000140: ad64 65be 937c 1cbe 6cf8 96be 63e6 6e3e
00000150: d835 783e 07b1 c53e cb05 48be 17e2 f8be
00000160: c29b f1bd 2122 71be 78f2 73be 6388 64be
00000170: b766 b63e 8586 f9bd 6f06 83be d95e 573d
00000180: f9ea 063e f73c d73e bbd8 d33e 99cb b63e
00000190: 5a80 243d 1a83 a13e 748f aabc 88dc 823e
000001a0: 27e2 c03e 6a68 65be 58e3 743e d7d4 913e
000001b0: 5591 b9ba da8b 833d 9f2d b2be bfad aebe
000001c0: 150b ed3e d42b acbe 1a0c 8d3e df4a be3e
000001d0: 31bd 4a3e 711d 8c3e 49cd 633e 2869 4abd
000001e0: 3e16 bf3e 60d5 373e 0b4b ecbe 4d4a 0b3e
000001f0: 5de6 c9be a05c 4d3e e00b 513e 452a 933e
00000200: a66b 6e3e a25a d13e e302 1dbe 4b40 0abe
00000210: c28c e93e 342a 8a3e 9999 d9bd eb06 fabd
00000220: 35fe a8be 10f4 8e3e ac27 b5be 7ad5 e23e
00000230: 1de8 b53d ce23 843d 946a b7be 7e5a c13e
00000240: 1068 dc3e 21c0 993d 53ed e93d c89f bb3e
00000250: f140 b53e 1279 e2be e401 bf3e d347 5b3e
00000260: e5df b93e 4286 c73e c895 37bd d340 9b3c
00000270: 63b4 46be b5d8 86be 91ed c6bc 7d17 d53e
00000280: c367 303d 9b20 ea3d 6f42 d63e 7895 33be
00000290: fa89 0b3f 1d98 c63d 6f99 17be 6f45 5fbe
000002a0: c740 d5be 5a9a 4f3c 8af8 96be 6e22 b53d
000002b0: 3e22 9fbd df51 30bd 6b5f d33e a294 ec3c
000002c0: d207 cebd 613c d4bd 4f1f 253e 2156 abbd
000002d0: 0625 1c3f 4fc3 8abd 1dc3 523d 3deb c63b
000002e0: ff07 133e d20c 1abe b335 c9be d5e1 773d
000002f0: e3b4 34be f340 adbd 9c39 2ebe 4fef be3e
00000300: 5f81 f6bd b7fa a6be e73c a83d 5098 4e3e
00000310: 5a1a 0cbf fd7c 38bd 0401 a43e 2297 b33e
00000320: 3b87 cabd 8c6a 173e 5256 0b3e f6da b73e
00000330: f393 10be 11a2 953e 07e0 f43d 1e27 b33e
00000340: 4ff6 a73d 5400 cabe e220 1b3e 9871 a63e
00000350: b377 aa3e ebb3 81be dffd 88be 4d93 8e3d
00000360: b2cb bfbe bc14 3f3c 0d40 4fbe c0b0 ba3c
00000370: de8f 823c dede ed3c 803a ea3e 9f9d 82be
00000380: ea36 583c de03 84be dce5 8d3e d9b1 a2be
00000390: 689d b7be 8393 a33e 95e1 b4be 47a1 82be
000003a0: f781 b73c 01e4 aabe f105 a73e 8f43 c63e
000003b0: 3fea a0bd 25d5 503e 6afc 43be f6f5 d5be
000003c0: 6836 493e 0ffc f33d da37 a7be 391a e0be
000003d0: 7da0 013f 8c53 b93e 67cc a2be f5ec 8bbe
000003e0: aef2 94be aafa 8bbe bd4e c03e f729 5c3e
000003f0: 86d4 d2be 03b1 92be 99db 103e b1f6 e53d
-0.47550946 -0.41730958 0.43003374 0.2029162 0.2433473 -0.09072511 -0.17587714 0.00920917
0.15590292 -0.45175955 0.15344775 -0.32194018 -0.054667626 -0.22328964 0.038050957 -0.19886583
-0.41058147 -0.3084524 -0.15436433 -0.30364436 -0.4469391 0.38346204 0.17040293 -0.38198093
0.55382717 0.112754226 0.05580759 0.14399144 0.25556415 -0.2618337 -0.1682417 -0.009458423
-0.15703824 -0.13292769 0.030068455 -0.14262918 -0.5702137 -0.09964484 0.049607627 0.20732878
-0.5194596 0.4063912 0.42799887 -0.0029447754 0.20333937 -0.45580462 0.0057273577 0.11204387
-0.40528485 -0.32558402 -0.3276421 0.30446807 0.45473635 -0.16366306 0.29413444 0.16910832
-0.011347457 0.4208812 0.09496908 0.070290774 0.42110085 -0.22835387 0.124826334 0.024840472
-0.41765085 0.03827063 0.3681509 -0.3013796 0.4608784 -0.123771384 0.34234658 -0.3872276
0.40549284 0.42506656 -0.1675072 -0.36784276 -0.35488063 -0.2761576 -0.03488859 -0.18631068
-0.22401686 -0.15281896 -0.29486406 0.23330073 0.2423929 0.38611624 -0.1953346 -0.48609993
-0.117972866 -0.23548175 -0.23822963 -0.22317652 0.3562524 -0.12183861 -0.25590846 0.05258069
0.13175572 0.420387 0.4137629 0.35702208 0.040161468 0.31545335 -0.020820357 0.25558877
0.3767254 -0.22403112 0.2391485 0.28482696 -0.0014157692 0.06423159 -0.3480043 -0.34116933
0.46297517 -0.33627188 0.27548295 0.37166497 0.19798733 0.27366212 0.22246279 -0.04941669
0.37321657 0.1795249 -0.46151003 0.13602562 -0.39433566 0.20054865 0.20414686 0.28743187
0.23283252 0.4088946 -0.15333132 -0.13501088 0.45615202 0.26985323 -0.106249996 -0.12208351
-0.33006445 0.2792058 -0.3538183 0.44303495 0.08882163 0.06452142 -0.358235 0.37764353
0.43048143 0.07507349 0.11422219 0.3664534 0.3540111 -0.44232994 0.3730613 0.21414118
0.3630363 0.38969618 -0.044820577 0.018951809 -0.1940475 -0.2633721 -0.024283202 0.41619483
0.043067705 0.11432 0.4184756 -0.17537487 0.5450741 0.09696982 -0.14804624 -0.2180383
-0.41650984 0.012671078 -0.29486495 0.088444576 -0.07770203 -0.04304683 0.41283736 0.028879467
-0.10060085 -0.10363079 0.16125225 -0.08366037 0.60993993 -0.067755334 0.051455606 0.006070523
0.14358519 -0.15043953 -0.39298782 0.060518105 -0.17647128 -0.08459654 -0.17014164 0.37291953
-0.12036394 -0.32613155 0.08214741 0.2017529 -0.5472771 -0.045041073 0.32032025 0.35076243
-0.098890744 0.14786738 0.13607147 0.3590924 -0.14118938 0.2922521 0.11956792 0.34990782
0.082012765 -0.39453375 0.15149263 0.3250854 0.33294448 -0.2533258 -0.26756188 0.06961689
-0.37460095 0.011662658 -0.20239277 0.02278936 0.015937742 0.029036935 0.45747757 -0.2551088
0.013196686 -0.257842 0.2771443 -0.31776312 -0.3586228 0.3194848 -0.35328355 -0.2551367
0.02240084 -0.33377078 0.3262172 0.38723418 -0.07857179 0.20393808 -0.19139257 -0.41789216
0.1964966 0.11913311 -0.326598 -0.43770006 0.5063551 0.36196554 -0.31796572 -0.2732922
-0.290914 -0.2733968 0.37560073 0.21500383 -0.41177768 -0.28650674 0.1414627 0.11228693

Y_net.net.0.bias f4 [256]
00000000: 2e8a edbd e217 2fbe f00d b53c dc2e e3bc
00000010: 64bc d03e 06d3 ba3e a942 87be fc1a cfbe
00000020: 0ed3 a73e 1cfa b03e 6a95 c6be 32b7 2f3d
00000030: 6f59 8b3e 7444 dbbd 7290 9bbe e80b 923e
00000040: 09cd 1ebe 2895 31be 2145 adbe 4968 173f
00000050: e465 f13c 07c3 cfbd a497 48bd b1f4 c03e
00000060: 40a9 e2be a049 f13e 9d21 b73e 9787 6c3e
00000070: 28d9 80be b2b9 823e 42b3 d4be 49b6 c03e
00000080: cc54 c3be 815d f2be 23c0 b0be 70b6 d83e
00000090: 3855 e33b 3360 fb3e d5a6 b4be a34b 56be
000000a0: 93d0 e2be 6a07 203e 9807 ad3e c527 643e
000000b0: b8ec fb3d a1d2 79be 2616 a63e 8190 8abe
000000c0: 5ba2 57be f079 063f 11c3 083f 346c 5dbe
000000d0: be59 823d 1e78 ed3e 2ece a73e 7e16 b83d
000000e0: 0599 1abe bad7 ecbc 8854 c1be e53f bf3e
000000f0: 020d ee3e 7074 09be b52e cfbd 86ff 1cbe
00000100: 3159 bcbe 63c7 f43e c322 5e3e 471a ccbd
00000110: e154 ab3e 4a8d 853c 4adf f73e c248 a0be
00000120: 8afb 423e 7e88 fbbe 0361 083f b2e6 e7be
00000130: cad6 b0be 5f05 90bd 0469 843e 40e2 3c3e
00000140: caff 23be 14ad 0d3e f4b6 843e 4318 acbe
00000150: 0413 80be cafa e43e 8e1f 8b3e 47b2 223c
00000160: 7ae1 6cbe b212 33be 7b54 d2be 53b9 e5be
00000170: 4561 6abe 8059 9fbe bd17 253d a9d1 f4be
00000180: 3a56 0d3e 78c1 003f 2e20 e43e b908 93be
00000190: 7a6b 33bd eca3 f9be aa79 78bd 11e6 9bbe
000001a0: 95e5 9a3d 1135 afbe 8bba 2dbe 25a3 743e
000001b0: 342d d33d 729d 193f 427a 003f a84b 063f
000001c0: 55d1 e2be 4fe9 ccbe dcc2 563e efd5 9bbe
000001d0: b1dd a3be 98ad 13bf 5776 dcbe ad12 9bbe
000001e0: be15 afbe 9448 e6be 0a56 cbbe 6133 6dbe
000001f0: 5bfb f4be b97b 883e 5efe 063f 6a7f b7be
00000200: 3dc9 05be 03ed 77be 6788 10be 3085 f9be
00000210: ef8b cd3e 5cac 64be b225 c1be de57 4ebd
00000220: 780e 8c3e 47ab 833d a48d 77be 497a 353e
00000230: 6bb2 083f 40c9 9dbe 5bfb 713d be7f 9c3d
00000240: a78b 24be db0c 9fbe 04bc cb3d 55df f83e
00000250: 0a9b 85be 4e3a 5fbd 4e02 4b3e 9c2b 11be
00000260: 7cf1 b63e 94e8 0f3f 41db 88be f672 cb3e
00000270: ee95 683e ba7e f53d f4c2 e43e 9ee3 0f3f
00000280: 014a 313e 39d9 6dbe 0897 573e 625c c13e
00000290: 8044 09be 3931 b7be 0c3e 3fbe fa9e 09be
000002a0: f856 3c3e 1027 a8be 0d32 90bd d15e e2be
000002b0: b4dd c93e 6a54 09bf d905 a53e 6e93 2dbe
000002c0: c2d7 09bf b7c6 073f 7316 e4be 1917 c2be
000002d0: 9920 733c eb9c 353e 74c9 ab3e e26a c5be
000002e0: fe69 fbbd 8bc1 afbd 8193 66be 80c4 b3be
000002f0: 99f9 1cbf e67f c13e ea14 c6bd a400 b43e
00000300: aa39 ffbe 54c2 88be eb19 02bc b6e3 d83e
00000310: 75f5 0fbe fc33 a3be c8cc b1be a386 de3e
00000320: b2b9 ebbe e815 efbd 5045 05bd df67 83be
00000330: ef31 f93e 4694 a8be 8ec8 783e 3e99 133f
00000340: 044f 193e 08ce 7c3d 46ae e63e 80da f7be
00000350: 5e68 033f 71a1 d6be 4c78 09bf d9e0 023c
00000360: 3efc c23e b9af c3be 1349 41bd 2b74 00be
00000370: 7964 863e aec4 103f 7a4d c7be 0541 11bf
00000380: a693 98be befd 393e 19f4 d8be ea1e b7be
00000390: 754c 40be 4eb5 ab3e 5ed4 da3d 7d46 cf3e
000003a0: 3331 643d 3f9d ff3e 2710 b5bd 5d7f 513e
000003b0: f6ad 773e 3ee9 04be 3958 9abe bbd7 f2be
000003c0: 51d9 c7be 7700 4a3e 53e3 e53e 697d 7bbd
000003d0: ae6a 5f3c 011e 7139 d2a3 a73e a872 eabe
000003e0: 7e98 11bd 281d b43e 13e3 d0bd e8b4 19be
000003f0: c452 213e 3f03 9d3e b4ac 4cbc 95e9 c1be
-0.11598621 -0.17098954 0.022101372 -0.027732305 0.4076873 0.36489123 -0.26418045 -0.40450275
0.3277821 0.34565818 -0.3878587 0.042899318 0.2721667 -0.10706416 -0.3038364 0.2852471
-0.15507902 -0.17342055 -0.33841804 0.591435 0.02946753 -0.101446204 -0.04897274 0.37686685
-0.44269753 0.47126484 0.35767832 0.23098598 -0.25165677 0.255323 -0.41543013 0.37639073
-0.38150632 -0.47336963 -0.3452159 0.4232669 0.006937649 0.49096832 -0.35283533 -0.2092729
-0.44299755 0.15627828 0.33794856 0.22280796 0.1230101 -0.24396755 0.32438773 -0.27063373
-0.21058027 0.5252981 0.5342265 -0.21623307 0.06364773 0.46380705 0.3277449 0.08988665
-0.15097435 -0.02891146 -0.37759805 0.37353435 0.464943 -0.13423324 -0.101163305 -0.1533185
-0.36786798 0.4780837 0.21692948 -0.099659495 0.33463195 0.016302723 0.48412544 -0.3130551
0.19041267 -0.49127573 0.5327303 -0.45293194 -0.3453887 -0.070322745 0.2586137 0.18445683
-0.16015545 0.13835555 0.25920832 -0.3361226 -0.25014508 0.44722587 0.27172512 0.0099302
-0.23132887 -0.174876 -0.41080078 -0.44867954 -0.22888668 -0.3112297 0.04030584 -0.47816208
0.13802424 0.5029521 0.445558 -0.28717592 -0.04380367 -0.48757875 -0.060662903 -0.30448964
0.075633205 -0.34220174 -0.16965692 0.2389036 0.10311356 0.6000587 0.5018655 0.5245919
-0.44300333 -0.4002175 0.2097277 -0.30436656 -0.32005075 -0.5768676 -0.43059036 -0.30287686
-0.34196275 -0.44977248 -0.3971408 -0.23164131 -0.4784802 0.26656893 0.52731884 -0.35839397
-0.13065048 -0.24211507 -0.14114533 -0.48734426 0.40145823 -0.22331375 -0.37724072 -0.050376765
0.2735479 0.06429153 -0.24175125 0.1772243 0.53397244 -0.30817604 0.059077602 0.076415524
-0.16068898 -0.31064495 0.099479705 0.4860789 -0.26094848 -0.054498963 0.19825098 -0.14176792
0.35731113 0.5621426 -0.26729777 0.39736146 0.22713444 0.11987062 0.44679987 0.5620669
0.17313386 -0.23227395 0.21053708 0.37765795 -0.13405037 -0.3577974 -0.18676013 -0.13439551
0.18392551 -0.32842302 -0.070407964 -0.44212964 0.3942696 -0.5364443 0.32231024 -0.16950771
-0.53844845 0.5303759 -0.44548377 -0.37908247 0.014839315 0.1773564 0.33552134 -0.38558108
-0.12276076 -0.08581837 -0.22517206 -0.35110855 -0.61318356 0.3779289 -0.09671958 0.3515674
-0.49848682 -0.2671076 -0.00794075 0.4236123 -0.14058478 -0.31875598 -0.34726548 0.43462095
-0.46040112 -0.116741 -0.032536805 -0.25665185 0.4867091 -0.32925624 0.24295256 0.57655704
0.14971548 0.061719924 0.45054835 -0.4840889 0.51331127 -0.41920045 -0.53699183 0.007988178
0.3808307 -0.38220003 -0.04718883 -0.12544315 0.2624853 0.5655011 -0.38926297 -0.56739837
-0.29800147 0.18163201 -0.42373732 -0.35765773 -0.18779166 0.33536762 0.10685037 0.40483466
0.055710983 0.49924657 -0.088409714 0.20458741 0.24187455 -0.129796 -0.30145434 -0.47430214
-0.39032987 0.1972674 0.44899997 -0.061398897 0.013636274 0.00022994728 0.32742172 -0.457906
-0.03554582 0.35178494 -0.10199561 -0.15010417 0.15754229 0.3066654 -0.0124923475 -0.3787352

Y_net.net.2.weight f4 [256, 256]
00000000: 19ba dbbc 3323 ebbc 1bd5 f13c 2c4f 68bd
00000010: efbe a23b a350 a1bd 16ba 283c 76a6 89bc
00000020: 6a63 54bc 0e82 0dbd 40ef 1e3d fd42 2c3d
00000030: 5eda 25bd 6cf4 11bc c363 95bb 7087 cc3c
00000040: 2ab8 bc3d 61c5 1d3d 508a d23c c0de 30bd
00000050: be8d ebbb 7863 04bc 4140 b63c 3906 b8bc
00000060: 295f c93c 0df8 a6bd 4a9f 58bc 3549 cabb
00000070: 4cf5 f1bc 62bb 41bb a9f5 1a3d 1fb4 abbc
00000080: ffb1 61bb dd81 633d ed36 683d 90c6 d5bb
00000090: e2df 8d3d a097 8a3c c909 273d dc29 f8bc
000000a0: 0407 033d a4b3 1b3d 2338 9f3c 657e 053d
000000b0: 0fa9 a4bb 1506 ae3d 5756 833d cf32 0cbd
000000c0: 0b77 ab3d ccf5 c1bc 254c 7d3b e93e 6d3c
000000d0: 7c33 c6bc feb4 d2bb 5dad 88bd 2f6e 1d3a
000000e0: 9fce 80bc d625 bf3c a1a5 963c eeeb 3e3d
000000f0: 06a2 83bd ce95 473d 66d2 b2bb 4dba 0e3c
00000100: 5a44 b63d f6e9 61bd cf3e 99bc 55ac af3c
00000110: a448 d03c 7164 f13b 82d9 50bc 1920 85bc
00000120: 9bbc 0fbd 692c 3ebd 8563 a03c 26fe 3cbc
00000130: ad0f 653d 1b7a 123b a802 f4bc e4cd 613b
00000140: c05a 3dba 3a4e 1bbd 437b ad3c e6c7 5d3d
00000150: 8808 fdbc 045a 37bd edd5 00bd 7d71 a0bd
00000160: d182 18bc d37f fdbc 2bfd 0a3e 06e2 fe3d
00000170: bca0 86bc 4937 fa3d d5a3 a33d b2a5 d73d
00000180: 3eb9 753c 3c49 97bc 8c43 183c 2b55 bf3d
00000190: 4ef8 553e f8bf 30bd 2778 59b8 50c7 d53c
000001a0: b85d 09bb 06db 56bd 0b92 bfb6 134b 293d
000001b0: 8143 61bb a065 e5bd 64da 3dbd baff 87bd
000001c0: 4a57 9c3c 2949 5c3d f297 70b9 087d cc3c
000001d0: fad6 2c3d c50f dc3c edd5 d2bc 2a17 c13a
000001e0: 7ee2 c13a f9b8 c23d 9aa8 90bc b839 14bc
000001f0: ff58 ff3d 806b a3ba 5bc1 95bd 759e 5b3d
00000200: da71 ff3c 1543 4b3d f14a 5b3d 31b5 5e3d
00000210: 2fc1 123d 29ba 9f3c 20e4 c43d ff5c 7dbc
00000220: 6c32 a239 6e4d b5ba 9ef7 6e3c 7257 d53c
00000230: 2a79 22bd 0e87 a1bc cdf6 9dbc 4918 893c
00000240: 3dee 91bd 6880 a739 31b5 10bd 199c a43c
00000250: bd32 1c3d 420d a03d 8e1e fe3b 1c2b 1a3e
00000260: 1aef 7ebc ec35 34bd 4417 8f3d 1b45 8dbd
00000270: 357f ad3c 4dfe 443d 2f54 84bd 0413 aabb
00000280: 7d83 df3b 5fed 283d 1218 dbbc b31e 84bc
00000290: 50fd d7bc 64e1 49bc 5a3f 003a 6b53 a0bc
000002a0: 3623 153d 08cd 6c3c 11cb b53c 8d6a 12bc
000002b0: 38ff a3bd 2334 b33d 2120 8dbd db92 0abd
000002c0: 95ac 41bd 7f2a 93bd c800 dc3c fc92 473e
000002d0: 0949 2dbd 58dd fcb8 5cf6 dc3c a89b 683e
000002e0: d823 0e3d eae7 2a3d 1a2e 21bd c557 b53c
000002f0: 7a4e 673d 723b 57bd 2838 d33c caf6 5bbd
00000300: bc96 06bc 3419 c43d 4aa1 e03d 9665 95bc
00000310: 8f16 243d 694f 4b3d f992 51bc acb6 76bd
00000320: eee2 aabc 405a 7e3d 44b7 9b3c 3327 8a3d
00000330: 073c 183a 809b 9c3d ee43 9438 5385 07bd
00000340: 6f3c 243d 5a7b 49bd 61d3 a63b fb7a c63b
00000350: 62f9 8dbd 21ab 0d3e 448a 203d 532c 2dbd
00000360: dd5e 68bd 37f3 d4ba 1919 263d 0ba7 893d
00000370: a475 803d 34c3 9a3c 75c7 b33d 0765 733e
00000380: 7a5e 293e a73c da3c 72e9 903d 0aab df3c
00000390: 5d07 ad3b bede 8abd 9a1c 1d3d 1c5f 3cbd
000003a0: fe9f 8cbd 97cc 233b f09e 1a3d 4c12 c13c
000003b0: 2e8b 49bc 7725 92bc e501 353d cf9e d2bc
000003c0: 06cc ab3c 0276 1ebd 6683 b13c e5b5 553d
000003d0: 6509 263d f7b8 9e3d ee45 133c d170 983d
000003e0: e44d b73b af5b 723d 9009 c63c 8e4e 41bb
000003f0: 71f8 b4bc 39c7 b0b9 3a85 983d d7ee bbbc
-0.026822137 -0.028703308 0.029520562 -0.05671613 0.0049666087 -0.07876708 0.010298273 -0.016803008
-0.012963155 -0.034547858 0.038802385 0.042056073 -0.040491454 -0.008908372 -0.0045590117 0.024966925
0.09214814 0.038518313 0.025700718 -0.04318118 -0.007188528 -0.008080356 0.022247436 -0.022463905
0.024581509 -0.08152781 -0.013221571 -0.0061732777 -0.029535912 -0.0029561152 0.037831936 -0.020959912
-0.003443837 0.05554377 0.056693006 -0.0065239146 0.06927468 0.016918004 0.040780816 -0.030293398
0.031989112 0.038013116 0.019435948 0.032591242 -0.005025036 0.08497254 0.064129524 -0.034228142
0.08372315 -0.023676775 0.0038650122 0.014480331 -0.024194472 -0.0064302674 -0.066736914 0.00060054933
-0.015723525 0.023333471 0.018389525 0.04661172 -0.06427388 0.04872685 -0.0054572104 0.00871141
0.08899756 -0.055154763 -0.018706707 0.021444479 0.025425263 0.00736671 -0.01274717 -0.016250657
-0.035091978 -0.04642907 0.019578705 -0.011535203 0.055923153 0.0022350613 -0.029786423 0.0034454996
-0.00072233006 -0.0379164 0.02117694 0.054145716 -0.030887857 -0.04476358 -0.031454016 -0.07834146
-0.009308533 -0.03094474 0.13573138 0.12445454 -0.016434066 0.12217576 0.07990233 0.10529651
0.014997778 -0.018467538 0.009293448 0.093424164 0.20895502 -0.043151826 -5.1848732e-05 0.026096016
-0.0020960402 -0.05245497 -5.709245e-06 0.041331362 -0.003437251 -0.11201024 -0.04635085 -0.06640573
0.019084591 0.05378071 -0.00022944788 0.024961963 0.042197205 0.026862988 -0.025736773 0.0014731635
0.0014792231 0.09507937 -0.01765852 -0.009046964 0.124681465 -0.0012467951 -0.0731227 0.053617913
0.031182218 0.04962452 0.053538267 0.054372016 0.035828765 0.019497948 0.09613824 -0.0154640665
0.00030936615 -0.001383228 0.014585404 0.026042674 -0.039666332 -0.01971772 -0.019282723 0.016735213
-0.071255185 0.00031948392 -0.035329048 0.020093964 0.038134325 0.07815029 0.0077551072 0.15055507
-0.015559936 -0.043996736 0.069868594 -0.068979464 0.021178821 0.048094083 -0.06461369 -0.005190255
0.0068210945 0.041242 -0.026744876 -0.01612792 -0.026365906 -0.012321804 0.00048922526 -0.019571027
0.036410533 0.01445318 0.022191556 -0.0089365365 -0.080076635 0.08750179 -0.06890894 -0.03383146
-0.047283728 -0.0718584 0.026855841 0.19489664 -0.04230598 -0.00012057525 0.026972942 0.22715628
0.034702152 0.041725077 -0.039350607 0.022136578 0.056471325 -0.052546926 0.025783613 -0.053702153
-0.008214649 0.095751196 0.109682634 -0.018236917 0.040060576 0.04963628 -0.012791389 -0.060232803
-0.020860162 0.062097788 0.019008286 0.06745758 0.00058072846 0.07646847 7.069843e-05 -0.033086132
0.040096696 -0.049189903 0.0050911163 0.006057141 -0.069323316 0.13834812 0.03919436 -0.0422786
-0.056731094 -0.00162468 0.04055128 0.06721314 0.06272438 0.018891908 0.08778278 0.23769008
0.16539946 0.02664025 0.07075776 0.027303237 0.005280419 -0.06780766 0.038357355 -0.04598914
-0.068664536 0.0024993771 0.03774923 0.023568295 -0.012301249 -0.01784013 0.04419126 -0.025710491
0.02097131 -0.03868676 0.021669101 0.05217542 0.040536303 0.07750123 0.0089888405 0.07443393
0.005594002 0.059169468 0.024174482 -0.0029496285 -0.022091122 -0.00033717768 0.07447286 -0.022941036

Y_net.net.2.bias f4 [256]
00000000: c78b 74bd 10e1 85bc 348e 913c bc67 a9bc
00000010: 673e 8dbd 7eef ec3d 662e 5dbd ccb5 4d3c
00000020: 789b 733d 86bc 2cbe b728 b2bd eef4 68bd
00000030: 9415 2f3d 9efc 303d 513f 65bd 3227 293c
00000040: 84a9 e0bd 2b06 ad3c b1b4 633d 7774 fab9
00000050: 4bb8 a33c 9869 2dbb 618c 8bbd 4db7 b23c
00000060: d36f e0bc d472 0bbe 8e9c 84bd d141 06be
00000070: a239 2d3c 2100 16be e3b3 8fbd ec4c 7dbd
00000080: 7f9d 523c 05ff f3bd cbf1 efbd 529c 6dbd
00000090: be5b cb3d c56b bc3c ff6a 02bd 7333 adbd
000000a0: cddb afbc 0b08 8e3b cc03 d93c 760e 5ebd
000000b0: 7d8b 83bd 1518 4abd 18f4 303d 3336 89bc
000000c0: 3649 563d a24e 503d 42f2 0dbd f0ea cbbc
000000d0: af98 1c3d 669c bcbc 8da0 91bd a67c 183d
000000e0: 17f0 1d3d 2c9d 8dbd 132b 7c3d 08e8 22bd
000000f0: ecfc 0cbe da33 7d3d e8ef e23c 383d d7bc
00000100: 8437 433d 7ddc 96bd 0354 87bc 98cc d8bd
00000110: 1f2a 1fbc 1f28 0fbe a22b efbd 0926 40bd
00000120: 7823 d73d f1fb d5bd 1dce 313d 2e2b 863d
00000130: 1d9a bc3d b8ea 193d b7ec 9dbd 59fa 8fbd
00000140: 870b 923d 50f9 b73d 6056 e83c ca73 a1bd
00000150: 3097 a93c 0513 96bd bd27 863d d440 f73b
00000160: 63a0 04be 313a 86bd ba73 77bc 1262 833d
00000170: d6fc 31bd 8807 c2bc 013b 6bbb 1855 263d
00000180: a9e2 5ebd 53e2 d53d 4039 0f3d c4c1 e9bd
00000190: 50b3 a73d 2e65 003d 7462 76bd cf67 43bd
000001a0: 4f68 0bbd c97c 8cbd 346f 89bc 1b8b 49bd
000001b0: 2b54 94bd cc78 863d da8f 62bd c886 48bd
000001c0: bee4 85bd 15a9 95bd 6ada c6ba a786 313d
000001d0: ce59 95bd 1f19 463d 6817 b1bd 2da4 fabc
000001e0: 0a83 803c a116 463d f732 14bd d0a4 65bc
000001f0: 41bd 0bbd 7a71 bd3d b5c5 dabd fd43 283d
00000200: 6f8c 88bd 4ed5 463d e7bc b8bc da8d 123a
00000210: 646e 393d cfcc 84bd 485a 683d df31 0e3c
00000220: 5093 25be b2ad 20bd b78f d1bc e632 b5bb
00000230: 08c9 58bd 29be 4eb9 9ff9 8f3d a9de 02be
00000240: 0864 133d 618a 8ebd 6390 8d3c 53bf e0bc
00000250: 3106 84bd 83a4 e9bd d242 a5bc dd84 d1bd
00000260: f2c8 c5bd 4598 20bd 6167 78bd 22a9 f23b
00000270: bff7 6c3c 3e19 063d c3b8 553d 589b f13b
00000280: a2b7 e03b 9d12 4bbd 9719 243d 85b2 84bd
00000290: 5d7e b8bc 7de7 4cbd 5f88 08bd c6c6 8abd
000002a0: 9fcb f2bb 5be1 07be 2c41 7d3c 4e7d bebd
000002b0: 27de 15bd 4153 0dbd 9aee 95bd b5e5 21bc
000002c0: 2ac6 0ebd 5784 a2bc a012 2bbd 5168 87bc
000002d0: ce81 8dbc 8edc 04bd 60e3 14bd 6c83 65bd
000002e0: 9428 f23c fdc1 733b 9e41 38bc 7a11 2c3b
000002f0: 34bc 98bd 8903 82bb 6273 f9bc 57cf 27bc
00000300: d5e0 01bd 5437 b7bd 5c99 bfbc f6f9 26bd
00000310: f796 cabd c434 10bd 6866 52bd e9d2 073d
00000320: 55c9 57bc fbbe 3d3c c296 55bb 10da 063d
00000330: e89d 00bc 5b88 5e3d 5dac 033d 68f5 f33c
00000340: c3a4 e63c 67ca 95bd 4705 dcbd 724a d6bd
00000350: 5715 5ebb 5e3d 233a 44f2 92bd b792 d3bd
00000360: e6ef 4e3d f216 99bd be7c 9fbd 42c0 133d
00000370: 62df a0bd 326c 94bd 7003 02bd 267b 7dba
00000380: f098 46be dd5e 9a3c f2f3 9ebd 596a 0dbd
00000390: cea6 65bd 8b0b 21bd 29dc 1dbe 329a 513d
000003a0: f607 753c 374a 29bc c882 0cbe 4bd2 51bd
000003b0: 0f6a 8bbd ce73 0abe 962f 12bd 73a7 27bd
000003c0: 1948 6f3d 6399 bdbc 9f4a fb3c ad5c 49bd
000003d0: 299a 90bd f0a3 a5bc b7be 33be 636f adbb
000003e0: 988a 02bd 9c4f e73b f986 c0bb 554c 3cbc
000003f0: a250 3f3e 4a92 623d 37c2 823d 86ce c93c
-0.059703615 -0.01634267 0.017768003 -0.020679347 -0.06896668 0.11569117 -0.053999327 0.012555551
0.05947444 -0.16868791 -0.08699172 -0.05687421 0.042745188 0.043209665 -0.055968586 0.010324286
-0.109698325 0.021121105 0.055592243 -0.0004777049 0.019985339 -0.0026460644 -0.068138845 0.02181592
-0.027397072 -0.13618022 -0.06475173 -0.13111044 0.010572823 -0.14648487 -0.070167325 -0.061840937
0.012854933 -0.119138755 -0.1171604 -0.058010407 0.09929608 0.023000607 -0.03184032 -0.08457079
-0.021467114 0.004334455 0.026491068 -0.05421301 -0.0642309 -0.049339373 0.043201536 -0.016749477
0.052315913 0.05085624 -0.034654863 -0.0248923 0.038231548 -0.023023795 -0.07110701 0.03722825
0.038559046 -0.06914744 0.061564516 -0.039772063 -0.13768357 0.061817028 0.027702287 -0.026274309
0.047660366 -0.073662736 -0.016519552 -0.10585898 -0.009714632 -0.13980149 -0.11678244 -0.046911273
0.10504812 -0.10448445 0.043409456 0.065512046 0.09209082 0.03757736 -0.077111654 -0.07030172
0.07131105 0.089830995 0.0283615 -0.07883413 0.020701975 -0.073278464 0.06550548 0.00754557
-0.12951808 -0.06554068 -0.015103275 0.0641519 -0.043454014 -0.023685232 -0.0035893323 0.040608495
-0.05441538 0.104435585 0.034966707 -0.11413911 0.08188498 0.031346492 -0.060152486 -0.04770642
-0.034035023 -0.068597384 -0.016776659 -0.049204927 -0.07242616 0.06566009 -0.05531297 -0.048956662
-0.0653777 -0.073076405 -0.0015171294 0.043341305 -0.072925195 0.0483638 -0.086470425 -0.030595863
0.015687484 0.048361424 -0.036181416 -0.014016345 -0.034116033 0.092501596 -0.10682241 0.041080464
-0.066674106 0.048543267 -0.022551013 0.00055905955 0.045271292 -0.06484377 0.056726724 0.008678882
-0.16169477 -0.03922815 -0.025581224 -0.005529749 -0.052926093 -0.00019716531 0.07030033 -0.1278025
0.03598407 -0.069599874 0.017280763 -0.02743498 -0.064464934 -0.11408331 -0.020173464 -0.1023042
-0.09657468 -0.039207716 -0.060645465 0.007405416 0.014463364 0.032738917 0.052178156 0.0073732547
0.0068578282 -0.049578298 0.040063467 -0.064793624 -0.022521192 -0.050025452 -0.03333318 -0.06776194
-0.0074095274 -0.1326956 0.015457433 -0.09301244 -0.036588814 -0.034503225 -0.073209 -0.009881427
-0.034856953 -0.019838495 -0.04176581 -0.016529234 -0.01727381 -0.0324369 -0.036349654 -0.056033537
0.029560365 0.0037194483 -0.011246113 0.0026255534 -0.07457772 -0.0039677066 -0.030450527 -0.010242305
-0.031708557 -0.089461 -0.023388557 -0.040765725 -0.098920755 -0.03520657 -0.051367193 0.033160124
-0.01317056 0.011581178 -0.003259108 0.032922804 -0.007850148 0.054329257 0.0321468 0.029780105
0.028154736 -0.07313996 -0.10743194 -0.10463418 -0.0033887231 0.0006227101 -0.07175115 -0.10330718
0.050521754 -0.074750796 -0.077874646 0.036072023 -0.07855107 -0.07247199 -0.03174156 -0.00096695346
-0.19394279 0.018844062 -0.077613726 -0.03452525 -0.05606728 -0.03931765 -0.15416016 0.051172443
0.014955511 -0.010332636 -0.13721764 -0.05122594 -0.068073384 -0.13520738 -0.035689913 -0.040931176
0.058418367 -0.02314443 0.03067523 -0.049160648 -0.07060654 -0.020219773 -0.1755322 -0.0052928193
-0.031870455 0.0070590507 -0.005875465 -0.011492808 0.18683103 0.055315293 0.063847 0.02463461

Y_net.net.4.weight f4 [256, 256]
00000000: d6fc c73d 70b2 53bd 2b7e ab3c e3f4 fe3c
00000010: 5603 40bd 1d7d 303c a10f 01bc 8795 a63c
00000020: a367 47bc cc55 57bc 1264 513d aa85 80bb
00000030: 0f4e dd3c c5d1 1cbd e1b8 283d 8aa9 84bc
00000040: 5bea 113e 481c 923d 47b5 9bbd f75d 87bd
00000050: be69 35bc 5ea1 313d 28c5 be3b 50a4 d0bc
00000060: ec8e 9237 b85c 2bbc b6e7 9e3d 1c5c 483d
00000070: dfcc 053d 8d25 6d3d d059 533d 89d4 d43b
00000080: 67b8 2e3d 4131 653d 951e cc3c 04cd 04bd
00000090: e76c e83b 1c2a b83d 918b 26bc de36 913c
000000a0: 0663 79bd 037b a93d fdb1 723d 3079 893d
000000b0: f264 0a3e 0e8f 393d 8068 423d f181 393d
000000c0: cae2 9fbc 7522 35bd d91a 6f3d b499 a8bc
000000d0: e240 3d3d bc07 e83b 2763 5abc ef9d 83bd
000000e0: 2f69 c6bb ece9 0abd f911 54bd 277f 9c3c
000000f0: 3679 ac3d 22e6 d5bb 1c30 c9bc 1b77 e43d
00000100: d801 8ebd d563 ef3c 1c4b 54bd 5e30 bb3d
00000110: 0678 843d f1ba 753c 94ce c1bc bfd4 88bd
00000120: db99 023d c7d6 983d d4d0 58bb d1b5 4a3d
00000130: 9783 f8ba 0142 e4bc 9faf 9c3e 34c5 25bd
00000140: 710c 0ebb 2a5b 90bc 71d0 0e3e 633a 2b3d
00000150: 5a9a 233d da30 babc 9bcf 8bbd 397e 443d
00000160: bdae 783d 9a45 21bd e7f0 1dbd 9e9f abbb
00000170: c527 a93d d474 80bc cd19 66bd fd95 ee3c
00000180: 8838 f63d b133 62bc b749 8cbd ae12 02bd
00000190: 0f44 58bd a8ee f53b 789d 76bd c302 ae3c
000001a0: 0414 ec3b 3b29 e3bc a611 073e 0e62 4a3d
000001b0: c9aa 743d a1d3 13bc 3774 abbc 9701 2f3d
000001c0: 578f 313d 39b6 c03c b890 c6bc c886 033d
000001d0: 530e a13c 197d d7bd dd92 323d 58e3 2cbd
000001e0: 0c43 61bc ec60 37bc defe 61bc 1f53 6abd
000001f0: 947e 2bbd 7016 c93c 2d4c 203d b33d 9cbd
00000200: 7437 49bd 1cf8 773c bb1c 12bc 2ae4 25bd
00000210: a5b4 bdbb c78a a23d c61a 423d 2154 453b
00000220: d9e0 f73d b9df 7c3d 205f 3f3d a967 7c3c
00000230: 71c0 0a3e 2267 863c fe51 413d f41d 6bbd
00000240: daf8 663c bf16 f8bc 7771 cbbb df13 68bd
00000250: 3c37 df3c 2933 0b3e 0a3a 533c 9eea 3fbd
00000260: 931b 8abd 7495 3d3c ed11 e9bc afb3 403c
00000270: fe36 9a3d 95c3 a7bc b0fc 703d 2cb4 873d
00000280: cf99 e7bb 9c2a e4bc 3067 343d b710 d1bc
00000290: caad 52bb 2433 bd3b cf4d 97bc 312e 433d
000002a0: d41a 713b dff0 c4bb 443c 04bd 499f f7bc
000002b0: 3ee8 bb3c 8e46 91bc df69 293e 8a39 8bbb
000002c0: 3681 8d3d ad51 46ba 2908 4d3d e06e 063d
000002d0: c65d 1dbd 4a34 cbbc 1df2 64bc c655 debc
000002e0: d0bf 83bd 42b8 4d3d 9a8e 1fbd 81c6 ce3c
000002f0: 1f0b 59bd 5e97 df3c 85aa a2bc 3943 8cbc
00000300: 60d5 82bd cc7c 7cbd a542 3c3d 7bdb 033d
00000310: ff7e c0bc 1512 4c3c a481 09bd 8022 a53c
00000320: 102e 69bc 7711 deba 4adb a2bc 8588 a2bc
00000330: ae33 0dbd 04de a2bd 7416 533d 4dae 01bd
00000340: 8f99 503d 8b83 8bbc a741 993d 8a33 173e
00000350: 40e7 b7bc f22d aabd b1b1 cdbc 1b87 583c
00000360: d0f3 85bc 2641 4d3d 6bed 9a3d e732 8dbc
00000370: b830 6dbd eeb7 083d 3775 0fbd 6401 533d
00000380: 90c2 173d 7449 42bd c43b 363d 1daa 273d
00000390: 8399 0dbd 3cb5 ac3c b9f5 c7bc fe2d 23bb
000003a0: 1763 5bbd 6641 d43b fe6b d33c 4301 e6ba
000003b0: 6f77 783d baf8 c53d 218f e43c 05fe 003d
000003c0: f95a 91bd 80ea 15bb 8d13 8fbd 7846 833c
000003d0: a90d c33a 3461 603d fbf7 563d 61fb 0cbb
000003e0: 13c6 463d 6597 30bd bcb5 efba 1f73 bc3c
000003f0: 1734 54bd a0a4 e03c 990d 183c a6c6 60bd
0.097650215 -0.051683843 0.020934185 0.03112263 -0.04687818 0.010772017 -0.007877261 0.020334972
-0.012170705 -0.013143014 0.051120825 -0.003922184 0.02701476 -0.03828599 0.04119194 -0.016194124
0.14249556 0.071343005 -0.07602935 -0.06609719 -0.011072574 0.043366782 0.0058218427 -0.025468975
1.747111e-05 -0.010459118 0.07759039 0.048915967 0.032666083 0.05789714 0.051599324 0.0064950627
0.04265633 0.055955175 0.024916926 -0.03242208 0.0070930603 0.08992407 -0.010165111 0.017726358
-0.06088545 0.08275416 0.059251774 0.06712568 0.1351507 0.045302443 0.04746294 0.045289937
-0.019517321 -0.044222314 0.058375213 -0.020581104 0.046204455 0.007081 -0.013329304 -0.06426608
-0.0060550193 -0.03391449 -0.051774953 0.0191036 0.08421557 -0.006527678 -0.024559073 0.1115553
-0.069339454 0.029222408 -0.051829442 0.09140085 0.06468205 0.014998184 -0.023658074 -0.06681203
0.03188501 0.074628405 -0.0033083456 0.0494898 -0.0018960115 -0.027863504 0.30602738 -0.04047127
-0.0021674896 -0.017621595 0.13946702 0.04180373 0.039942123 -0.022728372 -0.06826707 0.047971938
0.06071352 -0.039373018 -0.03855982 -0.0052375337 0.082595386 -0.015680708 -0.05617695 0.029124254
0.12022501 -0.0138062695 -0.068499975 -0.031756096 -0.05279928 0.0075052567 -0.060208768 0.021241551
0.0072045345 -0.027729621 0.13190326 0.04940992 0.059733186 -0.009022624 -0.020929439 0.042726126
0.04334959 0.02352439 -0.02423893 0.03211096 0.01966015 -0.10521907 0.04359709 -0.042209
-0.013748895 -0.011192542 -0.013793675 -0.057208177 -0.04186876 0.024546832 0.039135147 -0.07628956
-0.04912515 0.0151348375 -0.008917983 -0.040500797 -0.005789357 0.07936626 0.047388814 0.003010996
0.12103433 0.061736796 0.046721578 0.015405574 0.13549973 0.0164066 0.047197334 -0.057401612
0.014097417 -0.030284284 -0.0062085944 -0.056659576 0.027248017 0.13593735 0.012892256 -0.046854608
-0.067435406 0.011571277 -0.02845093 0.01176159 0.0753002 -0.020479003 0.05883473 0.06626162
-0.007067896 -0.027852349 0.04404372 -0.025520666 -0.0032147043 0.0057739187 -0.01846972 0.047651473
0.0036789672 -0.0060101594 -0.032284036 -0.03022732 0.02293789 -0.017733838 0.16544293 -0.0042488026
0.06909411 -0.0007565271 0.05005661 0.032820582 -0.038419507 -0.024805207 -0.01397374 -0.02714051
-0.0643307 0.05022455 -0.038954355 0.025241138 -0.05298912 0.027293857 -0.0198567 -0.017121898
-0.06388354 -0.061642453 0.045961995 0.032191735 -0.023498056 0.012455483 -0.0335709 0.020158052
-0.014232174 -0.0016942461 -0.019879956 -0.019840488 -0.034473114 -0.07952502 0.051535085 -0.031660367
0.050927695 -0.017030498 0.07483225 0.14765754 -0.022449136 -0.083095446 -0.025109144 0.013215805
-0.01635161 0.05011096 0.07564815 -0.017236186 -0.05790779 0.033378534 -0.035023894 0.051514998
0.037050784 -0.04743333 0.04449059 0.040933717 -0.03457023 0.021082513 -0.024409162 -0.002489924
-0.053561296 0.0064775227 0.02580833 -0.0017547983 0.060660776 0.096665815 0.02790028 0.031492252
-0.0709743 -0.0022875369 -0.06986151 0.016024813 0.001488139 0.0547802 0.052482586 -0.0021512138
0.048528742 -0.04311313 -0.0018288414 0.023004113 -0.05180749 0.02742225 0.009280586 -0.054876946

Y_net.net.4.bias f4 [256]
00000000: b52c 15bd 11f1 7abc ae5f 80bd dce6 57bd
00000010: 0ca8 44bd 8e22 bd3d b139 3e3c 8245 4abc
00000020: 3230 5fbd 8355 94ba 0763 19bc 317c 85bd
00000030: 0f76 05bc 78db 933c 5c40 72bc 6e11 92bc
00000040: 1ea3 eabc cd12 373c 2e28 373d 4ed4 5ebd
00000050: 4ecb 78bd 269a 813b a2c6 bcb8 75d9 0a3c
00000060: 0a8e a0bd d131 6d3c 6a21 4bbd 743f fa3c
00000070: 1f0d 0c3d 8978 59bd 7bf6 723d 0011 ef3c
00000080: 0028 82bd 87a6 37bd c6f7 aa3b b1b8 87bd
00000090: 3a0b a1bd 832d ee3b ebb8 ca3c b58c d4bc
000000a0: 2835 9dbb 546f 08bd b053 c1bc 049d b13c
000000b0: 9458 683d 5d8a 503c 767e 6a3c df5e a23c
000000c0: ab6d 8bbc 7cac 22bd 5f12 853c 63b6 83bc
000000d0: b9c0 28bd 3262 783b 9380 41bd 3a2c f0bc
000000e0: 4133 09bd b48c 20be 9e23 abbc 3846 4abd
000000f0: 84bc 14bd c7fc 92bd d30b 283d 3dfb 4c3a
00000100: 7737 363d c250 dcbc e859 b63b c3b7 07bd
00000110: 08c1 2bbd a370 8e3d 4025 303d 5317 d6bc
00000120: d38a 8c3c 9328 743c bb4d 533c df80 663d
00000130: 4a26 54bd 7d33 92bd ee34 a3bc aada 53bd
00000140: 3cf8 92bc 779f babb 4a12 c9bd 39f4 ad3c
00000150: 8513 e3bc ad6b 30bd 249a a3bd ee08 113d
00000160: 3870 a4bd 5588 05bd 8673 f9bb a179 9bbd
00000170: 78dd 483c 345a febc c833 c03b 337b 213d
00000180: 34e1 833d 5e97 83bc 4554 44bc 3ef8 ab3c
00000190: 0d3e 1fbd bd71 37bd 8b90 833c ca68 98bc
000001a0: 185b a3bc 6bf4 86bd a4e4 9c3c 93a5 b63c
000001b0: fef7 ab3c 505c c1bc 758d 32bd 6d64 273d
000001c0: 5890 aebb 4901 90bb 497c 22bc b4d0 63bb
000001d0: 6ea0 403d 26d1 573d 4623 2d3c 0479 653d
000001e0: 854f 203d e59e 5a3b add7 363d b18e 27bd
000001f0: 9620 613c e54c 873c 3444 abbc 6e95 3c3d
00000200: 5857 98bc 2476 ccbc a798 8fbd d944 02bd
00000210: 3b8f 403d 2550 753c 7b73 bc3b 9d5d 89bd
00000220: a724 dc3b 3406 733d e0b6 5e3c bcc5 09bd
00000230: 93fc 3f3d 9330 90bd d1e5 0dbd c082 213d
00000240: 9d70 b0bc 34ee 97bd d69c ed3c b2af 33be
00000250: 8ef9 adbb 5253 323d 5319 37bd a424 893c
00000260: 9010 51bd ce33 ca3a 9b86 04bd 7f2b 37bd
00000270: 04f8 8fbd 05b0 8dbd 9651 75bd db44 11bd
00000280: 0fe6 09bd 9aa3 a2bc 4cec 833d d587 37bc
00000290: c914 7ebb 69ee 6ebc df58 f93b cf02 e33b
000002a0: f744 af3c 0988 82bd c9be 55bd 02d1 14bd
000002b0: c134 2b3c 0f84 a5bb 4abf 76bc 7f5d 35bd
000002c0: d323 f4bc 4c94 3f3c 1c8d 283c ec41 9bbb
000002d0: f7cd adbb 7d9b 0abe a388 bb3c 2e1b 0ebc
000002e0: 5869 cbbd d133 e3bc bbf3 89bc d236 7b3d
000002f0: e946 fd3c 60c3 953c c2b0 7abd d192 68bc
00000300: 8f7e 563d 3aa2 d5bd 461d efbc 4c04 f8bc
00000310: bb58 8a3c 57a0 d93c 4ec2 9dba c88b 05bd
00000320: ce59 1fbb d619 1cbd ae66 e3bd 3fe6 d3ba
00000330: 0c7e 78bd c4eb caba 03ce 00bd 9b06 fcbc
00000340: 5098 f93c 0532 7abd 8e5e 113d e145 b2bd
00000350: 565d 42bc 1e48 473d e31b abbd 7c8b 9abc
00000360: aad1 093d 6ffb 03bd dac1 a6bc 0da0 553c
00000370: 9de3 1abd 82d3 cabd 28e7 08bd d9fe 613d
00000380: f7c5 09bd b478 15bd bfc7 1f3d 7d48 ac3c
00000390: 1462 6fbd 264e 683d 8cbc 563d 4ddd b03c
000003a0: 3f35 08bd dcee a73c 2ee6 0f3d a9c6 adbc
000003b0: 8f38 403d de2c 87bd e81c 85bd 0428 20bd
000003c0: 4280 913c d983 233d 90e8 483d 74dc 84bd
000003d0: c517 0ebc 94f1 0ebd ea77 333d b0d1 9fbc
000003e0: ac8a 82bd bf0a cabc 05a7 46bc a079 983c
000003f0: c5d4 8dbd 3f4b 083d 45c4 bd3b a97d fabc
-0.03641959 -0.015316264 -0.062682495 -0.0527104 -0.048011824 0.092351064 0.011610434 -0.0123456735
-0.054489322 -0.0011316988 -0.009361989 -0.06517828 -0.008145823 0.018048987 -0.014785852 -0.017830577
-0.028642233 0.011173916 0.044716053 -0.05440169 -0.06074076 0.0039551435 -9.001537e-05 0.008474697
-0.07839592 0.014477209 -0.049592413 0.030547835 0.0341922 -0.053093467 0.059317093 0.02918291
-0.06355286 -0.044836547 0.005217525 -0.06627024 -0.078634694 0.007268609 0.024746379 -0.025946
-0.0047975965 -0.033309296 -0.023599476 0.021681316 0.0567251 0.012728301 0.014312377 0.019820629
-0.017020067 -0.039715275 0.016244112 -0.01607818 -0.04119942 0.0037900326 -0.04724176 -0.029317964
-0.033496145 -0.15678674 -0.020891007 -0.049383372 -0.036312595 -0.0717712 0.0410269 0.000781942
0.04448649 -0.026893977 0.005564917 -0.033134233 -0.041932136 0.069550775 0.043004274 -0.026134169
0.01715604 0.014902252 0.01289695 0.056275245 -0.051794328 -0.07138727 -0.0199227 -0.051722206
-0.017940633 -0.005695279 -0.098179415 0.021234618 -0.027719269 -0.043071438 -0.07988384 0.035408907
-0.080292165 -0.03260072 -0.0076126484 -0.07591558 0.0122598335 -0.031048872 0.005865548 0.039424133
0.064394385 -0.016063388 -0.011982982 0.020992395 -0.038877536 -0.044786204 0.016060134 -0.018604655
-0.019940898 -0.06589588 0.019151993 0.022295749 0.020992275 -0.023603588 -0.043591935 0.040867258
-0.0053272657 -0.0043946845 -0.009917327 -0.0034761848 0.047027998 0.052689694 0.010567492 0.056023613
0.039138336 0.0033358869 0.04463928 -0.040907566 0.013740679 0.016516158 -0.020906545 0.046040945
-0.018596336 -0.024958678 -0.07011538 -0.03180394 0.047011595 0.014972721 0.005751071 -0.067073084
0.0067182365 0.059332088 0.0135934055 -0.03363584 0.046871733 -0.07040515 -0.034642998 0.039431334
-0.021538073 -0.074184805 0.02900545 -0.17547491 -0.0053092903 0.04353649 -0.044701885 0.016741104
-0.051041186 0.0015426816 -0.032354932 -0.044719215 -0.07029727 -0.06918339 -0.05989226 -0.035466056
-0.033666667 -0.019853402 0.064415544 -0.0112018185 -0.0038769713 -0.014583209 0.007609471 0.006927825
0.02139519 -0.06373603 -0.0521839 -0.036332138 0.010449589 -0.005051143 -0.015060255 -0.044278618
-0.029802239 0.011693072 0.010287549 -0.004738083 -0.005304094 -0.13535877 0.022892302 -0.008673472
-0.09932202 -0.027734669 -0.016839853 0.061331578 0.030917602 0.018281639 -0.061203726 -0.01419516
0.05236679 -0.10431333 -0.029188763 -0.030275486 0.016888013 0.026565714 -0.0012036057 -0.03260401
-0.0024315002 -0.038110577 -0.11103569 -0.0016166641 -0.060667083 -0.0015481641 -0.031446468 -0.030764868
0.030468136 -0.06108286 0.035490565 -0.087047346 -0.011863073 0.04865276 -0.08354928 -0.01886534
0.033647217 -0.032222208 -0.020356108 0.013038647 -0.037814725 -0.09903623 -0.033423573 0.055174682
-0.03363606 -0.036492065 0.039008852 0.021030659 -0.058443144 0.056715153 0.052425906 0.0215899
-0.033253904 0.02049964 0.035131626 -0.021212893 0.04692894 -0.066003546 -0.06499654 -0.039100662
0.017761353 0.03992066 0.049049914 -0.064873606 -0.008672659 -0.034898356 0.04381553 -0.019509166
-0.06374106 -0.024663327 -0.0121247815 0.018612683 -0.06925348 0.033274885 0.0057912194 -0.030577498

Y_net.net.6.weight f4 [256, 256]
00000000: 021c 173d 68c2 55bc 147c 013d 8e68 e9bc
00000010: e6de 5dbd f5e7 533d 7019 a93b 267f 7a3d
00000020: 584f 9f3c b6f0 44bd 7076 45bd b050 20bc
00000030: 9616 0d3d a61b 0ebd b8f1 403c fc25 0abd
00000040: 8ee4 69bd d060 683d 967f 87bc a0c8 f7bb
00000050: c44b 0dbd 3235 61bd 44d3 d23c fc43 893c
00000060: ea82 07bd c10c b93c d705 153c 7dea 1fbd
00000070: 3bda 403d 803f 333d 3ba3 efbb 188f 8dbc
00000080: 04f2 1c3d 1634 043d bd4f 7abd 9f53 b6bc
00000090: 56fe 283d 8ae3 9bbc a8f3 17bd 74f3 203d
000000a0: 81b0 023d 9808 e03c 3efa 313d 564c 3c3d
000000b0: 3255 263d 9440 59bd b5f5 c63c d049 1e3c
000000c0: e26c 2abd 004e 36b9 bcc1 c93c 04d0 9c3c
000000d0: 3423 033d d82c bb3c 4182 0e3d 207d 34bb
000000e0: a250 89bd 0d77 4abd 8070 0cbd b2be 36bc
000000f0: b8df 3d3c ebbd 04bd c8f1 3b3d 7b66 403c
00000100: 0094 2439 006a a8b9 fef4 683d c69e 483c
00000110: 787c 513c 7fdc 3cbd 2051 90bd c3dc 783b
00000120: 4e0a 25bd 9082 d63b 19b0 e33c 4344 75bd
00000130: 008e 463c 2777 8cbc 5694 3bbc d002 8f3c
00000140: 94cd 133d e648 1b3d fb6b 8dbc 5ce1 173d
00000150: 280d 25bd a2c0 0a3d 30d1 7ebc a9b2 67bb
00000160: 45ed ff3c 9e6f e53c 939d 25bd c2f4 a43c
00000170: e1b4 55bd 718a 8f3c 285a 2fbd a6a6 0b3d
00000180: b0ce 9abb 3610 4a3d 742f ce3c a4f7 01bc
00000190: 6e54 d23c fc6e f53c 9187 c13b e10d 1cbd
000001a0: 853b fc3c edcf 74bc 15a0 05bd 9423 043d
000001b0: a778 3b3c a429 143d e02b 10bd 222a 4fbd
000001c0: 7f30 e0bb 8fff 883d 6451 b0bc 4411 11bd
000001d0: 6ad1 b9bc 1f21 10bc c343 6c3d da40 2fbd
000001e0: ebf5 08bd 1426 403d 547a bc3c a12f 86bd
000001f0: a9fa 89bd ee6f 01bd dab5 183c f130 ba3b
00000200: 4bb9 1d3d bf14 41bd 92d6 783d 0873 73bc
00000210: 5eb7 d63c aa30 763d 741a 1abd 7394 9dbb
00000220: 982b 13bc b7c4 20bd 008a c63b 0d22 91bc
00000230: 20ca 8bbc 1997 82bd 78c4 b13c 5646 32bd
00000240: 4644 31bd 20eb 0c3d ba7a 09bd 7295 5ebd
00000250: c036 7abd 2b60 69bd d363 20bd 9444 4cbd
00000260: c1a7 4abc 2c28 7dbd ea4a 2c3d 1028 b43c
00000270: 966b 9f3c c8af 92bd 187a 73bd e019 16bc
00000280: a025 2dbd b41b 27bd d6a7 2c3c 34d9 f4bc
00000290: 4f49 99bc 4819 5bbd 328c 7cbd 9efc 2e3c
000002a0: 20bb 65bd 8369 783b 10cc fd3b 6cd0 0c3d
000002b0: 6a73 803c b1a5 5bbd 80eb ecbc 7000 eebb
000002c0: 5221 76bd 7270 6ebc 488f 2c3d 50c9 06bd
000002d0: 4029 1bbc 9c9d 05bd f886 b3bc a47a 653d
000002e0: 0630 e0bc 40cb ecbc b477 3a3d fba1 df3c
000002f0: c681 88bd 3033 0b3c 40b0 ccbc 9688 063d
00000300: 42e8 ec3c 8a69 3fbd 5679 2b3d edc4 c8bb
00000310: eae9 15bd 980f 2b3d 37dd 82bd fc9d 483d
00000320: 00af bd39 585a 12bd 2ec9 57bd 503f 11bc
00000330: aa8b 33bd 0816 61bc 7c41 173d b8a2 eebc
00000340: 50b7 3cbc b535 69bd 60b3 113b c723 8ebd
00000350: e178 1d3d 9e6a fbbc 0235 5bbd 4093 9b3a
00000360: 18ab 12bd 5070 533d 4211 0dbd 5026 803c
00000370: 680d 00bd e8eb 91bc f174 fd3c 772c 263d
00000380: 3052 29bc f09d e23c 674a 4cbd 6a27 4e3d
00000390: b6ae 383d 7a80 1abd 8bb4 a0bc aaee 7bbd
000003a0: 9f3f 42bd 0e77 503c ae2b 623c b686 24bd
000003b0: a017 22bc c81b a7bc 8a87 5b3d 7cd9 37bd
000003c0: 13fb 1f3d 4731 07bd 2ecc 7abd ca88 3c3d
000003d0: a20a 59bd d2d9 17bd 28c8 56bd b7e5 093d
000003e0: 900e 11bd 8c64 6dbd fc8c 02bc daf7 4abd
000003f0: 498f 913c 24db 073d c870 793c 76d4 40bd
0.036891945 -0.013046838 0.03161247 -0.028492238 -0.05416765 0.051734883 0.005160503 0.061156414
0.019447014 -0.048081122 -0.048208654 -0.009784862 0.034445368 -0.034694336 0.01177638 -0.03372763
-0.057102732 0.056732953 -0.01654033 -0.007561758 -0.034496084 -0.05498237 0.025735505 0.01675605
-0.033083834 0.02258909 0.009095631 -0.039041985 0.04708312 0.04376173 -0.0073131598 -0.017280146
0.03831674 0.032276236 -0.0611112 -0.02225667 0.04125818 -0.019029398 -0.037097603 0.039294675
0.03190661 0.027347848 0.04345154 0.045971237 0.040608592 -0.053040102 0.024287084 0.009661153
-0.041607745 -0.0001738593 0.024628513 0.019142158 0.032015994 0.022848532 0.03479219 -0.00275404
-0.067048326 -0.049429942 -0.034286976 -0.011153864 0.011588983 -0.032407682 0.045884877 0.011743183
0.00015695393 -0.00032122433 0.056874268 0.012244886 0.012786023 -0.04610872 -0.07046723 0.003797338
-0.04029303 0.006546326 0.02779393 -0.059879553 0.012118816 -0.01714666 -0.01144894 0.017457396
0.036084726 0.03791132 -0.017263403 0.037080154 -0.04029575 0.033875115 -0.015552804 -0.0035354292
0.031241069 0.028007325 -0.040433478 0.02013624 -0.052174453 0.017522069 -0.04281059 0.034094475
-0.004724346 0.049331866 0.025169112 -0.007932577 0.025675025 0.029960148 0.0059060534 -0.038099173
0.0307901 -0.0149421515 -0.03262337 0.032260492 0.01144234 0.036172524 -0.035198092 -0.05057729
-0.0068417187 0.06689369 -0.021523185 -0.035416856 -0.022682864 -0.008796959 0.05768181 -0.042786457
-0.03343765 0.046911314 0.02300755 -0.06552053 -0.06737263 -0.031600885 0.009320701 0.005682104
0.038506787 -0.047138926 0.060751505 -0.014858969 0.026210483 0.060105003 -0.037622884 -0.0048089563
-0.0089825615 -0.039250102 0.0060589314 -0.017716432 -0.017064154 -0.06376476 0.021700129 -0.04352411
-0.043278 0.03440392 -0.033564307 -0.05434174 -0.06108737 -0.05697648 -0.0391577 -0.04987009
-0.012369097 -0.06180589 0.04206363 0.02199176 0.01946048 -0.07162434 -0.05944261 -0.0091614425
-0.04227221 -0.040797904 0.010538062 -0.029888727 -0.018711714 -0.053490907 -0.06165714 0.010680346
-0.05608666 0.0037904687 0.0077452734 0.034378454 0.015680034 -0.053624813 -0.028920889 -0.0072632357
-0.06009037 -0.014553176 0.04212883 -0.03290683 -0.009470284 -0.03262101 -0.021914944 0.056025162
-0.02736665 -0.02890551 0.045524314 0.027298918 -0.06665377 0.008496091 -0.024986386 0.032845102
0.028919343 -0.04673151 0.04186376 -0.006126991 -0.03660003 0.04176292 -0.0638985 0.04897879
0.00036179274 -0.03573069 -0.052682094 -0.0088651925 -0.043834366 -0.013738163 0.036927685 -0.029130325
-0.0115183145 -0.056935985 0.002223216 -0.06940418 0.038445357 -0.030690487 -0.05351735 0.0011869445
-0.0358077 0.05162078 -0.034440286 0.015643269 -0.031262785 -0.017812684 0.030939551 0.04056975
-0.010334536 0.027663201 -0.049875643 0.050330557 0.045088492 -0.03772018 -0.01961734 -0.061506905
-0.047423955 0.012723697 0.013804359 -0.040167533 -0.009893328 -0.02039899 0.053596057 -0.044885144
0.039057802 -0.03300598 -0.061229877 0.04602889 -0.052988656 -0.037072964 -0.052436978 0.03366634
-0.03541428 -0.057957217 -0.007968184 -0.049552776 0.017768519 0.033167973 0.015224643 -0.04707762
