saved/almgren_supervised_FC_ReLU/model_best.pth (torch, 800181 bytes, 9 tensors)

Y_net.net.0.weight f4 [256, 4]
-0.5128252 -0.40144023 0.3643407 0.20134747 0.26078266 -0.10105109 -0.12294798 0.03484727
0.14038292 -0.43837813 0.14102459 -0.27081487 -0.106431656 -0.16615179 0.02993064 -0.19075616
-0.4167824 -0.28592217 -0.12223836 -0.24555472 -0.46881193 0.38600194 0.18127902 -0.38169616
0.5846053 0.094060294 0.024993585 0.08762749 0.28877506 -0.2612822 -0.12782785 0.013236673
-0.1638311 -0.10381609 0.019733382 -0.11364427 -0.58375233 -0.11099244 0.021300437 0.20112395
-0.4931438 0.42121834 0.3558268 -0.026890622 0.2042529 -0.45384422 0.009188378 0.11778937
-0.4335783 -0.32243884 -0.31116632 0.30337533 0.4668093 -0.16010341 0.25649786 0.16401577
0.0022930035 0.4139367 0.08630212 0.04501797 0.4298974 -0.19387345 0.11091774 0.004472726
-0.45379364 0.058778737 0.2833799 -0.2966309 0.47728762 -0.11260013 0.30608538 -0.38201818
0.42095283 0.4294098 -0.13952658 -0.37320665 -0.3544467 -0.2212745 -0.03263873 -0.1654435
-0.2438673 -0.15962607 -0.27718183 0.22624978 0.24740818 0.3925952 -0.16482326 -0.4857068
-0.14321378 -0.20108666 -0.18149059 -0.22859736 0.31924608 -0.107763134 -0.24774092 0.037961915
0.1403432 0.41408685 0.36687332 0.33295757 0.024020307 0.2749523 0.00063682545 0.25095114
0.35253808 -0.19832218 0.19708973 0.25275213 -0.032584313 0.08365538 -0.29759833 -0.33587515
0.47041395 -0.34214213 0.23529549 0.37244976 0.14781114 0.26889932 0.19893014 -0.048217703
0.40564606 0.14701639 -0.42324674 0.1335546 -0.38812903 0.18388915 0.20758165 0.26112586
0.2487463 0.4034403 -0.11884789 -0.15175503 0.47793278 0.26800558 -0.06613145 -0.13611463
-0.32649222 0.2814628 -0.3307413 0.41834718 0.05700934 0.075286575 -0.344688 0.3596764
0.43847644 0.080282554 0.09377936 0.3313605 0.2932663 -0.4323533 0.3581514 0.21981499
0.38112164 0.37759742 -0.03250299 0.00089871936 -0.19301942 -0.26404533 -0.02031217 0.40844345
0.10052143 0.14679086 0.3453042 -0.20707096 0.56252813 0.079717785 -0.1480292 -0.19857647
-0.4257587 -0.0017331929 -0.24981444 0.09484741 -0.11395822 -0.019471047 0.36570323 0.018444384
-0.120503284 -0.076923005 0.14318684 -0.08368313 0.62889713 -0.04565253 0.037735187 -0.011913646
0.111772485 -0.1317757 -0.37914127 0.04474831 -0.15464313 -0.10494265 -0.13051006 0.375082
-0.09636787 -0.3254296 0.07314637 0.20313676 -0.55530775 -0.059779458 0.26187906 0.3361454
-0.11423424 0.16647974 0.11814184 0.30908743 -0.15123597 0.25344348 0.113330394 0.3224381
0.06688959 -0.3894103 0.116103664 0.31867662 0.2986721 -0.24473952 -0.25960323 0.059581716
-0.35892206 -0.012195051 -0.15146206 0.024570089 -0.042727493 0.016883165 0.41951302 -0.22867362
0.015212174 -0.20051199 0.21905676 -0.31916305 -0.40069243 0.30206037 -0.31085363 -0.23990022
0.03558943 -0.33968827 0.26593462 0.3918609 -0.11857383 0.20946944 -0.17163451 -0.40697506
0.1496701 0.11446747 -0.2949291 -0.4020639 0.51749796 0.3637403 -0.29395208 -0.27429402
-0.32571745 -0.26199272 0.30111453 0.2077845 -0.44235104 -0.2727662 0.08957604 0.10167334
00000000: 8348 03bf 9389 cdbe dd8a ba3e 082e 4e3e
00000010: 4e85 853e e0f3 cebd 27cc fbbd 03bc 0e3d
00000020: 8ac0 0f3e 1973 e0be c068 103e 3fa8 8abe
00000030: d7f8 d9bd b223 2abe 1a31 f53c 9555 43be
00000040: 8164 d5be 6464 92be 1b58 fabd b272 7bbe
00000050: 1e08 f0be 0ca2 c53e 35a1 393e ae6d c3be
00000060: b1a8 153f afa2 c03d 59bf cc3c 0b76 b33d
00000070: 53da 933e c8c6 85be 4ee5 02be a1de 583c
00000080: 57c3 27be 889d d4bd e7a7 a13c 54be e8bd
00000090: cb70 15bf 0150 e3bd 417e ae3c 70f3 4d3e
000000a0: 587d fcbe eea9 d73e ee2e b63e b949 dcbc
000000b0: ac27 513e 455e e8be da8a 163c 8e3b f13d
000000c0: fafd ddbe b416 a5be 3151 9fbe 0354 9b3e
000000d0: a101 ef3e 26f2 23be b053 833e c0f3 273e
000000e0: 3746 163b 83ef d33e 2abf b03d c364 383d
000000f0: 831b dc3e c386 46be d728 e33d f28f 923b
00000100: a457 e8be f9c1 703d 2c17 913e 01e0 97be
00000110: 0b5f f43e e69a e6bd 39b7 9c3e e397 c3be
00000120: 2187 d73e 9adb db3e 0ee0 0ebe f114 bfbe
00000130: 0a7a b5be c895 62be 30b0 05bd 056a 29be
00000140: 59b8 79be 0475 23be c7ea 8dbe 06ae 673e
00000150: 9258 7d3e 3d02 c93e 6ec7 28be 90ae f8be
00000160: a2a6 12be a9e9 4dbe abd8 39be 6d15 6abe
00000170: 3974 a33e ebb2 dcbd ccaf 7dbe f47d 1b3d
00000180: 21b6 0f3e 3103 d43e d2d6 bb3e 6a79 aa3e
00000190: 3cc6 c43c 8cc6 8c3e a2f0 263a ab7c 803e
000001a0: df7f b43e f814 4bbe e4d1 493e ba68 813e
000001b0: 2177 05bd 8353 ab3d cf5e 98be d4f7 abbe
000001c0: 19da f03e 412d afbe 4df1 703e bcb1 be3e
000001d0: ce5b 173e 2cad 893e 58b4 4b3e ed7f 45bd
000001e0: d7b0 cf3e 778b 163e ccb3 d8be 89c2 083e
000001f0: d9b8 c6be 704d 3c3e 4990 543e 4ab2 853e
00000200: 5ab7 7e3e ba8f ce3e 8666 f3bd ac65 1bbe
00000210: 9bb3 f43e 0738 893e ed6f 87bd a261 0bbe
00000220: fd29 a7be e41b 903e ec56 a9be 9a31 d63e
00000230: a082 693d d92f 9a3d f27a b0be 8127 b83e
00000240: fc7f e03e 2e6b a43d 650f c03d 15a8 a93e
00000250: 0027 963e 695d ddbe 9f5f b73e 2e17 613e
00000260: 6022 c33e 7354 c13e db21 05bd 0998 6b3a
00000270: e2a6 45be f330 87be b565 a6bc 801f d13e
00000280: 2ede cd3d 5850 163e b6cb b03e 690a 54be
00000290: d801 103f 1443 a33d f794 17be a157 4bbe
000002a0: 0bfd d9be 4e2c e3ba 5bcf 7fbe 5c3f c23d
000002b0: ed62 e9bd bf81 9fbc 743d bb3e ad18 973c
000002c0: 6dca f6bd cf89 9dbd 929f 123e 1062 abbd
000002d0: 67ff 203f 26fe 3abd 3690 1a3d 7431 43bc
000002e0: f9e8 e43d 36f0 06be ce1e c2be 014a 373d
000002f0: c55a 1ebe 2cec d6bd 6ea4 05be bf0a c03e
00000300: 855c c5bd b59e a6be c4cd 953d 1503 503e
00000310: a628 0ebf 4edb 74bd 0315 863e 401b ac3e
00000320: a4f3 e9bd aa79 2a3e 59f4 f13d b540 9e3e
00000330: 9add 1abe 58c3 813e c419 e83d 9b16 a53e
00000340: 69fd 883d c960 c7be c2c7 ed3d 9529 a33e
00000350: 8deb 983e ff9c 7abe b7ea 84be f50b 743d
00000360: a2c4 b7be c0cd 47bc df18 1bbe 3647 c93c
00000370: 0603 2fbd 904e 8a3c 69ca d63e 6b29 6abe
00000380: 7b3c 793c 0453 4dbe 6a50 603e 5769 a3be
00000390: 8f27 cdbe a8a7 9a3e 3528 9fbe 67a8 75be
000003a0: 39c6 113d 9feb adbe 9528 883e fea1 c83e
000003b0: d6d6 f2bd 287f 563e f5c0 2fbe 095f d0be
000003c0: 1e43 193e ec6d ea3d f200 97be 52db cdbe
000003d0: bf7a 043f 2b3c ba3e e380 96be 4470 8cbe
000003e0: 70c4 a6be e923 86be af2b 9a3e 76c5 543e
000003f0: d67b e2be 03a8 8bbe a573 b73d 1d3a d03d

Y_net.net.0.bias f4 [256]
-0.1284638 -0.19922066 -0.02701868 -0.08985575 0.4531233 0.38905427 -0.28301564 -0.41958013
0.37484905 0.39129183 -0.4282107 0.01697089 0.28701752 -0.12879653 -0.34484679 0.25420204
-0.20659907 -0.19970427 -0.35869816 0.6498741 0.056340575 -0.1249672 -0.112988986 0.36539066
-0.48172438 0.505791 0.33095962 0.23132963 -0.274819 0.23425165 -0.4341575 0.4347344
-0.40566656 -0.49360558 -0.3907049 0.42908534 -0.025488952 0.47644722 -0.37923717 -0.22232163
-0.44059363 0.13294356 0.37651172 0.22429593 0.14750332 -0.2723916 0.32057145 -0.28905904
-0.22237077 0.57019615 0.56606185 -0.2670411 0.03979058 0.4482111 0.392074 0.05535236
-0.19349167 -0.07637779 -0.39674485 0.36737344 0.4510691 -0.15785639 -0.14674786 -0.17544249
-0.37706235 0.4919416 0.23914224 -0.13071577 0.3781775 0.002374955 0.47953278 -0.32997894
0.13413371 -0.5143063 0.5331267 -0.48556095 -0.35730803 -0.102006555 0.21308658 0.22620322
-0.21846525 0.1409147 0.23241743 -0.38877743 -0.26260263 0.4687505 0.24659154 -0.024312282
-0.29573926 -0.1997307 -0.42979294 -0.47311997 -0.2569775 -0.34548753 0.011560545 -0.50219196
0.10492931 0.49181756 0.45865396 -0.32507762 -0.017169058 -0.49588552 -0.09734768 -0.32850814
0.042036768 -0.34541872 -0.19864158 0.30703294 0.13239186 0.6309587 0.5143971 0.5391385
-0.46267018 -0.41836458 0.24327089 -0.33987173 -0.33714134 -0.5954185 -0.44550818 -0.37537187
-0.3670261 -0.46381184 -0.41713247 -0.2680795 -0.49391556 0.31071374 0.56751746 -0.3790784
-0.1694213 -0.2602888 -0.17178544 -0.5066876 0.41230875 -0.24668624 -0.38893953 -0.08358272
0.32297415 0.095074005 -0.26631758 0.13782322 0.55754256 -0.34679234 0.05647355 0.06999375
-0.18103194 -0.32104138 0.053810112 0.5096877 -0.3123871 -0.047098864 0.16325527 -0.13765252
0.38187954 0.5977536 -0.30654687 0.3973111 0.226202 0.14137648 0.4782315 0.58231866
0.18037476 -0.24612884 0.21642289 0.37499818 -0.16367716 -0.3790738 -0.19746655 -0.14722475
0.19696128 -0.36773276 -0.12208993 -0.46045557 0.38483432 -0.54057384 0.3463829 -0.19501476
-0.551351 0.5551103 -0.46278906 -0.3945107 0.022910068 0.16252822 0.2937057 -0.40278727
-0.16652785 -0.12482611 -0.24335685 -0.37765837 -0.6184837 0.37907243 -0.123049475 0.36776865
-0.517406 -0.2983026 0.03278588 0.459203 -0.22179851 -0.32986552 -0.35958892 0.44792265
-0.4715774 -0.106983066 -0.06963384 -0.27273005 0.50203896 -0.33592096 0.18510616 0.60524786
0.11627692 0.032232504 0.46801475 -0.5357765 0.5194332 -0.44292015 -0.55658156 0.026228027
0.39538416 -0.3999574 -0.01869586 -0.13879968 0.26651058 0.6099812 -0.40368673 -0.58617836
-0.3265609 0.15043086 -0.4431284 -0.37465253 -0.22675732 0.3484305 0.05372496 0.41537884
0.02452435 0.51901555 -0.10098276 0.23146953 0.21850692 -0.1621973 -0.33906347 -0.4805769
-0.44077247 0.15555812 0.497613 -0.09249882 -0.009602093 -0.024449052 0.34134737 -0.4691639
-0.028649878 0.34598798 -0.13693525 -0.2090501 0.119560316 0.32280856 0.005864559 -0.40506017
00000000: 048c 03be 8000 4cbe 4756 ddbc 4b06 b8bd
00000010: c7ff e73e 1f32 c73e 6de7 90be 35d3 d6be
00000020: 37ec bf3e 6757 c83e 6f3e dbbe 8906 8b3c
00000030: f6f3 923e 3de3 03be c28f b0be c526 823e
00000040: b58e 53be 477f 4cbe 49a7 b7be 265e 263f
00000050: 60c5 663d ceee ffbd c566 e7bd 7c14 bb3e
00000060: 94a4 f6be 857b 013f 8a73 a93e ade1 6c3e
00000070: 13b5 8cbe aadf 6f3e e449 debe 8295 de3e
00000080: 87b3 cfbe dfb9 fcbe 790a c8be 13b1 db3e
00000090: 35ce d0bc e4f0 f33e 602b c2be 48a8 63be
000000a0: 7d95 e1be 5b22 083e 25c6 c03e d5ad 653e
000000b0: 1c0b 173e e976 8bbe f121 a43e 8cff 93be
000000c0: 2ab5 63be 60f8 113f 6ee9 103f 9cb9 88be
000000d0: 72fb 223d ed7b e53e ecbd c83e 28b9 623d
000000e0: ae22 46be f56b 9cbd 2422 cbbe 5f18 bc3e
000000f0: 87f2 e63e 1ba5 21be 1245 16be 32a7 33be
00000100: 510e c1be c5df fb3e b4e1 743e 5bda 05be
00000110: 7ba0 c13e 22a5 1b3b 5285 f53e 00f3 a8be
00000120: 595a 093e 94a9 03bf fe7a 083f 729b f8be
00000130: 14f1 b6be d0e8 d0bd 5e33 5a3e d1a1 673e
00000140: 5bb5 5fbe f14b 103e d6fe 6d3e d60d c7be
00000150: da73 86be 1100 f03e 7e82 7c3e 8d2a c7bc
00000160: 236b 97be 3486 4cbe d20d dcbe c83c f2be
00000170: 8e92 83be bee3 b0be 7168 3d3c a78f 00bf
00000180: 2ee5 d63d 83cf fb3e b1d4 ea3e 9370 a6be
00000190: 20a6 8cbc b5e4 fdbe 385e c7bd 3832 a8be
000001a0: bf2e 2c3d b9da b0be b368 4bbe 6c33 9d3e
000001b0: bb91 073e 8286 213f 87af 033f fb04 0a3f
000001c0: 1be3 ecbe e233 d6be 011c 793e ab03 aebe
000001d0: ca9d acbe 596d 18bf a619 e4be be30 c0be
000001e0: d8ea bbbe bf78 edbe 6392 d5be b741 89be
000001f0: 80e2 fcbe df15 9f3e d348 113f 9016 c2be
00000200: c77c 2dbe 9344 85be 86e8 2fbe 47b6 01bf
00000210: 221a d33e 519b 7cbe 1523 c7be 6b2d abbd
00000220: de5c a53e 29b6 c23d c75a 88be 8821 0d3e
00000230: 1cbb 0e3f c48e b1be cf50 673d e258 8f3d
00000240: 7060 39be 895f a4be fe67 5c3d e57a 023f
00000250: 34f1 9fbe bdea 40bd 642c 273e c8f4 0cbe
00000260: b785 c33e 6106 193f b6f3 9cbe 5c6c cb3e
00000270: 7fa1 673e ffc4 103e c2da f43e d612 153f
00000280: 29b4 383e 3309 7cbe f69d 5d3e c3ff bf3e
00000290: fc9a 27be f615 c2be ac34 4abe 16c2 16be
000002a0: 38b0 493e 7847 bcbe 490a fabd d5c0 ebbe
000002b0: 0109 c53e 0c63 0abf 1959 b13e f3b1 47be
000002c0: 5725 0dbf b51b 0e3f b0f2 ecbe 4efd c9be
000002d0: e5ad bb3c cc6d 263e 9860 963e 223a cebe
000002e0: 4786 2abe d5a4 ffbd 8a32 79be 705c c1be
000002f0: f354 1ebf c815 c23e 5d01 fcbd 2c4c bc3e
00000300: b874 04bf 1ebb 98be 7d4a 063d a81c eb3e
00000310: 261f 63be 22e4 a8be 0a1c b8be 1e56 e53e
00000320: 9872 f1be f019 dbbd 309c 8ebd 46a3 8bbe
00000330: a085 003f d5fd abbe 788c 3d3e 86f1 1a3f
00000340: 9822 ee3d 3b06 043d a19f ef3e a628 09bf
00000350: 93f9 043f 6ec6 e2be 217c 0ebf 29dc d63c
00000360: cb6f ca3e 37c7 ccbe 0f28 99bc 8121 0ebe
00000370: 1374 883e ba27 1c3f 07b0 cebe c90f 16bf
00000380: fe32 a7be 8c0a 1a3e bae1 e2be 75d2 bfbe
00000390: 1233 68be 7c65 b23e b40e 5c3d 89ac d43e
000003a0: 4ae7 c83c 34de 043f 0dd0 cebd 5906 6d3e
000003b0: 47c0 5f3e 0d17 26be ba99 adbe 2d0e f6be
000003c0: eeac e1be a14a 1f3e 22c7 fe3e 0570 bdbd
000003d0: 1952 1dbc 6149 c8bc 15c5 ae3e 4036 f0be
000003e0: 26b3 eabc 5625 b13e c138 0cbe 3b11 56be
000003f0: 0adc f43d 2a47 a53e 7d2b c03b 0c64 cfbe

Y_net.net.2.weight f4 [256, 256]
-0.018750547 -0.012237195 0.033241857 -0.035934824 0.008436448 -0.08673597 0.043101788 0.0008014521
-0.039574403 -0.051325813 0.057017915 0.054514952 -0.036637995 -0.0003436482 0.02903467 0.027323125
0.09448771 0.03925674 0.03947645 -0.05930733 -0.0024139732 -0.0048634466 0.033532128 -0.024188753
0.03249604 -0.09173367 -0.009947739 -0.013948725 -0.013888797 -0.0077656223 0.025370575 -0.031734865
0.02498387 0.09301646 0.06377526 -0.009779274 0.075141795 0.020736646 0.067473784 -0.023803115
0.03616781 0.040680416 0.0041605397 0.019054588 -0.019641604 0.12277148 0.05712556 -0.014867631
0.086753 -0.03441434 -0.004487426 0.014237562 -0.014878364 -0.0062598903 -0.098690316 -0.0072744917
0.0022165792 0.03155752 0.031120965 0.039016254 -0.06893021 0.051622737 -0.0016629165 0.02151376
0.10809177 -0.05326824 -0.028364003 0.026217688 0.00571453 0.009805761 -0.015530533 -0.009153539
-0.03587871 -0.014594326 0.022566186 -0.010605202 0.075522445 0.0019211242 -0.023458445 0.0023185578
-0.0063684005 -0.03356312 0.01928422 0.04423835 -0.012605802 -0.047348335 -0.034296535 -0.070408024
-0.010383584 -0.021083746 0.19787706 0.15032287 -0.049055688 0.1414286 0.08943462 0.13751343
0.02449098 -0.0292175 0.0014668541 0.13142881 0.20939486 -0.02235402 0.0063683027 0.037958395
0.0009839066 -0.049872916 0.0016967419 -0.026025292 0.0067557227 -0.13720383 -0.058354463 -0.0692519
0.027149195 0.06616562 -0.0019310007 0.043350033 0.07110882 0.056692306 -0.017637022 -0.007352449
0.050024953 0.14832069 0.0010096261 -0.005927729 0.12660441 -0.040457048 -0.10009661 0.06740595
0.037048623 0.064458504 0.05986283 0.081323646 0.024302367 0.039261576 0.1258768 -0.005786523
-0.0376426 -0.0035894187 0.021915758 0.029588055 -0.057710554 -0.004272079 -0.01792168 0.02357419
-0.051337887 0.026280355 -0.025876176 0.013380647 0.050112814 0.08935869 0.0047871163 0.115874514
-0.020185113 -0.06659488 0.039949294 -0.06819673 0.024740823 0.043829337 -0.076928236 -0.013406957
-0.00035201554 0.04427222 -0.023813907 -0.01970264 -0.019833826 0.0039518587 0.018674606 -0.0062327324
0.013355446 0.047480833 0.00075670873 -0.008013417 -0.08664263 0.089903295 -0.06292177 -0.021946836
-0.03791868 -0.122605264 0.03855748 0.22850005 -0.036183022 0.0032316025 0.022211181 0.26435852
0.039243978 0.043185536 -0.035319436 0.05026975 0.07262568 -0.069000214 0.031401105 -0.06832893
0.015189427 0.12125019 0.0628223 -0.020759529 0.078594744 0.07240766 -0.0024801386 -0.077725366
-0.002370703 0.02383424 0.03429706 0.06618592 -0.0035763104 0.08493347 0.0058164 -0.05669708
0.047550537 -0.039856713 -0.00083835365 0.0019658317 -0.07585948 0.21082209 0.07857206 -0.062417496
-0.05674496 0.016254432 0.01082778 0.08924868 0.05493121 0.005743024 0.11109646 0.300998
0.21858482 0.03354731 0.0953389 0.03370121 0.009040908 -0.073307455 0.041108113 -0.046495624
-0.070097156 -0.0039039843 0.050762422 0.017431978 -0.017138382 -0.008782412 0.025882626 -0.018312465
0.012579147 -0.041841056 -0.004529097 0.06995644 0.04156161 0.09037311 0.0067862077 0.0692402
0.019980855 0.059737436 0.03259188 -0.027841765 -0.022163076 -0.0002451436 0.074480936 0.0009794566
00000000: bf9a 99bc 847e 48bc 9d28 083d 6530 13bd
00000010: 0739 0a3c a1a2 b1bd 808b 303d 8a18 523a
00000020: c518 22bd 043b 52bd 9e8b 693d 124b 5f3d
00000030: b911 16bd ae2b b4b9 1eda ed3c bfd4 df3c
00000040: c682 c13d adcb 203d 0fb2 213d 3eec 72bd
00000050: c033 1ebb 8c5d 9fbb fc58 093d 7e27 c6bc
00000060: 911a 053d ddde bbbd d7fb 22bc 3189 64bc
00000070: d68d 63bc c376 febb f4d5 cf3c 6bfc 01bd
00000080: f9aa cc3c 6a7f be3d 9a9c 823d 4039 20bc
00000090: f1e3 993d e6df a93c b22f 8a3d c0fe c2bc
000000a0: b324 143d 82a0 263d 2355 883b 5e18 9c3c
000000b0: 6ee7 a0bc 9d6f fb3d 7efc 693d 5d97 73bc
000000c0: 8fab b13d 0df6 0cbd 420b 93bb aa44 693c
000000d0: 62c4 73bc c41f cdbb 261e cabd dc5e eebb
000000e0: 0744 113b 7542 013d 65f1 fe3c 82cf 1f3d
000000f0: 482b 8dbd 5d72 533d 38f6 d9ba a03d b03c
00000100: 385f dd3d cc2f 5abd a05b e8bc 7ac6 d63c
00000110: f440 bb3b 58a8 203c c773 7ebc baf8 15bc
00000120: 8ef5 12bd 0a1d 6fbc b9dc b83c 71c1 2dbc
00000130: 83ab 9a3d 3bce fb3a ed2b c0bc f2f2 173b
00000140: 04ae d0bb 7b79 09bd f1f9 9d3c 4633 353d
00000150: 9188 4ebc 54f0 41bd 867a 0cbd 1532 90bd
00000160: e81f 2abc d2b7 acbc 49a0 4a3e 3dee 193e
00000170: 9eee 48bd a9d2 103e 8029 b73d 52d0 0c3e
00000180: 4fa1 c83c 8a59 efbc 7543 c03a 4695 063e
00000190: 9b6b 563e c71f b7bc 32ad d03b 437a 1b3d
000001a0: 6df6 803a 8b47 4cbd 3665 de3a fe32 d5bc
000001b0: 1c5f dd3b 297f 0cbe 1705 6fbd f1d3 8dbd
000001c0: fd67 de3c d781 873d a219 fdba ce8f 313d
000001d0: 80a1 913d 3136 683d 847b 90bc d0ec f0bb
000001e0: f7e6 4c3d 61e1 173e 6e55 843a 653d c2bb
000001f0: 96a4 013e 4ab6 25bd 74ff ccbd 210c 8a3d
00000200: 4cc0 173d d202 843d ba32 753d 038d a63d
00000210: c215 c73c bfd0 203d d9e5 003e e09c bdbb
00000220: 202f 1abd 743c 6bbb ad88 b33c a662 f23c
00000230: e761 6cbd ccfc 8bbb 7dd0 92bc a91e c13c
00000240: ad47 52bd e649 d73c 46fa d3bc 803a 5b3c
00000250: 1843 4d3d b001 b73d 3edd 9c3b 9e4f ed3d
00000260: 405b a5bc e562 88bd dfa1 233d baaa 8bbd
00000270: 44ad ca3c 6486 333d 8d8c 9dbd daa8 5bbc
00000280: ba8e b8b9 ca56 353d 6215 c3bc 6e67 a1bc
00000290: 8c7a a2bc 987e 813b 7dfb 983c f33b ccbb
000002a0: cdd0 5a3c 437b 423d dd5d 463a b54a 03bc
000002b0: b171 b1bd 381f b83d 21dd 80bd dac9 b3bc
000002c0: 9e50 1bbd 7818 fbbd 73ee 1d3d ebfb 693e
000002d0: a634 14bd 4bc9 533b 39f4 b53c 005a 873e
000002e0: 4bbe 203d 51e3 303d 1dab 10bd a7e7 4d3d
000002f0: c6bc 943d fc4f 8dbd 729e 003d 0af0 8bbd
00000300: 13dd 783c 0552 f83d faa8 803d e30f aabc
00000310: 48f6 a03d 784a 943d d289 22bb 7a2e 9fbd
00000320: cc5d 1bbb 0640 c33c 137b 0c3d 7c8c 873d
00000330: 8860 6abb 99f1 ad3d 8097 be3b 333b 68bd
00000340: 5ac4 423d cb40 23bd f6c4 5bba 2fd5 003b
00000350: 375c 9bbd bfe1 573e 63ea a03d 7da9 7fbd
00000360: 676d 68bd 0428 853c 0067 313c 03c8 b63d
00000370: 8cff 603d fa2f bc3b 8a86 e33d 691c 9a3e
00000380: b3d4 5f3e e768 093d 0b41 c33d 480a 0a3d
00000390: 5120 143c 3822 96bd fb60 283d 3272 3ebd
000003a0: 198f 8fbd fdd9 7fbb 42ec 4f3d 82cd 8e3c
000003b0: cb65 8cbc 1be4 0fbc cd07 d43c 0604 96bc
000003c0: c418 4e3c 8761 2bbd d268 94bb 5245 8f3d
000003d0: 823c 2a3d 8915 b93d d65e de3b cecd 8d3d
000003e0: e4ae a33c 3eaf 743d 107f 053d 6a14 e4bc
000003f0: 578f b5bc 9e86 80b9 7689 983d 1c61 803a

Y_net.net.2.bias f4 [256]
-0.085067436 -0.022120098 0.017768003 0.0018999018 -0.08091916 0.14467007 -0.043334417 0.0066422303
0.055424713 -0.18513568 -0.114812225 -0.08693575 0.06856873 0.046200097 -0.079112135 0.00091424823
-0.12165493 0.043463387 0.089677334 0.033006705 0.056321323 0.019126972 -0.10650189 0.017584274
-0.04810213 -0.15381162 -0.03757133 -0.15709357 0.010572823 -0.17673646 -0.083008915 -0.08865668
0.021158446 -0.14421071 -0.1577844 -0.058010407 0.12776348 0.037488855 -0.04685803 -0.109489344
-0.03971766 -0.082707465 0.055853516 -0.11221439 -0.13579093 -0.07468631 0.029612897 -0.016749477
0.049571645 0.05085624 -0.03744805 -0.047839373 0.043324474 -0.045436986 -0.07110701 0.0707103
0.038559046 -0.06914744 0.06670824 -0.055514306 -0.15026566 0.04964838 0.015123407 -0.046734415
0.08267908 -0.09465771 -0.031837232 -0.120922565 -0.009714632 -0.1594391 -0.1360136 -0.06212136
0.13356732 -0.11811115 0.062174767 0.060746018 0.1023983 0.06871842 -0.068666264 -0.08436091
0.09514791 0.112914875 0.063416116 -0.0911476 0.020701975 -0.10200746 0.075470105 -0.00804244
-0.1561564 -0.07591307 -0.01667333 0.08941435 -0.1052112 -0.023685232 -0.0035893323 0.02687735
-0.06973533 0.11470533 0.017720386 -0.13686185 0.109006345 0.025179163 -0.07759848 -0.063689224
-0.046557534 -0.074800454 -0.049135264 -0.06492166 -0.08602666 0.07917034 -0.073303945 -0.04691221
-0.08772956 -0.097230434 0.007112687 0.07611891 -0.12173309 0.07566311 -0.10049842 -0.06049577
0.0037075623 0.067697026 -0.05591216 0.010155191 -0.050236456 0.12277079 -0.12485604 0.0349672
-0.06034378 0.048543267 -0.032415554 0.011141195 0.0151219275 -0.07731083 0.029872559 0.032652736
-0.19922227 -0.07019235 -0.034094933 -0.030837389 -0.053625695 -0.024626035 0.103142254 -0.15716109
0.027396087 -0.069599874 0.03552549 -0.038839705 -0.067544505 -0.13805626 -0.03488503 -0.11642213
-0.11524711 -0.048457637 -0.07917688 -0.0052069244 0.0008342599 0.02162471 0.037989765 0.03229822
-0.0019342809 -0.055958655 0.033755593 -0.080663204 -0.035798877 -0.050025452 -0.05438637 -0.06776194
-0.0074095274 -0.16320711 -0.005424379 -0.115001895 -0.054398067 -0.026189739 -0.10165564 0.0052129603
-0.06352247 -0.019838495 -0.05922576 -0.024429029 0.0026259343 -0.047691647 -0.059231028 -0.02393927
0.018184135 -0.014303165 -0.011246113 -0.012611539 -0.12852225 -0.012308552 -0.06670891 -0.02258136
-0.031708557 -0.11582438 0.00014761573 -0.040765725 -0.10888428 -0.053724892 -0.08235015 0.01998636
-0.01317056 0.026437111 -0.003259108 0.032922804 -0.016076455 0.08059095 0.014248543 0.060061935
0.015063231 -0.07313996 -0.13701881 -0.13027674 0.027236119 0.0012577855 -0.110611305 -0.12922311
0.05960947 -0.09967114 -0.11883344 0.021393629 -0.10850053 -0.09525664 -0.04734947 -0.016051544
-0.21160407 0.043233763 -0.08166473 -0.05510822 -0.07141985 -0.080163084 -0.17822398 0.033257954
0.00031900298 -0.03020209 -0.15231062 -0.057676893 -0.09065682 -0.16772328 -0.013709856 -0.040931176
0.052817993 -0.028286418 0.015314532 -0.07282084 -0.08776838 -0.026520688 -0.19133547 -0.0052928193
-0.0015731241 0.039238676 -0.0026642173 -0.011492808 0.21377264 0.07408346 0.09093373 0.040547904
00000000: d637 aebd 3535 b5bc 348e 913c 2006 f93a
00000010: f2b8 a5bd 6424 143e 6e7f 31bd 11a7 d93b
00000020: 0605 633d 3594 3dbe ac22 ebbd 5f0b b2bd
00000030: c36d 8c3d 503c 3d3d 8b05 a2bd 29aa 6f3a
00000040: 3826 f9bd aa06 323d c0a8 b73d 0a32 073d
00000050: 30b1 663d 2bb0 9c3c aa1d dabd e50c 903c
00000060: bd06 45bd cb80 1dbe 65e4 19bd 23dd 20be
00000070: a239 2d3c 67fa 34be 9400 aabd a291 b5bd
00000080: 7a54 ad3c f9ab 13be 3c92 21be 529c 6dbd
00000090: 6ed4 023e ea8d 193d 35ee 3fbd f33b e0bd
000000a0: fcae 22bd 8862 a9bd a8c6 643d a8d0 e5bd
000000b0: c70c 0bbe 23f5 98bd bf96 f23c 3336 89bc
000000c0: a30b 4b3d a24e 503d 2063 19bd 38f3 43bd
000000d0: 0175 313d 221c 3abd 8da0 91bd 90d0 903d
000000e0: 17f0 1d3d 2c9d 8dbd 549e 883d f862 63bd
000000f0: 3edf 19be 1a5c 4b3d 2bc8 773c 966c 3fbd
00000100: a653 a93d e7db c1bd c267 02bd 40a6 f7bd
00000110: 1f2a 1fbc 0144 23be 2647 0bbe f872 7ebd
00000120: dfc5 083e 42e4 f1bd f8aa 7e3d d1d0 783d
00000130: 33b6 d13d 3ebc 8c3d e6a0 8cbd 6ac5 acbd
00000140: e8dc c23d ea3f e73d 4fe0 813d 98ab babd
00000150: 3097 a93c 4ae9 d0bd 1290 9a3d 70c4 03bc
00000160: 77e7 1fbe 5078 9bbd 8296 88bc df1e b73d
00000170: f878 d7bd 8807 c2bc 013b 6bbb e32d dc3c
00000180: 66d1 8ebd a1ea ea3d 582a 913c 8325 0cbe
00000190: b83e df3d 8844 ce3c f4eb 9ebd 7f6f 82bd
000001a0: 1db3 3ebd fb30 99bd 0f42 49bd a6f5 84bd
000001b0: bf2e b0bd 0f24 a23d 6120 96bd 0427 40bd
000001c0: 8eab b3bd c020 c7bd 8b11 e93b 3be4 9b3d
000001d0: 334f f9bd 43f5 9a3d 1ed2 cdbd 6aca 77bd
000001e0: 93fa 723b bda4 8a3d 2604 65bd f561 263c
000001f0: bec4 4dbd 406f fb3d 86b4 ffbd c439 0f3d
00000200: 0a2b 77bd 4ed5 463d 2cc6 04bd 8f89 363c
00000210: f6c1 773c 2455 9ebd 4cb7 f43c e0be 053d
00000220: ec00 4cbe 02c1 8fbd 21a7 0bbd b19e fcbc
00000230: 9ea6 5bbd 8abc c9bc 3f3c d33d d6ee 20be
00000240: c26d e03c 618a 8ebd 2d83 113d 6216 1fbd
00000250: c654 8abd 9f5e 0dbe 9be3 0ebd ba6e eebd
00000260: ad06 ecbd 847b 46bd 7d27 a2bd d99e aabb
00000270: 3cb2 5a3a 4e26 b13c 289b 1b3d 234b 043d
00000280: b287 fdba e734 65bd 4e43 0a3d c032 a5bd
00000290: d8a1 12bd 7de7 4cbd 3ec4 5ebd c6c6 8abd
000002a0: 9fcb f2bb c41f 27be fdbe b1bb 1d86 ebbd
000002b0: 82d0 5ebd dd8b d6bc d530 d0bd 7bd1 aa3b
000002c0: 1218 82bd 5784 a2bc b696 72bd 631f c8bc
000002d0: de17 2c3b 5158 43bd 3c9c 72bd 4a1c c4bc
000002e0: e5f6 943c d257 6abc 9e41 38bc a1a0 4ebc
000002f0: 569b 03be cfa9 49bc ae9e 88bd 8bfc b8bc
00000300: d5e0 01bd 5535 edbd 4cc9 1a39 f6f9 26bd
00000310: b9fe debd a20e 5cbd 32a7 a8bd 6fba a33c
00000320: 55c9 57bc a492 d83c c296 55bb 10da 063d
00000330: c5b2 83bc de0c a53d b972 693c 8103 763d
00000340: c5cb 763c 67ca 95bd a94e 0cbe 4467 05be
00000350: 481e df3c 47dc a43a 2e88 e2bd 1053 04be
00000360: 0f29 743d 6220 ccbd f25e f3bd b141 af3c
00000370: 8735 debd ea15 c3bd 85f1 41bd 877e 83bc
00000380: bdae 58be e315 313d d73f a7bd 28b9 61bd
00000390: 9244 92bd 8b2c a4bd 5980 36be 7e39 083d
000003a0: db3f a739 606a f7bc 51f7 1bbe 9b3e 6cbd
000003b0: 48aa b9bd a7bf 2bbe 4e9f 60bc 73a7 27bd
000003c0: ae57 583d ebb8 e7bc cee9 7a3c 1823 95bd
000003d0: e9bf b3bd ea41 d9bc 72ed 43be 636f adbb
000003e0: 4931 ceba bcb8 203d 269a 2ebb 554c 3cbc
000003f0: 37e7 5a3e 12b9 973d 773b ba3d 8f15 263d

Y_net.net.4.weight f4 [256, 256]
0.15016773 -0.05167383 0.020934185 0.010796418 -0.029862663 -0.08056136 -0.008160568 0.006067708
-0.014471626 0.019154992 0.074943475 -0.0021430159 -0.002708213 -0.09746016 0.0690926 -0.0130158095
0.15929338 0.0818723 -0.11919756 -0.15531352 -0.061640624 0.037480284 0.090702385 -0.027077649
0.024228342 -0.030016657 0.07334418 0.08431562 0.032666083 0.12261415 0.061536964 0.061062902
0.03252756 0.1041964 0.07449107 -0.03242208 -0.04574174 0.14228792 0.008017449 0.027799506
-0.0513486 0.19868489 0.016144425 0.13607748 0.24498513 0.05040696 0.05433324 0.045289937
-0.021643559 -0.044222314 0.011014138 -0.004843323 0.039726734 0.030729415 -0.013329304 -0.08616381
-0.0060550193 -0.03391449 -0.042226974 0.045419335 0.11833915 -0.015311535 -0.02165658 0.15829411
-0.106200024 0.045682754 -0.05751198 0.10359571 0.06468205 0.041057006 -0.013421524 -0.067093015
0.0015049401 0.0820499 -0.0034073805 0.017518185 -0.058650095 -0.07568974 0.3378818 -0.03055963
-0.040702347 -0.06532205 0.13491893 0.047208242 0.039942123 -0.016827289 -0.08949825 0.053032547
0.098940216 -0.033424355 -0.052340597 -0.05299436 0.19542979 -0.015680708 -0.05617695 0.042304575
0.1387938 -0.03250742 -0.054333538 -0.0015729307 -0.15801512 0.0033273683 -0.032342967 0.025676569
0.039941974 -0.022252617 0.21098116 0.067226216 0.08089112 -0.033341255 -0.010354132 0.031429555
0.06909112 0.07075979 -0.054792088 -0.02091541 0.20117994 -0.21443836 0.05510338 -0.005346935
-0.010905805 -0.013473362 0.026429461 -0.0928406 -0.028902706 -0.008295504 0.048447113 -0.09089571
-0.0529519 0.0151348375 -0.04570623 -0.06972453 0.03165183 0.09133917 0.072538614 0.0034867104
0.19936785 0.11059792 0.06022649 0.037372205 0.14670922 0.043358855 -0.0049996465 -0.009486622
0.014823629 -0.030284284 -0.031050246 -0.084888406 0.030108988 0.16918036 0.008723355 -0.019548157
-0.05678576 0.04028843 -0.0051204083 0.015025749 0.08955941 -0.020822361 0.052159738 0.049214356
-0.0013600569 -0.038119312 0.048308544 -0.007845025 0.0041613807 0.0057739187 0.03764547 0.047651473
0.0036789672 0.05368537 -0.007929118 -0.018182302 0.027425142 -0.027874112 0.18661684 -0.014111675
0.100262135 -0.0007565271 0.06749486 0.029987888 -0.064985886 -0.038149618 0.012257188 0.033562507
-0.06631168 0.06529157 -0.038954355 0.032997828 0.065106966 0.019055512 0.069771774 -0.005845761
-0.06388354 -0.052541323 0.041481253 0.032191735 -0.004417339 0.036564283 -0.008448043 0.026560737
-0.014232174 -0.02359839 -0.019879956 -0.019840488 -0.03160565 -0.12548846 0.07756483 -0.0699948
0.047940884 -0.017030498 0.13348162 0.18656531 -0.06373544 -0.101338744 0.015694067 0.049838047
0.060996223 0.046435688 0.11524655 -0.02798794 -0.00068967836 0.066950426 -0.025845464 0.046849
0.07614895 -0.10810381 0.042673055 0.06447358 -0.003912229 0.09729149 0.020704828 -0.003402519
-0.051616736 0.026839646 0.0385411 0.0015365017 0.074166454 0.19880071 -0.036100417 0.031492252
-0.06284228 -0.007723862 -0.06532033 0.041006744 0.04488818 0.005743331 0.09754287 -0.0021512138
0.07727995 -0.09261895 0.02228935 0.023004113 -0.11456517 -0.0067141275 -0.036702413 -0.054772716
00000000: 92c5 193e f0a7 53bd 2b7e ab3c 76e3 303c
00000010: 8ba2 f4bc 5bfd a4bd e7b3 05bc a0d3 c63b
00000020: 661a 6dbc eeea 9c3c f77b 993d d771 0cbb
00000030: 467c 31bb 3199 c7bd 6c80 8d3d 4340 55bc
00000040: ce1d 233e aaac a73d da1d f4bd 820a 1fbe
00000050: e17a 7cbd ed84 193d 2cc2 b93d f2d1 ddbc
00000060: 847a c63c 7ee5 f5bc 7935 963d abad ac3d
00000070: dfcc 053d 211d fb3d 2f0e 7c3d 181d 7a3d
00000080: 9e3b 053d ec64 d53d c68e 983d 04cd 04bd
00000090: b15b 3bbd edb3 113e 9e5b 033c cabb e33c
000000a0: e952 52bd 0d74 4b3e 5041 843c e557 0b3e
000000b0: 62dd 7a3e 8777 4e3d 888c 5e3d f181 393d
000000c0: d54d b1bc 7522 35bd a574 343c bdb4 9ebb
000000d0: 80b8 223d 41bc fb3c 2763 5abc a776 b0bd
000000e0: 2f69 c6bb ece9 0abd 31f6 2cbd a009 3a3d
000000f0: cc5b f23d 3cdd 7abc 2469 b1bc da17 223e
00000100: 667f d9bd d71d 3b3d af91 6bbd fd29 d43d
00000110: 0678 843d 642b 283d f4e5 5bbc 1068 89bd
00000120: 6941 c53a c709 a83d 5c4e 5fbb 4c82 8f3c
00000130: 153b 70bd 3903 9bbd d8fe ac3e 3058 fabc
00000140: 81b7 26bd 91c7 85bd 3028 0a3e 6e5d 413d
00000150: 5a9a 233d 62d9 89bc dc4a b7bd a838 593d
00000160: 2ba1 ca3d fae7 08bd 1863 56bd 9d10 59bd
00000170: bf1e 483e d474 80bc cd19 66bd 9047 2d3d
00000180: f61f 0e3e 8026 05bd d88c 5ebd cc2a ceba
00000190: b7ce 21be fa0f 5a3b 0f7a 04bd ab57 d23c
000001a0: 329a 233d 1f4b b6bc 720b 583e e6ad 893d
000001b0: 3eaa a53d d790 08bd 61a4 29bc 47bc 003d
000001c0: a57f 8d3d 82ea 903d ab6d 60bd cb56 abbc
000001d0: 1d02 4e3e bb95 5bbe 15b4 613d 5735 afbb
000001e0: 43ae 32bc 60bf 5cbc 9982 d83c 3623 bebd
000001f0: 5ec5 ecbc dee9 07bc 7b70 463d 8827 babd
00000200: 17e4 58bd 1cf8 773c 7536 3bbd bccb 8ebd
00000210: 59a5 013d 0810 bb3d 208f 943d 4b81 643b
00000220: 1627 4c3e 2a81 e23d 0db0 763d 9913 193d
00000230: f13a 163e 0e99 313d 13d4 a3bb c76d 1bbc
00000240: cede 723c bf16 f8bc 165d febc f9d9 adbd
00000250: 20a7 f63c 9e3d 2d3e 67ec 0e3c 7523 a0bc
00000260: 2f98 68bd 7b05 253d 19c9 a7bb 8f2e 763c
00000270: ed6a b73d a893 aabc 73a5 553d fe94 493d
00000280: f043 b2ba ff22 1cbd 2edf 453d 6b88 00bc
00000290: 315c 883b 2433 bd3b 2332 1a3d 312e 433d
000002a0: d41a 713b 31e5 5b3d 22e9 01bc 0df3 94bc
000002b0: b1aa e03c 4058 e4bc 7c18 3f3e a834 67bc
000002c0: 3c56 cd3d ad51 46ba bf3a 8a3d 29a9 f53c
000002d0: 5217 85bd c642 1cbd 5fd2 483c d778 093d
000002e0: 6bce 87bd 96b7 853d 9a8e 1fbd bb28 073d
000002f0: cd56 853d 4e1a 9c3c 81e4 8e3d cc8d bfbb
00000300: 60d5 82bd 9235 57bd 3fe8 293d 7bdb 033d
00000310: 53bf 90bb 6ec4 153d a969 0abc e795 d93c
00000320: 102e 69bc 6951 c1bc 4adb a2bc 8588 a2bc
00000330: ed74 01bd 0c80 00be 4fda 9e3d 6f59 8fbd
00000340: a95d 443d 8b83 8bbc 68af 083e fa0a 3f3e
00000350: ba87 82bd b08a cfbd d890 803c fb22 4c3d
00000360: 2dd7 793d 5933 3e3d 6206 ec3d f746 e5bc
00000370: 88cb 34ba 4e1d 893d deb9 d3bc bde4 3f3d
00000380: fbf3 9b3d 8865 ddbd f1c9 2e3d b90a 843d
00000390: 2832 80bb c340 c73d 2c9d a93c ccfc 5ebb
000003a0: 126c 53bd d1de db3c 46dd 1d3d 7164 c93a
000003b0: 95e4 973d 6a92 4b3e 08de 13bd 05fe 003d
000003c0: 74b3 80bd 7318 fdbb aac6 85bd b0f6 273d
000003d0: abdc 373d 8d32 bc3b 8ec4 c73d 61fb 0cbb
000003e0: f344 9e3d 01af bdbd 2898 b63c 1f73 bc3c
000003f0: 25a1 eabd 2f02 dcbb 4555 16bd 5b59 60bd

Y_net.net.4.bias f4 [256]
-0.073946685 -0.02150683 -0.08203516 -0.039075647 -0.022604376 0.099969655 0.00917451 -0.019839482
-0.0597101 -0.0130068045 -0.014378212 -0.08238049 -0.020731153 0.021489073 -0.022313407 0.0019428422
-0.028642233 -0.014398782 0.040638816 -0.06529736 -0.04318479 0.01363551 -0.018006658 -0.007003393
-0.07839592 0.01201637 -0.05458107 0.042724766 0.04444269 -0.062713474 0.055830315 0.034018718
-0.07305672 -0.04902773 -0.016168468 -0.05188789 -0.09197403 0.0036258637 0.016411431 -0.049602676
0.01506409 -0.033309296 -0.020768467 0.005070319 0.04589788 -0.0067582834 0.008949015 0.017709387
-0.017020067 -0.039715275 0.019168353 -0.023688901 -0.04119942 -0.024526676 -0.052338723 -0.036352705
-0.012869892 -0.17697498 -0.02555715 -0.022520607 -0.036312595 -0.056965955 0.02781136 0.0022969416
0.018155329 -0.010089178 0.018448552 -0.039721183 -0.04767637 0.07498095 0.039788645 -0.0113119725
0.010193184 -0.008556243 0.011440981 0.07946797 -0.083200276 -0.07424235 -0.0009951238 -0.051722206
-0.01565796 -0.005695279 -0.1142039 0.0056181042 -0.027719269 -0.05487218 -0.08433775 0.051951423
-0.09517758 -0.018375104 0.008283079 -0.06344584 0.00029889314 -0.041257802 0.005865548 0.02956736
0.07266586 -0.022299452 -0.018355824 0.020796673 -0.015843743 -0.05612969 -0.020212423 -0.023731565
0.007593721 -0.08164548 0.036079124 0.03451688 0.045090616 -0.023603588 -0.0167549 0.03991633
-0.022613002 -0.0022366703 -0.016013913 -0.01626787 0.039855435 0.045341276 0.031455234 0.054840125
0.009683184 -0.015868241 0.056439918 -0.021271257 0.019383606 0.0019921588 -0.0062695392 0.04158823
-0.0039709387 -0.0016427104 -0.07011538 -0.016402198 0.055446606 0.010729311 -0.006551831 -0.048556585
-0.0067414953 0.055946007 0.046786692 -0.05399923 0.035115395 -0.08212195 -0.04566822 0.03909606
-0.0272639 -0.07410508 0.06906451 -0.18668734 -0.01932046 0.032880764 -0.039280478 0.00026263692
-0.058105953 0.0019305737 -0.015895853 -0.051260725 -0.08260277 -0.07689103 -0.07118965 -0.035466056
-0.05929936 -0.025371192 0.05641668 -0.037621934 -0.015052221 -0.010019784 0.0023288657 0.006208922
0.016367804 -0.1042231 -0.035762835 -0.053698182 0.00061286526 -0.02525752 -0.040372405 -0.06372595
-0.023965327 -0.016754143 0.0068826443 -0.022876492 -0.014349082 -0.16217168 0.014240231 -0.037449483
-0.12262995 -0.04539609 -0.032325674 0.07658455 0.025874928 0.014363877 -0.061203726 -0.017597651
0.04299993 -0.11961222 -0.04331103 -0.03364218 0.04541028 -0.016416224 -0.008669682 -0.03260401
-0.0086882375 -0.038110577 -0.13227785 -0.006756643 -0.080968715 -0.029291209 -0.024338307 -0.014030588
0.02386243 -0.06634161 0.015163733 -0.09452118 0.0019072627 0.061183114 -0.061844766 -0.01886534
0.023205996 -0.06862391 -0.021985423 -0.004153374 -0.06574701 -0.07857998 -0.02661491 0.05790154
-0.03718674 -0.05242181 0.03469691 0.006083146 -0.058443144 0.05028434 0.048048533 0.020847661
-0.028084021 0.031511344 0.038949993 -0.017548334 0.04983613 -0.07663902 -0.06499654 -0.028553657
0.03268341 0.055740103 0.056645706 -0.08363417 -0.0012446222 -0.034898356 0.06585722 -0.01620029
-0.06374106 -0.024663327 0.0031057778 0.019434823 -0.0804836 0.040248502 -0.006362685 -0.030577498
00000000: 5c71 97bd 172f b0bc 0d02 a8bd c90d 20bd
00000010: d02c b9bc e4bc cc3d af50 163c 6986 a2bc
00000020: 9492 74bd 7e1a 55bc 9892 6bbc 1ab7 a8bd
00000030: 61d4 a9bc da09 b03c 9bca b6bc f7a6 fe3a
00000040: 1ea3 eabc dee8 6bbc e374 263d 9fba 85bd
00000050: 89e2 30bd 7967 5f3c b382 93bc b87c e5bb
00000060: 0a8e a0bd 4fe0 443c 6690 5fbd 2a00 2f3d
00000070: 8a09 363d ec6f 80bd 54ae 643d 3657 0b3d
00000080: c39e 95bd 4dd1 48bd bc73 84bc 6588 54bd
00000090: e15c bcbd e69f 6d3b 4471 863c 2d2c 4bbd
000000a0: 5fcf 763c 546f 08bd a222 aabc eb24 a63b
000000b0: 6aff 3b3d 9774 ddbb e49e 123c 4713 913c
000000c0: ab6d 8bbc 7cac 22bd f306 9d3c 3a0f c2bc
000000d0: b9c0 28bd 2bec c8bc 2161 56bd 93e6 14bd
000000e0: 3ddc 52bc ee38 35be 3a5d d1bc 237d b8bc
000000f0: 84bc 14bd 2255 69bd a6d4 e33c 4988 163b
00000100: 7cba 943c 144d 25bc 6b21 973c aeb2 22bd
00000110: 4c48 43bd 9d8f 993d 6bf9 223d da55 39bc
00000120: 5001 273c 7c2f 0cbc f472 3b3c 1ac0 a23d
00000130: e864 aabd 600c 98bd d06e 82ba aada 53bd
00000140: 1f45 80bc 779f babb bce3 e9bd 1318 b83b
00000150: 8513 e3bc a7c1 60bd 45b9 acbd 04cb 543d
00000160: 77ec c2bd 6387 96bc c0b5 073c e4ef 81bd
00000170: c2b4 9c39 f1fd 28bd c833 c03b 4037 f23c
00000180: d7d1 943d 57ad b6bc f45e 96bc c95d aa3c
00000190: bdca 81bc 3fe8 65bd 8694 a5bc b368 c2bc
000001a0: c0d4 f83b bf35 a7bd b4c7 133d 9261 0d3d
000001b0: f0b0 383d 505c c1bc 9241 89bc 4e7f 233d
000001c0: e73e b9bc 1a95 12bb 9c2f 83bc 3244 85bc
000001d0: 743f 233d c6b7 393d 34d7 003d 0aa0 603d
000001e0: 38a6 1e3c 1dfe 81bc 8b2d 673d 0f41 aebc
000001f0: 5eca 9e3c e18e 023b b570 cdbb 6b58 2a3d
00000200: a61e 82bb 3750 d7ba a798 8fbd e75d 86bc
00000210: fb1b 633d fec9 2f3c beb0 d6bb 45e3 46bd
00000220: c3e7 dcbb a427 653d 67a3 3f3d 4c2e 5dbd
00000230: 29d5 0f3d 8e2f a8bd 990e 3bbd 3123 203d
00000240: 8b58 dfbc 67c4 97bd b271 8d3d f72a 3fbe
00000250: f145 9ebc fbad 063d 91e4 20bd 88b2 8939
00000260: 8200 6ebd 4e0b fd3a 0538 82bc c4f6 51bd
00000270: a42b a9bd 0b79 9dbd e1cb 91bd db44 11bd
00000280: e3e3 72bd 3fd7 cfbc 2d15 673d 7519 1abd
00000290: 979d 76bc 052a 24bc e29f 183b 3674 cb3b
000002a0: c615 863c ec72 d5bd 0d7c 12bd a0f2 5bbd
000002b0: b1a8 203a dce8 cebc 895d 25bd c082 82bd
000002c0: ef52 c4bc fc3f 89bc ce87 e13b 7b67 bbbc
000002d0: 6918 6bbc 5510 26be dc4f 693c a164 19bd
000002e0: 6925 fbbd 40f1 39bd ed67 04bd 5cd8 9c3d
000002f0: a8f7 d33c 7756 6b3c c2b0 7abd f328 90bc
00000300: b220 303d 40f7 f4bd e866 31bd 62cc 09bd
00000310: 2100 3a3d 517b 86bc 480b 0ebc c88b 05bd
00000320: 1c59 0ebc d619 1cbd d873 07be d466 ddbb
00000330: edd2 a5bd 1ef4 efbc 2161 c7bc 8de0 65bc
00000340: 257b c33c 1cde 87bd 4e71 783c 5294 c1bd
00000350: 1efd f93a 259b 7a3d f050 7dbd 7c8b 9abc
00000360: 801a be3c b18a 8cbd c61a b4bc 0719 88bb
00000370: 5ea6 86bd 8aee a0bd 8307 dabc 2a2a 6d3d
00000380: 2051 18bd 40b8 56bd 591e 0e3d 2155 c73b
00000390: 1462 6fbd f4f6 4d3d 8ace 443d b7c8 aa3c
000003a0: 7610 e6bc 0a12 013d 078a 1f3d 86c1 8fbc
000003b0: f820 4c3d ebf4 9cbd e81c 85bd 5ce9 e9bc
000003c0: 0adf 053d bc4f 643d 5405 683d 6448 abbd
000003d0: 9722 a3ba 94f1 0ebd 26e0 863d 78b6 84bc
000003e0: ac8a 82bd bf0a cabc 4e8a 4b3b c735 9f3c
000003f0: 96d4 a4bd 9ddb 243d 127e d0bb a97d fabc

Y_net.net.6.weight f4 [256, 256]
0.036891945 -0.013046838 0.03161247 -0.028492238 -0.05416765 0.051734883 0.005160503 0.061156414
0.019447014 -0.048081122 -0.048208654 -0.009784862 0.034445368 -0.034694336 0.01177638 -0.03372763
-0.057102732 0.056732953 -0.01654033 -0.007561758 -0.034496084 -0.05498237 0.025735505 0.01675605
-0.033083834 0.02258909 0.009095631 -0.039041985 0.04708312 0.04376173 -0.0073131598 -0.017280146
0.03831674 0.032276236 -0.0611112 -0.02225667 0.04125818 -0.019029398 -0.037097603 0.039294675
0.03190661 0.027347848 0.04345154 0.045971237 0.040608592 -0.053040102 0.024287084 0.009661153
-0.041607745 -0.0001738593 0.024628513 0.019142158 0.032015994 0.022848532 0.03479219 -0.00275404
-0.067048326 -0.049429942 -0.034286976 -0.011153864 0.011588983 -0.032407682 0.045884877 0.011743183
0.00015695393 -0.00032122433 0.056874268 0.012244886 0.012786023 -0.04610872 -0.07046723 0.003797338
-0.04029303 0.006546326 0.02779393 -0.059879553 0.012118816 -0.01714666 -0.01144894 0.017457396
0.036084726 0.03791132 -0.017263403 0.037080154 -0.04029575 0.033875115 -0.015552804 -0.0035354292
0.031241069 0.028007325 -0.040433478 0.02013624 -0.052174453 0.017522069 -0.04281059 0.034094475
-0.004724346 0.049331866 0.025169112 -0.007932577 0.025675025 0.029960148 0.0059060534 -0.038099173
0.0307901 -0.0149421515 -0.03262337 0.032260492 0.01144234 0.036172524 -0.035198092 -0.05057729
-0.0068417187 0.06689369 -0.021523185 -0.035416856 -0.022682864 -0.008796959 0.05768181 -0.042786457
-0.03343765 0.046911314 0.02300755 -0.06552053 -0.06737263 -0.031600885 0.009320701 0.005682104
0.038506787 -0.047138926 0.060751505 -0.014858969 0.026210483 0.060105003 -0.037622884 -0.0048089563
-0.0089825615 -0.039250102 0.0060589314 -0.017716432 -0.017064154 -0.06376476 0.021700129 -0.04352411
-0.043278 0.03440392 -0.033564307 -0.05434174 -0.06108737 -0.05697648 -0.0391577 -0.04987009
-0.012369097 -0.06180589 0.04206363 0.02199176 0.01946048 -0.07162434 -0.05944261 -0.0091614425
-0.04227221 -0.040797904 0.010538062 -0.029888727 -0.018711714 -0.053490907 -0.06165714 0.010680346
-0.05608666 0.0037904687 0.0077452734 0.034378454 0.015680034 -0.053624813 -0.028920889 -0.0072632357
-0.06009037 -0.014553176 0.04212883 -0.03290683 -0.009470284 -0.03262101 -0.021914944 0.056025162
-0.02736665 -0.02890551 0.045524314 0.027298918 -0.06665377 0.008496091 -0.024986386 0.032845102
0.028919343 -0.04673151 0.04186376 -0.006126991 -0.03660003 0.04176292 -0.0638985 0.04897879
0.00036179274 -0.03573069 -0.052682094 -0.0088651925 -0.043834366 -0.013738163 0.036927685 -0.029130325
-0.0115183145 -0.056935985 0.002223216 -0.06940418 0.038445357 -0.030690487 -0.05351735 0.0011869445
-0.0358077 0.05162078 -0.034440286 0.015643269 -0.031262785 -0.017812684 0.030939551 0.04056975
-0.010334536 0.027663201 -0.049875643 0.050330557 0.045088492 -0.03772018 -0.01961734 -0.061506905
-0.047423955 0.012723697 0.013804359 -0.040167533 -0.009893328 -0.02039899 0.053596057 -0.044885144
0.039057802 -0.03300598 -0.061229877 0.04602889 -0.052988656 -0.037072964 -0.052436978 0.03366634
-0.03541428 -0.057957217 -0.007968184 -0.049552776 0.017768519 0.033167973 0.015224643 -0.04707762
00000000: 021c 173d 68c2 55bc 147c 013d 8e68 e9bc
00000010: e6de 5dbd f5e7 533d 7019 a93b 267f 7a3d
00000020: 584f 9f3c b6f0 44bd 7076 45bd b050 20bc
00000030: 9616 0d3d a61b 0ebd b8f1 403c fc25 0abd
00000040: 8ee4 69bd d060 683d 967f 87bc a0c8 f7bb
00000050: c44b 0dbd 3235 61bd 44d3 d23c fc43 893c
00000060: ea82 07bd c10c b93c d705 153c 7dea 1fbd
00000070: 3bda 403d 803f 333d 3ba3 efbb 188f 8dbc
00000080: 04f2 1c3d 1634 043d bd4f 7abd 9f53 b6bc
00000090: 56fe 283d 8ae3 9bbc a8f3 17bd 74f3 203d
000000a0: 81b0 023d 9808 e03c 3efa 313d 564c 3c3d
000000b0: 3255 263d 9440 59bd b5f5 c63c d049 1e3c
000000c0: e26c 2abd 004e 36b9 bcc1 c93c 04d0 9c3c
000000d0: 3423 033d d82c bb3c 4182 0e3d 207d 34bb
000000e0: a250 89bd 0d77 4abd 8070 0cbd b2be 36bc
000000f0: b8df 3d3c ebbd 04bd c8f1 3b3d 7b66 403c
00000100: 0094 2439 006a a8b9 fef4 683d c69e 483c
00000110: 787c 513c 7fdc 3cbd 2051 90bd c3dc 783b
00000120: 4e0a 25bd 9082 d63b 19b0 e33c 4344 75bd
00000130: 008e 463c 2777 8cbc 5694 3bbc d002 8f3c
00000140: 94cd 133d e648 1b3d fb6b 8dbc 5ce1 173d
00000150: 280d 25bd a2c0 0a3d 30d1 7ebc a9b2 67bb
00000160: 45ed ff3c 9e6f e53c 939d 25bd c2f4 a43c
00000170: e1b4 55bd 718a 8f3c 285a 2fbd a6a6 0b3d
00000180: b0ce 9abb 3610 4a3d 742f ce3c a4f7 01bc
00000190: 6e54 d23c fc6e f53c 9187 c13b e10d 1cbd
000001a0: 853b fc3c edcf 74bc 15a0 05bd 9423 043d
000001b0: a778 3b3c a429 143d e02b 10bd 222a 4fbd
000001c0: 7f30 e0bb 8fff 883d 6451 b0bc 4411 11bd
000001d0: 6ad1 b9bc 1f21 10bc c343 6c3d da40 2fbd
000001e0: ebf5 08bd 1426 403d 547a bc3c a12f 86bd
000001f0: a9fa 89bd ee6f 01bd dab5 183c f130 ba3b
00000200: 4bb9 1d3d bf14 41bd 92d6 783d 0873 73bc
00000210: 5eb7 d63c aa30 763d 741a 1abd 7394 9dbb
00000220: 982b 13bc b7c4 20bd 008a c63b 0d22 91bc
00000230: 20ca 8bbc 1997 82bd 78c4 b13c 5646 32bd
00000240: 4644 31bd 20eb 0c3d ba7a 09bd 7295 5ebd
00000250: c036 7abd 2b60 69bd d363 20bd 9444 4cbd
00000260: c1a7 4abc 2c28 7dbd ea4a 2c3d 1028 b43c
00000270: 966b 9f3c c8af 92bd 187a 73bd e019 16bc
00000280: a025 2dbd b41b 27bd d6a7 2c3c 34d9 f4bc
00000290: 4f49 99bc 4819 5bbd 328c 7cbd 9efc 2e3c
000002a0: 20bb 65bd 8369 783b 10cc fd3b 6cd0 0c3d
000002b0: 6a73 803c b1a5 5bbd 80eb ecbc 7000 eebb
000002c0: 5221 76bd 7270 6ebc 488f 2c3d 50c9 06bd
000002d0: 4029 1bbc 9c9d 05bd f886 b3bc a47a 653d
000002e0: 0630 e0bc 40cb ecbc b477 3a3d fba1 df3c
000002f0: c681 88bd 3033 0b3c 40b0 ccbc 9688 063d
00000300: 42e8 ec3c 8a69 3fbd 5679 2b3d edc4 c8bb
00000310: eae9 15bd 980f 2b3d 37dd 82bd fc9d 483d
00000320: 00af bd39 585a 12bd 2ec9 57bd 503f 11bc
00000330: aa8b 33bd 0816 61bc 7c41 173d b8a2 eebc
00000340: 50b7 3cbc b535 69bd 60b3 113b c723 8ebd
00000350: e178 1d3d 9e6a fbbc 0235 5bbd 4093 9b3a
00000360: 18ab 12bd 5070 533d 4211 0dbd 5026 803c
00000370: 680d 00bd e8eb 91bc f174 fd3c 772c 263d
00000380: 3052 29bc f09d e23c 674a 4cbd 6a27 4e3d
00000390: b6ae 383d 7a80 1abd 8bb4 a0bc aaee 7bbd
000003a0: 9f3f 42bd 0e77 503c ae2b 623c b686 24bd
000003b0: a017 22bc c81b a7bc 8a87 5b3d 7cd9 37bd
000003c0: 13fb 1f3d 4731 07bd 2ecc 7abd ca88 3c3d
000003d0: a20a 59bd d2d9 17bd 28c8 56bd b7e5 093d
000003e0: 900e 11bd 8c64 6dbd fc8c 02bc daf7 4abd
000003f0: 498f 913c 24db 073d c870 793c 76d4 40bd
