saved/almgren_supervised_FC_ReLU/model.pth (torch, 799525 bytes, 9 tensors)

Y_net.net.0.weight f4 [256, 4]
00000000: 7e9d f3be 836d d5be 2409 dc3e 5377 4f3e
00000010: 7635 793e 28d8 b9bd d10b 34be 5e46 173c
00000020: b9b9 1f3e f14c e7be 096f 1d3e f898 a4be
00000030: f445 60bd e3f4 63be c19c 1e3d 5e08 4cbe
00000040: 9338 d2be a3d3 9dbe c3ed 1dbe f786 9bbe
00000050: bcd5 e4be f94c c43e d78e 2e3e 0a9d c3be
00000060: ebd6 0d3f b020 e63d 1459 633d 0834 133e
00000070: 79f2 823e b007 86be 5f28 2cbe 47a3 15bc
00000080: f7e6 20be 6732 08be fe21 f43c 21ef 11be
00000090: 75f3 11bf 8fbe cbbd 10b1 493d 74f6 533e
000000a0: d2f9 04bf 38fa cf3e de24 db3e a1cb 76bb
000000b0: a056 503e cc5a e9be bae9 b43b a482 e53d
000000c0: e99e cfbe 07a2 a6be bbc1 a7be f9d0 9b3e
000000d0: 05e9 e83e d583 27be b668 963e 1f07 2d3e
000000e0: ccba 37bc 647b d73e 4df3 c23d 6f0c 8e3d
000000f0: 86a6 d73e 8a78 6abe 9c32 ff3d 5df7 d23c
00000100: f9db d5be 6f58 1f3d 1257 bc3e a092 9abe
00000110: 93ed eb3e 7193 fdbd 0631 af3e 2d39 c6be
00000120: 2a9c cf3e f7ad d93e d698 2bbe 534b bcbe
00000130: 1faf b5be ac58 8dbe a151 10bd a069 3ebe
00000140: d898 65be 6855 1cbe 1b13 97be 9aad 6e3e
00000150: 6b25 783e 73c0 c53e e2d3 47be f3d5 f8be
00000160: 6281 f2bd 4650 70be 7da6 73be ef36 64be
00000170: 8c58 b63e 9edd f9bd e006 83be 7dbc 583d
00000180: 4535 073e 053f d73e 22e4 d33e bf70 b63e
00000190: 07c6 243d d647 a13e bff5 a9bc 37e8 823e
000001a0: 57ca c03e a0a7 65be 0ea0 743e 56c3 913e
000001b0: e39b a7ba cf2f 843d d6de b1be 170f afbe
000001c0: 7e0f ed3e c037 acbe 53cf 8c3e 424b be3e
000001d0: fd53 4a3e 034c 8c3e dbde 633e c203 4ebd
000001e0: 1035 bf3e 9deb 373e 4a24 ecbe 2e56 0b3e
000001f0: b6ed c9be 178f 4d3e cc23 513e 2de9 923e
00000200: 4e53 6e3e f350 d13e e719 1dbe 1162 0abe
00000210: c08a e93e 892b 8a3e 88d3 d8bd 3e43 fabd
00000220: 51ad a8be b7f8 8f3e 6f03 b5be 9fd6 e23e
00000230: 46ae b53d a875 843d f36b b7be 6753 c13e
00000240: 0b7a dc3e 492d 9a3d f5f1 e93d e584 bb3e
00000250: 4536 b53e d87f e2be 4bed be3e 182c 5b3e
00000260: 57df b93e 2175 c73e 1874 37bd a2da 993c
00000270: 3bb8 46be 8ddc 86be 5192 cabc 65f3 d43e
00000280: 43d1 303d 32a5 ea3d e729 d63e 0eab 33be
00000290: 5d8a 0b3f ae5b c73d 677f 17be 1018 5fbe
000002a0: bb4f d5be 2693 513c 6eeb 96be 41ee b43d
000002b0: 6634 9fbd 3891 30bd 7960 d33e 1e4a eb3c
000002c0: 080c cebd 1058 d4bd 111b 253e 86f2 aabd
000002d0: 8325 1c3f b1a0 8abd 0ea4 523d 2d4c cb3b
000002e0: 4fee 123e 57fa 19be f32f c9be d22b 783d
000002f0: 53ae 34be 5c7c adbd 0152 2ebe 24df be3e
00000300: 9876 f6bd 85f1 a6be 1782 a83d 8295 4e3e
00000310: 2621 0cbf c791 37bd 4600 a43e 4c5f b33e
00000320: 2f92 cabd fe3c 173e 1813 0b3e f6c7 b73e
00000330: 1be5 0ebe 1552 953e d032 f23d 1faf b33e
00000340: 6c03 a83d 5e16 cabe 34fb 1a3e ac68 a63e
00000350: 9876 aa3e 1cb2 81be 54ff 88be 0d48 8f3d
00000360: 2ce3 bfbe c533 413c e01a 4fbe cb91 b93c
00000370: 0316 813c 1d0e ed3c 0a3e ea3e 4c88 82be
00000380: 2739 5d3c 5a12 83be 9e0d 8e3e 3449 a3be
00000390: 15a0 b7be b9a2 a33e 6fa7 b4be a6bc 82be
000003a0: 5cc5 b73c e9f2 aabe 8da0 a63e 0a43 c63e
000003b0: 52c5 a0bd d4ce 503e 6136 44be 7304 d6be
000003c0: c51f 493e 2580 f53d b2e8 a6be f512 e0be
000003d0: 4fa0 013f dd65 b93e beb8 a2be b1e5 8bbe
000003e0: aa04 95be 9fe3 8bbe 8014 c03e 00f5 5b3e
000003f0: 9ee7 d2be 017e 92be 165d 113e 4c20 e53d
-0.47581095 -0.41685113 0.42975724 0.20260362 0.243368 -0.09074432 -0.17582633 0.009233085
0.15598191 -0.4517589 0.15374388 -0.32147956 -0.054754212 -0.22261386 0.03872371 -0.19925067
-0.41058788 -0.30825529 -0.1542273 -0.30376408 -0.44694316 0.38339975 0.17046677 -0.3820575
0.55406064 0.112367034 0.055504873 0.14375317 0.25575617 -0.2617774 -0.16812275 -0.009133167
-0.15713106 -0.13300477 0.029801365 -0.14251377 -0.5701211 -0.099484555 0.049241126 0.20699483
-0.51943696 0.4062059 0.42801565 -0.0037657993 0.20345545 -0.45577085 0.0055210264 0.11206558
-0.40550926 -0.32545492 -0.32764992 0.3043287 0.4549028 -0.16358884 0.29376763 0.16897248
-0.011213969 0.42086327 0.09519062 0.06935965 0.42119235 -0.22897545 0.12460825 0.025752718
-0.41769388 0.038902696 0.3678518 -0.3018999 0.46079692 -0.12381638 0.3421709 -0.38715497
0.4054883 0.42515537 -0.16757521 -0.36776218 -0.3548517 -0.27606714 -0.035234097 -0.1859498
-0.22421587 -0.15266955 -0.29506764 0.23308411 0.24233024 0.3862339 -0.1951442 -0.4860073
-0.11841084 -0.23468122 -0.23793979 -0.2228658 0.3561443 -0.12200473 -0.25591183 0.05291413
0.13203914 0.42040268 0.4138499 0.35632893 0.040227916 0.3150012 -0.020747064 0.2556779
0.37654373 -0.22427225 0.23889181 0.28469342 -0.0012787547 0.06454431 -0.34740323 -0.341912
0.46300882 -0.33636284 0.27501926 0.37166792 0.19758601 0.27401742 0.22252981 -0.050296552
0.3734517 0.17960973 -0.46121436 0.13607094 -0.39439172 0.20074116 0.20423812 0.28693524
0.23273966 0.40882072 -0.15341912 -0.13513972 0.4561367 0.2698634 -0.105872214 -0.12219857
-0.3294473 0.28119442 -0.35354182 0.44304368 0.08871131 0.06467754 -0.35824546 0.37758943
0.4306186 0.07528169 0.11423103 0.36624828 0.35392967 -0.44238162 0.37290415 0.21403539
0.36303207 0.3895655 -0.04478845 0.01878101 -0.19406216 -0.26340142 -0.024727972 0.41591945
0.043168318 0.1145729 0.41828844 -0.17545721 0.54508 0.097342834 -0.14794694 -0.21786523
-0.41662392 0.012791431 -0.29476494 0.08834506 -0.07773666 -0.04310724 0.4128454 0.028721865
-0.100608885 -0.10368359 0.16123606 -0.08347039 0.6099474 -0.06768931 0.051425986 0.006204149
0.1434872 -0.15036903 -0.39294395 0.060588665 -0.17644624 -0.08470985 -0.1702347 0.37279618
-0.12034339 -0.3260614 0.08227938 0.2017422 -0.5473808 -0.04481676 0.3203146 0.35033643
-0.098911636 0.1476936 0.13581502 0.35894746 -0.13954584 0.29164186 0.11826098 0.35094544
0.08203778 -0.3947019 0.15134889 0.32501733 0.33293605 -0.253312 -0.267573 0.069961645
-0.37478006 0.011792128 -0.20225096 0.022652527 0.015757566 0.028937394 0.45750457 -0.2549461
0.013502396 -0.2559994 0.27744764 -0.31891787 -0.3586432 0.31960085 -0.35283992 -0.25534552
0.022432975 -0.3338845 0.32544366 0.38723022 -0.07850136 0.20391399 -0.19161369 -0.4180027
0.19641025 0.11987332 -0.32599407 -0.43764463 0.50635237 0.36210528 -0.31781572 -0.27323678
-0.2910512 -0.273221 0.3751564 0.21480179 -0.41192335 -0.28611758 0.14195666 0.11187801

Y_net.net.0.bias f4 [256]
00000000: e5df edbd bc2f 2fbe 4f23 b53c 0885 e3bc
00000010: 48cb d03e 31e3 ba3e 5937 87be b712 cfbe
00000020: dfd5 a73e 971e b13e c7c0 c6be 75e2 2f3d
00000030: d552 8b3e ff1e dbbd ca8e 9bbe a9ff 913e
00000040: 72d8 1ebe f5c7 31be 7150 adbe 4772 173f
00000050: ec61 f13c eff4 cfbd 87f0 4abd 93e8 c03e
00000060: 5597 e2be f767 f13e a709 b73e d2c2 6c3e
00000070: 1be0 80be 2096 823e 02a8 d4be ebbd c03e
00000080: c26a c3be b26e f2be f568 b0be aeb6 d83e
00000090: 4709 e33b ae5e fb3e b8b6 b4be 4252 56be
000000a0: 5ad7 e2be a3ec 1f3e 240c ad3e 2941 643e
000000b0: cf1d fc3d 0ff5 79be 420f a63e db8e 8abe
000000c0: 7abb 57be 2379 063f 27c8 083f 6c27 5cbe
000000d0: f94c 823d 087c ed3e 36ca a73e c5fc b73d
000000e0: 267c 1abe e1e1 ecbc c456 c1be 8f53 bf3e
000000f0: 6f14 ee3e 9a8c 09be b07c cfbd 0b1c 1dbe
00000100: e75a bcbe 04d0 f43e 174f 5e3e 3768 ccbd
00000110: 7c74 ab3e c1a5 853c 67d4 f73e 5972 a0be
00000120: aed3 423e 0e96 fbbe 5762 083f 0f03 e8be
00000130: 3bd6 b0be adf4 8fbd a551 843e fed4 3c3e
00000140: e510 24be 65a1 0d3e fca8 843e f912 acbe
00000150: 97d2 7ebe abfd e43e 9127 8b3e 8ed0 1f3c
00000160: 858c 6bbe c7f9 32be 885d d2be 89c2 e5be
00000170: 8e19 6abe 884e 9fbe 7ded 243d 71e4 f4be
00000180: 8029 0d3e 4fb5 003f cb22 e43e 270e 93be
00000190: bbbd 31bd 69b1 f9be a888 78bd 72ec 9bbe
000001a0: 79c1 9a3d 29f8 aebe 8b41 2ebe bfc6 743e
000001b0: 7f0d d33d a3a9 193f 6a81 003f 125b 063f
000001c0: 96cb e2be 1407 cdbe b0fd 563e 48c1 9bbe
000001d0: b1da a3be 20b3 13bf e120 dcbe bfc9 9abe
000001e0: f3dd aebe c857 e6be 108f cabe 08ba 6cbe
000001f0: 802e f5be 728b 883e 9900 073f 5285 b7be
00000200: 62d3 05be a4fe 77be dfad 10be e295 f9be
00000210: 3d9f cd3e 1eb5 64be de31 c1be a37f 4ebd
00000220: 2d29 8c3e 2e6f 843d 1b92 77be 985d 353e
00000230: 78ba 083f 0234 9ebe 3c4c 713d 3c6c 9c3d
00000240: 3bae 24be 5c19 9fbe 3601 cc3d bff7 f83e
00000250: 64b1 85be 5968 5ebd 24c5 4a3e 3e39 11be
00000260: 6bf2 b63e 6bf6 0f3f 01f3 88be cd81 cb3e
00000270: 3a8c 683e e2c6 f53d 79e0 e43e 53e4 0f3f
00000280: a374 313e e803 6ebe 07a8 573e 2a6b c13e
00000290: 411f 09be 7118 b7be 5945 3fbe 2fa0 09be
000002a0: 9e64 3c3e 3b40 a8be 0cf2 8fbd 6459 e2be
000002b0: feed c93e 5760 09bf 590c a53e 0288 2dbe
000002c0: 1ed5 09bf 94cc 073f 7a0d e4be 3419 c2be
000002d0: fd34 7e3c 36aa 353e 2ea8 ab3e 128f c5be
000002e0: d7d7 fabd c221 b0bd 5fbd 66be 85f0 b3be
000002f0: 7509 1dbf 21ba c13e 0a59 c6bd c60c b43e
00000300: 783e ffbe 0bc1 88be 9d8c fdbb ddea d83e
00000310: fce5 0fbe 162d a3be 09cf b1be a395 de3e
00000320: e0d6 ebbe 1f2c efbd 5f8a 05bd 5b92 83be
00000330: 6637 f93e 7870 a8be ed1d 783e 2da3 133f
00000340: 7665 193e 256e 7c3d aeba e63e 81dd f7be
00000350: 8d68 033f c1cc d6be 227b 09bf 193d 053c
00000360: 0113 c33e a6b3 c3be dee6 40bd 1883 00be
00000370: 1466 863e 7ade 103f 2b4e c7be f544 11bf
00000380: faa5 98be 8bf0 393e d9f7 d8be c12c b7be
00000390: 824c 40be b9d9 ab3e 4522 da3d 2748 cf3e
000003a0: d73d 633d 7692 ff3e 2f1d b5bd d79c 513e
000003b0: 9094 773e 7af8 04be 4c7b 9abe 6cd1 f2be
000003c0: 9aa1 c7be 1aac 493e 1feb e53e 2afe 7bbd
000003d0: 3bca 5e3c 0051 4d39 c8a3 a73e 4898 eabe
000003e0: d7a8 11bd e630 b43e 8318 d1bd 4be9 19be
000003f0: 0463 213e df08 9d3e 62af 4cbc f2e8 c1be
-0.1161497 -0.17108053 0.022111563 -0.027773395 0.4078009 0.36501458 -0.26409414 -0.40443966
0.32780358 0.3459365 -0.38818952 0.042940576 0.27211633 -0.106992714 -0.30382377 0.28515366
-0.15512255 -0.17361434 -0.33850434 0.5915875 0.029465638 -0.10154139 -0.04954579 0.3767744
-0.44256082 0.4714963 0.35749552 0.23121193 -0.2517098 0.2550516 -0.4153443 0.37644896
-0.38167387 -0.4735008 -0.34455076 0.42326874 0.006928596 0.49095672 -0.35295653 -0.20929816
-0.44304925 0.15617613 0.33798325 0.22290482 0.12310373 -0.24409889 0.32433516 -0.27062115
-0.2106761 0.5252859 0.5343041 -0.21499413 0.063623376 0.4638369 0.32771462 0.08983759
-0.15086421 -0.028916301 -0.3776151 0.37368438 0.46499965 -0.13432541 -0.10131204 -0.15342729
-0.36788103 0.47814953 0.21709858 -0.09980815 0.33487308 0.01631439 0.48404238 -0.3133724
0.19026062 -0.4913792 0.53275055 -0.45314834 -0.34538445 -0.0702909 0.2584354 0.18440625
-0.1602207 0.13831098 0.25910175 -0.33608225 -0.24885021 0.44724783 0.27178624 0.009754313
-0.23002823 -0.17478095 -0.41086984 -0.4487498 -0.22861311 -0.31114602 0.04026555 -0.47830537
0.13785362 0.50276655 0.44557795 -0.28721735 -0.04339383 -0.48768166 -0.0606772 -0.3045383
0.07556433 -0.34173706 -0.1701719 0.2390394 0.103053086 0.6002447 0.5019747 0.5248271
-0.4429595 -0.40044463 0.20995212 -0.304209 -0.32002786 -0.576952 -0.42993835 -0.30232045
-0.3415371 -0.44988847 -0.39562273 -0.2311784 -0.4788704 0.26668888 0.52735287 -0.35843903
-0.13068917 -0.24218231 -0.14128827 -0.48747164 0.40160552 -0.22334716 -0.37733358 -0.050414693
0.27375165 0.06466518 -0.24176829 0.17711484 0.5340953 -0.30899054 0.058910593 0.076378316
-0.16082089 -0.31074035 0.099611685 0.48626515 -0.261119 -0.054298732 0.19801766 -0.14181992
0.35731825 0.5623538 -0.26747897 0.39747468 0.22709742 0.120008245 0.4470251 0.5620777
0.1732965 -0.23243678 0.21060191 0.37777072 -0.13390829 -0.35760835 -0.18678798 -0.13440011
0.18397757 -0.32861504 -0.07028589 -0.44208825 0.39439386 -0.5366263 0.32235983 -0.16946414
-0.53840816 0.53046536 -0.44541532 -0.37909853 0.015515563 0.17740712 0.33526748 -0.38585716
-0.122481994 -0.08600189 -0.22533177 -0.3514444 -0.61342555 0.37837318 -0.096849516 0.35165995
-0.49852347 -0.2670978 -0.0077377097 0.42366686 -0.14052576 -0.31870335 -0.34728268 0.4347354
-0.46062374 -0.11678337 -0.032602664 -0.25697598 0.48675078 -0.32898307 0.24230166 0.5767086
0.1498011 0.06162848 0.450643 -0.48411182 0.51331407 -0.4195309 -0.5370351 0.008132243
0.38100436 -0.38222998 -0.047095172 -0.12550008 0.26249754 0.5658947 -0.38926825 -0.56745845
-0.2981413 0.18158166 -0.42376593 -0.35776332 -0.18779185 0.33564547 0.10651068 0.40484735
0.055478897 0.49916428 -0.08843457 0.20469986 0.24177766 -0.12985411 -0.30172193 -0.474254
-0.3899048 0.19694558 0.44905946 -0.061521687 0.01359802 0.00019580498 0.32742143 -0.45819306
-0.03556141 0.35193557 -0.10209753 -0.150304 0.15760428 0.3067083 -0.012492986 -0.37873036

Y_net.net.2.weight f4 [256, 256]
00000000: 69d3 ddbc 1abb eabc 9e43 f13c 72f9 67bd
00000010: 8889 a83b 139a a1bd a546 233c 87c8 89bc
00000020: ff8a 52bc a98a 0cbd 51f8 1c3d 1c42 2c3d
00000030: af05 26bd 2f4d 17bc e56b 9dbb 23bf cb3c
00000040: 3165 bd3d c474 1e3d 3326 d23c b1b2 30bd
00000050: 2f9f ecbb a365 05bc 2d14 b63c eb92 b8bc
00000060: 386b c03c a393 a7bd dfa9 5bbc 8acd cbbb
00000070: 7410 f3bc 3d9e 4dbb b362 193d 50f6 afbc
00000080: 901f 63bb 58a4 633d b852 693d df4b d6bb
00000090: 6f4e 8d3d ce14 893c 5ca2 253d 3a17 f9bc
000000a0: 14b9 023d afb0 1b3d 8b14 a03c 49cd 033d
000000b0: 6c54 aabb 7f01 ae3d 352d 833d 71b2 0cbd
000000c0: 47f7 aa3d 170d c5bc 0016 6a3b 787d 613c
000000d0: c5b7 c6bc 6e4e d4bb 53bf 88bd 2631 103a
000000e0: 0514 80bc 7566 bd3c 2e9d 943c 4aa2 3e3d
000000f0: 5bc5 83bd 0e34 473d e494 c1bb 321a 143c
00000100: 9755 b63d 29fc 61bd 16f5 9abc b36c ae3c
00000110: f79d cc3c 9026 ea3b ad68 51bc cff0 87bc
00000120: 49e2 0fbd 1298 3ebd 6e3d a03c 04a2 3abc
00000130: 49f2 643d b350 073b ba01 f4bc 9392 223b
00000140: 89ec 6bba 16aa 1bbd 6a3a ac3c 5794 5c3d
00000150: 8e9c fcbc 549f 37bd 29c0 00bd fc4c a0bd
00000160: 933e 13bc 8b44 00bd 904c 0b3e b3dd fe3d
00000170: 4a7a 8cbc 325b fa3d 1d78 a33d cd68 d83d
00000180: cd52 753c 965f 98bc 490c 163c 8450 c03d
00000190: 7b70 563e 96e7 30bd d113 3db7 2f8e d43c
000001a0: 7dbb 10bb bec8 56bd 5714 02ba f328 293d
000001b0: 417a 56bb f2a3 e5bd 6331 3fbd 08e4 87bd
000001c0: d50b 9c3c a1ad 5a3d dd44 81ba dcac cd3c
000001d0: 1f16 2d3d d12d dc3c 1385 d2bc 4171 ae3a
000001e0: 404d 0f3b 95c1 c23d bbb4 8ebc 9583 12bc
000001f0: 6ed9 fe3d bfe1 91ba a9e6 95bd ff74 5a3d
00000200: 8e18 ff3c 8259 4b3d 5e11 5a3d f277 5f3d
00000210: 1c4f 123d c1a8 9f3c 7535 c53d 1f37 81bc
00000220: 721c e939 2277 bcba 9ca4 6e3c eeca d33c
00000230: 55de 22bd 3754 a2bc e095 a0bc 5894 883c
00000240: 51aa 92bd 9931 0938 3547 12bd 01a9 a53c
00000250: 1350 1a3d f2b9 a03d 7576 fa3b 9637 1a3e
00000260: ac5a 7ebc e6a6 33bd 9020 8f3d 5d59 8dbd
00000270: 0037 ac3c 0d3e 453d 5e6e 84bd f5c2 acbb
00000280: 88b8 d83b 7b1c 283d aca5 dbbc 9743 86bc
00000290: f1dd d7bc 8601 49bc d039 0c3a cf98 a0bc
000002a0: fbec 143d 9462 683c b2ed b53c 0fff 13bc
000002b0: 0afb a3bd 229f b23d a04f 8ebd ac3b 0bbd
000002c0: 2cca 41bd 04ff 93bd 8927 da3c e3fa 473e
000002d0: 4b73 2fbd b81f 28ba afb9 db3c 3b76 693e
000002e0: 239c 0b3d 6195 2a3d c93a 21bd b097 b03c
000002f0: 2d6f 653d 40ca 58bd 4f49 d23c 5b88 5dbd
00000300: a34b 0bbc b620 c53d 74af df3d 412c 97bc
00000310: cb44 243d 65d7 4b3d 76b9 55bc e087 77bd
00000320: 6d4b a9bc c56b 7d3d 5b61 9c3c 7961 8a3d
00000330: 1a45 1f3a 27c0 9c3d 0977 8638 67eb 07bd
00000340: 7cae 223d e2eb 49bd 8a39 a23b f4aa be3b
00000350: 9f2a 8ebd 80c8 0d3e 582f 213d 304a 2ebd
00000360: a144 68bd d8f7 d7ba b895 243d 5569 8a3d
00000370: 7357 803d f26d 9b3c 05aa b33d ce89 733e
00000380: 816a 293e 3458 d93c 43c5 903d 69eb de3c
00000390: 08ef a13b 9210 8bbd 7714 1d3d 8c4d 3cbd
000003a0: 8dbe 8cbd bc80 1d3b 8b6f 1a3d 4ebf c13c
000003b0: e7b7 47bc e639 92bc d74f 323d 02e0 d3bc
000003c0: 7870 aa3c 4b44 1ebd a8eb ac3c f183 553d
000003d0: a664 253d d99b 9e3d b46b 0f3c df13 983d
000003e0: 0807 c23b 7366 723d fe68 c63c 64d8 76bb
000003f0: 3150 b6bc 1da7 b3b9 9d99 983d 349b b7bc
-0.027078347 -0.02865367 0.029451188 -0.056634374 0.005143348 -0.078907155 0.009965573 -0.016819252
-0.012850522 -0.034311924 0.03832275 0.042055234 -0.040532764 -0.009234711 -0.004804122 0.024871415
0.09247816 0.038685575 0.02565298 -0.043139163 -0.0072211246 -0.008141908 0.022226417 -0.022530993
0.023488626 -0.08182456 -0.0134072 -0.0062195705 -0.029670931 -0.0031374835 0.037447643 -0.021479756
-0.0034656264 0.055576652 0.056963652 -0.0065398063 0.06899726 0.016733553 0.04043804 -0.030406583
0.031914786 0.038010295 0.019541046 0.032178197 -0.005198052 0.08496379 0.06405107 -0.034349862
0.08347946 -0.024054093 0.003571868 0.013762824 -0.02425755 -0.006479076 -0.06677117 0.0005500488
-0.015634546 0.023120144 0.018141355 0.04654149 -0.06434127 0.048633628 -0.0059076417 0.009039449
0.08903044 -0.05517212 -0.018915694 0.021292066 0.024977667 0.0071457103 -0.012781304 -0.016594319
-0.03512791 -0.046531744 0.019560542 -0.011391167 0.055895124 0.0020647466 -0.02978598 0.0024806603
-0.0008999785 -0.038004003 0.021023948 0.053852405 -0.03083637 -0.04482968 -0.03143326 -0.078271836
-0.008987087 -0.031315368 0.13603425 0.124446295 -0.017148156 0.122244254 0.07981894 0.10566864
0.0149733545 -0.018600266 0.009158202 0.09390357 0.20941345 -0.043189608 -1.1269892e-05 0.025946705
-0.0022084408 -0.052437536 -0.00049621373 0.041298818 -0.0032726678 -0.11212911 -0.04667796 -0.066352904
0.01904861 0.05338824 -0.0009862442 0.02510684 0.042257424 0.026877316 -0.02569822 0.0013308899
0.0021866113 0.09509579 -0.017420163 -0.008942504 0.12443815 -0.00111299 -0.073193856 0.053334232
0.031139638 0.04964591 0.05323922 0.05455775 0.035719976 0.019489648 0.09629337 -0.015773354
0.00044462417 -0.0014378766 0.014565613 0.0258536 -0.039762814 -0.019815547 -0.019602716 0.016672298
-0.071613915 3.2709537e-05 -0.03571244 0.020222189 0.03767402 0.07847966 0.0076435157 0.15060267
-0.015524548 -0.04386034 0.06988633 -0.0690181 0.02102232 0.04815488 -0.06466363 -0.005272264
0.0066137947 0.041042786 -0.026812397 -0.016389651 -0.026350947 -0.01226843 0.0005349191 -0.019604115
0.036358815 0.014183659 0.022208069 -0.009032979 -0.08006866 0.087217584 -0.06948781 -0.033992454
-0.047311947 -0.07226375 0.02663018 0.195293 -0.04283456 -0.0006413418 0.02682194 0.22799008
0.03408445 0.041646365 -0.039362703 0.021556705 0.05601423 -0.052927256 0.025669722 -0.054085117
-0.00850192 0.0962538 0.10922137 -0.01845372 0.04010467 0.049765963 -0.013044706 -0.060432315
-0.020665849 0.061870355 0.019089391 0.06756873 0.00060756656 0.07653838 6.41179e-05 -0.03318348
0.039717183 -0.04929722 0.004950707 0.005818719 -0.06941723 0.13846016 0.03935179 -0.04255122
-0.056706075 -0.0016477061 0.040181845 0.06758372 0.062666796 0.018973324 0.08772663 0.23783037
0.16544534 0.026531316 0.07068875 0.027211862 0.004941825 -0.0679027 0.038349595 -0.045972392
-0.06872282 0.002403303 0.037704032 0.023650791 -0.012189842 -0.017849874 0.043533172 -0.025863651
0.020805582 -0.038639348 0.021108463 0.052127782 0.04037919 0.07744569 0.008753706 0.07425665
0.0059212483 0.059179734 0.024219986 -0.00376656 -0.022255035 -0.0003426605 0.074511744 -0.022412874

Y_net.net.2.bias f4 [256]
00000000: afaa 75bd aca3 86bc 348e 913c 4e0c a7bc
00000010: e274 8dbd eb32 ed3d b017 5dbd 5feb 4d3c
00000020: f6d5 733d 9bd2 2cbe fb00 b2bd a61e 6ebd
00000030: 2bbd 2c3d 04e6 313d 6f87 65bd a9a7 273c
00000040: 16c1 e0bd 172c ae3c 2190 653d 0c83 b1b9
00000050: e0cb a33c 7c70 1ebb 04f3 8bbd f7d8 b13c
00000060: a3d9 e0bc acbf 0bbe 73f5 84bd d55e 06be
00000070: a239 2d3c f921 16be 1bc3 8fbd 39e1 7dbd
00000080: b7c5 513c 9052 f4bd 7f21 f0bd 529c 6dbd
00000090: e0de cb3d f746 bd3c 610b 02bd 934e adbd
000000a0: 9cab afbc 15ff 7f3b 14d3 db3c d819 5ebd
000000b0: 4ec7 83bd 2167 4abd e8d8 303d 3336 89bc
000000c0: 5bf2 553d a24e 503d 0d99 0dbd e6aa cdbc
000000d0: bc0f 1c3d 5ad2 bcbc 8da0 91bd e5dc 183d
000000e0: 17f0 1d3d 2c9d 8dbd e73b 7c3d f5a1 22bd
000000f0: 9219 0dbe c321 7c3d 908b e33c a1b5 ddbc
00000100: 09f3 443d ab36 97bd 6421 88bc 32ea d8bd
00000110: 1f2a 1fbc 7b3c 0fbe ce5e efbd 5cfa 3fbd
00000120: 6e32 d73d a61d d6bd 0588 333d cc24 863d
00000130: 8bb6 bc3d 060f 1c3d f36a 9cbd 380f 90bd
00000140: 565c 923d ad71 b83d 5735 e73c 2173 a1bd
00000150: 3097 a93c 9c5d 96bd 4e07 863d f0bc f63b
00000160: feb9 04be 8630 86bd 5d5e 76bc d36f 833d
00000170: 1596 31bd 8807 c2bc 013b 6bbb 6b9d 263d
00000180: b692 5dbd 1edb d53d 0c73 0e3d dccc eabd
00000190: 7ae7 a73d b630 003d ca80 76bd 00a1 43bd
000001a0: f414 0bbd 3b9f 8cbd 84dd 8cbc bd9a 49bd
000001b0: a06e 94bd c77f 863d a67d 62bd 0cb6 48bd
000001c0: 224d 86bd 1dce 95bd b382 b1ba cbe9 333d
000001d0: d275 95bd b301 473d 5c35 b1bd a5c0 fbbc
000001e0: f708 813c a321 483d 6b03 14bd 8f2a 62bc
000001f0: 26b7 0bbd 2244 be3d e4f1 dabd b735 283d
00000200: ba56 88bd 4ed5 463d 6d56 b8bc 4d50 2d3a
00000210: 280f 3a3d 26d3 84bd 8adf 683d ac91 0f3c
00000220: 7503 26be e294 22bd 57f4 d0bc c8c9 b7bb
00000230: ac5c 59bd 95f4 bcb9 a76a 913d 2706 03be
00000240: a7bb 133d 618a 8ebd 3dd7 8d3c 86c8 dfbc
00000250: 6c4d 84bd ace1 e9bd 600a a5bc dea6 d1bd
00000260: 5202 c6bd a291 20bd 9374 78bd 3d2c ee3b
00000270: cdd6 6c3c 7f12 063d edb3 553d cd4d f23b
00000280: 219d e33b 4c2f 4bbd 37f4 233d 5424 85bd
00000290: d2ca b8bc 7de7 4cbd 88fb 09bd c6c6 8abd
000002a0: 9fcb f2bb 2d0a 08be 1d36 7b3c 1e9f bebd
000002b0: b64d 16bd 8a18 0dbd af3a 96bd c8d4 1fbc
000002c0: f2ba 0ebd 5784 a2bc ab46 2bbd b079 87bc
000002d0: f3d0 8dbc 40ec 04bd 0cf3 14bd 4fd7 65bd
000002e0: 7129 f23c a4b2 733b 9e41 38bc 3173 2e3b
000002f0: 6e07 99bd 5a84 83bb cb1e fabc 0474 23bc
00000300: d5e0 01bd b629 b7bd a758 c0bc f6f9 26bd
00000310: a6a0 cabd 3eb3 10bd d618 53bd 9296 073d
00000320: 55c9 57bc 97de 3c3c c296 55bb 10da 063d
00000330: d602 fdbb 39ad 5f3d d208 033d 7ae3 f13c
00000340: 1dae e83c 67ca 95bd fc36 dcbd 3750 d6bd
00000350: 3f48 3dbb 927e 223a c9ba 92bd d983 d3bd
00000360: 49fb 4d3d f522 99bd ec65 9fbd 7e94 133d
00000370: 35f8 a0bd b38a 94bd fd36 02bd 1774 92ba
00000380: 55a4 46be 445b 9a3c eae9 9ebd 1b42 0ebd
00000390: 55b3 69bd 7046 21bd 6ae5 1dbe c928 513d
000003a0: 7c4c 773c 0519 2cbc 6290 0cbe f9b9 50bd
000003b0: c793 8bbd aa68 0abe 23b5 10bd 73a7 27bd
000003c0: 3263 6f3d 5d51 bdbc ff1e fa3c 3f8e 49bd
000003d0: 8ba5 90bd 637e a5bc f391 33be 636f adbb
000003e0: 515b 01bd 07b4 ee3b 6591 c6bb 554c 3cbc
000003f0: a2a4 3f3e fcf6 623d 7712 833d 4071 ca3c
-0.05997723 -0.016435467 0.017768003 -0.02039161 -0.06907059 0.115819775 -0.05397767 0.012568324
0.05953022 -0.16877215 -0.08691593 -0.058134697 0.042172592 0.04343225 -0.056037363 0.010232844
-0.10974328 0.021261258 0.056045655 -0.00033857708 0.019994676 -0.0024175933 -0.06833461 0.021709902
-0.027447527 -0.13647336 -0.06492128 -0.13122113 0.010572823 -0.14661397 -0.07019635 -0.061982367
0.012803487 -0.1192981 -0.11725139 -0.058010407 0.099546194 0.023105128 -0.031749133 -0.084622525
-0.021444134 0.0039061953 0.026834048 -0.054223865 -0.06434499 -0.049414758 0.043175608 -0.016749477
0.05223308 0.05085624 -0.03456979 -0.025105905 0.038100943 -0.023049522 -0.07110701 0.037320036
0.038559046 -0.06914744 0.061580565 -0.039705236 -0.13779286 0.061555635 0.02777651 -0.027064146
0.04808334 -0.07383474 -0.016617484 -0.10591544 -0.009714632 -0.13987915 -0.116880044 -0.04686962
0.105076656 -0.10454874 0.04383089 0.06549987 0.09214505 0.038100265 -0.076375864 -0.07034153
0.07146518 0.09006057 0.028223677 -0.07883287 0.020701975 -0.07342073 0.06544362 0.0075298473
-0.12961575 -0.06552224 -0.015037146 0.06417813 -0.04335602 -0.023685232 -0.0035893323 0.04067747
-0.054094993 0.10442184 0.034777686 -0.11464855 0.081984475 0.031296454 -0.060181417 -0.047760963
-0.03395553 -0.06866308 -0.01719547 -0.049219836 -0.072476625 0.0656734 -0.05529561 -0.04900174
-0.06557681 -0.073147036 -0.001354298 0.043924134 -0.07297863 0.048585605 -0.086527556 -0.030731509
0.015751345 0.048860203 -0.036136072 -0.013804092 -0.03411021 0.09290339 -0.10690668 0.04106685
-0.06657167 0.048543267 -0.022502149 0.0006611392 0.04542461 -0.06485586 0.05685381 0.008762758
-0.16212256 -0.039692767 -0.025507135 -0.005608771 -0.053066894 -0.00036040382 0.071004204 -0.12795316
0.03606763 -0.069599874 0.017314548 -0.027317297 -0.064600796 -0.114199966 -0.020146549 -0.102369055
-0.09668411 -0.039201386 -0.06065805 0.007268457 0.014455509 0.032732483 0.052173544 0.0073945285
0.0069462215 -0.049605653 0.040027823 -0.0650107 -0.02255765 -0.050025452 -0.033687145 -0.06776194
-0.0074095274 -0.13285132 0.015332726 -0.09307693 -0.036695205 -0.03444723 -0.07335412 -0.009755321
-0.034846254 -0.019838495 -0.04181544 -0.016537517 -0.017311549 -0.032451868 -0.0363646 -0.056113537
0.029560776 0.0037185336 -0.011246113 0.0026618952 -0.0747212 -0.0040135803 -0.030532261 -0.009976391
-0.031708557 -0.089435026 -0.023479773 -0.040765725 -0.098939225 -0.03532719 -0.051537357 0.03310258
-0.01317056 0.011527679 -0.003259108 0.032922804 -0.0077212853 0.054608557 0.031990834 0.029527415
0.028403336 -0.07313996 -0.10752675 -0.104645185 -0.0028882173 0.000619867 -0.07164533 -0.10327882
0.050288472 -0.07477371 -0.07783112 0.036030285 -0.07859842 -0.07253017 -0.031790722 -0.0011173513
-0.19398625 0.018842347 -0.07759459 -0.03473101 -0.05705579 -0.039373815 -0.15419546 0.051064286
0.015093919 -0.010504012 -0.13726953 -0.050958607 -0.06815296 -0.13516489 -0.035328995 -0.040931176
0.05844421 -0.023110086 0.030532358 -0.049207922 -0.07062825 -0.020201867 -0.17536144 -0.0052928193
-0.031581227 0.0072846445 -0.006059813 -0.011492808 0.18715146 0.055411324 0.06400006 0.024712205

Y_net.net.4.weight f4 [256, 256]
00000000: 3d1a c93d 10bd 50bd 2b7e ab3c aaab 003d
00000010: 9a68 42bd 0099 2a3c 8b29 febb dc52 a43c
00000020: dc5c 4dbc aeab 57bc ee4c 523d 8936 90bb
00000030: faa8 e63c 8881 22bd 617f 273d 7a04 8abc
00000040: 5194 123e ca23 953d 604d 9bbd e1a6 88bd
00000050: 39e8 33bc 3a32 323d 18aa ac3b 9d54 d3bc
00000060: 7b3b f3b7 be44 2bbc 58ad a03d 0c10 473d
00000070: dfcc 053d bd51 6c3d 5b6f 513d dcc8 c93b
00000080: 6c1e 2f3d 0321 663d 2210 cb3c 04cd 04bd
00000090: 56a2 f23b a224 bc3d 7c5d 31bc 12eb 8f3c
000000a0: 54c8 7abd 92e0 aa3d bc9f 703d aa7e 893d
000000b0: f595 0b3e 8ea2 3a3d 890a 413d f181 393d
000000c0: 9613 9cbc 7522 35bd 1483 713d 5546 aebc
000000d0: b87e 3a3d 04ab cd3b 2763 5abc 245e 82bd
000000e0: 2f69 c6bb ece9 0abd 9ddf 52bd 915e 963c
000000f0: 199f ab3d 4aba f0bb 39b7 c9bc 7921 e63d
00000100: 09c0 8bbd 54b8 ec3c d86f 54bd dad4 ba3d
00000110: 0678 843d fa1b 703c 3027 c0bc 7077 89bd
00000120: ee2a 013d 8484 973d 2fdc 2ebb 719d 4a3d
00000130: e274 05bb 9c79 ecbc 1a9c 9d3e f367 26bd
00000140: a2d2 b0ba bc00 97bc 8097 0f3e 7478 2a3d
00000150: 5a9a 233d b060 bbbc c1a4 8bbd 6996 423d
00000160: 2763 773d 81c6 22bd eeba 1dbd 5930 92bb
00000170: a36e a93d d474 80bc cd19 66bd f67c ec3c
00000180: d359 f93d 0f2e 65bc 6678 8cbd abd7 02bd
00000190: 422a 5abd 0f15 de3b f764 79bd fa19 ac3c
000001a0: ad0b 0d3c f060 e5bc 0215 083e c66f 493d
000001b0: d0a7 733d 8db2 12bc 2f83 b0bc d7fa 2f3d
000001c0: e83e 303d 29a9 be3c 48dc c8bc 18a6 013d
000001d0: 02d1 a23c 26a1 d8bd 011c 303d 12c6 2ebd
000001e0: 6973 66bc 0932 2ebc 6b31 6dbc 2672 6dbd
000001f0: fdfc 2dbd 2a07 c23c e800 1f3d c670 9cbd
00000200: f7ab 4bbd 1cf8 773c ea5c 14bc 579c 26bd
00000210: f5b5 c2bb 35de a13d a0a6 403d 12da 753b
00000220: 6b51 fb3d 0dd3 783d 0994 3e3d f9c2 7c3c
00000230: 7bfa 0a3e 0e9b 813c 4ea0 3f3d 48b7 6abd
00000240: 79c3 5d3c bf16 f8bc 66a4 b6bb 415a 66bd
00000250: 7e5a dd3c 8416 0b3e 53ac 4f3c 74e2 42bd
00000260: 3d48 8abd 2c35 3d3c baf9 edbc f0f8 403c
00000270: a123 9e3d 04d0 aabc 2a32 713d 7015 893d
00000280: 1a45 fdbb e68f e1bc e1db 313d aa41 d4bc
00000290: b7fe 73bb 2433 bd3b bab7 98bc 312e 433d
000002a0: d41a 713b 5a2e bfbb b791 05bd ff48 f7bc
000002b0: 50cf b93c 4ad8 91bc 980f 2a3e a26b 23bb
000002c0: 0eba 8c3d ad51 46ba dcea 4b3d 1c4e 063d
000002d0: b9fe 1bbd 48d4 ccbc 159a 66bc dad2 d6bc
000002e0: fda6 83bd e5cb 4c3d 9a8e 1fbd 3a01 cb3c
000002f0: 722e 59bd 2be2 dd3c 8a21 a1bc 9a34 8ebc
00000300: 60d5 82bd c4b6 7cbd f46a 413d 7bdb 033d
00000310: 8f6a c2bc e32b 4a3c b38d 09bd 2a6b a73c
00000320: 102e 69bc a6bc eaba 4adb a2bc 8588 a2bc
00000330: d381 0fbd 2088 a4bd 6218 503d 9f51 02bd
00000340: ebdb 503d 8b83 8bbc 5a7d 983d cd70 163e
00000350: b5ac bbbc 8859 aabd 3be1 d1bc 80a6 4e3c
00000360: e521 7fbc c2aa 4c3d 4689 9b3d aadc 8cbc
00000370: 9d6d 6ebd 3327 083d d76e 10bd ca6b 543d
00000380: 5d32 153d 123c 44bd 453f 363d f232 263d
00000390: 2ba5 0bbd ef95 aa3c 09ff cabc 8b48 44bb
000003a0: b996 5bbd e3ae cd3b 9a75 d43c f668 a0ba
000003b0: a733 763d 6915 c63d 19dc e03c 05fe 003d
000003c0: ae1c 90bd bd6a 13bb 4894 8fbd 9248 803c
000003d0: a124 003b 94c9 603d 2add 573d 61fb 0cbb
000003e0: b678 463d 6378 30bd fa36 d4ba 1f73 bc3c
000003f0: cf00 57bd 6e15 ea3c e18a 0c3c e14e 63bd
0.09819458 -0.050961554 0.020934185 0.03141371 -0.047463037 0.010412455 -0.007756417 0.020059042
-0.012534346 -0.01316349 0.051342897 -0.0044010323 0.028156746 -0.039674312 0.040892962 -0.016847838
0.1431439 0.07282217 -0.075831175 -0.066724546 -0.010980659 0.04350493 0.0052693 -0.025797183
-2.8995555e-05 -0.010453401 0.07845563 0.048599288 0.032666083 0.05769514 0.051131587 0.0061579775
0.042753622 0.056183826 0.024787966 -0.03242208 0.007404606 0.09186675 -0.010825511 0.017568145
-0.061226204 0.08343615 0.058746085 0.067136124 0.13631423 0.04556518 0.047129188 0.045289937
-0.019052308 -0.044222314 0.058962896 -0.021273771 0.045531005 0.00627649 -0.013329304 -0.06365612
-0.0060550193 -0.03391449 -0.051482785 0.01835564 0.08379955 -0.007346426 -0.0246235 0.11236853
-0.06823737 0.028896488 -0.051864475 0.091226295 0.06468205 0.014655108 -0.023456186 -0.06712234
0.03153508 0.07398322 -0.0026681533 0.049466554 -0.0020363857 -0.028866582 0.3078316 -0.040626477
-0.0013490508 -0.018432967 0.14022636 0.04161878 0.039942123 -0.022873253 -0.06818534 0.047506724
0.060397293 -0.03974009 -0.03850835 -0.00446133 0.082730554 -0.015680708 -0.05617695 0.02886818
0.12175336 -0.013988032 -0.06858902 -0.03194396 -0.053262956 0.0067774127 -0.060887303 0.02100848
0.008608741 -0.028000325 0.13289264 0.04917886 0.05948621 -0.008953703 -0.021546928 0.04296383
0.043028742 0.023274021 -0.0245191 0.03165254 0.019875053 -0.105776116 0.042995457 -0.042669363
-0.014065602 -0.0106320465 -0.014477114 -0.05797019 -0.042477597 0.023685057 0.038819224 -0.07638697
-0.049724545 0.0151348375 -0.009055356 -0.04067644 -0.005942101 0.07903711 0.047033906 0.0037514013
0.122713886 0.06074815 0.046527896 0.0154273445 0.13572113 0.015821006 0.046783738 -0.057303697
0.013535374 -0.030284284 -0.005573797 -0.056238417 0.02702069 0.13582808 0.012675363 -0.047579244
-0.067520596 0.011548322 -0.029049743 0.011778101 0.077216394 -0.020851143 0.05888573 0.06693542
-0.007729185 -0.027534436 0.043422583 -0.025910217 -0.003723068 0.0057739187 -0.018642295 0.047651473
0.0036789672 -0.005834383 -0.032609668 -0.030186174 0.022681862 -0.01780333 0.16607511 -0.002493598
0.068714246 -0.0007565271 0.049784526 0.032789335 -0.03808472 -0.025003567 -0.014074822 -0.026223589
-0.06428335 0.049999136 -0.038954355 0.024780858 -0.05302281 0.027085384 -0.019669313 -0.017359067
-0.06388354 -0.061697736 0.04722114 0.032191735 -0.023732452 0.012339565 -0.0335824 0.020436842
-0.014232174 -0.0017909005 -0.019879956 -0.019840488 -0.03503592 -0.08033776 0.050804503 -0.03181612
0.05099098 -0.017030498 0.07445784 0.14691468 -0.022909502 -0.08317858 -0.025620094 0.012612939
-0.015572046 0.049967535 0.07594542 -0.017195065 -0.058210004 0.03324051 -0.035261955 0.05186061
0.036424983 -0.04790885 0.044493932 0.04057593 -0.034093063 0.020823447 -0.024779813 -0.0029950466
-0.053610537 0.0062769516 0.025934983 -0.0012238312 0.060107853 0.096720524 0.0274487 0.031492252
-0.0703672 -0.002249404 -0.07010704 0.015659604 0.0019553083 0.05487974 0.052701153 -0.0021512138
0.048454963 -0.04308356 -0.0016190701 0.023004113 -0.052491006 0.028574672 0.008578033 -0.055495147

Y_net.net.4.bias f4 [256]
00000000: 979d 15bd b59e 7bbc ae5f 80bd 4027 58bd
00000010: c3a9 44bd f3ea bc3d b139 3e3c 8801 46bc
00000020: 3230 5fbd fc41 9aba 52be 19bc 317c 85bd
00000030: 0f76 05bc 1a16 923c 5e06 75bc 94c9 90bc
00000040: 1ea3 eabc cd12 373c 9123 373d d4ef 5ebd
00000050: 6e0e 78bd fd54 803b 9678 96b8 75d9 0a3c
00000060: 0a8e a0bd 8646 693c 8325 4bbd 3f05 fa3c
00000070: 6353 0c3d 6924 59bd 39c2 723d c978 ef3c
00000080: 4b17 82bd 49c2 37bd cbd1 a63b 6ba1 87bd
00000090: da07 a1bd 3298 ee3b b46e ca3c 9a4a d5bc
000000a0: 04e4 9dbb 546f 08bd ed99 c1bc cdf1 b13c
000000b0: 5661 683d 5d8a 503c 1e33 693c 99a8 a13c
000000c0: ab6d 8bbc 7cac 22bd 85e2 843c 3b36 84bc
000000d0: b9c0 28bd 7f70 663b 65d5 41bd 51a7 f1bc
000000e0: 9126 09bd cd8d 20be 3e91 aabc 0ab6 49bd
000000f0: 84bc 14bd 5a98 93bd b252 1b3d 085a 1c3a
00000100: a595 353d 5416 ddbc dc74 b03b 1776 08bd
00000110: d0c5 2bbd b341 8e3d 523c 303d e2f5 d6bc
00000120: 5846 8c3c 9328 743c 639b 533c 67e0 653d
00000130: 9b30 55bd 5f25 92bd b038 a2bc aada 53bd
00000140: f023 94bc 779f babb 640c c9bd 288b ad3c
00000150: 8513 e3bc 62b0 30bd 1aaf a3bd a66d 123d
00000160: 7d88 a4bd 91b1 05bd 407d f7bb 14bd 9bbd
00000170: d698 473c 2dc2 febc c833 c03b 9224 203d
00000180: 46d0 833d 5396 83bc e5d6 44bc 67b9 ac3c
00000190: 31f5 1ebd 687c 37bd f5c1 813c a63b 98bc
000001a0: ee02 a4bc b2d0 86bd 692f 9e3c 968a b53c
000001b0: 118b ab3c 505c c1bc 4249 32bd ad7f 273d
000001c0: 332d b1bb 86cb 89bb 2192 21bc d3e0 63bb
000001d0: f386 403d 9bc6 573d 6eb4 2c3c 8c65 643d
000001e0: 4038 203d 6ed2 583b dea5 363d 68e2 27bd
000001f0: a040 5d3c b0bd 873c 8815 abbc 3695 3c3d
00000200: 89a6 97bc f643 ccbc a798 8fbd e2bb 01bd
00000210: 0096 403d 2474 753c 4f1b b13b ee67 89bd
00000220: 45fe e03b 41fa 723d e0b6 5e3c d9f5 09bd
00000230: 3dcc 3f3d dc24 90bd ae06 0ebd 357c 213d
00000240: 2e83 b1bc 46cd 97bd d69c ed3c 39cb 33be
00000250: 8ef9 adbb 6136 313d ba75 37bd 2ae6 963c
00000260: 21f3 50bd fc25 c83a 9395 04bd 7e10 37bd
00000270: 7df4 8fbd dab3 8dbd ebe7 75bd db44 11bd
00000280: 0fe6 09bd cc4a a4bc c12f 843d 0a7e 38bc
00000290: 109b 7ebb 5143 6fbc cf4e f63b 144c e23b
000002a0: 6759 af3c cbc2 81bd d905 56bd 02d1 14bd
000002b0: 590a 273c 9c20 a3bb 6962 79bc 7f5d 35bd
000002c0: 96d7 f9bc 1965 3f3c bd8d 283c d086 9bbb
000002d0: b713 afbb 149e 0abe a388 bb3c 2e1b 0ebc
000002e0: f369 cbbd bdec e4bc 9e74 8abc c92b 7c3d
000002f0: 4a6f fd3c 99e2 933c c2b0 7abd 8427 68bc
00000300: 6ab5 563d 42fa d5bd 2737 efbc 59fb f7bc
00000310: d4c0 8b3c a35f d63c e65c a7ba c88b 05bd
00000320: be41 20bb d619 1cbd 56c3 e3bd d2e8 d9ba
00000330: 75e8 79bd a0ef d8ba 3d9e 00bd 96a9 fcbc
00000340: 2a1c f83c d630 7abd 8e5e 113d 1338 b2bd
00000350: 7b7a 3fbc b14e 463d 4b35 abbd 7c8b 9abc
00000360: aad1 093d 6ea6 06bd 0c92 a6bc 63b2 503c
00000370: 9859 1bbd 886a cabd 9138 0abd d585 623d
00000380: 81be 09bd bdfa 15bd fae4 1f3d 9a05 ad3c
00000390: 1462 6fbd 0043 683d 47dc 543d 9987 b23c
000003a0: 73e5 08bd 65d1 a73c 217b 0f3d 8c5f adbc
000003b0: 851b 403d 4e92 87bd e81c 85bd 1bf5 1fbd
000003c0: 1627 923c 51b2 233d 95e0 483d 3c00 85bd
000003d0: ec55 11bc 94f1 0ebd 8e9a 333d 1f96 a2bc
000003e0: ac8a 82bd bf0a cabc 37b6 48bc 1fba 983c
000003f0: 70be 8dbd 36cb 083d f1d6 bc3b a97d fabc
-0.036527243 -0.015357663 -0.062682495 -0.052771807 -0.04801346 0.092245005 0.011610434 -0.012085326
-0.054489322 -0.0011768932 -0.009383755 -0.06517828 -0.008145823 0.017832804 -0.014955131 -0.017674245
-0.028642233 0.011173916 0.044711653 -0.054427937 -0.060560636 0.0039163814 -7.175018e-05 0.008474697
-0.07839592 0.0142380055 -0.04959632 0.03052008 0.03425921 -0.05301324 0.059267256 0.0292324
-0.06352099 -0.04486302 0.0050909272 -0.06622585 -0.07862826 0.0072813267 0.02471099 -0.02603655
-0.0048184413 -0.033309296 -0.023632968 0.021721745 0.05673345 0.012728301 0.014233379 0.019733714
-0.017020067 -0.039715275 0.016221294 -0.01613914 -0.04119942 0.0035162268 -0.04732265 -0.029498728
-0.033484045 -0.15679093 -0.02082121 -0.04924587 -0.036312595 -0.07206793 0.03792066 0.00059643434
0.044332165 -0.026988186 0.0053850245 -0.033315744 -0.041936696 0.06946125 0.043026276 -0.026240293
0.017123386 0.014902252 0.012915465 0.05612221 -0.052048307 -0.07136034 -0.019802421 -0.051722206
-0.018083543 -0.005695279 -0.098168164 0.021184519 -0.027719269 -0.04313696 -0.07992382 0.0357491
-0.080338456 -0.032640044 -0.0075527728 -0.07604423 0.012182435 -0.03109845 0.005865548 0.039097376
0.064362094 -0.016062891 -0.0120141255 0.0210845 -0.03880805 -0.044796377 0.015839556 -0.01858313
-0.020020928 -0.06582774 0.019309716 0.02216081 0.020940335 -0.023603588 -0.043526895 0.040893245
-0.0054069995 -0.00420517 -0.0098615 -0.0034771457 0.047003698 0.05267964 0.010541065 0.055760905
0.039116144 0.003308441 0.044591777 -0.040987402 0.013504177 0.016569942 -0.02088429 0.046040736
-0.018512027 -0.02493475 -0.07011538 -0.03167332 0.04701805 0.014981303 0.0054048668 -0.06709276
0.006866249 0.059320692 0.0135934055 -0.033681724 0.046825636 -0.0703828 -0.03467434 0.039425094
-0.021668997 -0.074122 0.02900545 -0.17557992 -0.0053092903 0.04326475 -0.044790007 0.018420298
-0.051013116 0.0015270109 -0.032369208 -0.044693463 -0.07029054 -0.069190696 -0.060035627 -0.035466056
-0.033666667 -0.020055197 0.06454421 -0.011260519 -0.0038849749 -0.014603452 0.007516719 0.006906042
0.021404935 -0.06335982 -0.05225167 -0.036332138 0.010195338 -0.0049782526 -0.015221217 -0.044278618
-0.030498307 0.011681818 0.010287699 -0.0047462955 -0.0053429264 -0.13536865 0.022892302 -0.008673472
-0.099323176 -0.027944917 -0.01690131 0.061565194 0.030936856 0.018052386 -0.061203726 -0.0141695775
0.052419104 -0.104481235 -0.029201103 -0.03027122 0.017059721 0.02616865 -0.0012768775 -0.03260401
-0.0024453248 -0.038110577 -0.11121242 -0.0016625172 -0.061012704 -0.0016550906 -0.031400908 -0.030842584
0.030286867 -0.06108173 0.035490565 -0.087021016 -0.011686916 0.04841489 -0.08359774 -0.01886534
0.033647217 -0.032873563 -0.020333312 0.012737843 -0.03792724 -0.098836005 -0.033745352 0.055303413
-0.033628944 -0.036616076 0.03903673 0.021120835 -0.058443144 0.05670452 0.051967885 0.021793174
-0.033421945 0.02048559 0.035029534 -0.021163724 0.046901245 -0.06619702 -0.06499654 -0.03905211
0.017840903 0.039964978 0.049042303 -0.06494185 -0.008870583 -0.034898356 0.043848567 -0.019846974
-0.06374106 -0.024663327 -0.012250475 0.018643437 -0.06921089 0.033396922 0.0057629277 -0.030577498

Y_net.net.6.weight f4 [256, 256]
00000000: 021c 173d 68c2 55bc 147c 013d 8e68 e9bc
00000010: e6de 5dbd f5e7 533d 7019 a93b 267f 7a3d
00000020: 584f 9f3c b6f0 44bd 7076 45bd b050 20bc
00000030: 9616 0d3d a61b 0ebd b8f1 403c fc25 0abd
00000040: 8ee4 69bd d060 683d 967f 87bc a0c8 f7bb
00000050: c44b 0dbd 3235 61bd 44d3 d23c fc43 893c
00000060: ea82 07bd c10c b93c d705 153c 7dea 1fbd
00000070: 3bda 403d 803f 333d 3ba3 efbb 188f 8dbc
00000080: 04f2 1c3d 1634 043d bd4f 7abd 9f53 b6bc
00000090: 56fe 283d 8ae3 9bbc a8f3 17bd 74f3 203d
000000a0: 81b0 023d 9808 e03c 3efa 313d 564c 3c3d
000000b0: 3255 263d 9440 59bd b5f5 c63c d049 1e3c
000000c0: e26c 2abd 004e 36b9 bcc1 c93c 04d0 9c3c
000000d0: 3423 033d d82c bb3c 4182 0e3d 207d 34bb
000000e0: a250 89bd 0d77 4abd 8070 0cbd b2be 36bc
000000f0: b8df 3d3c ebbd 04bd c8f1 3b3d 7b66 403c
00000100: 0094 2439 006a a8b9 fef4 683d c69e 483c
00000110: 787c 513c 7fdc 3cbd 2051 90bd c3dc 783b
00000120: 4e0a 25bd 9082 d63b 19b0 e33c 4344 75bd
00000130: 008e 463c 2777 8cbc 5694 3bbc d002 8f3c
00000140: 94cd 133d e648 1b3d fb6b 8dbc 5ce1 173d
00000150: 280d 25bd a2c0 0a3d 30d1 7ebc a9b2 67bb
00000160: 45ed ff3c 9e6f e53c 939d 25bd c2f4 a43c
00000170: e1b4 55bd 718a 8f3c 285a 2fbd a6a6 0b3d
00000180: b0ce 9abb 3610 4a3d 742f ce3c a4f7 01bc
00000190: 6e54 d23c fc6e f53c 9187 c13b e10d 1cbd
000001a0: 853b fc3c edcf 74bc 15a0 05bd 9423 043d
000001b0: a778 3b3c a429 143d e02b 10bd 222a 4fbd
000001c0: 7f30 e0bb 8fff 883d 6451 b0bc 4411 11bd
000001d0: 6ad1 b9bc 1f21 10bc c343 6c3d da40 2fbd
000001e0: ebf5 08bd 1426 403d 547a bc3c a12f 86bd
000001f0: a9fa 89bd ee6f 01bd dab5 183c f130 ba3b
00000200: 4bb9 1d3d bf14 41bd 92d6 783d 0873 73bc
00000210: 5eb7 d63c aa30 763d 741a 1abd 7394 9dbb
00000220: 982b 13bc b7c4 20bd 008a c63b 0d22 91bc
00000230: 20ca 8bbc 1997 82bd 78c4 b13c 5646 32bd
00000240: 4644 31bd 20eb 0c3d ba7a 09bd 7295 5ebd
00000250: c036 7abd 2b60 69bd d363 20bd 9444 4cbd
00000260: c1a7 4abc 2c28 7dbd ea4a 2c3d 1028 b43c
00000270: 966b 9f3c c8af 92bd 187a 73bd e019 16bc
00000280: a025 2dbd b41b 27bd d6a7 2c3c 34d9 f4bc
00000290: 4f49 99bc 4819 5bbd 328c 7cbd 9efc 2e3c
000002a0: 20bb 65bd 8369 783b 10cc fd3b 6cd0 0c3d
000002b0: 6a73 803c b1a5 5bbd 80eb ecbc 7000 eebb
000002c0: 5221 76bd 7270 6ebc 488f 2c3d 50c9 06bd
000002d0: 4029 1bbc 9c9d 05bd f886 b3bc a47a 653d
000002e0: 0630 e0bc 40cb ecbc b477 3a3d fba1 df3c
000002f0: c681 88bd 3033 0b3c 40b0 ccbc 9688 063d
00000300: 42e8 ec3c 8a69 3fbd 5679 2b3d edc4 c8bb
00000310: eae9 15bd 980f 2b3d 37dd 82bd fc9d 483d
00000320: 00af bd39 585a 12bd 2ec9 57bd 503f 11bc
00000330: aa8b 33bd 0816 61bc 7c41 173d b8a2 eebc
00000340: 50b7 3cbc b535 69bd 60b3 113b c723 8ebd
00000350: e178 1d3d 9e6a fbbc 0235 5bbd 4093 9b3a
00000360: 18ab 12bd 5070 533d 4211 0dbd 5026 803c
00000370: 680d 00bd e8eb 91bc f174 fd3c 772c 263d
00000380: 3052 29bc f09d e23c 674a 4cbd 6a27 4e3d
00000390: b6ae 383d 7a80 1abd 8bb4 a0bc aaee 7bbd
000003a0: 9f3f 42bd 0e77 503c ae2b 623c b686 24bd
000003b0: a017 22bc c81b a7bc 8a87 5b3d 7cd9 37bd
000003c0: 13fb 1f3d 4731 07bd 2ecc 7abd ca88 3c3d
000003d0: a20a 59bd d2d9 17bd 28c8 56bd b7e5 093d
000003e0: 900e 11bd 8c64 6dbd fc8c 02bc daf7 4abd
000003f0: 498f 913c 24db 073d c870 793c 76d4 40bd
0.036891945 -0.013046838 0.03161247 -0.028492238 -0.05416765 0.051734883 0.005160503 0.061156414
0.019447014 -0.048081122 -0.048208654 -0.009784862 0.034445368 -0.034694336 0.01177638 -0.03372763
-0.057102732 0.056732953 -0.01654033 -0.007561758 -0.034496084 -0.05498237 0.025735505 0.01675605
-0.033083834 0.02258909 0.009095631 -0.039041985 0.04708312 0.04376173 -0.0073131598 -0.017280146
0.03831674 0.032276236 -0.0611112 -0.02225667 0.04125818 -0.019029398 -0.037097603 0.039294675
0.03190661 0.027347848 0.04345154 0.045971237 0.040608592 -0.053040102 0.024287084 0.009661153
-0.041607745 -0.0001738593 0.024628513 0.019142158 0.032015994 0.022848532 0.03479219 -0.00275404
-0.067048326 -0.049429942 -0.034286976 -0.011153864 0.011588983 -0.032407682 0.045884877 0.011743183
0.00015695393 -0.00032122433 0.056874268 0.012244886 0.012786023 -0.04610872 -0.07046723 0.003797338
-0.04029303 0.006546326 0.02779393 -0.059879553 0.012118816 -0.01714666 -0.01144894 0.017457396
0.036084726 0.03791132 -0.017263403 0.037080154 -0.04029575 0.033875115 -0.015552804 -0.0035354292
0.031241069 0.028007325 -0.040433478 0.02013624 -0.052174453 0.017522069 -0.04281059 0.034094475
-0.004724346 0.049331866 0.025169112 -0.007932577 0.025675025 0.029960148 0.0059060534 -0.038099173
0.0307901 -0.0149421515 -0.03262337 0.032260492 0.01144234 0.036172524 -0.035198092 -0.05057729
-0.0068417187 0.06689369 -0.021523185 -0.035416856 -0.022682864 -0.008796959 0.05768181 -0.042786457
-0.03343765 0.046911314 0.02300755 -0.06552053 -0.06737263 -0.031600885 0.009320701 0.005682104
0.038506787 -0.047138926 0.060751505 -0.014858969 0.026210483 0.060105003 -0.037622884 -0.0048089563
-0.0089825615 -0.039250102 0.0060589314 -0.017716432 -0.017064154 -0.06376476 0.021700129 -0.04352411
-0.043278 0.03440392 -0.033564307 -0.05434174 -0.06108737 -0.05697648 -0.0391577 -0.04987009
-0.012369097 -0.06180589 0.04206363 0.02199176 0.01946048 -0.07162434 -0.05944261 -0.0091614425
-0.04227221 -0.040797904 0.010538062 -0.029888727 -0.018711714 -0.053490907 -0.06165714 0.010680346
-0.05608666 0.0037904687 0.0077452734 0.034378454 0.015680034 -0.053624813 -0.028920889 -0.0072632357
-0.06009037 -0.014553176 0.04212883 -0.03290683 -0.009470284 -0.03262101 -0.021914944 0.056025162
-0.02736665 -0.02890551 0.045524314 0.027298918 -0.06665377 0.008496091 -0.024986386 0.032845102
0.028919343 -0.04673151 0.04186376 -0.006126991 -0.03660003 0.04176292 -0.0638985 0.04897879
0.00036179274 -0.03573069 -0.052682094 -0.0088651925 -0.043834366 -0.013738163 0.036927685 -0.029130325
-0.0115183145 -0.056935985 0.002223216 -0.06940418 0.038445357 -0.030690487 -0.05351735 0.0011869445
-0.0358077 0.05162078 -0.034440286 0.015643269 -0.031262785 -0.017812684 0.030939551 0.04056975
-0.010334536 0.027663201 -0.049875643 0.050330557 0.045088492 -0.03772018 -0.01961734 -0.061506905
-0.047423955 0.012723697 0.013804359 -0.040167533 -0.009893328 -0.02039899 0.053596057 -0.044885144
0.039057802 -0.03300598 -0.061229877 0.04602889 -0.052988656 -0.037072964 -0.052436978 0.03366634
-0.03541428 -0.057957217 -0.007968184 -0.049552776 0.017768519 0.033167973 0.015224643 -0.04707762
