saved/almgren_FC_ReLU/model_best.pth (torch, 800181 bytes, 9 tensors)

Y_net.net.0.weight f4 [256, 4]
000000 97 28 be be 2a 70 73 be 8b 45 d5 3d 9c f2 f8 be
       -0.37140343 -0.23773256 0.10413655 -0.48622596
000010 65 7f 00 3f 7a f7 b0 be 54 58 1d be ac 96 13 3e
       0.5019439 -0.3456381 -0.15365726 0.14412946
000020 a6 df 03 be 4d d6 a0 bd 42 01 58 3e 5c 0d 1e 3e
       -0.12878284 -0.07853375 0.2109423 0.15434784
000030 f0 38 cb be d8 54 95 be 90 57 96 3d 4e 40 e3 3d
       -0.39691877 -0.29166293 0.0734092 0.110962495
000040 e0 a5 6e be 82 dd ff 3e 89 c0 b0 bd 57 6f b9 bc
       -0.23305464 0.49973685 -0.08630473 -0.022636099
000050 86 83 d7 3e 63 89 68 be c6 ef c0 3e c0 70 1f be
       0.42092532 -0.22708659 0.37682933 -0.15570354
000060 a8 ea 92 be 9c 1f 23 3d 84 d6 93 3e 4f 3e 05 3f
       -0.28694654 0.039825067 0.288746 0.520482
000070 28 90 b5 be df fc e2 3e 63 b1 cd 3e 06 72 2d bd
       -0.35461545 0.4433355 0.40174398 -0.04234507
000080 6f 77 ac 3e 1f 3f 16 3d b9 de bb be 10 cd e1 3e
       0.3368487 0.03668129 -0.3669336 0.44101763
000090 34 54 67 bd 79 9a 6b be c8 a8 81 bc ae 20 40 be
       -0.056476787 -0.23008145 -0.015827551 -0.18762466
0000a0 fd 9e dc 3e 53 08 31 be 37 72 4f 3e 85 72 c0 3d
       0.43090048 -0.17288332 0.20258413 0.09396843
0000b0 71 da f7 be de f9 a5 3c d6 5d 9f 3d a3 e0 8d be
       -0.48408845 0.020260748 0.0778157 -0.27710447
0000c0 1d 1b a7 3e c5 f0 5b 3d d5 19 9a 3e 80 2b 32 be
       0.32637873 0.053696413 0.30097833 -0.17399406
0000d0 ef c4 5d be 77 85 5d be 11 6c de be 92 86 8b 3e
       -0.21657155 -0.21632944 -0.43441823 0.27251107
0000e0 50 16 af 3e d9 27 ad 3e 0c bb 6c bd e6 98 a8 3e
       0.3419671 0.33819464 -0.05779557 0.32929152
0000f0 7c e5 f3 3e 7a b3 a3 be 55 99 00 be 60 eb e2 3d
       0.4763602 -0.31972867 -0.12558492 0.110800505
000100 c5 ee 6d bc 84 9b b1 3e d1 b9 de 3c 8e 43 01 bf
       -0.014522259 0.34688962 0.027188214 -0.50493705
000110 17 d1 94 be 47 69 60 be 32 05 3f be 95 6f bb 3b
       -0.29065773 -0.2191516 -0.18654326 0.0057200887
000120 70 2c 0d 3f 31 cd 3a 3e 42 48 37 be 25 0b 9e bd
       0.5514593 0.18242337 -0.17898658 -0.077169694
000130 df 8d f5 bd e8 81 4d 3c d2 75 65 be a8 99 de be
       -0.119899504 0.012543179 -0.22408226 -0.43476605
000140 97 3e 1a 3e 8f d1 85 3e f9 62 6f 3e c7 24 f6 be
       0.15062939 0.26136443 0.23377599 -0.48074934
000150 67 ae b3 be 52 ff ff bd 80 dc 38 be 3e 40 92 3e
       -0.35093996 -0.1249987 -0.18052864 0.28564638
000160 11 6f a7 be 70 9f d4 3d 9e aa 8c 3e 6c a8 11 be
       -0.32701924 0.10381973 0.2747392 -0.14224404
000170 94 b3 e8 be 4b 5f 7f 3e 23 6e dc bd 3d 45 a0 3e
       -0.45449507 0.24938695 -0.107631944 0.31302825
000180 d1 2b cd bd 62 5a 0f be fa 98 bf 3d a9 8d c4 be
       -0.10018123 -0.13999322 0.0935535 -0.38389328
000190 0e b4 24 bd 41 af f5 3e 24 2f 9a 3e 8c 6b 80 be
       -0.040210776 0.4798527 0.3011409 -0.25082052
0001a0 7c 42 a4 be c8 a7 40 be fb db 31 3e 86 4a 08 3f
       -0.32081974 -0.18814003 0.17369072 0.53238714
0001b0 04 bc e1 3d f2 4a dd bd 11 cc e5 bd d6 af 4d 3e
       0.11022189 -0.1080531 -0.11220563 0.20086607
0001c0 56 93 0b bd 5a 09 90 3d e9 46 c6 be bf 0e b1 be
       -0.034076057 0.07033034 -0.38725975 -0.34581563
0001d0 37 ec 7f 3e 8f e5 82 be bc 74 98 3e 88 f3 03 be
       0.24992453 -0.25565764 0.2977656 -0.12885869
0001e0 1e a2 ac 3e a6 57 ee bd a9 16 51 3d 36 46 4c be
       0.33717436 -0.11637811 0.051047 -0.19948658
0001f0 b8 a2 3a be 69 b7 af 3c 0e a8 90 3e 00 49 88 3e
       -0.18226135 0.021449761 0.28253216 0.26618195
000200 c9 f1 b3 3e d8 fe 87 be 83 1e 3f 3d 60 62 9f 3d
       0.35145405 -0.26561618 0.046659958 0.077824354
000210 f3 6d 0c 3f 59 13 c2 3e 11 88 be be 61 8a 44 3b
       0.5485527 0.37905386 -0.37213185 0.0029989707
000220 82 5d c1 3e e2 b4 d9 3e 7d 20 92 be 54 44 c3 be
       0.37766653 0.42520815 -0.28540412 -0.38138068
000230 9f 0d 8c bd 4d 46 ec be b1 08 8b be 1c 2b 88 3e
       -0.068385355 -0.46147385 -0.2715507 0.2659539
000240 0f d1 09 3f cf 66 e3 3e e1 d3 c6 be 1a 78 fa be
       0.53834623 0.44414374 -0.38833526 -0.48919755
000250 b3 40 a2 3e af a8 55 3e 87 f1 f4 3d 84 9c 95 be
       0.31689987 0.20865129 0.1196013 -0.29220974
000260 2f 9d 5c 3e 34 bf f6 be 3f f5 c7 be 6c e6 7a be
       0.21544336 -0.4819275 -0.39054295 -0.24501961
000270 80 34 17 be 7c b2 40 3d 57 c8 5d 3e 23 32 d0 3e
       -0.14766121 0.047045216 0.21658455 0.4066325
000280 aa 45 05 be 15 b1 db 3e e7 e4 42 be 4c 29 c1 3e
       -0.13014856 0.4290854 -0.19032632 0.3772682
000290 7e c9 cd bd 02 34 cc be 5d 07 95 3e f4 7e 56 bd
       -0.10048197 -0.3988343 0.2910718 -0.052367166
0002a0 f6 77 d2 3e 22 d3 2a 3e 72 de c8 bd 96 b3 89 bd
       0.41107148 0.16682103 -0.09808053 -0.067237064
0002b0 b5 f0 b7 3e 9f f4 1f bd d1 9e d2 3e 9d 81 78 3e
       0.35925832 -0.03905165 0.41136792 0.24268194
0002c0 3f 60 d0 be f9 f6 a8 be 16 d1 b5 be 12 90 e7 3d
       -0.4069843 -0.33000925 -0.35511082 0.11306776
0002d0 29 b5 b8 3d 4c 78 3e be 7f aa 27 3e 69 0c b2 be
       0.090189286 -0.18600577 0.16373633 -0.34775093
0002e0 ec 08 25 3e 33 8e fd 3e 00 f4 86 be ce 61 04 3e
       0.16116685 0.49522552 -0.26358032 0.12927935
0002f0 2b 6f 94 be 78 14 64 be 9b ac 97 3e 11 83 90 be
       -0.28991064 -0.22273433 0.29623875 -0.28224996
000300 35 8b 22 3e df ab 90 be 2a d5 9e bb 5d 62 de 3d
       0.15873416 -0.28256127 -0.0048471885 0.10858605
000310 70 10 19 3e ef e1 b7 3e 29 db be 3c 68 59 91 be
       0.14947677 0.3591456 0.023297863 -0.28388524
000320 13 fe 91 be 27 7e 4e be 89 64 a5 bc 5d c3 20 be
       -0.28514156 -0.20165311 -0.02018954 -0.15699525
000330 61 cc 60 be f8 22 c4 be 30 c7 30 be d7 12 ab 3e
       -0.21952964 -0.3830793 -0.17263484 0.3341281
000340 ba ea 18 3e 10 eb 76 3e 23 9b 95 3e 9c 12 71 be
       0.14933291 0.24113107 0.29219922 -0.23542255
000350 9a 1a 1d be d8 15 aa be c6 ac cd be 39 0e 00 be
       -0.15342179 -0.3321979 -0.40170878 -0.12505426
000360 12 36 8c 3e bb c8 6a bd 4f ea 8d be 32 97 95 be
       0.27385002 -0.057320338 -0.27717826 -0.29216915
000370 c1 da ac be f4 6c 86 be f8 f5 23 3e bb 07 61 3e
       -0.33760646 -0.26255 0.16011798 0.21975605
000380 5d 9d 8f be 19 e9 b4 3d 63 54 71 be e0 91 86 3e
       -0.28049746 0.08833522 -0.23567347 0.2628317
000390 8a dd dd 3e d2 ea a6 3d 5c 77 f1 3e 79 e2 46 3e
       0.43333083 0.08150257 0.47161376 0.1942233
0003a0 93 6f a0 3e 80 b7 c7 3e c6 f7 12 be a7 25 e3 be
       0.31335124 0.39007187 -0.1435233 -0.44364664
0003b0 c2 fa d6 3e 1b 20 a9 3e 29 62 e0 be a0 2f 2a 3e
       0.41988188 0.33032307 -0.4382489 0.1661973
0003c0 6c 87 8b 3b f7 cd b9 3e 6f a4 6d bd dd d5 ca 3e
       0.004258087 0.3628995 -0.058018144 0.3961629
0003d0 a8 dd fd 3e 4c b0 b4 be ca c2 3f be 38 87 7d 3e
       0.49583173 -0.35290754 -0.1872665 0.24758613
0003e0 78 a5 31 3d f9 70 b9 3e aa ac c7 3c 0f d8 9d bd
       0.043370694 0.36219004 0.024374325 -0.077072255
0003f0 be 62 95 be 85 e9 cd 3e 7a ef cf be e2 1d 28 bc
       -0.29176897 0.40217224 -0.40612394 -0.010261031

Y_net.net.0.bias f4 [256]
000000 f8 b2 fe 3e cf 7c d3 be ea 36 c5 3e 63 62 99 3d
       0.49745917 -0.4130616 0.3851846 0.07489469
000010 58 c2 58 3d 6f ed 16 3e 53 f6 2b 3c 1b f2 72 3e
       0.052919716 0.14739011 0.01049574 0.23725168
000020 2d c2 cc be 57 d1 fe 3e 9a 7f 81 be e0 b2 5e be
       -0.39991894 0.4976909 -0.25292665 -0.21747923
000030 22 a3 47 bd 2c 79 08 3f 4f 3b 85 3d 10 00 e1 bd
       -0.04873956 0.53309894 0.06505453 -0.1098634
000040 e2 dd 7b 3e 4e 0e b8 be 8b 64 d8 be f0 65 94 3c
       0.2459636 -0.35948414 -0.42264208 0.018115014
000050 4a 95 36 be a9 e7 ef be fd 33 05 3f c1 35 ea 3d
       -0.17830387 -0.4685643 0.5203245 0.11436034
000060 93 8f ce 3e c3 4f 94 be 8d 6f 8f be 04 3f e8 3e
       0.40343913 -0.28967103 -0.28014794 0.45360577
000070 61 71 f0 3e 3b 69 12 3f 3d b8 37 be e4 39 e6 3d
       0.469615 0.5719182 -0.17941375 0.112415105
000080 6c 58 aa 3e 4e fd bb be 8e ac 6f 3d 95 61 19 be
       0.33270586 -0.36716694 0.05851417 -0.14978631
000090 9b 9b 08 bf 34 ea e3 3e de d9 ba be 92 20 6e 3e
       -0.53362435 0.4451462 -0.36494344 0.23254612
0000a0 87 e5 03 3f 39 e3 a1 be 3f f9 a7 3d 64 eb 95 3e
       0.51522106 -0.3161867 0.08201837 0.2928115
0000b0 f4 10 02 3f 40 d4 07 3d d8 e5 54 3e a4 b2 c1 be
       0.5080712 0.0331614 0.20790803 -0.37831604
0000c0 3a 9a 15 3d c3 4c 94 3e b8 fb e9 be 44 2e b2 3e
       0.036524035 0.28964815 -0.4569986 0.34800923
0000d0 1f a0 fc 3e 76 85 ad 3e 32 50 8b 3e 5c d5 65 3e
       0.49340913 0.33890885 0.27209622 0.22444671
0000e0 8b a0 90 3e 6c ed dc be de b3 ad 3e 48 af 99 bd
       0.28247485 -0.4314989 0.3392629 -0.07504135
0000f0 df 3d 80 be de 5d b0 be f9 cd 5f bd 92 30 c1 be
       -0.25047204 -0.34446615 -0.05463979 -0.3773237
000100 84 1d cd 3e 78 3d ae 3d 8b 77 7f bd 99 af 3c be
       0.4006158 0.08507818 -0.062369864 -0.1842636
000110 2a 7a aa be 31 d0 92 3d fc 63 af be 1b 91 97 3e
       -0.3329633 0.071686156 -0.3425597 0.29602894
000120 00 6b 0d be aa e3 7c 3e fd 98 06 3f 05 92 c1 be
       -0.13810349 0.24696222 0.5257719 -0.37806717
000130 68 e1 eb 3e 13 47 01 bf 02 f2 e8 3e ac ad dd be
       0.4607041 -0.50499076 0.45497137 -0.43296564
000140 2a 2a 8f 3e 0a f2 d7 be a5 ab cf be d2 e2 71 3e
       0.27961856 -0.4217685 -0.40560642 0.23621681
000150 49 a6 c1 3e 32 e9 2e 3e 52 e1 ce be 40 b5 13 bf
       0.37822178 0.17081144 -0.4040628 -0.5769844
000160 97 06 2c 3e 70 41 c0 3e 34 dd c2 be 71 b0 53 be
       0.16799389 0.37549925 -0.3805939 -0.20672776
000170 23 fb 11 3e 60 ac 16 3f 35 7f ef 3e 36 1b b2 3e
       0.14255957 0.58856773 0.4677674 0.34786385
000180 79 18 a7 bd de a6 db 3e 71 2a 4f be fb 9a 66 bd
       -0.08158965 0.42900747 -0.20231034 -0.056300145
000190 9c 01 84 3e d1 dd f6 be 69 c9 d7 3e be c5 ef be
       0.25782478 -0.48216107 0.4214585 -0.46830553
0001a0 82 dd 6c 3e e1 9a c2 be 26 d1 22 be b8 f9 b1 be
       0.23131374 -0.38008788 -0.15900096 -0.34760833
0001b0 43 8a 83 be f3 34 d9 bd 35 58 c5 3d 8c ff b6 3d
       -0.25691423 -0.106058024 0.09635965 0.089354604
0001c0 b7 7b d8 3e 45 b7 07 bf d9 b3 43 3e e1 00 02 be
       0.42281887 -0.5301402 0.19111575 -0.12695648
0001d0 28 f8 bc be be 02 a4 3c 02 a4 0f be 35 54 e4 bd
       -0.36908078 0.020020839 -0.14027408 -0.11148874
0001e0 86 95 ab 3e 78 10 12 3e d8 3d 3d be 5a 60 f2 3e
       0.33512515 0.14264095 -0.18480623 0.47339135
0001f0 a2 95 ad 3e 9f 2c 01 3d cb d4 b3 be 1c a6 20 3e
       0.33903223 0.031536695 -0.35123286 0.15688366
000200 46 e4 70 3d 75 36 ab be 19 a6 3d be f5 6e 9a be
       0.05881145 -0.33439985 -0.18520392 -0.30162778
000210 b3 d6 f4 3d 8c 5e fa 3e 8f 0f 98 bd 30 60 79 be
       0.11955013 0.4890026 -0.074248426 -0.24353099
000220 c4 aa b4 3d 0f 12 d7 bd fe 0c 79 be 0e ec 19 be
       0.088216335 -0.10501491 -0.24321362 -0.15031454
000230 74 fc 96 bd b7 c8 06 be 3f 42 5c 3d f3 c8 b9 3e
       -0.0737237 -0.13162504 0.053774115 0.36286125
000240 6c 8e c1 be 2c bb 9f 3b 1b 9c 9f 3e 6b b0 98 be
       -0.37803972 0.0048746075 0.31173787 -0.29822096
000250 66 63 bd be 13 ea 69 3d 8f 4c f1 be ba 1a 00 bf
       -0.36989897 0.057107996 -0.47128722 -0.5004078
000260 14 ee 1b 3e 76 76 b4 be 49 b8 a5 be 95 69 61 be
       0.15227538 -0.3524663 -0.3236716 -0.22012933
000270 0b 3f 95 bd 14 66 e0 be bb 07 d9 3e 05 59 d7 be
       -0.07287415 -0.4382788 0.4238871 -0.42060104
000280 74 4b e0 be eb ae d7 3e c3 50 e7 be a9 df d9 3c
       -0.43807566 0.4212564 -0.45178804 0.026595907
000290 29 b9 a9 3e e9 a5 a9 bd d5 31 ae 3e d7 74 62 be
       0.33149078 -0.08283598 0.34022394 -0.22114883
0002a0 46 c8 7a be 7a a6 fc bc a3 a7 5e 3e 14 79 a5 3e
       -0.24490461 -0.030841101 0.21743636 0.32318938
0002b0 e5 36 e2 3e 94 26 e5 3e 1a a0 39 be 5e 26 90 3e
       0.44182506 0.44755995 -0.1812748 0.28154272
0002c0 6a 78 4e 3d 48 91 cf 3e 2c e8 d4 be 70 f6 05 3d
       0.050407805 0.40540528 -0.41583383 0.032705724
0002d0 8a 58 06 bf 7a a4 16 bc af 32 02 3f 4c 37 be be
       -0.5247885 -0.009194488 0.5085859 -0.37151563
0002e0 41 15 85 bd 47 20 8b be 95 4d 04 bd 26 61 df 3e
       -0.064981945 -0.27173063 -0.03230055 0.43628806
0002f0 45 68 05 be 96 25 d6 3e f8 9a e5 3e 97 4e 8c be
       -0.13028057 0.4182555 0.44844794 -0.2740371
000300 29 53 94 3d 2c d8 08 3f 07 30 bd bc 0f d0 ea be
       0.07242424 0.5345485 -0.02309419 -0.4586186
000310 4e 59 fb 3e 56 50 e5 bd 4b 73 5e be 8c 92 b7 bc
       0.49091572 -0.111969635 -0.21723668 -0.022408746
000320 aa 2b a7 be 0f de c7 be b5 c3 ab be b7 43 d6 be
       -0.326505 -0.39036605 -0.3354775 -0.41848537
000330 29 b2 39 be 34 07 36 be d2 c5 e9 3e 89 d4 db be
       -0.18134369 -0.17776185 0.45658737 -0.4293559
000340 f6 a5 8f be 8d 0e 9c be a9 35 2e bd a0 2b d0 3d
       -0.28056306 -0.3047985 -0.042531643 0.10164571
000350 c5 c3 9a be 6a a7 9f 3c c7 23 10 3f b9 3d 33 be
       -0.30227485 0.019489009 0.5630459 -0.17504014
000360 97 b2 90 3e e5 8e c1 3e 0b 71 90 3e e1 1d 78 3e
       0.28261253 0.37804332 0.28211245 0.24230148
000370 b2 03 66 3e cb 8f e7 3d 74 59 56 be 93 a9 d7 3e
       0.22462347 0.11306723 -0.20932561 0.42121562
000380 b0 49 0e 3f 9b 6d 1f 3e e2 8b 87 be 77 43 ab be
       0.5558119 0.15569155 -0.2647391 -0.3344991
000390 60 16 a7 be 9d 4c ce be a0 8f 93 3e 83 a5 77 be
       -0.32634258 -0.40292826 0.28820515 -0.24184231
0003a0 aa e3 90 be 81 eb e0 3e 29 45 01 bf fb 11 d6 3e
       -0.28298694 0.43929675 -0.50496155 0.41810593
0003b0 a9 bc 4a be 5f a5 c1 3e c6 b9 00 bf d7 3a 0e 3f
       -0.1979853 0.3782148 -0.5028347 0.5555853
0003c0 1d 9d ac be 80 43 6f bd 11 54 ec bc 7f 36 b0 bd
       -0.33713618 -0.058413982 -0.02884868 -0.08604144
0003d0 96 6f ff bc 62 8a c4 bd 10 79 0a be a6 33 5c be
       -0.031181138 -0.09596707 -0.13522744 -0.21504077
0003e0 c7 58 e9 be eb 32 18 be 41 97 1b be ab 6e 59 be
       -0.45575544 -0.14863174 -0.15194418 -0.21233623
0003f0 bf 29 ea be 55 86 6a be 82 89 79 3e 61 d4 82 3e
       -0.45734975 -0.22902806 0.24368861 0.25552657

Y_net.net.2.weight f4 [256, 256]
000000 93 0c 52 bc 30 90 b7 bb be fc 3d 3d c0 96 f8 3b
       -0.012820381 -0.0056019053 0.04638361 0.00758633
000010 1b 13 51 3c 2a 5c 42 3c f2 c6 ad 3c 24 62 98 3c
       0.012760903 0.011862794 0.021213029 0.018601485
000020 64 b8 8b bc 22 a7 a6 3c 60 8e e8 bc 5e 92 be 3c
       -0.017055698 0.020343367 -0.028388202 0.023263153
000030 b3 58 52 bd 21 97 47 3c 63 d7 22 3c a4 a7 1e bd
       -0.05135412 0.012182028 0.0099390475 -0.038734093
000040 31 7a bc bc 00 50 7c bb d7 f1 55 3d 73 32 83 bd
       -0.023007484 -0.0038499832 0.05223259 -0.06406107
000050 b3 9b af 3c 48 bb c1 3c fe 7c 49 bd 93 d8 64 bc
       0.021436548 0.023648873 -0.049191467 -0.013967651
000060 35 6e 71 bd 4b df 2b 3d 79 e0 32 3c 1c 05 51 bd
       -0.058942992 0.041960996 0.010917776 -0.051030263
000070 6c fd 38 bd dc 1a 34 bd 65 66 14 bd 17 5b 4a 3d
       -0.045163557 -0.043970928 -0.036230464 0.049403276
000080 7b 52 49 3d 56 1b 53 bd ed 0d 6a 3c 9c 67 bb bc
       0.049150925 -0.05153974 0.014285547 -0.022876553
000090 94 69 ec 3c 8f fe 87 3a d8 b5 d7 bc e2 bf bf bc
       0.028858937 0.0010375547 -0.026331827 -0.023406927
0000a0 03 36 5f bc 90 b2 66 bb 3b ba 1e bd bd b3 e6 bc
       -0.013623717 -0.0035201646 -0.038751822 -0.028161878
0000b0 e8 96 6f 3c 82 92 48 bd c7 22 45 bd b4 11 2e bd
       0.014623381 -0.048967846 -0.04812887 -0.04249735
0000c0 1e 7c 17 bd dc 8a 36 bc f5 9c 43 3d f0 0a c4 bc
       -0.0369836 -0.011141505 0.047757108 -0.023930997
0000d0 90 23 0f 3d 32 0c 9f 3c d8 d1 4e bd be 19 4a 3d
       0.034946024 0.019414995 -0.05049309 0.049340956
0000e0 cd 24 c1 bc 2a 4f 31 3c 48 df fa 3c c0 88 d6 bc
       -0.023577118 0.010822097 0.030624047 -0.026188254
0000f0 a0 16 b0 3c b8 2b 4a bc 26 75 a4 3c 22 72 1a bd
       0.021495163 -0.012339525 0.020075392 -0.0377065
000100 ee 1d bc 3c cf 2b d9 bc 53 83 9b bc 5d 69 59 3d
       0.02296349 -0.026510147 -0.018983519 0.053078998
000110 dc 52 17 bc 05 bd 63 bd 53 02 c3 bc f2 c6 38 bd
       -0.009236064 -0.055600185 -0.02380482 -0.045111604
000120 f4 59 0f bd a7 07 04 bd fc e2 9a bc e5 bf 36 3d
       -0.034997895 -0.03223386 -0.018907063 0.0446166
000130 56 3d 1b bd b3 7d 1e bd ee ae 0a bd fd f4 39 3c
       -0.03790029 -0.038694095 -0.033858232 0.011349914
000140 e9 a3 80 3d 32 6b 2b bd a6 12 4b 3d 5c 06 d3 bc
       0.062812634 -0.041850276 0.04957833 -0.025759868
000150 ea cb c7 3c b8 05 3b bc 72 1f fa 3c 22 5d 6c bd
       0.024389226 -0.011414938 0.030532572 -0.057706006
000160 ad b2 10 bd d3 a5 8b bd d3 31 41 bd 5a 1d f8 bc
       -0.03532665 -0.06818738 -0.047166657 -0.030287433
000170 7b 1e e5 bb 21 25 24 3d 26 b2 66 bc ee cd 5c 3d
       -0.006992159 0.04007447 -0.01408056 0.053907327
000180 5a 27 7c bd 3b 23 7f bd 64 39 24 bd 4a 3f 61 3d
       -0.061560966 -0.062289458 -0.040093794 0.054991998
000190 01 61 3f 3c 19 a7 40 39 c6 91 aa bc b2 6d 10 3d
       0.011680842 0.00018372796 -0.020821463 0.035260864
0001a0 42 51 14 3c b0 4c e4 bc 02 41 16 3d 5b cf 23 bb
       0.0090525765 -0.027868599 0.03668309 -0.002499542
0001b0 a3 5c 4d 3d 8b d9 57 3d 8a ff 6f bd c4 ce 5b bb
       0.050137173 0.0526977 -0.05859331 -0.003353999
0001c0 38 0f 94 3b 00 08 88 3c ce 87 1f 3d 50 24 c4 3c
       0.004518416 0.016605377 0.038947873 0.023943096
0001d0 e8 a6 04 3d 68 95 88 bd c3 6f 18 bd 1c 0a 3b 3d
       0.032385737 -0.06669122 -0.03721596 0.045663938
0001e0 92 34 05 bc f8 64 4d 3d 1f f7 53 bc fb 83 c0 bc
       -0.0081302095 0.05014512 -0.012937336 -0.023500433
0001f0 39 49 b6 3b e5 97 17 bc bd 41 e6 bc 03 7c 51 3d
       0.005562928 -0.009252523 -0.028107518 0.051143657
000200 22 f1 23 bd ba 52 38 bd 90 bc 10 3d d4 91 b0 bc
       -0.040024884 -0.04500077 0.035336077 -0.021553911
000210 c1 df 26 3d 86 45 c5 bb 00 d1 81 bb e2 0f 60 bc
       0.040740732 -0.0060202507 -0.0039616823 -0.013675662
000220 86 c5 a7 3b c9 17 32 3d 9a b2 5b bd 73 c5 72 3c
       0.005119982 0.043479715 -0.053637125 0.014817583
000230 b4 1c ee bc ae 84 24 bd e8 8d 67 bb 1e d1 2c 3d
       -0.029066421 -0.040165596 -0.0035332385 0.042191617
000240 7e f0 43 bd 38 7f 5a bd 14 82 21 3d 17 6c 1e bd
       -0.047836773 -0.05334398 0.039430693 -0.0386773
000250 40 48 85 bc 8b 10 72 3c 18 1c 29 3d 95 ee 4a 3d
       -0.016269803 0.014774452 0.041286558 0.049543936
000260 84 22 4d bd 3f c8 24 3d 18 05 36 bc 7e 22 a6 bc
       -0.050081745 0.040230032 -0.011109613 -0.020280119
000270 08 64 50 3d 80 84 f7 ba ec 51 0d bc ba 74 13 3d
       0.050876647 -0.0018884093 -0.008625489 0.03599999
000280 4c f1 5d bd 08 2c d3 3b 2a d7 58 3d fe 16 38 3d
       -0.054185197 0.006444458 0.05293957 0.044943802
000290 a7 0a 17 3d e5 c8 82 3d 14 83 09 3c 1d 6b 53 bd
       0.036875393 0.06385974 0.008393068 -0.051615823
0002a0 4a 93 4a bd 78 18 a7 bc f8 75 ad 3c 71 6d 0a 3d
       -0.049456872 -0.02039741 0.021174416 0.033795778
0002b0 b4 32 3b bd 15 22 8f 3d 80 a4 ff 3a 82 a2 78 3c
       -0.04570265 0.069889225 0.0019503981 0.015175464
0002c0 de fd ce 3b e4 53 83 bd a4 2e d8 bc 9a 97 4c bd
       0.0063168844 -0.06412485 -0.026389427 -0.049949266
0002d0 e8 6b 09 3c 17 50 3d bd 73 24 c4 ba 20 57 9e bc
       0.008387543 -0.046218958 -0.0014964476 -0.019328654
0002e0 5c 95 02 3d bc 61 e7 3c 9a 64 82 bd c5 92 52 ba
       0.03188072 0.028244846 -0.063668445 -0.00080327346
0002f0 0d 71 59 bc d4 fb 89 bd 60 c7 07 3c f5 c3 8d bc
       -0.013271582 -0.067374855 0.008287281 -0.017305354
000300 d4 2f 76 bd ad 8a 55 bc fc 48 3c bd 53 dc 16 3d
       -0.060104206 -0.013033551 -0.04596804 0.03683121
000310 44 68 84 3b d9 a1 5c bd 91 4d 6f bd 4b d4 43 bd
       0.0040407497 -0.053865287 -0.058423582 -0.04780988
000320 6d 70 00 3d 24 27 8f bc 20 44 69 bc 33 03 95 bc
       0.031357218 -0.017474718 -0.014237434 -0.018190002
000330 ec a5 0a bd 5c 06 9d 3c 15 2a 97 bc b2 e2 bf bb
       -0.03384964 0.019168071 -0.018452683 -0.0058558816
000340 e6 f0 16 bd 3e 78 b6 bc d8 ca 3a bc fe 97 36 3d
       -0.036850832 -0.022274133 -0.011400901 0.044578545
000350 66 47 81 bd b5 e1 b9 bc 88 bc 70 3d ed e4 95 3c
       -0.06312446 -0.022690633 0.058773547 0.018297637
000360 50 ef b3 bc 38 b9 33 bd ec a4 45 bb a7 97 ba bc
       -0.021964699 -0.04387781 -0.0030158116 -0.022777392
000370 b2 94 81 bc 36 62 88 bd 7f 00 66 bd d8 7a 89 bd
       -0.015817974 -0.06659357 -0.056152817 -0.06712884
000380 0d f5 96 3c 40 97 3f 3c 59 54 85 bd de 5a 85 bd
       0.018427396 0.011693776 -0.06510229 -0.06511472
000390 c0 b2 b7 3b 37 a6 44 3d e5 02 03 3b b2 5a 47 3d
       0.0056060255 0.048010077 0.001999074 0.04867048
0003a0 78 b4 83 bc 8d e7 32 3c cf c8 c1 3c 51 89 2d 3c
       -0.016077265 0.010919464 0.023655323 0.010591821
0003b0 49 a2 30 3d a2 f3 42 bd 20 1d 49 bd 4d 44 09 3d
       0.043123517 -0.047595628 -0.04910004 0.033512402
0003c0 a8 61 87 3c 57 91 38 bd 44 15 23 3d 97 23 49 3d
       0.016526058 -0.045060482 0.039815202 0.049106207
0003d0 51 5e 4d bc f8 c4 29 bd 7d 96 7e 3c f4 1f 6a bc
       -0.012534694 -0.04144761 0.015538809 -0.014289845
0003e0 a4 08 07 3d 52 a9 5a 3d 90 52 80 3c 36 04 88 bc
       0.032967225 0.053384133 0.015664369 -0.01660357
0003f0 39 ee 50 3d b4 6b d7 3c 76 3e a4 bc ad 6c 06 bd
       0.051008437 0.026296474 -0.020049315 -0.032818485

Y_net.net.2.bias f4 [256]
000000 d0 9f 9c 3c 94 b6 27 3d eb 37 8a bd d1 10 fe 3c
       0.019119173 0.040945604 -0.06748947 0.031013878
000010 66 7e 5d bd f8 d5 02 bd f2 34 f7 bd a4 86 58 bc
       -0.05407562 -0.031942338 -0.120706454 -0.013215695
000020 e4 ab b0 3d 82 ad 8e bd a3 75 d2 3b 5b 1b ed 3c
       0.086265355 -0.06966688 0.006422715 0.028943708
000030 07 f8 b3 bd a2 a0 08 3d f4 a7 a7 bd 7b 55 e8 bd
       -0.08787542 0.033356316 -0.081863314 -0.11344429
000040 1e d7 21 3c 0f 7f e0 3b 90 4e b1 3b 91 a2 d2 3c
       0.009877948 0.006851084 0.0054109767 0.025712283
000050 4e e7 01 bd 53 c7 89 bc 8d 24 a5 bd 68 e2 ce bd
       -0.03171473 -0.016818678 -0.08063612 -0.10101777
000060 01 c9 7d ba 54 6f 8f bd 9c 47 1e 3d 94 df 1c bd
       -0.0009681136 -0.07003656 0.03864251 -0.03829916
000070 67 db 0e 3c 9f de 2a 3c f9 92 c5 3b 46 12 e7 bc
       0.008719302 0.010429054 0.0060294834 -0.028206956
000080 97 6f dc 39 df 17 47 bd 30 1e cd bd 87 0c d0 bd
       0.0004204481 -0.04860675 -0.100155234 -0.101586394
000090 e4 22 aa bd 48 12 92 bd a6 a6 9b bd cd f1 98 bd
       -0.08307436 -0.07132393 -0.07600145 -0.07467995
0000a0 b0 c9 f3 bb b3 65 0d 3d 40 af 87 bd c4 52 9a bd
       -0.0074398145 0.034520816 -0.06625223 -0.075353175
0000b0 4e d7 82 bd e4 35 b3 3b 20 6c ce bc 10 54 46 bd
       -0.06388722 0.0054690707 -0.025198042 -0.048420012
0000c0 b2 25 b3 bc aa 3a c0 bc d3 20 ea 3c c2 5f 9c bc
       -0.02186856 -0.023465473 0.028580105 -0.01908863
0000d0 b8 a7 92 3c 8f 86 43 bd 8f 6f bc bd fe 91 fa 3a
       0.01790224 -0.047735747 -0.092009656 0.0019116995
0000e0 b1 ba 48 bd d5 ff bd bd 64 50 16 bc 25 2b c4 bd
       -0.049006168 -0.09277312 -0.00917444 -0.09578542
0000f0 ff b0 0e bd a6 4b 33 bd f2 1f c2 3c dd ef 38 bd
       -0.034836765 -0.043773316 0.023696873 -0.045150626
000100 11 e9 d3 bb b3 e9 ce bd 9b ad b2 bc 7f 2f 74 bd
       -0.0064669927 -0.10103168 -0.021811297 -0.05961561
000110 20 1a 8b bd 9c 35 63 bd 55 1d 3b ba 08 2f 5d 3a
       -0.06792092 -0.055471048 -0.00071378547 0.0008437489
000120 d7 cd 64 bd 23 4c 47 bd 97 7f b6 3d 85 d5 4e bd
       -0.055860367 -0.048656594 0.089110546 -0.050496597
000130 7c f2 83 bd 11 f3 af bd 38 f6 30 bd 1c 73 d5 3b
       -0.064427346 -0.08591283 -0.043203562 0.0065139662
000140 d8 a6 6d bd 0b f6 fd ba a2 4e d0 3b 6a 3b 96 bd
       -0.058020443 -0.0019375695 0.00635703 -0.07335551
000150 a0 5c 77 bd f7 e2 60 bc 0a de 2c bd 54 74 1c bd
       -0.06039107 -0.013725988 -0.04220394 -0.038196877
000160 c2 a2 df bd 58 40 89 3c 8d 7f 17 bc 06 85 31 bd
       -0.109197155 0.016754314 -0.009246719 -0.04333975
000170 79 60 b0 bd 7c 1b 0b bd ef 9a 86 bd e2 ec 3e bd
       -0.08612151 -0.033961758 -0.0657252 -0.046612628
000180 2e cc 1e bd 29 2f b8 bd c1 e7 97 bc e7 15 70 3d
       -0.03876894 -0.0899337 -0.018543126 0.058614638
000190 87 bb b0 bb c9 7f 52 bd d2 f2 b1 bb df 43 9a bc
       -0.0053934488 -0.051391397 -0.0054305578 -0.018831192
0001a0 1c b1 89 bd 2e 88 b2 3c b2 9e 7b bd 9e ea f2 bc
       -0.06723234 0.021793451 -0.06143064 -0.02965289
0001b0 da cf 1b 3d 2e bf 46 3d c1 33 65 3b de d4 04 3d
       0.03804002 0.048522167 0.0034973475 0.03242957
0001c0 fd aa 28 3b e1 3a 04 be da 47 24 3d 2f 0a a0 bd
       0.0025736683 -0.12913086 0.040107585 -0.07814442
0001d0 a8 2e bd bc 31 ff 6d bd f2 be 01 3d 91 02 27 bd
       -0.023093536 -0.058104698 0.03167624 -0.040773932
0001e0 9e b9 7a 3c 38 28 a1 bd 1b f2 43 bd 99 34 e3 3b
       0.015303044 -0.07868999 -0.04783831 0.0069337604
0001f0 ae 66 bd bd 3f 7a 7d bd 18 e8 7f bc e3 e5 65 3d
       -0.092481 -0.06188416 -0.0156193 0.05612744
000200 20 25 03 bd 6e 22 a3 bd 76 53 57 bd 23 4d 06 3c
       -0.032017827 -0.07965551 -0.05256983 0.008197102
000210 18 20 3a bd 8e ea 81 bd 15 5a aa bb 65 ba 2c 3d
       -0.045440763 -0.06343566 -0.005198727 0.042169947
000220 e7 92 33 3c a0 53 ce bd 41 05 2a bd 67 20 22 3c
       0.010960317 -0.10074544 -0.041508917 0.009895421
000230 b8 a1 24 bd 04 bc 8d bd 0a 7f b7 bd 19 87 9a 3b
       -0.04019329 -0.06920627 -0.08959778 0.004715812
000240 1a 61 67 bd a6 1d a4 bc 31 da be bc c9 e0 ba bd
       -0.056489088 -0.020033669 -0.023297401 -0.091249056
000250 ad 74 4a bd 2b 23 a8 bc ba 08 f5 bb 44 66 7b bc
       -0.049427677 -0.020524582 -0.007477847 -0.015344206
000260 3c af b1 bd 6b 2a 2b 3d 59 da 3a 3c d1 b7 1d bd
       -0.086760014 0.0417885 0.011404597 -0.03850538
000270 01 b2 d2 bc e3 28 a6 b9 6b 7d ef bd 08 b2 05 bd
       -0.025719645 -0.0003169245 -0.116938435 -0.032640487
000280 bb 44 ec bb 11 24 05 3d e2 e7 0c bd ef b4 b6 3c
       -0.0072103417 0.0325051 -0.03440083 0.022303073
000290 97 d1 a9 3b d3 c2 b6 bd 4e 34 b5 3c 75 80 3b bd
       0.0051824558 -0.089238785 0.022119667 -0.045776803
0002a0 d2 90 a1 bd 20 ff 1c bd 81 c1 4d bd 22 3f c6 bc
       -0.078889504 -0.038329244 -0.050233368 -0.024200026
0002b0 f1 87 8f bc 53 78 9c bd 18 d3 af bd 1f 39 0e be
       -0.017520877 -0.076401375 -0.08585185 -0.13888977
0002c0 26 5b 32 bd 4b 4c 46 3c d4 55 ab bc 76 b7 d3 3c
       -0.043543957 0.012103151 -0.02091495 0.025844317
0002d0 c9 ec 14 bd 94 1a 2b bc 9a 0b cd 3c 51 90 57 bd
       -0.03635863 -0.010443348 0.025029946 -0.052627865
0002e0 03 09 22 3d 4f 0e 99 bd d6 a4 7f bc f9 90 c7 bd
       0.039559375 -0.07473432 -0.015603265 -0.09744448
0002f0 ea 85 8b bd ec 0a 01 3d ca fb 49 bd fd 27 ba 3c
       -0.068126515 0.031504557 -0.04931239 0.022724146
000300 bf 11 fc bc 34 e8 ac bd 8f 42 53 bd 95 1b ce 3c
       -0.03077018 -0.08442727 -0.051577147 0.025159637
000310 22 ae b6 bb 38 45 a8 bd 1c ff 87 bd 29 9a 5d bb
       -0.0055749575 -0.082163274 -0.06640455 -0.003381381
000320 ee 4a c5 bc dd be 47 3d 4f 9d 84 bd e8 50 58 bd
       -0.02408358 0.048766006 -0.06475317 -0.052811533
000330 b7 5b 0e 3d 4a 55 01 3c e9 14 cc bd 8b 59 7b bd
       0.034755435 0.00789387 -0.09964926 -0.06136469
000340 79 7f 1b bd 5b 6e 96 bd 35 4a e0 bd fd f8 bc bc
       -0.037963364 -0.073452674 -0.10951654 -0.023067946
000350 26 f1 3f bc 85 6f 90 bd 9a 81 a5 bd 4e 00 13 bd
       -0.011715209 -0.07052521 -0.0808136 -0.035888962
000360 d1 b6 41 3b 98 44 c7 3b d0 5e 96 bd 2f ba 30 3c
       0.002955843 0.006081175 -0.07342303 0.010786577
000370 18 05 c6 3b f5 ce 93 bc 4b 7f 1d 3d 5b 46 f0 bd
       0.0060430877 -0.01804302 0.038451474 -0.11732169
000380 3b 34 26 3d 24 e0 11 bd 3a 2b 6c bd 2f c4 06 bd
       0.040577155 -0.035614148 -0.05765841 -0.03290194
000390 4c fc 1f bd d6 db ba bb 06 78 5b bc e9 42 ae bd
       -0.03905897 -0.005702476 -0.013395315 -0.08508856
0003a0 c7 12 3a bc 5d c1 96 bd d0 e1 99 bd 68 3b f7 3c
       -0.011357016 -0.073611 -0.075137734 0.030179694
0003b0 eb 36 53 bc 11 a1 85 bd d8 fb 0c bd dc b1 2b bd
       -0.012891511 -0.065248616 -0.034419864 -0.041917667
0003c0 2a 8b 16 bd 62 e4 eb 3c fa 6d 4c bd 07 e3 b0 bd
       -0.03675381 0.028795425 -0.04990957 -0.08637052
0003d0 9b b1 83 bd fc 54 83 bd 0d 3a 76 bd f5 74 d8 bd
       -0.0643036 -0.06412694 -0.060113955 -0.10569183
0003e0 ed bc 78 3c bf fb 18 bd 7e b5 76 bc 54 61 c9 bd
       0.015181762 -0.03734946 -0.01505792 -0.09833017
0003f0 e7 37 a3 bc 88 5c 68 bd 15 63 e0 3b ac 4b 75 bc
       -0.019924117 -0.05672887 0.006847749 -0.014971655

Y_net.net.4.weight f4 [256, 256]
000000 78 f3 51 3d 76 fd 85 3c 07 94 44 bb ab 5e 82 bb
       0.05125758 0.016356211 -0.0029995458 -0.0039785705
000010 3d b2 ac 3d 3f 22 90 bd 12 04 f7 3b 36 5b 87 3d
       0.08432434 -0.07037782 0.007538327 0.06609194
000020 26 52 56 bd 13 31 82 3d 9b 3e 63 3d 8a f8 50 bb
       -0.052324437 0.063570164 0.055479627 -0.0031886422
000030 97 c0 ae 3d eb 36 89 bc 47 00 01 3c 10 da 83 bc
       0.08532827 -0.01674982 0.007873601 -0.016095191
000040 c9 2e bd 3c 5c d5 39 3d 9e 69 a0 bc e3 74 a6 bc
       0.023093598 0.04536949 -0.019581612 -0.020319408
000050 a8 c4 8a 3c a4 99 cd 3c 17 2f 17 3d a8 85 74 3c
       0.016939476 0.025097676 0.036910143 0.014924444
000060 74 4b 31 3c e4 ac f9 3c 9a 01 03 3c 70 ec 32 bd
       0.010821212 0.030477948 0.007995987 -0.043682516
000070 f1 96 75 3c f0 bf a3 3c 36 ae 6f 3e 31 7b f9 bc
       0.0149896005 0.019988984 0.234063 -0.03045425
000080 a4 92 4b 3d 7a b1 04 bd 17 40 7f 3d f7 69 78 3d
       0.049700394 -0.032395817 0.06231698 0.06064793
000090 07 80 bb 3c cc 6c 6f 3c 51 c4 d9 bc 49 1c 02 3c
       0.022888197 0.014613342 -0.026582869 0.007941314
0000a0 6d a1 2a bd 34 0c 58 bb 83 79 9c bc 42 e2 25 bc
       -0.041657854 -0.0032966258 -0.01910091 -0.010124745
0000b0 cc c1 3c 3d cb ff 4a 3c d5 8b be 3c 8d 68 f4 3d
       0.046083257 0.012390087 0.023260036 0.11934004
0000c0 26 4a 2a 3d e6 a4 ad bc 10 04 88 3b 7a a5 9d bc
       0.04157462 -0.021196794 0.004150875 -0.019243944
0000d0 8c fc 94 3b de fb e0 3b b9 f3 b7 3c 98 de 7b 3d
       0.0045467075 0.0068659624 0.022455083 0.06149158
0000e0 60 82 ca 3d 87 fd 6d 3d 9b 19 3d bd 43 88 6e 3c
       0.09888148 0.05810311 -0.046166997 0.0145588545
0000f0 22 b9 0b bd 0b 01 7f 3d 99 de 4d bd 78 fa 7e bc
       -0.034112103 0.062256854 -0.050261114 -0.015562646
000100 ca 1d 3b 3d aa 1d a7 3a 13 46 e6 3c 7f 63 4d bd
       0.045682706 0.001274993 0.028109586 -0.050143715
000110 4f a3 97 3d 71 7e 20 bb 19 ea 36 bd e3 ad 3b bc
       0.074041955 -0.0024489427 -0.044656847 -0.011455032
000120 af 69 fe 3c 22 10 b5 bc a0 16 3f bd d8 18 92 3d
       0.031056253 -0.02210242 -0.046652436 0.07133645
000130 5e 1e 38 3d 1d 94 26 3d 0c fa c5 3c 0a 97 e3 bc
       0.044950835 0.040668596 0.024167083 -0.027781982
000140 3a 2b c2 3d 51 a1 3d 3d e5 dd fc 3c dc 3a 9f bc
       0.09480901 0.04629642 0.030867526 -0.019437246
000150 b1 d5 7b 3c 2c c4 97 3d 1f 92 47 3d a0 70 7e 3d
       0.015370772 0.07410464 0.048723336 0.062119126
000160 2c fd da 3d b5 3c 96 3c 08 80 45 bc 13 dd 88 3b
       0.1069282 0.018339494 -0.012054451 0.0041767447
000170 a8 da d7 3b a0 22 64 3d 44 71 fa bc 4d 06 c7 3d
       0.006587345 0.055697083 -0.030571587 0.09717999
000180 97 cc cb bc 77 05 73 3d e8 44 91 3d bb 4a c3 3d
       -0.02487783 0.059331384 0.07093221 0.09535738
000190 72 77 fa bc 0e 29 a5 3b 36 c4 b8 3c c8 a3 16 3d
       -0.030574534 0.0050402945 0.022554498 0.036777288
0001a0 3a 6a 89 3b c8 42 47 3d fb b9 03 bc ec be 01 3d
       0.0041935714 0.048647672 -0.008039947 0.031676218
0001b0 d8 68 14 3c 24 65 7d 3d 44 cd e4 3b 14 fa 48 3c
       0.0090582 0.061864033 0.0069824774 0.0122666545
0001c0 83 48 e0 3a 85 a7 22 3d 82 ad 3c bd 2b be b0 3d
       0.0017111454 0.03971054 -0.046063907 0.08630022
0001d0 f8 76 30 bd 3e fe d9 3c 23 f0 89 3c cc 49 a6 3d
       -0.043082207 0.02661049 0.016838139 0.081195444
0001e0 6b 80 21 bd 2a df dd bc 4c 2d 78 bd 02 9d 32 bc
       -0.03942911 -0.027083952 -0.060590073 -0.010901691
0001f0 94 b1 eb 3c 0c b7 b1 3a fa 3f 80 bb e8 2c 86 bd
       0.0287712 0.001355858 -0.0039138766 -0.06551534
000200 5b 6e 10 bd 37 22 04 bd f6 4b ab 3d ac 6c de bd
       -0.035261493 -0.032259192 0.08364098 -0.10860571
000210 2e 0d 5f bc 13 36 2a 3d 73 ff e1 bc 15 a1 9f 3c
       -0.013613982 0.041555475 -0.027587628 0.01948599
000220 d7 b2 9c 3c 66 75 f3 3b 17 df 47 bd b4 06 04 bd
       0.019128246 0.0074297665 -0.04879674 -0.032232955
000230 ba 85 d9 3d 65 fd 84 ba be 41 dc 3b 65 09 47 bc
       0.106212094 -0.0010146318 0.0067217043 -0.012148236
000240 b0 65 a9 3d 1f 0e 76 3c 2c 2e 38 3d e5 a4 3d bd
       0.082713485 0.015018015 0.044965908 -0.046299834
000250 da 95 76 3d ef 28 93 3b 6e c7 3f 3d cc fb 1c bd
       0.060201503 0.0044909636 0.04682105 -0.03832607
000260 02 73 42 3c ec 15 d9 3c d9 53 0d bd 88 f3 a4 3d
       0.01186824 0.026499711 -0.03450379 0.080542624
000270 96 b4 a5 3c ec 6f 7e 3c c7 80 af 3d 6c b2 15 bd
       0.020227712 0.015529614 0.08569484 -0.03654711
000280 cc 6c ab 3c fc 80 a5 39 1c f0 a6 3d 9d 23 71 bd
       0.020925902 0.00031567353 0.08151266 -0.058871854
000290 e8 07 10 3d 2b 2b 3f 3c e2 58 67 bc 1c 1b 14 bc
       0.03516379 0.011668007 -0.014120312 -0.0090396665
0002a0 bd 2b a5 bc 8f da 3f bd 6e 5d 30 3d 03 94 60 bd
       -0.020162458 -0.046839293 0.04305785 -0.054828655
0002b0 3a 25 7a 3d 2b d8 3a 3c c9 18 8a 3d 1b 3a 52 3c
       0.06107066 0.0114040775 0.06743009 0.012831236
0002c0 e0 cf 83 bb f3 36 db bc 6e d0 04 3c d4 0f d8 ba
       -0.0040225834 -0.0267596 0.008106334 -0.0016484209
0002d0 b9 5a d7 bb 57 5f 80 3d c4 fb 06 3b c6 42 ae 3c
       -0.0065720943 0.06268185 0.0020596841 0.021272074
0002e0 cb d8 6d bc c9 0b 84 bb 4c 42 01 3d 17 7d 0a 3d
       -0.0145170195 -0.004029725 0.031557366 0.0338107
0002f0 e4 5e 2f 3d 85 99 f3 3b d4 d8 94 3b bb f6 74 bc
       0.042815104 0.0074340724 0.0045424495 -0.014951403
000300 eb 44 9b bc 8a ee a4 3d d9 4d 35 3c fc b4 33 3c
       -0.018953761 0.0805331 0.011065924 0.010968443
000310 7a b5 42 bc 37 c0 5e 3d 26 09 ce bc 5e 6b 6e 3c
       -0.011884088 0.05438253 -0.025150847 0.0145519655
000320 cd 40 b6 3c 15 e7 01 bc 92 22 71 3d 13 52 2d 3d
       0.022247696 -0.007928629 0.05887086 0.0423146
000330 c3 2a 8b bc b4 ac c0 3c 05 ea df 3c 5d 24 75 3d
       -0.016988164 0.023519851 0.027333269 0.05984913
000340 e0 77 7b 3d 6c 11 13 3d 56 a6 c3 bc 2b e7 59 ba
       0.06139362 0.035905287 -0.023883026 -0.000831234
000350 ec a1 64 3d 16 1b 04 bb 04 5c cd bc a8 23 31 3d
       0.055818483 -0.0020157746 -0.02506829 0.043246895
000360 12 5a 6b bd ff 6a 85 bb 09 72 c1 3d a2 2a bb bb
       -0.057458945 -0.004071593 0.094455786 -0.0057118693
000370 23 5b 1a 3d 75 26 f1 bc 9e d5 96 3d aa 84 68 bd
       0.03768457 -0.029437283 0.07364963 -0.056767143
000380 53 21 77 3d ad 55 d5 3b 42 0c 10 bd 3c 85 22 bd
       0.060334515 0.0065104575 -0.03516794 -0.039677843
000390 77 a0 c0 3c ac 89 87 3d ba 22 be bb 07 66 bf bc
       0.023514016 0.06618056 -0.0058024796 -0.02336408
0003a0 02 f4 0f 3c 41 f5 e3 3c 1c 20 35 3d 1c d8 7f 3d
       0.008786203 0.027826907 0.044220075 0.062461957
0003b0 69 f2 42 bd 5e cf 90 3b 98 67 6d 3d 6a 98 d9 bc
       -0.04759446 0.0044192513 0.057960123 -0.026561935
0003c0 52 a5 9f 3d bd 17 81 3c 26 9d 7d bb e8 8c 42 3d
       0.07795204 0.01575839 -0.0038698404 0.04749766
0003d0 c6 08 0c 3d 16 0b 2e 3c f9 03 26 3d f8 03 59 3d
       0.034188055 0.01062276 0.040531132 0.0529823
0003e0 2c dd 5d 3c c4 ca 0a bd 4e 43 11 3d 4c a6 65 3d
       0.013541501 -0.03388478 0.035464577 0.056066796
0003f0 ad 3a 58 bc a6 2a 02 bd e7 72 20 3c 1f 78 08 bd
       -0.013197583 -0.031778954 0.00979302 -0.03331768

Y_net.net.4.bias f4 [256]
000000 b5 ec 3d 3d 8c 89 1b bd 43 8c 81 bd 58 ba ca ba
       0.04636832 -0.03797297 -0.06325581 -0.0015466912
000010 b2 c3 64 bd ec 89 fd bc fc 50 c4 3c be 8d 23 bd
       -0.055850692 -0.030949555 0.023964398 -0.039930098
000020 f6 a3 27 3d 8e a2 bf bd 4c eb ca bc a1 15 fa bd
       0.04092785 -0.09357177 -0.024770401 -0.12211157
000030 6e 39 f0 3c ee c6 7c 3b b6 1a 74 bd 3d 3c 3a 3c
       0.02932426 0.003857072 -0.059595786 0.011366901
000040 29 d5 8a bd cf bf 6e bd e3 55 4c bb 07 02 7a bd
       -0.06778938 -0.05828839 -0.0031179122 -0.06103709
000050 fd db de bd 23 90 b2 bd 02 d9 05 bd eb 21 cb bd
       -0.10881803 -0.08718898 -0.032677658 -0.09918579
000060 7a c0 07 bc 18 eb 3e bd 2a 1b 08 bc 6f 6c c2 bc
       -0.008285636 -0.04661092 -0.008307258 -0.023733346
000070 0d 1c 38 bd 56 6e ec bc b2 e3 98 bd d4 bb 00 bd
       -0.044948626 -0.028861206 -0.074653044 -0.031429127
000080 0c 20 0c 3d 63 37 5c 3d c0 32 b2 3b 9b b3 12 bd
       0.03421025 0.05376376 0.005438179 -0.035815816
000090 f9 4b 71 bd 37 fb 47 3c 9a b8 92 bd f5 cc e7 bb
       -0.058910344 0.01220589 -0.07164116 -0.0070739933
0000a0 57 62 b6 bd 5f ae 93 bc 32 5f 9c bd 39 b2 a6 bd
       -0.089054756 -0.018027483 -0.076353446 -0.08139462
0000b0 d7 4a 03 bd bd 7c 87 3c 18 74 b5 bd eb ff ec bc
       -0.032053795 0.016538972 -0.08860034 -0.028930625
0000c0 af ee 73 bd 5f 65 2e bd 7d ec 32 3c ca bc 7f bc
       -0.0595538 -0.042577144 0.010920641 -0.015608976
0000d0 f0 26 ef bd 2b 24 83 3d 68 f1 2a 3c 7d b1 72 3d
       -0.116773486 0.06403383 0.010433532 0.059251297
0000e0 94 64 a6 bd 9b 3b 50 bc 2a 7c ff b9 6b 28 07 be
       -0.081246525 -0.012709524 -0.000487299 -0.13199012
0000f0 b6 d2 cf bd 4d 83 c5 3b 4d 46 77 bd f0 ac ab bd
       -0.10147612 0.006027615 -0.06036978 -0.083825946
000100 ce a2 14 3b 08 b5 d5 bc a4 13 48 bd b7 20 9c bd
       0.0022680047 -0.026087299 -0.048846856 -0.07623427
000110 24 29 de 3c ca b0 61 bd 0a 6c a9 bd 01 a0 c4 bc
       0.027119227 -0.05510024 -0.0827256 -0.024002077
000120 12 1c 63 bc a2 4f 23 bc 69 ec 32 3b 09 cd 0a bd
       -0.013861673 -0.009967716 0.0027301556 -0.033886943
000130 be 07 60 3d 6e be 9d bb d9 5f 3b bd 1f 82 86 3c
       0.054694884 -0.0048139608 -0.045745704 0.016419468
000140 a3 cc 01 bd 19 b7 27 bc a7 e6 a7 3c ef e5 e5 3a
       -0.031689297 -0.010236525 0.020495726 0.0017539839
000150 ca 9d a1 39 ba 85 2c bc 87 fe 12 bd 19 70 92 bd
       0.00030825875 -0.01052993 -0.035887267 -0.07150287
000160 98 4e 0d bc f5 dd 1a bd 8f 65 71 bd 72 ce 4c bc
       -0.008624695 -0.03780933 -0.058934744 -0.012500392
000170 b3 a2 2e bd 47 2c e7 bc 9b 81 90 3b 6d 74 d9 bd
       -0.04263563 -0.028219355 0.0044099814 -0.106179096
000180 39 fd de bd 99 0e 95 3d 9f 17 b1 bc 8a 60 c4 3c
       -0.10888142 0.07278175 -0.021617709 0.023971815
000190 e0 2b b1 bd 8d 55 d4 bb c1 07 9d bd d1 5b 22 3d
       -0.086509466 -0.006479925 -0.076674946 0.039638344
0001a0 17 8a 76 3d 86 05 60 bd d3 18 70 bd 8d 1e e8 bd
       0.060190286 -0.054692768 -0.058617424 -0.11333952
0001b0 8f 85 b5 bd 4d b8 69 bd 51 0f a9 bd 88 53 3d bd
       -0.08863365 -0.05706053 -0.082548745 -0.04622224
0001c0 d2 5d cb bd 35 91 a0 bc 27 14 4b bd 48 5a 69 bd
       -0.09930004 -0.01960049 -0.049579766 -0.056970865
0001d0 2d b3 cd bb 76 bb 4a bb 0e fc a6 bd 76 8b 06 bd
       -0.006277463 -0.003093449 -0.08153544 -0.032847844
0001e0 06 fb 0e 3d dc cf e5 bc 7d bb 1e bd bc 27 8b 3c
       0.034907363 -0.028053217 -0.03875302 0.01698672
0001f0 d0 72 4d bd 60 ef da bd d3 83 0d 3d 77 5d 5f bc
       -0.05015832 -0.106901884 0.034549545 -0.013633124
000200 78 00 1e bc 3b 05 5c 3d 22 42 51 3c 53 38 61 bd
       -0.009643666 0.053715926 0.012772115 -0.054985356
000210 bf 08 69 bd 70 f0 ec bb b6 be bc 3e 8a e1 11 3c
       -0.056893107 -0.007230811 0.3686425 0.00890387
000220 98 cd 2c ba b5 3e 8b bc f6 11 60 39 f9 de 30 3d
       -0.0006591915 -0.016997674 0.00021368996 0.043181393
000230 dc 03 ee 3c 8a 4f c6 bc d8 95 a8 bc c3 e8 3e bd
       0.029054575 -0.024207849 -0.020579264 -0.046608698
000240 cc 7d f7 bc 25 ce dc bc 5a d4 5b bc 67 60 65 bd
       -0.030211352 -0.026953766 -0.013417328 -0.05600014
000250 d0 b1 24 bb ed fc 71 bc aa c1 83 bb ad 9e 58 3c
       -0.0025130399 -0.014769775 -0.0040208893 0.013221425
000260 ef 3e 2c bd 09 6a 63 bd f6 c5 5e 3c bb 73 76 bd
       -0.042052206 -0.055521045 0.013597002 -0.060168963
000270 29 45 c1 bc 46 9e 03 bd 22 5d 44 3d 0b b5 41 bd
       -0.023592548 -0.032133363 0.04794038 -0.047291797
000280 2a 65 3b bd fb 52 36 bc f1 3f 23 bd 5a f2 92 bd
       -0.045750774 -0.0111281825 -0.0398559 -0.07175131
000290 aa 25 e5 3c a2 e0 49 bd fc 33 0f bd 00 80 0b bd
       0.027972061 -0.049286492 -0.034961686 -0.034057617
0002a0 0d f7 87 bd 87 08 9e bd 85 33 8c bd 0d b8 4f 3d
       -0.06638918 -0.0771647 -0.06845764 0.050712634
0002b0 44 07 29 3d 32 e4 db 39 1d 14 d3 bd 48 72 1a bd
       0.041266695 0.00041940954 -0.10306571 -0.037706643
0002c0 a4 cf b9 bd 44 54 f5 bc c4 c4 13 3d b7 03 83 bd
       -0.090728074 -0.029947408 0.036076322 -0.06397193
0002d0 f2 70 aa bd 94 b3 9a bd 67 1b 8e bc 17 7e 4e bd
       -0.08322324 -0.07553783 -0.01734705 -0.050413217
0002e0 8d 93 41 bc 37 cc 80 bd e2 50 4a bd 77 65 be bc
       -0.011814964 -0.06288951 -0.049393542 -0.023241742
0002f0 c7 bd 93 bc a4 d1 9a 3c 44 bd 82 bb e8 c2 7a bd
       -0.018034829 0.018898793 -0.0039898474 -0.061221033
000300 cf 14 96 bd 2d c8 82 bd 62 05 2c bb 0f d0 8c 3b
       -0.07328188 -0.06385837 -0.0026248326 0.0042972635
000310 04 35 b1 bb 8c 82 20 bd 85 32 0b 3d c8 97 c3 bb
       -0.0054079313 -0.039187 0.033983726 -0.0059690215
000320 81 4d 50 bc 06 40 53 bd fa be ac bc e3 5e 77 bd
       -0.012713791 -0.05157473 -0.021087158 -0.060393225
000330 ec 1e ee bd 84 16 55 be e9 f7 f8 bc 84 a5 18 3d
       -0.11626992 -0.2080937 -0.03039165 0.037267223
000340 2d 82 70 3c 80 ac 54 bd c6 e1 dd bd 91 6b a3 bd
       0.014679474 -0.05192232 -0.108340785 -0.07979501
000350 92 d8 d4 bc 8a 51 01 be 85 ea 30 3c 80 00 94 bd
       -0.025982175 -0.12628761 0.010798101 -0.07226658
000360 40 2c 4a bc a7 48 a4 3d 17 6c 8b bd 52 e7 b2 bc
       -0.012339652 0.0802167 -0.06807726 -0.021838818
000370 74 93 50 bd eb 4b 6f bd c2 9a 99 bd 97 9c e7 bd
       -0.050921872 -0.05842201 -0.07500221 -0.11309164
000380 dd 03 e3 3c 66 3f 4b bc 79 cf 85 bc 66 d8 c0 bc
       0.027711803 -0.012405252 -0.016334282 -0.023540687
000390 dc 70 13 3c bc f6 49 bc a6 c2 32 3d d4 4b 6f bd
       0.008999076 -0.012326892 0.043642662 -0.058421925
0003a0 3a 23 98 bc 40 a0 bc bd 74 68 a1 3c 72 11 b8 bd
       -0.018571485 -0.09210253 0.019703127 -0.089877024
0003b0 88 ba 74 bd 46 a7 cb 3b b6 e0 ee bd c5 84 93 bc
       -0.059748203 0.006215009 -0.11663954 -0.018007645
0003c0 ab e9 90 bc fb fd 88 bc 23 28 5f bd 3d 15 a9 3c
       -0.017689547 -0.01672267 -0.054481637 0.02064001
0003d0 cc b0 da bd d2 8f e2 3a 37 2c 92 bb ad 01 2f 3d
       -0.106782526 0.0017285293 -0.004460837 0.042726208
0003e0 ae 5e 93 bd f4 20 e1 bc a0 c3 41 bc f1 f9 e7 bb
       -0.07195793 -0.027481534 -0.011826426 -0.007079356
0003f0 b9 ca af bc 06 7a 1d ba 0a 4c 3c be a2 a3 f7 bc
       -0.02145897 -0.00060072576 -0.18388382 -0.030229393

Y_net.net.6.weight f4 [256, 256]
000000 a6 0e 4d 3d 48 dd 33 3e 26 34 6d 3d 13 16 3b 3d
       0.050062798 0.17564881 0.05791106 0.04567535
000010 0c b2 8f 3d 75 b9 1e 3d 4f 4d 77 bd 67 61 09 3d
       0.070163816 0.038751084 -0.06037646 0.033540156
000020 47 bb cb bc b6 3d 9f 3d e6 97 4a 3d 03 84 b6 3c
       -0.024869574 0.07775442 0.049461268 0.022279745
000030 05 ed 11 bd 2a 92 04 bd 9b 92 58 3d 7c f8 76 bd
       -0.03562643 -0.032365955 0.05287419 -0.060295567
000040 3b 15 52 bd c0 64 2c 3d 37 60 ac ba bc c6 19 3d
       -0.05128978 0.04208827 -0.0013151233 0.037543043
000050 24 9d ab 3d bf 47 78 bb b8 06 2a 3c d3 04 32 3c
       0.083795816 -0.003788456 0.010377578 0.010865408
000060 32 a3 92 3d 82 f9 ea bc e7 79 ff 3c 30 7b 0e bd
       0.07160033 -0.028683428 0.031186057 -0.03478545
000070 58 77 9f 3d a2 be c0 bc bb dd aa 3c 61 cc 09 3d
       0.07786435 -0.0235284 0.020857682 0.033642177
000080 25 f8 9e 3c 77 31 5d 3d 62 6e 37 3b 06 74 d2 3b
       0.019405434 0.05400225 0.0027989377 0.0064225225
000090 22 44 f1 bc 3b 83 56 3b 89 db cb bc 1c 32 5a 3d
       -0.029451434 0.0032732028 -0.024884956 0.053270444
0000a0 57 e9 d3 3c 03 75 5b 3d 0a 19 13 3d ad 01 36 bb
       0.025868101 0.053578388 0.03591255 -0.0027771995
0000b0 50 f6 e2 3b aa 79 36 3c 9d 6a 95 3d e5 55 b8 3d
       0.0069263354 0.011137405 0.072957255 0.09000758
0000c0 8d b3 94 bb b5 50 30 bd a2 c4 b6 3c 48 3b 64 3b
       -0.0045380057 -0.04304572 0.022310559 0.0034825373
0000d0 0f f2 7f 3c fe 01 68 3d 3f 20 a8 3c ef ca 51 bd
       0.015621676 0.056642525 0.020523189 -0.051218923
0000e0 de 62 6d 3d b2 8a 18 bc c4 33 33 3d cb 3f bb 3d
       0.057955615 -0.009310411 0.04375054 0.09143027
0000f0 3a 44 30 3c 24 df 13 3d d3 4b da bc 9c f6 bc 3d
       0.010758454 0.036101475 -0.026647484 0.092267245
000100 c7 99 7d 3d ae 9a 1b 3d 3d f2 6a bd 51 a8 8d 3c
       0.06191423 0.03798931 -0.057359923 0.017292174
000110 88 f8 b6 bb 24 cc bd 3b 53 d6 8f 3c 98 49 11 3d
       -0.0055838265 0.0057921577 0.017558252 0.035470575
000120 99 58 9e 3d fa 45 05 3d 75 1d 93 bc 1c 04 2f bd
       0.077317424 0.032537438 -0.017958382 -0.04272853
000130 fb 51 ee bc e9 af 88 bc b4 54 10 bd 27 c1 67 bd
       -0.029091826 -0.016685443 -0.03523703 -0.05658069
000140 7d 6b c3 bb 02 a2 0c bd 0f 77 83 3c 8f 2a 7f 3d
       -0.0059637413 -0.03433419 0.016047982 0.062296446
000150 9a 42 5c 3d 4d b5 4f 3b b7 ac 82 3d 06 75 fc bc
       0.053774454 0.0031693757 0.06380599 -0.03081752
000160 51 2b ec bc 37 ec 82 bc 91 24 61 bc 72 30 17 3e
       -0.028829249 -0.015981777 -0.013741628 0.14764574
000170 be 14 66 3b 02 4f 24 bd da 8b 52 bc 38 a2 8a 3c
       0.0035107578 -0.04011441 -0.012850726 0.016923055
000180 c3 29 a8 3d ef 85 6a 3e f3 f2 2f 3d 2b 93 e9 39
       0.082110904 0.22902654 0.042956304 0.00044550872
000190 88 01 63 3d d7 41 b8 bc 8b 5d ab bc e9 d6 f4 3c
       0.055421382 -0.022492332 -0.020918628 0.029887633
0001a0 5b 66 f4 3c 17 f4 01 bc b2 cd 63 3d f1 50 88 bd
       0.029833963 -0.007931731 0.05561609 -0.06656063
0001b0 ea d0 78 bd 62 f8 4a 3d 0b 16 ad 3d 8f 0b f2 3c
       -0.06074611 0.049553283 0.0845147 0.029546527
0001c0 5f c3 60 bc 08 f2 ee bc 69 b5 1b 3d 37 3b 0c 3c
       -0.013718455 -0.029168144 0.038014803 0.00855904
0001d0 a2 ff 24 bd 2d d7 a8 3c 66 0d fe 3c 17 aa db 3c
       -0.040282853 0.020610416 0.031012248 0.026814504
0001e0 a4 3f ee 3b 38 dc 8b 3d 56 a0 d8 bc 30 a9 2e 3d
       0.00727077 0.06829113 -0.026443642 0.04264182
0001f0 6c d0 e9 bc d8 5e 06 3c bf b3 08 3d 9f 74 ed bc
       -0.028541766 0.008201323 0.033374544 -0.028986273
000200 3d 4c 58 3c e8 2b 87 bc 95 4b 8e 3c 0c 48 66 3d
       0.01320177 -0.016500428 0.017370025 0.056221053
000210 d6 85 d1 bb 4f 18 60 3d 13 5f 03 3e 6f a4 89 3c
       -0.0063941283 0.054710682 0.12829237 0.01680204
000220 6c bc 74 3d e9 c7 96 3c cb 75 5a 3d e3 e1 9e 39
       0.059750006 0.018405871 0.053334992 0.00030304407
000230 9f db 45 bd a4 06 e8 bc 47 88 f6 3c d3 36 d6 3c
       -0.04830515 -0.028323479 0.030094279 0.02614919
000240 25 d0 5c 3a 37 0e 45 3d 55 e1 32 3c 72 ce b0 3c
       0.000842335 0.04810926 0.010917981 0.021582816
000250 b9 e7 33 bf 02 00 6a 3d 07 d8 d6 3c c9 84 cc 3c
       -0.70275456 0.057128914 0.026226057 0.02496566
000260 28 12 20 3d 59 4e af bc 18 a4 1a bd e1 70 a1 bc
       0.039079815 -0.021399664 -0.03775415 -0.019707145
000270 84 3b 6c 3d 8f 6d 98 3d 92 45 73 3d f9 ce a6 ba
       0.057673946 0.07442772 0.05939252 -0.0012726478
000280 f3 1e 1a bc 98 48 93 3d d2 0e 13 bd 7b f5 0d 3e
       -0.009406793 0.071915805 -0.035902806 0.13863175
000290 25 a9 7a 3d 49 06 17 bd 31 ec 0f bd e9 d9 4d 3d
       0.061196465 -0.03687123 -0.03513736 0.050256643
0002a0 d6 1c 41 3d 51 14 8b 3d 78 d4 e5 3c 24 a3 44 3d
       0.04714664 0.067909844 0.028055415 0.048007146
0002b0 9f a5 33 3d 0e a2 c4 3d 25 db ef 3d 6b b5 8e bc
       0.04385912 0.09601222 0.117117204 -0.017420491
0002c0 77 6f e1 bc b5 39 0e 3d ab 31 31 3d 64 db a1 3c
       -0.02751897 0.034723002 0.043260258 0.019757934
0002d0 6f d1 46 bd a7 c7 b8 3c 8c 1c d7 ba ae 9b ec 3c
       -0.048539575 0.02255614 -0.0016411706 0.028882828
0002e0 d1 f4 2e bc 63 34 29 bd d0 5c ca bc 45 a6 fd 3c
       -0.010678486 -0.041309725 -0.02470246 0.030963073
0002f0 bf 77 94 3d c7 e1 c6 bc 33 de 26 3d 2a 5b 04 3d
       0.07249402 -0.02427758 0.04073925 0.032313503
000300 2c 1b 80 3d b6 4a 29 bd 09 8c 33 bd ff e3 6b 3d
       0.062551826 -0.041331016 -0.04383472 0.05759048
000310 cd b7 ac 3c a9 95 5b 3c 23 5f 53 3c e0 58 05 3e
       0.021083737 0.013402381 0.0129011 0.13022184
000320 87 e4 4e bd 33 0d 33 bd 27 fd 11 3c 23 96 93 3c
       -0.05051091 -0.04371376 0.008910454 0.018015927
000330 b6 4e 8d 3c 55 69 2c be db 1d 1c 3c 2a c4 9a 3c
       0.017249446 -0.16837056 0.0095286025 0.018892366
000340 9e 10 99 3d e1 7e 97 bc e4 30 69 3c df 29 94 3d
       0.074738726 -0.018493118 0.014232848 0.07234549
000350 eb c1 ad 3b 38 38 4e bd 11 4a 28 3d 1c 9a 09 3c
       0.005302658 -0.050346583 0.04108626 0.008398559
000360 25 45 9c 3b 3d 48 93 bc 46 e1 9e bc 15 3b 8b bc
       0.004768985 -0.017978782 -0.019394528 -0.016995946
000370 70 9c 1b bd 7d e4 76 bd 25 dd 98 3d 10 c7 14 bc
       -0.037990987 -0.060276497 0.07464055 -0.009080663
000380 41 68 2a 3d b6 3a 00 bd 05 4d a6 3d ca 9c 81 bc
       0.04160333 -0.03130599 0.08120159 -0.015821833
000390 a0 96 55 bc 56 d8 4b bd 07 05 3a bd 8c c1 68 3d
       -0.0130364 -0.04976686 -0.04541495 0.056825206
0003a0 c1 41 2f 3d 0c 74 19 bd 9a b4 18 3d 60 ab 3d 3c
       0.042787317 -0.037464187 0.03728161 0.0115765035
0003b0 2d e3 8a 3c 76 34 63 3d 65 e8 91 3d e4 9f ee 3c
       0.016954029 0.055469953 0.07124404 0.029128976
0003c0 3e 27 42 3e 2d b3 06 3d a2 51 ad bd 00 0a 20 3d
       0.18960282 0.03288572 -0.08462836 0.039072037
0003d0 a4 8f 10 3b 9c eb 0c 3d 0e fb 95 3d 96 07 3a bd
       0.0022058273 0.034404382 0.073232755 -0.04541739
0003e0 ba 23 3e 3d fd 05 5c bc ef 14 a2 ba 3c 8d 94 3c
       0.04642079 -0.013429162 -0.0012365858 0.018133752
0003f0 8c 08 09 bd 77 ea 0f bd e8 04 39 bc 4f 41 51 3d
       -0.033455417 -0.035135712 -0.011292674 0.051087674
