saved/almgren_FC_ReLU/model.pth (torch, 799525 bytes, 9 tensors)

Y_net.net.0.weight f4 [256, 4]
0	0x3f1f11c4	0.62136483
1	0x3ecb6cb9	0.39731386
2	0x3ee8b465	0.4545013
3	0xbee51fef	-0.44750926
4	0x3d2c6859	0.0420917
5	0xbbd2bbcd	-0.006431079
6	0xbe878c59	-0.26474264
7	0x3e642951	0.22281386
8	0x3f897839	1.0739814
9	0x3eb14db6	0.346296
10	0x3e921a72	0.285358
11	0xbf2f9527	-0.68586963
12	0x3f5aa9d0	0.85415363
13	0x3e87ef5f	0.26549813
14	0xbe82df05	-0.25560775
15	0xbf12b7e6	-0.57311857
16	0xbf786542	-0.9702951
17	0xbe334cef	-0.17509817
18	0xbee6febe	-0.45116228
19	0x3e2154f1	0.15755059
20	0xbeb66ff1	-0.3563228
21	0xbd472cac	-0.048626587
22	0x3eca3206	0.3949129
23	0x3e8a417f	0.27003095
24	0xbe2353a4	-0.15949875
25	0xbe35c0ab	-0.17749278
26	0xbd1e9a88	-0.03872159
27	0x3db0beb9	0.086301275
28	0xbf12e212	-0.57376206
29	0xbe95d231	-0.29261926
30	0x3ebf1602	0.37321478
31	0x3e67a384	0.2262097
32	0xbe68c2f0	-0.22730613
33	0xbdb4f706	-0.088361785
34	0xbc05a20f	-0.008156314
35	0xbee38f5b	-0.4444531
36	0xbe1a6674	-0.15078145
37	0x3ec200d8	0.3789127
38	0xbd8550dd	-0.06509564
39	0x3ec100cb	0.37695917
40	0xbc8452f2	-0.016152833
41	0x3d28378c	0.0410686
42	0xbe9edd14	-0.31028044
43	0x3e8950d2	0.26819474
44	0x3f48ab23	0.78386134
45	0x3dee15a7	0.116252236
46	0xbeee406e	-0.4653353
47	0x3c87f955	0.016598383
48	0x3f59bd00	0.85054016
49	0x3ebb5040	0.36584663
50	0xbd2ac2ef	-0.04168981
51	0xbe383b4e	-0.17991373
52	0xbf21f3ff	-0.63262933
53	0x3c02259b	0.007943536
54	0x3d3dff33	0.046385955
55	0x3e79b775	0.2438639
56	0xbdbc5d87	-0.091975264
57	0xbef08c92	-0.46982247
58	0xbecd5d23	-0.4011012
59	0x3ecda6c1	0.40166286
60	0xbf4ea41c	-0.8071916
61	0xbefe2837	-0.49640056
62	0x3dba6ef6	0.09103195
63	0x3e9c6279	0.3054388
64	0x3f437c8b	0.7636191
65	0x3eb4d787	0.35320684
66	0x3ec9bc0d	0.39401284
67	0x3db18667	0.08668213
68	0xbf1c9cee	-0.61176956
69	0xbe55c50e	-0.20875952
70	0xbeb5dd1f	-0.35520265
71	0x3e9ee928	0.3103726
72	0x3f7a3d27	0.9774956
73	0x3ebb5510	0.36588335
74	0x3ec262ab	0.37965903
75	0x3e9921c2	0.29908568
76	0x3f545a7a	0.82950556
77	0x3ed33432	0.4125076
78	0xbdc71809	-0.09721381
79	0xbeea0440	-0.45706367
80	0xbdfd3f01	-0.12365533
81	0xbe0e98a4	-0.13925415
82	0x3e78b7fd	0.24288936
83	0x3e5d7687	0.21627246
84	0x3f767a84	0.96280694
85	0x3e601a01	0.2188492
86	0x3ea51231	0.3224044
87	0xbe785ed1	-0.2425492
88	0x3f31bde3	0.6943037
89	0x3e7d2780	0.247221
90	0xbe669641	-0.22518255
91	0xbed4f221	-0.4159098
92	0xbf37409a	-0.7158295
93	0x3ec7c4bb	0.3901728
94	0x3ebaaced	0.36460057
95	0x3e6e3ee8	0.23266184
96	0x3f81046b	1.0079473
97	0x3e4121cf	0.18860553
98	0xbbd02043	-0.006351502
99	0xbca6ad6e	-0.02034637
100	0x3e8725ff	0.26396176
101	0xbe076c68	-0.13224947
102	0xbe49fd77	-0.19725595
103	0xbea0566a	-0.3131593
104	0x3f85962a	1.0436451
105	0x3d2d8518	0.042363256
106	0x3ee167d4	0.44024527
107	0x3bdf7a09	0.0068199676
108	0x3e181425	0.14851435
109	0xbe2ab62d	-0.16671057
110	0x3de67795	0.11253277
111	0x3ec16797	0.37774345
112	0xbdc3a635	-0.09553186
113	0xbea909a3	-0.33015165
114	0xbec7d724	-0.39031327
115	0xbcf5dcc5	-0.030012498
116	0xbf4131ab	-0.7546641
117	0xbee8c262	-0.45460802
118	0xbe3ae837	-0.18252645
119	0x3e5762a5	0.21033724
120	0xbebc07c3	-0.36724672
121	0xbe917019	-0.28405836
122	0x3e90863e	0.2822742
123	0xbe423d70	-0.18968749
124	0xbd76d08e	-0.060257487
125	0xbdba9d74	-0.09112063
126	0xbeca64eb	-0.3953012
127	0x3e588aa8	0.21146643
128	0x3f85c5b9	1.0450965
129	0x3e9fbf6b	0.31200728
130	0xbedb76cf	-0.4286408
131	0xbf098c70	-0.53729916
132	0x3f34f8d6	0.70692194
133	0x3dfea980	0.12434673
134	0x3e4686d5	0.19387372
135	0xbe724ef6	-0.23662934
136	0x3db265ee	0.08710848
137	0xbe353768	-0.17696917
138	0xbea22f27	-0.316766
139	0xbe94bbf9	-0.29049662
140	0x3f4f3b4e	0.80949867
141	0x3eb5bde3	0.35496435
142	0x3ee0f4f0	0.43936872
143	0xbf1e00d9	-0.61720043
144	0xbeb373b6	-0.35049218
145	0xbefee038	-0.4978044
146	0x3ed0e4f8	0.4079969
147	0x3ea99dd2	0.3312822
148	0x3f284f4f	0.65746015
149	0x3e522648	0.20522416
150	0x3ebd7a39	0.3700731
151	0xbeaedd3a	-0.34153157
152	0x3f3c13a6	0.7346748
153	0x3ed3df61	0.41381362
154	0x3e22fe13	0.15917234
155	0x3d1b7e89	0.03796247
156	0xbdffb916	-0.12486474
157	0xbe457b52	-0.19285324
158	0xbe30162b	-0.17195956
159	0x3cc4cd91	0.024023803
160	0x3c992390	0.018693715
161	0xbe358677	-0.17727076
162	0x3e844aca	0.2583831
163	0xbe0ea89a	-0.13931504
164	0xbd978ff7	-0.07400506
165	0xbe9e3e48	-0.30906892
166	0x3e1ed423	0.15510611
167	0xbebfe211	-0.37477162
168	0xbeefab99	-0.46810606
169	0xbea976d7	-0.3309848
170	0xbec4a6c0	-0.3840847
171	0xbd9f1ad8	-0.07768792
172	0xbc6398ca	-0.013891408
173	0xbe27a73c	-0.16372389
174	0x3e857a30	0.26069784
175	0x3e9db9b5	0.30805746
176	0x3f6197bd	0.8812216
177	0x3e41dd6d	0.18932123
178	0x3ed3e961	0.4138899
179	0xbedb4d97	-0.42832634
180	0xbf164a59	-0.58707196
181	0xbd8b3c26	-0.06798582
182	0xbe13c458	-0.14430368
183	0x3e664792	0.2248824
184	0xbf34d53a	-0.7063786
185	0xbed529c9	-0.41633442
186	0xbee2676b	-0.44219527
187	0x3e737b06	0.23777398
188	0x3f462f15	0.7741559
189	0x3e6d550a	0.23176971
190	0x3eb93e63	0.3618041
191	0x3e94abee	0.29037422
192	0xbec990e8	-0.39368367
193	0xbe8d80b1	-0.27637246
194	0xbe399d52	-0.18126419
195	0x3df1fb77	0.11815541
196	0x3f8033a7	1.0015763
197	0x3d106a82	0.035257824
198	0xbd826fa8	-0.06368953
199	0x3dfc822f	0.12329518
200	0xbf1c14d4	-0.6096928
201	0xbe0dd1f3	-0.1384962
202	0xbe96cd61	-0.29453567
203	0xbe437674	-0.19088155
204	0xbd103245	-0.03520419
205	0xbe8be575	-0.273235
206	0xbe1771df	-0.14789532
207	0xbd251417	-0.040302362
208	0xbf38dbfd	-0.72210675
209	0xbd062dae	-0.032758407
210	0x3ebb6def	0.3660731
211	0x3e839082	0.25696188
212	0x3d38b160	0.045091033
213	0x3cf2be18	0.02963166
214	0x3d90755e	0.07053636
215	0x3d0aa059	0.033844326
216	0xbe928e3d	-0.28624144
217	0xbeb5bc42	-0.35495192
218	0xbef735e6	-0.4828331
219	0x3df6c908	0.120500624
220	0xbeb7d944	-0.35907948
221	0xbe2ea26f	-0.17054151
222	0xbeeab017	-0.4583747
223	0xbda5719f	-0.08078312
224	0xbf43605a	-0.76318896
225	0xbee28834	-0.4424454
226	0x3ecdf678	0.40227103
227	0xbdbbcfb4	-0.091704756
228	0xbb66d521	-0.003522225
229	0xbe91af59	-0.28454092
230	0x3e854385	0.26028076
231	0x3d309b5c	0.043116912
232	0x3f284f53	0.6574604
233	0x3e6228df	0.22085904
234	0x3ecc9e26	0.39964408
235	0xbee01b91	-0.43771031
236	0xbecbf7a0	-0.3983736
237	0xbe3143d3	-0.17311029
238	0xbea04414	-0.3130194
239	0xbd93a318	-0.07208842
240	0xbef4b0ad	-0.47791043
241	0xbe582669	-0.21108402
242	0xbec3d390	-0.38247347
243	0xbe8ab439	-0.27090624
244	0xbeb15c67	-0.3464081
245	0xbec11732	-0.3771301
246	0x3ee560e0	0.44800472
247	0x3ac11100	0.0014729798
248	0xbeef4114	-0.46729338
249	0xbf08341a	-0.532045
250	0xbed50ef5	-0.41612974
251	0x3ec7052b	0.3887113
252	0x3f322718	0.695909
253	0x3ea452d5	0.32094446
254	0xbeb0baab	-0.34517416
255	0x3ebe2c15	0.37143007

Y_net.net.0.bias f4 [256]
0	0xbdbe329e	-0.09286998
1	0xbdc67797	-0.09690779
2	0x3e1b9001	0.15191652
3	0xbdb93197	-0.09042662
4	0xbe9774a6	-0.29581183
5	0xbe5a4480	-0.21315193
6	0xbf6a0dbe	-0.9142722
7	0xbe39d7aa	-0.18148676
8	0xbd4c340f	-0.049854334
9	0x3ef9f46e	0.48819298
10	0x3b594925	0.003315517
11	0x3eb240a0	0.3481493
12	0x3de87b2e	0.1135162
13	0x3e5e49fb	0.21707909
14	0xbd918e61	-0.07107235
15	0xbd4e4978	-0.050363034
16	0x3d5dbda2	0.054135926
17	0xbdbdbb00	-0.09264183
18	0x3f2b268b	0.66855687
19	0x3d45f2fc	0.04832743
20	0x3c11f936	0.008909514
21	0x3ead44a1	0.33841422
22	0x3ee60650	0.4492669
23	0xbf008f49	-0.50218636
24	0xbe246966	-0.16055831
25	0x3ea3a358	0.3196056
26	0x3d0e4580	0.03473425
27	0x3f0cfeda	0.5507637
28	0xbf1cfe2f	-0.61325353
29	0xbf3e9c80	-0.7445755
30	0xbec52905	-0.38507858
31	0xbf23a13c	-0.639179
32	0x3e658cf1	0.22417046
33	0xbdfbee4a	-0.123013094
34	0x3e1c6eef	0.15276693
35	0x3db3627f	0.08759021
36	0xbde1bac8	-0.11021954
37	0x3ea7ee7a	0.3279913
38	0xbca5b38c	-0.020227216
39	0xbf2f1d0c	-0.68403697
40	0x3f050b69	0.51970536
41	0xbd2b9a43	-0.041895162
42	0xbd961a93	-0.073292874
43	0xbcbddb54	-0.023175873
44	0xbe35fbb9	-0.17771806
45	0xbec50aee	-0.384849
46	0xbf3ac393	-0.7295467
47	0x3f21ee58	0.6325431
48	0xbf67110b	-0.9026038
49	0x3f2306fe	0.63682544
50	0xbeb245b4	-0.34818804
51	0xbeb2862a	-0.34867984
52	0x3ea00dc4	0.31260502
53	0x3e833a61	0.25630477
54	0xbe840f30	-0.25792837
55	0xbf5f6198	-0.8725829
56	0xbe1bcc82	-0.15214732
57	0xbe375ae1	-0.17905761
58	0x3e766a67	0.24064027
59	0xbdcf090b	-0.10109147
60	0xbf3b00d5	-0.73048145
61	0xbf4a2621	-0.7896443
62	0xbc78f723	-0.015195641
63	0x3ec11eab	0.3771871
64	0xbf341388	-0.703423
65	0xbd01b2b8	-0.03166458
66	0x3e98f692	0.29875618
67	0x3f1650b3	0.5871689
68	0xbc75be9e	-0.01499906
69	0xbc319552	-0.010838823
70	0x3e4c4420	0.19947863
71	0x3f5fab21	0.87370497
72	0x3ea18708	0.31548333
73	0x3dfaaa4a	0.12239511
74	0xbf1fe9d2	-0.62466156
75	0xbdbfc759	-0.093641944
76	0x3e179164	0.14801556
77	0xbe9acae5	-0.3023292
78	0x3f26c68a	0.65146697
79	0xbd1d62fa	-0.03842447
80	0xbee85433	-0.4537674
81	0x3e22f301	0.15913011
82	0xbe79b071	-0.24383713
83	0xbf20ccb9	-0.6281238
84	0x3d2dc373	0.042422723
85	0xbebc4d01	-0.367775
86	0xbe9b4e92	-0.30333382
87	0xbf57a376	-0.84233797
88	0xbe8456e9	-0.25847557
89	0xbe809e46	-0.25120753
90	0x3f50a38f	0.8149957
91	0x3f2677f2	0.6502677
92	0x3f1b742a	0.6072413
93	0x3ea531a2	0.3226443
94	0x3f2025d1	0.62557703
95	0xbe819bf3	-0.25314292
96	0xbf1f431b	-0.6221177
97	0xbf3d0c51	-0.7384692
98	0xbd301e01	-0.042997364
99	0xbf21ebc1	-0.63250357
100	0xbe984449	-0.29739597
101	0xbf1d32f3	-0.6140587
102	0x3f58b34f	0.84648603
103	0xbf5d1db3	-0.8637344
104	0x3cace7a2	0.021106545
105	0xbf8041d2	-1.0020087
106	0xbea7e4ca	-0.3279174
107	0xbf07255b	-0.52791375
108	0xbd9516f3	-0.07279768
109	0x3f0b56d4	0.54429364
110	0x3e87980e	0.26483196
111	0x3e67f8ba	0.22653475
112	0xbdad5ec3	-0.0846534
113	0x3ecc3cde	0.39890188
114	0xbcc4d85b	-0.024028948
115	0xbcb90a16	-0.022587817
116	0x3e9e9d51	0.30979398
117	0x3ecf2e7d	0.40465155
118	0x3ed32d0a	0.412453
119	0xbf0af2bb	-0.5427663
120	0x3e44872c	0.19192189
121	0xbebf94b5	-0.37418142
122	0x3df71b65	0.12065772
123	0xbe5a43d9	-0.21314944
124	0x3e9106a5	0.28325382
125	0x3e9e6568	0.30936742
126	0x3eb7adb9	0.35874727
127	0xbe98aeec	-0.29820955
128	0x3d2fb9a8	0.042901665
129	0xbf376357	-0.71635956
130	0xbeff067d	-0.49809638
131	0x3ee8bb16	0.45455235
132	0x3f280cf8	0.6564479
133	0x3f2a7430	0.6658354
134	0x3e4d4ada	0.20048085
135	0x3e97843e	0.2959308
136	0xbf2f02a5	-0.6836341
137	0xbea34423	-0.31887922
138	0x3f07cd89	0.53047997
139	0xbdbe249a	-0.09284325
140	0xbe8ab1a8	-0.27088666
141	0xbe82ed7b	-0.25571808
142	0x3f2e48e2	0.6807996
143	0x3e2cda15	0.16880067
144	0xbdeb221c	-0.11481115
145	0xbf62e8fe	-0.8863677
146	0xbe271235	-0.16315539
147	0xbdf89ef7	-0.12139695
148	0xbebbb686	-0.36662692
149	0xbf47f7a5	-0.7811225
150	0xbe3ad6ea	-0.18246046
151	0xbe306964	-0.17227703
152	0xbf45d80d	-0.7728279
153	0xbec6775f	-0.38762948
154	0xbf289a57	-0.65860504
155	0xbdf4132f	-0.119177215
156	0x3e62bc78	0.22142208
157	0x3d20a3c8	0.039218694
158	0xbe14b819	-0.14523353
159	0xbe89a228	-0.26881528
160	0xbf1fa74b	-0.62364644
161	0xbde9e8ae	-0.11421333
162	0x3f23bb2a	0.63957465
163	0x3df51ee3	0.11968782
164	0x3eb023f1	0.3440242
165	0xbdf04397	-0.11731642
166	0xbe271eec	-0.1632039
167	0xbf0a3fce	-0.5400361
168	0xbf2584ce	-0.6465577
169	0x3e8a9c3d	0.27072325
170	0xbdcaa701	-0.09895135
171	0xbed860a5	-0.42261234
172	0xbf00853d	-0.50203305
173	0x3e29e9eb	0.16593139
174	0x3f3cf56f	0.73812
175	0x3d7e99b5	0.062158305
176	0xbc8fbb85	-0.017545471
177	0xbf382234	-0.7192719
178	0x3eb27bc0	0.3486004
179	0x3eda9102	0.42688757
180	0xbe40cc9c	-0.18828052
181	0xbedea58a	-0.4348567
182	0xbdb411da	-0.087924674
183	0xbf1bb267	-0.60819095
184	0xbcf4f4ac	-0.029901825
185	0x3e4b58de	0.19858119
186	0xbe78b79d	-0.24288793
187	0xbd3697af	-0.04457825
188	0x3c856637	0.016284091
189	0xbf435561	-0.7630215
190	0x3ee3e2d7	0.44509003
191	0xbec8a380	-0.3918724
192	0x3d890dad	0.066920616
193	0x3ed6330d	0.41835824
194	0x3ed35714	0.41277373
195	0xbf04c304	-0.5186007
196	0xbbf7abe7	-0.007558334
197	0xbf034858	-0.5128226
198	0xbf6fea6c	-0.93717074
199	0x3cfad2b0	0.030618042
200	0xbee26d43	-0.44223985
201	0xbf55d10e	-0.8352212
202	0xbe5bbe86	-0.21459398
203	0x3e218ee4	0.15777165
204	0xbf3582a9	-0.70902497
205	0xbd8ee3ec	-0.069770664
206	0x3e2e6772	0.17031649
207	0x3bf8f7c4	0.0075978953
208	0x3f0961b1	0.5366469
209	0xbe93d38b	-0.28872332
210	0xbe80a1c1	-0.25123408
211	0x3cbbb330	0.022912592
212	0xbec817f8	-0.39080787
213	0x3f8b9f44	1.0907979
214	0xbeebd47d	-0.46060553
215	0x3e817b0d	0.25289193
216	0x3f210e99	0.629129
217	0xbe572c8b	-0.21013086
218	0x3e8edc48	0.27902436
219	0xbe446034	-0.19177324
220	0xbe8201bc	-0.25391948
221	0xbf2d7515	-0.6775678
222	0x3dd75c5a	0.105156615
223	0xbf4b4326	-0.79399335
224	0x3f13c908	0.57728624
225	0xbeba9ba4	-0.3644687
226	0xbe46eb8d	-0.19425793
227	0xbf5a93d9	-0.8538185
228	0xbe679279	-0.22614469
229	0x3deb3c96	0.11486165
230	0x3f0c84c1	0.54890066
231	0xbf5ba48b	-0.8579795
232	0xbf4b67f5	-0.794555
233	0xbe1c4ef3	-0.15264492
234	0xbe1a478d	-0.15066357
235	0xbeb9ff70	-0.36327696
236	0xbf47fd0e	-0.78120506
237	0x3ed9031e	0.4238519
238	0xbe6ee2f0	-0.23328757
239	0xbf2d637f	-0.67729944
240	0xbeea5151	-0.45765164
241	0xbe858df8	-0.26084876
242	0xbebd02fc	-0.3691634
243	0xbeff7ce4	-0.4989997
244	0xbf806440	-1.0030594
245	0xbf82b68f	-1.0211962
246	0xbe8975f7	-0.26847813
247	0xbf660881	-0.89856726
248	0xbf75ac56	-0.9596609
249	0xbe22843f	-0.1587076
250	0xbf5a297a	-0.8521954
251	0xbe0f3212	-0.13983944
252	0xbed7f73b	-0.4218081
253	0xbe6735e3	-0.2257915
254	0xbf1ca81e	-0.61194026
255	0x3d156ca5	0.036480565

Y_net.net.2.weight f4 [256, 256]
0	0xbce05395	-0.027383605
1	0xbcd87e1d	-0.026427323
2	0xbd05c9b3	-0.03266306
3	0xbc00a3bc	-0.007851537
4	0x3d5222a0	0.051302552
5	0x3b5f3640	0.0034059435
6	0x3d46525e	0.048418395
7	0xbda1e09f	-0.07904171
8	0x3d4f7d42	0.050656565
9	0xbd1db04a	-0.0384982
10	0x3ccc3b9f	0.024930773
11	0x3c9896f8	0.018626675
12	0x3d7460ad	0.05966251
13	0x3c9997aa	0.018749077
14	0x3d430b5c	0.047618255
15	0x3a11b3d8	0.000555811
16	0xbc3c545c	-0.011494722
17	0x3c73c267	0.014877892
18	0x3d2cdf91	0.042205397
19	0xbb9b5b40	-0.0047411025
20	0xbd8bd47e	-0.06827639
21	0x3c636f71	0.01388155
22	0x3d80a937	0.06282275
23	0xbd29888b	-0.041389983
24	0xbd0a4d98	-0.033765405
25	0xbd6e18d2	-0.05812914
26	0xbd43531f	-0.047686692
27	0x3b927e60	0.0044706315
28	0x3c71229d	0.014717725
29	0x3ca1d4ca	0.019754786
30	0x3d72dcb2	0.059292503
31	0xbbf41909	-0.0074492735
32	0x3d43bd72	0.04778809
33	0xbd7dd2ec	-0.06196873
34	0x3b33023a	0.002731456
35	0xbd596651	-0.053076092
36	0xbc2b6a6a	-0.010462383
37	0xbd4a3f88	-0.049376994
38	0x3cd847c1	0.026401402
39	0xbd2195a4	-0.03944935
40	0xbd0e00ed	-0.03466885
41	0x3c62cb96	0.013842484
42	0x3d0814ea	0.03322307
43	0xbb9130db	-0.004430873
44	0x3c9f5b07	0.019452585
45	0xbcaadb3d	-0.020856494
46	0x3d0a983f	0.0338366
47	0x3cf05465	0.029337117
48	0xbce5c313	-0.02804712
49	0xbd131109	-0.035904918
50	0x3c281380	0.010258555
51	0x3d0c455e	0.03424584
52	0xbd0d8d41	-0.03455854
53	0xbd167540	-0.036732912
54	0x3d077007	0.033065822
55	0xbd28382b	-0.04106919
56	0xbda32243	-0.07965519
57	0xbc335b09	-0.010946997
58	0x3b11091b	0.0022130671
59	0xbd8b2b5b	-0.06795379
60	0xbcfcf621	-0.030879082
61	0x3d6643bc	0.05621694
62	0xbc356be7	-0.011073089
63	0x3ba276b0	0.0049579963
64	0x3cee65ce	0.029101279
65	0x3c2f1da8	0.010688223
66	0xbd1b1e15	-0.037870485
67	0xbd3dfe9a	-0.046385385
68	0x3d21013f	0.03930783
69	0x3d603618	0.054739088
70	0xbc99d0b6	-0.018776279
71	0xbad33442	-0.0016113597
72	0xbc1a7d78	-0.009429328
73	0xbd4ba1f5	-0.049715
74	0xbd8059ae	-0.06267105
75	0xbd982ee4	-0.07430819
76	0x3baba66d	0.0052383454
77	0xbd062d66	-0.03275814
78	0x3d4e3bd2	0.050350018
79	0xbc7d1f47	-0.015449352
80	0x3c509ad9	0.012732231
81	0xbb9b8765	-0.004746365
82	0xbd6876a5	-0.056753773
83	0xbcd56deb	-0.02605339
84	0x3d5854c0	0.0528152
85	0x3c8ff53f	0.017572997
86	0x3c996759	0.018726038
87	0x3cace93a	0.021107305
88	0x3bba1f0f	0.005679972
89	0xbcab0417	-0.020875974
90	0xbc0a1361	-0.008427472
91	0xbd73e3f5	-0.05954357
92	0xbd4719f3	-0.04860873
93	0x3d5517c8	0.052024633
94	0xbd6d22f3	-0.05789466
95	0xbbb84c61	-0.0056243395
96	0x3c316348	0.010826893
97	0x3b03bd08	0.0020101685
98	0xbd87d8e9	-0.06633169
99	0xbc6be032	-0.014396714
100	0x3c8f4d4b	0.01749291
101	0xbd9cde45	-0.07659582
102	0xbd0905b7	-0.033452716
103	0xbd19ed1c	-0.03757964
104	0x3d2293f4	0.03969188
105	0xbd214dcd	-0.039380837
106	0xbd6b3156	-0.057420097
107	0xbcc3c9fb	-0.023900023
108	0xbc82f751	-0.01598707
109	0x3c205d5e	0.0097878855
110	0xbb26d45d	-0.0025456168
111	0xbd41e92e	-0.047341518
112	0xbcfa1d63	-0.03053159
113	0x3c8f07a2	0.017459694
114	0x3ce0a202	0.027421001
115	0x3cdcee20	0.026969016
116	0x3d1dca8c	0.038523242
117	0xbce7f8ce	-0.028316882
118	0xbd0576f8	-0.03258416
119	0x3cf023b4	0.0293139
120	0xbd6d294d	-0.057900716
121	0xbcbccd50	-0.02304712
122	0x3d1cd135	0.038285453
123	0x3a0f84a7	0.0005474784
124	0xbd6f4682	-0.05841685
125	0xbcdfa24d	-0.02729907
126	0x3d423bbb	0.047420245
127	0xbd4aa5b7	-0.049474444
128	0x3c793d3c	0.015212353
129	0xbca3e6bf	-0.02000749
130	0xbd7fbde6	-0.06243696
131	0xbd16797e	-0.036736958
132	0xbc9f1f30	-0.019424051
133	0x3d00c34c	0.03143625
134	0xbc69e9e6	-0.014276957
135	0x3d6eef03	0.058333408
136	0x3c40d713	0.011770028
137	0x3cb95907	0.02262546
138	0xbc9ca7e5	-0.019123027
139	0x3d1c67d4	0.038184956
140	0x3c80d9b7	0.015728815
141	0xbcfe2a88	-0.03102614
142	0xbc21bc95	-0.009871622
143	0xbc12b75c	-0.008954849
144	0x3c44e553	0.012017566
145	0xbd940738	-0.07227939
146	0x3c8bdd7e	0.01707339
147	0x3d25c4c9	0.040470872
148	0xbcae0170	-0.02124092
149	0x3d724a2f	0.05915278
150	0xbd46911b	-0.048478227
151	0xbd5b5944	-0.053551927
152	0xbd938759	-0.0720355
153	0xbd4b2f4b	-0.04960565
154	0xbcbb4692	-0.022860799
155	0xbbb4ec3c	-0.0055213254
156	0xbcebfcf4	-0.02880714
157	0xbd439c75	-0.04775663
158	0x3c464aca	0.012102792
159	0x3d0a0419	0.033695314
160	0xbbb5e29e	-0.0055506965
161	0xbc29b005	-0.010356908
162	0x3d7cd498	0.061726183
163	0x3c8a831d	0.016908223
164	0xbce03bd6	-0.027372282
165	0xbca7843a	-0.020448793
166	0xbd4cf654	-0.050039604
167	0x3b12d1d3	0.0022402897
168	0xbd75ca04	-0.06000711
169	0xbd3e3be8	-0.04644385
170	0xbd2306fb	-0.03980158
171	0xbbd587f9	-0.0065164533
172	0x3cf9b032	0.030479524
173	0x3d7f8d5c	0.06239067
174	0x3ca1d364	0.01975412
175	0x3c38e00a	0.011283884
176	0x3c5d7812	0.0135173965
177	0x3d1fc46a	0.039005674
178	0x3d22683b	0.039650183
179	0xbd274d10	-0.040844977
180	0xbb97bc21	-0.004630581
181	0x3d1edc7f	0.0387845
182	0x390c2ad2	0.00013367392
183	0x3cb45d1e	0.022017058
184	0x3b792d25	0.0038021293
185	0x3d07ab42	0.03312231
186	0x3b4d3999	0.0031314848
187	0xbd3d8e87	-0.046278503
188	0x3c8dcd8b	0.017309925
189	0xbd60237c	-0.05472134
190	0x3bba711f	0.0056897546
191	0xbd956738	-0.07295078
192	0xbcd0aacc	-0.025472067
193	0xbc07e66c	-0.008294683
194	0xbd00dc31	-0.03145999
195	0xbd51be25	-0.051206727
196	0xbd7d0650	-0.0617736
197	0xbc91f209	-0.017815607
198	0xbd0cc93c	-0.0343716
199	0x3c20a5e4	0.009805176
200	0xbd60f2a3	-0.054918896
201	0xbd2f49fd	-0.04279517
202	0xbd8884af	-0.066659324
203	0xbc9238ad	-0.01784929
204	0xbce63605	-0.02810193
205	0xbd7869e7	-0.06064787
206	0x3ae49bf7	0.0017441501
207	0x3bc935b7	0.0061404365
208	0x39488cc7	0.0001912593
209	0x3cc6fdb9	0.024290906
210	0xbafa6b57	-0.0019105476
211	0xbc0d9a1e	-0.008642701
212	0xbba300b6	-0.00497445
213	0xbd4e4cda	-0.05036626
214	0xbd4296e0	-0.047507167
215	0x3cc7105c	0.024299793
216	0xbba25601	-0.0049541
217	0x3cca0a39	0.024663078
218	0x3d44c18e	0.04803615
219	0xbc89de33	-0.016829586
220	0x3c274d6e	0.010211332
221	0xbd879671	-0.06620491
222	0xbce00218	-0.027344748
223	0xbbec7315	-0.0072158673
224	0x3bdb7e86	0.0066984324
225	0xbd9c6b83	-0.07637694
226	0xbccc9818	-0.024974868
227	0xbce4f71a	-0.027949858
228	0x3cd97726	0.026546072
229	0xbae9c3cb	-0.001783484
230	0xbd4995f6	-0.04921528
231	0xbcf0a96a	-0.029377658
232	0xb9c12a8b	-0.00036843526
233	0x3d235189	0.03987268
234	0x3bf72629	0.007542391
235	0x3c89eea5	0.016837427
236	0xbcebcfc5	-0.028785596
237	0xbd39d164	-0.045365706
238	0xbd608fba	-0.05482457
239	0x3bfef4b7	0.007780637
240	0xbd4c7227	-0.04991355
241	0x3c463110	0.012096658
242	0x3c9d65f3	0.019213652
243	0x3d0ab88d	0.033867408
244	0xbd42b568	-0.047536284
245	0xbd8d056f	-0.06885802
246	0xbd97bbcd	-0.07408867
247	0x3d12d8a3	0.035851132
248	0xbcc08ed9	-0.023505615
249	0xbd7d092b	-0.06177632
250	0xbd9543f9	-0.072883554
251	0xbd71ca90	-0.05903107
252	0xbb351890	-0.0027633049
253	0xbbf4bcb8	-0.007468786
254	0x3c1bbed6	0.009505948
255	0xbd03ae13	-0.032148432

Y_net.net.2.bias f4 [256]
0	0x3cd06646	0.025439393
1	0x3e4e1378	0.20124614
2	0xbd049f7d	-0.032378662
3	0xbe12abad	-0.14323302
4	0x3e101041	0.140687
5	0xbd3db73b	-0.04631732
6	0x3e2fef64	0.17181164
7	0xba23fb80	-0.0006255433
8	0x3de3dee5	0.11126498
9	0xbd8d1296	-0.068883106
10	0xbf06da0d	-0.5267647
11	0xbd2125d5	-0.03934272
12	0x3e423d1a	0.18968621
13	0xbf0cdd11	-0.5502482
14	0x3df9fff0	0.12207019
15	0xbd9fb926	-0.07798986
16	0x3e2b4bc7	0.16728126
17	0xbd6f878a	-0.05847887
18	0xbd8fd2a3	-0.07022598
19	0xbef22172	-0.47291142
20	0xbee2ed2a	-0.44321567
21	0xbefab992	-0.48969704
22	0x3e37d845	0.17953594
23	0x3e2468d7	0.16055618
24	0xbdf4b923	-0.119493745
25	0xbefceb6b	-0.4939836
26	0xbf098cb9	-0.5373035
27	0xbf10a024	-0.56494355
28	0x3e148ee5	0.14507635
29	0x3cef5b5a	0.029218365
30	0x3e5c5506	0.21516809
31	0x3e1cb75d	0.15304323
32	0x3dfbfa2d	0.123035766
33	0xbd25a09a	-0.040436365
34	0x3e56cc3f	0.20976351
35	0x3cb057a3	0.021526163
36	0xbe04358f	-0.12911056
37	0x3e114113	0.1418498
38	0xbada3edd	-0.0016650815
39	0x3e035f5c	0.12829345
40	0x3e2141ba	0.15747729
41	0xbecc5443	-0.39908037
42	0xbef958a0	-0.48700428
43	0xbf02457c	-0.50887275
44	0xbe35deda	-0.17760792
45	0x3d61c686	0.055120967
46	0x3e2efd19	0.17088737
47	0xbde6cda9	-0.11269695
48	0xbd6dc889	-0.058052573
49	0x3c973907	0.01845981
50	0xbe26167e	-0.16219518
51	0x3e3781ff	0.17920683
52	0xbd6a0311	-0.05713183
53	0xbf050d5b	-0.51973504
54	0xbc61a230	-0.013771579
55	0xbee8853f	-0.4541416
56	0x3e216209	0.15760054
57	0x3df0aadb	0.11751338
58	0x3e42bee8	0.19018137
59	0xbede2fb1	-0.4339576
60	0xbb9dfc48	-0.004821334
61	0xbc05d25a	-0.0081678275
62	0xbf0cb92b	-0.54970044
63	0x3ccc7a82	0.02496076
64	0x3dee8d7d	0.116480805
65	0xbd14555c	-0.036214218
66	0xbd9e2fc9	-0.07723958
67	0xbefdbc57	-0.49557754
68	0x3e0c3560	0.13692236
69	0x3e440eb6	0.19146237
70	0x3d9170df	0.071016066
71	0xbf0d8270	-0.55277157
72	0x3e2c5de1	0.16832687
73	0x3ca2bb78	0.019864783
74	0xbd4fe238	-0.05075285
75	0xbe03b3cb	-0.12861554
76	0x3e36816c	0.17822808
77	0xbf178690	-0.591897
78	0x3a81494b	0.0009863762
79	0x3dfe6148	0.12420899
80	0xbe14e5d4	-0.14540797
81	0xbf02282b	-0.5084254
82	0xbcda7a56	-0.026669662
83	0x3e25bcfd	0.16185375
84	0xbc32f7b3	-0.010923314
85	0xbe03538a	-0.12824836
86	0xbef3e83f	-0.47638127
87	0xbb43913a	-0.00298412
88	0xbd98f934	-0.07469407
89	0x3ded4935	0.11586229
90	0x3dfcabe9	0.12337477
91	0x3e286766	0.16445693
92	0xbca42cc0	-0.02004087
93	0x3de4d2d4	0.11173025
94	0x3dea83a0	0.11450887
95	0xbf03cc65	-0.51483756
96	0xbe422815	-0.18960603
97	0xbd9ea33d	-0.07745979
98	0xbe60f6b3	-0.21969108
99	0x3e41c1bd	0.18921562
100	0x3e13830f	0.14405464
101	0xbd66a42d	-0.056308914
102	0x3cc61d66	0.02418394
103	0xbefc43f8	-0.49270606
104	0x3e484255	0.19556554
105	0xbc7c7f76	-0.015411248
106	0xbef931f3	-0.4867092
107	0x3b557d67	0.0032575966
108	0x3d8a21c5	0.06744722
109	0x3df71511	0.12064565
110	0xbb2caa20	-0.002634652
111	0x3c3d7eb5	0.011565854
112	0x3e20fb81	0.15720941
113	0xbed009db	-0.4063252
114	0x3e1d676e	0.15371487
115	0xbeb727b8	-0.3577249
116	0xbefb1860	-0.49042034
117	0x3eaf7450	0.34268427
118	0xbdc2c68e	-0.095105276
119	0x3e22d150	0.15900159
120	0x3e5b0bf7	0.21391283
121	0xbf03297d	-0.5123518
122	0x3dd58965	0.104265966
123	0x3d33ddb8	0.04391262
124	0xbd08be8f	-0.033384856
125	0xbd0fd39a	-0.03511391
126	0xbef4589a	-0.47723848
127	0x3d392c20	0.045208097
128	0xbf0a712e	-0.5407895
129	0xbca4aaee	-0.020101037
130	0x3ddfc070	0.109253764
131	0x3c61835d	0.01376423
132	0x3f1301b9	0.57424504
133	0xbc76740c	-0.015042316
134	0xbc8556a8	-0.016276672
135	0xbe80c04a	-0.25146705
136	0x3e111588	0.1416837
137	0xbeeebb2f	-0.46627185
138	0xbabdb039	-0.0014472074
139	0x3cf7e001	0.03025818
140	0xbe6ab485	-0.22920425
141	0xbce7c438	-0.028291807
142	0xbee95402	-0.45571905
143	0xbe381bde	-0.1797938
144	0xbcd00add	-0.025395805
145	0xbe32a18b	-0.17444436
146	0x3e19bf9d	0.15014501
147	0x3d9fbcbf	0.07799672
148	0xbf048941	-0.5177193
149	0x3d25cd77	0.04047915
150	0xbf0f24e9	-0.55915695
151	0x3e481677	0.1953982
152	0xbe85c296	-0.2612502
153	0xbe064107	-0.13110743
154	0xbd881cd1	-0.06646121
155	0x3e36628c	0.1781103
156	0xbefec5f0	-0.4976039
157	0x3e346838	0.17617881
158	0xbdaae3ae	-0.08344208
159	0x3e2e0574	0.16994268
160	0x3d34aec8	0.044111997
161	0x3e267fbc	0.16259664
162	0xbf05c2d5	-0.52250415
163	0xbef003ba	-0.46877843
164	0xbd8f5d8f	-0.07000267
165	0xbc5d60cb	-0.013511847
166	0xbe0cc950	-0.1374867
167	0x3c11917e	0.008884786
168	0x3dec6bd4	0.11544004
169	0xbc0e6268	-0.008690454
170	0xbdc646de	-0.096814856
171	0xbef322a4	-0.47487366
172	0x3e249be6	0.16075096
173	0xbd939a11	-0.0720712
174	0x3e6a3590	0.22871995
175	0xbc67c99e	-0.01414719
176	0xbf013486	-0.5047077
177	0x3dd37629	0.10325272
178	0x3e255fc5	0.16149814
179	0xbca69f3f	-0.020339606
180	0xbd7f8efa	-0.062392212
181	0xbd417ae8	-0.047236353
182	0x3e56634b	0.20936315
183	0x3d421f43	0.047393095
184	0xbf0a5851	-0.5404101
185	0xbf114c38	-0.56756926
186	0x3e20e1cf	0.15711139
187	0x3e28c49f	0.16481255
188	0xbeeabb53	-0.45846042
189	0x3e4c574c	0.19955176
190	0x3e3503a0	0.17677164
191	0xbc88d00c	-0.016700767
192	0xbf191299	-0.59794
193	0x3e2eb2ce	0.17060396
194	0xbd4d320b	-0.050096553
195	0xbe4de29e	-0.20105979
196	0x3e3c37ec	0.18380708
197	0xbd9cd4cf	-0.076577775
198	0x3ecd6275	0.4011418
199	0xbd974db6	-0.07387869
200	0xbd0d8c24	-0.034557477
201	0xbee894e0	-0.45426083
202	0x3e1b5216	0.15168032
203	0xbf1756ee	-0.5911702
204	0xbdf2f78b	-0.11863621
205	0x3debbe3f	0.11510896
206	0xbde42e2c	-0.11141619
207	0xbd9a45d1	-0.07532848
208	0xbf12ce8a	-0.57346404
209	0xbd0bdb02	-0.03414441
210	0x3dc5355b	0.096293174
211	0x3c53f35e	0.012936441
212	0xbbaa520f	-0.0051977704
213	0x3e46b6c3	0.19405656
214	0x3e2bebd5	0.16789182
215	0x3d3e6b96	0.04648932
216	0xbf021847	-0.50818294
217	0xbf0059b7	-0.50136894
218	0xbcd6ccd0	-0.02622071
219	0xbb3c995d	-0.0028777935
220	0x3dd6a636	0.10480921
221	0xbd36525a	-0.04451213
222	0xbefeceeb	-0.4976724
223	0x3bdaa67c	0.0066726785
224	0xbd0fdb54	-0.035121277
225	0xbf0f0590	-0.5586786
226	0x3e3e1618	0.18563116
227	0x3db53678	0.0884828
228	0x3e46666f	0.19375013
229	0xbe124371	-0.1428354
230	0xbede86fa	-0.43462354
231	0xbd4a6385	-0.049411315
232	0xbd00fcd5	-0.03149112
233	0x3d091d98	0.03347549
234	0x3e1023f0	0.14076209
235	0x3df7da13	0.12102141
236	0x3e4b9854	0.19882327
237	0xbef7cf27	-0.48400232
238	0xbe51342d	-0.2043006
239	0xbd4745bd	-0.048650492
240	0x3e083f95	0.13305505
241	0x3e58a8cd	0.21158142
242	0xbd1cde62	-0.03829802
243	0xbbdebce9	-0.006797422
244	0xbeefe1da	-0.46852
245	0xbe88c9d9	-0.26716498
246	0xbe03e10d	-0.12878819
247	0x3de9741b	0.113990985
248	0x3e509507	0.2036935
249	0xbee2d748	-0.44304872
250	0xbdb7c4b6	-0.089730665
251	0x3dc35d73	0.095393084
252	0xbd06b1ca	-0.032884397
253	0xbe5dd665	-0.21663816
254	0x3e4292f2	0.19001368
255	0xbd50af1d	-0.05094825

Y_net.net.4.weight f4 [256, 256]
0	0xbd26ca84	-0.040720478
1	0xbc09ef8a	-0.008418927
2	0x3cb563e8	0.022142366
3	0xbce117b4	-0.027477123
4	0xbd962377	-0.07330983
5	0xbd892afa	-0.0669765
6	0xbb16a136	-0.0022984273
7	0x3d7c5dd6	0.061612926
8	0xbb5270a0	-0.0032110587
9	0xbd02a836	-0.0318987
10	0x3d3fac7e	0.04679536
11	0xbca5ce10	-0.02023986
12	0xbd445962	-0.047936805
13	0xbd926eef	-0.07150065
14	0x3d5c1572	0.05373139
15	0xbd091538	-0.0334675
16	0x3d4c26b8	0.049841613
17	0xbd677bde	-0.056514613
18	0x3cebb79c	0.028774075
19	0xbccb8719	-0.024844693
20	0xbd7151bc	-0.05891584
21	0xbd2e1a0c	-0.04250531
22	0xbd8288cd	-0.06373749
23	0x3d260e7a	0.04054115
24	0xbcbcf72c	-0.02306708
25	0x3bdb34cf	0.006689645
26	0xbd51640c	-0.051120803
27	0xba02c2be	-0.00049881253
28	0xbcd47a1a	-0.025937129
29	0x3c67d0e0	0.014148921
30	0x3d057bfe	0.03258895
31	0x3d450b7b	0.04810665
32	0x3d4961b3	0.04916544
33	0x3c000270	0.007813081
34	0xbd078fcd	-0.033096123
35	0x3cb8a3a4	0.022538967
36	0x3cf9f00c	0.030509971
37	0xbc5cd717	-0.013479016
38	0x3d0d42f0	0.034487665
39	0x3d483ed9	0.04888806
40	0x3c515dc8	0.012778707
41	0xbcd3fcd5	-0.025877396
42	0x3b0b9076	0.0021295822
43	0xbd98a44a	-0.07453211
44	0xbd0673a5	-0.03282513
45	0xbd175b46	-0.03695228
46	0xbd9314e9	-0.07181723
47	0xbd093caa	-0.03350512
48	0xbd78d268	-0.060747534
49	0x3d41ea12	0.047342367
50	0xbccf28d6	-0.025288027
51	0xbd26dfae	-0.04074066
52	0x3b3c5460	0.0028736815
53	0x3d1c8b4f	0.038218793
54	0xbd1cc748	-0.038275987
55	0xbd8df38f	-0.06931221
56	0x3d2e18bf	0.04250407
57	0xbd5feb28	-0.05466762
58	0xbd674156	-0.056458794
59	0x3c4d6508	0.012536295
60	0x3d6cb746	0.05779197
61	0xbc7849f0	-0.015154347
62	0xbca0e374	-0.019639708
63	0xbcffd3d8	-0.031228945
64	0xbba10083	-0.004913391
65	0xbcdb2e90	-0.026755601
66	0xbd6af8ba	-0.05736611
67	0xbba042ab	-0.00489076
68	0x3ac6f8d7	0.0015180361
69	0xbd97437b	-0.07385918
70	0x3d92b3ea	0.07163222
71	0x3cf7a264	0.030228801
72	0x3c075806	0.0082607325
73	0xbd6ea106	-0.058259033
74	0x3be3e190	0.0069543794
75	0xbd4bc012	-0.04974372
76	0x3d472e98	0.04862842
77	0xbcbb68d6	-0.022877138
78	0xbbaca740	-0.005268961
79	0xbc03edc9	-0.008052298
80	0xbd6b67f7	-0.057472195
81	0x3c5e9361	0.013584943
82	0xbd619030	-0.05506915
83	0xbd0c5852	-0.034263916
84	0xbd60d00e	-0.054885916
85	0x3d5735e0	0.052541614
86	0xbd806136	-0.062685415
87	0xbd44b1b2	-0.048021026
88	0x3d42c0ec	0.047547266
89	0xbc82a9f5	-0.015950182
90	0xbcc1a7a7	-0.023639513
91	0xbd2dc4e2	-0.04242409
92	0x3d1a53a6	0.03767743
93	0xbd0c4cc4	-0.034252897
94	0x3cff7d34	0.031187631
95	0xbd855b67	-0.06511574
96	0x3d300014	0.042968825
97	0x3d3d4b66	0.046214484
98	0x3d12d1e4	0.0358447
99	0xbc2937cd	-0.010328245
100	0xbd7faf6b	-0.06242315
101	0x3ca02784	0.019550093
102	0xbbb00ce0	-0.0053726286
103	0x3cd059aa	0.02543338
104	0x3c967ce5	0.018370101
105	0x3cb9f774	0.022701003
106	0x3d2a89aa	0.041635193
107	0x3d01ce6e	0.031691007
108	0x3d0eb0e4	0.034836665
109	0xbd75786e	-0.059929304
110	0x3a581880	0.0008243397
111	0xbd2fe972	-0.04294724
112	0x3cdc7a80	0.026913881
113	0x3d55d0d8	0.052201122
114	0xbd7f01c8	-0.062257558
115	0x3d55ec83	0.05222751
116	0x3c918537	0.017763717
117	0xbbb95390	-0.0056557134
118	0x3d161df8	0.036649674
119	0xbce95190	-0.028481275
120	0x3b256974	0.0025239857
121	0x3b6720f1	0.0035267437
122	0xbcedf12d	-0.029045666
123	0x3becf8c0	0.0072318017
124	0xbd3dc5f2	-0.046331353
125	0xbd4f3166	-0.05058422
126	0xbd7a21e8	-0.06106749
127	0x3ca00257	0.019532366
128	0x3cd9e21c	0.026597075
129	0xbcce447c	-0.02517914
130	0xbad7dc49	-0.0016468848
131	0x3c9045c8	0.0176114
132	0xbd544e36	-0.0518324
133	0xbd0eba8a	-0.034845866
134	0x3cab34e8	0.020899251
135	0x3d04c741	0.032416586
136	0x3cda7ec4	0.026671775
137	0xbd7b5bc2	-0.061366804
138	0xbd096d6a	-0.03355161
139	0xbba39680	-0.004992306
140	0xbcc6f8d0	-0.024288565
141	0xbc933c70	-0.017973155
142	0xbd18727c	-0.037218556
143	0x3ce20860	0.027591884
144	0x3b9bd5c0	0.0047557056
145	0x3cd82039	0.026382552
146	0x3c8dc97e	0.017307993
147	0x3d20ba77	0.039240327
148	0xbd9577ac	-0.07298216
149	0xbacc7ec0	-0.0015601739
150	0x3798b6ec	1.8204992e-05
151	0xbca72b04	-0.020406254
152	0xbcee8a51	-0.029118689
153	0xbb9174f0	-0.004438989
154	0x3c1cd878	0.009573095
155	0xbd272ec1	-0.040816072
156	0x3c08c69e	0.008348135
157	0xbbb59a10	-0.0055420473
158	0x3d4ce5af	0.05002373
159	0xbccd0346	-0.025025975
160	0xbd2f882a	-0.042854466
161	0x3d4ebf8e	0.05047565
162	0x3c9ba6cb	0.019000432
163	0xbd26bac7	-0.04070547
164	0x3cfc54c8	0.030802146
165	0x3d11c0b8	0.03558418
166	0x3d176562	0.03696192
167	0x3d1cc444	0.03827311
168	0xbd77d8c4	-0.06050946
169	0x3d0f31be	0.034959547
170	0xbd1d99b6	-0.03847667
171	0x3d370555	0.04468282
172	0xbcc0aff4	-0.023521401
173	0x3d25e930	0.040505588
174	0xbbca2de0	-0.0061700195
175	0x3c1cddc8	0.009574361
176	0x3b827f60	0.0039824694
177	0xbbe0bd43	-0.0068584993
178	0x3d0384c3	0.032109033
179	0xbcb4e0d8	-0.02207987
180	0x3ca4bf00	0.020110607
181	0x3ce01fbc	0.027358882
182	0xbb96db74	-0.0046037976
183	0xbd65b48a	-0.05608038
184	0x3d542902	0.05179692
185	0xbb99d728	-0.004694838
186	0x3c178ad8	0.0092494115
187	0x3d708a38	0.058725566
188	0x3ca1afbf	0.019737123
189	0xbc967093	-0.018364226
190	0xbd663b8b	-0.05620913
191	0x3c663428	0.014050521
192	0x3ce0be54	0.027434506
193	0xbc4cd478	-0.012501828
194	0xbce37004	-0.027763374
195	0x3d135e1c	0.03597842
196	0x3d7a8b93	0.061168265
197	0xbcb4701c	-0.022026114
198	0xbcb082cc	-0.021546744
199	0xbcdb8cbc	-0.026800506
200	0xbd0f9602	-0.035055168
201	0xbd948916	-0.072527096
202	0x3c35bb98	0.011092089
203	0xbd3f6013	-0.046722483
204	0xbca2b2c4	-0.019860633
205	0xbd46824d	-0.04846411
206	0x3d06b8fe	0.032891266
207	0x3d6870c4	0.056748167
208	0xbd6b66eb	-0.057471197
209	0xbd6371ba	-0.05552838
210	0xbb88b610	-0.004172094
211	0x3ca1b538	0.019739732
212	0x3ce41580	0.027842283
213	0xbcd1c8f4	-0.025608517
214	0x3d205c85	0.039150734
215	0x3d726ab0	0.059183776
216	0xbce0d531	-0.027445408
217	0xbd82b394	-0.06381908
218	0x3d75d6fe	0.060019486
219	0x3bfff190	0.007810779
220	0xbd21a542	-0.039464243
221	0xbd02ccc0	-0.031933546
222	0xbc802840	-0.015644193
223	0x3a6c1d00	0.0009007007
224	0xbca261d8	-0.019822046
225	0xbd348889	-0.044075523
226	0x3cb5a160	0.022171676
227	0xbd2fdffc	-0.042938218
228	0x3cd7c678	0.026339754
229	0xbcd2f6c0	-0.025752425
230	0xbd7f1166	-0.06227245
231	0xbd3b6570	-0.045751035
232	0xbd3edab6	-0.046595298
233	0x3cbd6b60	0.02312249
234	0xbd7fbbe8	-0.06243506
235	0x3d11877b	0.035529595
236	0xbd98d919	-0.07463283
237	0x3d086d7f	0.03330755
238	0xbca355c4	-0.019938357
239	0x3c2daff8	0.010601036
240	0x3c75e8e5	0.01500914
241	0x3c013298	0.007885598
242	0x3d41dfc8	0.047332555
243	0x3c06ad98	0.008220099
244	0xbc4cb56a	-0.012494424
245	0x3be2d0d9	0.0069218692
246	0x3c62e4f8	0.013848536
247	0xbd50e864	-0.051002875
248	0xbd490338	-0.049075335
249	0xbd5a4e1f	-0.05329716
250	0x3d43eb3d	0.047831763
251	0xbd1c484e	-0.038154893
252	0x3d6971c0	0.056993246
253	0x3d03957b	0.032124978
254	0xbd5c70b4	-0.05381842
255	0x3c04a3a8	0.008095659

Y_net.net.4.bias f4 [256]
0	0xbd4e5298	-0.050371736
1	0xbd0a74b8	-0.033802718
2	0x3e06a7fb	0.13150017
3	0x3ba86aaf	0.005139671
4	0xb92128c1	-0.00015369339
5	0xbaf3a8c0	-0.001858972
6	0x3b310301	0.0027009847
7	0x3c8c451e	0.017122801
8	0x3de16201	0.11005021
9	0xbd25ef55	-0.040511448
10	0x3d3440d5	0.04400714
11	0xbd63b776	-0.055594884
12	0x3dda82ba	0.10669465
13	0xbd779650	-0.060446084
14	0xbd255478	-0.04036376
15	0x3e145a99	0.14487685
16	0x3d1a6d99	0.037702177
17	0x3e2c7120	0.16840029
18	0x3e1630da	0.14667073
19	0x3d227201	0.039659504
20	0x3e317680	0.1733036
21	0x3cee6560	0.029101074
22	0x3c8636de	0.016383585
23	0x3e25c197	0.1618713
24	0x3da59aa2	0.080861345
25	0x3ca6fb14	0.020383395
26	0xbd4f840d	-0.050663043
27	0x3e13f8e6	0.14450416
28	0x3df03042	0.117279544
29	0xbd85e791	-0.065383084
30	0xbc0d51b2	-0.008625435
31	0x3c9e09e2	0.019291822
32	0xbcab271d	-0.020892674
33	0x3e4d6a5d	0.20060106
34	0xbe04d78e	-0.12972853
35	0x3c5212bf	0.012821852
36	0x3df1f477	0.11814206
37	0x3dfea879	0.12434477
38	0x3db8aff3	0.09017935
39	0xbd11e296	-0.03561648
40	0x3d0863a2	0.033298142
41	0x3e49861b	0.19680063
42	0x3b0148df	0.0019727272
43	0x3ddd8368	0.108160794
44	0x3d0a2b51	0.033732716
45	0xbd78c7dc	-0.060737476
46	0x3d595627	0.053060677
47	0x3e3ce8a8	0.18448126
48	0x3d0ee73f	0.034888502
49	0x3bc9071e	0.0061348816
50	0x3e049bfc	0.12950128
51	0x3e260cc4	0.16215807
52	0x3db02975	0.08601657
53	0x3e25f00e	0.16204855
54	0x3e1d346d	0.1535203
55	0xbd213cf0	-0.039364755
56	0xbd61db67	-0.05514088
57	0x3c015100	0.007892847
58	0x3d4bfc39	0.049801085
59	0xbd0e1995	-0.034692366
60	0x3e0ce5ea	0.1375958
61	0x3e1c0d27	0.15239392
62	0xbc9249de	-0.017857488
63	0x3ca73d15	0.020414868
64	0x3dce0bbe	0.100608334
65	0xbd2e9d80	-0.042630672
66	0x3d0207ad	0.0317456
67	0x3cd6b280	0.026208162
68	0x3e4c6375	0.19959815
69	0x3c40a8d9	0.011759006
70	0x3de1024f	0.109867685
71	0x3e8f39f9	0.27973917
72	0x3c028aee	0.007967694
73	0x3e1b6241	0.151742
74	0xbd924dc7	-0.07143741
75	0x3e3195fb	0.1734237
76	0x3ce9bebc	0.028533332
77	0x3dcbbe1a	0.09948368
78	0x3def1483	0.11673834
79	0x3c6e2731	0.014535711
80	0x3e4e8f14	0.20171767
81	0x3b82444b	0.0039754263
82	0x3e3fc8ea	0.18728986
83	0xbce7f666	-0.028315734
84	0xbd69bcdb	-0.057064872
85	0x3d871985	0.06596664
86	0x3e379043	0.17926125
87	0x3e3a9cc2	0.18223861
88	0x3e2a4e20	0.16631365
89	0xbce80ff1	-0.028327914
90	0x3d98ecac	0.074670166
91	0x3e227529	0.15865006
92	0x3bb695c3	0.005572052
93	0xbd83acd9	-0.064294524
94	0xbd898fad	-0.06716857
95	0xbd3dd052	-0.046341248
96	0x3c404c85	0.011736994
97	0xbd45249a	-0.04813061
98	0x3bc88133	0.0061189174
99	0x3dcd201f	0.10015892
100	0xbd805cc4	-0.06267694
101	0xbd0ae733	-0.033911895
102	0x3c420578	0.011842124
103	0xba9c9ad5	-0.0011947999
104	0x3e301c59	0.17198314
105	0xbd0867e1	-0.03330219
106	0x3dc9a79e	0.098464236
107	0xbc708a21	-0.01468137
108	0x3dfe8588	0.12427813
109	0x3e2c0598	0.16799009
110	0xbc40c28b	-0.011765133
111	0x3e098180	0.13428307
112	0xbd43c25e	-0.047792785
113	0x3d4c5a34	0.049890712
114	0xbc410293	-0.011780399
115	0x3e23f601	0.16011812
116	0x3e386e58	0.18010843
117	0x3e12c0f9	0.14331426
118	0x3c767720	0.01504305
119	0xbd384339	-0.044985984
120	0x3e0af71f	0.13570832
121	0xbc92ea5a	-0.017934013
122	0x3dd61632	0.10453452
123	0xbd3729fc	-0.044717774
124	0x3dc460ef	0.09588801
125	0x3caa2455	0.020769278
126	0x3c53a91e	0.012918739
127	0xbd005bbc	-0.031337485
128	0x3d6407c6	0.055671476
129	0x3e16dcbc	0.14732641
130	0x3e4d6e47	0.20061599
131	0x3e432668	0.1905762
132	0x3e250e13	0.1611865
133	0x3e2bfa52	0.16794708
134	0xbdae59c5	-0.08513216
135	0x3ca1fb05	0.019773016
136	0x3e475244	0.19464976
137	0x3e13197a	0.14365187
138	0x3e44a27f	0.19202612
139	0x3db2d2c8	0.087316096
140	0x3e33854e	0.1753132
141	0xbd66077a	-0.056159474
142	0x3e300e69	0.17192997
143	0xbcb2df6c	-0.021835051
144	0x3c44b644	0.012006346
145	0x3dab8dd6	0.083766624
146	0x3c31d8ee	0.010854943
147	0x3dfe4a5a	0.12416525
148	0xbd45d57f	-0.04829931
149	0x3da2e222	0.07953288
150	0x3e2ea17d	0.1705379
151	0x3e1e5373	0.15461521
152	0xbc120686	-0.008912688
153	0xbcda4b45	-0.02664722
154	0x3cb7887e	0.022403952
155	0x3ca4ca6c	0.020116054
156	0x3c865ff0	0.016403168
157	0x3bdb0c3a	0.006684807
158	0x3e489d97	0.19591366
159	0x3ce3ffcc	0.027831934
160	0xbd7986f4	-0.060919717
161	0xbc9a43f8	-0.018831238
162	0xbc94e130	-0.018173784
163	0x3d5f749e	0.054554574
164	0x3e1515aa	0.14559045
165	0x3d17a464	0.03702201
166	0xbd8ae16b	-0.06781276
167	0xbcde09b8	-0.027104244
168	0xbb030f12	-0.0019997996
169	0xbc3faa86	-0.011698371
170	0xbe010d91	-0.12602831
171	0xbccef6f9	-0.02526425
172	0xba182b00	-0.00058047473
173	0x3de5fb4c	0.11229572
174	0xbd41c36a	-0.047305502
175	0xbb248698	-0.0025104638
176	0xbd2747a0	-0.04083979
177	0x3cfd225b	0.030900171
178	0x3e311465	0.17292936
179	0x3c9f9eb0	0.019484848
180	0xbd8eb3a4	-0.069678575
181	0xbc88fb05	-0.016721258
182	0x3dc9556f	0.09830748
183	0x3d63b0ee	0.055588655
184	0x3e16c298	0.14722669
185	0xbd84ce92	-0.06484713
186	0xbdda37b8	-0.10655159
187	0x3e345dfe	0.1761398
188	0x3e088926	0.13333568
189	0x3c1145e8	0.008866765
190	0xbbee4fad	-0.0072726817
191	0xbdb00370	-0.08594406
192	0x3deab23f	0.11459779
193	0x3e0a9ecb	0.13537137
194	0x3e20a665	0.15688474
195	0xbd3dfb6a	-0.046382345
196	0x3cee72fc	0.029107563
197	0x3cca5a7f	0.024701355
198	0xbd631c62	-0.05544699
199	0xbd2c6213	-0.04208572
200	0x3cbed6a1	0.023295702
201	0x3e46069a	0.19338456
202	0x3c333da1	0.010939986
203	0xbd04c030	-0.032409847
204	0x3e25456b	0.16139762
205	0x3e45bd97	0.19310604
206	0x3dcd87c8	0.10035664
207	0xbc7a1a5e	-0.0152650755
208	0x3e16bc1a	0.14720193
209	0x3e41cdc2	0.18926147
210	0xbdc0d4fc	-0.094156235
211	0xbd15c2f6	-0.036562882
212	0x3e20429f	0.15650414
213	0x3d0e48ab	0.03473727
214	0xbcf1b5b0	-0.02950558
215	0x3dd8e175	0.105898775
216	0x3def4b48	0.11684281
217	0xbca7c9df	-0.020482002
218	0x3e378d02	0.17924884
219	0xba2aa2ab	-0.0006509225
220	0x3e4fd922	0.20297673
221	0x3d01fe42	0.03173662
222	0xbcdc1c3e	-0.026868936
223	0x3c386e7a	0.011256808
224	0xbd58b67e	-0.052908413
225	0x3d38d35a	0.045123436
226	0xbcf5293d	-0.02992689
227	0x3de5c5ac	0.112193435
228	0x3e047f8e	0.12939283
229	0xbd2c02d1	-0.041994873
230	0x3d40d3b5	0.0470769
231	0x3e327845	0.17428692
232	0x3b8a60a0	0.0042229444
233	0x3d1b4457	0.03790697
234	0x3e0cbd74	0.13744146
235	0x3e135dee	0.143913
236	0xbcb3e1e8	-0.021958306
237	0x3c7c2a22	0.015390905
238	0x3ce3898d	0.02777555
239	0xbcc244c3	-0.023714429
240	0x3e4d9e8a	0.20080009
241	0x3d36eb94	0.04465826
242	0x3c7d06ea	0.015443543
243	0x3dda5857	0.10661381
244	0x3e0994a2	0.13435605
245	0x3cd6a4db	0.026201656
246	0x3de922e7	0.1138361
247	0x3e49d0c5	0.19708546
248	0x3d294bb1	0.04133195
249	0xbd216680	-0.039404392
250	0x3de8d053	0.1136786
251	0xbb82e5e6	-0.003994691
252	0xbd064f3b	-0.032790404
253	0xbc9ade08	-0.0189047
254	0x3e4a5446	0.1975871
255	0x3ddaabe9	0.106773205

Y_net.net.6.weight f4 [256, 256]
0	0x3d63a8b3	0.055580806
1	0xbcb5ceb0	-0.022193283
2	0x3d9d5393	0.07681956
3	0xbb084269	-0.0020791537
4	0xbbeb119f	-0.0071737315
5	0x3ce02e80	0.027365923
6	0xbc9cc03f	-0.019134639
7	0x3cb41baa	0.021985848
8	0x3d9895fe	0.07450484
9	0xbc958138	-0.018250093
10	0x3d3a66eb	0.045508306
11	0x3d612321	0.054965142
12	0x3d169fe6	0.036773585
13	0x3cf7e860	0.030262172
14	0xbcda3ec8	-0.026641265
15	0xbbf1d31d	-0.007379903
16	0xbd3e72ef	-0.046496328
17	0x3db029f2	0.086017504
18	0x3db41f48	0.08795029
19	0x3d44fab2	0.048090644
20	0x3d0a34c0	0.033741713
21	0x3d813b75	0.06310169
22	0xbd3b687a	-0.045753933
23	0x3de45807	0.111496024
24	0xbba3ba90	-0.004996605
25	0xbd5542f8	-0.05206582
26	0xbcccd843	-0.025005465
27	0x3db3d8ec	0.08781609
28	0x3dd1f359	0.10251493
29	0x3d2cf8b9	0.042229388
30	0xbb838ca9	-0.0040145707
31	0xbaf0de2b	-0.0018376758
32	0xbd84db76	-0.06487171
33	0x3da4e0ec	0.08050713
34	0x3b49e2ca	0.0030805343
35	0xbcbe547e	-0.023233648
36	0x3dc76fc5	0.09738115
37	0x3d84e712	0.06489386
38	0x3ca8b26a	0.020592887
39	0xbd687816	-0.056755148
40	0x3cfaf040	0.030632138
41	0x3d4a9442	0.049457796
42	0x3c7c238f	0.015389337
43	0x3d54d34f	0.051959332
44	0xbd10c443	-0.03534342
45	0xbc23ddde	-0.010001628
46	0x3c9d3967	0.01919241
47	0x3dddf322	0.108373895
48	0x3d683ff3	0.05670161
49	0xbc130989	-0.008974441
50	0x3ddf1ce5	0.10894183
51	0x3d950c12	0.07277693
52	0x3da1d8a3	0.07902648
53	0x3cecd231	0.02890882
54	0x3d6c1520	0.057637334
55	0xbbb6940f	-0.005571849
56	0x3d9592eb	0.07303413
57	0xbcacdd24	-0.021101542
58	0xbd2ea072	-0.04263348
59	0x3c31a987	0.010843641
60	0x3dc658f5	0.09684936
61	0x3d90f54e	0.07078038
62	0x3c611ddf	0.013740032
63	0xbd5b974a	-0.053611077
64	0x3dd27156	0.10275523
65	0xba220e3a	-0.00061819295
66	0xbd58c808	-0.05292514
67	0x3d18db67	0.037318613
68	0x3d0bd2ec	0.034136698
69	0xb964c4d2	-0.00021817096
70	0x3d8987c3	0.067153476
71	0x3cd0a5b6	0.025469642
72	0x3d7b318e	0.061326556
73	0x3cb288d3	0.021793758
74	0xbc979d0e	-0.018507507
75	0x3d85b8f3	0.06529417
76	0xbd25e545	-0.04050185
77	0x3d403b4a	0.046931542
78	0x3de3aa04	0.11116412
79	0xbca7b675	-0.020472744
80	0x3dab3367	0.083594136
81	0x3cc9a987	0.02461697
82	0x3d96045b	0.073250495
83	0xbd084ce2	-0.033276446
84	0x3c94fd74	0.018187262
85	0xbcc82696	-0.024432462
86	0x3c9a54c2	0.018839244
87	0x3dac2e6f	0.08407294
88	0x3d87879d	0.06617663
89	0x3cdc623e	0.026902314
90	0x3ce6e531	0.028185459
91	0x3c8afc56	0.016966026
92	0x3d392d35	0.04520913
93	0xbbc5d8a2	-0.0060377875
94	0xbb91aff0	-0.004446022
95	0xbd6401d3	-0.055665802
96	0x3d0d4593	0.03449018
97	0xbcf7c238	-0.030243978
98	0x3d2eca76	0.04267355
99	0x3c9962cb	0.018723866
100	0x3d6ed316	0.058306776
101	0x3d0f5ae2	0.034998782
102	0x3d588464	0.052860633
103	0x3dabbd1c	0.08385679
104	0x3db6b53d	0.08921287
105	0xbb6b6cb4	-0.0035922946
106	0x3d81e06a	0.06341632
107	0xbd2ccfd1	-0.042190377
108	0x3ccc704f	0.024955897
109	0x3d3ff1fb	0.04686163
110	0x3d7bd826	0.061485432
111	0x3c3b3a34	0.011427451
112	0x3cfea5fc	0.031085007
113	0xbd97433e	-0.07385872
114	0x3d7a7d92	0.06115491
115	0x3d4a4f9a	0.04939232
116	0x3d1e12eb	0.03859226
117	0x3dddf4df	0.10837721
118	0x3b47d2e0	0.0030490682
119	0xbc56c31d	-0.013108042
120	0x3dc52a8a	0.09627254
121	0xbaa93851	-0.001291046
122	0x3d67c388	0.056582958
123	0x3ca47934	0.020077325
124	0x3b587856	0.003303071
125	0x3d48dcff	0.049038883
126	0x3da0a1f2	0.078433886
127	0xbab71b40	-0.0013969913
128	0x3c8158bc	0.015789382
129	0x3d500bc3	0.050792467
130	0x3d9c0bd5	0.07619444
131	0xbb3e744c	-0.0029061018
132	0x3c3ba06c	0.011451822
133	0x3de23f21	0.11047197
134	0x3d830c52	0.06398834
135	0xbb5d53f1	-0.0033771957
136	0x3d0e86d1	0.03479654
137	0xbbb6bbb5	-0.0055765756
138	0x3d99f7d5	0.07517973
139	0x3d07e5d5	0.03317817
140	0x3ce8ce58	0.028418705
141	0xbd3bf402	-0.045887
142	0x3d9ad147	0.07559448
143	0xbd4dc1b6	-0.050233565
144	0xbd3ca3ad	-0.04605453
145	0x3d398a23	0.045297753
146	0xbd421b64	-0.047389403
147	0x3dd6cd1b	0.104883395
148	0xbd07e24b	-0.033174794
149	0x3d939337	0.072058134
150	0x3dc4be0f	0.09606563
151	0x3db903ea	0.0903395
152	0xbd5089f3	-0.05091281
153	0x3cd95f57	0.02653472
154	0xbd4332c6	-0.047655843
155	0xbd00f635	-0.0314848
156	0xbc1c22d0	-0.009529784
157	0xbbb2d3c7	-0.0054573747
158	0x3d8cd137	0.06875842
159	0xbc4bc79c	-0.012437727
160	0x3c9a011b	0.018799355
161	0x3b6432e0	0.0034820363
162	0x3ce542f7	0.027986033
163	0x3d744808	0.059639007
164	0xb9d92510	-0.0004141708
165	0x3d3cd32f	0.046099838
166	0x3c29ec8f	0.010371341
167	0xbadbfca8	-0.0016783671
168	0xbd54d5e9	-0.051961813
169	0x3da1c157	0.07898205
170	0x3c3f5bb1	0.011679576
171	0x3d2e2654	0.04251702
172	0x3cdb545c	0.026773624
173	0xb9b8c0b6	-0.00035238796
174	0xbbc110a7	-0.0058918777
175	0xbc054b49	-0.008135625
176	0xbd523070	-0.051315725
177	0x3ce413d5	0.027841488
178	0xbd559866	-0.05214729
179	0xbce65493	-0.0281165
180	0x3d08ad6a	0.033368506
181	0xbd54413e	-0.051820032
182	0x3dc78975	0.09743015
183	0x3d37f04e	0.044906907
184	0x3ca37c50	0.019956738
185	0xbd22feaa	-0.039793648
186	0x3d404837	0.04694387
187	0x3db2ffce	0.08740197
188	0x3de3a0ab	0.11114629
189	0xbce4ee83	-0.027945763
190	0xbcb8073e	-0.02246439
191	0xbbbbbfb3	-0.0057296394
192	0x3ddac6f0	0.106824756
193	0x3cf1a931	0.029499622
194	0x3dd40dc3	0.10354187
195	0x3d807e19	0.06274051
196	0xbd1779d4	-0.03698142
197	0x3d3dc45e	0.04632985
198	0xbc7726e7	-0.015084959
199	0x3de739e9	0.11290342
200	0x3913ba1e	0.00014088347
201	0x3cbe76f7	0.023250086
202	0x3d6217c7	0.055198457
203	0x3d20693f	0.03916287
204	0x3d370566	0.044682883
205	0x3d247595	0.040151197
206	0x3dc97bc6	0.09838061
207	0x3cee0083	0.029052978
208	0x3daf34fe	0.08555029
209	0x3d494fd8	0.04914841
210	0xbc77f7be	-0.01513475
211	0x3d38bd3b	0.04510234
212	0x3db15a9d	0.08659861
213	0xbbdf3e57	-0.0068128514
214	0x3d0d5f41	0.03451467
215	0xbba45dd7	-0.0050160694
216	0x3d47720d	0.04869275
217	0x3de62ccc	0.11239013
218	0x3dcb2551	0.09919227
219	0x3d4f630a	0.05063156
220	0x3d318767	0.04334202
221	0x3d4008b0	0.046883285
222	0xbbd29860	-0.006426856
223	0xbd4789a5	-0.048715252
224	0xbd6983e8	-0.05701056
225	0xbc01e78a	-0.007928738
226	0xbcc54c17	-0.024084134
227	0xbbeffd75	-0.0073239156
228	0x3d64ff93	0.055907797
229	0xbd8470da	-0.06466837
230	0x3d1569f6	0.036478005
231	0x3cf362eb	0.029710254
232	0xbc21b5e8	-0.00987003
233	0x3cdaf96e	0.026730265
234	0x3d559d01	0.052151684
235	0x3d2624ab	0.040562313
236	0x3d706ca0	0.058697343
237	0x3bed421a	0.007240546
238	0x3d905b7d	0.070487
239	0x3c18e152	0.009331064
240	0x3d0bf9b2	0.034173675
241	0xbcd8e2fe	-0.026475426
242	0x3d85e076	0.06536953
243	0x3dc0205e	0.093811736
244	0x3d2109c6	0.03931596
245	0x3c89fb96	0.016843598
246	0x3d8a5469	0.06754381
247	0x3ddc8e96	0.107693836
248	0x3add409c	0.0016880217
249	0x3c05ee3e	0.008174477
250	0x3dd82b68	0.10555154
251	0xbd1c425a	-0.038149215
252	0xbce44901	-0.027866842
253	0x3c73ec69	0.014887908
254	0x3dd1d498	0.10245627
255	0x3d47f66e	0.048818998
