saved/almgren_FC_ReLU/model_best.pth (torch, 800181 bytes, 9 tensors)

Y_net.net.0.weight f4 [256, 4]
00000000: 83e2 c1be c98f 9e3e 207c 2c3e 5db1 f9be
00000010: 922b 233e e185 563e 3f4d bb3e 87e3 9a3c
00000020: 6107 84be 82e0 b63e 5472 4d3e cb5e 73be
00000030: ad5a 763e 8081 cf3e 65e0 813e e106 31bf
00000040: cc3a acbe f986 a13e 82f0 bb3e 4c24 c1bd
00000050: 8d30 34bd 760a 25bf dc85 973e f82a 983e
00000060: 263c 87be 6cae f63e d48d 153f 591f babe
00000070: b915 61bd fb6d a83e ea5e 34bd e18e d43c
00000080: 5b65 99bd fd38 9a3e abd3 1a3f 77c6 35bf
00000090: ac64 b4be bdb1 1ebf f99e 70be a80c 163f
000000a0: 0370 b0bb 1bca 11bf 6480 a8bd f985 d53e
000000b0: ef7d eabe 2ba4 a1be 502d 6d3e c590 923d
000000c0: f5ec e73e ef53 9e3e 8074 ba3e 3b34 f8bd
000000d0: 46c9 21bf 8305 0c3e b2dc 813c 0cd0 c4bc
000000e0: f0f1 cf3e 9c39 05bf e27f 463e c752 533e
000000f0: f91b 31be 85ec 9d3e 7492 27bf 0dc0 39bd
00000100: 0039 de3e d4ef f13e ade1 f93e 5405 acbe
00000110: 2118 7f3e a3ce e03e 5849 5a3e 693d 6f3c
00000120: fd02 b3bc 4c00 ae3e dfb1 0a3f e531 e4be
00000130: 1f69 a9be fd5c edbe 9d4d 56be d076 0a3e
00000140: 9d5a afbc e0ab ea3e c68c df3d 9e29 d3bc
00000150: 99a2 b43c 3a26 2cbf 26d8 2bbe 6de8 0e3f
00000160: 6c93 05bf ff76 ec3d 4368 633d bd45 44bf
00000170: 28d2 26be d033 cc3e 7fb6 f63e a1a7 11bf
00000180: b919 9fbc d44b cdbe d140 8a3e 822f 843e
00000190: 2bc4 1f3d 0a6e 9c3e 8ad0 103f df4f 2fbe
000001a0: 3740 0fbf 9ede 053e 04b0 093e 3a2e e0bc
000001b0: f331 c1be 309c a4be c49e 903e bf8d 923d
000001c0: f0e2 d6be 9e10 d1be a19d 8a3e b363 dabd
000001d0: 4119 bebe 96a5 f43e bcbc f13e ad01 e2bd
000001e0: 44d5 c9be 94d6 26be 3804 6a3e b4fe 123e
000001f0: 96e0 a3be 88c1 b5be 9dd7 0dbe a939 94bd
00000200: 22e0 b5be 31c0 08bf 3a0c 593e 631e 943e
00000210: 55d4 94be eee8 19bf acff 00be f53b 263f
00000220: 1f75 ebbe 8719 9b3e 29f7 8a3e 8bcc 3dbe
00000230: 1acf f43d 81e8 883e b288 d83b f7b2 bcbe
00000240: c4d6 fd3e a3d2 5c3e 1b85 df3e 751b 2fbc
00000250: 4b68 13be 26e9 b33e d58f 9f3c 544f d8bd
00000260: bcb7 35be c6d7 72be 3b44 b13e d36b 1b3e
00000270: b9e5 993e c246 33bf 669f 0ebd 38f6 ea3e
00000280: 1cf8 ffbd 1cdf 5dbe 36a3 7d3e 6f0b 14be
00000290: 912b 9bbd d3d7 12bf 8700 91be 0bdb 983e
000002a0: a9dc 163e ee67 93be af6c 6c3e d0f6 9f3d
000002b0: fb65 bebe 65a6 f53d 58dc ccbd 97e5 f9be
000002c0: 328a 6e3e 5801 fcbc 2350 c83e 6585 ed3e
000002d0: 1313 f3be ccc5 c53e 1947 543e 7cd7 0cbf
000002e0: 4956 2e3e 21c7 973e a6b2 ed3d 375c a2be
000002f0: 32ad 28bf 236c 1d3e 77ee 173f d3b3 b13b
00000300: c72a 84be b7c1 0e3e 0d56 143e 2df4 0ebf
00000310: 365a 77be 95be bf3d 285b 2b3d 6f94 ba3c
00000320: b36f 88be 03f0 a1be bd54 89be 9618 b23e
00000330: 804e 3f3e 7d24 96be 593e 9dbd 2154 273e
00000340: 5640 fe3e 36df 593d 81ec d83e b5ef 243d
00000350: 40a7 81bc de38 df3e 2296 59bf a65e 163e
00000360: 9897 21bf 1550 b2be 700c bf3b 0349 60be
00000370: 2b22 aebe c503 043e cbdc dc3d db30 fdbc
00000380: 0c0f 7a3d f0c9 ecbe 4e85 ff3e 833c cc3e
00000390: 02eb efbd adc4 92be c0d4 003e 9a07 8b3d
000003a0: 6d51 8fbd 1e37 37bf 871a 833e bc99 c83e
000003b0: ce95 d6be 4cca 21bf bed5 9f3e 24b2 1ebe
000003c0: e4b1 583e 00fa edbe 5006 ea3d d902 863e
000003d0: bfc6 1f3e af92 cf3e a561 563e 48eb 463e
000003e0: 65fa 17bf 0eb6 803e 79a9 563e d198 e5be
000003f0: 802f 9c3e 9b5a 493e 11b3 e33d e79c 96bd
-0.37868127 0.30969074 0.16844225 -0.4876813 0.1593459 0.20949508 0.36582372 0.018907322
-0.2578688 0.3571816 0.20063144 -0.2376663 0.24058028 0.40528488 0.25366512 -0.6915112
-0.33638608 0.31548288 0.3670693 -0.09430751 -0.043991614 -0.6446909 0.29594314 0.29720283
-0.26413077 0.48179948 0.5841954 -0.3635204 -0.054952357 0.32896408 -0.04403583 0.025947036
-0.07490035 0.30121604 0.6047923 -0.7100596 -0.35233057 -0.6198996 -0.23498143 0.5861306
-0.0053844466 -0.56949013 -0.082276136 0.41703776 -0.45799205 -0.31570563 0.23161817 0.07156519
0.4529797 0.3092341 0.36417007 -0.12119337 -0.63197744 0.13673978 0.015852306 -0.024024986
0.4061427 -0.5204103 0.19384721 0.20637046 -0.17295827 0.30844513 -0.65457845 -0.04534917
0.43402863 0.47253287 0.4880499 -0.33597815 0.24911548 0.4390765 0.21317041 0.014602044
-0.02185201 0.33984601 0.5417766 -0.44569317 -0.33088014 -0.46360007 -0.20928045 0.13521886
-0.021405512 0.45834255 0.10915522 -0.02577668 0.022050189 -0.6724583 -0.16781673 0.55823404
-0.5217807 0.11546134 0.055519354 -0.7666891 -0.16291106 0.3988328 0.48186108 -0.56896406
-0.019421445 -0.40096915 0.27002576 0.25817496 0.03900544 0.30552703 0.56568205 -0.17120312
-0.5595736 0.13073203 0.13446051 -0.027365793 -0.3773342 -0.32150412 0.2824613 0.07155942
-0.41970015 -0.4083299 0.27073386 -0.10663547 -0.37128642 0.47782582 0.47214305 -0.11035476
-0.3942052 -0.16292793 0.22853172 0.14354974 -0.32007283 -0.35499215 -0.13851781 -0.0723756
-0.35522562 -0.5341826 0.2119607 0.28929433 -0.29068246 -0.6012105 -0.12597531 0.6493524
-0.45987794 0.30292913 0.27141693 -0.18535058 0.11953564 0.26739886 0.006608092 -0.3685529
0.49577916 0.21564727 0.4365624 -0.010687699 -0.14395253 0.35138816 0.019477764 -0.10562006
-0.1774587 -0.23715124 0.34622368 0.1517785 0.30058077 -0.7002984 -0.034819983 0.45890975
-0.12498495 -0.2166714 0.24769291 -0.14457487 -0.07576669 -0.5736057 -0.28320715 0.29854617
0.14732613 -0.2879023 0.23088335 0.078107476 -0.3718718 0.11994628 -0.10002965 -0.48807976
0.23294905 -0.03076236 0.3912364 0.46390834 -0.4747549 0.3862747 0.20730247 -0.55016303
0.17025103 0.2964411 0.1160634 -0.3171098 -0.65889275 0.15373282 0.59348243 0.005423048
-0.25813887 0.13941084 0.14485951 -0.5584133 -0.24155506 0.093625225 0.04183498 0.022775857
-0.2664772 -0.31628427 -0.26822463 0.34784383 0.18682289 -0.29324713 -0.076779075 0.16340686
0.4965846 0.053191386 0.42367938 0.040267665 -0.015826821 0.43598074 -0.8499471 0.14684543
-0.6312194 -0.34826723 0.00583034 -0.21902852 -0.34010443 0.12892063 0.107843004 -0.030907085
0.061049506 -0.46247816 0.4990639 0.39889917 -0.11714746 -0.28665677 0.12581158 0.06788559
-0.069979526 -0.7156848 0.25606176 0.3917979 -0.41911167 -0.63199306 0.3121776 -0.15497643
0.2116161 -0.46479797 0.11426985 0.26174048 0.1560316 0.40541598 0.20935686 0.1942569
-0.59366447 0.25138897 0.20963086 -0.44843152 0.3050499 0.1966347 0.111181386 -0.073541455

Y_net.net.0.bias f4 [256]
00000000: ba89 b13d 9103 24bf 2fcf 1bbf 5e89 c93c
00000010: cf81 183f 0fd7 023e 48a3 433e 3232 bfbd
00000020: 1486 13bf b0fe 29be e137 00be 95d7 5fbe
00000030: 9ad3 83be 14cf 62bf 3c05 6cbe 74e6 3b3f
00000040: 2670 e3be 8c36 d43d 2c8e 5cbd 18ba 5fbe
00000050: 8636 96be c000 abbe 9e10 ef3e c6f0 3e3e
00000060: 4912 adbe 95e9 f0bd 9d5c 55bf 882b 5ebd
00000070: b501 88be dbde c73e 825a d1be c10a dfbe
00000080: d5f2 8e3e d8bc febd ab25 173f a6a9 973c
00000090: c064 3ebe a4c3 9bbe 3fd3 86bd e0b2 c0be
000000a0: 4565 0dbf 2de5 07bf 6019 eebe 7e50 6b3d
000000b0: fdd3 553e bc87 15be bf95 bdbe 73a6 4cbf
000000c0: 6f94 993d 622b 19bf 1907 27bb 5050 06bf
000000d0: 362f 8bbe e7c9 2c3e 7b8d d5be b58e 53bf
000000e0: d801 e4be b7b4 c0bd b840 d03d 8e38 e4be
000000f0: 9561 68be da07 c43d 9735 2ebf d1b0 20be
00000100: d35a 67bf ec70 e7be 1a71 9d3e 85c9 68bc
00000110: 1a48 183f d4db 70bf eb2b 0cbe 3f9e 0b3e
00000120: 0c58 1fbf 4b82 85be b6bf adbd b77d 59be
00000130: 38b6 a5bd d67b 83be 79c2 89be 486e 57bf
00000140: c60a 8abe 4a32 abbe 60aa cc3d f727 81be
00000150: b771 e13e 9f06 16bf 13c5 49bf e33c e73d
00000160: 4048 a2bc e970 193f e142 e1be 2566 e83d
00000170: 3807 5fbf 2ba2 b2be d32f dcbe ecd7 b63d
00000180: 3c4e 97be 86a7 5fbe 2989 58bd a0fa 39bd
00000190: 1c9b 383e 9941 aa3e 9732 9fbe 1ced 85bf
000001a0: 3c17 56bf f09f 8ebe bc29 46bf 419d 22bf
000001b0: 4d11 113e 8d8b c33e 4f15 0f3b fe13 acbe
000001c0: a2c7 5fbf fc2b 9c3e d673 44bf c29c 1ebe
000001d0: 434d 253e 40eb b8be f0fe ab3e 2039 f5be
000001e0: 2a48 2dbe 95c8 3dbe 84d8 9fbc aa5c 9dbe
000001f0: e917 a7be c36a 40be 64ea d6be 21af 243f
00000200: f3a2 4d3f ae4a 7b3e f350 3bbf edd3 c7be
00000210: 5129 acbe 8290 4ebf e762 c8be 090d 07bf
00000220: 210f f9be 198c 23be 0819 583f 353a b1be
00000230: 0ce0 8ebe 111d 4dbf 6627 ecbe b907 11be
00000240: 2706 e2be 222d 0b3f 4568 99be 49a2 943d
00000250: b008 09bf 8819 adbe dea3 173f f238 80be
00000260: 1f6f 67be f7ec 40be ceac 613e 3cf8 e0bd
00000270: 5940 47bd f963 02bf 12aa 0e3e bb2a 51bf
00000280: 4fb4 a6bd b7fa f2be e5c1 82be 4d36 43be
00000290: 16ba eabe dad8 2cbf f256 0ebe 8860 b6bd
000002a0: d7a1 113e 041f 1abe d874 bbbd a639 543e
000002b0: d801 c6bc 38a6 85bf f269 2cbe c9e5 4abe
000002c0: e1a9 d8be 3c6c 11bd eb8a 22be f9db 8abe
000002d0: e29b 2fbd 30fc 7c3e 1225 04bf 7860 a1bd
000002e0: 25f9 323b 3ed2 6d3e f47a b5be ec9a 0ebf
000002f0: 17e5 35be 2ca9 d4be 1aa0 573f ea48 203f
00000300: 07a9 50be 4431 9e3d c2a9 d03c c75d 14bf
00000310: 1d15 60bf 07d6 7c3e e8e5 833e ac5b 463e
00000320: 0f30 57be f0ee 373e 3f60 063e 3064 51be
00000330: 01b2 00bc a509 e8bd ddc5 c1be 5949 debe
00000340: 9d9f 0bbf 6d79 183e 1e48 37bf 7164 90be
00000350: 919d 23bf f822 df3e c1f5 2cbd e994 cebe
00000360: 4570 86be deab f0be 321b 5fbe fbbd 893e
00000370: 3a4f d6be a8b5 833f 5c61 863e 145f 083e
00000380: d903 30bf 7618 18bf eb74 33bf 86de 533c
00000390: 5fef 01bf 09c6 81be ba16 95be ab22 2abf
000003a0: 090a 47be ecf2 d03e 326a 57bf 924f 493c
000003b0: 5a01 88be 21c6 12be 5eaf fe3c c10e 53be
000003c0: 2fd2 123e 3431 73be 6e13 9cbe c927 42bf
000003d0: 8d6d 05bf 83c5 a7be 88e9 a7bd 5158 92be
000003e0: 9b83 52bf 0f77 103f 1cff 963d ba8b 833d
000003f0: 1224 73bf 51f4 97be c662 9bbe 6b6c f4be
0.086688474 -0.6406794 -0.6086301 0.024601635 0.5957307 0.12777351 0.19105256 -0.09335746
-0.5762646 -0.16601062 -0.12521316 -0.21859582 -0.25747377 -0.88597226 -0.23048872 0.7339852
-0.444215 0.103619665 -0.053846523 -0.21848333 -0.29338473 -0.3339901 0.46692365 0.18646535
-0.33803013 -0.11763302 -0.8334444 -0.054240733 -0.26563802 0.39037213 -0.40889364 -0.43562892
0.2791964 -0.12438363 0.5904185 0.018513512 -0.1859312 -0.304227 -0.06583261 -0.3763647
-0.5523265 -0.5308407 -0.46503735 0.05744981 0.20881648 -0.1460256 -0.3702831 -0.7994148
0.074990146 -0.5983182 -0.0025486408 -0.524663 -0.27184457 0.16873895 -0.41709504 -0.8263963
-0.44532657 -0.094094686 0.10168594 -0.44574398 -0.22693475 0.0957181 -0.6805052 -0.1569245
-0.9037296 -0.4520334 0.30750352 -0.014208202 0.5948502 -0.9408543 -0.13688628 0.13634585
-0.62243724 -0.26075968 -0.084838316 -0.21239363 -0.08091396 -0.25680417 -0.26906183 -0.8415265
-0.26961344 -0.33436805 0.09993434 -0.25225803 0.4403207 -0.58603853 -0.78816336 0.1129091
-0.019809842 0.5993791 -0.43996337 0.113476075 -0.8712039 -0.3488935 -0.43005237 0.089279026
-0.29551876 -0.21841249 -0.05286518 -0.04540503 0.1802792 0.33253172 -0.31093284 -1.0462985
-0.836292 -0.27856398 -0.7740743 -0.635212 0.14166756 0.38192406 0.002183277 -0.33609003
-0.8741399 0.30502307 -0.7673925 -0.15489486 0.16142754 -0.36116982 0.3359294 -0.47895145
-0.1692206 -0.18533547 -0.019512422 -0.3073476 -0.3263543 -0.18790726 -0.419757 0.64329726
0.80326766 0.24540207 -0.73170394 -0.39028874 -0.33625272 -0.8068925 -0.39137957 -0.52754265
-0.48644355 -0.15971412 0.84413195 -0.3461472 -0.2790531 -0.80122477 -0.4612381 -0.14163102
-0.4414532 0.5436574 -0.29962364 0.07257516 -0.5352888 -0.3380854 0.59234416 -0.25043446
-0.22600983 -0.18840395 0.22038576 -0.10984847 -0.04864535 -0.50933796 0.13932064 -0.81705827
-0.0813986 -0.47456905 -0.25538555 -0.19063683 -0.45845097 -0.6751839 -0.13900355 -0.089051306
0.14221893 -0.15050894 -0.091531456 0.20725116 -0.024170801 -1.0441351 -0.1683729 -0.19814219
-0.42317107 -0.03550361 -0.15873305 -0.2712095 -0.04287327 0.24705577 -0.51619065 -0.07879728
0.0027309146 0.23224732 -0.35445368 -0.5570514 -0.17763172 -0.41535318 0.8422867 0.6261126
-0.20376979 0.077242404 0.025471572 -0.5795559 -0.87532216 0.2469102 0.25761342 0.19370908
-0.21014427 0.17962241 0.13122652 -0.20448375 -0.007854939 -0.113299645 -0.3784627 -0.43415335
-0.54540426 0.1489007 -0.7159442 -0.2820163 -0.639123 0.43581367 -0.042226557 -0.40347984
-0.2625753 -0.47006124 -0.21787718 0.26902756 -0.4185732 1.0289812 0.26246154 0.1331752
-0.6875587 -0.59412324 -0.7010028 0.012931472 -0.50755876 -0.253464 -0.29118901 -0.6645915
-0.19437422 0.40810335 -0.84146416 0.012287037 -0.2656353 -0.14333393 0.031089481 -0.20611097
0.14337991 -0.23749238 -0.30483574 -0.7584196 -0.52120286 -0.32767877 -0.081988394 -0.28583005
-0.82232064 0.5643167 0.07372877 0.06423135 -0.94976914 -0.29678586 -0.30348796 -0.47738966

Y_net.net.2.weight f4 [256, 256]
00000000: d837 41bd 9870 2ebd c522 61bd a514 94bd
00000010: 5acb b53b 4327 9bbc e91c c9bb 0672 12bd
00000020: 12e9 48bd 08f7 563d 5617 3dbd 341b 9b3c
00000030: c585 53bc 0c88 49bd 137b c2bd 1045 07bd
00000040: 1591 c0bd 10cc 953c 2989 343d a784 c13c
00000050: 8a8b b1bd 4ebb afbb e29b 53bb 0488 653c
00000060: ce3d f63b 5cf6 263d 444b d23b 2b14 20bb
00000070: c06b 3e3c 6239 c7ba 6a09 70bd bc48 ecba
00000080: 288b eb3b 2d82 273d 667b 0c3d 05a5 e7ba
00000090: f99f bf3c 6d7c 9abd 60b8 c03c 9a0f bdbd
000000a0: 7281 6cbd 6d78 bb3c 7887 953b 14f1 a9bd
000000b0: be89 353d fafa a1bc aa6b 563c 5586 b7bc
000000c0: ec2c 9a3c 0fc4 48bd 31f0 adbb 1ee1 adbd
000000d0: 96dc 553b 77e7 0cbd 2732 813d 2656 27bc
000000e0: 90d2 97bd 1d2b 26bb ece1 97bd 7856 66bd
000000f0: 06d7 38bc 1d42 1abd be7b 93bd 1d90 63bd
00000100: d58b f83c a042 a73c 8fc6 57bd 4a74 dabd
00000110: 0ffb 1b3d 4c12 43bd 530d 323a 4f7d cebb
00000120: 064b 94bd 80c4 97bb 314c bbbb 6a4e af3d
00000130: db6b 3dbd 8f98 8dbd 2f16 adbb 65c6 46bb
00000140: 1680 21bd 3942 cfbd b462 9abd 5ad9 adbd
00000150: 0ddf 1fbc 439c 92bd 7f02 61bd 0b84 2bbb
00000160: faed 32bd 8619 f6bc 65f6 efbc 4a0f 57bc
00000170: 9545 a3bd 400b 343d d6d7 943b 5179 b9bd
00000180: 3a17 7abc 4416 c3bd a423 f4bd fceb 2dbd
00000190: 79cc 84bd eb92 d2bc e4be 09bd a30b 593d
000001a0: 74f2 af3c e244 d1bd debf a9bd 066a 193b
000001b0: 0919 0f3d 4023 5ebd 3613 eabc 7b2c a8bd
000001c0: a4d5 4ebd 596f fabc 8b05 ee3c 7e2c e53a
000001d0: 838b cabd c06a 003d f5a5 d2bc feae 92bd
000001e0: 006a 17bd 45c0 78bd bda5 833c 80fa f73a
000001f0: ebe0 e1bd d4e7 bdbc eea8 393c 3c32 f13c
00000200: ccaf 98bc b710 80bd 4536 c6bd 1cc3 96bd
00000210: 4326 8dbd 4a21 4f3d 7459 8d3d 80a0 9f3c
00000220: 8e3d 673d 062d e03b 2bd5 893c 58e9 4c3d
00000230: a7f3 d8bc bfba 75bd a453 f83a cbb7 073c
00000240: 2c27 263d 9bd7 a03c 034e 7ebb 08db 033d
00000250: d60d 9c3c fe74 0abd fa20 76bd 414f a2bd
00000260: 744d 9cbd 0d60 d9bb 6fe7 34bd 1089 b6bc
00000270: bf43 d7bc da20 653a ba5e 19bd 3277 40bd
00000280: 62b7 f83c 20fa cfbc 158a 3bbd e87c 6e3c
00000290: d4fe 323d 860b 883c 3034 55bd 9cb8 eebd
000002a0: f6df e63c b840 97bc 1101 3ebd 5a60 7ebd
000002b0: 5a9e e9bc 0d85 9c3c 17e0 22bd c07e 8fbd
000002c0: 5639 75bd 2758 30bd 1863 103c 26e8 58bc
000002d0: 5dc9 1e3c e67e c4bd 4024 303d 508e 21bd
000002e0: 9c2b a8bd 7d77 cf3a acb4 9e3c 5230 29bd
000002f0: 5c04 c6bc 88fa 9dbd 7d20 2b3d 26d7 3cbd
00000300: c7d9 84bd b226 c4bc cbbf e4bc 54c8 b93b
00000310: 8459 153d 488e 47bd 97da a1bd 6ca4 2dba
00000320: f35e 89bd 586b a9bd 7577 cebd 54f9 0bbd
00000330: 2313 76bd b65b c9bd 943d 7e3d 1503 c3bd
00000340: 21f8 963c 2aaa 0dbd a45f debc d48a 96bd
00000350: 57eb 823d d53b aebd 8721 31bd 9601 84bc
00000360: bc96 80ba e736 23bd e462 e43c e725 da3d
00000370: bc41 8fbc f0c2 45bd 660c a2bb d256 7d3d
00000380: a0f5 79bc d861 87bc 68ad 9fbc 162e e4bd
00000390: 586b 863d 00bb d2bd cd40 bbbc 751f e43c
000003a0: 1c48 a0bd 8d01 4abd 93be 8a3b c5ca c1bd
000003b0: 4d93 25bd 02fe 6f3c e286 1abd aba5 943c
000003c0: 2992 03bd 04ed 47bc 8250 ddbb 06a9 9ebd
000003d0: 19c5 133d fc47 7ebb 3dee 69bd ac02 ffbc
000003e0: 1c65 61bc 4f88 e8bc dab4 b8bc 84b8 62bd
000003f0: 94fb 57ba 5362 da3c ea09 15bd fc4a 66bd
-0.047172397 -0.042587847 -0.0549648 -0.072305 0.005547923 -0.01893962 -0.0061374796 -0.035753272
-0.0490504 0.05248168 -0.046164833 0.01893387 -0.012910311 -0.04920201 -0.09496131 -0.033024848
-0.09402672 0.018285781 0.04407612 0.023622824 -0.08669193 -0.0053629046 -0.0032288958 0.014009479
0.007514692 0.04076229 0.006417664 -0.0024426084 0.011622369 -0.0015199597 -0.058602728 -0.0018027048
0.0071882196 0.04089563 0.03429737 -0.0017673081 0.02339171 -0.075432636 0.023525417 -0.092314914
-0.057740636 0.022884572 0.0045632683 -0.08297935 0.044320814 -0.019772995 0.013087193 -0.022402922
0.018820249 -0.0490151 -0.005308174 -0.08490203 0.00326327 -0.03440043 0.06308394 -0.0102134105
-0.074132085 -0.0025355287 -0.07416138 -0.056234807 -0.011281734 -0.037660707 -0.07201336 -0.05555736
0.030340115 0.020417511 -0.052679595 -0.10666712 0.038081225 -0.04762487 0.00067921466 -0.006301559
-0.07240872 -0.004631579 -0.00571587 0.08559878 -0.046245437 -0.06913864 -0.0052821855 -0.0030330655
-0.039428793 -0.10120053 -0.075383574 -0.08488722 -0.009757769 -0.07158711 -0.05493402 -0.0026171233
-0.043683983 -0.030041467 -0.029292295 -0.013126204 -0.07972256 0.04395604 0.004542331 -0.090563424
-0.015264327 -0.09525731 -0.119208604 -0.04246138 -0.064843126 -0.025704822 -0.033629313 0.052989613
0.021477915 -0.102182165 -0.08288549 0.0023409142 0.034935985 -0.054232836 -0.028573614 -0.08211609
-0.050496712 -0.030570673 0.029055377 0.0017484573 -0.09889891 0.031351805 -0.0257139 -0.07162283
-0.036966324 -0.060730238 0.016070241 0.0018919259 -0.11029228 -0.023181833 0.01133178 0.029442899
-0.018638514 -0.06253188 -0.0967832 -0.07361433 -0.068920635 0.050568856 0.069018275 0.019485712
0.056455187 0.0068413047 0.01682528 0.05002722 -0.02648337 -0.059992548 0.0018945825 0.008283566
0.0405647 0.019634059 -0.0038803823 0.032191306 0.019049566 -0.03380298 -0.060090043 -0.07925273
-0.076319605 -0.0066337646 -0.044166025 -0.022282153 -0.026277421 0.0008740552 -0.037443854 -0.046988674
0.030360881 -0.025387824 -0.045785982 0.014556147 0.043700054 0.016607057 -0.052051723 -0.11656305
0.028182965 -0.018463477 -0.046387736 -0.062103607 -0.02851789 0.019106412 -0.03976449 -0.070065975
-0.059869133 -0.04305282 0.008812688 -0.013238942 0.009691563 -0.095945165 0.04300332 -0.03944236
-0.08211443 0.0015828457 0.01937326 -0.041305847 -0.024172 -0.07713801 0.04177903 -0.04610362
-0.0648685 -0.023944233 -0.027923485 0.005669633 0.036462322 -0.048719674 -0.07903021 -0.0006623927
-0.06707563 -0.08272427 -0.10081378 -0.034173325 -0.060076844 -0.098319456 0.062070444 -0.09522072
0.018428864 -0.03458611 -0.027145214 -0.07350698 0.06392544 -0.08507506 -0.043244865 -0.016114037
-0.0009810547 -0.03984728 0.027879186 0.106517605 -0.0174874 -0.04828161 -0.0049453257 0.061850376
-0.0152563155 -0.016526148 -0.019491866 -0.11141603 0.06563443 -0.10289574 -0.022858048 0.027847031
-0.07826254 -0.049317885 0.004234144 -0.09462503 -0.04042368 0.0146479625 -0.03772629 0.018145403
-0.03212181 -0.012202505 -0.006753982 -0.077470824 0.03607664 -0.003880023 -0.057111967 -0.031129204
-0.0137570165 -0.02838531 -0.022547174 -0.05535175 -0.0008239087 0.026658213 -0.036386408 -0.056223854

Y_net.net.2.bias f4 [256]
00000000: 81f6 12bc 0e41 4cbd 993e 613d 597a f7bd
00000010: 1f97 4ebd 202c 94bd dea6 87bd 5b8f 52bd
00000020: 2579 23be 9660 2e3e 4f53 b3bd 0f08 cebd
00000030: ee32 5dbe 32f2 403d 9d0a 9cbd 80ed 8dbc
00000040: 3698 41be 27c1 13bd 2de5 20be b387 773d
00000050: 32fa 1abe 8a84 13bd d21a 44be e611 25bd
00000060: f3de 1dbe 286e 3cbe 60e2 a6bd 5aa0 5ebe
00000070: 34fe 133e 266c 94bd 5bc7 6bbd ea64 98bd
00000080: 3169 24bc bfdc 39be 478c 34be bbcb 6ebe
00000090: aac9 5dbd 3d4a 50be 3457 8fbc 57d2 05be
000000a0: 1237 18be b6ec e7bd f82b 9fbd 1e5f a83d
000000b0: 3764 1cbe d7b3 62bd 5779 e0bd 4459 d4bc
000000c0: 452b 45be 58f4 38be d024 e1bd 2289 f83d
000000d0: 892e 86bc 6eaa 9dbd 8912 ab3c 98b7 47bc
000000e0: a17d 03be 2305 e6bd 9477 92bd b9f6 073d
000000f0: f920 0a3f 83b7 dfbd 21ec 1ebe d8d5 3cbd
00000100: 0fe3 7cbd 393b d8bd 85a5 0abe add7 97bd
00000110: 98eb f2bd e510 b1bd fadf b1bc 29e6 e2bd
00000120: b053 afbd d041 0c3d dbcd 0d3d 71b8 54be
00000130: eb3f f1bd 225b 2f3e ad5f 82bd abd3 20be
00000140: c5ca e0bd c746 cabd cedb 0cbe a318 d8bd
00000150: 3bbf 02be e313 cf3d 9c33 9c3d 44fe d0bd
00000160: 96e3 03bd 6892 0abc 4317 42bd bfb9 46be
00000170: 40be 20bd c9df 1cbe 217c c4bd 0d73 3ebe
00000180: a58f 0f3d e40d edbd 30e0 1dbe 2ce5 2ebe
00000190: 1794 333d 9e96 79be e5a6 bfbd bd1e 12be
000001a0: 82a7 49be d356 babd 731e 813e 546e 40bd
000001b0: 5e89 15be cc71 1b3e e961 b7bd 0334 f1bd
000001c0: cfbf 12be f58d ce3d eca9 a4bd 302b dcbd
000001d0: a08d 3bbd debd bbbc c931 70bd 318e afbd
000001e0: ac4c 86bd d36a ec3c d509 fabd 24e0 193d
000001f0: 3b2f 8cbd 2c7f 96bc 6ee0 353c c66c 95bd
00000200: 8f71 17be 95c6 a6bd 5488 c6bd 1cac d13d
00000210: c9de 74bc f165 d4bd 4685 cfbc 4610 00be
00000220: 9f03 d0bc c9cb a33b 9cf9 aabd 3f93 6bbc
00000230: a0cd 1abe 0a49 4fbd 262b 1ebe 1daf e33b
00000240: 5cd0 9abd 3a34 47be 7c92 c4bd efc5 b7bd
00000250: 4834 3dbe 45b9 ae3c 301b 1abe 4e19 c3bd
00000260: 969d c8bd 1f50 d4bd 86cc 06be defe 42bd
00000270: 220d b03e cb07 11be 7d04 2dbe 0197 a43b
00000280: a0ce c4bd 2370 3bbe e613 98bd bdd7 8f3d
00000290: 0ee1 42be 7728 3bbc 17e7 85bd e7ec 07bd
000002a0: 8328 06be e4a8 98bc 55e7 98bd 4030 963d
000002b0: bb57 30be 717a 843d 264c 1bbe 8aec d1bd
000002c0: 350e a2bd f9f0 6b3c 10f9 16be 5401 883c
000002d0: e2a1 1d3d 8406 6fbd 5254 bcbd 9aff 5d3c
000002e0: 8a08 4dbe 38e2 57be 37a3 fbbd 8f7a 5cbe
000002f0: 38f0 22be a657 a63c 81af 7a3d 6e11 f73d
00000300: 3221 06be 76ee 3ebe 390a 893d b59b 963e
00000310: 4121 6dbd ef1f eabd 9011 d5bd 04d2 7dbd
00000320: 9bbc 5abd 591d 39be 2df0 1dbe 7073 2ebd
00000330: 5758 88bd 06ed 38bd 1f71 ab3c e366 09be
00000340: f52d 27be 6d36 5ebc 6036 b9bd 7a1e 46be
00000350: 0e91 25be 68d7 34bd e423 bdbd 6432 36be
00000360: c130 08be 3dd6 e7bd 0e2c 1ebe ab06 2fbe
00000370: d251 5bbd d8e4 08be 8419 43bd 01ef 22be
00000380: 26b6 1abe 5f5d 8cbd 6825 333c f969 90be
00000390: 412f 99bd 21f0 863d 524b 093e f6ef 8abd
000003a0: 7f4d 0abd 9d93 ffbc 87af 4dbd d677 cb39
000003b0: ed0d 13be 41a5 7a3e 4435 f4bd 5856 22be
000003c0: 4413 debc 53ef 40be 7a46 bdbb ebef 3dbe
000003d0: dc37 ccbd 6833 07be bee6 21be 009c 9cbd
000003e0: c56d 50be c27a 68bc 13f7 183c 458e 69bd
000003f0: 8d9f 14be 2629 e7bd 32dd 80bd 307d 2cbe
-0.008969904 -0.04986673 0.05499134 -0.12083883 -0.05043709 -0.07234979 -0.06623624 -0.051406246
-0.15964182 0.17029032 -0.08756124 -0.10060131 -0.2160146 0.047105975 -0.07619212 -0.017325163
-0.1890572 -0.036072876 -0.15712424 0.060432147 -0.15134504 -0.03601507 -0.19150856 -0.040300272
-0.1541708 -0.18401396 -0.08148646 -0.21740857 0.1445244 -0.0724719 -0.057563167 -0.07441123
-0.010034845 -0.18150614 -0.17631637 -0.23319905 -0.0541474 -0.2034082 -0.017497636 -0.1306852
-0.14864758 -0.11324446 -0.07772058 0.08221267 -0.15272604 -0.05534729 -0.10960644 -0.025921471
-0.19254787 -0.1806196 -0.109933496 0.12135531 -0.016379612 -0.076985225 0.020882862 -0.012189768
-0.12840892 -0.112314485 -0.07151714 0.033194277 0.5395656 -0.10923674 -0.15519764 -0.046102375
-0.061739977 -0.10558171 -0.13539703 -0.07414184 -0.11861342 -0.086458005 -0.021713246 -0.11079056
-0.08560884 0.03424245 0.034620147 -0.20773484 -0.117797695 0.17124608 -0.06365905 -0.15705745
-0.10976175 -0.09876781 -0.13755724 -0.10551574 -0.12768261 0.10111215 0.07627031 -0.10204747
-0.032199465 -0.0084577575 -0.047385465 -0.19406794 -0.039243937 -0.15319742 -0.09593988 -0.18598576
0.0350491 -0.11574915 -0.15417552 -0.1707961 0.0438424 -0.24373862 -0.093580045 -0.14269538
-0.19692805 -0.09098592 0.25218543 -0.046980217 -0.14603183 0.15180129 -0.08954222 -0.117774986
-0.14330982 0.1008567 -0.080402225 -0.10750425 -0.04578936 -0.022917684 -0.05864123 -0.08572043
-0.06557593 0.028859532 -0.122089066 0.037567273 -0.06844946 -0.018371187 0.0111008715 -0.072961375
-0.14789413 -0.08143345 -0.09693971 0.102379054 -0.014945694 -0.10371006 -0.025332104 -0.12506208
-0.025392352 0.0049986583 -0.083483905 -0.014378368 -0.15117502 -0.050606765 -0.15446147 0.0069483654
-0.07559273 -0.19453517 -0.09598252 -0.089733 -0.18476975 0.021328578 -0.15049434 -0.09526311
-0.09795682 -0.103668444 -0.13163957 -0.04760634 0.3438502 -0.14163129 -0.16896243 0.005022884
-0.09609723 -0.18304496 -0.0742567 0.07023571 -0.19031164 -0.011423222 -0.065382175 -0.033184912
-0.13101391 -0.01863522 -0.07465998 0.07333422 -0.17220967 0.06468666 -0.15165767 -0.10250194
-0.07912866 0.014400714 -0.14743447 0.016602196 0.03848446 -0.058355823 -0.0919577 0.01354971
-0.20022789 -0.2108239 -0.1228699 -0.21531127 -0.15911949 0.020305466 0.06120253 0.12063871
-0.130986 -0.18645653 0.06691403 0.2941567 -0.05789304 -0.11431872 -0.104037404 -0.061967865
-0.053402524 -0.18077601 -0.15423651 -0.04259056 -0.066574745 -0.04514792 0.020927964 -0.13418154
-0.16326125 -0.013562781 -0.09043574 -0.19347563 -0.16168615 -0.04415074 -0.09235361 -0.1779266
-0.13299848 -0.113201596 -0.15446493 -0.17092387 -0.053544827 -0.13368547 -0.047631755 -0.15911485
-0.15108547 -0.068537466 0.010934211 -0.2820585 -0.07479716 0.0658877 0.13407639 -0.0678405
-0.033765312 -0.031198317 -0.050216224 0.00038808462 -0.14360781 0.24477102 -0.11924222 -0.1585325
-0.027108796 -0.18841295 -0.0057762237 -0.18548553 -0.09971592 -0.13203204 -0.15810677 -0.07646942
-0.20354374 -0.014189424 0.009336251 -0.057020444 -0.14513989 -0.11287145 -0.0629219 -0.1684463

Y_net.net.4.weight f4 [256, 256]
00000000: 7168 a73c c96e 5f3d 213e 7abd 8dfa 2ebd
00000010: 0cde d1bd 40e9 923c 9c4e 6cbd 9b0c 4f3d
00000020: bd0d 5a3d cc0e f1bd 48af a4bc 0936 163b
00000030: eaf2 1c3d 5afa ec3c a22d a6bc 4d4b 8e3b
00000040: 3681 353d ca5c 3b3d 5c7a 97bc 7bda 4d3d
00000050: 788e 8ebd b9bd 9d3c 6361 1b3d d5be ae3b
00000060: 3e4c 9a3d 3f0c c63b 478d a6bd 93bf cbbc
00000070: c8b9 393c 984b 003d f469 18bd fdf3 1bbd
00000080: d35e 443d 45d5 64bc e016 da3c e1c9 4a3d
00000090: ad5d b1bd 33a0 2f3d 10a4 c73c e812 55bd
000000a0: dc49 08bd 07bc 5fbc a944 ae3c 84f2 38bd
000000b0: 2f5a 723d fbed 10b9 7dc1 0ebc c40b e1bc
000000c0: 4bf6 1dbd b0fd 9b3d 41d0 d4bd 298b 6b3c
000000d0: c81f 2f3d 78ea 393d 258f 9c3c 5019 5c3d
000000e0: 5b5b b43c 130a 983d 351f 8e3b 5fdb 513d
000000f0: 280a 6fbd 8fe7 c9bd 7a13 3b3d d871 52bd
00000100: 95c6 f8bc 3834 bf3c c5ba 33bd 0c51 503d
00000110: 70f6 dbbc 7e07 aabc 43c3 113d d81c 80bc
00000120: 93ae 92bd 977a 943d 2b94 83bd 86d1 1ebc
00000130: e4d4 673c 6127 d8bd e77e 313c 9633 923d
00000140: 10bf e93b 071c e23c a040 30bc 4841 653d
00000150: b215 ce3c 1629 22bd f24e a8bc cca2 ddbb
00000160: e6c6 483d ffc8 c73c 0618 a1bd 70ba 15bd
00000170: ec88 82bc 7f88 8a3c 90c7 8a3d 2205 31bd
00000180: ccad 4f3d bc3d d53c 587b 1ebd 8264 8dbd
00000190: 3800 de3c fb52 033d 73f2 d13c 4fbc 2d3d
000001a0: c9aa 923d 0181 d03b 142b 80bd 8a78 6a3d
000001b0: 8e7a ffbc 16ef 5f3b e4ed 933d 52aa 7c3d
000001c0: d4d8 943d b884 22bd 5525 eebc ea55 8c3b
000001d0: 73c1 17bd a288 ffbc e3bb 853d 85e9 6e3c
000001e0: b086 993c 5494 633c f9b5 0f3b e339 8bbd
000001f0: 57bb e6bb 5c00 b2bd c265 ec3b a60f 683c
00000200: 4131 793d 910a f73b 71c4 fd3b 0a42 a03d
00000210: 4a73 afbb 819c e6bc 4895 bbbd f06a e9bc
00000220: 1096 ca3b cec2 ccbc 2275 653d f30c ccbd
00000230: e171 8b3d 981d 373c 8080 88bb d43c 3a3d
00000240: 76e8 fe3c 21d8 80ba b651 683d 2450 283d
00000250: 66df 6cbc 35da 963c 43ef 663d d1e7 0f3d
00000260: 00bf 2cbd a453 3ebd 8ef2 ff3a eac2 4f3d
00000270: 8bcd 7ebd 73d6 e63c 52e2 a93c 8e8f 1b3c
00000280: 9f7f 82bd 302f a9bd a910 993b 98c0 adbc
00000290: aa9d 2a3d d083 9f3b be2a 9b3c fc8d de3b
000002a0: 4bea 5a3d 0cb5 033d e496 e9bc 12d0 973c
000002b0: a275 4ebd 851b 5fbc 839c 0bbd 2127 813b
000002c0: d151 35bd 7c70 103d 1ccc 893c d2ba 08bc
000002d0: 32fe 3dbd e183 813a a4e3 b63c 0054 f9bc
000002e0: ea04 f33c 94ea 9e3d afaa 0a3a 7da9 69bb
000002f0: 49cb b63c 2046 95bd f4da 873d 1598 e5bc
00000300: 8bf5 3d3d 714a 86bc ed59 1bbc ddf4 303c
00000310: 8d3b 1f3b 34d0 af3c f401 983d 8c5c 21bd
00000320: b086 c83b bfa8 11bd c63d c2bc 234c 28bc
00000330: 1abf e4bb c438 00bd d056 c5ba c57b 713c
00000340: 2dd1 423c c3b9 223b cf99 9dbc 3669 c138
00000350: 9a27 303d 6fa2 a5bd e955 7f3d 33cb 0cbd
00000360: 1d9e b7bb ab3f ccbd 7ae0 0fbc 6bf5 83bc
00000370: a353 88bd bdd1 003c bdb9 4c3d 2352 51bc
00000380: 162c 903d 38d9 1e3c 60e1 993b 390d 0cbd
00000390: 4e26 b73c 6764 01bd b51c f33b fca8 3e3d
000003a0: a4f5 0dbc e96e 3f3d af90 23b9 7616 2cbd
000003b0: 6920 653d e5b6 b2bd 5bda 593d 939a d0bc
000003c0: c61b 703d 2af7 ab3b 8f5d 023d 67bf 913d
000003d0: 23a2 383c ad79 23bd 1a50 813c b0c8 35bc
000003e0: 9452 8fbc 181c 5f3d 293d aebc 9078 d0bd
000003f0: 4ad4 67bd 9312 7f3d 1e93 ffbc 0b05 b53b
0.020435544 0.054549012 -0.061094407 -0.042719413 -0.1024743 0.017933488 -0.057692155 0.05054913
0.053235758 -0.117704004 -0.020103112 0.002292039 0.0383176 0.02892797 -0.020285431 0.0043424726
0.04431268 0.045742787 -0.018490963 0.050257187 -0.069607675 0.019255506 0.037934672 0.0053328075
0.07534073 0.0060439403 -0.08132415 -0.024871623 0.011335798 0.03132209 -0.03721042 -0.038074482
0.047941994 -0.013966863 0.026622236 0.049508933 -0.08660445 0.042877387 0.024370223 -0.052019984
-0.033273563 -0.013655669 0.021272974 -0.045153156 0.059168037 -0.00013821565 -0.008713123 -0.02747143
-0.03856496 0.076167464 -0.10391284 0.01437644 0.04275492 0.045389622 0.019111225 0.053735077
0.022016218 0.074237965 0.0043372163 0.0512346 -0.058359295 -0.098586194 0.04567287 -0.0513781
-0.030368129 0.02334033 -0.04387929 0.050858542 -0.026850909 -0.020755526 0.035586607 -0.015638754
-0.07162204 0.07249945 -0.06424745 -0.009693509 0.014149878 -0.10554386 0.0108334785 0.071387455
0.007133372 0.027601255 -0.010757595 0.05597046 0.02515683 -0.039589964 -0.020545457 -0.0067637917
0.04901781 0.024387835 -0.0786591 -0.036554754 -0.01593443 0.01691079 0.06776345 -0.043217786
0.050702855 0.026030414 -0.03869185 -0.06903936 0.027099714 0.03206156 0.025628304 0.042415913
0.07161481 0.0063630347 -0.062582165 0.05724386 -0.031186368 0.0034169606 0.072231084 0.061685868
0.07267919 -0.03967735 -0.029070536 0.0042827027 -0.037049722 -0.031193081 0.06529977 0.014582043
0.018740982 0.013890345 0.0021928533 -0.067981504 -0.0070413756 -0.08691475 0.007214279 0.014163887
0.060837988 0.0075391014 0.007744365 0.07825096 -0.0053543197 -0.028150799 -0.091593325 -0.028493375
0.0061824396 -0.024995234 0.05601991 -0.09963407 0.0680883 0.011176489 -0.004165709 0.045468166
0.031116705 -0.0009830036 0.05671855 0.041092053 -0.014457559 0.018414596 0.05638052 0.035133187
-0.04217434 -0.046466485 0.0019527243 0.050722994 -0.06220774 0.02817843 0.0207378 0.009494675
-0.06371998 -0.082609534 0.0046711755 -0.02121 0.041654266 0.004868008 0.01894128 0.006791828
0.053446095 0.03215508 -0.028514333 0.018531833 -0.050405152 -0.013617401 -0.034084808 0.003941432
-0.04426748 0.035263523 0.01682096 -0.008345323 -0.046384998 0.0009881222 0.022325344 -0.030435562
0.02966543 0.07759586 0.0005289716 -0.0035654001 0.02231373 -0.07288766 0.06633559 -0.02802662
0.046376746 -0.016392918 -0.009481889 0.010800567 0.002429697 0.021461584 0.074222475 -0.0393949
0.0061195716 -0.03556132 -0.023711096 -0.010272059 -0.006980789 -0.031304136 -0.0015055779 0.014738982
0.011890692 0.002482996 -0.01923838 9.222554e-05 0.043006517 -0.080876224 0.06233779 -0.034373473
-0.0056035654 -0.09973081 -0.008781547 -0.016108235 -0.066565774 0.0078625055 0.04998182 -0.012775931
0.07039659 0.009695344 0.0046960562 -0.034192298 0.022357132 -0.03158989 0.0074191936 0.046547875
-0.008664522 0.04673663 -0.0001559879 -0.042013608 0.05593911 -0.087262906 0.053186756 -0.025464332
0.058620237 0.00524797 0.031827506 0.07116585 0.011269125 -0.03991096 0.015785266 -0.011095211
-0.017495431 0.05447015 -0.021269398 -0.101792455 -0.05659894 0.062273573 -0.03119808 0.005524283

Y_net.net.4.bias f4 [256]
00000000: ef37 e93c 1947 b5bb ed92 2dbd e5d9 8d3c
00000010: 4018 79bd d6c0 5abd 8ab6 5ebe a059 e7bd
00000020: e411 1e3d c6bc f7bc d6cc 743d 22f8 893c
00000030: 02c5 f1bc 6860 8ebd b191 57bd 2b36 1fbe
00000040: 0bf9 233d e969 bfbd e401 273e f293 2abe
00000050: 5da6 b83c b03e c0bc bf7d 1a3c 34c3 78bc
00000060: 7bee 2abe 20ac 63bc b282 9b3c a0c7 b43a
00000070: a7e7 d1bc 378a f63c a029 13bc 4f8e 04bc
00000080: e3bc c63b b7e7 1e3c 8fab 8dbd 2e56 dcbb
00000090: 1a58 7b3d faeb 9dbd d6f9 a2be 170d 0d3c
000000a0: a6ed 64bb b208 a63b 7e87 4e3d 2ff8 1b3e
000000b0: 682b 5dbd 8b5b 91be d024 76bc 804f 0dbc
000000c0: ee74 39bd 3626 28bd c89f a1bd ab06 9dbc
000000d0: ae85 213d 208f fb3c ec96 58bb c04f 9abb
000000e0: 3259 a6be 7dde bfbc fd09 2ebd 8875 83bd
000000f0: fb30 2e3e 9f72 4bbc 88a8 5e3d 4d6a 043c
00000100: cb01 193d 8e5e 2c3d 158d 3f3d 37c5 abbd
00000110: 2859 053d bae7 a7bc 284e 1bbd 2288 28bc
00000120: ec19 99bc bdf6 68be ec19 963b 9841 89bc
00000130: 6256 5d3e 09fa 4abd e98c 1d3e f7a5 0cbe
00000140: 3e67 4abd 789b 233d f5c6 9fbd 760b fabc
00000150: 83ad e7bc 854f d9bc 1ff8 d1bc 16f5 333d
00000160: c410 cb3b 6db8 3dbe b0e7 ecbd 0297 173d
00000170: f809 19be e6d9 1fbc 6862 2cbe 1de3 86bd
00000180: 3a72 5ebd d0d3 c03b 5bcc 61bd 1b15 3ebc
00000190: 0d49 323d 9ddd 42bd 52b8 50bc daf7 6dbd
000001a0: aed0 bb3e fe2b 2e3d 4e80 d8bc c77c 493c
000001b0: 6093 4d3d 4139 3b3c 8423 553a 5238 fa3c
000001c0: 5616 d9bb 85a8 243d fb7c e7bc ed51 11bd
000001d0: 37b0 7c3d e99d d6bb d5b3 42bd e6b3 7abd
000001e0: 4c9e 3cbe 75e7 12bd ccad 1f3d 21e4 673e
000001f0: acc2 cf3c 5b77 b0bc 41b8 7bbd 8d9a ac3b
00000200: 3f08 00bd 04fc 0c3d 77d1 1fbd 67d0 2cbb
00000210: 0820 0ebd 37e2 edbd a017 933d d60a 703d
00000220: 1f1a fcbb 1674 25bd 1e6d 07be 2cdc 79bd
00000230: 2672 203d 0bef bebd 6589 0fbc 4fe5 36bd
00000240: 7995 54bd 20c8 7abd ff13 f43b 00d9 44be
00000250: 7889 40bd 8620 15bd c41c 51bb c4d3 5bbe
00000260: 2eae cbbb e0cd 0a3d a0e0 32bb 94b3 4ebd
00000270: 2509 84bd d079 7dbd 6219 abbe 038c ecbd
00000280: 7854 d2bb 3fb4 963c e5fe 1fbe 87da 5ebe
00000290: 7c9b c6bc 8a19 673b 62ee 65bd 9a39 863d
000002a0: 8379 c13c d7f4 b53c 01b8 233e bab0 833b
000002b0: 15a6 0b3d b614 ebbc 7680 41be 906e a0bc
000002c0: b5ba 32bd 8493 6fbd f008 f3bc fb44 013c
000002d0: fc25 96bd 3c2d 893d 2288 3e3d ee01 463d
000002e0: 1ef6 b93c 5209 1c3d cc71 4ebc f7f2 853c
000002f0: e0bc fcbd 5b9e 4c3c bd3d 5bbe c5bb 81bc
00000300: a177 40bd 75c2 2c3e be2b 17bc 82f1 c93c
00000310: 37fa 2dbd 9963 a536 238a 21bd a0a1 c63a
00000320: f914 32bd 9f2a b5bb 7616 9dbd 319d fb3c
00000330: 0cfb 1dbd 07d5 693d 4797 6fbe 29f7 1abd
00000340: 0750 6dbd d28a 90bd 9367 0bbe f9e1 643c
00000350: 8f27 1e3d 5e6b 1abd 32ca a33c 2d6d e2bd
00000360: 5a37 44bc 47b6 22bc 34de 00bd 073f d3bd
00000370: aa60 e43c 1aee 143b 5b12 8bbd b6d8 0bbd
00000380: 6afd 8cbd db13 aebc 6b27 98bc 5de2 063e
00000390: 2514 25bd 864d 50bc 6e1c 9fbd fb84 61bd
000003a0: 5a0e 193d b9dc 6dbe c156 77bc 82ca 59bd
000003b0: 9ff3 fdbc 8c90 12bc b76b 3cbe c31c 053d
000003c0: b536 3fbe 2263 17bd e40b 96bd 142d 83bd
000003d0: 628f 8a3c b88b 77bd 1c1c 9abd 07d3 14be
000003e0: 5573 5bbd f55d 333c 9378 9ebb 2b28 b3bd
000003f0: 65b0 bbbd e29e 93be 4f4b 313d 3eb8 f6bd
0.028469054 -0.005532157 -0.042376447 0.017315814 -0.060814142 -0.05340656 -0.2174932 -0.112963915
0.03859128 -0.030241381 0.05976566 0.016841952 -0.029512886 -0.06951982 -0.052629177 -0.15548007
0.040032428 -0.09346373 0.16309315 -0.16657999 0.022540266 -0.023467392 0.009429394 -0.015183259
-0.16692536 -0.013896018 0.018983219 0.0013792403 -0.025623156 0.030095203 -0.008982092 -0.00809057
0.0060649975 0.0096988 -0.06917488 -0.0067241406 0.061363317 -0.077110246 -0.31831235 0.008609078
-0.0034931689 0.0050669545 0.050422184 0.15231393 -0.053996474 -0.28390154 -0.015023425 -0.008624911
-0.04527753 -0.041052066 -0.07891804 -0.019168219 0.039434128 0.030707896 -0.003304894 -0.004709214
-0.32489926 -0.02342152 -0.042489994 -0.06418902 0.17010872 -0.0124174645 0.054359943 0.008081985
0.037355226 0.042082362 0.046765406 -0.08387225 0.03255573 -0.020496238 -0.037916332 -0.010286363
-0.018689118 -0.22750373 0.004580727 -0.01675491 0.21614984 -0.04955486 0.15385784 -0.13735186
-0.049414866 0.03994319 -0.0780162 -0.030523043 -0.028280979 -0.026527176 -0.025631009 0.043934904
0.006197067 -0.18527384 -0.115676284 0.037009247 -0.14945209 -0.009756541 -0.16834414 -0.06586287
-0.054308154 0.005884625 -0.05512653 -0.011601712 0.043526698 -0.04757463 -0.012739258 -0.058097698
0.36682647 0.042522423 -0.026428368 0.012297816 0.050189376 0.011427225 0.00081305974 0.030544434
-0.006624977 0.040199775 -0.028257838 -0.03547852 0.06169149 -0.006549586 -0.047534782 -0.06120672
-0.1841976 -0.035865266 0.038984105 0.22645618 0.025361381 -0.021541288 -0.061455015 0.0052674473
-0.031257864 0.03442003 -0.03901812 -0.0026369335 -0.034698516 -0.11615413 0.071822405 0.058604084
-0.0076935436 -0.04039391 -0.13225219 -0.061000988 0.03917136 -0.093229376 -0.008760785 -0.04465228
-0.05190036 -0.06122601 0.007448673 -0.19223404 -0.0470061 -0.03640797 -0.0031908015 -0.21467501
-0.006215832 0.033887744 -0.0027294531 -0.050464228 -0.06447057 -0.061883748 -0.33417803 -0.115501426
-0.006418761 0.018396495 -0.15624578 -0.21763049 -0.024244063 0.0035263025 -0.056135543 0.065539554
0.023617512 0.022211475 0.1598816 0.00401887 0.034093935 -0.0286964 -0.1889666 -0.01958397
-0.04363509 -0.05849029 -0.029667348 0.007889981 -0.07331464 0.06698081 0.046516545 0.048341684
0.022700366 0.038094826 -0.0126003735 0.016351206 -0.123407125 0.012488927 -0.2141027 -0.015836606
-0.046989087 0.16871054 -0.009226738 0.024651293 -0.04247495 4.928978e-06 -0.039438378 0.0015154369
-0.043477032 -0.0055287625 -0.076703 0.030714603 -0.038569495 0.057087924 -0.23397551 -0.037833367
-0.05793765 -0.07057728 -0.13613729 0.013969892 0.038611945 -0.03770005 0.019993875 -0.1105598
-0.0119760875 -0.009931154 -0.03146191 -0.10314756 0.027878124 0.0022724927 -0.067906104 -0.03414222
-0.068842724 -0.021249702 -0.018573483 0.13172288 -0.040302414 -0.0127137955 -0.077690944 -0.05505846
0.037367202 -0.2322873 -0.015096367 -0.053171642 -0.030999957 -0.0089455955 -0.18400465 0.032498132
-0.18673213 -0.036959775 -0.07326487 -0.06405082 0.016914073 -0.06043598 -0.07524893 -0.14533626
-0.053576786 0.010947694 -0.004836151 -0.08747896 -0.09164504 -0.28832155 0.04328471 -0.1204686

Y_net.net.6.weight f4 [256, 256]
00000000: a804 15bd c020 203c 5b88 7d3c 5b3b 613d
00000010: 30ca 88bb 036f 733b 3870 0b3c 37c6 8fbd
00000020: a0a5 acbc 2804 fd3c 4194 463c 3a8f 193d
00000030: 11de e3bb 5efb 03bd 7ff7 87bc c613 153d
00000040: 8a07 be3c 30a5 2bbd 52bb 05bc fec5 173d
00000050: facc 05bd 8eef 8bbd d3e8 953c f216 63bd
00000060: 5269 233d 78b6 66bd 7214 213d f41a 86bd
00000070: 220f b03c b88b baba 6b57 653c 5a78 5a3d
00000080: 26e6 38bd 82d8 1dbc 3cb1 02bd 41aa fe3c
00000090: 66ba ae3c 8218 063d b812 00bd 15ab fa3c
000000a0: c539 5cbb 3a7c 013d 9bcb 18bd 4715 423d
000000b0: 2736 24bd 38e9 37bd 8e1e 303d c466 ecbc
000000c0: 02b3 633d 695d 6ebd 26f1 083d cbe4 28bd
000000d0: efdb 17bd 6c77 1f3d ef0f f1bc 4072 f93a
000000e0: fc02 ce3c 809a 4b3d 788b d3bc d2c9 c2bc
000000f0: 4895 173d e17d 733c 6dbb 6bbd 962c 14bc
00000100: 09bd ecbc 602e d2bb 9490 97bd 5b14 54bd
00000110: 6c45 3dbd 6658 523d 9af1 403d 7a82 12bc
00000120: c532 86bc 0ede 0cbd 1a8a 97bc f5d1 45bd
00000130: d068 113c a88a 133d 4efd 42bc c28b 21bd
00000140: a89a 353d 8e5f f63c 6456 adbc 66ad a43c
00000150: 089f 2f3d 1abd 173d 0169 e8bb e05c 543b
00000160: 170a 423d ea8e 1cbd 6005 4bbd 5e07 76bc
00000170: a864 c23c 5e61 1a3d 8302 9a3c c821 b53c
00000180: ba52 43bd f5cf 16bd 96d6 303d a1b8 1cbd
00000190: 4fe6 e53c b36f 42bd 34bc 3dbd 5f59 613d
000001a0: 1c5f 31bd 44b7 8e3d 2263 313b ca02 583d
000001b0: 24ec dcbc 60d6 b63c 2bd6 98bc 3965 403d
000001c0: 7d41 13bd b3b6 73bd c7ab 233b e2e9 393d
000001d0: d149 4fbc f07a 733c 0ada 94bc c0d3 333b
000001e0: 9a84 3abd e794 3c3c ec4f 453d 83aa 70bd
000001f0: 7b01 fc3c 7d77 d8bc c891 76bc 79a6 0fbd
00000200: e807 64bc dd4f 603c 7660 70bd f7b6 41bd
00000210: ed60 573c 31e1 babc 36be 7a3a a1ff f2b8
00000220: e845 79bc 5e92 62bd 0e45 e73c 3f18 5a3c
00000230: d6d0 75bd 9858 4b3d 8789 94bd 25e6 023d
00000240: f5db 07bd 3968 2b3b 2052 2dbc 6ae7 723c
00000250: ac39 20bd 347c 393d 5dd3 d4bb 7769 cabc
00000260: 906e 4cbc 0a88 13bd fab3 9c3d e96c 21bc
00000270: ca21 2e3d fd8d 413d abfc 7a3d fd91 0cbd
00000280: 709b 16bc 2265 29bd 4a6c 0d3d 401d e1bb
00000290: a6cf 0ebb 4c3a d73c 9e94 3f3d fd14 863c
000002a0: 12a8 02bd 9834 283d 05f7 30bc 9bf2 1ebd
000002b0: 7b9a 833d 1e30 5b3d 7417 34bd 3c15 2cbd
000002c0: 884e 413d 5907 bc3b 8484 983c a92c d1bb
000002d0: 2c23 85bd 9fdb 423d 2eda 453d 5413 38bd
000002e0: 6491 35bd 8c9f 2c3d 0768 663b 5cfd 81bd
000002f0: ce2f 573b 33c9 91bc d9a2 cdbc 2ff8 273d
00000300: 6208 6fbb 3bba b13c 95cf ddbc c64c 133d
00000310: 1686 ac3c 39a1 46bc 45ee 003d a375 bebc
00000320: 06fc 14bd a487 89bb 65f4 2a3c bd38 99bc
00000330: e082 7cbd 39dd 95bc 6060 843c 62ca 613d
00000340: 4433 543a d9b2 75bb 248e 8abb 8594 4b3c
00000350: a1be b13c e2cc 11bd fbaa c1bc c0ad 173d
00000360: 63ba 643c e1f8 a63c 0c8f 6b3d 2a74 17bd
00000370: 8eb4 23bd ae5a 59bd c1d5 76bc 1fd7 4abd
00000380: d8a6 60bc 5882 36bc b1f6 84bd a581 1c3a
00000390: b234 88bd 501d 0bbb 3c82 063c 730c 5c3d
000003a0: 82ee 06bd f5c5 c73c 2bef 2b3c 6248 97bc
000003b0: 0e9a 2a3d 5860 af3c e4de 0d3c 1cab d3bc
000003c0: b582 05bd 6e30 74bd 5772 dcbc 1960 ed3c
000003d0: 6f66 cebc fa29 07bd 1bfa 863d 3311 48bd
000003e0: 715b 2d3c cb50 b53c 31b7 f73b 7cfe 48bd
000003f0: 487e 683c 8c8b a43c f127 5dbc 2ba1 b9bc
-0.036381394 0.009773433 0.015474404 0.054988246 -0.0041744933 0.0037145026 0.008510642 -0.07020228
-0.02107507 0.03088577 0.012120307 0.037490107 -0.0069539626 -0.032222144 -0.016597508 0.03639581
0.023196954 -0.041905582 -0.008162336 0.037054054 -0.032666184 -0.06832801 0.018299496 -0.055441804
0.039895363 -0.05632636 0.03932614 -0.0654811 0.02149159 -0.0014232313 0.013997893 0.053337432
-0.04514136 -0.009634139 -0.031907305 0.031087043 0.021329116 0.032738216 -0.03126785 0.030599156
-0.003360377 0.031612612 -0.03730355 0.047383573 -0.040090706 -0.04490015 0.04299789 -0.028857596
0.055590637 -0.05819455 0.033433102 -0.04123382 -0.03707498 0.03893225 -0.029426543 0.0019031242
0.025147907 0.04970789 -0.02582334 -0.023777876 0.0370076 0.014861555 -0.05755179 -0.009043833
-0.028898733 -0.0064142197 -0.07400623 -0.051777225 -0.046208784 0.051353835 0.04710541 -0.008942241
-0.01638163 -0.034391455 -0.01849847 -0.048295934 0.008875087 0.036020905 -0.011901213 -0.039439924
0.044336945 0.03007486 -0.021159358 0.020102214 0.042876273 0.037045576 -0.0070925956 0.003240399
0.047372904 -0.03822223 -0.049565673 -0.015016405 0.023729637 0.037690513 0.018800026 0.022110835
-0.047686316 -0.036819417 0.043173395 -0.038262013 0.028063921 -0.047469806 -0.046322063 0.05501687
-0.043303594 0.06968549 0.0027067144 0.052737035 -0.02696807 0.022319019 -0.01865681 0.046971533
-0.035951126 -0.059500407 0.0024974213 0.045389064 -0.012651877 0.014860854 -0.018170375 0.0027439445
-0.045536615 0.01151011 0.048171923 -0.058756363 0.030762425 -0.026424164 -0.015049405 -0.03507087
-0.013917901 0.013690916 -0.058685742 -0.04729363 0.0131456675 -0.022812458 0.0009565087 -0.00011587074
-0.015214421 -0.055315368 0.02823117 0.013311445 -0.060013615 0.049645036 -0.07252794 0.031957764
-0.03316875 0.002615465 -0.010578662 0.014825681 -0.0391175 0.045284465 -0.006494923 -0.024708493
-0.012477532 -0.03601841 0.07651515 -0.009852626 0.042512693 0.04725455 0.06127612 -0.034318913
-0.009192333 -0.041356213 0.0345271 -0.006869942 -0.0021791249 0.026272915 0.04677259 0.01636743
-0.031898566 0.041065782 -0.010801082 -0.038805585 0.06425949 0.053512685 -0.04396768 -0.04201244
0.047194034 0.0057381806 0.018617876 -0.0063834977 -0.06500849 0.04757273 0.048303775 -0.044940308
-0.04432811 0.042144343 0.003515722 -0.063471526 0.003283489 -0.017796135 -0.025102066 0.04100817
-0.0036473502 0.021695247 -0.027076522 0.03596189 0.02106003 -0.012123399 0.03147723 -0.023249453
-0.03637316 -0.004197078 0.010434245 -0.018703813 -0.06164825 -0.018293964 0.016159236 0.055124648
0.00080947974 -0.0037490635 -0.0042283703 0.012425547 0.021697344 -0.035595782 -0.0236411 0.037030935
0.013960454 0.020382347 0.057509467 -0.036976017 -0.039967112 -0.053064995 -0.015065611 -0.04952156
-0.013711654 -0.011139475 -0.06492365 0.0005970246 -0.06650676 -0.0021227188 0.008209761 0.05372281
-0.032942303 0.024386385 0.010494034 -0.018467132 0.041650824 0.021408245 0.008659098 -0.025838427
-0.032595355 -0.0596165 -0.02690999 0.028976487 -0.025195329 -0.032999016 0.065906726 -0.048844527
0.010580883 0.022133252 0.00755968 -0.04907082 0.014190264 0.020086072 -0.013498292 -0.022659859
