saved/almgren_FC_ReLU/model.pth (torch, 799525 bytes, 9 tensors)

Y_net.net.0.weight f4 [256, 4]
-0.23670997 0.05876303 -0.21208318 0.19366683 -0.20516331 -0.4335619 0.08489276 -0.029175656
0.14764906 0.037836343 -0.49262226 0.5452377 -0.19165073 -0.43079513 0.08730432 -0.3491826
0.38028067 0.2127546 0.48557273 -0.5422575 0.28539425 0.16620764 0.2225928 -0.48227623
-0.28932422 -0.2711732 -0.24832244 -0.12267617 0.21873465 0.18330938 0.055263873 -0.5697493
0.4618158 0.12706606 -0.06250963 -0.0330761 -0.42329854 -0.30961084 0.33038467 -0.19409564
0.04107915 -0.1281769 -0.20155002 -0.15526706 -0.27157843 -0.33134913 0.041525885 0.0332184
0.065995924 -0.20299532 -0.27353045 0.13351555 -0.1580458 -0.001296647 0.5048424 0.4606346
-0.27307692 0.3544686 0.4392945 0.31894332 0.19128707 0.28116497 0.26591486 -0.07778806
-0.1422518 0.46773133 -0.2763092 -0.43336555 0.4712233 -0.3024813 -0.41631663 -0.37772548
-0.19383281 0.20478706 -0.36737335 -0.3785162 0.3210457 -0.3708523 -0.017626122 0.3152072
0.2997184 0.15187863 -0.25319403 0.35925803 0.20632093 -0.021672785 -0.3127036 0.3316765
-0.03243026 0.33252928 -0.42519248 0.28810623 -0.18315347 0.44303206 0.20014237 -0.3620814
-0.25334382 0.1578189 0.041293878 0.3577562 -0.04046219 -0.41793618 -0.25221428 0.27181616
-0.06862765 -0.43740106 -0.27060893 0.09524027 0.4738568 0.17321718 -0.18522249 0.014234035
-0.5014267 -0.12326661 0.011172776 -0.46470812 0.4125326 0.39197657 0.36984065 0.27380368
0.26358515 -0.20308304 0.43551207 0.0023976492 0.14623854 0.43024498 -0.014160218 -0.5280103
-0.30273733 0.38161406 -0.21815036 -0.20337306 0.106367685 0.0014859252 0.08966483 -0.26456589
0.37172627 -0.4939085 -0.34317586 -0.2456793 -0.014633443 -0.33610737 -0.37607807 -0.006211165
-0.060164407 0.35452548 -0.120727465 0.07303735 0.07678187 0.14621502 -0.45800677 -0.31594574
0.41573036 0.14407572 0.47799432 0.04884116 -0.5717723 -0.01140459 -0.13095947 0.111947276
-0.009146517 0.42311844 -0.4033457 -0.5243351 -0.47510713 -0.20979774 0.12939978 0.026893139
-0.088161476 0.42566276 0.11983893 -0.30850965 -0.07420745 -0.08827976 -0.4741465 -0.09749891
0.5418087 0.20819479 -0.33005998 -0.03701524 -0.019130658 0.4621937 0.18294083 0.16857722
0.5227747 0.024740154 0.010733286 -0.36814496 -0.1682313 0.1892268 0.21557541 -0.1034784
-0.00071460346 -0.42899668 -0.28842017 0.15800291 0.0073547326 -0.029379977 -0.44543695 -0.04139546
-0.14014514 0.3613841 0.42732656 -0.32490912 0.11155184 0.28741068 0.2694093 0.20843229
-0.41507927 -0.43799803 0.20029567 0.35731918 0.041982416 -0.1770807 -0.28139013 0.17513774
0.19961622 -0.06531689 0.1545422 -0.27882397 0.36529055 0.03561557 -0.16124435 -0.48630285
0.16662417 0.3594163 -0.16130444 0.28017095 -0.36832187 -0.11121022 0.12417554 -0.49422684
-0.17180902 -0.1456636 0.37236267 0.38034073 0.48545915 0.29730237 -0.24349931 -0.052755307
0.25913435 0.20917735 -0.4266113 0.036051173 -0.17124978 -0.36619654 0.07424713 -0.08178443
0.015801197 -0.030754598 -0.2865736 0.065653995 0.13329493 0.16311724 0.36954787 -0.130125
00000000: 1964 72be 81b1 703d 552c 59be 9950 463e
00000010: 5516 52be d3fb ddbe 41dc ad3d c901 efbc
00000020: 5131 173e 48fa 1a3d fc38 fcbe b394 0b3f
00000030: 1740 44be 2e91 dcbe 9bcc b23d 10c8 b2be
00000040: 26b4 c23e 58dc 593e fd9c f83e 63d1 0abf
00000050: 321f 923e 5632 2a3e 5eef 633e e9ec f6be
00000060: 4e22 94be 37d7 8abe 3d48 7ebe a53d fbbd
00000070: fafb 5f3e 74b5 3b3e 5f5c 623d 17db 11bf
00000080: 1f73 ec3e 9b1d 023e 0d05 80bd ce7a 07bd
00000090: 96ba d8be 5085 9ebe 2e28 a93e 02c1 46be
000000a0: 9c42 283d ce40 03be 2163 4ebe 54fe 1ebe
000000b0: 540c 8bbe 98a6 a9be 0c17 2a3d 0410 083d
000000c0: df28 873d 01de 4fbe 2f0c 8cbe 4db8 083e
000000d0: c2d6 21be 41f4 a9ba 5a3d 013f 4cd8 eb3e
000000e0: bdd0 8bbe e97c b53e 35eb e03e 8a4c a33e
000000f0: c2e0 433e dbf4 8f3e fe25 883e 594f 9fbd
00000100: 75aa 11be 7b7a ef3e 6678 8dbe 17e2 ddbe
00000110: 2e44 f13e d4de 9abe 7427 d5be 3c65 c1be
00000120: 1c7c 46be b3b3 513e 5c18 bcbe e0cc c1be
00000130: 1a60 a43e 5ae0 bdbe a864 90bc d762 a13e
00000140: b174 993e 1286 1b3e a6a2 81be abf0 b73e
00000150: cb45 533e 208b b1bc b01a a0be 81d1 a93e
00000160: 98d5 04bd 4741 aa3e d4b2 d9be a982 933e
00000170: 958c 3bbe 19d5 e23e 1ff2 4c3e bc62 b9be
00000180: 48b6 81be 479b 213e c523 293d d22b b73e
00000190: aebb 25bd bbfb d5be 3b22 81be 7d2b 8b3e
000001a0: a78c 8cbd 08f3 dfbe 418d 8abe 550d c33d
000001b0: 5c9d f23e d85f 313e f7aa 3dbe df35 693c
000001c0: 805d 00bf 3473 fcbd 050e 373c 39ee edbe
000001d0: 7937 d33e 27b1 c83e c15b bd3e ff2f 8c3e
000001e0: a2f4 863e 00f5 4fbe 70fb de3e e121 1d3b
000001f0: 8ebf 153e 1249 dc3e 4200 68bc af2b 07bf
00000200: 6300 9bbe eb62 c33e cf62 5fbe 0741 50be
00000210: 4dd7 d93d 60c3 c23a 32a2 b73d 2e75 87be
00000220: e852 be3e 93e1 fcbe bfb4 afbe 5b93 7bbe
00000230: 1cc1 6fbc 4416 acbe 4e8d c0be 0787 cbbb
00000240: f46e 76bd 5d84 b53e f63f f7bd 9b94 953d
00000250: d03f 9d3d 64b9 153e dd7f eabe a4c3 a1be
00000260: 9cda d43e 9688 133e acbb f43e ab0d 483d
00000270: ab5f 12bf 51da 3abc 3d1a 06be 9d44 e53d
00000280: 46db 15bc fba2 d83e 5483 cebe d33a 06bf
00000290: 3e41 f3be 38d5 56be 6081 043e 004f dc3c
000002a0: 018e b4bd 78f0 d93e 1d6e f53d faf4 9dbe
000002b0: 13fa 97bd 05cc b4bd 54c3 f2be 82ad c7bd
000002c0: fab3 0a3f 0431 553e 9ffd a8be 4b9d 17bd
000002d0: e6b7 9cbc a7a4 ec3e d754 3b3e 829f 2c3e
000002e0: 90d4 053f ddab ca3c aada 2f3c 7f7d bcbe
000002f0: d344 2cbe acc4 413e cdbf 5c3e 7cec d3bd
00000300: 3a54 3bba 74a5 dbbe cfab 93be 84cb 213e
00000310: f8ff f03b 47ae f0bc 5010 e4be 498e 29bd
00000320: 3582 0fbe 5607 b93e 8cca da3e 7d5a a6be
00000330: 4b75 e43d 7e27 933e 04f0 893e 466f 553e
00000340: 4585 d4be 4741 e0be 4f1a 4d3e 8af2 b63e
00000350: c1f5 2b3d a554 35be 5e12 90be 4f57 333e
00000360: 3268 4c3e ddc4 85bd 4f40 1e3e 04c2 8ebe
00000370: 5d07 bb3e a2e1 113d 3d1d 25be b0fc f8be
00000380: 879f 2a3e 6a05 b83e fe2c 25be 9172 8f3e
00000390: af94 bcbe 2fc2 e3bd bf4f fe3d 4d0b fdbe
000003a0: b4ee 2fbe d728 15be 52a6 be3e 05bc c23e
000003b0: 1a8e f83e 0438 983e e257 79be f315 58bd
000003c0: 42ad 843e 9632 563e cc6c dabe 65aa 133d
000003d0: 1a5c 2fbe 1d7e bbbe e10e 983d 987e a7bd
000003e0: 8371 813c 11f1 fbbc c6b9 92be 9a75 863d
000003f0: 777e 083e 3508 273e 6135 bd3e 7d3f 05be

Y_net.net.0.bias f4 [256]
-0.17705603 -0.31109434 0.38106588 -0.16084237 0.18550424 0.06560821 -0.26486158 0.28704494
-0.38684887 0.26674908 -0.020526106 -0.14227267 -0.15292698 0.29673716 0.040917303 -0.3909704
0.20127536 -0.10206914 0.38752577 -0.07132664 0.24077286 0.45249358 0.097036205 0.07807289
0.37258685 -0.067337535 -0.16675197 -0.30066204 -0.2202263 -0.48693797 -0.17163269 -0.420846
0.32376266 0.20035662 0.18114391 0.23408408 0.25213096 0.124261655 -0.452248 0.39986983
-0.012948729 -0.3898422 0.20870142 -0.084530994 0.40512267 0.12695822 -0.20756909 0.4759643
0.34246936 -0.17452551 0.3794931 0.11177276 -0.12881854 0.41289493 -0.09147923 0.28840706
-0.12735021 -0.49031174 -0.44076255 0.2792378 -0.4150302 -0.091254994 0.15426195 -0.501276
-0.12651265 0.40091473 -0.5241975 0.3105298 0.09393915 -0.271601 0.11003009 0.16343674
0.38346747 -0.22498898 0.24016249 -0.45089334 0.34986165 0.4976751 -0.12009068 0.21143635
0.3895432 -0.012064668 0.34646353 0.0017600708 0.3233408 -0.12799455 0.4859226 -0.44927868
-0.45948774 0.43811974 -0.3368847 -0.3287192 -0.44776326 0.32647046 0.44981295 0.47684702
-0.35661325 0.2844349 -0.42241806 -0.2669018 -0.10638196 -0.16589928 0.14858349 0.0037354361
0.19410677 0.05547521 0.38603875 0.042584952 -0.21861422 0.45602965 -0.17754923 0.5003026
0.2790649 -0.18275917 -0.08902561 0.21707354 0.41286758 0.40435633 0.0025158285 0.0018127641
-0.15993613 0.22477618 -0.4017552 0.31453845 -0.45067215 0.15783787 0.29365283 -0.48418143
-0.3503042 -0.1568761 0.1468054 0.462369 0.111569695 -0.094463296 -0.06299064 -0.48753637
0.35347593 0.24041991 -0.22453927 -0.32017177 -0.48407525 0.085463986 0.46081638 0.35923764
-0.11506295 -0.21058743 0.1189488 0.0075491862 -0.3309807 -0.39490965 -0.05543767 -0.22503734
0.009736915 -0.46920466 -0.4034276 0.08049096 0.48137847 0.2945496 0.5034409 -0.07832249
-0.19677371 0.007641753 -0.10622313 0.3444969 -0.03988033 -0.012403517 -0.4561925 0.25722483
0.1686328 -0.11301813 0.34234124 -0.2577803 -0.15140451 0.30436954 -0.35317826 0.2520192
-0.068194866 -0.38105255 0.44921032 0.3159524 -0.06554898 -0.07987876 0.03681538 -0.0024656653
-0.14586857 0.464139 -0.34766516 0.33096337 -0.28413746 -0.1528535 0.31773394 0.48644716
0.26832163 0.002060868 -0.2653492 0.2710692 0.10650596 -0.4308005 -0.26125208 0.19329372
-0.266405 0.14892197 -0.25762236 -0.3177187 -0.42507112 -0.24106748 0.40785697 -0.39396495
-0.28257477 -0.2735067 0.46974364 0.0987737 -0.23184487 -0.23495087 0.026724074 -0.1892044
-0.46199182 -0.2501702 0.35468805 -0.36257055 -0.0676462 -0.42864013 0.033771757 -0.19676156
-0.26181364 0.12590636 0.33965024 -0.42574856 -0.47011122 -0.15328951 0.432805 -0.34086433
-0.38613826 -0.10393008 -0.028878294 -0.42564678 0.22071555 0.43560153 0.072950915 -0.21259308
-0.45763946 -0.092735104 0.14310943 0.06530088 0.4137001 -0.17745773 -0.3799057 -0.36801344
0.42502344 0.25639847 0.3904979 -0.12851384 0.13917528 -0.16706827 -0.3976586 0.26430398
00000000: 2d4e 35be c247 9fbe 111b c33e ddb3 24be
00000010: d3f4 3d3e 995d 863d f09b 87be 8ef7 923e
00000020: 0e11 c6be 5693 883e 5d26 a8bc edaf 11be
00000030: e498 1cbe efed 973e e798 273d 462d c8be
00000040: 211b 4e3e a009 d1bd c769 c63e b413 92bd
00000050: 298d 763e 3dad e73e ebba c63d aee4 9f3d
00000060: b4c3 be3e 43e8 89bd 07c1 2abe 60f0 99be
00000070: 0183 61be ef4f f9be 7bc0 2fbe 2079 d7be
00000080: 38c4 a53e 492a 4d3e ca7d 393e bdb3 6f3e
00000090: 4f17 813e e57c fe3d 0d8d e7be bdbb cc3e
000000a0: e826 54bc 6699 c7be d3b5 553e 961e adbd
000000b0: 3d6c cf3e 5601 023e fe8c 54be 98b1 f33e
000000c0: 2558 af3e d1b6 32be eb4c c23e 1ee9 e43d
000000d0: 02e9 03be f766 d33e 7659 bbbd 17aa 933e
000000e0: 1868 02be 240a fbbe a1ab e1be 42f8 8e3e
000000f0: d77e d4be e6e3 babd d8f6 1d3e a053 00bf
00000100: 888c 01be b244 cd3e cf31 06bf c3fd 9e3e
00000110: 2b63 c03d 490f 8bbe 7557 e13d f65b 273e
00000120: d955 c43e 8363 66be 28ed 753e 7edb e6be
00000130: 1121 b33e 45cf fe3e 1af2 f5bd c582 583e
00000140: 3572 c73e e3aa 45bc ab63 b13e 2db2 e63a
00000150: ed8c a53e 0111 03be d9ca f83e db07 e6be
00000160: fa41 ebbe 3b51 e03e 277c acbe e24d a8be
00000170: 3a41 e5be 2327 a73e e24d e63e 4b25 f43e
00000180: 0396 b6be 74a1 913e 2e47 d8be 5aa7 88be
00000190: c9de d9bd 80e1 29be 4526 183e 38ce 743b
000001a0: edc3 463e f939 633d dfa6 c53e 8f6d 2e3d
000001b0: 68dc 5fbe b87c e93e 77cf 35be d513 003f
000001c0: 98e1 8e3e 3825 3bbe 0f53 b6bd 8748 5e3e
000001d0: 6163 d33e cb07 cf3e 99e0 243b 459a ed3a
000001e0: 4cc6 23be ba2b 663e dcb2 cdbe 2f0b a13e
000001f0: 80be e6be 40a0 213e aa59 963e a1e6 f7be
00000200: 125b b3be 21a4 20be 2854 163e a1bb ec3e
00000210: a77e e43d f975 c1bd 3d01 81bd 5e9e f9be
00000220: ccfa b43e a330 763e 9fed 65be 8eed a3be
00000230: b6d8 f7be be07 af3d 20f0 eb3e ffed b73e
00000240: 20a6 ebbd 3ba4 57be 6e9b f33d 2a5f f73b
00000250: 4d76 a9be 9931 cabe 9c12 63bd 3070 66be
00000260: 9587 1f3c 983b f0be 108e cebe 72d8 a43d
00000270: 3d77 f63e 35cf 963e 81e1 003f 8b67 a0bd
00000280: 0c7f 49be ac67 fa3b 838b d9bd e661 b03e
00000290: 8f59 23bd 1f38 4bbc 1092 e9be f9b2 833e
000002a0: 14ae 2c3e 0d76 e7bd 5a47 af3e c8fb 83be
000002b0: c909 1bbe 53d6 9b3e c8d3 b4be a908 813e
000002c0: c0a9 8bbd 5219 c3be e5fe e53e 83c4 a13e
000002d0: 8b3e 86bd 7a97 a3bd b9cb 163d 0097 21bb
000002e0: 925e 15be a1a3 ed3e 2b01 b2be 0874 a93e
000002f0: 777a 91be a185 1cbe 06ae a23e 9a0f f93e
00000300: 7461 893e a10f 073b dadb 87be 95c9 8a3e
00000310: cc1f da3d e291 dcbe d5c2 85be caee 453e
00000320: 3c66 88be 007f 183e 14e7 83be 07ac a2be
00000330: eca2 d9be 65da 76be a1d2 d03e c6b5 c9be
00000340: a4ad 90be 1209 8cbe 3d82 f03e de49 ca3d
00000350: be68 6dbe f696 70be 72ec da3c ccbe 41be
00000360: 318a ecbe 4f16 80be ac99 b53e d9a2 b9be
00000370: 178a 8abd b876 dbbe 4154 0a3d dd7b 49be
00000380: 700c 86be 99ed 003e a3e6 ad3e b7fb d9be
00000390: 6bb2 f0be edf7 1cbe 9e98 dd3e c585 aebe
000003a0: eab3 c5be 4bd9 d4bd 2c92 ecbc 60ee d9be
000003b0: 4203 623e 2a07 df3e 4a67 953d 00b2 59be
000003c0: b84f eabe e7eb bdbd 478b 123e 78bc 853d
000003d0: 80d0 d33e 7bb7 35be 0083 c2be 426c bcbe
000003e0: ac9c d93e a946 833e 57ef c73e 2299 03be
000003f0: f783 0e3e f213 2bbe e899 cbbe da52 873e

Y_net.net.2.weight f4 [256, 256]
0.060240686 0.01818789 -0.06887965 -0.015726136 -0.05062033 -0.0282452 0.008902148 -0.024659745
0.010334254 0.06697708 -0.024838297 0.010707059 -0.0035701457 0.058082845 -0.030468361 0.012209008
-0.048541557 0.033011694 -0.020005632 -0.0363986 0.009126754 0.0058382917 0.039653733 0.0641177
-0.0155094 0.052429844 -0.03535394 -0.04775273 0.025418537 -0.010202839 -0.01820566 0.06750128
-0.005849342 -0.02229692 -0.01108879 0.0074497745 -0.013785657 -0.0020391385 -0.046112817 0.025253087
0.042457115 -0.05888337 0.058674842 0.029842105 0.024562558 0.02825752 -0.03798464 0.014351042
0.00014813292 -0.06778233 0.06680075 0.055583585 -0.03767006 -0.03896574 -0.022907615 -0.0051002167
-0.030902542 -0.029853635 -0.0075494414 0.010311643 0.06575528 -0.0020829395 -0.05037401 0.005456817
-0.02315993 -0.015417048 0.05801058 -0.049260058 -0.046656918 0.03899538 0.03078782 -0.0047230846
0.005563046 -0.048883982 -0.019200152 -0.02340246 -0.03907752 -0.017526783 0.061255183 0.015792057
0.0726462 -0.052573733 0.011801453 -0.023160076 0.021520307 -0.03226499 -0.026112443 -0.021677082
0.02597545 0.023130499 0.056161616 -0.012728749 -0.030106142 0.03265871 -0.0072230273 -0.023893213
0.043384966 0.031750344 0.07990245 0.0143979695 -0.0244598 -0.00102795 -0.04124454 0.040399205
0.048159614 0.03577202 0.046379127 -0.029119536 0.020178638 -0.036366682 0.014132084 0.049514383
0.06841003 0.00206743 -0.04150921 0.036894374 -0.019026157 -0.024386963 0.018056214 0.04364012
0.069345996 0.042782117 0.051278517 0.02475428 0.007375799 0.033276603 -0.0022018412 0.016693855
0.032251246 0.038820285 0.051804837 -0.03786848 0.024513362 0.019595956 -0.0016217921 0.040030215
-0.015355065 0.012326753 0.007129413 -0.04534448 0.025167868 -0.06962496 -0.051889174 0.063342065
0.030741746 0.020320348 -0.043205548 -0.010476945 -0.023427138 0.024015876 -0.04501869 -0.001192902
0.026491065 0.060388524 0.06799828 0.04263596 0.0812061 0.05231661 0.027261293 0.014847152
0.0044759642 0.011431609 -0.0021034174 -0.0017057075 -0.00893724 -0.1387111 0.04151445 -0.035617653
0.058778733 0.04449436 0.06736553 0.05859196 0.0027239507 0.055954713 0.03688311 0.0399377
0.06635183 -0.019562325 0.020556653 0.056565177 -0.011664938 0.060173593 0.025516488 -0.05182279
0.007422896 0.056488425 0.015165177 0.037665278 0.02213594 -0.06297393 0.03950975 0.03186261
0.054351836 0.01298855 0.016580015 0.012174197 -0.023932962 0.028395582 0.00034874195 -0.0076126545
0.009792995 -0.007621465 -0.041894805 0.05918351 0.031367466 0.06448045 0.035305873 -0.04290251
-0.044962727 0.088961065 -0.061440747 0.0010371835 0.033657018 0.02886451 -0.009509629 -0.046322044
-0.05025746 0.052651774 0.042547025 0.02564074 0.065122075 -0.0234332 -0.006468487 -0.0058913454
-0.016838616 0.038925063 0.017601984 -0.013920392 0.038965903 -0.011877598 0.05888139 0.004357905
0.014201566 -0.045223843 0.016026003 0.05468645 -0.030201009 -0.018303894 0.019947486 -0.039422456
-0.020361476 0.058870967 -0.021262072 0.041099265 0.022352163 0.060326375 -0.01829587 -0.013995037
0.06445318 -0.03551398 0.05324037 0.010799063 0.039652713 -0.044360645 0.065544605 0.013037559
00000000: f0be 763d c5fe 943c c610 8dbd 19d4 80bc
00000010: 4357 4fbd 7a62 e7bc 51da 113c 3c03 cabc
00000020: 0151 293c 482b 893d af79 cbbc a96c 2f3c
00000030: 1bf9 69bb 47e8 6d3d c998 f9bc 4b08 483c
00000040: 83d3 46bd 4537 073d dae2 a3bc b316 15bd
00000050: 6188 153c 244f bf3b f46b 223d 2450 833d
00000060: 231b 7ebc adc0 563d 4bcf 10bd 5e98 43bd
00000070: 893a d03c cf29 27bc 0924 95bc 1c3e 8a3d
00000080: d6ab bfbb 08a8 b6bc c2ad 35bc 3d1d f43b
00000090: 3cdd 61bc 11a3 05bb cbe0 3cbd 90df ce3c
000000a0: 83e7 2d3d b02f 71bd 0855 703d 6e77 f43c
000000b0: 6b37 c93c 517c e73c c895 1bbd a220 6b3c
000000c0: 2154 1b39 76d1 8abd d5ce 883d 9dab 633d
000000d0: ec4b 1abd 8a9a 1fbd c0a8 bbbc b81f a7bb
000000e0: 5427 fdbc 9c8f f4bc 4e61 f7bb 2af2 283c
000000f0: b4aa 863d ed81 08bb fa54 4ebd 19cf b23b
00000100: e5b9 bdbc c997 7cbc 809c 6d3d eac4 49bd
00000110: 531b 3fbd 9fb9 1f3d bd36 fc3c 1bc4 9abb
00000120: 364a b63b 923a 48bd a349 9dbc 84b6 bfbc
00000130: c00f 20bd 5494 8fbc b7e6 7a3d 585e 813c
00000140: 88c7 943d 8e57 57bd e25a 413c 33ba bdbc
00000150: 5b4b b03c 4b28 04bd c3e9 d5bc 2394 b1bc
00000160: 78ca d43c 2c7c bd3c b909 663d 3e8c 50bc
00000170: 28a1 f6bc 24c5 053d 25af ecbb b3bb c3bc
00000180: 6fb4 313d a60c 023d e5a3 a33d 76e5 6b3c
00000190: eb5f c8bc 47bc 86ba 09f0 28bd a379 253d
000001a0: 0443 453d af85 123d 0af8 3d3d 188c eebc
000001b0: ac4d a53c 3bf5 14bd 428a 673c 98cf 4a3d
000001c0: 8f1a 8c3d b87d 073b 9005 2abd 8e1e 173d
000001d0: bedc 9bbc 2bc7 c7bc a0ea 933c fcbf 323d
000001e0: 4605 8e3d 4d3c 2f3d 6c09 523d 7dc9 ca3c
000001f0: b0b0 f13b 0c4d 083d c44c 10bb 8dc1 883c
00000200: e219 043d 0502 1f3d 4f31 543d fb1b 1bbd
00000210: 3fd0 c83c b387 a03c 5092 d4ba b9f6 233d
00000220: d093 7bbc 26f6 493c da9d e93b 22bb 39bd
00000230: d82c ce3c 8897 8ebd be89 54bd 7cb9 813d
00000240: 1dd6 fb3c dc76 a63c 4df8 30bd 7ea7 2bbc
00000250: 45ea bfbc f1bc c43c 8565 38bd 265b 9cba
00000260: ca03 d93c f559 773d af42 8b3d 0ba3 2e3d
00000270: 624f a63d f149 563d 1353 df3c 7841 733c
00000280: 1cab 923b a54b 3b3c 7dd9 09bb 0c92 dfba
00000290: 806d 12bc 480a 0ebe 0e0b 2a3d d1e3 11bd
000002a0: f8c1 703d b83f 363d f0f6 893d 20fe 6f3d
000002b0: 4f84 323b c530 653d be12 173d b795 233d
000002c0: 78e3 873d 2b41 a0bc 6d66 a83c e3b0 673d
000002d0: 4c1e 3fbc 9678 763d f407 d13c 2244 54bd
000002e0: c43b f33b 6860 673d 5d77 783c e846 1a3d
000002f0: 6e56 b53c 7af8 80bd fad4 213d 5e82 023d
00000300: 08a0 5e3d edcd 543c d0d2 873c 4876 473c
00000310: 0f0f c4bc da9d e83c 5ad7 b639 9373 f9bb
00000320: cc72 203c 7bbd f9bb e399 2bbd 686a 723d
00000330: 2c7b 003d 530e 843d e49c 103d 8bba 2fbd
00000340: d62a 38bd 3831 b63d 4ba9 7bbd 1af2 873a
00000350: f1db 093d 4475 ec3c 46ce 1bbc 2fbc 3dbd
00000360: c4da 4dbd 63a9 573d ca45 2e3d 870c d23c
00000370: b95e 853d fbf6 bfbc 9af5 d3bb 300c c1bb
00000380: 23f1 89bc e36f 1f3d 0932 903c 5b12 64bc
00000390: b69a 1f3d 429a 42bc 9d2d 713d c2cc 8e3b
000003a0: afad 683c a33c 39bd f748 833c e6fe 5f3d
000003b0: 1b68 f7bc 0cf2 95bc e968 a33c 7179 21bd
000003c0: 1ccd a6bc af22 713d cc2d aebc b457 283d
000003d0: e21b b73c ca18 773d 38e1 95bc 714b 65bc
000003e0: 0700 843d 1b77 11bd 9312 5a3d 8eee 303c
000003f0: e26a 223d 82b3 35bd 403c 863d 7c9b 553c

Y_net.net.2.bias f4 [256]
-0.049612936 -0.073346265 -0.028703768 -0.04351896 0.041263714 -0.047499277 0.034033295 0.026756905
0.06184704 0.07090413 0.019535875 0.05883811 0.027927455 0.028054567 0.026137806 0.022951016
-0.0029439712 0.02858875 -0.0486641 -0.04530067 0.009041517 -0.075639024 -0.015746502 0.014063255
0.038390603 -0.02115172 -0.02363409 0.0357823 -0.050851107 0.022132983 0.07455288 -0.036363296
-0.042528868 0.0060072765 -0.011575003 -0.043472257 -0.004051078 0.03648726 0.021311421 0.04792645
-0.010187958 -0.013066899 -0.050511282 -0.037553344 -0.022154827 0.017927552 0.030356126 -0.0005540519
-0.045130253 -0.02191393 0.015540694 -0.041048676 -0.012220499 -0.037272852 -0.021272806 -0.044492308
-0.0280946 0.03977323 -0.009551613 -0.012462427 0.049587827 0.014938171 -0.013060652 0.04572241
0.002396938 -0.046808932 -0.06319458 0.046433944 -0.022386573 -0.06671133 -0.058676142 -0.04156164
-0.07518062 -0.04064841 0.029813938 -0.0026054287 -0.05186615 -0.012686488 -0.00014550664 -0.015011392
-0.02994273 -0.051163673 -0.0523717 -0.031339377 -0.027379014 0.030076424 -0.05556867 -0.0009008108
0.022808645 0.016768033 0.048765346 -0.010447744 -0.015098814 0.04126593 -0.07105917 -0.07101675
-0.07353704 0.10381771 -0.014681096 -0.010531016 -0.0069036554 -0.037927642 0.022285858 -0.007839247
0.02204145 -0.08083871 -0.054725964 0.09323629 -0.0065521467 0.004730203 0.03598024 -0.034679417
-0.0064298133 0.040827308 0.02324891 -0.04377252 0.023957962 0.005904682 -0.080363244 0.041462414
0.021240922 -0.04815485 -0.031032765 0.0033807228 -0.03544189 0.01482469 -0.026004266 0.0897709
-0.0015572358 0.0060524363 -0.0037899713 0.03343042 -0.006031539 -0.060376015 -0.061276708 -0.015725523
-0.042272065 0.00040643098 -0.028474865 -0.034313284 0.0070639513 0.007264189 -0.053571157 -0.031237189
-0.02309706 -0.036775537 0.01627346 -0.0663716 -0.052303765 -0.051756408 0.0010597085 -0.078815505
-0.048529264 0.037454844 -0.06756989 0.0007308863 0.044045676 0.02053066 0.04965654 0.041982643
-0.012248362 -0.009819309 -0.005312484 0.036045067 -0.042447835 -0.059790432 -0.018976323 -0.06800519
-0.05125899 0.060172148 -0.06881976 -0.07800605 -0.077040754 -0.055537835 -0.05948622 -0.002949717
0.0027495297 -0.037907902 0.019870184 -0.068960615 -0.0034537974 0.05808197 -0.016089728 -0.038804743
0.006915468 -0.04155337 -0.034239125 -0.030685961 0.0006657445 0.047376756 -0.017035674 -0.025620513
-0.077156685 0.046570476 -0.045455728 0.02041854 0.016074302 0.0070001124 -0.010048546 -0.05557521
0.018262705 0.019944435 -0.043180358 0.038768508 -0.048423134 0.05742391 -0.0042582625 -0.030363683
0.03201061 0.035568323 0.080439165 -0.028103704 -0.061060995 -0.00045508705 0.038574226 0.11703547
0.042124104 0.054682296 -0.03846957 -0.026917223 0.024562456 -0.03620507 -0.061735097 0.034668714
-0.0141537 0.00025680175 -0.011748062 -0.06411639 0.026243344 -0.039082948 -0.014223142 -0.027382417
0.024434784 -0.061812986 3.527027e-05 0.042473927 -0.009307841 -0.04127213 -0.064608574 0.010550648
0.00022189211 0.027314065 0.028357618 -0.030028915 -0.062118288 -0.057854816 -0.05469567 0.031611953
0.023676358 0.016812759 -0.01161489 -0.03073724 -0.041511457 -0.011792645 0.09848625 -0.03070816
00000000: ef36 4bbd 9136 96bd 2a24 ebbc f040 32bd
00000010: 2404 293d 9a8e 42bd 7f66 0b3d 4c31 db3c
00000020: 5253 7d3d 2f36 913d b309 a03c 3b00 713d
00000030: 1ec8 e43c b1d2 e53c f41e d63c c503 bc3c
00000040: a4ef 40bb f432 ea3c 0254 47bd 328d 39bd
00000050: df22 143c a2e8 9abd cffe 80bc 9169 663c
00000060: 773f 1d3d 5f46 adbc 479c c1bc 7690 123d
00000070: 4049 50bd 3b50 b53c 2eaf 983d aef1 14bd
00000080: c032 2ebd b0d8 c43b 15a5 3dbc f70f 32bd
00000090: e8be 84bb aa73 153d 4a95 ae3c 864e 443d
000000a0: 65eb 26bc 8c16 56bc ebe4 4ebd 89d1 19bd
000000b0: 0a7e b5bc cddc 923c 69ad f83c cb3d 11ba
000000c0: 80da 38bd d884 b3bc 659e 7e3c a822 28bd
000000d0: 7d38 48bc 6bab 18bd 4f44 aebc 913d 36bd
000000e0: a626 e6bc 41e9 223d 5e7e 1cbc 352f 4cbc
000000f0: 9b1c 4b3d 3bbf 743c 58fc 55bc 6c47 3b3d
00000100: f215 1d3b b9ba 3fbd 296c 81bd 8531 3e3d
00000110: 0c64 b7bc f39f 88bd 6556 70bd 8a3c 2abd
00000120: 4cf8 99bd f27e 26bd 5c3c f43c d7bf 2abb
00000130: 9a71 54bd fdda 4fbc 2493 18b9 57f2 75bc
00000140: 754a f5bc 0091 51bd b583 56bd b85d 00bd
00000150: f449 e0bc d562 f63c f99b 63bd 6424 6cba
00000160: 32d9 ba3c 1d5d 893c 2cbe 473d 042d 2bbc
00000170: 0461 77bc 7706 293d 7887 91bd 3b71 91bd
00000180: 969a 96bd 619e d43d fb88 70bc 488a 2cbc
00000190: 0f38 e2bb 045a 1bbd d590 b63c 2f70 00bc
000001a0: 4590 b43c c48e a5bd 5528 60bd abf2 be3d
000001b0: 64b3 d6bb d2ff 9a3b 0460 133d 010c 0ebd
000001c0: 2fb1 d2bb 893a 273d 8074 be3c d04a 33bd
000001d0: 7d43 c43c 107c c13b 7c95 a4bd 7ed4 293d
000001e0: 7101 ae3c 053e 45bd 6d38 febc 1e8f 5d3b
000001f0: 842b 11bd 42e3 723c e606 d5bc ced9 b73d
00000200: 2a1c ccba 8453 c63b 2b61 78bb 56ee 083d
00000210: 37a4 c5bb d74c 77bd 49fd 7abd d0d2 80bc
00000220: 7925 2dbd 3e16 d539 1f44 e9bc 168c 0cbd
00000230: b878 e73b 6f08 ee3b 6e6d 5bbd 22e5 ffbc
00000240: 0c36 bdbc f2a1 16bd eb4f 853c d5ed 87bd
00000250: 793c 56bd 87fe 53bd ebe5 8a3a 066a a1bd
00000260: 9fc6 46bd 406a 193d 1562 8abd f398 3f3a
00000270: 3d69 343d ea2f a83c a864 4b3d fef5 2b3d
00000280: 5bad 48bc 2be1 20bc 5914 aebb fea3 133d
00000290: c8dd 2dbd d0e6 74bd 3c74 9bbc 4e46 8bbd
000002a0: f2f4 51bd 1277 763d 60f1 8cbd a3c1 9fbd
000002b0: 8bc7 9dbd a47b 63bd d3a7 73bd 0a50 41bb
000002c0: 7431 343b 5145 1bbd ccc6 a23c 393b 8dbd
000002d0: 1b59 62bb 5ce7 6d3d 9bce 83bc b9f1 1ebd
000002e0: 269b e23b de33 2abd 533e 0cbd 2061 fbbc
000002f0: 5b85 2e3a 210e 423d 668e 8bbc 1ce2 d1bc
00000300: 5304 9ebd afc0 3e3d c92f 3abd c844 a73c
00000310: 41ae 833c 3361 e53b a8a2 24bc d5a2 63bd
00000320: ab9b 953c 8362 a33c e3dd 30bd bacb 1e3d
00000330: 5657 46bd 5535 6b3d e588 8bbb 42bd f8bc
00000340: 8f1d 033d 17b0 113d 4abd a43d bd39 e6bc
00000350: 181b 7abd c098 eeb9 0200 1e3d 4bb0 ef3d
00000360: 538a 2c3d 8bfa 5f3d 4592 1dbd 8281 dcbc
00000370: 3437 c93c c44b 14bd f1dd 7cbd c800 0e3d
00000380: ece4 67bc 59a3 8639 f27a 40bc 744f 83bd
00000390: 48fc d63c 7115 20bd 2e08 69bc 1751 e0bc
000003a0: 752b c83c 9d2f 7dbd 2aef 1338 24f9 2d3d
000003b0: ea7f 18bc f70c 29bd 8051 84bd a0dc 2c3c
000003c0: b6ab 6839 bfc1 df3c 3c4e e83c 33ff f5bc
000003d0: bf6f 7ebd 2cf9 6cbd 9108 60bd 897b 013d
000003e0: ecf4 c13c e9ba 893c 614c 3ebc aacc fbbc
000003f0: eb07 2abd f035 41bc 29b3 c93d ae8f fbbc

Y_net.net.4.weight f4 [256, 256]
-0.0064800456 -0.03224042 0.027645404 -0.03369261 0.012615624 0.0749033 0.0052465224 0.0040127262
-0.006046403 0.032773323 0.008915133 -0.04803609 -0.005074252 0.013296351 0.029611167 -0.050344966
0.036099866 0.0283042 0.021494564 0.061964355 0.0541834 0.005110308 0.069520146 -0.012459568
0.020838307 0.052843858 -0.03358539 -0.0040034144 -0.029422576 -0.054273605 0.03784882 0.02640644
-0.0040901056 -0.020060211 0.074507974 -0.012303237 -0.040607356 0.006332155 0.018200152 -0.030450614
-0.05616415 0.02189603 0.068111576 0.06492869 0.059885018 -0.024143068 0.02520476 0.011239095
-0.013026841 0.07566919 -0.0375566 -0.042603824 0.036609143 -0.033263363 -0.017423825 0.021185722
0.051805407 0.04478002 -0.060475335 0.06617033 0.040655524 0.04703103 0.06401612 -0.05497755
0.051365208 -0.05300972 0.06695632 0.025497815 -0.002268093 0.065386295 0.037182946 0.04762242
0.0061794976 -0.010340569 0.052714854 -0.030682638 0.01496144 0.053238645 0.0029786844 0.0729747
0.07250414 0.023077397 -0.02200378 0.03456158 0.02820469 0.0016941109 -0.025535267 0.06197739
-0.038110618 0.013111048 0.062103413 0.029344387 -0.058134153 -0.018277952 0.057220675 0.05703855
-0.046008907 0.03438991 0.0541294 -0.05721578 -0.05148783 0.050580844 0.061063662 0.07484065
0.064798824 -0.0146313105 -0.049194433 -0.02143803 -0.040531367 -0.0032185032 0.0671465 0.057505265
-0.026782775 0.05494076 0.022368666 0.06069911 0.03325345 -0.051730275 -0.0046525034 -0.053155474
-0.013578602 0.03879919 -0.037379194 0.04803123 -0.0027474281 0.060560137 -0.01983516 0.02258417
-0.05984066 0.04874003 -0.036359105 0.0510598 -0.04612962 0.06128201 -0.023961926 0.041044902
0.031222122 -0.02076741 0.02703817 0.051729124 -0.025033038 0.021290502 0.066275924 -0.039650463
-0.021082895 0.028318707 -0.05063894 -0.024161538 -0.0094660325 -0.050354015 -0.01708709 0.04230992
0.060661398 -0.021023065 -0.029875753 -0.039015092 -0.03636591 -0.0050936844 -0.024897726 0.0010733213
0.052390277 -0.011666461 0.044200912 0.0099554015 -0.029028147 -0.025235457 0.022088895 0.015437463
-0.011149205 0.017276578 0.025985068 -0.032846924 0.006700341 -0.010293387 0.010785513 -0.014968767
0.047356185 0.024707025 0.06406542 -0.042669255 0.012462841 0.043847553 -0.038244877 0.03826568
-0.012821225 -0.038095802 0.05377816 -0.059299707 -0.013601474 0.032805357 0.067465976 -0.05035552
0.007428382 0.059422813 0.022034647 0.034463298 -0.055580433 0.053303245 -0.041628953 -0.02788237
0.021124268 -0.014201405 -0.017654015 0.043919403 0.02222696 -0.045937266 0.059501063 0.04750462
0.048606083 0.050593846 -0.0051250886 0.0045972182 -0.015735017 0.022800937 0.011660555 -0.032201886
0.0013400695 0.018512676 0.03075302 0.048775595 -0.046357673 0.05216841 0.067824684 0.019256221
0.021044184 0.03562097 -0.0006573233 -0.026964216 0.017464675 -0.046991073 -0.044438373 0.019979492
-0.025854975 -0.020119244 0.006316093 -0.006393768 0.009381298 0.07054073 -0.011568373 0.0062352866
-0.016241621 -0.030738678 0.0026317292 0.06038884 0.030338842 0.034294393 -0.031765517 -0.034731116
0.054404527 -0.022650575 0.0001143007 -0.0075271935 -0.0027926702 0.04074516 0.018470963 0.012395538
00000000: 9056 d4bb 880e 04bd 9d78 e23c 4301 0abd
00000010: c3b1 4e3c e766 993d 05eb ab3b 307d 833b
00000020: e820 c6bb 523d 063d c710 123c 7ec1 44bd
00000030: e945 a6bb f0d8 593c 1e93 f23c 8636 4ebd
00000040: 74dd 133d 36de e73c 5e15 b03c 56ce 7d3d
00000050: 6aef 5d3d 5f74 a73b 9460 8e3d 3723 4cbc
00000060: 19b5 aa3c cd72 583d d590 09bd 132f 83bb
00000070: 9d07 f1bc 004e 5ebd 5d07 1b3d 5252 d83c
00000080: 4b06 86bb 5055 a4bc a397 983d 8493 49bc
00000090: e653 26bd f77d cf3b 7c18 953c 9173 f9bc
000000a0: 610c 66bd 4e5f b33c 157e 8b3d 55f9 843d
000000b0: fe49 753d afc7 c5bc 367a ce3c 2e24 383c
000000c0: 886e 55bc 73f8 9a3d f3d4 19bd 5981 2ebd
000000d0: 78f3 153d 2a3f 08bd 69bc 8ebc ae8d ad3c
000000e0: e831 543d 416b 373d fcb4 77bd 4f84 873d
000000f0: 6886 263d 9ca3 403d e21a 833d 2430 61bd
00000100: 5364 523d b820 59bd 6520 893d cbe0 d03c
00000110: 49a4 14bb 40e9 853d 254d 183d ba0f 433d
00000120: 627d ca3b 7d6b 29bc 88eb 573d 285a fbbc
00000130: d420 753c c410 5a3d 0836 433b c273 953d
00000140: 0d7d 943d cf0c bd3c 4541 b4bc 7190 0d3d
00000150: 860d e73c ee0c de3a 562f d1bc 01dc 7d3d
00000160: e119 1cbd b9cf 563c 2660 7e3d a463 f03c
00000170: 141e 6ebd a5bb 95bc 3a60 6a3d 41a1 693d
00000180: d673 3cbd 6fdc 0c3d cab6 5d3d 185b 6abd
00000190: e7e4 52bd dc2d 4f3d e41d 7a3d 0e46 993d
000001a0: 3fb5 843d 2ab8 6fbc 1a80 49bd cf9e afbc
000001b0: 3804 26bd 86ed 52bb 1b84 893d a48a 6b3d
000001c0: 8d67 dbbc 9009 613d 7e3e b73c a19f 783d
000001d0: c534 083d 20e3 53bd 0774 98bb 8eb9 59bd
000001e0: c978 5ebc e6eb 1e3d ed1a 19bd 65bc 443d
000001f0: 320e 34bb e80d 783d 587d a2bc 7002 b93c
00000200: 7b1b 75bd a0a3 473d 49ed 14bd 1524 513d
00000210: 6af2 3cbd d802 7b3d cd4b c4bc b31e 283d
00000220: 89c5 ff3c 6a20 aabc 277f dd3c ebe1 533d
00000230: 1612 cdbc 6b69 ae3c acbb 873d 8668 22bd
00000240: 09b6 acbc a2fc e73c c76a 4fbd 6bee c5bc
00000250: 6b17 1bbc 0340 4ebd 3afa 8bbc 2b4d 2d3d
00000260: 1678 783d 9038 acbc ffbd f4bc 4ace 1fbd
00000270: 6cf4 14bd ece8 a6bb 51f6 cbbc b0ae 8c3a
00000280: 3097 563d af24 3fbc 040c 353d fb1b 233c
00000290: 70cc edbc 97ba cebc c5f3 b43c 6aed 7c3c
000002a0: 28ab 36bc 9c87 8d3c a3de d43c 7f8a 06bd
000002b0: 898e db3b 98a5 28bc b8b5 303c 8f3f 75bc
000002c0: 8ff8 413d 6366 ca3c bb34 833d f5c5 2ebd
000002d0: f230 4c3c 7e99 333d a9a6 1cbd 79bc 1c3d
000002e0: 1e10 52bc 580a 1cbd 7d46 5c3d 40e4 72bd
000002f0: b8d8 5ebc e95e 063d 9a2b 8a3d 9741 4ebd
00000300: c969 f33b 5665 733d 0182 b43c 6329 0d3d
00000310: 4fa8 63bd 8154 5a3d 1f83 2abd 9169 e4bc
00000320: cd0c ad3c 03ad 68bc 279f 90bc d5e4 333d
00000330: 5015 b63c b728 3cbd 63b7 733d 3494 423d
00000340: 2c17 473d 7e3b 4f3d 5cf0 a7bb 43a4 963b
00000350: b9e6 80bc 08c9 ba3c ea0b 3f3c 20e6 03bd
00000360: 45a5 af3a e5a7 973c c2ed fb3c ebc8 473d
00000370: 8be1 3dbd 8bae 553d abe7 8a3d 39bf 9d3c
00000380: da64 ac3c 4be7 113d 3850 2cba 0fe4 dcbc
00000390: 1412 8f3c b679 40bd 0305 36bd 08ac a33c
000003a0: d0cd d3bc 1dd1 a4bc 3af7 ce3b d082 d1bb
000003b0: 04b4 193c a977 903d 4689 3dbc 6051 cc3b
000003c0: 260d 85bc aecf fbbc 1779 2c3b 4a5a 773d
000003d0: 2a89 f83c 4778 0c3d 8f1c 02bd 3742 0ebd
000003e0: 48d7 5e3d b38d b9bc b9b4 ef38 ada6 f6bb
000003f0: 3b05 37bb 66e4 263d 6b50 973c a816 4b3c

Y_net.net.4.bias f4 [256]
0.05921427 -0.052441925 0.01354418 -0.040638342 -0.06363312 -0.033253472 0.047233846 0.0049796253
0.023240753 -0.014018308 0.047740713 -0.004222984 -0.037971 -0.06726153 -0.011714546 -0.005768585
0.008042769 -0.058286466 0.020050779 -0.06539063 -0.06365387 0.034182698 -0.030210676 -0.01923124
-0.03410587 0.030663805 0.0056791687 -0.0069887787 -0.05991532 0.06201806 0.053897783 0.049954064
-0.061237156 0.013735938 -0.08485687 -0.019174293 0.003555788 -0.03972581 -0.04100652 0.022884866
-0.0245144 0.0047420147 0.04818882 -0.063338496 0.0020266715 -0.0048844037 0.04229129 0.018532738
-0.029238231 -0.050457448 0.008025816 0.03378219 -0.027091192 0.005711662 -0.018276572 0.023490192
-0.016240492 0.044024292 0.027089974 0.0095101595 0.022966297 -0.044731647 -0.009044354 0.029632319
0.009336617 -0.004050918 0.034196578 0.028651398 0.042523224 -0.06286394 -0.06399988 -0.00392323
-0.021590177 0.027248917 0.04239442 0.04616993 0.03338352 -0.060224235 0.03921673 -0.05514132
0.017512675 -0.01724742 0.048599355 -0.012640548 -0.050137497 0.029046886 -0.020392036 0.019364955
-0.00014857842 0.032109972 0.031786356 -0.024421167 -0.023221454 0.046629813 -0.019076163 -0.0049271025
0.043093637 -0.017823394 -0.0007861778 0.048577342 0.0117794145 -0.04006306 -0.009735934 -0.012073472
-0.019743005 0.0147144785 -1.3266149e-05 0.012783575 0.044031594 0.08205885 -0.040269505 -0.05814231
0.03269995 -0.062306345 -0.034191206 -0.013935798 0.012561466 0.042903617 -0.049183223 0.08843673
-0.0038946383 0.0047439127 0.0027174288 -0.051404424 0.026569573 -0.004064527 0.056472994 -0.055251703
0.025574781 0.011963909 0.030486675 0.051410824 0.047812644 0.06509532 -0.053910278 0.05257342
-0.017964287 -0.024511823 0.035210602 0.034073025 0.031045295 -0.07719604 -0.067729644 0.054317974
-0.0096423505 -0.011300219 -0.033197284 0.00068584085 -0.0030804735 0.01864215 0.02876331 -0.0033632426
-0.057427272 0.049677677 -0.005855581 0.04375883 0.029042145 0.043894928 0.042265736 0.065088585
-0.0078057805 -0.01426289 -0.014175259 3.302767e-05 0.022199582 0.0410087 -0.04269377 0.04288231
0.030798733 0.05780175 -0.04702367 -0.022600533 -0.05082045 0.0434459 0.016738739 -0.023329722
-0.06340172 0.036315102 0.04530004 -0.06583911 -0.051713683 -0.014810566 -0.015629122 0.013483447
-0.007822135 0.0407461 -0.06380823 0.052760772 -0.05100692 0.051399346 0.028346673 -0.0039831996
0.045837738 -0.046694368 0.041860223 -0.05610917 0.017579703 0.048822343 0.0305121 0.025081636
0.041531924 0.01766181 0.056327317 -0.06873089 -0.02720205 0.04085201 -0.0756216 -0.028839497
0.008995925 0.018080404 -0.041786343 0.08358168 0.04840128 1.5455527e-05 0.0037315742 -0.037758857
-0.06923476 0.0058555375 0.022924498 -0.057029538 0.009773921 -0.0087488 0.03812136 -7.3475994e-06
0.04450558 -0.04808944 0.034404114 -0.016936848 -0.0060057607 0.02765078 0.027094373 -0.060597908
-0.057166524 -0.025740178 -0.014488699 -0.05225388 -0.0035476056 -0.058723696 -0.03436114 0.027775954
0.011997308 -0.05959067 -0.043586887 -0.013744046 0.017595312 0.03625519 -0.02844835 -0.0704257
0.0028935808 0.001208029 0.037635643 0.032824025 0.027451102 0.01481888 0.038269795 -0.03929896
00000000: aa8a 723d 58cd 56bd 69e8 5d3c 6474 26bd
00000010: 1552 82bd cb34 08bd 4778 413d 202c a33b
00000020: 6463 be3c 0cad 65bc c48b 433d f560 8abb
00000030: 7b87 1bbd 6ac0 89bd 5eee 3fbc 6606 bdbb
00000040: d1c5 033c cabd 6ebd 8841 a43c 86eb 85bd
00000050: f65c 82bd 2803 0c3d 617c f7bc d58a 9dbc
00000060: 99b2 0bbd a932 fb3c 5218 ba3b 2002 e5bb
00000070: c469 75bd a606 7e3d ecc3 5c3d a29c 4c3d
00000080: d0d3 7abd b30c 613c 70c9 adbd 6813 9dbc
00000090: 3908 693b 88b7 22bd 74f6 27bd 0b79 bb3c
000000a0: 6cd2 c8bc e762 9b3b a461 453d 9db7 81bd
000000b0: e8d1 043b 590d a0bb a239 2d3d f8d1 973c
000000c0: 0485 efbc 78ac 4ebd b67e 033c 325f 0a3d
000000d0: 59ee ddbc e528 bb3b c0b8 95bc 816e c03c
000000e0: c80a 85bc d152 343d cbeb dd3c 80d0 1b3c
000000f0: d123 bc3c 8838 37bd c52e 14bc 7abf f23c
00000100: 9cf8 183c 90bd 84bb b611 0c3d 56b6 ea3c
00000110: d52c 2e3d cfbe 80bd 5e12 83bd 708e 80bb
00000120: e2dd b0bc 1f39 df3c c5a5 2d3d ae1c 3d3d
00000130: 28bd 083d b0ad 76bd b9a1 203d dddb 61bd
00000140: be76 8f3c 764a 8dbc 1e10 473d 4d1a 4fbc
00000150: fa5c 4dbd bcf3 ed3c 330d a7bc 41a3 9e3c
00000160: b7cb 1bb9 bf85 033d 6932 023d e60e c8bc
00000170: eb3a bebc e7fe 3e3d 9d45 9cbc 8873 a1bb
00000180: f482 303d 5e02 92bc 8017 4eba 09f9 463d
00000190: 72fe 403c 2a19 24bd 7883 1fbc d0cf 45bc
000001a0: 15bc a1bc ff14 713c ad91 5eb7 3372 513c
000001b0: 795a 343d 780e a83d a3f1 24bd a126 6ebd
000001c0: 62f0 053d f034 7fbd 140c 0cbd f952 64bc
000001d0: 9bce 4d3c b4bb 2f3d 5974 49bd 511e b53d
000001e0: 303d 7fbb d372 9b3b e416 323b 728d 52bd
000001f0: 6fa8 d93c b92f 85bb 3a50 673d 9c4f 62bd
00000200: 3482 d13c 4504 443c 31bf f93c 2894 523d
00000210: 31d7 433d b250 853d 06d1 5cbd 3a57 573d
00000220: d729 93bc 05cd c8bc fe38 103d 2890 0b3d
00000230: b452 fe3c f518 9ebd d7b5 8abd 867c 5e3d
00000240: f3fa 1dbc 8e24 39bc e0f9 07bd 00ca 333a
00000250: c5e1 49bb 6cb7 983c 08a1 eb3c d969 5cbb
00000260: dc38 6bbd d27a 4b3d 2ce0 bfbb 753c 333d
00000270: cbe9 ed3c 2bcb 333d d61e 2d3d 2a4d 853d
00000280: a2c7 ffbb e6ae 69bc 583f 68bc 3187 0a38
00000290: e6db b53c bdf8 273d aadf 2ebd 5ca5 2f3d
000002a0: a04d fc3c 87c1 6c3d e49b 40bd c124 b9bc
000002b0: 1b29 50bd 54f4 313d ae1f 893c f91d bfbc
000002c0: c3d8 81bd 25bf 143d 898c 393d a8d6 86bd
000002d0: bad1 53bd 04a8 72bc a508 80bc ade9 5c3c
000002e0: 6a28 00bc 62e5 263d e4ad 82bd ae1b 583d
000002f0: a2ec 50bd 1f88 523d 4837 e83c 8085 82bb
00000300: 5ac0 3b3d 9842 3fbd a075 2b3d bbd2 65bd
00000310: 4f03 903c f0f9 473d 83f4 f93c 0178 cd3c
00000320: 611d 2a3d 80af 903c 79b7 663d c8c2 8cbd
00000330: d5d6 debc 7054 273d 7fdf 9abd cf40 ecbc
00000340: a563 133c 5b1d 943c 2828 2bbd df2c ab3d
00000350: 6c40 463d 7ea6 8137 6d8d 743b 08a9 1abd
00000360: f4ca 8dbd cfdf bf3b 28cc bb3c ce97 69bd
00000370: cc22 203c 2057 0fbc 2525 1c3d 668b f6b6
00000380: 7c4b 363d 6ff9 44bd 54eb 0c3d 25bf 8abc
00000390: f9cb c4bb e383 e23c 05f5 dd3c 8335 78bd
000003a0: 7227 6abd 11dd d2bc 0262 6dbc 2a08 56bd
000003b0: f27e 68bb 4288 70bd 44be 0cbd 668a e33c
000003c0: 5b90 443c 5915 74bd 2a88 32bd b52e 61bc
000003d0: 0b24 903c 5280 143d 840c e9bc 593b 90bd
000003e0: 3ba2 3d3b ba56 9e3a d527 1a3d 7c72 063d
000003f0: 22e1 e03c e3ca 723c cac0 1c3d f2f7 20bd

Y_net.net.6.weight f4 [256, 256]
-0.037024096 -0.032041907 -0.04006479 0.0030992776 -0.011552319 0.0006060228 -0.027044259 -0.04879631
0.012679294 -0.046595015 -0.0525985 -0.027863488 0.017918669 -0.050904185 -0.03797227 -0.027649097
0.04809451 -0.004176423 -0.023868442 -0.010177396 -0.053754136 0.016199484 0.0466642 0.018408343
-0.058959134 0.024211325 -0.056459576 0.052538082 0.015116185 0.013227902 0.018939987 0.029283151
-0.006693542 0.0123092905 0.0046784803 -0.060632505 0.0362375 -0.056362323 -0.031096764 -0.013791241
0.019833252 0.03636322 0.040418237 -0.062109783 0.016571999 0.043734044 -0.0087437555 0.0053787455
0.02175796 -0.023614846 0.020312354 0.049987048 0.024855316 0.046785265 -0.053311504 -0.052343614
0.006437674 0.041679062 0.047617093 -0.018328957 0.044699714 0.04111425 -0.024456196 0.033930674
0.0043104216 -0.05991339 -0.06167703 -0.061524004 0.011979535 0.027257979 0.05081726 -0.004923038
0.006518081 0.048254706 -0.026486121 -0.057815634 -0.05785928 -0.046542227 0.025857873 -0.035015367
0.024302542 -0.024813429 0.027109452 -0.038973212 0.049972676 0.0007463023 -0.016328707 -0.018130422
0.039473258 0.027874395 0.015001446 -0.042811938 0.040530764 -0.055623986 -0.04454548 0.0022173747
-0.06154815 0.032554798 0.046708725 0.0065031424 0.05014836 -0.03343097 -0.043313175 0.05946721
-0.058827102 -0.037810735 0.04474713 0.010444671 0.008925408 -0.0045618117 -0.04402948 -0.010914877
-0.029021278 0.012677193 -0.0016731098 0.021325633 0.017658979 -0.040044747 0.034048975 -0.04390434
-0.0014378056 0.00018911809 -0.017209686 0.06021978 -0.008615777 0.008187883 -0.056924425 0.03664822
0.034198403 -0.034922764 0.062276825 0.00038081408 -0.0045414567 -0.061254404 0.02894409 -0.04519313
-0.033997245 0.039082415 -0.007478133 -0.022696964 0.018195458 -0.0013499111 0.01039812 -0.022575967
0.052172862 0.049617074 -0.044657268 0.031525172 -0.0596003 0.016236067 -0.015887648 0.02168335
0.01822763 0.051618442 0.018113568 0.051045425 0.0029436126 0.01708854 -0.03160777 -0.008407906
0.050336093 0.02926141 -0.0042629614 0.03425491 0.041339085 -0.030322775 0.0036104396 -0.05863008
0.030255869 0.055516794 0.02191469 0.06132319 0.056871437 0.0011978298 0.022153951 -0.005394943
-0.04912278 -0.031158768 -0.0047303066 -0.0031732768 -0.01495178 -0.050347358 -0.017093614 0.042900972
-0.015146799 -0.042227834 0.05312238 0.012268305 -0.04642185 0.006170653 -0.04255388 0.041962072
0.038815305 -0.054587193 0.032161042 -0.009024456 0.05619412 -0.0058384687 -0.026259921 -0.056107998
-0.061609805 -0.0109779015 -0.042121038 -0.022256635 -0.03200452 -0.0031380877 -0.018361256 0.01628124
0.03618583 -0.0040114447 0.010697231 0.009138659 -0.010822542 -0.017007813 0.0030099005 0.059969656
0.053427473 0.022299945 -0.017933697 0.006475061 -0.03411431 0.020321831 0.056652233 -0.05493676
-0.0032912418 -0.04568027 -0.042330116 -0.010656379 -0.017374285 -0.048970804 -0.036377706 0.05462733
0.049526356 -0.054219104 -0.038568936 0.024592727 0.0016444102 -0.019948162 -0.030481964 0.0036152005
0.059861958 0.025583707 -0.050446533 -0.054162994 0.03456109 0.0013880208 0.05375973 0.023399472
0.045298934 -0.05122616 0.023593009 0.023338012 -0.023489654 -0.041801564 -0.017164163 -0.0115144625
00000000: 94a6 17bd 603e 03bd fa1a 24bd 401d 4b3b
00000010: f045 3dbc 80dd 1e3a ec8b ddbc a4de 47bd
00000020: d0bc 4f3c 6ada 3ebd 8671 57bd f841 e4bc
00000030: 2cca 923c e880 50bd d088 1bbd 5c80 e2bc
00000040: c0fe 443d 60da 88bb c087 c3bc 18bf 26bc
00000050: 4c2d 5cbd c8b4 843c f622 3f3d 18cd 963c
00000060: 227f 71bd d456 c63c 2842 67bd 2c32 573d
00000070: e0a9 773c d8b9 583c 0828 9b3c 38e3 ef3c
00000080: 8055 dbbb e8ac 493c f04d 993b ca59 78bd
00000090: c66d 143d 2edc 66bd a4be febc a8f4 61bc
000000a0: 5879 a23c 9af1 143d 988d 253d d466 7ebd
000000b0: 00c2 873c 7822 333d f841 0fbc 3040 b03b
000000c0: c03d b23c ec73 c1bc 1866 a63c 38bf 4c3d
000000d0: 609d cb3c e8a1 3f3d 2a5d 5abd 4266 56bd
000000e0: 20f3 d23b aab7 2a3d 240a 433d 9c26 96bc
000000f0: 0c17 373d 6a67 283d 5c58 c8bc e4fa 0a3d
00000100: 703e 8d3b be67 75bd 0ea1 7cbd 9800 7cbd
00000110: d045 443c 204c df3c c225 503d 7051 a1bb
00000120: a095 d53b baa6 453d 6cf9 d8bc 16d0 6cbd
00000130: dafd 6cbd 10a3 3ebd e4d3 d33c 466c 0fbd
00000140: 2016 c73c 8845 cbbc a414 de3c 60a2 1fbd
00000150: 26b0 4c3d 80a3 433a c8c3 85bc 4086 94bc
00000160: b6ae 213d d858 e43c a0c8 753c 925b 2fbd
00000170: 9603 263d fad5 63bd 5275 36bd 6051 113b
00000180: ea19 7cbd 2e58 053d a651 3f3d 5018 d53b
00000190: 5e68 4d3d eaee 08bd 2869 31bd e493 733d
000001a0: b0f4 70bd 6edf 1abd c448 373d 2020 2b3c
000001b0: e03b 123c 407b 95bb 4258 34bd 50d4 32bc
000001c0: 08be edbc 00b4 4f3c 404c dbba 18b3 ae3c
000001d0: 90a9 903c f605 24bd f076 0b3d 0ad5 33bd
000001e0: c074 bcba 004e 4639 54fb 8cbc 04a9 763d
000001f0: 3029 0dbc 7826 063c 9629 69bd 721c 163d
00000200: a013 0c3d 2c0b 0fbd fc15 7f3d 00a8 c739
00000210: 80d0 94bb e6e5 7abd 281c ed3c 6e1c 39bd
00000220: b240 0bbd e214 203d 200b f5bb fcee b9bc
00000230: a40e 953c 80ef b0ba e05c 2a3c 3cf1 b8bc
00000240: 36b3 553d 463b 4b3d 8aea 36bd 8a20 013d
00000250: 721f 74bd 8001 853c d026 82bc 48a1 b13c
00000260: 1c52 953c dc6d 533d e862 943c 0215 513d
00000270: a0e9 403b 44fd 8b3c 2677 01bd 50c1 09bc
00000280: 382d 4e3d a0b5 ef3c 50b0 8bbb e04e 0c3d
00000290: 2c53 293d 7867 f8bc 209d 6c3b 1826 70bd
000002a0: 28db f73c 9465 633d 7086 b33c 062e 7b3d
000002b0: 06f2 683d 8000 9d3a 347c b53c 10c8 b0bb
000002c0: f834 49bd ac40 ffbc b000 9bbb c0f6 4fbb
000002d0: 50f8 74bc 0839 4ebd e807 8cbc eeb8 2f3d
000002e0: 482a 78bc 18f7 2cbd da96 593d 0001 493c
000002f0: d624 3ebd 3033 ca3b fa4c 2ebd 6ce0 2b3d
00000300: ccfc 1e3d d296 5fbd 4cbb 033d 50db 13bc
00000310: ce2b 663d a050 bfbb 0c1f d7bc 80d1 65bd
00000320: 905a 7cbd a8dc 33bc 1c87 2cbd 8c53 b6bc
00000330: 2c17 03bd 60a8 4dbb 586a 96bc 3c60 853c
00000340: 9837 143d 7072 83bb 7043 2f3c 50ba 153c
00000350: 0851 31bc f853 8bbc c041 453b bea2 753d
00000360: c4d6 5a3d 60ae b63c b0e9 92bc c02c d43b
00000370: 72bb 0bbd f879 a63c 2c0c 683d 5e05 61bd
00000380: e0b1 57bb 3c1b 3bbd 5862 2dbd 1898 2ebc
00000390: 8454 8ebc 9c95 48bd ca00 15bd e8c0 5f3d
000003a0: 26dc 4a3d da14 5ebd 76fa 1dbd b076 c93c
000003b0: 4089 d73a 546a a3bc 50b5 f9bc 00ed 6c3b
000003c0: d031 753d ec94 d13c 06a1 4ebd 04da 5dbd
000003d0: ee8f 0d3d 40ee b53a 2a33 5c3d 40b0 bf3c
000003e0: 608b 393d 86d2 51bd 2046 c13c 5c2f bf3c
000003f0: 606d c0bc 1e38 2bbd dc9b 8cbc 28a7 3cbc
