saved/simple_FC_ReLU/model_best.pth (torch, 798133 bytes, 9 tensors)

Y_net.net.0.weight f4 [256, 2]
000000 cf ee c5 3e 5c c8 12 bf 52 40 13 3e 0c b0 27 be
       0.3865876 -0.57336974 0.14380005 -0.1637575
000010 b0 ae 71 be 42 83 1b 3f db 3c 1a bf 0b 72 96 3c
       -0.23601794 0.6074716 -0.6024911 0.018364927
000020 ce a4 9e 3e da 8b 84 3e 46 e5 da be f9 9f a5 3e
       0.3098511 0.25887948 -0.42753047 0.32348612
000030 b7 a1 1f 3f eb 8e cd be 39 8a bf be 29 f4 71 3e
       0.6235613 -0.401481 -0.37410143 0.23628296
000040 f1 ca f3 3e 8a 5a 99 3e 3a 12 03 3f e6 b1 e4 3e
       0.4761577 0.29951888 0.51199687 0.44666976
000050 b0 8d 7b 3e 24 05 ae 3e 26 33 cd be 11 2b 95 3e
       0.24565768 0.33988297 -0.40078086 0.2913442
000060 8f 0f c9 bd 8a 24 1d bf 0e 5b 24 3f 98 c0 6c 3a
       -0.09817421 -0.6138388 0.6420144 0.0009031384
000070 06 eb fb 3d 95 09 2d be f0 48 57 3e f8 9f 32 3f
       0.123006865 -0.16898187 0.21023917 0.6977534
000080 23 94 10 3f a8 8d 47 3c de bb f1 bd f0 a6 25 bf
       0.5647604 0.01217977 -0.11803411 -0.6470785
000090 9c d7 b4 3e b2 ef 8d be 1a 90 bb bd db c5 12 bf
       0.35320747 -0.27721936 -0.091583446 -0.57333153
0000a0 3b 79 3f bf 34 6d 2f 3f 9b f6 1d bf dc 8c a2 be
       -0.7479436 0.68526006 -0.61704415 -0.31748092
0000b0 db 93 21 3f 59 0d 2e bf 7b e6 f9 bd 6d 9b 67 be
       0.63116235 -0.67989117 -0.12202164 -0.22617884
0000c0 7a a7 c2 be 39 6a 59 3e 99 d8 22 3f eb 2d 18 3f
       -0.380184 0.21231927 0.6361175 0.59445065
0000d0 39 5e dc 3e f8 06 d1 3d 92 fe 2c bf 88 04 87 3d
       0.43040636 0.10206407 -0.67575943 0.06592661
0000e0 6c bc 5e be 48 41 19 bf 55 60 e4 be 4a 17 a0 3e
       -0.21751565 -0.59865236 -0.44604746 0.31267768
0000f0 90 8a 27 3f 12 e1 12 3f ff f2 ab 3e f5 b4 13 3f
       0.65445805 0.5737468 0.3358383 0.57697994
000100 65 d6 e0 be ff 0e 0a 3f 57 20 eb be 95 d1 b4 3e
       -0.4391357 0.5392913 -0.4592311 0.35316148
000110 76 f1 03 bf 6e 44 4f be 06 92 b0 3e 6a ba 26 3e
       -0.51540315 -0.20240948 0.34486407 0.16282049
000120 06 0d 9b 3e e5 52 28 bf 54 31 16 bf a3 59 95 3e
       0.30283374 -0.65751487 -0.5866902 0.2916995
000130 91 09 96 3e 4e e2 93 3e 30 94 5b be 87 f8 12 bf
       0.29304174 0.28883594 -0.21443248 -0.5741047
000140 f5 7c 08 bf 50 7c ab be 32 2f 1a bf d1 6f 4c 3e
       -0.5331567 -0.3349328 -0.60228264 0.1996453
000150 d5 74 fb 3e 70 92 7f be 24 8c f5 3e 61 a3 88 3d
       0.49112573 -0.24958205 0.4795848 0.06671787
000160 8a 21 ac be 25 b0 01 bf ad 2a ba bd c0 7e 41 3e
       -0.33619338 -0.506594 -0.09090171 0.18896008
000170 6e 44 1f bf 94 da d7 be 1e db 23 3f a5 5e 2e 3f
       -0.6221379 -0.4215895 0.6400622 0.68113166
000180 cc d2 ee 3e 5e 21 0b bf 8f e7 2d bf e3 84 e5 3e
       0.466452 -0.5434779 -0.67931455 0.44827947
000190 86 05 06 3f a2 09 e4 3e bf cd 9e 3e 2b 95 09 3f
       0.5235218 0.445386 0.31016347 0.5374324
0001a0 04 c6 69 3d 5c 41 be be 94 ba 40 be 2a 64 e3 be
       0.057073608 -0.3715924 -0.18821174 -0.44412357
0001b0 cd 1e 1f bf f6 26 3b be 79 6c c1 3e 53 66 14 3f
       -0.62156373 -0.18276581 0.3777807 0.57968634
0001c0 41 f0 2b 3f c2 82 b0 3e b7 6b 4f bd d0 ca 32 bf
       0.67163473 0.3447476 -0.050639834 -0.6984072
0001d0 d9 31 2d 3f 9a 60 c8 be 17 f1 0d bf 53 be f8 3e
       0.67654186 -0.391362 -0.55446 0.48582706
0001e0 16 78 85 3e 18 2b 09 bf 28 f6 18 bf 70 5a 02 3f
       0.2606818 -0.5358138 -0.59750605 0.50919247
0001f0 f8 de 98 3e 8c a7 eb 3e f5 c1 21 bf de 27 c2 3e
       0.29857612 0.46026266 -0.6318658 0.3792104
000200 6e af ab be 6b e9 ee be 3b 2f 2c 3f 5a 12 0f 3f
       -0.3353228 -0.4666246 0.6725957 0.5588738
000210 82 56 be be 0b 46 d0 3d 4f 5d 1a bf 33 30 a1 3e
       -0.37175375 0.1016961 -0.6029863 0.31482086
000220 79 12 0f bf 01 90 e3 3e f2 ce ea 3e 7f f0 d3 3e
       -0.5588756 0.44445804 0.45861012 0.4139442
000230 d4 5c 1d 3d 31 05 14 bf 14 d5 5c bd 1d 13 5b 3e
       0.038418606 -0.5782042 -0.053914145 0.2139401
000240 75 38 85 3e 18 5d 0f be 93 dd 52 3f 2c b7 76 b9
       0.26019636 -0.14000356 0.82369345 -0.00023528625
000250 9d 44 00 3c a9 e3 0d bf 6d 65 4e be 6e b4 0f bf
       0.007828859 -0.55425507 -0.20155878 -0.5613469
000260 42 81 b0 3e a5 be f1 3e 2f 3c ec 3e 1d b4 eb bd
       0.34473616 0.47215763 0.46139666 -0.11508963
000270 6a c2 0a bf ca fd 45 be ea 3d 06 3f b6 d7 9e be
       -0.542029 -0.19335094 0.52438223 -0.3102395
000280 33 46 c7 be e7 12 1c bf f2 37 09 3f 9b 6f 25 3f
       -0.38920745 -0.6096634 0.5360099 0.6462342
000290 c3 24 b3 be c3 2b 41 be 53 3c 2d 3c b4 c6 04 3f
       -0.34988984 -0.1886435 0.010573464 0.51865697
0002a0 e1 ac 08 bf 9f b3 51 3e 11 65 6c 3d 16 3c 30 3f
       -0.5338879 0.20478676 0.057713572 0.68841684
0002b0 0a de 2d 3f 92 32 03 bf 7b cf d9 3e f8 45 0a be
       0.6791693 -0.5124904 0.42541108 -0.13503253
0002c0 6b 07 63 3e d2 5e ff be d8 32 b5 3e 25 e6 be be
       0.22170798 -0.4987703 0.35390353 -0.3728496
0002d0 93 84 f5 3e 81 dc 6f 3e e0 e8 22 bf 40 1d 28 3d
       0.4795271 0.2342396 -0.6363659 0.04104352
0002e0 5c 97 ed be ec bc 41 be 69 04 1a bf c3 12 31 3f
       -0.4640454 -0.18919724 -0.6016298 0.69169253
0002f0 16 e9 33 bf 5b 3f 21 be 31 0c 37 be cc 9a 0e 3f
       -0.70277536 -0.15746824 -0.17875744 0.5570495
000300 f4 51 2f bf 9a df 93 3e 38 67 23 3e 48 c0 2a bf
       -0.68484426 0.28881532 0.15957344 -0.6669965
000310 c3 18 b3 bd c4 7c c7 3e eb ef 90 be b0 7c e5 3e
       -0.08744957 0.38962376 -0.28308043 0.44821692
000320 06 60 3f bf 2f 51 2c 3f b3 ca ac 3d 3d f5 1f 3e
       -0.74755895 0.67311376 0.08437099 0.15620895
000330 76 2c 1c 3f 1b 76 87 3d 49 0f ac bd 43 8f 1e 3d
       0.6100534 0.06614324 -0.08401353 0.038710844
000340 6d 28 2d be 9f bb e8 be 65 3a d8 bd 51 04 73 3e
       -0.16909952 -0.45455644 -0.10558013 0.23732115
000350 d6 8f 0b 3f 98 a4 d8 be 0c 09 d1 3e 97 f7 2a 3f
       0.5451635 -0.42313075 0.40827215 0.6678404
000360 36 9f 46 bf 17 58 c0 be 04 6f b7 bd a5 20 14 bf
       -0.77586687 -0.37567207 -0.089567214 -0.5786231
000370 80 8a 8d 3e b2 1b 33 3f 0f c4 25 3e c0 05 29 be
       0.2764473 0.69964135 0.16188072 -0.165061
000380 82 af 36 be f8 8e 51 3e 3e b5 ba 3d 32 9f 75 bc
       -0.17840388 0.20464694 0.091166005 -0.014991568
000390 76 af 21 3f 17 d4 83 be 80 87 f8 be 77 2b b4 be
       0.6315836 -0.2574775 -0.48540878 -0.3518941
0003a0 44 82 1d 3f a6 a0 d3 3e 73 b9 80 be c9 59 2f 3f
       0.61526895 0.41333503 -0.25141487 0.68496376
0003b0 f0 d9 1d bf e2 ee 1d 3e 53 75 24 3f 81 95 27 be
       -0.6166067 0.15423158 0.6424152 -0.16365625
0003c0 9f 95 1e be 28 c5 33 3f 9a 4c 1d bf 15 1b 93 3e
       -0.15486763 0.7022271 -0.6144501 0.287316
0003d0 ae e4 21 3f 2c 3a ca be 5f 49 f1 be 7e 64 1f bf
       0.6323956 -0.39497507 -0.4712629 -0.62262714
0003e0 c6 6c d1 be 09 3e dc 3e 28 6c 19 3f 2b 6d b8 3e
       -0.409033 0.4301608 0.5993066 0.3602079
0003f0 fa 80 1d bf 18 95 1a bf 98 9a d2 bd 46 f4 7d be
       -0.6152493 -0.6038375 -0.10283393 -0.24800214

Y_net.net.0.bias f4 [256]
000000 0a c3 a5 3e a3 22 1c 3d 5e e2 15 bf de 1f e3 3e
       0.32375365 0.03811897 -0.58548534 0.4436025
000010 44 94 f1 3e bf d9 38 bf c3 6d 02 3f 75 13 1d bf
       0.4718343 -0.72207254 0.50948733 -0.61357814
000020 92 99 23 bf 7b 88 19 bf 05 19 b5 3c 32 1d cb 3e
       -0.63906205 -0.5997388 0.022106657 0.39670712
000030 f1 fa 0d bf 71 a3 0a bf d1 85 ba 3d 74 60 da be
       -0.5546103 -0.5415564 0.09107555 -0.42651713
000040 1e bc 82 3d 4a 27 27 3f 20 ee cd 3e cd bd 6a 3d
       0.06383537 0.65294325 0.40220737 0.057309914
000050 e2 0f 0a bf 54 10 6b bf cf 3b ad be b5 f1 24 3f
       -0.53930485 -0.9182179 -0.33834693 0.64431316
000060 f4 68 44 bf 47 03 85 be 99 28 13 3f 9c d9 1f bf
       -0.76722646 -0.25979063 0.5748382 -0.6244142
000070 5f 5e 9b bb d0 3c 7f 3d e7 b6 30 3f c1 ac 9c 3e
       -0.0047414745 0.062313855 0.69029087 0.3060055
000080 5c df 02 3f 62 13 2f bf 97 14 a8 be e0 46 3b be
       0.5112207 -0.6838895 -0.3282821 -0.18288755
000090 f3 78 0a bd a9 c5 32 bf fd 61 2a 3f b6 7f 9c be
       -0.033806752 -0.69832855 0.6655577 -0.30566186
0000a0 f6 01 1d bf c4 06 b5 be e8 22 9f be a8 28 dc 3e
       -0.6133112 -0.35356724 -0.3108132 0.42999768
0000b0 ee 4d a6 3d b9 89 80 3c 20 10 31 bf f5 72 ad bd
       0.08120333 0.015690671 -0.6916523 -0.08469192
0000c0 75 ec e3 be 97 50 a0 bc 41 6c c4 be 5d 66 e8 be
       -0.4451634 -0.019569678 -0.3836384 -0.45390597
0000d0 97 17 96 3e 79 57 15 bf 7e 33 db be 6e 1a 28 be
       0.29314873 -0.583366 -0.42812723 -0.16416332
0000e0 d6 e0 b6 3e 61 47 00 bf 02 2f bb be 40 ff 37 bf
       0.3571841 -0.50108916 -0.36559302 -0.71873856
0000f0 e2 25 03 3e 97 ac 36 3e 3e 48 e2 be f4 d2 07 3f
       0.1280742 0.17839275 -0.4419574 0.53056264
000100 60 a5 ba 3c fb f7 24 be 70 6b 58 3d a3 44 f8 bd
       0.022783935 -0.16110222 0.052836835 -0.121224664
000110 5a 48 f2 3e ee c1 22 3f ee 70 04 3f cf 1d 9f be
       0.47320825 0.63577163 0.5173482 -0.3107743
000120 ad 22 68 be 05 7f c9 be 03 8c 02 3f 5c a6 37 be
       -0.22669478 -0.3935472 0.5099489 -0.17934555
000130 bb 5d d5 be 4f 16 07 3f ea 42 f6 be 08 76 b9 3e
       -0.41673073 0.52768415 -0.48097926 0.36222863
000140 04 76 36 bf df 3b e0 be 8c a9 a9 be d9 55 22 bf
       -0.7127383 -0.43795678 -0.33137167 -0.63412243
000150 12 dd 0d bf ec eb 21 3f e6 92 d0 bc 93 cb 57 be
       -0.5541545 0.63250613 -0.025460672 -0.21073751
000160 6c 76 fb 3e 4f a3 1a bf df 5b 1e bd ce e1 02 bf
       0.49113786 -0.6040544 -0.038661834 -0.511258
000170 16 1c 1e bf 42 a4 2d be 99 81 20 3e 23 50 94 3e
       -0.61761606 -0.1695719 0.15674438 0.2896739
000180 af af ef 3d a9 6b 30 3f e0 ed 1b be 4d e7 3f bf
       0.11703431 0.68914276 -0.15227461 -0.7496231
000190 8f 1b 28 bf 06 ab 00 3e 1d 2b e3 bc 20 9b 30 3f
       -0.6566705 0.1256524 -0.027730519 0.689867
0001a0 50 23 07 3f 46 4b 62 bf 51 6d 8c 3d 42 64 87 3e
       0.5278826 -0.8839611 0.06856788 0.26443678
0001b0 3f 33 50 bf 1f 55 9b be f1 f6 90 be fa 3b 1e 3d
       -0.81328195 -0.3033838 -0.283134 0.038631417
0001c0 d2 21 46 bf 9e 7f 57 be 14 90 b5 bc 64 2f 1d 3f
       -0.77395356 -0.21044776 -0.022163428 0.6140044
0001d0 4b 74 e5 3d 31 fc bd 3e 8c 26 a7 be 17 5c 39 3d
       0.11203822 0.3710647 -0.32646596 0.04525384
0001e0 63 c0 a2 3e 3c 5c 08 bf 78 76 34 3f 0b c9 a6 be
       0.31787404 -0.5326574 0.7049327 -0.3257526
0001f0 a0 cf 0c 3f cf 7c 19 3f ec a4 5d 3d c4 b5 0f 3f
       0.5500431 0.5995607 0.05411236 0.5613673
000200 47 e1 ad 3e 33 d7 23 bf a7 7d c9 3e f2 cd e4 3e
       0.33960935 -0.6400024 0.39353678 0.44688374
000210 15 38 ae bc 8a 93 00 3f 80 30 20 3f f5 5b d0 be
       -0.021266976 0.50225127 0.62574005 -0.40695158
000220 0f 9f ef 3e 7f a0 2d 3e 60 3a 00 3e 61 f3 96 3e
       0.4680104 0.16955756 0.12522268 0.29482558
000230 45 1c 0e be ac fb ba 3e 56 18 17 3f 1f b1 e9 3e
       -0.13877971 0.36520135 0.5902151 0.45642945
000240 eb b0 1d bf aa 6c de be 86 b5 36 bf 52 c9 15 3f
       -0.6159808 -0.4344228 -0.7137073 0.58510315
000250 d5 86 47 3e 6a 81 6b 3d 83 51 87 3e 8b 72 2e bf
       0.19485028 0.057496466 0.26429376 -0.6814353
000260 f6 ce 83 3e d7 15 e8 be 16 13 74 3e 3f 17 13 3f
       0.25743836 -0.45329162 0.23835406 0.57457346
000270 cd 4e 61 3c ed 38 97 3e 28 2d 08 bf 32 4c da 3d
       0.013751698 0.29535618 -0.531939 0.10659064
000280 f5 0c 1d bf 13 49 32 3f ec cc c4 be 9c c8 28 be
       -0.61347896 0.6964275 -0.38437593 -0.16482776
000290 94 f0 b0 3e 96 80 15 3f bf d4 c2 3c 6f 69 50 3e
       0.34558547 0.5839933 0.023783086 0.2035272
0002a0 3a 42 a7 be 5d 88 39 bf fd d3 bd 3e bd 81 a5 3e
       -0.32667714 -0.724737 0.37075797 0.32325545
0002b0 2e ce 83 bd af f7 39 bf a6 44 d3 3e 42 c6 eb 3e
       -0.0643581 -0.7264356 0.41263312 0.46049696
0002c0 d8 e2 84 be 43 da d0 3e 43 dd 9f 3e 58 cd 88 3e
       -0.25954318 0.4079152 0.31223497 0.26719165
0002d0 7f 1a 50 3e 3e 8a b1 be a4 83 05 bf aa bd 1e bf
       0.20322607 -0.34675783 -0.5215399 -0.62008154
0002e0 c7 13 07 3f c4 b8 0a bf d9 69 1f be 80 d3 51 3e
       0.5276455 -0.5418818 -0.15567721 0.20490837
0002f0 20 f8 43 bf 8d 6e 1b be ef 78 33 bf 52 43 16 bf
       -0.76550484 -0.1517889 -0.70106405 -0.5869647
000300 e4 a9 34 3e 4a ff a0 be c2 cc ce be ae 1a e5 bd
       0.17642933 -0.3144477 -0.40390593 -0.11186729
000310 3b 88 5d be bf a5 77 bd 8c 9b 26 bf 3f 8d 26 bf
       -0.21633999 -0.060460802 -0.65081096 -0.65059274
000320 03 c6 25 bf 80 f6 13 bf 06 7b ec 3e 3e d3 7a 3e
       -0.64755267 -0.57798004 0.4618761 0.24494645
000330 f2 81 d3 3e 74 9e 39 bf b3 2e 39 3f 0a 45 c3 be
       0.41310078 -0.72507405 0.7233688 -0.3813861
000340 e5 8a 02 bf 31 aa 17 3f b3 d8 bb 3d 93 ce df 3e
       -0.50993186 0.59244066 0.091721915 0.4371229
000350 2d eb 35 bf 53 80 76 bd da 8a e0 3e 64 42 c7 3d
       -0.71061975 -0.060180973 0.43855935 0.0972946
000360 9b 21 92 be a4 e6 07 3f bb ab f2 be cc 0f 31 be
       -0.28541264 0.53086305 -0.47396645 -0.17291182
000370 3f 7a d2 3e 0f ca 31 bf 04 53 8b bc 27 b6 e3 3e
       0.4110889 -0.6944894 -0.017007358 0.4447491
000380 7c 52 24 3d 3f e4 42 3e c8 41 b8 bd 6b 8c 0f 3f
       0.040117726 0.19032381 -0.08996922 0.56073636
000390 5c 58 33 3f ff 22 73 bd be 35 cc be 73 57 f2 3e
       0.700567 -0.059359547 -0.39884752 0.47332343
0003a0 b0 2d 16 bf ed cb dd bd 22 55 c8 be 25 e2 2a be
       -0.58663464 -0.108299114 -0.3912745 -0.1668783
0003b0 19 f1 ba 3e 8c d1 cc be ae 30 c9 3e 94 36 0a 3f
       0.36512068 -0.40003622 0.39294952 0.5398953
0003c0 37 79 9b be 39 2c 06 3f 29 4a c0 bd ce c4 ed bd
       -0.30365917 0.5241123 -0.09389145 -0.11609803
0003d0 91 d3 c4 3c d8 e2 2c 3e c7 29 1e 3e 72 08 8e 3e
       0.024026664 0.16883409 0.15445624 0.27740818
0003e0 9e 35 01 bf 68 e8 8a be 65 d5 f8 be e3 ef f8 be
       -0.5047244 -0.27130437 -0.48600307 -0.4862052
0003f0 12 cb f4 bd 90 e4 cd be ab ed 1e be e1 fb b3 3e
       -0.11952795 -0.40213442 -0.1552035 0.35153106

Y_net.net.2.weight f4 [256, 256]
000000 06 c1 7c 3d 06 3b 3c bd 22 49 32 3d 80 1a 59 3d
       0.06170752 -0.045954727 0.043526776 0.053003788
000010 12 ea 17 3d f2 8b 5e 3d c8 c9 7c bd 80 fa 56 3a
       0.03708846 0.05433268 -0.06171587 0.00082007796
000020 b2 09 57 bd ea d1 71 bd 10 bf 16 bc da c5 50 bd
       -0.05249948 -0.05903808 -0.009200826 -0.050969936
000030 ac 6f bf bc 72 29 28 bd 60 29 6b bd c0 88 05 3b
       -0.023368679 -0.04105515 -0.057412505 0.0020375699
000040 88 3d 8d 3c 38 23 03 bd d0 83 6c bc c0 72 04 bb
       0.017241254 -0.03201601 -0.014435723 -0.0020209998
000050 6a 4d 3a 3d 1a ca 5d 3d f8 f2 e8 bc 80 4c 99 ba
       0.045483984 0.054147817 -0.028436169 -0.0011695772
000060 18 da c0 3c bc 0c 05 bd 00 6b 9e 3b e0 24 6c 3d
       0.023541495 -0.032482848 0.0048345327 0.057652354
000070 e0 98 41 bc 32 82 08 3d 0c d3 57 3d 72 f1 1a bd
       -0.011816233 0.03332729 0.052691504 -0.037827916
000080 48 50 a0 3c 4c dd 4a 3d 7e 8a 37 bd 86 d2 3a 3d
       0.019569531 0.04952745 -0.04480981 0.045610927
000090 a0 2b 00 bb 58 e5 35 3c 48 32 44 bc 1c 5a 6a 3d
       -0.0019557253 0.011102043 -0.011974879 0.05721484
0000a0 3a 0d 00 bd 20 dc 88 bc 40 bf e3 bc c8 0b 27 3d
       -0.031262614 -0.016706526 -0.027801156 0.04078272
0000b0 20 09 74 3d 00 70 14 39 44 af 24 3d 88 c5 80 bc
       0.059579015 0.00014156103 0.04020621 -0.01571919
0000c0 00 66 d3 bc 58 08 4d bd 82 17 03 3d 88 b0 64 bc
       -0.025805473 -0.050056785 0.03200484 -0.013958104
0000d0 48 32 5b 3c 94 fd 29 3d 34 4f c8 3c 90 50 12 3c
       0.013378687 0.041501597 0.02445183 0.00893034
0000e0 e8 c6 5a bd 60 dd 16 3b 90 2b a1 bb 1c 26 f6 bc
       -0.053412348 0.0023020133 -0.004918523 -0.030047469
0000f0 d2 7c 4a bd d4 cf be bc c0 1e 78 bd 40 1a df ba
       -0.049435444 -0.02329246 -0.0605762 -0.0017021373
000100 02 c2 65 3d 44 4b 46 bd 8c 17 4e bd 38 d6 48 bc
       0.056093223 -0.048411623 -0.050315425 -0.012258105
000110 c8 51 1b bc 8e 68 0d bd d4 d5 da 3c 20 71 70 bb
       -0.009479947 -0.03452354 0.02671329 -0.0036688522
000120 d0 e3 e7 3c f6 d7 7a 3d b0 d5 fc 3c a4 fc 72 bd
       0.028306872 0.061241113 0.030863613 -0.059322968
000130 00 b8 12 3a 20 36 3d bd cc b9 3d 3d 88 22 66 3d
       0.0005596876 -0.046194196 0.046319768 0.056185275
000140 5c bf 1a bd 3c a1 94 3c ec b3 8c bc 70 90 89 3b
       -0.03778015 0.018143289 -0.017175637 0.0041981265
000150 52 97 11 3d 38 ba 1c bc da e7 1c bd ea 39 5d bd
       0.0355447 -0.009565882 -0.03830705 -0.05401031
000160 42 2e 12 bd ba 0c 0b bd c8 56 ff 3c bc 39 75 3d
       -0.035688646 -0.033947684 0.03116931 0.059869513
000170 92 0d 2a 3d 00 98 e1 bb d2 5c 1b bd 1a d5 76 bd
       0.041516848 -0.006884575 -0.037930317 -0.060261823
000180 ee 53 64 3d 80 02 07 bc 24 f9 3a bd 14 f6 07 3d
       0.055744104 -0.008240342 -0.045647755 0.033193663
000190 04 c1 7b 3d 6c 74 91 bc 32 29 50 bd 14 51 01 bd
       0.06146337 -0.01775571 -0.050820537 -0.031571463
0001a0 e6 94 0f bd fc fe 81 3c 5c 59 8c bc 24 ab 67 3d
       -0.03505411 0.015868656 -0.017132454 0.056559697
0001b0 a4 db d3 3c f8 a7 b4 bc 40 37 90 bc 54 3d 3f bd
       0.025861569 -0.02205275 -0.01760447 -0.046689346
0001c0 fc fc 07 bd 84 37 42 bd b0 68 7b bc 90 47 94 3c
       -0.03320025 -0.047416225 -0.015344784 0.01810053
0001d0 e0 61 6f bb a0 ef a3 3b 68 37 cb bc 00 5e 78 3b
       -0.0036526844 0.0050029308 -0.024806693 0.0037897825
0001e0 20 80 20 bd c2 e3 71 3d 80 30 6b bd 80 05 4e 3d
       -0.03918469 0.059055097 -0.0574193 0.050298214
0001f0 e0 63 d3 3b e4 26 0c 3d e4 81 45 3d 80 cc d2 ba
       0.006451115 0.034216776 0.048219576 -0.0016082674
000200 58 2a e7 bc 62 37 7f bd dc 40 03 bd f0 0a 43 bc
       -0.028218433 -0.062308677 -0.032044277 -0.011904463
000210 ac 6b 34 3d 20 8b 2a 3d 2e 09 1b bd e2 8c 3f 3d
       0.044047996 0.041636586 -0.03785055 0.046765216
000220 00 88 34 bd 7c 77 e2 3c 18 8e b1 bc 50 b4 23 bc
       -0.044075012 0.027644865 -0.0216742 -0.00999172
000230 e8 6f 2d 3d bc fa 1e 3d 88 35 2c bc c8 3e 0d bd
       0.04234305 0.038813338 -0.01051081 -0.0344837
000240 5c ed a3 3c 8e f4 45 3d 40 75 27 bb fc f5 fe 3c
       0.020010643 0.04832893 -0.0025552064 0.031123154
000250 02 80 7a bd 68 9d 3f 3d 6c 86 d4 bc 72 03 7c 3d
       -0.061157234 0.046780974 -0.025943004 0.061526723
000260 26 08 00 3d 50 7d fb 3c 0a dc 36 bd c2 0d 75 bd
       0.03125777 0.030699402 -0.04464344 -0.059827574
000270 92 e3 2a 3d d2 a2 04 bd 6e 4c 7b 3d 4e de 34 bd
       0.041720934 -0.03238184 0.061352186 -0.04415732
000280 b6 66 14 bd 4a df 32 3d d0 e8 d6 3c de 12 5d 3d
       -0.036230765 0.043669976 0.02623406 0.05397307
000290 7c f1 d3 bc da 81 11 bd c8 ba 46 3d 04 ad 2a bd
       -0.025871985 -0.035524227 0.048517972 -0.041668907
0002a0 04 9a e2 3c 30 23 c7 3c ba de 36 bd 10 db 29 3c
       0.027661331 0.02430877 -0.044646002 0.01036717
0002b0 a4 16 4f bd 18 29 7f bc a8 a0 25 3d 18 61 ab bc
       -0.0505587 -0.015573762 0.040436417 -0.020920321
0002c0 76 0d 1d 3d 48 d6 d3 bc 14 c2 17 bd e4 0e c9 bc
       0.038342915 -0.025859013 -0.03705032 -0.024543233
0002d0 00 d1 33 bc 84 74 85 3c 58 99 78 3c 08 e4 71 3d
       -0.010975122 0.01629091 0.015173279 0.05905536
0002e0 44 fd 44 bd 00 a3 77 bb 24 86 e0 bc e2 92 65 bd
       -0.048093095 -0.0037786365 -0.027407713 -0.05604828
0002f0 88 0a 42 3c 68 2b 7c 3c d8 e4 04 bd 9a 8b 19 bd
       0.011843331 0.015391208 -0.032444805 -0.03748665
000300 80 d0 e6 bb 14 47 39 3d c8 20 ec 3c cc e8 46 3d
       -0.007043898 0.0452338 0.028824225 0.048561856
000310 6e f2 4f bd b0 41 b8 bc 2c 8a de bc f6 1c 7b 3d
       -0.05076831 -0.02249226 -0.027165495 0.061306916
000320 a8 0a 2c bc 2e 2b 72 3d 70 a9 69 bc fa 55 53 bd
       -0.0105005875 0.05912321 -0.014261588 -0.051595666
000330 dc e2 b1 bc f0 e7 83 bb 0c 88 d3 3c be 32 76 bd
       -0.02171462 -0.004025452 0.025821708 -0.060106985
000340 4a 1f 18 3d 3a be 3f bd 70 fd 5d 3c 40 dd 7a 3d
       0.037139215 -0.046812274 0.013549194 0.061246157
000350 c0 ec a7 3b 24 8e 44 bd e2 06 5c 3d 30 91 40 3c
       0.0051246583 -0.04798712 0.0537175 0.011753365
000360 2c fe 35 3d 10 08 02 bd 16 af 3c 3d 60 f5 fd 3b
       0.04443185 -0.03174597 0.046065412 0.0077501982
000370 74 fe ce bc 64 f8 27 3d 1c 23 4f 3d f4 e4 a6 3c
       -0.025267817 0.041008368 0.050570592 0.020372845
000380 28 0f cb bc 7c b7 51 3d e0 19 67 bc 68 0d 54 bc
       -0.0247875 0.051200375 -0.01410529 -0.012942649
000390 98 89 40 3c 3a 9e 10 3d e4 cd ce bc bc 68 a3 bc
       0.011751555 0.035307147 -0.02524466 -0.019947402
0003a0 e4 ca 88 3c 2c b0 59 bd 18 c4 19 3c ca 63 39 3d
       0.016698308 -0.053146526 0.009385131 0.045261182
0003b0 b0 58 d0 3b 20 24 8e 3b d2 33 38 bd e2 ab 18 bd
       0.0063582286 0.0043378025 -0.044971295 -0.037273295
0003c0 f8 a2 16 3d 0c 4d 74 3d ee ce 17 bd 90 f3 8d 3b
       0.036776513 0.05964379 -0.037062578 0.0043320134
0003d0 28 b0 1f 3d e6 ba 58 bd 78 03 b6 3c a0 aa f4 3c
       0.038986355 -0.052912615 0.02221845 0.029866517
0003e0 38 4a 4e bc 9c d8 57 bd ce 79 26 3d ac a5 3d bd
       -0.012590937 -0.05269681 0.040643506 -0.046300575
0003f0 3c d3 36 3d 48 e9 04 3c 30 5b b6 3c 50 03 de 3c
       0.044635043 0.008112259 0.022260278 0.027101189

Y_net.net.2.bias f4 [256]
000000 a0 52 e9 bb e6 b9 62 3c 17 40 2b bb e9 5b 14 bd
       -0.0071204454 0.013838267 -0.002613073 -0.036220465
000010 14 ee ad 3c 98 3d 18 bb 0e a6 05 bd 1c 3b 2c bd
       0.021231689 -0.0023230072 -0.032629065 -0.04204856
000020 93 ef 89 bd ea 4f bc ba 30 3b 63 3d 40 f8 f8 bc
       -0.06735148 -0.0014367078 0.055476367 -0.030391812
000030 f0 a5 2c 3d 5e 2f 27 3c 33 07 d3 3c 01 aa 39 3d
       0.042150438 0.010204164 0.025760269 0.045328144
000040 68 07 a0 3c 9b 5c 6d bc 11 86 10 bd 76 f1 6b 3d
       0.019534782 -0.014487411 -0.035284106 0.057603322
000050 64 18 16 3d 42 8c 15 3d fd d8 e9 bc f3 bf f0 bc
       0.036644354 0.036510713 -0.02854585 -0.029388404
000060 ca 49 4c bd 8a 9f e4 bc 6b 44 55 bd f3 db 1b 3d
       -0.04987506 -0.027908105 -0.0520672 0.038051557
000070 36 0d 23 bd bb 41 14 3c 56 31 b3 3b 77 c2 6e 3b
       -0.03980752 0.0090488745 0.005468528 0.0036431828
000080 b6 45 d6 b9 f8 ab 4f 3d 03 93 07 3d 88 81 02 bd
       -0.000408692 0.05070111 0.033099186 -0.031861812
000090 a0 0e 13 bd 14 67 09 bd 00 75 e3 3a b3 7f d9 3c
       -0.03590262 -0.03354557 0.0017353594 0.02655015
0000a0 72 a6 9c 3c 44 90 4c 3d 40 5c f3 3a 2e 59 10 bd
       0.019122336 0.04994227 0.0018566921 -0.0352413
0000b0 97 91 6e 3d 6b f2 5c bd a8 42 4c 3d 48 b1 4d bd
       0.058244314 -0.053942125 0.049868256 -0.050217897
0000c0 af a4 68 bc b0 cd 0e bd 4d 40 ae bc 0f e0 e7 3c
       -0.01419942 -0.034864128 -0.021270895 0.028305082
0000d0 ff c2 30 bc d0 94 43 bd 62 bd a3 3c ae c9 f7 bc
       -0.010788678 -0.04774934 0.019987766 -0.030247536
0000e0 95 c8 b2 bc 08 82 bf 3c 90 fa 70 3d a9 7e 83 3d
       -0.02182416 0.023377433 0.058832705 0.06420643
0000f0 50 8b 93 ba d8 bd 3f bd f3 eb af bd 23 a2 6e 3d
       -0.0011256728 -0.04681191 -0.085899256 0.058260094
000100 66 6c 12 be 00 58 ad 3c 04 3a 94 bc 10 9a ba 3b
       -0.14299163 0.021160126 -0.01809407 0.005694635
000110 62 6e eb bc 34 b0 e4 3a aa ed c2 3c 5c 52 75 3c
       -0.028739158 0.0017447532 0.023794968 0.014973249
000120 4c 04 f2 bc 64 69 c8 bc 64 38 f0 bc 60 99 05 3c
       -0.029543065 -0.024464317 -0.029323764 0.008154243
000130 20 d6 00 3c 72 ec 8e bc 00 14 06 bc fe bc 8b 3d
       0.007863551 -0.01744673 -0.008183479 0.06823157
000140 64 2c d7 3c 41 f2 ba 3c 45 53 33 3d e4 32 87 bd
       0.026266284 0.022820594 0.043780584 -0.066015035
000150 b8 37 40 3d 79 59 51 3d ce 33 0f 3d fb 74 94 3c
       0.046928138 0.05111072 0.034961514 0.018122187
000160 bf 9d 02 bc 2a 0b 3e bd b8 8a 5c 3d cf a6 3f 3c
       -0.00797218 -0.046397366 0.05384323 0.011697485
000170 f6 d2 2c 3d 6f 5e 2b bd c3 46 5d 3d fd f7 8e bb
       0.042193376 -0.041838106 0.05402256 -0.0043630586
000180 7e d2 d4 3c fd 50 3d 3c 02 82 49 bd 97 7d 0c 3d
       0.025979277 0.011554954 -0.04919625 0.03429946
000190 70 b3 0f 3d d0 7f 1c 3d 1a 8f 68 bd 38 e0 f1 bc
       0.035083234 0.03820783 -0.056777097 -0.029525861
0001a0 10 83 20 bd 54 71 b2 bd 13 1c 3d 3c 71 77 4b bd
       -0.03918749 -0.08713022 0.011542338 -0.049674455
0001b0 71 59 e4 3c 7c 2b eb 3c 97 43 47 3d c6 52 5c bd
       0.02787468 0.028707258 0.048648443 -0.053789876
0001c0 fd 97 b0 3c a7 0a 31 3d 36 73 59 3c 88 85 35 bd
       0.021556849 0.04322305 0.013272097 -0.0443168
0001d0 c6 15 5f bc 15 26 19 3d c4 51 a1 bc 6b b0 3e bd
       -0.013616031 0.037389833 -0.01969231 -0.046554964
0001e0 1f 8f 36 3d 75 92 31 3d 24 b3 96 3d da d0 82 bd
       0.044570085 0.043352563 0.07358387 -0.063874915
0001f0 47 4b db bc 87 9c 13 3c 88 12 ce 3c 24 da ca 3b
       -0.026769293 0.009009487 0.02515532 0.006190555
000200 15 1d 3a bd 58 49 46 bd 70 72 4f 3d a7 2b c1 bb
       -0.04543789 -0.04840979 0.050646245 -0.0058950963
000210 3a 15 81 3d 7c 6a 0f bd b6 b0 3d 3d a3 08 40 bd
       0.06302877 -0.03501366 0.046311103 -0.046883237
000220 4c 94 3b 3d 87 cd d6 3c 30 dd 23 3d ac 15 fa 3c
       0.045795724 0.02622105 0.040005863 0.030527912
000230 3c 32 8d bd 2c f9 9b bc 2b 08 2e bd 72 17 85 3c
       -0.06894347 -0.019039713 -0.04248826 0.016246531
000240 45 98 58 bd 94 af f8 bc d9 0f bf 3c 6c 29 13 bc
       -0.05287959 -0.03035716 0.023322986 -0.008982044
000250 86 b0 74 bd 71 85 f4 3c 2d ad 2b bd 54 3c cf 3c
       -0.05973866 0.029848786 -0.0419132 0.025297321
000260 f7 94 ae bc 76 eb a5 3c 11 6e 3d bd 73 b3 66 3d
       -0.021311266 0.020253878 -0.046247546 0.05632348
000270 5d d9 17 3d 83 d6 7d 3c d5 dc 41 3d 08 b7 93 3c
       0.03707253 0.015493038 0.047329742 0.018031612
000280 2b ec 1e 3d 50 40 60 bc 40 0c c7 3c 00 c4 6f 3d
       0.038799446 -0.013687208 0.024297833 0.05853653
000290 ac fe 16 bd 1b 93 59 bd 85 ae 4e bd c5 d0 24 bd
       -0.036863968 -0.053118806 -0.050459404 -0.04023816
0002a0 c3 ae 7c bd 34 33 56 3d 61 26 f0 3c 64 4e e5 3b
       -0.061690103 0.052294925 0.029315175 0.0069978703
0002b0 01 94 49 3d c9 e8 08 3d 95 70 6b 3d d2 97 41 bd
       0.049213413 0.033425126 0.057480413 -0.047263928
0002c0 e7 93 fa 3c 50 7b ea bc bb 0a 70 bd 70 1b aa 3b
       0.030588103 -0.028623253 -0.058603983 0.005191259
0002d0 b0 8a ba 3a 34 12 6a 3d 34 66 4d bd 54 a3 14 3d
       0.0014232006 0.057146266 -0.050146297 0.036288574
0002e0 4e ec 5f 3d 10 ea 93 3d 2c 8a a2 3c f4 f8 e7 bc
       0.054668717 0.07222378 0.019841276 -0.028316952
0002f0 4c ea d9 bc 80 c6 be bb aa c3 70 3c da 3e 6d 3d
       -0.02660098 -0.005822003 0.014695087 0.057921268
000300 25 14 d3 bb 29 b7 74 bc 5e 10 8f bb 99 b2 cf 3c
       -0.0064416104 -0.014936247 -0.004365965 0.025353717
000310 7f 3a 92 3b c3 bf 8a 3c 6b 6a d8 3c 65 f0 29 3d
       0.0044625397 0.016937142 0.026417932 0.041489024
000320 5c 8d fb 3c b6 b3 ab bc cb ea 34 bb 64 1e fa 3c
       0.030707054 -0.020959716 -0.0027605768 0.03053207
000330 a6 74 b3 bb 4b d8 db bc ad cb 11 3d fd 62 23 ba
       -0.005476552 -0.026836535 0.03559463 -0.0006232707
000340 e0 b0 3b bd 0d 51 ac bc 2c 20 25 bd 74 bb 06 bd
       -0.045822978 -0.021034742 -0.040313885 -0.032893613
000350 25 36 b0 3c 1a 99 01 3b 56 61 23 bd 2c 6b 4c bd
       0.021510193 0.0019775094 -0.03988775 -0.049906895
000360 cd a4 64 3d d0 67 89 3d 47 98 8d 3d fa fb 15 bd
       0.05582123 0.06709254 0.0691381 -0.036617257
000370 7f a6 11 bc 0a 8f 07 bd b5 4f 84 bd fa e1 b4 3c
       -0.008889793 -0.033095397 -0.064605154 0.02208041
000380 c8 0a 70 bc 1a 38 24 bd 26 3f 10 3d 3e d1 9c 3d
       -0.014651008 -0.040092565 0.035216473 0.07657097
000390 29 54 7a 3d 72 36 f9 3c 00 4b 1b bc f6 0e 13 3d
       0.061115418 0.03042147 -0.009478331 0.03590294
0003a0 70 d0 c3 bc 91 05 66 bc 0e 77 28 3d 1e 0d 27 bd
       -0.023903102 -0.014039413 0.041129164 -0.040783994
0003b0 19 85 2a 3c 7a d1 39 3d ff 76 1d 3d 52 34 2f 3d
       0.0104077095 0.045365788 0.03844356 0.042774506
0003c0 e8 98 33 bd 97 8e 26 bd 2e 1a 33 3d 62 5c ef 3c
       -0.043846995 -0.040663328 0.04372614 0.029218856
0003d0 ac 08 bb bc 63 ef 05 3d b5 a4 0a 3d f4 fd 1e bd
       -0.022831284 0.032699 0.033848483 -0.038816407
0003e0 4a c3 c2 3c d6 15 81 bc 03 11 7b bd 24 91 f9 bb
       0.023774762 -0.015757482 -0.06129552 -0.007616179
0003f0 10 11 9e 3c 1c 55 80 3c a3 88 1f bc 50 cc 8c 3b
       0.019295245 0.015665583 -0.009737167 0.004296817

Y_net.net.4.weight f4 [256, 256]
000000 56 c2 65 3d a3 96 39 bd 3b dc 6c bd e0 8f 58 3c
       0.056093536 -0.045309674 -0.057827216 0.013217896
000010 79 14 5e bd 9e d2 7b bd be d2 4e 3d 3d 26 14 bc
       -0.054218743 -0.061480157 0.05049395 -0.00904232
000020 97 e2 a5 3c 55 c0 60 bc f3 11 42 3d b3 3c 47 bd
       0.020249648 -0.0137177305 0.0473804 -0.04864187
000030 f5 63 eb bc d0 97 60 3d 68 cd 22 bd d3 a3 c5 bc
       -0.028734187 0.05483228 -0.039746672 -0.024125969
000040 3f a1 32 bd a3 4e e2 bc f6 42 15 3a 40 91 52 bc
       -0.043610808 -0.027625388 0.0005693877 -0.012852013
000050 96 5b 1a bd 74 41 12 bc 3a a6 51 bd ff 28 b9 3c
       -0.037685 -0.008926738 -0.051183917 0.022602556
000060 ce 4b 09 3d dd 12 8e 3c 52 e9 ea bc 10 0c ef 3c
       0.03351956 0.01734298 -0.028675709 0.029180557
000070 87 07 85 3d ac ad 98 3d c0 ea 73 3d 64 16 43 3d
       0.06495576 0.07455 0.059550047 0.047628775
000080 15 f4 c1 3c f2 3d f0 bb 9c 59 0e 3d 0d d7 34 3d
       0.023675958 -0.007331603 0.034753427 0.0441504
000090 e3 3b 5b bd f8 8e 30 3c 08 99 5f bd f4 fc 1a 3c
       -0.05352391 0.010776274 -0.0545893 0.009459723
0000a0 6b 76 a6 3c 72 36 b6 bb 78 86 3d bd 6a 37 61 3d
       0.020320138 -0.0055606896 -0.046270818 0.054984488
0000b0 08 81 2c 3b bf 1f 63 3a 44 38 5e bc 2e 5c 2f 3d
       0.0026322026 0.00086640933 -0.013563219 0.04281252
0000c0 f5 e5 05 3c 0a 49 6d bd 6b ae 29 bc 31 21 0e 3d
       0.008172502 -0.057930984 -0.010356526 0.034699623
0000d0 7d 5a 99 bc 36 1f 7c 3d 6e 0e 05 3b 2f f1 b2 3c
       -0.018719906 0.061553203 0.002030279 0.02184352
0000e0 2c 19 4e bd ae fa 4f bd dc 39 a2 bc ed 09 a4 bc
       -0.050316975 -0.050776176 -0.01980298 -0.020024264
0000f0 cf cd 38 bd 8f 39 2a bd fd 11 08 bc c6 2a 47 bd
       -0.04511815 -0.0415588 -0.00830507 -0.048624776
000100 28 bb dd bb 2c e5 44 bd 25 f6 0b bd ea 47 41 3d
       -0.0067666955 -0.048070118 -0.03417029 0.047187723
000110 6a 4b 9d bb 46 28 cb bc b6 b4 db bc 92 3d 73 bd
       -0.00480025 -0.024799477 -0.026819568 -0.05938489
000120 7c 4c 33 3d 86 5a 74 3d e3 2f 4a 3d c0 9b 09 bb
       0.043774113 0.059656642 0.049362075 -0.0020997375
000130 57 be 25 3c 2e 9b 6c bd 62 04 38 bd c1 dc 2b bd
       0.010116181 -0.05776518 -0.044926055 -0.041958574
000140 ce e6 9a 3b b3 12 4e bd 69 92 72 bc 47 aa 97 3d
       0.004727221 -0.0503108 -0.014805415 0.07405525
000150 fe 24 6a 3c d2 93 47 3c 45 85 6e 3d 4c 76 3a bd
       0.014291046 0.012181239 0.058232564 -0.045522973
000160 b8 4b 29 3c 84 59 da 3b c0 f1 ef bb 43 aa ea bc
       0.010332994 0.006663503 -0.00732252 -0.02864564
000170 c0 36 17 bc 82 4b 39 3d 1c 19 22 bd 9f 88 63 3c
       -0.009229362 0.045238025 -0.039574727 0.0138875535
000180 08 95 70 3d 6b 39 d3 3c 8b bd ef 3c 7f 23 4e bd
       0.058735877 0.025784215 0.029265186 -0.05032682
000190 17 1f 3b bb f1 36 32 3d c4 dc c2 bc c0 cd 4d 3d
       -0.0028552467 0.043509427 -0.02378691 0.050245047
0001a0 82 47 2a 3d f4 40 c9 3c 5e 3d fc 3c 4e 72 1b bc
       0.0415721 0.024567105 0.03079098 -0.009487702
0001b0 92 42 a2 bb 5c a5 fd 3c 9d c0 1e bd 70 83 41 bc
       -0.0049517835 0.030962639 -0.03875791 -0.011811122
0001c0 5a 44 40 bd 88 43 eb 3c ac bb 00 3d 20 02 69 bb
       -0.046940185 0.028718725 0.031428978 -0.0035554245
0001d0 a5 d8 82 3d cb 24 25 3d 28 42 15 3d 1a 38 50 bd
       0.06388978 0.04031829 0.036440045 -0.050834753
0001e0 b5 ac b7 bc 0f e3 f2 3c dc 3e 83 3c 9c 7e f6 bb
       -0.02242122 0.029649286 0.016021185 -0.007522417
0001f0 26 2e e4 bb b1 f1 73 bd 79 ca fd bc 13 f2 4e 3d
       -0.006963509 -0.059556667 -0.030980336 0.05052383
000200 dc f4 18 bd 4f 60 5e bd 30 85 83 bb 4b 92 43 3d
       -0.03734289 -0.054291066 -0.00401368 0.047746938
000210 58 f8 3e 3d f4 27 78 bd d6 80 4a bd 61 82 e7 39
       0.046623558 -0.060584977 -0.049439274 0.00044156893
000220 4e ac 55 3d 18 e1 88 bd 69 d5 90 3d e4 5b 27 bd
       0.052166276 -0.06683558 0.07071955 -0.040859118
000230 3e e0 27 bd 12 b1 3d 3d 6d 71 7c bc f6 3a 81 bb
       -0.04098534 0.046311446 -0.015407902 -0.0039437963
000240 d0 e9 80 3d 0f 7c ff bb ee 76 86 3d 3f 78 0f 3c
       0.06294596 -0.0077967714 0.06565653 0.008756696
000250 30 fe 6e bd f8 00 fe bc 21 77 9e bc 0d a2 ae bb
       -0.05834788 -0.031006321 -0.019343914 -0.0053293766
000260 96 70 34 bd 52 02 b3 bc 80 66 0d bd a3 26 88 bc
       -0.044052683 -0.021851692 -0.03452158 -0.016619986
000270 5d 1a 86 3c 5b d9 4d 3d e3 e1 aa bc e6 d3 26 bd
       0.016369993 0.050256114 -0.020859664 -0.040729426
000280 53 7c 84 bd 58 83 cd 3c f4 14 a3 3d 10 e9 86 3b
       -0.064690255 0.025087044 0.07962981 0.0041171387
000290 6c be 90 3c 4b 01 d3 bc 9c 08 8b bd a6 f5 4f bd
       0.017668925 -0.025757452 -0.067887515 -0.050771378
0002a0 34 68 d4 3c 46 4f 4d bd 3e 82 28 bc ad 4c 23 3d
       0.025928594 -0.05012443 -0.010284958 0.039868046
0002b0 bf 44 c6 3b 86 0d 25 bd 96 e6 7f 3d 40 43 71 bd
       0.0060506756 -0.0402961 0.062475763 -0.058902025
0002c0 ec 10 d4 bc 11 84 46 bd 41 e9 f5 bc 2c f0 4c bd
       -0.025886975 -0.048465792 -0.03001845 -0.050033733
0002d0 4d 2e 59 bd 3f 73 59 3d ec 35 82 3d 7d 54 41 bd
       -0.05302267 0.053088423 0.06357941 -0.047199715
0002e0 58 ae d4 3c 5b cf 68 bd c8 ef 09 bc df 85 53 bc
       0.02596204 -0.056838375 -0.008418985 -0.012910335
0002f0 04 c8 2f 3d df 4a 84 bb 10 1e 30 3d f1 06 5e 3c
       0.04291536 -0.0040372456 0.04299742 0.01355146
000300 9e 95 82 bd 67 e3 ca 3d a0 dc 63 3d b0 24 68 bd
       -0.063761935 0.09906655 0.055630326 -0.056675613
000310 73 ee d2 bc 4c cb 5e bc b4 47 10 bd 40 bf 47 bd
       -0.025748467 -0.013598274 -0.03522463 -0.048766375
000320 80 ed f5 ba c1 a1 5e 3c 7a dd 60 3d 00 8f 6b bd
       -0.0018762797 0.01358837 0.054898717 -0.057509422
000330 7a df c8 bc 4c 4f 14 bd 34 78 2d 3d 13 d9 52 3d
       -0.024520624 -0.036208436 0.042350963 0.05147655
000340 e8 a0 6e 3d 72 04 3a 3d cc 70 15 bd 2c e1 1a bd
       0.05825892 0.045414396 -0.036484525 -0.037812397
000350 c8 e3 e6 bc e6 41 12 3d 68 a4 13 3d 30 8f 15 bd
       -0.028184786 0.035707377 0.036045462 -0.036513507
000360 de c1 a9 bc 62 16 86 3d 9a 88 22 bc 60 1c 12 3d
       -0.020722326 0.06547238 -0.009920264 0.03567159
000370 4e 9c 75 3c ea 49 16 bd 52 59 82 3d 25 14 7d bd
       0.014990879 -0.036691584 0.06364693 -0.06178679
000380 d0 ca bc 3c 85 24 f4 3b e2 c0 1e bc 8f e9 ff bc
       0.023045927 0.0074506425 -0.0096895415 -0.0312393
000390 3f 6c d7 3c 6a 8b 49 3d 6a 5a 43 b9 c5 5c 1a 3c
       0.026296733 0.04920522 -0.00018630331 0.009421532
0003a0 1c d8 a3 3b 86 91 38 3d d8 35 bd bc 3d ac 05 3d
       0.0050001275 0.045060657 -0.023096964 0.032634962
0003b0 48 c9 63 bb cc 70 2c 3d 43 89 a1 bc ba 0c 2b bd
       -0.0034757424 0.04209976 -0.019718772 -0.041760184
0003c0 ce e5 56 bd 66 9c 8d bd 4e b0 65 3d 24 28 3e 3d
       -0.052465253 -0.06914596 0.05607634 0.046425
0003d0 a9 ff 91 3d 36 f3 4a 3d 90 0d f2 bc 8c 20 67 bd
       0.071288414 0.04954835 -0.029547483 -0.056427523
0003e0 45 96 2c 3d d3 b5 a8 bc a1 3f 87 bb 1b 68 d4 bc
       0.042135496 -0.020594513 -0.004127458 -0.025928548
0003f0 65 06 8d 3c 80 5c b5 bb 49 ed eb bc 01 39 cc bb
       0.017214963 -0.0055347085 -0.02879967 -0.0062323813

Y_net.net.4.bias f4 [256]
000000 6d 7f 66 bb 8a f1 8a 3c 9c 95 32 3d 3f ba 37 bc
       -0.0035171167 0.016960878 0.04359971 -0.011213838
000010 5f 53 16 3d bf 5f ca 3c b0 5e 2c 3d d4 44 7f 3d
       0.036700603 0.024703858 0.04208249 0.0623215
000020 7d c5 66 3c df 69 48 bb 8f 93 e3 3b 0f 4c 2a 3d
       0.014085171 -0.0030580682 0.0069450806 0.04157644
000030 c9 6a b5 3c 61 89 23 3b e8 55 99 bb 2c 17 2d bd
       0.022145646 0.002495371 -0.0046794303 -0.042258427
000040 3c 41 df bc 20 6d 2f bd d3 e7 c5 ba 62 13 7d 3d
       -0.027252786 -0.04282868 -0.0015098996 0.061786063
000050 d5 2e 79 bd 2d f1 e2 3c 22 43 76 bd 3f 2b 81 bb
       -0.060835678 0.027702892 -0.060122617 -0.003941923
000060 09 9d 24 bd 60 d7 bb 3a 74 d0 a6 bc 50 f5 4a bd
       -0.040188823 0.0014331155 -0.02036307 -0.049550354
000070 37 e5 42 bd fb fc 11 3d 2b e1 57 bd c1 3b 20 bc
       -0.047581878 0.03564165 -0.05270497 -0.009779871
000080 e7 e0 2a 3c c4 f3 55 bd f7 53 c0 3c 0d 02 99 3d
       0.010429597 -0.052234426 0.023477538 0.07471094
000090 29 b9 01 bc 36 55 1c 3d bc 8d 07 3c f0 37 94 3d
       -0.007917681 0.0381672 0.008273538 0.07237232
0000a0 43 f3 bf bc ae 5f 09 bd b5 99 8b bc bb 08 fe 3c
       -0.023431426 -0.033538513 -0.017041067 0.031010022
0000b0 4f ce 9c 3d b0 d6 a6 3c 80 7c 55 3a 9b 23 30 bd
       0.07656538 0.020366043 0.0008143857 -0.043002706
0000c0 02 eb 70 bc d8 85 c1 bc 2a 9e 60 bd ff 42 5a 3d
       -0.014704468 -0.023623392 -0.054838337 0.05328655
0000d0 6f a4 d7 3c 02 31 66 3d f6 8d 96 3c c1 fe 92 bd
       0.026323525 0.05619908 0.01837824 -0.07177497
0000e0 d5 52 3a bc 3a cc 57 bd 64 55 af bc 46 2b 92 3d
       -0.011372288 -0.052685 -0.021403022 0.0713716
0000f0 f1 e7 14 bc 92 8c 9c bc 58 8f f9 bc 5a 4d 9d bc
       -0.009088502 -0.019109998 -0.03046386 -0.019201923
000100 ce f9 8b bc 6e de 51 3b fd ca 2b 3c e8 fd 1a 3c
       -0.01708689 0.0032023448 0.010485408 0.00945995
000110 60 15 24 bc f5 46 cd bc bd e4 81 3d 60 cb 1d 3b
       -0.010014862 -0.025058249 0.063424565 0.002407752
000120 7a b2 5b bc b3 2f 8b bc b6 24 99 bb 26 34 06 3c
       -0.013409251 -0.016990518 -0.0046735657 0.008191144
000130 d3 48 de 3c c9 d2 b3 3c 64 27 96 3d f7 d8 48 3c
       0.027134335 0.021951096 0.07331732 0.01225876
000140 20 8d 81 3d a0 e7 0f 3c ce 75 0f bc 0e d2 4b 3d
       0.063257456 0.008783251 -0.008756114 0.04976087
000150 6f 64 e4 bc dc 86 e4 3c eb 08 49 bd a6 e3 4f 3c
       -0.027879922 0.027896337 -0.04908077 0.012688553
000160 1a 85 34 bd f0 40 1c bd ce 16 49 bd c7 a7 ac bd
       -0.044072248 -0.038147867 -0.049094014 -0.084304385
000170 36 c9 06 bd 39 07 25 bd 90 e3 6a 3c e0 10 8d 3c
       -0.032906733 -0.04029009 0.014336482 0.01721996
000180 14 4c 26 3d 63 9c d0 3c 39 82 a8 3c 5d f7 f4 3c
       0.040599898 0.025465196 0.020569908 0.029903108
000190 58 1b 13 3d 19 42 62 bd 0c 45 59 bd 32 d5 42 bd
       0.03591475 -0.055238817 -0.053044364 -0.0475666
0001a0 77 80 aa bc 45 18 e8 3c 9d 68 ae 3c 06 c2 b6 3c
       -0.02081321 0.028331885 0.021290118 0.022309314
0001b0 02 8e 32 bd 80 c4 06 3d d8 c4 72 3d de 2c bb bb
       -0.04359246 0.03290224 0.059269756 -0.0057121357
0001c0 45 96 87 bb 66 b7 9a 3d ac a9 b7 3c 0f 9a 31 3c
       -0.0041377866 0.07554512 0.022419773 0.010839953
0001d0 39 41 32 bc 3f 6a 5b bd 50 00 35 bb ab 26 85 3d
       -0.010879808 -0.05356812 -0.0027618594 0.06501516
0001e0 11 aa 86 3d e0 48 02 bc 3b 35 ed 3b 92 93 83 3d
       0.06575406 -0.007951945 0.0072390116 0.06424631
0001f0 38 78 92 bc 6b 08 ee 3b 61 90 82 bc b0 bf ea bc
       -0.01787959 0.007264187 -0.015937986 -0.028655857
000200 3b f5 44 3d 25 17 47 3d 4b 4b 2d 3c c7 df 0c bd
       0.048085432 0.048606057 0.010577033 -0.0343931
000210 96 ca 33 3d 5a 08 82 bc 90 3d 71 3d 5c 76 96 bb
       0.043894373 -0.015873123 0.0588966 -0.0045917463
000220 fd d6 61 3d 67 d6 13 3d 69 84 06 3d 45 6f eb bc
       0.05513667 0.036093142 0.03284112 -0.02873958
000230 56 c0 5b 3c 82 8e 95 bc 24 da c5 bc e2 1c 84 bd
       0.013412556 -0.01825643 -0.02415187 -0.064508215
000240 2b f9 0f 3d 91 3b 0f 3c a2 4e 5a 3c b2 66 c5 bc
       0.035149734 0.008742229 0.013324412 -0.02409682
000250 cf fb 39 bd 3c b2 09 bd 68 4c 35 bd cd 33 51 3c
       -0.04540616 -0.033617243 -0.04426232 0.012768698
000260 bd 50 16 3d 1b c1 5c bd 3b 3b 1c 3d 8b 36 7e bd
       0.03669809 -0.053895097 0.038142424 -0.062063735
000270 d1 21 54 3c 6e b0 14 bc 66 f9 4e ba e3 11 95 3b
       0.012947516 -0.009075267 -0.00078954396 0.0045492514
000280 9b d9 00 3d bd ee 27 3d 0d f9 9a 3d fa 1b 03 bc
       0.031457525 0.040999163 0.07567034 -0.008002276
000290 51 a8 b4 3c f3 fd 8c 3d 3b ff bc bc 62 89 40 bd
       0.022052916 0.068843745 -0.023070922 -0.04700602
0002a0 a2 62 43 3d 1b 77 34 3d 60 c8 06 3d 86 df d5 bb
       0.047701485 0.0440589 0.032905936 -0.00652689
0002b0 0d c9 b0 3c e9 77 29 3d 02 c5 1d bd df 44 26 3d
       0.021580243 0.04137412 -0.03851796 0.040593024
0002c0 5e 3b 2e bd 89 bd 96 3d be bb f9 ba 36 bf f1 3c
       -0.042537086 0.0736037 -0.0019053144 0.029510122
0002d0 58 fe 1a bc f0 e3 42 bd ca 43 0e 3c 1f 25 e1 bc
       -0.009460054 -0.04758066 0.008683154 -0.027483521
0002e0 25 3c 6d bd a9 e6 6a bd 55 f2 9e bd b4 b0 c0 bc
       -0.057918686 -0.05734888 -0.07761065 -0.023521759
0002f0 36 91 02 3d 7e 07 20 3d 47 ff a3 bd 8f 0f 66 bb
       0.031876765 0.039069645 -0.08007675 -0.0035104488
000300 a7 e9 3a bc 21 ce 5c bd 61 c8 82 3d aa ce 39 bd
       -0.011408246 -0.053907517 0.063858755 -0.045363106
000310 dc 77 9a bc 86 b8 0b bd 3b 32 55 3d 31 0a 57 bd
       -0.018855982 -0.034111522 0.052049857 -0.052499954
000320 49 0a 15 bc d1 ef 13 bd ca 12 a7 3a 7d 4f 2b 3c
       -0.00909669 -0.03611738 0.0012746688 0.010455963
000330 70 c7 cf bc 71 db 9b bc b1 8f 08 bc 77 26 ad bc
       -0.025363654 -0.019025536 -0.00833504 -0.021136506
000340 06 03 e9 bb ba 6b 7a bd e4 21 64 bd f9 41 6f bc
       -0.007110956 -0.061137892 -0.055696383 -0.014603131
000350 5e cb 17 3d 8e d5 f2 3b e8 f0 36 3d 94 45 ae 3c
       0.03705918 0.0074107116 0.04466334 0.021273412
000360 56 36 79 3c 77 59 d4 3c 00 e3 b1 3c b3 62 f4 bc
       0.015210709 0.025921566 0.021714687 -0.02983222
000370 50 bd 94 bc f1 aa 96 ba 8b 98 51 3d 5e d4 18 3d
       -0.018156677 -0.0011495036 0.051170867 0.037311904
000380 12 1c e7 3c 2c 7b 0a bc 89 50 9e bc 0b 00 c9 3c
       0.028211627 -0.008452218 -0.019325512 0.024536153
000390 47 17 0e bd a9 6e 32 3d 2e cc 48 3d ce 89 40 3d
       -0.034690168 0.043562565 0.049022846 0.04700642
0003a0 3f ba 32 bb 18 bd b1 bc 16 01 be ba fe 87 d5 3c
       -0.0027271656 -0.021696612 -0.0014496173 0.026065823
0003b0 41 9e 71 bd 00 20 1c bc e1 00 e1 3c fb a9 25 bc
       -0.058988813 -0.009529114 0.02746624 -0.010111327
0003c0 e8 65 a1 bc ba df 3b bc 9b e4 4a bd b9 5d fd bc
       -0.019701913 -0.011466915 -0.04953442 -0.03092848
0003d0 93 ea cb 3c 2a 8e b4 bc 6a 2b 37 bd f6 b7 10 bd
       0.024892127 -0.022040445 -0.044719137 -0.03533169
0003e0 7a 29 75 bd e9 f5 06 bd f0 67 83 bc a6 b0 85 3d
       -0.05985401 -0.032949362 -0.016040772 0.06527834
0003f0 c5 2f 6f 3c 8e 33 58 3d 57 dd e9 3b 5f 43 bb 3b
       0.0145987915 0.05278354 0.0071369815 0.0057148184

Y_net.net.6.weight f4 [256, 256]
000000 04 64 5e 3d 86 77 e1 3c f5 91 66 bc ca c5 63 3d
       0.0542946 0.027522814 -0.014072885 0.05560855
000010 a7 7a a9 bb 41 50 4d bd 8a 23 4e 3d c4 6b 33 3d
       -0.005172092 -0.050125364 0.05032686 0.043803945
000020 7c 83 43 bd a9 c7 26 3d 2e 9d 04 bd d4 d0 55 3c
       -0.047732815 0.040717755 -0.03237646 0.013050277
000030 28 4e 92 bc b9 46 60 3d dd b1 93 bc 6d c0 4f bd
       -0.017859533 0.054754946 -0.018029148 -0.05072062
000040 28 0b 3a 3c 00 2e 3f bd 1d cc 5b 3c e3 af 28 ba
       0.011355199 -0.04667473 0.013415364 -0.00064349006
000050 69 70 bd bc bf d7 1e 3d 0e 0f 71 3d 16 ff 12 bd
       -0.02312489 0.03877997 0.058852248 -0.0358878
000060 e6 64 f0 bc e2 9b 13 3d 74 a4 fd bb 37 f9 05 ba
       -0.029344987 0.036037333 -0.0077405516 -0.0005110683
000070 9c 9d 09 3d f2 9b 88 bd 40 21 3c 3d 38 6d 3f 3d
       0.033597574 -0.06670369 0.045930147 0.04673502
000080 0b 43 64 3d 94 7c 5c 3d 55 09 3b 3d 78 a2 08 3d
       0.055728 0.053829744 0.045663197 0.033358067
000090 f9 e8 87 bd 3b d8 53 3d d4 93 c1 3c 29 f8 8c bd
       -0.06636233 0.051719885 0.02363006 -0.0688327
0000a0 1a bf 40 3d a3 c2 1c 3d 8b 6b 60 3d 63 06 b3 bc
       0.04705725 0.038271558 0.05479006 -0.021853631
0000b0 a5 cc 47 3c 25 0f 60 3d ec 14 c8 bc a0 4a ec 3c
       0.012194787 0.054701943 -0.024424039 0.028844178
0000c0 c6 7e 44 3c e0 56 f7 3b c0 37 9c 3c ff f8 20 bd
       0.011993116 0.007548198 0.019069552 -0.03929996
0000d0 9d 22 14 3d f7 ce 39 bd b6 69 03 3d 40 4f 1f bd
       0.036165822 -0.045363393 0.032083236 -0.038893938
0000e0 29 ff 8a 3c bd 83 1a 3d 9e b5 1d bd 6d 12 2e bd
       0.016967373 0.03772329 -0.03850328 -0.04249804
0000f0 e0 14 99 3c b5 e6 88 bd b8 31 02 3c ad c6 64 3d
       0.018686712 -0.06684629 0.007946424 0.055853534
000100 16 64 86 bd fa 74 1a bc fd cd 80 bd 32 3f 69 3d
       -0.06562059 -0.009427303 -0.06289289 0.056945033
000110 03 a7 1b 3d fe 7f 91 ba 08 3c 9f 3b 00 e5 d0 b9
       0.03800107 -0.0011100767 0.004859451 -0.0003984347
000120 09 36 4f bd 4b 18 e8 3c 07 de 99 bc 43 0e 01 bd
       -0.05058864 0.028331896 -0.018782629 -0.03150774
000130 f5 23 36 3d 7a 29 20 bd 36 fc 47 bb 68 c1 09 bd
       0.044467885 -0.039102055 -0.003051532 -0.033631712
000140 fd c1 55 3d e1 79 8b bb 5a 77 93 3d bd dd f8 3c
       0.052186955 -0.0042564725 0.07200499 0.03037917
000150 92 51 d4 bc f5 c6 da 3c d7 ea 02 3d 4e aa 88 3d
       -0.025917802 0.026706198 0.031962242 0.06673108
000160 f2 3c 88 3d ee 94 08 3c 06 b1 59 3d b6 05 24 3d
       0.066522494 0.008336289 0.05314734 0.04004451
000170 b0 a7 61 3d a0 00 28 3d e2 fa 68 bd a1 be 8b bd
       0.05509156 0.04101622 -0.056879885 -0.06823469
000180 1e e5 40 3b 92 ca be bc 39 33 92 bd 77 82 92 bc
       0.002943344 -0.023289952 -0.07138676 -0.017884476
000190 74 14 64 bd e0 17 13 3d c0 43 4b 3b 5c af ef 3c
       -0.055683568 0.03591144 0.0031015724 0.029258423
0001a0 23 a6 3b 3d 4f 71 3f bd d6 12 85 3c b4 c0 08 bd
       0.045812737 -0.04673892 0.016244333 -0.0333869
0001b0 78 6c 18 3d 7e 8c 2a 3d e3 1b 3f 3d bb 57 34 3d
       0.03721282 0.04163789 0.046657454 0.04402898
0001c0 ca e1 66 bd 67 1c 00 3d 1e a0 35 3d df 14 ee bc
       -0.056367673 0.031277087 0.044342153 -0.029062686
0001d0 e5 1f 09 bc 02 a8 8c bd 3d c2 d0 3c 8a 31 ee 3c
       -0.008369421 -0.068679824 0.025483245 0.029076356
0001e0 63 83 c2 3c 0a 28 10 bd 98 cd 7f 3d a3 bb a7 3c
       0.02374429 -0.035194434 0.06245193 0.020475214
0001f0 15 50 79 3d 7c 32 c6 bc 0c e8 08 bd e0 2c 1d bd
       0.060867388 -0.024193995 -0.033424422 -0.038372874
000200 75 45 0b bd 70 0b 37 bd 3c 56 49 3d 0a 1f 20 bc
       -0.034001786 -0.044688642 0.049154505 -0.009773025
000210 40 0e 34 bd 76 95 80 bd 6c d6 39 3d b4 6e 10 bd
       -0.043958902 -0.062785074 0.045370504 -0.035261825
000220 91 49 2a bd 39 7a 1d 3d cb 7c 94 bd 6a b7 b7 bc
       -0.041574065 0.03844664 -0.07250365 -0.022426326
000230 ec be 59 bc 38 b7 b4 bc 91 65 09 3d 59 e9 a7 bc
       -0.013290148 -0.022060022 0.033544127 -0.020497011
000240 55 23 1f bd eb da 87 3d e9 9e 03 3d 1e ae 06 3d
       -0.038852055 0.06633552 0.03213397 0.032880895
000250 e4 ab 3c 3b c0 27 ef 3c 66 cc 65 bd 6f 23 4e bc
       0.0028788978 0.029193759 -0.056103133 -0.01258169
000260 7f b9 14 3d e6 81 ad 3c 19 67 fc 3a 2a 24 0b 3d
       0.036309715 0.021180104 0.00192568 0.033970036
000270 71 ff 0a bd 1a 6f 64 bc 4a 5e 42 bd 88 f9 a6 3b
       -0.033935014 -0.013942504 -0.047453202 0.0050956644
000280 34 00 04 bd 29 55 41 bd 79 0a b5 3c 14 d0 23 bd
       -0.032226756 -0.047200356 0.02209972 -0.03999336
000290 48 b8 59 bd f9 90 5f bd b3 b9 15 bd 49 fb 1d bd
       -0.05315426 -0.054581616 -0.03655405 -0.038569722
0002a0 6c 39 50 3d 7c 6e 12 bd bf e1 0f bd d3 96 43 3d
       0.05083601 -0.035749897 -0.035127398 0.04775126
0002b0 1c b7 a0 3c a4 73 bf bc 4c 36 32 3b de cf 15 bd
       0.019618563 -0.023370571 0.0027193008 -0.03657519
0002c0 d0 00 9f 3c 18 6d 53 3d 19 ca e6 3c 10 01 9b 3c
       0.019409567 0.05161771 0.02817254 0.018921405
0002d0 bf a7 84 bd cd f0 95 bc a1 b8 5e 3d 26 35 cf 3a
       -0.064773075 -0.0183033 0.054375295 0.0015808686
0002e0 b0 77 5f 3d 8f 78 63 bb 42 dd 6d bd a4 99 45 bd
       0.054557502 -0.003470931 -0.058072336 -0.048242226
0002f0 93 ed 01 3d b5 6d 3b 3d 49 60 f1 bc e0 a5 5c 3d
       0.03172071 0.04575892 -0.029464858 0.05386913
000300 f8 1a e8 bc 1c dc 61 bd b6 29 ad bc 68 b8 bb 3c
       -0.028333172 -0.055141553 -0.021138053 0.02291508
000310 0f d5 02 bd ac 5b 39 bc 15 39 8a 3d 0d 97 49 bd
       -0.03194147 -0.01131336 0.06749169 -0.04921632
000320 2c 0c d3 3c 76 e1 18 bc 39 23 7d bd e3 f3 98 bb
       0.02576264 -0.009331098 -0.06180117 -0.0046677454
000330 44 62 48 bc b3 15 38 3d 35 08 d8 bc 52 2b 66 3d
       -0.01223046 0.04494257 -0.0263711 0.056193657
000340 4d 92 e2 3c 0f ff 68 3c 80 02 3c bd f1 0f 1f 3d
       0.027657652 0.014220967 -0.04590082 0.038833562
000350 4f 4b 72 3d 4d 0e d4 3b 20 53 de bc c2 eb 07 3d
       0.05915385 0.0064714313 -0.027139246 0.03318382
000360 6d 25 85 bb 64 8a 3b bd 40 b1 df 3c b8 82 c0 3c
       -0.0040632994 -0.045786276 0.0273062 0.023499832
000370 34 3a 7a 3d 77 8a ea 3b a9 f5 15 bd dc 3a d2 3c
       0.061090663 0.0071576196 -0.036611233 0.025662832
000380 62 78 01 3d 83 cf eb 3c f1 2c 45 3d dd 70 a7 bc
       0.031608947 0.028785473 0.048138563 -0.02043956
000390 13 da 88 3c 78 74 ff bc 4c 3d 15 bd dc 94 5f bd
       0.016705548 -0.031183466 -0.03643541 -0.054585323
0003a0 53 5b ad bc 4c 34 1b 3d 89 58 55 3d d5 c2 9f bc
       -0.02116171 0.03789167 0.052086387 -0.019502083
0003b0 e8 e6 c7 bc 7e a4 70 bb 12 b4 2c 3c b8 92 81 3b
       -0.024402097 -0.0036719139 0.010540979 0.003954258
0003c0 00 90 30 ba ed bf 43 bd bf 91 f6 ba f4 ee b2 bc
       -0.0006735325 -0.047790457 -0.0018811746 -0.021842457
0003d0 96 f5 a4 3c e9 12 1a bd a4 85 26 3d e6 bc 81 bd
       0.020136636 -0.03761569 0.040654793 -0.06334858
0003e0 44 ad ae 3a aa 35 32 3b ce 33 2e 3c 2a 09 9a 3b
       0.0013326784 0.002719263 0.010632468 0.0047007995
0003f0 88 d2 51 3c f5 5b 8f bd 9b a8 15 bd 6c d1 dc bc
       0.012806542 -0.06999961 -0.036537748 -0.026955329
