saved/simple_FC_ReLU/model.pth (torch, 797477 bytes, 9 tensors)

Y_net.net.0.weight f4 [256, 2]
0	0xbf463a92	-0.7743312
1	0xbe68e3fd	-0.2274322
2	0xbe51a8a1	-0.20474483
3	0xbea8e86a	-0.32989818
4	0x3ea44f1f	0.32091615
5	0x3f1447f1	0.57922274
6	0xbf00f1cb	-0.50368947
7	0x3f397a3f	0.7245216
8	0xb9202f17	-0.00015276331
9	0xbf312ce3	-0.69209117
10	0xbd99d224	-0.07510784
11	0xbef9a607	-0.4875948
12	0x3e38f53b	0.18062298
13	0x3f014a9a	0.5050446
14	0x3e23f57b	0.16011612
15	0xbe663bf3	-0.22483806
16	0xbe8f39b1	-0.27973703
17	0xbde363e4	-0.11103037
18	0x3f1d24fe	0.6138457
19	0x3dfe7d09	0.12426192
20	0x3ef1ee44	0.47252095
21	0xbedaae65	-0.42711177
22	0x3ec978c9	0.39349964
23	0x3ddc8286	0.10767083
24	0xbf285de8	-0.6576829
25	0x3f15aaad	0.58463556
26	0x3f279a49	0.65469795
27	0x3ec58d13	0.38584194
28	0x3f876449	1.057748
29	0xbe64df00	-0.22350693
30	0x3ef47e23	0.47752485
31	0x3f26a356	0.6509298
32	0xbf058fce	-0.52172554
33	0xbeebd052	-0.46057373
34	0x3db41b69	0.087942906
35	0xbec86447	-0.39139006
36	0xbf252e55	-0.6452382
37	0xbdec7190	-0.11545098
38	0xbe9a8f30	-0.30187368
39	0x3f2f810c	0.68556285
40	0x3e2c917f	0.16852377
41	0xbecca849	-0.3997214
42	0x3e0639ae	0.1310794
43	0x3eaa06b9	0.33208254
44	0x3e20d642	0.15706733
45	0x3ca1eb7a	0.019765604
46	0xbf04e76b	-0.51915616
47	0xbdcab288	-0.098973334
48	0xbdc6bdb1	-0.097041495
49	0xbf0d57eb	-0.5521228
50	0xbd1166de	-0.035498492
51	0x3f1b95e3	0.60775584
52	0x3e387874	0.18014699
53	0x3f4413cc	0.7659271
54	0xbea8184a	-0.3283103
55	0xbed63330	-0.41835928
56	0xbf0c8b9a	-0.54900515
57	0x3d8126ff	0.06306266
58	0xbeae1cf9	-0.3400648
59	0xbe827164	-0.25477135
60	0xbed9c908	-0.42536187
61	0x3f3786ef	0.7169027
62	0xbe86ccaa	-0.2632802
63	0xbe97a0eb	-0.29614958
64	0xbeaef26d	-0.3416933
65	0x3ebfeb26	0.37484092
66	0x3ea4f6ba	0.32219487
67	0xbb861050	-0.0040913
68	0xbe670bb8	-0.22563064
69	0x3ea59db6	0.32346886
70	0x3c1c1975	0.009527554
71	0x3f140c48	0.5783124
72	0x3e8ab06b	0.2708772
73	0x3ee7628d	0.45192376
74	0xbf03a5ac	-0.5142467
75	0xbe2724d4	-0.16322643
76	0xbe51ae13	-0.2047656
77	0xbd3c247c	-0.04593323
78	0xbef88b20	-0.48543644
79	0x3e22eac6	0.15909871
80	0xbea74b73	-0.3267475
81	0xbf08f5c4	-0.5350001
82	0xbf073d62	-0.5282804
83	0x3ea02211	0.3127599
84	0x3eeb8064	0.45996392
85	0x3edbe2e3	0.42946538
86	0xbcf2d9d3	-0.029644882
87	0x3eac5715	0.33660188
88	0x3eaedb78	0.34151816
89	0x3e10dbb7	0.14146315
90	0xbee1f8fb	-0.4413527
91	0xbf26b586	-0.6512073
92	0xbe7fe70c	-0.24990481
93	0x3ebabc08	0.3647158
94	0x3eb93276	0.3617131
95	0xbdb3d0d0	-0.08780062
96	0xbf25d412	-0.6477672
97	0xbb6e5500	-0.0036366582
98	0x3d665b61	0.05623949
99	0x3d4ff277	0.050768342
100	0x3eba220b	0.36354098
101	0xbed858c4	-0.42255223
102	0x3f197163	0.5993864
103	0x3e30c85d	0.17263933
104	0xbe97dec9	-0.2966216
105	0x3eba2ac3	0.3636075
106	0x3e5a6c8a	0.21330467
107	0xbeef8712	-0.46782738
108	0xbeb9067b	-0.36137757
109	0xbe17a4ba	-0.14808932
110	0x3f1c6a37	0.6109957
111	0xbe0efba1	-0.13963176
112	0xbea41b3f	-0.32052037
113	0x3f2a782a	0.66589606
114	0xbee6fae5	-0.45113292
115	0xbed7f4a5	-0.42178836
116	0xbebe9da4	-0.37229645
117	0xbe402d6c	-0.18767327
118	0x3ea7790d	0.32709542
119	0x3e85afb7	0.26110622
120	0xbe9df40e	-0.3085026
121	0xbee571e3	-0.4481345
122	0xbe47667a	-0.19472685
123	0x3f1938e7	0.5985245
124	0x3f01a4d9	0.5064216
125	0x3e828494	0.25491774
126	0xbd66a855	-0.056312878
127	0xbe9fc621	-0.31205848
128	0xbe9b6cf7	-0.3035657
129	0xbeab286f	-0.33429286
130	0x3e13a672	0.14418963
131	0xbdc7dd9b	-0.09759065
132	0x3c8f56a3	0.017497366
133	0x3f0c522e	0.54812896
134	0x3f23eec1	0.64036185
135	0x3ddb9ccb	0.10723265
136	0xbdaf75f5	-0.085674204
137	0x3cbf0713	0.023318803
138	0xbd968795	-0.07350079
139	0x3f30c0e6	0.6904434
140	0x3f2eb812	0.6824962
141	0xbe82d964	-0.2555648
142	0x3eaf5284	0.34242642
143	0xbf1d3898	-0.6141448
144	0xbf1b341a	-0.60626376
145	0xbef29840	-0.47381783
146	0xbe95a477	-0.2922704
147	0x3ebf10ef	0.37317607
148	0x3f17a2c9	0.59232765
149	0xbf0efa7f	-0.55850977
150	0xbed17660	-0.40910625
151	0x3f016e17	0.5055861
152	0xbf17d813	-0.5931408
153	0x3d12fb93	0.03588445
154	0xbde1a18f	-0.11017143
155	0x3e966b06	0.29378527
156	0x3e90cd85	0.282818
157	0x3f0ae5ba	0.54256785
158	0x3f3b013c	0.7304876
159	0x3d7ea74c	0.062171265
160	0x3f2ea60f	0.68222135
161	0xbeee8da4	-0.46592438
162	0xbeb2d13b	-0.34925255
163	0xbf2c3e7d	-0.6728285
164	0x3eec8880	0.4619789
165	0x3f345f53	0.70457953
166	0xbebb7581	-0.36613086
167	0xbe6ce6b4	-0.23134881
168	0x3f0dc804	0.55383325
169	0x3f115e79	0.5678478
170	0x3f64104f	0.89087385
171	0x3e33b94c	0.17551154
172	0xbeb96096	-0.36206502
173	0x3dc44da0	0.09585118
174	0x3eea7d0a	0.45798522
175	0xbea9cbb5	-0.3316323
176	0x3f3d1ee9	0.7387529
177	0x3822837d	3.8746268e-05
178	0xbeb55686	-0.35417575
179	0xbf169872	-0.58826363
180	0x3f2ccaae	0.67496765
181	0x3d8b67d8	0.06806916
182	0xbe8bbe4f	-0.2729363
183	0xbeda7187	-0.4266474
184	0xbdacd6d7	-0.08439415
185	0xbebd9737	-0.3702943
186	0x3f0132e7	0.50468296
187	0xbb8c4874	-0.004281098
188	0xbe624646	-0.2209712
189	0x3d086120	0.03329575
190	0xbf0d41a2	-0.5517827
191	0xbf09be19	-0.5380569
192	0xbee890dc	-0.4542302
193	0x3f18633f	0.5952644
194	0x3ed4fc1d	0.41598597
195	0x3e48c5d1	0.19606711
196	0xbcf8372f	-0.030299751
197	0xbf217afd	-0.6307829
198	0xbea5008c	-0.3222698
199	0x3ecb75ae	0.3973822
200	0x3ef93b12	0.4867788
201	0x3cb5a885	0.022175083
202	0xbdcf4425	-0.101204194
203	0x3e9c1d48	0.3049109
204	0x3e2f23a7	0.17103444
205	0x3f07dd5f	0.5307216
206	0xbf40f41e	-0.75372493
207	0x3dc90460	0.098152876
208	0xbcc72629	-0.024310188
209	0x3f277885	0.65418273
210	0x3f180d99	0.5939575
211	0x3c9f485c	0.019443683
212	0xbe42af52	-0.19012192
213	0x3f0da162	0.55324376
214	0x3f2426a8	0.64121485
215	0xbdd980b5	-0.10620252
216	0xbe600df7	-0.21880327
217	0x3e0ce3b6	0.1375874
218	0xbee0af9e	-0.43883985
219	0xba994744	-0.0011694212
220	0x3e913c6b	0.28366408
221	0x3f242529	0.641192
222	0x3b71747c	0.0036843112
223	0x3c2d2612	0.010568159
224	0x3f1a2c45	0.602238
225	0xbe2e8d3e	-0.17046067
226	0xbf0965f4	-0.53671193
227	0xbf299b41	-0.66252524
228	0xbed7a48a	-0.4211772
229	0x3f1b13fd	0.60577375
230	0x3e1414cd	0.1446106
231	0xbeaca14d	-0.33716813
232	0x3ec909e5	0.3926536
233	0xbec5dfa5	-0.3864719
234	0xbf01487c	-0.5050123
235	0xbe7bb179	-0.24579419
236	0xbeac3bb3	-0.33639297
237	0xbf1c2708	-0.60997057
238	0x3f039c00	0.5140991
239	0x3e9cf963	0.30659017
240	0x3e3765ca	0.17909923
241	0x3e894ddd	0.26817217
242	0x3edeecad	0.43539944
243	0x3ce69eed	0.028151954
244	0x3e5ca643	0.21547799
245	0x3dfde851	0.123978265
246	0xbeeb244d	-0.45926133
247	0x3ea8d5d2	0.32975632
248	0x3e705948	0.23471558
249	0xbf0bcb99	-0.5460754
250	0x3f179a89	0.59220177
251	0xbd004519	-0.031315897
252	0xbea5eb49	-0.3240607
253	0x3f01b0a1	0.5066014
254	0xbf5c05b1	-0.85946184
255	0x3df2c474	0.11853877

Y_net.net.0.bias f4 [256]
0	0xbf2923d8	-0.6607032
1	0xbf1fe39e	-0.6245669
2	0x3e000fe5	0.12506063
3	0xbf0686b9	-0.5254932
4	0xbe441a69	-0.191507
5	0x3deeb305	0.11655239
6	0xbef8c710	-0.48589373
7	0xbe6fe7fb	-0.23428337
8	0xbedc1ad6	-0.42989224
9	0x3f315d65	0.69283134
10	0xbf18e60b	-0.5972602
11	0x3ec48f8f	0.38390777
12	0x3c3ed0c8	0.011646457
13	0x3de679de	0.11253713
14	0x3d97cb71	0.0741185
15	0x3e9b1bad	0.30294552
16	0xbdbe1299	-0.09280891
17	0xbdca2e6e	-0.09872137
18	0xbf324358	-0.6963401
19	0x3d76242d	0.060093094
20	0xbf332cfb	-0.6999051
21	0xbd6e9f05	-0.05825712
22	0x3de82a0a	0.11336143
23	0xbe890479	-0.26761225
24	0xbd401352	-0.046893425
25	0x3f05fab2	0.52335656
26	0x3f1108fe	0.56654346
27	0x3eef9420	0.46792698
28	0x3f0059fa	0.50137293
29	0xbd4b57db	-0.049644332
30	0xbe5b9e5e	-0.21447131
31	0x3ee9d804	0.4567262
32	0xbf175709	-0.5911718
33	0xbbee1d39	-0.007266667
34	0x3e8a4677	0.27006885
35	0x3dddf156	0.10837047
36	0xbf07f286	-0.53104436
37	0xbf020479	-0.50788075
38	0xbddb36e3	-0.10703828
39	0xbedeadb6	-0.43491906
40	0x3e30f020	0.172791
41	0xbf438728	-0.7637811
42	0x3dbde5e0	0.09272361
43	0xbeef5f51	-0.46752408
44	0xbf0068bc	-0.5015981
45	0x3e898f54	0.26867163
46	0x3eda2b66	0.42611235
47	0x3ec2a878	0.38019156
48	0xbe5b4e50	-0.21416593
49	0x3e911f83	0.28344354
50	0xbf325dff	-0.69674677
51	0x3f1dad59	0.6159263
52	0xbed69319	-0.41909102
53	0xbe5d99f0	-0.21640754
54	0x3c9eba83	0.019376045
55	0xbf6962c9	-0.9116636
56	0x3f0972e1	0.53690916
57	0xbe65f89b	-0.22458117
58	0xbf2f291b	-0.68422097
59	0xbeaa8a89	-0.3330882
60	0x3ea4f345	0.3221685
61	0xbcbd1c0f	-0.023084668
62	0x3f37fe48	0.7187238
63	0x3d9480f8	0.07251161
64	0xbf6a81e9	-0.9160448
65	0x3e738bb5	0.23783763
66	0x3f26f381	0.6521531
67	0x3df7f818	0.12107867
68	0x3e020229	0.12696137
69	0xbf010f41	-0.504139
70	0x3f2a8140	0.6660347
71	0xbe677b81	-0.22605707
72	0xbf0a9db1	-0.5414687
73	0xbf0a4f7c	-0.54027534
74	0x3ea294f3	0.31754264
75	0x3e620334	0.22071534
76	0x3f28c77e	0.659294
77	0xbef6724a	-0.4813407
78	0x3f0dc017	0.5537123
79	0xbf6cdb69	-0.92522293
80	0xbec93fb4	-0.39306414
81	0x3f1f05cb	0.62118214
82	0x3e2deb51	0.16984297
83	0x3f0ea4e5	0.5572036
84	0x3d894955	0.0670344
85	0x3e81def7	0.2536542
86	0xbeec15c0	-0.46110344
87	0x3d31c060	0.043396354
88	0xbc954631	-0.018221946
89	0xbec0074d	-0.3750557
90	0x3da2072e	0.07911526
91	0x3e8cbec6	0.274893
92	0xbf535ea3	-0.8256628
93	0xbc27a840	-0.010232985
94	0xbe99a911	-0.300118
95	0x3f29404b	0.6611373
96	0xbdb586ed	-0.08863626
97	0x3f305028	0.6887231
98	0x3e465ef6	0.19372162
99	0xbea6961f	-0.32536408
100	0xbf13201b	-0.57470864
101	0xbef53027	-0.478883
102	0xbdce1005	-0.10061649
103	0xbe494f5e	-0.19659182
104	0x3e9876e8	0.29778218
105	0xbf2dc88b	-0.6788413
106	0x3ede3862	0.43402392
107	0x3d9ddde3	0.07708337
108	0x3e3303ce	0.1748192
109	0x3ee0ce7b	0.43907532
110	0x3e74f28e	0.23920652
111	0x3f36b5aa	0.7137095
112	0x3f0c0408	0.5469365
113	0x3f135c0e	0.5756234
114	0x3f045686	0.51694524
115	0xbeb329d6	-0.34992856
116	0xbf031df2	-0.5121757
117	0xbf527846	-0.8221477
118	0x3f0ff7e5	0.5623763
119	0xbf0ead93	-0.55733603
120	0x3d7499a9	0.059716854
121	0xbf08c6dc	-0.53428435
122	0xbdd2348a	-0.10263927
123	0x3f1d79ce	0.61513984
124	0xbf0ec349	-0.5576673
125	0xbf3892a5	-0.7209876
126	0x3ea01cff	0.31272122
127	0xbe1d02f1	-0.15333153
128	0xbe89b3fb	-0.26895127
129	0xbebcfdae	-0.36912292
130	0x3ea8b66a	0.3295167
131	0x3f132b46	0.57487905
132	0x3e3262d7	0.17420517
133	0x3e827911	0.2548299
134	0xbd7b8a6b	-0.061411303
135	0xbc22dea0	-0.009940773
136	0xbf63bc6f	-0.889594
137	0xbeda1d09	-0.42600277
138	0x3bd81d2c	0.0065952744
139	0xbf3b0dd4	-0.73067975
140	0xbf0c6047	-0.5483441
141	0x3e05e95c	0.13077301
142	0x3f0517b1	0.51989275
143	0x3e154d5a	0.14580289
144	0xbf32ac8a	-0.69794524
145	0xbce0c626	-0.027438235
146	0x3eea6374	0.45779002
147	0xbef09303	-0.4698716
148	0xbf4648df	-0.7745494
149	0x3d45f44b	0.04832868
150	0x3c8fe625	0.017565796
151	0x3e94886a	0.29010326
152	0x3eabed6e	0.33579582
153	0xbe67db42	-0.22642234
154	0x3e214711	0.15749766
155	0x3e1bcaf7	0.15214144
156	0xbedec7bb	-0.43511757
157	0xbd9612d8	-0.07327813
158	0x3f131d37	0.57466453
159	0xbed0f492	-0.40811592
160	0xbe3d89b8	-0.18509567
161	0x3d0945a2	0.033513673
162	0xbc9da794	-0.019244947
163	0xbf13a4ee	-0.5767354
164	0xbf08832f	-0.5332517
165	0x3e774f4e	0.24151346
166	0x3eb4cef9	0.35314158
167	0xbea6293c	-0.32453334
168	0x3e84853c	0.258829
169	0x3e57ac0f	0.21061729
170	0xbeaf0e26	-0.34190482
171	0x3f01e189	0.50734764
172	0x3eb744f0	0.35794783
173	0xbf24641f	-0.6421527
174	0xbf63c6b6	-0.88975084
175	0xbebe094b	-0.37116465
176	0x3ea77770	0.3270831
177	0xbc5702fc	-0.01312327
178	0x3db5c09f	0.0887463
179	0xbf266f44	-0.6501353
180	0x3e696d9a	0.22795716
181	0xbf3d08ab	-0.7384135
182	0xbf10122c	-0.5627773
183	0x3ed4b82c	0.41546762
184	0x3f09a8d7	0.53773254
185	0xbe6fcf8d	-0.23419018
186	0x3ed501d7	0.41602966
187	0xbf70d7d5	-0.94079334
188	0x3f34b046	0.7058147
189	0xbdc4f003	-0.09616091
190	0x3eb8899e	0.36042494
191	0x3ea7f969	0.32807472
192	0x3f1bdc43	0.6088297
193	0x3f2c7e98	0.67380667
194	0xbf347289	-0.70487267
195	0xbeda93e5	-0.4269096
196	0x3ddc99b3	0.10771503
197	0x3e6b85b8	0.23000228
198	0xbf5115c1	-0.8167382
199	0xbf23a75c	-0.63927245
200	0x3f18a222	0.59622395
201	0x3f08ce5e	0.5343989
202	0x3e91c9fc	0.28474414
203	0x3b3ccccb	0.002880859
204	0x3d593571	0.05302948
205	0xbf021609	-0.5081487
206	0x3e489895	0.19589455
207	0xbeb6043e	-0.35550112
208	0x3de819db	0.113330565
209	0x3e33351b	0.17500727
210	0x3eff265c	0.49833953
211	0xbef40321	-0.47658637
212	0xbf377843	-0.7166788
213	0xbe318ce4	-0.17338902
214	0xbe7121ec	-0.23548096
215	0xbf3694d4	-0.71320844
216	0xbef00a19	-0.46882704
217	0xbef0deda	-0.47045022
218	0xbf01662a	-0.50546515
219	0xbf00084a	-0.5001265
220	0x3e37873d	0.17922683
221	0xbea30160	-0.31836987
222	0x3f3c65c4	0.7359278
223	0xbc0b0251	-0.008484439
224	0xbf25bf53	-0.6474506
225	0x3e79fce0	0.2441287
226	0x3edbcd11	0.4292989
227	0xbedbbfba	-0.42919713
228	0x3f1b7f57	0.6074118
229	0xbb7b4fcf	-0.003834713
230	0x3e892eb2	0.26793438
231	0x3e76cce9	0.24101605
232	0x3f171506	0.59016454
233	0xbe7e59d7	-0.24838959
234	0x3ebc4293	0.36769542
235	0x3f0c44bc	0.5479238
236	0xbea4bc82	-0.3217507
237	0xbf07d236	-0.5305513
238	0x3dd42761	0.103590734
239	0x3f161695	0.5862821
240	0xbb157e16	-0.0022810749
241	0x3e2bdf6a	0.16784444
242	0xbd4fec44	-0.05076243
243	0xbf152948	-0.58266115
244	0x3df7cc75	0.12099544
245	0xbeb8aafc	-0.3606795
246	0x3ea1b71f	0.31585023
247	0x3e77bf90	0.24194169
248	0xbf380e4d	-0.7189682
249	0x3e8899e5	0.26679912
250	0xbf46cd78	-0.7765727
251	0xbef727f5	-0.48272672
252	0x3d8a630c	0.06757173
253	0xbf1fa149	-0.62355477
254	0x3e5d3323	0.21601538
255	0xbee7e6cc	-0.45293272

Y_net.net.2.weight f4 [256, 256]
0	0x3cfe3900	0.03103304
1	0x3d905ad4	0.07048574
2	0x3d1f41b6	0.038881026
3	0x3d441fab	0.047881763
4	0xbd549028	-0.05189529
5	0xbc2b6892	-0.010461943
6	0x3d8c9fc0	0.068664074
7	0x3d15d3d4	0.03657897
8	0x3d6bcb24	0.057566777
9	0xbd473b8b	-0.04864077
10	0xbd11d090	-0.03559929
11	0xbd340bfa	-0.043956734
12	0x3d19ffe1	0.03759754
13	0x3cce3ca9	0.02517541
14	0xbd7c4871	-0.061592523
15	0x3d1d3908	0.038384467
16	0xbd0bc7b2	-0.03412599
17	0x3d020e5b	0.03175197
18	0x3a5ce900	0.00084270537
19	0xbcba9df3	-0.022780394
20	0x3d56578c	0.052329585
21	0x3c9c2db3	0.01906476
22	0xbca8ce7e	-0.020606276
23	0xbd391fdc	-0.0451964
24	0x3cae9a1b	0.021313718
25	0xbd205667	-0.0391449
26	0x3cb5533b	0.022134414
27	0x3bfe6aa8	0.0077641793
28	0xbd3573a3	-0.044299733
29	0xbc81b2df	-0.015832363
30	0x3d88dae2	0.066823736
31	0xbd086176	-0.03329607
32	0xbd01ce92	-0.03169114
33	0x3d0e9854	0.03481324
34	0xbd35a2ec	-0.044344828
35	0x3c7d8d2e	0.015475554
36	0x3d5e310a	0.054245986
37	0x3d762968	0.06009808
38	0x3c25d26a	0.010120967
39	0xbd500c04	-0.05079271
40	0xbc17935c	-0.009251442
41	0xbc91833d	-0.017762775
42	0xbb48249c	-0.00305394
43	0x3bfd24a7	0.0077253166
44	0x3e4b987f	0.19882391
45	0xbcff0095	-0.031128207
46	0xbd3bed59	-0.04588065
47	0x3d0b0cda	0.033947803
48	0x3d0511fa	0.032487847
49	0x3d2c10e3	0.042008292
50	0x3da33eca	0.079709604
51	0xb9f43a95	-0.00046582954
52	0xbbfdde00	-0.0077474117
53	0x3ba9ac4a	0.005178009
54	0xbd5e5501	-0.054280285
55	0x3d859d3b	0.0652413
56	0xbca37f21	-0.01995808
57	0x3cc209e7	0.023686362
58	0x3d47c0a4	0.0487677
59	0x3dab3796	0.083602116
60	0xbd6e7700	-0.058218956
61	0xbd10a86d	-0.035316873
62	0x3d6a5140	0.057206392
63	0xbc84bf18	-0.016204402
64	0x3d9e4ad4	0.07729116
65	0xbd831db7	-0.06402152
66	0x3d0fcdac	0.035108253
67	0xbb24febc	-0.0025176248
68	0x3cc16b46	0.023610722
69	0x3d1b7cf4	0.03796096
70	0xbcd6c3c3	-0.026216393
71	0xba997a6a	-0.0011709456
72	0x3d854d66	0.06508903
73	0x3cbad088	0.022804514
74	0x3cd89ffd	0.026443476
75	0x3c1c2255	0.00952967
76	0x3c454bba	0.01204198
77	0x3cdf541e	0.02726179
78	0x3cde7ec7	0.027160062
79	0x3dfbd6fa	0.12296863
80	0xbd0c479f	-0.03424799
81	0xbd0afb81	-0.03393126
82	0xbd3aad77	-0.045575585
83	0xbce15657	-0.02750699
84	0x3c075ca0	0.00826183
85	0x3ca378e0	0.019955099
86	0xbcbd35e8	-0.023096994
87	0xbd694c41	-0.056957487
88	0xbcf0d662	-0.0293991
89	0x3baad7ba	0.005213705
90	0xbc16954d	-0.0091908695
91	0xbd817acd	-0.063222505
92	0x3cd92110	0.026505023
93	0x3d5f28cd	0.05448227
94	0x3d03972c	0.03212659
95	0x3d38cd88	0.045117885
96	0x3d7f108c	0.06227164
97	0x3cd2bdc5	0.025725255
98	0x3d64240b	0.055698436
99	0x3d710191	0.058839384
100	0x3d2133d6	0.039356075
101	0x3ccf278d	0.025287414
102	0x3d318fb1	0.043349925
103	0xbccce17c	-0.025009863
104	0xbca5c9fe	-0.020237919
105	0x3dce6014	0.10076919
106	0xbd72e3f1	-0.059299413
107	0x3ca24376	0.019807559
108	0xbb78cd37	-0.0037964114
109	0xbd0e332d	-0.034716774
110	0xbc59ab51	-0.013285474
111	0xbceafc7e	-0.02868485
112	0x3bf5a77d	0.007496773
113	0x3b638a7b	0.0034719992
114	0xbd1c5303	-0.038165104
115	0x3cf0406d	0.029327596
116	0xbb2c88d9	-0.0026326685
117	0x3d5d0515	0.053959925
118	0x3cd20fb9	0.025642263
119	0x3c22ec8e	0.009944094
120	0xbd085b17	-0.033289995
121	0xbb646639	-0.0034850969
122	0x3bc9db65	0.006160187
123	0x3d50f1c3	0.051011812
124	0xbcbcc804	-0.023044594
125	0x3e135de1	0.1439128
126	0xbd12bc46	-0.035824083
127	0x3cfd4e8e	0.030921247
128	0x3d69f9cc	0.05712299
129	0xbc94913b	-0.018135658
130	0xbd2ce76c	-0.04221289
131	0x3c0fd603	0.008779052
132	0x3d6cd489	0.057819877
133	0xbd3d22c8	-0.046175748
134	0x3d0af49c	0.033924684
135	0x3cf606c7	0.030032529
136	0x3caa56c1	0.02079332
137	0x3d0cef59	0.034407947
138	0xbc00f983	-0.007871988
139	0x3d1d795d	0.03844582
140	0xbc3b16b4	-0.011418987
141	0xbb58ca50	-0.0033079572
142	0xbb99540c	-0.0046792086
143	0xbc3e3e49	-0.01161153
144	0x3d6c7085	0.057724494
145	0x3c3a467d	0.011369345
146	0x3cecc435	0.028902153
147	0x3d6fd80e	0.058555655
148	0x3e55dcc3	0.20884995
149	0xbb6f5d9a	-0.0036524297
150	0xbd025d6e	-0.031827383
151	0xbcbad890	-0.022808343
152	0xbceefb53	-0.029172575
153	0x3cb5c957	0.022190733
154	0x3d0a12b8	0.033709258
155	0xbc0b6c1e	-0.008509664
156	0xbd421c0a	-0.04739002
157	0xbd76655f	-0.06015527
158	0xbbcd3ba6	-0.006263214
159	0xbc89311a	-0.016747046
160	0x3bb1826f	0.00541716
161	0x3b5a0381	0.0033266249
162	0x3ca6a3fb	0.020341864
163	0x3df110d1	0.117707856
164	0x3d735d20	0.059414983
165	0x3cb3b887	0.021938575
166	0x3d0d77ee	0.034538202
167	0x3dcbc755	0.09950129
168	0x3d1a691d	0.0376979
169	0x3d59489e	0.05304777
170	0xba0bbb0c	-0.00053303014
171	0xbcce294f	-0.025166182
172	0x3d701d59	0.058621738
173	0x3da1c6f3	0.07899275
174	0xbd571879	-0.052513573
175	0x3de6a55e	0.1126201
176	0x3bb74264	0.005592631
177	0x3ccc1b80	0.024915457
178	0xbccf4781	-0.02530265
179	0xbcf12eaa	-0.029441196
180	0x3ce32ce9	0.027731376
181	0x3d0ee7fa	0.0348892
182	0xbd000226	-0.03125205
183	0xbca01fc4	-0.019546397
184	0xbd949467	-0.07254868
185	0xbce6e824	-0.028186865
186	0x3c5016bf	0.012700736
187	0x3d451cc5	0.04812314
188	0xbccd50f7	-0.025063021
189	0xbcff01bd	-0.031128759
190	0xbd57dc27	-0.052700188
191	0xbd071874	-0.032982305
192	0x3cea694f	0.028614668
193	0xbcf11c47	-0.029432429
194	0x3ea2e565	0.3181564
195	0x3d168f6c	0.03675787
196	0x3c22b997	0.009931943
197	0xbccbf08e	-0.024894979
198	0xbd42fc1b	-0.047603708
199	0x3c1ab290	0.009441987
200	0xbb9a9fbc	-0.004718749
201	0x3c8a7bde	0.016904768
202	0xbd985836	-0.074387
203	0xbc2b8192	-0.010467904
204	0x386ce0f1	5.6476278e-05
205	0x3b17857e	0.002312034
206	0x3bf31858	0.0074186735
207	0x3c9d84f3	0.019228434
208	0xbd648f3a	-0.055800654
209	0xbd8ff4cc	-0.07029113
210	0xbd4678c0	-0.048455
211	0xbb279340	-0.0025569946
212	0x3d374acc	0.044749066
213	0x3d9b8382	0.075934425
214	0x3e06c2c2	0.13160232
215	0x3df38ad3	0.11891713
216	0x3d321b2f	0.043482956
217	0x3ce84179	0.028351532
218	0x3cd9219e	0.026505288
219	0x3d1e46cc	0.038641736
220	0xbd0bfc62	-0.034176238
221	0xbcb6499d	-0.022251898
222	0xbb27e657	-0.002561947
223	0x3ad2528d	0.001604633
224	0x3c7b5d28	0.015342034
225	0xbd441f5f	-0.04788148
226	0xbd6847cd	-0.0567091
227	0xbc88f704	-0.016719349
228	0xbcbdba36	-0.023160081
229	0x3d5bd695	0.05367144
230	0x3c67f5ff	0.014157771
231	0xbd4af247	-0.04954746
232	0x3cfe84e4	0.031069227
233	0x3d879675	0.06620494
234	0xbcad51b1	-0.021157118
235	0xbd583c2c	-0.05279176
236	0x3b8d67e5	0.0043153637
237	0x3c87893b	0.016544929
238	0x3d3d86b9	0.04627106
239	0x3c9d3b32	0.019193266
240	0x3cf8a5b0	0.030352443
241	0xbd2c788a	-0.042107143
242	0xbbd0ebd6	-0.00637577
243	0x3cb0a9ca	0.021565337
244	0xbd58ffdb	-0.052978378
245	0xbd63537e	-0.055499546
246	0x3d2e6425	0.042575974
247	0xbc90f7e6	-0.017696332
248	0x3d186b4b	0.037211698
249	0x3c68574d	0.01418097
250	0x3e86031a	0.2617424
251	0xbc16fc35	-0.009215404
252	0xbacf26ce	-0.0015804411
253	0xbcf416c2	-0.029796008
254	0xbd284428	-0.041080624
255	0x3da2ce49	0.07949502

Y_net.net.2.bias f4 [256]
0	0xbcbacc56	-0.022802513
1	0xbd1070d0	-0.035263836
2	0xbd0f4619	-0.03497896
3	0xbd0726b9	-0.032995913
4	0x3ca79588	0.020457044
5	0x3c8646de	0.016391214
6	0x3d17740c	0.036975905
7	0xbc79f335	-0.015255739
8	0x3c778ea0	0.015109688
9	0xbcf8cd4c	-0.03037133
10	0xbd3391c7	-0.043840196
11	0xbb05c0b4	-0.002040905
12	0x3d029f7b	0.031890374
13	0x3d1dabba	0.03849385
14	0x3cbfe65d	0.023425275
15	0x3c7d5cc8	0.015464015
16	0xbd09adb5	-0.033612926
17	0x3d0d27ff	0.03446197
18	0x3a914fa4	0.0011086357
19	0x3cb2bd3d	0.021818751
20	0xbd8e3fa2	-0.06945731
21	0x3d39ed4f	0.04539233
22	0x3d4811fa	0.04884527
23	0xbc7fc170	-0.015610084
24	0x3d58e5d0	0.05295354
25	0x3d23a54f	0.039952572
26	0x3c07682c	0.008264583
27	0x3b1267ea	0.002233977
28	0xbd2973f3	-0.041370343
29	0xbd82412d	-0.063600875
30	0xbd370722	-0.044684537
31	0xbb95b88a	-0.004569118
32	0xbd579a88	-0.052637607
33	0xbd859e70	-0.0652436
34	0x3cabce3f	0.02097237
35	0x3d073d81	0.03301764
36	0xbd59786c	-0.05309336
37	0x3c9b4db0	0.018957943
38	0x3d4536b3	0.04814787
39	0xbd3e06a1	-0.04639304
40	0x3bb3f297	0.0054915654
41	0xbd74e3c8	-0.05978754
42	0x3d298db1	0.041394893
43	0xbd2e793c	-0.042596087
44	0xbd7a5355	-0.061114628
45	0xbd4ebf25	-0.05047526
46	0x3cd6938c	0.026193403
47	0xbc2ff007	-0.010738379
48	0x3ce0c95b	0.027439764
49	0x3c8c1940	0.017101884
50	0xbcd8289f	-0.026386557
51	0x3c0ffcf5	0.008788337
52	0x3c918087	0.017761482
53	0xbcaf1043	-0.021370059
54	0xbda9090d	-0.082536794
55	0xbd2799f7	-0.040918317
56	0xbc8612d2	-0.016366396
57	0xbc230f0c	-0.009952318
58	0xbc555118	-0.013019823
59	0xbc9138f8	-0.01772736
60	0x3cc65e6a	0.024214942
61	0x3d713071	0.058884088
62	0xbd8aae6e	-0.06771551
63	0xbcc38998	-0.02386932
64	0xbd852818	-0.06501788
65	0xbd366c96	-0.04453715
66	0x3d255cea	0.040371813
67	0xbd2f9d3c	-0.04287456
68	0x3d6ae68f	0.057348784
69	0x3d12a1ea	0.035798945
70	0x3d568323	0.052371155
71	0x3d2607cb	0.040534776
72	0xbc97724c	-0.018487118
73	0xbd012693	-0.031530928
74	0x3cbd19fd	0.023083681
75	0xbd89640d	-0.06708536
76	0xba1e7f2a	-0.00060461706
77	0xbd68d3ce	-0.056842618
78	0xbd1d2ce2	-0.03837288
79	0xbcc8653c	-0.024462335
80	0xbcf72e49	-0.030173438
81	0x3a930f03	0.0011219684
82	0xbd5d93c1	-0.054095987
83	0xbd16d5e6	-0.036825083
84	0xbd914543	-0.07093289
85	0xbd07c6e9	-0.03314868
86	0xbd421129	-0.047379646
87	0x3d47c64e	0.048773102
88	0x3d08eb74	0.03342767
89	0x3c74fdf6	0.014953127
90	0xbc816b90	-0.01579836
91	0xbcef6238	-0.029221639
92	0xba2f6f6b	-0.0006692323
93	0x3d14f8fd	0.036370266
94	0xbc8be510	-0.017076999
95	0x3d15099c	0.036386117
96	0x3ceb048d	0.028688693
97	0x3d3d6484	0.046238437
98	0xbb8b5d00	-0.00425303
99	0xbb8ca6c5	-0.0042923414
100	0xbcc7b9d1	-0.024380596
101	0xbd198adc	-0.037485942
102	0xbbf40477	-0.0074468213
103	0x3be985ae	0.0071265316
104	0x3d172afa	0.03690622
105	0x3c2e073b	0.010621841
106	0x3bb9ad1d	0.0056663887
107	0xbd47f5d4	-0.048818424
108	0xbd4768a8	-0.048683792
109	0xbd98de3d	-0.074642636
110	0x3d20755d	0.039174426
111	0xbdab5142	-0.08365108
112	0xbd8c9091	-0.06863511
113	0x3d2fbdda	0.042905666
114	0xbc1fd087	-0.009754307
115	0xbd388ba3	-0.045055043
116	0xbbf7027d	-0.0075381384
117	0xbd3a35dc	-0.04546152
118	0xbd28bc3d	-0.041195143
119	0xbd68037a	-0.05664394
120	0xbc6fdaf6	-0.014639607
121	0xbd01bf45	-0.03167655
122	0xbd82df73	-0.06390276
123	0xbd2e2364	-0.04251422
124	0xbd1b267f	-0.03787851
125	0xbcb01d64	-0.02149839
126	0x3b9cd29d	0.0047858492
127	0x3c53b230	0.012920901
128	0xbb6c3e01	-0.00360477
129	0xbd61aa11	-0.05509383
130	0x3c1af582	0.009457948
131	0xbd1e25ad	-0.03861015
132	0xbc8c345c	-0.01711481
133	0xbd7091eb	-0.05873291
134	0x3ce1f6fb	0.02758359
135	0xbd737a4c	-0.059442803
136	0xbc863333	-0.016381836
137	0x3cccad22	0.0249849
138	0xbb808365	-0.0039219134
139	0xbd8a2fe0	-0.06747413
140	0x3d22276c	0.039588377
141	0x3c3fe28d	0.011711729
142	0xbc2534ff	-0.010083436
143	0xbbc79b13	-0.0060914843
144	0xbc8abcb0	-0.016935676
145	0xbd61c5fa	-0.055120446
146	0x3cd59aed	0.026074851
147	0xbd0df4cc	-0.034657285
148	0xbc8a0868	-0.016849712
149	0xbd406e0e	-0.046979956
150	0xbd1c08b3	-0.038094234
151	0x3c214538	0.009843163
152	0xbd2fb79c	-0.042899713
153	0xbc95adad	-0.018271292
154	0xbbfbdf7b	-0.007686553
155	0x3d164935	0.03669091
156	0x3cb717bb	0.022350183
157	0x3d279a1e	0.040918462
158	0x3c460459	0.0120859975
159	0xbd535d08	-0.051602393
160	0x3cdddddd	0.027083332
161	0xbc1c55fa	-0.009541983
162	0x3bf00ecb	0.007325982
163	0xbd9c0672	-0.07618417
164	0xbd51d348	-0.051226884
165	0xbcf01edf	-0.029311595
166	0xbcd5129d	-0.026009852
167	0x3c002f68	0.0078238025
168	0xbc7d44c8	-0.015458293
169	0xbc517898	-0.012785099
170	0x3ba0c9b2	0.0049068565
171	0x3c1f3469	0.009717085
172	0xbbfe4375	-0.0077595063
173	0xbc822431	-0.015886398
174	0x3b27c4f3	0.0025599569
175	0x3d3b930f	0.045794543
176	0xbcfa1bf7	-0.030530913
177	0x3d378709	0.044806514
178	0x3c2a3a5b	0.01038989
179	0xbd6d5d2b	-0.05795018
180	0xbda85010	-0.08218396
181	0xbcf960f9	-0.030441748
182	0xbd29a291	-0.0414148
183	0x3d3be972	0.045876928
184	0x3c1ab019	0.009441399
185	0xbd354e02	-0.044263847
186	0x3d2be977	0.041970696
187	0x3d4c2a07	0.049844768
188	0xba86d230	-0.001028603
189	0x3cf561fb	0.029953947
190	0x3ae2fa20	0.0017316975
191	0xbc7957e5	-0.01521871
192	0xbd346af6	-0.04404732
193	0x3d507c25	0.050899643
194	0xbd9af500	-0.07566261
195	0x3ce2eef2	0.027701829
196	0x3c2df464	0.010617349
197	0xbc6f35a5	-0.014600192
198	0x3d14f90d	0.036370326
199	0xbcaa4d61	-0.02078885
200	0xbd7875fa	-0.060659386
201	0x3d506708	0.05087951
202	0x3cc2fc84	0.02380205
203	0xbb76a5e1	-0.0037635493
204	0x3d4e2ef2	0.05033774
205	0x3bf9c0e2	0.0076218704
206	0xbd09b951	-0.033623997
207	0xbcf111a2	-0.029427353
208	0x3d6f467c	0.05841683
209	0xbcad5b77	-0.021161778
210	0x3c95af58	0.018272087
211	0xbdccefe2	-0.100066915
212	0xbd2dd04f	-0.042434987
213	0x3d5a5b50	0.05330974
214	0x3ca52f87	0.020164264
215	0xbc285d1a	-0.010276103
216	0xbcce3c70	-0.025175303
217	0x3c886db9	0.016653882
218	0xbb2a83fc	-0.002601861
219	0x3cff5699	0.031169223
220	0xbd057bac	-0.032588646
221	0xbda4f602	-0.08054735
222	0x3d6ac4f0	0.05731672
223	0x3ca6f39f	0.02037984
224	0x3cd42eed	0.025901282
225	0xbc6deb02	-0.014521362
226	0x3c50067c	0.0126968585
227	0xbb60c34f	-0.00342961
228	0xbd3ebf86	-0.04656937
229	0x3cfae3c2	0.030626182
230	0xbce39827	-0.027782513
231	0xbd036e3e	-0.032087557
232	0x3a34b871	0.0006893939
233	0xbd6305bc	-0.05542539
234	0xbccccff7	-0.02500151
235	0xbd51258c	-0.051061198
236	0x3d53c89e	0.051704995
237	0xbd86fe4c	-0.06591472
238	0x3d39636e	0.04526084
239	0xbd1005aa	-0.03516165
240	0xbd11d194	-0.03560026
241	0xbc954f44	-0.018226273
242	0x3cbcbfe4	0.02304072
243	0xbb90ba6a	-0.0044167535
244	0x3d670b96	0.056407534
245	0xbcfb16ae	-0.030650463
246	0xbd4ffa43	-0.050775778
247	0x3cbf4bba	0.023351539
248	0x3cc1af38	0.023643121
249	0x3d16bf40	0.036803484
250	0xbd8c5684	-0.06852439
251	0x3d2c6368	0.04208699
252	0xbbcd9cc1	-0.00627479
253	0x3d375650	0.04476005
254	0xbd82fb11	-0.06395543
255	0x3c90a317	0.017655892

Y_net.net.4.weight f4 [256, 256]
0	0x3c4d4e28	0.012530841
1	0x3d4821ae	0.048860244
2	0xbccc4ddc	-0.02493947
3	0xbd17ff4c	-0.037108704
4	0x3d535a70	0.05159992
5	0xbcdb8a50	-0.026799351
6	0x3d63aa44	0.0555823
7	0x3d76d68c	0.0602632
8	0xbca9ad5c	-0.020712547
9	0x3d7bf0e4	0.061509028
10	0x3c21d920	0.009878427
11	0xbd7813cc	-0.060565755
12	0x3d098c3e	0.03358101
13	0xbd3c6168	-0.04599133
14	0xbd299a88	-0.041407138
15	0xbc4d8ed0	-0.012546256
16	0xbd5d6ee6	-0.05406084
17	0xbd59ee36	-0.05320569
18	0x3c9c408c	0.019073747
19	0xbd2f1aae	-0.042750053
20	0x3cab2774	0.020892836
21	0x3c54cf18	0.012988828
22	0xbd7750a6	-0.060379647
23	0x3cec27d4	0.028827585
24	0x3d6ce06c	0.057831213
25	0xbcc4338c	-0.02395036
26	0x3ceba560	0.02876538
27	0xbd2c9fca	-0.042144574
28	0xbcb9f16c	-0.022698127
29	0xbd1d484c	-0.038399026
30	0xbcfe0534	-0.03100834
31	0xbc229d28	-0.009925164
32	0x3c8b36a4	0.016993828
33	0xbcb83d38	-0.022490129
34	0x3c2bb010	0.010478988
35	0x3d44c0c8	0.048035413
36	0x3d5b7cd6	0.05358585
37	0xbc9d5100	-0.019203663
38	0x3bef1770	0.007296495
39	0xbcdf9cd4	-0.027296461
40	0x3b8f6fa0	0.0043773204
41	0xbd38751c	-0.04503356
42	0xbd34f8f4	-0.044182733
43	0xbcf1b04c	-0.02950301
44	0xbb8436a0	-0.004034832
45	0x3d0765d4	0.033056095
46	0x3c7b0d98	0.015323065
47	0xbd7dba32	-0.061945148
48	0xbc456f20	-0.01205042
49	0x3cb9f450	0.022699505
50	0x3cc75cfc	0.02433633
51	0xbd7f9246	-0.062395357
52	0x3c9007c0	0.01758182
53	0x3cecf9cc	0.028927706
54	0xbb688440	-0.0035479218
55	0xbbd73380	-0.0065674186
56	0x3c86b634	0.016444303
57	0xbc3efa20	-0.011656314
58	0xbd26547c	-0.040607914
59	0xbd0baa1c	-0.034097776
60	0xbc7d9558	-0.015477501
61	0xbc751e38	-0.014960818
62	0xbd7f343c	-0.062305674
63	0xbd015c68	-0.031582266
64	0xbc005690	-0.007833138
65	0x3cc917f0	0.024547547
66	0xbc4b0660	-0.012391657
67	0x3c8abe70	0.01693651
68	0xbca10be8	-0.019658998
69	0xbcbfd7cc	-0.02341833
70	0x3c32a6c8	0.010904022
71	0x3c8f3608	0.017481819
72	0xbd4c54e4	-0.049885646
73	0x3c96b714	0.018397845
74	0x3d5f331e	0.05449211
75	0xbcc67634	-0.024226286
76	0xbd23f464	-0.04002799
77	0x3cbc7b6c	0.02300807
78	0xbc655de8	-0.01399944
79	0xbd0f8510	-0.035039008
80	0x3d15b22e	0.03654688
81	0xbd460172	-0.048341222
82	0xbcd52944	-0.026020654
83	0xbd547ce4	-0.051876917
84	0x3d73ba38	0.059503764
85	0xbd21edc4	-0.03953339
86	0x3b97a260	0.004627511
87	0xbccbc67c	-0.024874918
88	0x3d41ade4	0.047284976
89	0x3d10181c	0.035179242
90	0x3cb52ba8	0.022115543
91	0x3d0c925a	0.03431926
92	0x3cdc4cc0	0.026892066
93	0x3cfba09c	0.030716233
94	0xbb89ca40	-0.0042050183
95	0x3d4077a0	0.046989083
96	0x3d0d1c9a	0.034451105
97	0x3cf030cc	0.029320143
98	0x3d464874	0.04840894
99	0xbccd9520	-0.025095522
100	0xbcdf22dc	-0.027238302
101	0x3c900700	0.017581463
102	0x3d34325a	0.04399333
103	0x3bd71900	0.0065642595
104	0xbd76edca	-0.060285367
105	0x3ce04390	0.027375966
106	0xbcc92728	-0.024554804
107	0x37486000	1.1943281e-05
108	0xbc98bab8	-0.018643722
109	0xbd10e830	-0.03537768
110	0xbc94fff4	-0.018188454
111	0xbbfda640	-0.007740766
112	0xbd45abe6	-0.04825964
113	0x3d188be8	0.0372428
114	0x3ce09158	0.027413055
115	0x3d5ab8b2	0.053398795
116	0x3d046a42	0.032327898
117	0xbbd63650	-0.0065372363
118	0xbcf5e73c	-0.030017488
119	0x3d1a559e	0.037679307
120	0xbc489920	-0.012243539
121	0x3d65f2c6	0.05613973
122	0xbd386452	-0.045017548
123	0xbd6fed8e	-0.05857616
124	0x3d68a2a0	0.056795716
125	0xbd6c4e34	-0.057691768
126	0x3bc70e80	0.0060747266
127	0x3d3ce2f4	0.046114877
128	0xbd4914b0	-0.049091995
129	0xbd48988e	-0.048973612
130	0xbd53ade4	-0.051679507
131	0x3ca058b0	0.01957354
132	0x3d145278	0.03621146
133	0xbcdbcc60	-0.026830852
134	0xbd26e0e8	-0.04074183
135	0x3bfbba90	0.007682152
136	0xbd3aab96	-0.045573793
137	0xbcaebc14	-0.021329917
138	0xbc1715f0	-0.009221539
139	0xbd260094	-0.040527895
140	0xbc467db0	-0.012114927
141	0x3b875730	0.0041302666
142	0x3d181962	0.037133582
143	0x3bb554b0	0.005533777
144	0xbd4ba0fa	-0.049714066
145	0xbd04ae42	-0.032392748
146	0xbd17a828	-0.0370256
147	0xbd7cebfa	-0.061748482
148	0xbd63bca0	-0.05559981
149	0xbd0968a8	-0.033547074
150	0xbd7a645a	-0.06113086
151	0xbd0c4b92	-0.034251757
152	0xbc99083c	-0.018680684
153	0xbd311570	-0.043233335
154	0xbd6e1f08	-0.058135062
155	0xbceece88	-0.029151216
156	0xbd38a932	-0.045083232
157	0xbce1e6d0	-0.02757588
158	0x3d3daa22	0.04630483
159	0x3c428170	0.011871681
160	0x3b60d6e0	0.0034307763
161	0xbc9ae4f8	-0.018908009
162	0x3c2a5ba8	0.010397829
163	0x3d058088	0.03259328
164	0x3c6b07d0	0.014345124
165	0x3bf6ee60	0.0075357407
166	0x3cda4960	0.026646316
167	0xbc767950	-0.015043572
168	0x3d03bcca	0.032162465
169	0x3d5ecce0	0.054394603
170	0xbca87094	-0.020561494
171	0xbd585154	-0.052811936
172	0x3c86dbb4	0.016462184
173	0xbc2177b8	-0.009855203
174	0x3d3a8a78	0.04554221
175	0xbbbc30c0	-0.005743116
176	0x3d591194	0.05299528
177	0x3d110540	0.035405397
178	0x3d7af144	0.061265245
179	0x3c224a30	0.009905383
180	0xbd61ec4e	-0.055157
181	0xbc3a6520	-0.011376649
182	0x3d32de06	0.04366877
183	0x3d7935d8	0.060842365
184	0xbd7f422e	-0.062318973
185	0xbd574b6e	-0.05256217
186	0x3bcbe160	0.006221935
187	0xbc9dde0c	-0.01927092
188	0xbb124e40	-0.0022324473
189	0xbbbf4a40	-0.0058377087
190	0xbcb6de34	-0.022322752
191	0x3d602630	0.05472392
192	0xba5cc080	-0.0008421019
193	0x3aebb880	0.0017984062
194	0x3c635f78	0.013877742
195	0xbd036ff8	-0.032089204
196	0xbd52084a	-0.051277436
197	0xbb877ba0	-0.0041346103
198	0xbc31aec0	-0.010844886
199	0xbd548e3e	-0.051893465
200	0x3ccdd100	0.025124073
201	0x3ce22db4	0.027609684
202	0xbd3dc446	-0.04632976
203	0xbd1ae5e2	-0.03781689
204	0x3b459020	0.003014572
205	0x3b140de0	0.0022591278
206	0x3d5780ee	0.05261319
207	0xbd7bcdde	-0.061475627
208	0xbd0286e4	-0.031866923
209	0x3ca75810	0.020427734
210	0x3cb55b30	0.022138208
211	0x3c80aaa4	0.015706368
212	0xbc6f6808	-0.014612205
213	0x3d6bbdf6	0.057554208
214	0xbc8185a4	-0.015810795
215	0xbd158248	-0.0365012
216	0x3d651b98	0.05593452
217	0xbd4fc97e	-0.050729267
218	0x3d4edbb0	0.05050248
219	0xbd659a84	-0.05605556
220	0xbccf8d38	-0.025335893
221	0xbd22741e	-0.03966152
222	0x3c499708	0.012304075
223	0xbd2728d6	-0.04081043
224	0x3d5527ce	0.052039914
225	0xbd58afa6	-0.052901886
226	0xbcbc415c	-0.022980385
227	0xbd056846	-0.032570146
228	0xbd5e7130	-0.054307163
229	0xbc0dddd0	-0.008658841
230	0xbcd2b0cc	-0.025719069
231	0xbd236fca	-0.039901532
232	0x3d51c49c	0.051212892
233	0x3d098d8e	0.033582263
234	0x3d71a7e6	0.05899801
235	0xbcb29c28	-0.021802977
236	0x3d61507a	0.05500839
237	0xbd33f5a8	-0.043935448
238	0x3d189e1e	0.037260167
239	0x3cbf000c	0.023315452
240	0xbc357900	-0.011076212
241	0x3c8c51b8	0.01712881
242	0xbd0f7390	-0.03502232
243	0xbcef5fa0	-0.029220402
244	0x3c126eb8	0.00893753
245	0xbd5ca32a	-0.053866543
246	0x3d4de6b4	0.050268844
247	0xbd1349e2	-0.035959132
248	0x3c8f3b78	0.017484412
249	0xbd0574d0	-0.032582104
250	0xbd5086d6	-0.05090984
251	0x3d15fcb8	0.036617965
252	0x3cefc888	0.029270425
253	0xbca61cf8	-0.020277485
254	0xbc9e1d44	-0.019301064
255	0x3ae5be40	0.0017528012

Y_net.net.4.bias f4 [256]
0	0xbb8777f0	-0.0041341707
1	0x3cd194c3	0.02558363
2	0xbd5ea504	-0.05435659
3	0xbd8b3814	-0.067978054
4	0xbd731ead	-0.059355427
5	0xbc66997a	-0.014074678
6	0x3cb3e3a0	0.021959126
7	0xbd0204ad	-0.03174274
8	0x3d5e9dfd	0.054349888
9	0xbc63a1a7	-0.013893521
10	0xbd11fde4	-0.03564252
11	0x3d4774e1	0.04869545
12	0xbd899878	-0.06718534
13	0x3d2faa64	0.042887107
14	0xbc5e6aa5	-0.013575231
15	0xbcb2871c	-0.02179294
16	0x3d5c91b6	0.0538499
17	0xbd3653ac	-0.04451339
18	0xbd67dbdd	-0.056606162
19	0x3c3d0270	0.011536226
20	0x3d479d52	0.048734017
21	0xbd166990	-0.036721766
22	0x3c64550a	0.0139362905
23	0x3cb13e0c	0.021636032
24	0xbd84ed9a	-0.064906314
25	0x3aa6b0af	0.0012717451
26	0xbaf26481	-0.0018493087
27	0x3e01b8aa	0.126681
28	0x3cc91d41	0.024550082
29	0xbc694341	-0.014237226
30	0x3cbe6af8	0.023244366
31	0xbc5afe18	-0.013366245
32	0x3d280ae2	0.041026004
33	0xbd155558	-0.036458343
34	0x3c249f31	0.01004772
35	0xbd305866	-0.043053053
36	0xbce35794	-0.027751721
37	0x3d21cc18	0.03950128
38	0xbbcd2f9e	-0.00626178
39	0xbcbd269e	-0.023089703
40	0xbd1c9cfe	-0.038235657
41	0xbd1e61dc	-0.038667545
42	0xbcd193ab	-0.025583109
43	0x3c23e70e	0.010003818
44	0x3c282963	0.010263774
45	0xbd7d3baa	-0.06182448
46	0xbd5b5fe6	-0.053558253
47	0x3c943a83	0.018094307
48	0xbd595f5a	-0.05306945
49	0xbd7672c4	-0.060168043
50	0xbd39d80d	-0.045372058
51	0x3c483796	0.012220284
52	0x3c94227d	0.018082852
53	0xbcc3e5f5	-0.023913363
54	0x3c4da6d3	0.012551981
55	0xbcba771d	-0.022761876
56	0xbd6e8d0d	-0.058239985
57	0xbafc2d22	-0.0019239525
58	0x3c47fa5c	0.012205686
59	0x3d31c481	0.04340029
60	0xbcab1a08	-0.020886436
61	0xbd62ce62	-0.055372603
62	0xbd4afb7c	-0.04955624
63	0x3d5bead6	0.053690754
64	0xbce9e3b7	-0.028550966
65	0x3c97e502	0.018541817
66	0x3d436187	0.04770043
67	0x3d3ddfb3	0.046355914
68	0xbd311a2f	-0.04323786
69	0xbc832559	-0.01600902
70	0xbc9753ca	-0.01847257
71	0x3d566bde	0.052348964
72	0x3d655e31	0.05599803
73	0xbd18f795	-0.037345488
74	0xbcaa99b3	-0.020825243
75	0xbcbcbe37	-0.02303992
76	0x3b8e4d15	0.004342685
77	0x3d24fa6a	0.040277876
78	0x3c4f4cd7	0.012652597
79	0x39c4e2f3	0.00037553124
80	0xbd7b37d2	-0.06133253
81	0xbbad8a78	-0.005296048
82	0x3baf7632	0.005354666
83	0x3c7cc948	0.015428849
84	0x3d08bb23	0.033381592
85	0xb9e38605	-0.00043396666
86	0xbc50519a	-0.012714768
87	0x3bfe9f69	0.007770468
88	0xbd22ebc1	-0.039775614
89	0x3c072643	0.008248868
90	0xbd401a1f	-0.04689991
91	0xbd59b812	-0.05315406
92	0xbd45e02f	-0.0483095
93	0xbb183f47	-0.0023231076
94	0xbc5edf20	-0.013603002
95	0xbcbb19e5	-0.022839496
96	0x3cc81a27	0.024426533
97	0xbd2bfeb0	-0.041990936
98	0xbd26aa48	-0.040689737
99	0xbc8dcc6c	-0.01730939
100	0x3d04117c	0.032243237
101	0xbd245ee1	-0.040129546
102	0xbc862727	-0.016376091
103	0x3d2dd30f	0.04243761
104	0xbc8d78b4	-0.01726947
105	0x3cdbaeb4	0.026816703
106	0xbd548543	-0.0518849
107	0x3cf3fbe8	0.029783204
108	0xbb383d73	-0.0028112798
109	0xbb7b9b21	-0.0038392025
110	0xbd649eb9	-0.055815432
111	0x3bbf1cf4	0.005832309
112	0xbd47aed6	-0.04875072
113	0xbd20ae26	-0.03922858
114	0x3cc96c52	0.024587784
115	0x3d29f5aa	0.04149405
116	0xbd3f3636	-0.04668256
117	0x3d4e4d42	0.050366648
118	0xbc14d511	-0.009084002
119	0x3d5a1c3b	0.05324958
120	0x3d181ad1	0.03713495
121	0x3d6599b2	0.05605478
122	0xbc64fdb2	-0.013976501
123	0x3d0c6204	0.034273162
124	0xbd34dc47	-0.044155385
125	0xbd19e795	-0.03757437
126	0x3d34d20b	0.044145625
127	0xbb3d9556	-0.0028928122
128	0xbd61f2f8	-0.055163354
129	0xbd3345c7	-0.043767717
130	0x3e28cd0a	0.16484466
131	0xbb41a884	-0.0029549906
132	0x3d8ce4ee	0.068796024
133	0x3d46724a	0.04844884
134	0x3ab608fa	0.0013888173
135	0x3d207c45	0.039181013
136	0xba29751e	-0.000646429
137	0x3c3a7519	0.011380457
138	0xbd29469a	-0.041327097
139	0xbd1cb505	-0.03825857
140	0xbd5036ba	-0.05083344
141	0x3d226a7e	0.03965234
142	0xbcdbbcf2	-0.026823495
143	0x3d1299f4	0.035791352
144	0xbcb234e3	-0.021753734
145	0x3cbff15a	0.023430515
146	0x3c78cae6	0.0151850935
147	0x3b8d1566	0.0043055294
148	0xbd0427ea	-0.032264628
149	0xbd621a7f	-0.05520105
150	0x3d785eaa	0.060637154
151	0xbc9a34d5	-0.01882402
152	0x3d5a5a24	0.05330862
153	0xbc0e9bbf	-0.008704125
154	0x3d1edc1c	0.03878413
155	0xbd3a9664	-0.04555358
156	0x3d1950bf	0.03743052
157	0x3d363dbc	0.04449247
158	0x3a782720	0.00094662793
159	0xbd4f2339	-0.0505707
160	0xbd17e500	-0.037083626
161	0x39092e8d	0.0001308268
162	0x3be5e645	0.0070159757
163	0xbd92ae1b	-0.07162114
164	0xbd7cf7e8	-0.06175986
165	0x3c5b689a	0.013391638
166	0xbc69e55e	-0.014275877
167	0xbd4b40c2	-0.049622305
168	0x3d217761	0.03942049
169	0x3d0af7d5	0.033927757
170	0xbd7b7df9	-0.061399434
171	0x3b51a199	0.003198719
172	0xbbb99ea9	-0.0056646657
173	0xbd4f0506	-0.0505419
174	0xbd458378	-0.04822108
175	0x3cd6a790	0.026202947
176	0xbd867f98	-0.06567305
177	0x3cbc43a5	0.022981474
178	0x3d417dd0	0.047239125
179	0xbbd09df2	-0.006366485
180	0xbc351860	-0.011053175
181	0x3bd68164	0.0065461863
182	0x3d0c5d94	0.03426893
183	0xbcbb6013	-0.02287296
184	0xbceacb80	-0.02866149
185	0x3d06f965	0.032952685
186	0x3d441588	0.047872096
187	0xbd250210	-0.04028517
188	0x3cf7f678	0.030268893
189	0x3c7797f3	0.015111911
190	0xbc934708	-0.017978206
191	0x3ccf88a7	0.025333716
192	0xbd649e14	-0.055814818
193	0x3cd91670	0.026499957
194	0xbc0b13ab	-0.008488576
195	0xbd5e70b6	-0.05430671
196	0x3d558ee4	0.052138224
197	0x3a11b9d1	0.0005559
198	0xbd8ae445	-0.0678182
199	0xbd6e09c6	-0.05811479
200	0x3d30730c	0.043078467
201	0x3d31e408	0.04343036
202	0x3d56d020	0.052444577
203	0x3d593f18	0.053038687
204	0xbabe6830	-0.00145269
205	0x3cd96640	0.026538014
206	0x3c9aa470	0.018877238
207	0x3d2cb536	0.042165004
208	0x3d58a20b	0.05288891
209	0xbc00e28f	-0.007866516
210	0xbc0b897c	-0.008516666
211	0xbd68bffc	-0.056823716
212	0x3c8a4670	0.01687929
213	0x3c42721b	0.011868025
214	0xbd841a42	-0.06450321
215	0x3d065388	0.032794505
216	0x3d342abd	0.04398607
217	0xbca47d6c	-0.020079337
218	0x3d7d0ba4	0.06177868
219	0x3d38fceb	0.045163076
220	0xbd43ae0f	-0.047773417
221	0x3bd504d3	0.006500819
222	0x3d11f5f1	0.03563494
223	0x3c93a663	0.018023675
224	0xbd4e4476	-0.05035826
225	0xbb2ebbc0	-0.00266622
226	0xbd28daa2	-0.04122413
227	0xbb13bb5a	-0.002254209
228	0x3d37063d	0.044683684
229	0xbd0a66b4	-0.03378935
230	0xbd6f36f6	-0.058402024
231	0xbd6b62ae	-0.057467155
232	0xbd6a8747	-0.057257917
233	0x3bbe16c2	0.005801053
234	0x3d3db8ee	0.04631894
235	0xbca596a4	-0.020213433
236	0xbd35ab3e	-0.044352762
237	0xbd8a6871	-0.06758202
238	0xbc14d489	-0.009083875
239	0x3cf729cd	0.0301713
240	0xbd588f3f	-0.052870985
241	0xbcd763fa	-0.02629279
242	0x3d1a2f55	0.037642796
243	0x3d1402d5	0.036135513
244	0x3c43c6b6	0.011949232
245	0x3b795afb	0.0038048613
246	0x3cdaca56	0.02670781
247	0x3d0a9b23	0.033839356
248	0x3d2ac856	0.04169496
249	0xbb9bbb28	-0.0047525354
250	0xbd66fb83	-0.056392204
251	0xbd3821be	-0.044954054
252	0xbd437d48	-0.0477269
253	0xbd0794b5	-0.033100802
254	0xbafc709e	-0.0019259637
255	0x3a398853	0.0007077504

Y_net.net.6.weight f4 [256, 256]
0	0xbd246b3c	-0.04014133
1	0x3d55af6a	0.05216924
2	0xbd70fd7b	-0.058835488
3	0xbd10f76e	-0.035392217
4	0xbca97da5	-0.020689795
5	0xbcf9585b	-0.030437639
6	0xbd35ac86	-0.044353984
7	0x3cb97c88	0.022642389
8	0x3cd6c894	0.02621869
9	0x3b866b54	0.00410215
10	0xbd2a8028	-0.041626126
11	0x3c223f7d	0.009902832
12	0xbd4d7e68	-0.05016938
13	0xbb8e05e0	-0.0043341964
14	0xbcb5213a	-0.02211057
15	0xbacf7611	-0.0015828033
16	0xbd4015c7	-0.04689577
17	0xbce38639	-0.027773963
18	0xbd323cdb	-0.043515068
19	0xbb540360	-0.0032350644
20	0xbd8162b5	-0.06317655
21	0x3d5868fb	0.052834492
22	0x3d37c55c	0.04486595
23	0xbd62449d	-0.055241216
24	0x3c85b0e5	0.016319701
25	0x3cc21267	0.023690416
26	0x3ce95b62	0.028485958
27	0xbcbc4264	-0.022980876
28	0x3c3ab479	0.011395567
29	0x3c4e19d3	0.012579399
30	0xbd4f285c	-0.0505756
31	0x3c30d058	0.0107918605
32	0xbce230b7	-0.02761112
33	0xbd861b3c	-0.06548163
34	0xbb678b60	-0.0035330877
35	0x3cf2f438	0.029657468
36	0x3d374e8d	0.044752646
37	0xbc0505b3	-0.008119035
38	0xbbffd4b9	-0.007807341
39	0x3ca114c2	0.019663218
40	0xbc8ea36c	-0.01741191
41	0xbd53c1ad	-0.051698375
42	0x3d2c1c82	0.042019375
43	0x3c8d2fc2	0.017234687
44	0xbd1b92fd	-0.037981976
45	0x3d617c9e	0.055050485
46	0x3d08425c	0.03326641
47	0xbd10be4c	-0.03533773
48	0x3cc6ae65	0.02425308
49	0xbd6b9572	-0.05751557
50	0xbd043a02	-0.032281883
51	0xbd818997	-0.06325071
52	0xbd61ba1c	-0.05510913
53	0xbd839c8d	-0.06426344
54	0xbd2caa13	-0.042154383
55	0xbd482370	-0.04886192
56	0x3bb3a947	0.005482826
57	0xbd895d06	-0.06707196
58	0x3d0e12ec	0.034686014
59	0xbd0d4fd8	-0.034499973
60	0xbd829d8d	-0.06377707
61	0x3cb23631	0.021754356
62	0xbd93faaf	-0.072255485
63	0x3d36548e	0.04451423
64	0x3be33998	0.006934356
65	0xbd56e640	-0.052465677
66	0xbd52dbb7	-0.051479068
67	0x3bdc647b	0.0067258454
68	0xbd81f337	-0.06345218
69	0xbcf67442	-0.030084733
70	0xb93c92fa	-0.0001798383
71	0x3d14923a	0.036272265
72	0x3d4fed73	0.05076356
73	0xbd8244ba	-0.06360765
74	0xbca1ee91	-0.019767078
75	0xbd8f5460	-0.06998515
76	0x3bb5da27	0.0055496874
77	0x3b80c92e	0.0039302325
78	0xbd8fff7f	-0.07031154
79	0x3d1d083c	0.03833793
80	0x3ca8cc93	0.020605361
81	0x3ca40b59	0.020024942
82	0xbd9325f4	-0.07184973
83	0x3ca37b94	0.019956388
84	0xbc3fa978	-0.011698119
85	0x3ca9fabc	0.020749442
86	0x3d37f2eb	0.0449094
87	0xbc7d782d	-0.015470547
88	0xbd51ccfe	-0.051220886
89	0xbd83abb9	-0.06429238
90	0xbc625756	-0.013814768
91	0xbc9a0aec	-0.018804036
92	0x3cd197d8	0.0255851
93	0xbd3bb7a1	-0.04582942
94	0xbc1c2f83	-0.009532812
95	0x3d1c1505	0.038105983
96	0xba86eaa0	-0.0010293312
97	0xbb8980ce	-0.004196263
98	0xbca7518d	-0.020424629
99	0xbd1a6241	-0.03769136
100	0xbd187e7a	-0.037229992
101	0x3a49ed20	0.0007702876
102	0x3d56d6c1	0.0524509
103	0x3d4a2eb4	0.049360946
104	0xbd09b45c	-0.03361927
105	0x3a05d268	0.00051049003
106	0xbc03f8cb	-0.008054922
107	0xbc3df06a	-0.011592964
108	0xbce78d44	-0.028265603
109	0x3d16f4b5	0.036854465
110	0xbd852ba8	-0.065024674
111	0xbce220d5	-0.027603546
112	0xbca0438b	-0.019563457
113	0x3ce0fd72	0.027464602
114	0xbc706486	-0.014672404
115	0x3d233432	0.0398447
116	0x3be763ff	0.007061481
117	0xbc87c7da	-0.016574789
118	0x3ced1778	0.028941855
119	0xbd847406	-0.06467442
120	0xbd4ebe84	-0.05047466
121	0xbd4b0a10	-0.049570143
122	0x3c934a75	0.01797984
123	0x3c8ed1a3	0.017433947
124	0x3d1ee488	0.038792163
125	0xbca91393	-0.020639217
126	0xbd26d3b7	-0.04072925
127	0x3be0204f	0.006839789
128	0xbd7e0608	-0.06201747
129	0x3a180e00	0.0005800426
130	0x3ca4b52c	0.02010592
131	0x3d5fed74	0.054669812
132	0x3d4b6ba2	0.049663194
133	0xbd902017	-0.07037371
134	0xbd8e5070	-0.06948936
135	0x3d1e9223	0.038713586
136	0x3c942833	0.018085575
137	0x3ce0fb34	0.027463533
138	0xbd2f7884	-0.042839542
139	0x3d030550	0.03198749
140	0xbd824607	-0.06361013
141	0xba774571	-0.000943265
142	0x3cb33037	0.021873577
143	0xbce85919	-0.028362798
144	0x3b27c9fd	0.0025602572
145	0xbd80dbbf	-0.06291913
146	0xbd120b58	-0.03565535
147	0xbcacc5cc	-0.02109041
148	0xbd65ee4e	-0.05613547
149	0x3d720286	0.059084438
150	0xbbe980fb	-0.0071259714
151	0xbd2d89b7	-0.042367663
152	0xbd935938	-0.071947515
153	0xbd914793	-0.0709373
154	0xbd872c72	-0.06600274
155	0xbc93722d	-0.01799878
156	0x3ab0bdf2	0.0013484342
157	0x3c2bda3f	0.010489046
158	0x3c3f0b2e	0.01166038
159	0x3c1b1f70	0.0094679445
160	0x3d422f4c	0.047408387
161	0xbcd0cad8	-0.025487348
162	0x3c139520	0.009007722
163	0x3c8fcf4e	0.017554905
164	0xbce86ab1	-0.028371187
165	0x3c0be776	0.008539071
166	0x3bf29d80	0.0074040294
167	0x3d333ddb	0.04376016
168	0x3b7fa5b4	0.003900868
169	0xbd8b9972	-0.06816377
170	0x3d4e1a7c	0.050318226
171	0xbc90e97a	-0.017689455
172	0x3cf6f3e5	0.030145595
173	0x3c22aa88	0.009928353
174	0xbb6101a0	-0.0034333244
175	0x3ce456b5	0.027873376
176	0x3c2d2a87	0.010569221
177	0x3c300a64	0.010744665
178	0x3ce3d7a3	0.027812785
179	0xbceb44b0	-0.028719276
180	0x3bd32c2a	0.0064444738
181	0xbd56e987	-0.052468803
182	0xbd5c15c0	-0.05373168
183	0x3d1de10f	0.03854471
184	0x3d1f6533	0.03891487
185	0xbcfd7181	-0.030937912
186	0x3d005630	0.031332195
187	0x3a052599	0.000507915
188	0xbcf6e19a	-0.030136872
189	0xbd0cbdc3	-0.03436066
190	0xbc15f2aa	-0.009152094
191	0xbd1eef7b	-0.038802605
192	0xbd27f9d7	-0.04100975
193	0x3c431e10	0.011909023
194	0xbd7c577d	-0.061606873
195	0xbd74ff92	-0.059814043
196	0xbc7bc44f	-0.015366628
197	0xbc832ec8	-0.016013518
198	0xbcce1368	-0.025155738
199	0xbca40b0c	-0.020024799
200	0xbcd8b462	-0.0264532
201	0x3d1477e1	0.036247138
202	0x3c65ae4f	0.014018609
203	0xbad8d080	-0.001654163
204	0xbd1fb0f3	-0.03898711
205	0x3d6b0fbe	0.05738806
206	0xbd8bed89	-0.068324156
207	0x3cdb82a6	0.026795696
208	0x3d291091	0.041275565
209	0x3cec47b2	0.02884278
210	0xbd66ffea	-0.056396402
211	0xbcfc4548	-0.030794755
212	0xbd8b7b1b	-0.0681059
213	0x3c991c8c	0.01869037
214	0x3d495367	0.049151804
215	0x3a96b0d6	0.0011496793
216	0xbd6aa362	-0.05728472
217	0xbcfae559	-0.03062694
218	0xbd8a3e89	-0.06750209
219	0x3b7486be	0.0037311758
220	0x3c8677df	0.01641458
221	0xbd45a03d	-0.04824852
222	0x3c347cf9	0.011016124
223	0x3d7be0ac	0.06149356
224	0xbd67cf1c	-0.056594
225	0xbc545c23	-0.01296142
226	0x3d5749e8	0.052560717
227	0x3c1c9cda	0.009558881
228	0xbd0e4f86	-0.03474381
229	0xbcbb8888	-0.022892252
230	0x3ac93280	0.0015350133
231	0x3d298dd2	0.041395016
232	0xbce17323	-0.027520722
233	0xbbe00400	-0.0068364143
234	0xbd446472	-0.047947355
235	0xbc6e352f	-0.014539047
236	0x3d5c5cc7	0.053799417
237	0xbcb52e92	-0.022116933
238	0xbc82b6f0	-0.015956372
239	0xbc36fe46	-0.011169022
240	0xbd711159	-0.058854435
241	0x3d22357e	0.039601795
242	0xbd0c7d8c	-0.03429942
243	0xbd3162dd	-0.043307174
244	0x3c8a4474	0.016878344
245	0x3d313bd6	0.043269955
246	0x3c292069	0.010322669
247	0xbca69a72	-0.020337317
248	0xbaabcd0a	-0.0013107371
249	0xbd6632bb	-0.056200724
250	0xbcbfc523	-0.023409432
251	0xbd8e3c5b	-0.06945106
252	0xbd576729	-0.052588616
253	0xbd0718a3	-0.03298248
254	0x3ceecc89	0.029150264
255	0x3d4357b3	0.04769106
