saved/simple_FC_ReLU/model_best.pth (torch, 798133 bytes, 9 tensors)

Y_net.net.0.weight f4 [256, 2]
0	0xbf302b84	-0.688164
1	0xbeefd4a4	-0.4684192
2	0xbec7b906	-0.3900835
3	0xbe9bcff4	-0.30432093
4	0x3ed7936e	0.42104667
5	0xbe8ace61	-0.2711058
6	0x3e56268b	0.2091314
7	0xbe9c51a7	-0.30531046
8	0xbd447659	-0.047964428
9	0xbf0dd18f	-0.55397886
10	0x3f22b0c7	0.6355099
11	0x3e96b524	0.29435074
12	0xbef55aa6	-0.47920722
13	0xbf07fe53	-0.5312244
14	0x3ebefae3	0.37300786
15	0x3e7d7642	0.24752143
16	0xbedcb1fb	-0.43104538
17	0x3eb32c7a	0.3499487
18	0xbebfeb0b	-0.3748401
19	0xbd519b9e	-0.0511738
20	0xbef42352	-0.47683197
21	0xbeee19e5	-0.4650413
22	0xbe1a588e	-0.15072843
23	0xbe5f468a	-0.21804252
24	0xbeb16789	-0.34649304
25	0xbdcdc52e	-0.10047375
26	0xbef14b01	-0.47127536
27	0x3e7394d6	0.23787245
28	0x3ee307ff	0.44342038
29	0x3dedfbfa	0.11620326
30	0x3edaa262	0.42702013
31	0x3e6ccb3b	0.23124401
32	0x3dc83a6f	0.0977677
33	0x3e9e27df	0.30889794
34	0xbf2f74af	-0.6853742
35	0xbf1e2150	-0.6176958
36	0xbf36f0d2	-0.7146121
37	0xbee5869a	-0.44829255
38	0x3eb43281	0.3519478
39	0xbf113211	-0.5671702
40	0xbe49d469	-0.19709934
41	0x3e446750	0.19180036
42	0xbeb00498	-0.34378505
43	0xbe547775	-0.20748694
44	0xbf2df604	-0.67953515
45	0x3eefd01c	0.46838462
46	0x3ed4da19	0.41572645
47	0x3ee27eb5	0.44237295
48	0x3ea2be01	0.31785586
49	0xbec1d75f	-0.37859628
50	0xbf24c142	-0.6435739
51	0x3ee8f311	0.45497945
52	0x3e041b97	0.1290115
53	0xbe3c6fc7	-0.18402015
54	0x3d199eae	0.037504844
55	0x3e4c3394	0.1994155
56	0x3e698994	0.22806388
57	0xbe393b58	-0.18089044
58	0xbf12f5c4	-0.5740626
59	0xbeb541c8	-0.3540175
60	0x3e402b8f	0.18766616
61	0xbe63a21f	-0.22229813
62	0xbe5964b4	-0.21229821
63	0xbeba3e30	-0.3637557
64	0xbf00849e	-0.5020236
65	0x3e66684a	0.2250072
66	0x3f2146e8	0.6299882
67	0xbad64699	-0.0016347944
68	0xbeb42335	-0.3518311
69	0x3da09488	0.0784083
70	0xbec5cc14	-0.38632262
71	0xbe814d37	-0.25254223
72	0x3e7a8cda	0.24467793
73	0xbecc3420	-0.39883518
74	0xbe584269	-0.21119083
75	0xbe353ced	-0.17699023
76	0xbedbab9c	-0.42904365
77	0xbf096641	-0.5367165
78	0x3ea49ec2	0.32152373
79	0xbe190de4	-0.14946705
80	0xbed43f75	-0.41454664
81	0x3e3925e9	0.18080868
82	0xbf002dc7	-0.5006985
83	0xbed469ad	-0.41486874
84	0x3ddf66d3	0.10908284
85	0x3e849e9f	0.25902268
86	0x3eff8849	0.49908665
87	0x3ec8db2c	0.39229715
88	0x3f2747f0	0.6534414
89	0x3f09cf62	0.53832066
90	0x3dce6080	0.10077
91	0xbc324380	-0.010880351
92	0xbe18f608	-0.14937603
93	0x3eaad101	0.33362582
94	0x3d3f59cd	0.0467165
95	0xbddecea2	-0.10879256
96	0xbe4c6560	-0.19960546
97	0xbf0c1d45	-0.5473216
98	0x3f24fcfe	0.64448535
99	0x3e4d3060	0.20037985
100	0xbed5b5d3	-0.41740283
101	0xbcb9b62b	-0.022669872
102	0xbeeb53cd	-0.45962372
103	0x3ea1d254	0.3160578
104	0xbf1bef16	-0.6091169
105	0x3b289ea3	0.002572932
106	0x3e4b3725	0.19845255
107	0x3e9871df	0.29774377
108	0x3f2165bd	0.63045865
109	0xbeea804b	-0.45801005
110	0x3e109498	0.14119184
111	0x3eb36361	0.35036758
112	0xbec9caae	-0.39412445
113	0x3f1a9827	0.60388416
114	0xbe6b265a	-0.22963849
115	0x3de53b93	0.111930035
116	0xbd44d1c4	-0.04805161
117	0x3d6aec75	0.05735441
118	0xbef56c03	-0.4793397
119	0x3ef9d3bc	0.48794353
120	0xbe5731ba	-0.21015063
121	0x3f069f0c	0.52586436
122	0x3dfca3cd	0.1233593
123	0x3eb52481	0.35379413
124	0x3f0bb4f3	0.5457298
125	0xbe928f99	-0.2862518
126	0xbd6d76b8	-0.057974547
127	0x3d839d29	0.0642646
128	0x3da92d5b	0.08260604
129	0xbdbe9e1c	-0.09307501
130	0xbee01b39	-0.4377077
131	0xbc36c10f	-0.011154427
132	0xbee740ce	-0.4516663
133	0x3dfb4983	0.122698806
134	0x3e71b5a1	0.23604442
135	0xbe272d55	-0.16325887
136	0x3d9141bd	0.07092617
137	0x3dae0243	0.08496525
138	0xbe96c02f	-0.294435
139	0x3efbaaa5	0.4915363
140	0xbe986e9e	-0.29771894
141	0xbd5e5a47	-0.054285314
142	0xbce21a43	-0.027600413
143	0xbf25d957	-0.6478476
144	0x3ee20ca2	0.44150263
145	0x3e18cb55	0.14921315
146	0x3eca419e	0.39503187
147	0x3e86d50a	0.2633441
148	0xbeb28da4	-0.34873688
149	0x3e3192f8	0.1734122
150	0xbf302abe	-0.6881522
151	0xbf1deff3	-0.6169426
152	0xbec897e8	-0.39178395
153	0x3ec464a2	0.38358027
154	0xbe878277	-0.26466724
155	0x3e25767c	0.1615848
156	0x3ed31cf2	0.4123302
157	0x3e22c2ad	0.15894575
158	0x3e8d8290	0.27638674
159	0xbedcf813	-0.43158016
160	0x3f2a46ed	0.66514474
161	0xbd3bd4e2	-0.045857318
162	0x3f0cbad7	0.54972595
163	0xbefcee14	-0.4940039
164	0xbdda924d	-0.10672436
165	0x3e858d2f	0.26084277
166	0xbeaa36f2	-0.33245045
167	0xbe45e2f7	-0.19324861
168	0xbdd1e859	-0.10249395
169	0xbedf0589	-0.4355891
170	0x3eefcdf7	0.46836826
171	0xbe99dc72	-0.30051
172	0x3f1a9726	0.60386884
173	0xbe5216da	-0.2051653
174	0xbe9890d5	-0.29797998
175	0x3cf22a6a	0.02956124
176	0x3f1193b8	0.56866026
177	0x3f222ca5	0.6334937
178	0x3ecf715f	0.40516183
179	0xbe8b2de5	-0.27183452
180	0x3f251f10	0.6450052
181	0x3ebb0528	0.3652737
182	0xbf025698	-0.5091338
183	0xbebca85b	-0.36847195
184	0x3f189df8	0.5961604
185	0x3d99fd6a	0.07519038
186	0xbeedd5fe	-0.46452326
187	0x3cc4fe60	0.024047077
188	0x3da79f96	0.081847355
189	0x3eef81f6	0.4677884
190	0x3f2a97e4	0.66638017
191	0x3e4cd6fa	0.20003882
192	0x3ea92f8a	0.33044082
193	0xbe867f00	-0.26268768
194	0x3ee604da	0.44925576
195	0xbee0f441	-0.4393635
196	0xbe82217f	-0.2541618
197	0xbe91ae63	-0.2845336
198	0x3f072f5d	0.52806646
199	0xbed033c8	-0.40664506
200	0x3f12ce06	0.57345617
201	0xbe11d475	-0.14241202
202	0xbeafa400	-0.3430481
203	0x3e847e93	0.25877818
204	0x3f029267	0.5100464
205	0xbdd95243	-0.10611393
206	0x3e2dfb0a	0.16990295
207	0xbe3fad8d	-0.18718548
208	0x3f185a45	0.5951274
209	0xbeb16b01	-0.3465195
210	0x3ecc9712	0.39959008
211	0xbf052229	-0.5200525
212	0xbd877a57	-0.06615131
213	0x3dbde7f3	0.092727564
214	0x3f06b570	0.526206
215	0xbe1a25ae	-0.15053436
216	0x3ef5d4ab	0.48013815
217	0x3f1a8e33	0.6037323
218	0x3de101a7	0.10986643
219	0x3e4d9667	0.20076905
220	0xbd3d6e04	-0.046247497
221	0x3c912f73	0.01772282
222	0x3d6850de	0.056717746
223	0x3e4a93e3	0.19782977
224	0xbc2db6c7	-0.01060266
225	0xbe70fb24	-0.23533303
226	0xbf18d149	-0.59694344
227	0x3e4aff07	0.19823848
228	0x3f1e5243	0.6184427
229	0x3d7c15d6	0.061544262
230	0xbe5f14d7	-0.21785294
231	0x3e941d78	0.28928733
232	0x3e503db5	0.2033604
233	0x3e21be0b	0.15795152
234	0x3d90de06	0.070735976
235	0xbdb0577e	-0.08610438
236	0x3b05bd01	0.0020406845
237	0x3e200970	0.156286
238	0xbe9316f2	-0.28728443
239	0xbee767c8	-0.45196366
240	0xbf2216ba	-0.6331593
241	0x3ccbd620	0.024882376
242	0xbf108da4	-0.56466126
243	0x3c0d3340	0.008618176
244	0xbe7ef20a	-0.24897018
245	0x3ee4b4f9	0.4466932
246	0x3f09f0a9	0.53882843
247	0xbeafc394	-0.34328902
248	0x3f21f736	0.6326784
249	0xbd3d05e6	-0.046148203
250	0xbeff4cc9	-0.4986327
251	0xbe1ec056	-0.15503058
252	0xbe8b1fcd	-0.271727
253	0x3efe7500	0.4969864
254	0xbf1d849c	-0.6153047
255	0x3eeb4f6c	0.45959032

Y_net.net.0.bias f4 [256]
0	0xbeb3de6b	-0.3513063
1	0xbf30d691	-0.690774
2	0xbf4653e9	-0.77471787
3	0x3f35b4f0	0.70979214
4	0xbd0af1ce	-0.03392201
5	0x3dded9a3	0.10881355
6	0x3f225052	0.6340381
7	0xbee43241	-0.4456959
8	0x3ee43dbd	0.44578353
9	0x3ed287db	0.41119274
10	0x3f4e18c6	0.8050655
11	0x3f3b2ed7	0.73118347
12	0x3e962b75	0.2933003
13	0xbf31227a	-0.6919323
14	0x3ee0a768	0.4387772
15	0x3ecf4f36	0.4049012
16	0x3cbec40c	0.023286842
17	0xbeaf5019	-0.34240797
18	0xbdfa481d	-0.12220786
19	0x3e7406a8	0.23830664
20	0xbf1e555d	-0.61849004
21	0xbeced5a9	-0.40397385
22	0x3f10a31f	0.56498903
23	0xbf5daa60	-0.86588097
24	0x3e86f893	0.26361522
25	0x3f3a4a69	0.7276979
26	0xbf18de04	-0.5971377
27	0x3ec77b42	0.38961226
28	0xbf128d5d	-0.57246953
29	0x3efd0840	0.49420357
30	0xbf036487	-0.5132527
31	0x3f4e7b9d	0.8065737
32	0x3eeb9d79	0.4601858
33	0x3efa744e	0.48916858
34	0xbf2f5039	-0.68481785
35	0xbf16480d	-0.5870369
36	0x3f3e26a6	0.7427772
37	0x3f04bfee	0.5185536
38	0xbf038a71	-0.5138312
39	0x3f26f930	0.6522398
40	0xbd12e120	-0.035859227
41	0x3f2e695b	0.6812951
42	0x3f0f041a	0.55865633
43	0xb79f2928	-1.8973442e-05
44	0x3c79a3fc	0.015236851
45	0xbe5d7c54	-0.21629459
46	0xbf534a0c	-0.8253486
47	0x3e883720	0.26604557
48	0x3f14f992	0.58193314
49	0xbeb68b9c	-0.35653389
50	0x3f18b22a	0.59646857
51	0x3f43d256	0.7649282
52	0x3f0addd6	0.54244745
53	0x3e56b09f	0.20965813
54	0x3e0b7ead	0.13622542
55	0x3f2ec714	0.6827252
56	0xbe9a2368	-0.30105138
57	0xbec6052f	-0.3867583
58	0x3e362a31	0.17789532
59	0xbf018436	-0.5059236
60	0xbf3ba241	-0.73294455
61	0xbf53d269	-0.82742935
62	0x3ef5ad4b	0.47983775
63	0xbe477e46	-0.19481763
64	0xbedd9c8b	-0.43283495
65	0x3f01d0c9	0.50709206
66	0x3e6d55e0	0.2317729
67	0xbedbf81f	-0.4296274
68	0xbf1bb0f6	-0.60816896
69	0x3f3fc176	0.7490457
70	0x3e598979	0.21243848
71	0xbea84db6	-0.3287179
72	0xbf025129	-0.5090509
73	0x3ec6a8ba	0.38800603
74	0x3f1583bb	0.5840413
75	0x3f0d2cea	0.5514666
76	0xbf076c89	-0.52899987
77	0xbeb97499	-0.3622177
78	0xbed7b322	-0.42128855
79	0xbef20342	-0.4726811
80	0x3d62c99b	0.055368047
81	0xbf381819	-0.7191177
82	0xbf012887	-0.50452465
83	0x3f11b12e	0.5691098
84	0xbe9e264e	-0.308886
85	0x3eaef93d	0.3417453
86	0xbf149b4a	-0.5804945
87	0xbdc826df	-0.09773039
88	0xbea15007	-0.3150637
89	0x3e1a77cf	0.15084766
90	0x3f338dc7	0.7013821
91	0xbdc9cbe6	-0.09853344
92	0x3f1939a4	0.5985358
93	0xbd342590	-0.043981135
94	0xbf653d08	-0.8954625
95	0xbf278b5c	-0.6544702
96	0x3ef26a37	0.4734666
97	0x3ecbc60f	0.39799544
98	0xbf2d51ef	-0.67703146
99	0x3ea6ae75	0.32554975
100	0xbf001c71	-0.500434
101	0xbebb753c	-0.3661288
102	0xbe989470	-0.2980075
103	0x3ea62238	0.32447982
104	0x3e976a51	0.295733
105	0xbf2f9d6e	-0.68599594
106	0x3f2b1f95	0.66845065
107	0xbf0d1325	-0.5510734
108	0x3f394154	0.7236531
109	0xbeba6178	-0.36402488
110	0x3e825be7	0.2546074
111	0xbede69ce	-0.43440098
112	0x3ece1d1d	0.40256587
113	0x3eba56d1	0.3639436
114	0xbe17884c	-0.14798087
115	0xbf3c3f86	-0.7353443
116	0xbe5eca9a	-0.21756974
117	0x3e458747	0.19289885
118	0xbef58c8c	-0.4795879
119	0xbe99137c	-0.29897678
120	0xbe940a5c	-0.28914154
121	0xbe86327f	-0.262104
122	0x3edf4100	0.4360428
123	0x3f244840	0.64172745
124	0xbe6b99a1	-0.23007824
125	0x3e8c19d0	0.27363443
126	0xbeefe146	-0.46851557
127	0x3edb0db8	0.42783904
128	0xbad19881	-0.0015990884
129	0xbe52bd7a	-0.20580092
130	0x3f2a4ea7	0.66526264
131	0x3ebd62f0	0.36989546
132	0xbf3cc81b	-0.73742837
133	0xbf0ecd07	-0.55781597
134	0xbed4b587	-0.41544744
135	0x3f1a062e	0.6016568
136	0x3efb1927	0.49042627
137	0xbed7f0ee	-0.42176002
138	0xbed48dee	-0.41514534
139	0xbf308f81	-0.6896897
140	0xbf572abf	-0.840496
141	0xbed87e6a	-0.42283946
142	0xbf20ea36	-0.6285738
143	0xbed8151e	-0.4220361
144	0x3ddcf22f	0.1078838
145	0xbf2a69fa	-0.6656796
146	0xbf453cc3	-0.7704584
147	0xbf1d1663	-0.61362284
148	0xbeffc578	-0.49955344
149	0xbf3bb719	-0.7332626
150	0xbf1f2649	-0.62167794
151	0x3efda6db	0.49541363
152	0x3eceb8a4	0.40375245
153	0xbef00ed2	-0.46886307
154	0x3efac970	0.4898181
155	0x3f49b4b6	0.7879137
156	0x3ee2a0b1	0.44263223
157	0xbea415ae	-0.3204779
158	0xbd0ddf97	-0.03463706
159	0xbf4e76cb	-0.80650014
160	0xbefa4660	-0.48881817
161	0x3e99e41e	0.30056852
162	0xbe7c3343	-0.2462893
163	0x3f4a8ff2	0.79125893
164	0xbebd4c3c	-0.36972225
165	0x3f161c72	0.58637154
166	0x3f2a3a0f	0.6649484
167	0xbe1fa732	-0.15591124
168	0x3ec8f1de	0.3924703
169	0xbe60a10f	-0.21936439
170	0x39b5175b	0.0003454041
171	0x3ea666fa	0.3250044
172	0xbe6d907c	-0.23199648
173	0xbe955fac	-0.29174554
174	0xbec50a63	-0.38484487
175	0xbf570d28	-0.8400445
176	0x3f27c085	0.65528136
177	0x3d07b339	0.033129904
178	0xbf100b11	-0.56266886
179	0xbf141832	-0.5784942
180	0xbf43efa9	-0.7653757
181	0xbcce4769	-0.025180535
182	0x3ee7ecc7	0.45297834
183	0xbdebdc21	-0.11516596
184	0xbf3f666c	-0.7476566
185	0x3f0edd91	0.55806834
186	0x3ede5e29	0.43431213
187	0x3ef7729b	0.48329625
188	0xbe195d65	-0.14977033
189	0xbf0a3505	-0.5398715
190	0x3f3bbaf9	0.7333217
191	0xbeb64a22	-0.35603434
192	0xbf3484c4	-0.70515084
193	0xbf46597c	-0.7748029
194	0xbf02a5ea	-0.51034415
195	0xbe9c1100	-0.3048172
196	0x3d832899	0.06404228
197	0xbdb75229	-0.08951218
198	0x3f32b135	0.69801646
199	0x3ecd0f70	0.4005084
200	0x3f352eb8	0.7077441
201	0x3e86ed6c	0.26353014
202	0x3e2d8863	0.16946559
203	0x3ed84d82	0.42246634
204	0xbf2c44b9	-0.6729236
205	0xbeab8573	-0.3350025
206	0x3f419194	0.7561276
207	0x3e96c122	0.29444224
208	0x3ea9f3b2	0.33193737
209	0x3f19be27	0.60055774
210	0x3f197a49	0.5995222
211	0x3f25a368	0.64702463
212	0x3f06a7b6	0.52599657
213	0xbe29c005	-0.16577156
214	0x3e9d0a5b	0.30671963
215	0xbeb70145	-0.35743156
216	0x3ec85702	0.39128882
217	0x3e893e8e	0.26805538
218	0xbf36ab28	-0.71354914
219	0x3e8a5243	0.27015886
220	0x3ebeeb68	0.37288976
221	0xbf329ac6	-0.69767416
222	0x3f1895d7	0.5960364
223	0x3ed412f0	0.41420698
224	0x3f1411e6	0.5783981
225	0xbf0ebc06	-0.5575565
226	0x3efd4652	0.49467713
227	0xbf1e457a	-0.6182476
228	0x3f01e237	0.507358
229	0x3f2b7d0f	0.669877
230	0xbe6b1d7e	-0.22960469
231	0x3f192e9f	0.59836763
232	0x3f03e2e4	0.5151808
233	0xbf015228	-0.50515985
234	0x3ed8dffb	0.42358384
235	0x3e9d228f	0.3069043
236	0x3ed96ea2	0.4246722
237	0xbf59f0ce	-0.85133064
238	0xbf343e8d	-0.70407945
239	0xbf1081c2	-0.56447995
240	0x3e7bcfde	0.24591014
241	0x3f0c27e6	0.5474838
242	0xbe5fe6ee	-0.21865436
243	0xb832dc98	-4.264395e-05
244	0xbdbab370	-0.09116256
245	0x3eecdc97	0.46262047
246	0xbe986d29	-0.29770783
247	0x3f47cf95	0.7805112
248	0xbe13e9f3	-0.14444713
249	0xbdc31bc8	-0.09526783
250	0x3f34e024	0.7065451
251	0x3f1f7a35	0.6229585
252	0x3cdfac1a	0.027303744
253	0xbec6657b	-0.38749298
254	0x3e639dbb	0.22228138
255	0xbeaee173	-0.3415638

Y_net.net.2.weight f4 [256, 256]
0	0x3cc60594	0.024172582
1	0x3bdda99c	0.006764604
2	0xbcea96f2	-0.02863643
3	0x3d3b2f93	0.045699667
4	0xbb74daca	-0.0037361854
5	0x38be83f3	9.0844835e-05
6	0xbcaae4db	-0.02086108
7	0x3d1053ca	0.035236157
8	0x3d916ddb	0.071010314
9	0x3e4b3223	0.19843344
10	0x3c9eae96	0.019370358
11	0x3c79d7a8	0.01524917
12	0xbcdcaa29	-0.026936607
13	0x3dc7aa42	0.09749271
14	0xbc7eaeef	-0.015544637
15	0xbd22911c	-0.03968917
16	0xbcb796fd	-0.022410864
17	0x3bdf5600	0.006815672
18	0xbc905d63	-0.017622655
19	0x3cb6a4b1	0.022295328
20	0x3d9bf06c	0.07614216
21	0x3ddaf264	0.106907636
22	0xbcfd9f91	-0.030959876
23	0x3cafa05f	0.021438776
24	0xba713db0	-0.00092026126
25	0x3ceabe39	0.028655158
26	0x3dbfe40e	0.0936967
27	0xbcf7176a	-0.030162532
28	0x3d55cf5a	0.0521997
29	0xbd338d70	-0.043836057
30	0xbc4172c2	-0.011807146
31	0x3cfc5ba8	0.030805424
32	0xbcdeea60	-0.027211368
33	0x3c194f1f	0.009357243
34	0xbd040130	-0.032227695
35	0x3bed1f69	0.0072364104
36	0x3c1ec658	0.0096908435
37	0x3c41f4b0	0.011838123
38	0x3d07dfbb	0.03317235
39	0x3d050ca7	0.03248277
40	0xbbf47e35	-0.007461334
41	0x3bcdf8f6	0.006285782
42	0xbd677bb4	-0.056514457
43	0x3d04f1a1	0.032456998
44	0x3c8c8a12	0.01715568
45	0xbcc29a54	-0.02375523
46	0x3d7e3854	0.062065437
47	0xbc04826f	-0.008087738
48	0x3d687973	0.056756448
49	0xbd0e48a8	-0.03473726
50	0x3d0ceabf	0.03440356
51	0x3ce77875	0.02825568
52	0xbd16e838	-0.036842555
53	0x3d1f1f49	0.038848195
54	0x3d18a108	0.037262946
55	0x3c0cbc23	0.008589777
56	0x3c0000e0	0.007812709
57	0xbd076028	-0.033050686
58	0x3db96900	0.0905323
59	0xbba6ef07	-0.0050944122
60	0x3d9479e5	0.07249812
61	0x3c9636c4	0.018336661
62	0x3c164040	0.009170592
63	0x3d4e2af3	0.05033393
64	0x3d5682e4	0.05237092
65	0x3e40d264	0.18830258
66	0xbc9aac5f	-0.018881021
67	0xbd0c08cc	-0.034188077
68	0x3dc91ea3	0.098202966
69	0x3c461f9a	0.012092495
70	0xbc093735	-0.008374979
71	0xbd1b7d3a	-0.037961222
72	0x3c1d5309	0.009602317
73	0xbc00cccd	-0.007861328
74	0xbcd075bc	-0.025446765
75	0x3d700f38	0.058608264
76	0x3c87944c	0.016550206
77	0xbc3f8544	-0.011689488
78	0xbd17c877	-0.037056413
79	0xbd47fc22	-0.048824437
80	0xbd8064c5	-0.0626922
81	0xbd097d0e	-0.033566527
82	0x3c008408	0.007843979
83	0xbbee28e4	-0.007268058
84	0xbd2fc997	-0.04291686
85	0x3d1d2354	0.03836377
86	0xbd5790c4	-0.052628294
87	0xbc14f3d0	-0.009091333
88	0xbd04b22f	-0.03239649
89	0x3a85e1ed	0.0010214426
90	0x3d1dc91c	0.03852187
91	0xbbae47e7	-0.00531863
92	0x3cca83f6	0.024721127
93	0xbd4e65d0	-0.050390065
94	0x3c4a0847	0.012331075
95	0x3c170daa	0.009219566
96	0xbd5048ed	-0.050850797
97	0xbd0a7ce9	-0.03381053
98	0x3dcc1a2a	0.09965928
99	0xbcc370a8	-0.02385743
100	0xbd623ae4	-0.055231944
101	0x3cf5fe69	0.030028539
102	0xbcd6e84b	-0.026233813
103	0xbd2ab238	-0.04167387
104	0xbcc30b26	-0.023809027
105	0xbd1afdbc	-0.037839636
106	0x3d1d7cdb	0.03844915
107	0xbccfcb34	-0.02536545
108	0x3d0bdbda	0.034145214
109	0x3d302cd5	0.043011505
110	0xbd6f29c1	-0.05838943
111	0x3da8a52a	0.082346275
112	0x3d862791	0.065505154
113	0x3d7d9d45	0.061917562
114	0xbaf7eca1	-0.0018915125
115	0x3db5304f	0.08847105
116	0x3acc798d	0.001560019
117	0x3c8277ba	0.01592623
118	0x3bda7892	0.006667205
119	0x3d4f6c84	0.050640598
120	0x3d2e7616	0.042593084
121	0x3d79dafa	0.060999848
122	0x3d3096a3	0.04311241
123	0xbd878fd3	-0.06619229
124	0x3cfcba8b	0.03085067
125	0xbd03e535	-0.03220101
126	0x3d5dcadb	0.054148536
127	0x3b26757f	0.0025399623
128	0x3b86ee25	0.0041177445
129	0x3b984030	0.0046463236
130	0x3d08e6c6	0.033423208
131	0xbd5ac8fd	-0.053414334
132	0xbc95d179	-0.01828836
133	0x3b97225f	0.0046122517
134	0x3c5b45ba	0.013383323
135	0x3cfebe88	0.031096712
136	0x3d3c7717	0.04601201
137	0x3dbf2210	0.09332669
138	0x3ccaf2e5	0.024774024
139	0x3db8aeae	0.090176925
140	0x3b9a3759	0.004706305
141	0x3cb89447	0.022531642
142	0xbd0bdd12	-0.034146376
143	0x3d7b2a48	0.06131962
144	0xbc105841	-0.008810104
145	0x3dc90844	0.0981603
146	0x3ca86a7b	0.020558586
147	0xbd1dda2f	-0.038538154
148	0x3d026635	0.031835753
149	0x3d473240	0.048631907
150	0xbccc806f	-0.024963586
151	0xbd924493	-0.07141986
152	0xbd077175	-0.033067185
153	0xbd36938a	-0.044574298
154	0x3cea032b	0.028565964
155	0xbc9df1e2	-0.019280378
156	0x3d85e6ac	0.06538138
157	0x3d226ca6	0.039654396
158	0x3cb2b4dd	0.021814758
159	0x3ba95a53	0.005168238
160	0xbd3518ee	-0.044213228
161	0xbd9e472c	-0.07728419
162	0x3c91c573	0.017794346
163	0x3b2d352e	0.0026429403
164	0xbc6d5289	-0.01448501
165	0xbd79f3d1	-0.061023537
166	0x3d6beace	0.057596974
167	0xbca4c644	-0.020114072
168	0x3d462b3a	0.048381068
169	0xbcba0ff0	-0.022712678
170	0x3ca27cab	0.019834837
171	0x3d02ec97	0.03196391
172	0xbc198560	-0.009370178
173	0x3b97af21	0.0046290313
174	0x3c882050	0.01661697
175	0x3ae843d9	0.0017720415
176	0x3cbc1de5	0.022963474
177	0xbcd72261	-0.02626151
178	0x3da3186e	0.07963644
179	0xbce2e84a	-0.027698655
180	0xbcbc34b0	-0.022974342
181	0xbda858c1	-0.082200535
182	0xbd1aa65f	-0.03775632
183	0x3b601315	0.0034191061
184	0x3d05f452	0.032703705
185	0xbd51a3ab	-0.051181477
186	0x3c2539a4	0.010084543
187	0xbd0eb8dd	-0.034844268
188	0x3c22b82b	0.009931604
189	0x3d66e753	0.05637295
190	0x3da6bcf2	0.08141507
191	0xbd46748e	-0.048451
192	0xbd128eb9	-0.035780642
193	0x3da7e5fa	0.081981614
194	0x3c58daf9	0.013235801
195	0xba456cd0	-0.0007531168
196	0xbc9d774d	-0.019221926
197	0x3be8b7c4	0.0071019847
198	0x3d8e5afd	0.069509484
199	0x3d435a4f	0.047693547
200	0xbd73f890	-0.05956322
201	0x3d0eedcb	0.034894746
202	0xbc195dba	-0.009360725
203	0xbd50295b	-0.05082069
204	0x3d605714	0.054770544
205	0xbb97caab	-0.004632314
206	0xbc93bbcc	-0.018033884
207	0xbd8a8454	-0.06763521
208	0xbca7fc66	-0.020506095
209	0x3d154925	0.03644671
210	0xbd25604e	-0.040375046
211	0x3cc560ed	0.02409407
212	0x3c9be0e2	0.01902813
213	0x3cc8cdc3	0.024512177
214	0x3d16a9ea	0.036783136
215	0xbcccd073	-0.02500174
216	0xbb0116be	-0.0019697393
217	0x3d0b49ee	0.03400605
218	0x3d1b6216	0.03793534
219	0xba9745bc	-0.0011541168
220	0x3cd45c0c	0.025922798
221	0x3d9a5b22	0.075369135
222	0xbd645724	-0.055747166
223	0x3d2035ec	0.039113924
224	0x3d85ecb7	0.065392904
225	0xbd13e060	-0.036102653
226	0x3d2412ab	0.040056866
227	0x3da68e14	0.08132568
228	0x3d69154d	0.05690508
229	0xbd3c1a69	-0.045923624
230	0x3d2f65fc	0.04282187
231	0x3c4af028	0.012386359
232	0xbd3c5b8e	-0.04598575
233	0xbc456476	-0.012047878
234	0x3d693d92	0.056943484
235	0xbd38155e	-0.044942252
236	0xbd5aa6e3	-0.05338181
237	0x3c99fc38	0.018797025
238	0x3e058d68	0.13042223
239	0xbd3a7e14	-0.045530394
240	0xbb9b84af	-0.0047460417
241	0xbd950934	-0.07277146
242	0x3c259f5d	0.010108796
243	0x3c881dea	0.016615827
244	0xbd7c4d2a	-0.061597027
245	0x3c6f60df	0.014610498
246	0x3cd7d699	0.026347445
247	0x3ca0e1a0	0.019638836
248	0x3d11f861	0.035637263
249	0xbbadc7a0	-0.005303338
250	0xbc8efa91	-0.017453464
251	0x3d1d9cd1	0.03847963
252	0x3d6bdcc2	0.057583578
253	0xbd48049b	-0.048832517
254	0xbc8c1317	-0.017098946
255	0x3a7fabcc	0.0009753078

Y_net.net.2.bias f4 [256]
0	0xbd89fb46	-0.0673738
1	0x3b02a925	0.0019937244
2	0xbdaf7c75	-0.0856866
3	0xbd1a3bbc	-0.037654623
4	0x3d0ca02c	0.03433244
5	0xbd5a2b11	-0.053263728
6	0xbd8afa8e	-0.06786071
7	0xbd851e6e	-0.064999446
8	0xbd19264e	-0.037390046
9	0xbd4a9943	-0.049462568
10	0x3c61726f	0.013760193
11	0x3d508628	0.05090919
12	0x3d02ac24	0.031902447
13	0x3c119cb8	0.008887462
14	0xba8a3ca5	-0.0010546638
15	0x3cc4c403	0.024019247
16	0xbc8afc95	-0.016966144
17	0xbd6f2f92	-0.058394976
18	0xbc885ce9	-0.016645866
19	0xbd7c08b0	-0.061531723
20	0x3b8d5526	0.004313129
21	0xbcc252c2	-0.023721103
22	0xbd94abcf	-0.072593324
23	0xbcceb6a3	-0.025233572
24	0xbd7d44f5	-0.06183334
25	0x3d5b434d	0.05353098
26	0xbcdc902f	-0.02692422
27	0x3d666967	0.056252863
28	0x3d35c1d4	0.044374302
29	0xbd3596c8	-0.04433325
30	0x3cf92e2e	0.030417528
31	0xbd17790c	-0.036980674
32	0x3c3d9874	0.011571992
33	0x3c0cd941	0.008596719
34	0x3c35befb	0.011092897
35	0xbcca8820	-0.024723113
36	0xbcfcc3d0	-0.03085509
37	0x3cb234f4	0.021753766
38	0x3d0ac75d	0.033881534
39	0xbbeaeeb4	-0.007169569
40	0x3cd7eecb	0.026358983
41	0xbd8ffef8	-0.07031053
42	0xb9e8cb78	-0.00044402084
43	0x3d5ea481	0.054356102
44	0xbc868f18	-0.016425654
45	0xbd6068df	-0.054787513
46	0x3ca1b289	0.019738453
47	0x3d00edf3	0.031476926
48	0xbd0bcb73	-0.03412957
49	0xb999c616	-0.0002933002
50	0x3c71ff08	0.014770277
51	0x3e00df1d	0.12585111
52	0xbd17a46a	-0.03702203
53	0xbccbafed	-0.024864161
54	0xbc03f2bf	-0.008053481
55	0xbcc34085	-0.023834476
56	0xbc19c1af	-0.009384557
57	0x3d3d9b72	0.046290822
58	0xbc583400	-0.0131959915
59	0x3cc08dad	0.023505056
60	0xbabbc241	-0.001432486
61	0xbc858bb8	-0.016301975
62	0x3d164d97	0.03669509
63	0x3cb92d43	0.02260459
64	0xbb2c637c	-0.0026304414
65	0xbd0f1fb1	-0.034942333
66	0x3bfaef53	0.007657924
67	0x3bc9c13c	0.0061570685
68	0x3c9bcaf8	0.019017681
69	0xbaebde00	-0.0017995238
70	0xbd526b69	-0.051371966
71	0xbd8ad579	-0.06778998
72	0x3bf12518	0.0073591582
73	0xba6eb7d5	-0.00091063726
74	0xbc35e182	-0.0111011285
75	0xbd66bb87	-0.056331184
76	0x3c01b08a	0.007915625
77	0xbb117e55	-0.0022200544
78	0x3d0130ea	0.03154079
79	0x3d44c2f0	0.04803747
80	0xbc3482b9	-0.011017495
81	0x3cfa6b0c	0.030568622
82	0xbd84d6ab	-0.06486257
83	0x3cd20955	0.025639215
84	0xbda2838f	-0.07935249
85	0x3d68fe24	0.056882992
86	0x3bc39ee0	0.005969867
87	0x3ca3aea1	0.01998073
88	0xbd5fc635	-0.054632384
89	0xbc0da391	-0.008644954
90	0x3d41797c	0.047234997
91	0xbd3357ac	-0.043784782
92	0x3d3357c1	0.04378486
93	0x3d3abb58	0.04558882
94	0x3c7a7098	0.0152856335
95	0x3dd1e47d	0.10248659
96	0xbb3d5fab	-0.0028896134
97	0x3d1252e0	0.035723567
98	0x3a7fd52a	0.0009759242
99	0xbc6051e7	-0.013691402
100	0xbc790495	-0.015198846
101	0xbcf23dd5	-0.0295705
102	0x3bbee44c	0.005825555
103	0x3cc52115	0.024063626
104	0x3c88bcf6	0.016691666
105	0x3d1ed04e	0.038772874
106	0xbd5e4cfc	-0.054272637
107	0xbc5bf47a	-0.013424987
108	0x3c424d40	0.011859238
109	0x3cafffaa	0.021484215
110	0xbcf31e4a	-0.029677529
111	0xbd86f9e5	-0.06590632
112	0xbd33b4ca	-0.043873586
113	0xbc237978	-0.009977691
114	0x3d507771	0.05089516
115	0xbbf85e14	-0.0075795744
116	0x3d4f7c40	0.050655603
117	0x3cb83040	0.022483945
118	0xbd7da142	-0.061921366
119	0xbc3f82a1	-0.011688859
120	0x3cd73e51	0.026274832
121	0xbd3a39ac	-0.045465156
122	0xbd53ec78	-0.051739186
123	0xbae9571b	-0.0017802449
124	0x3d6737da	0.05644975
125	0x3c3eb59a	0.011639977
126	0xbd8663bd	-0.06561992
127	0x3aa2a680	0.001240924
128	0xbc720c67	-0.014773465
129	0x3d35ad64	0.04435481
130	0x3c97140f	0.018442182
131	0xbd712fad	-0.058883358
132	0xbd7bf564	-0.06151332
133	0x3c2e831d	0.010651377
134	0x3c64e41d	0.013970402
135	0xbca11cb9	-0.019667016
136	0xbc1c9eae	-0.009559317
137	0x3c6901f1	0.014221654
138	0x3d46f48b	0.048573058
139	0x3d0b91f4	0.03407474
140	0x3d2e8d88	0.042615443
141	0x3d37e50b	0.044896167
142	0x3caa570e	0.020793464
143	0x3d35e338	0.044406146
144	0xbd572607	-0.0525265
145	0xbcc081cf	-0.023499398
146	0xbd74ef76	-0.05979868
147	0xbd7e2c41	-0.062053923
148	0x3b3fb8f3	0.0029254525
149	0x3c004786	0.0078295525
150	0xbdbceba0	-0.092246294
151	0x3d41360b	0.04717068
152	0xbd60f15f	-0.05491769
153	0x3d214462	0.039371856
154	0xbd46affb	-0.04850767
155	0xbc94911a	-0.018135596
156	0xbd85e197	-0.065371685
157	0xbd3eab36	-0.04655
158	0xbc013270	-0.00788556
159	0xbd14a833	-0.03629322
160	0xbd84b5b3	-0.06479969
161	0xbd27b093	-0.04093988
162	0x3d11d0b2	0.035599418
163	0xbd428ca9	-0.047497425
164	0x3d358bde	0.04432284
165	0xbcb3eb09	-0.02196266
166	0xbd8c0ef6	-0.06838791
167	0x3c83481a	0.016025592
168	0xbd8104ce	-0.062997445
169	0xbd59d654	-0.053182915
170	0xbc9f186d	-0.019420827
171	0xbd3d5d04	-0.046231285
172	0xbd65a50e	-0.05606561
173	0xbcd18700	-0.025577068
174	0xbd7a086e	-0.061043195
175	0xbd90cc8c	-0.07070264
176	0xbc85a3c7	-0.016313447
177	0x3d21df5e	0.03951966
178	0x3d104284	0.035219684
179	0x3d27cbd9	0.04096589
180	0x3c86ecef	0.0164704
181	0xbd730c49	-0.059337888
182	0xbbb1dadc	-0.0054277014
183	0xbbac4cfd	-0.005258201
184	0x3c8cf205	0.017205248
185	0x3cad32da	0.021142412
186	0xbd779216	-0.060442053
187	0x3d4a60ef	0.04940885
188	0xbd79afd8	-0.060958713
189	0xbd592937	-0.05301782
190	0x3cfa616e	0.030564036
191	0xbd562e01	-0.052289966
192	0x3d6fe1d9	0.058564994
193	0x3d0149f9	0.031564686
194	0x3d2d4afd	0.042307843
195	0x3c9e7bbc	0.01934611
196	0xbd45cc61	-0.048290614
197	0x3c7598c1	0.014990033
198	0x3d0f23b2	0.03494615
199	0xbcbedd1e	-0.023298796
200	0xbdae5b96	-0.085135624
201	0x3cae9812	0.021312747
202	0xbc46233d	-0.012093362
203	0x3c45d882	0.012075545
204	0xbd8cb845	-0.06871084
205	0xbd29fb34	-0.04149933
206	0x3ca7ece5	0.020498702
207	0xbc7ca31b	-0.015419747
208	0x3d670566	0.056401633
209	0xbd56faac	-0.052485153
210	0xbd555e6a	-0.052091993
211	0xbd516e14	-0.05113037
212	0xbd82e84a	-0.06391962
213	0x3d382e37	0.04496595
214	0xbd490a61	-0.049082164
215	0x3db15c44	0.086601764
216	0xbcfa45f7	-0.03055094
217	0xbbb4702c	-0.005506536
218	0x3d1ae400	0.037815094
219	0x3d0f77f7	0.035026517
220	0x3d3e236b	0.046420496
221	0x3d5f0bea	0.05445472
222	0x3c2c4ed8	0.010516845
223	0xbca83970	-0.0205352
224	0x3ca3318c	0.019921087
225	0x3a4009f9	0.0007325705
226	0xbdc556dc	-0.09635708
227	0x3ad2f775	0.0016095476
228	0xbd8be5e0	-0.068309546
229	0x3d1b54b5	0.03792258
230	0x3d2a89f4	0.04163547
231	0xbc59d644	-0.013295714
232	0xbd745811	-0.0596543
233	0x3d43eb44	0.04783179
234	0x3d014ee6	0.031569384
235	0xbcfef599	-0.03112297
236	0x3cf4e794	0.029895581
237	0xbd8ed93c	-0.06975028
238	0xbd2634b6	-0.040577613
239	0xbd3ab287	-0.045580413
240	0xbd0a9030	-0.033828914
241	0x3cd5b727	0.02608831
242	0xbc510a7f	-0.01275885
243	0x3d2f16be	0.042746298
244	0xbd9bd500	-0.07608986
245	0xbcf4e2b8	-0.029893264
246	0xbd8bc89a	-0.06825371
247	0xbd2c6eb7	-0.042097773
248	0x3c1845e5	0.009294008
249	0xbcf91779	-0.0304067
250	0xbd8422c2	-0.06451942
251	0x3d22bb03	0.03972913
252	0x3d93bc68	0.0721367
253	0xbd547371	-0.051867906
254	0x3bf48890	0.0074625686
255	0x3d688141	0.05676389

Y_net.net.4.weight f4 [256, 256]
0	0xbd6785fc	-0.05652426
1	0x3c3509d6	0.011049708
2	0xbc210e0d	-0.00983001
3	0xbd44b09a	-0.048019983
4	0x3d0ffbde	0.03515231
5	0xbd841032	-0.064484015
6	0xbcb15027	-0.021644665
7	0x3bfe7309	0.007765178
8	0xbcc202ff	-0.02368307
9	0x3d02b9a3	0.03191532
10	0xbc00686b	-0.007837395
11	0xbca785a3	-0.020449465
12	0x3d123c51	0.035702053
13	0xbcbca915	-0.023029843
14	0xbc8dfe56	-0.01733319
15	0x3d95c426	0.07312803
16	0x3ce6d10d	0.028175855
17	0x3d7d0bd0	0.061778843
18	0x3c855eb9	0.016280519
19	0xbd0af9c3	-0.033929598
20	0xbcd4a287	-0.025956405
21	0x3cb53350	0.022119194
22	0xbcec1825	-0.028820107
23	0x3d99dedd	0.07513211
24	0xbcb7c9c5	-0.022435078
25	0x3d812a4b	0.06306895
26	0x3d505946	0.050866388
27	0xbd2f8727	-0.0428535
28	0x3b3a7b89	0.002845498
29	0xbbeb04bf	-0.0071721966
30	0xbd22e2e6	-0.03976717
31	0xbd5000ac	-0.05078189
32	0xbd3b615f	-0.045747157
33	0x3d174154	0.036927536
34	0xbd40fbf4	-0.04711528
35	0xbd2adc79	-0.041714165
36	0xbbda3490	-0.006659098
37	0x3d5266de	0.051367633
38	0x3d375385	0.044757385
39	0x3c8ac744	0.01694072
40	0x38b507cc	8.632205e-05
41	0x3d6ad3bc	0.057330832
42	0xba00bcf8	-0.0004910971
43	0x3ca4a241	0.0200969
44	0x3d35157a	0.044209935
45	0x3ca7b304	0.020471103
46	0xbd27aed8	-0.04093823
47	0xbcc26a48	-0.02373232
48	0xbc0e9515	-0.008702536
49	0xbd60855e	-0.05481469
50	0xbafe5093	-0.0019402675
51	0xbdf5e65d	-0.12006829
52	0x3cbb0717	0.02283053
53	0x3d9b0a8a	0.075703695
54	0x3c91b518	0.017786548
55	0x3d5e87a9	0.054328594
56	0xbc5b9d32	-0.0134041775
57	0xbb7e6b13	-0.0038821145
58	0xbccfc898	-0.025364205
59	0xbbb1607a	-0.005413112
60	0xbd2a316e	-0.041551046
61	0xbd4ecd52	-0.050488777
62	0x3d3f2058	0.046661705
63	0xbd2b55db	-0.041829925
64	0xbd36c205	-0.044618625
65	0x3d817e83	0.06322958
66	0x3d40c82c	0.0470659
67	0xbd13725a	-0.035997726
68	0x3d294215	0.041322786
69	0x3d76b53e	0.06023144
70	0x3d30b23c	0.043138728
71	0x3badf240	0.0053084195
72	0xbbc90314	-0.0061344
73	0xbd5f8e25	-0.05457892
74	0xbd32f3c0	-0.04368949
75	0x3d235a44	0.039881006
76	0x3cdd3273	0.027001595
77	0x3d6fbcab	0.058529537
78	0xbd1bb792	-0.038016863
79	0x3c0827e2	0.00831029
80	0x3d662a37	0.056192603
81	0xbcdbf52a	-0.026850302
82	0xbce13f96	-0.02749614
83	0xba24dfc6	-0.00062894484
84	0x3c91c16c	0.017792426
85	0x3d2e2b44	0.04252173
86	0xbbefef70	-0.0073222443
87	0xbce81d30	-0.02833423
88	0xbd0bf9da	-0.034173824
89	0x3c4861a8	0.012230314
90	0xbd41e57f	-0.047338005
91	0x3d6d3af8	0.057917565
92	0x3c93f05a	0.018058944
93	0xbc38229a	-0.011238718
94	0x3c945cc0	0.018110633
95	0x3cb9b21a	0.022667933
96	0xbc3f0288	-0.011658318
97	0x3d2ccf72	0.042190023
98	0xbd470662	-0.04859007
99	0x3cb3b68a	0.021937627
100	0xbd27a0cb	-0.04092483
101	0xbd00ba96	-0.031427942
102	0x3d62b107	0.055344608
103	0x3d653c5c	0.055965766
104	0x3d75c78d	0.06000476
105	0xbc58bd45	-0.013228719
106	0xbc922537	-0.017840011
107	0xbb2f8bd8	-0.0026786234
108	0x3d8bd19c	0.06827089
109	0x3bb541b0	0.005531512
110	0xbd15eb49	-0.03660134
111	0xbd3127aa	-0.043250717
112	0xbd33fa24	-0.043939725
113	0xbd3c5e98	-0.04598865
114	0xbd9a6030	-0.075378776
115	0x3d1b5eaa	0.037932076
116	0x3b7deb08	0.0038744826
117	0x3d0c1202	0.03419686
118	0xbd08b838	-0.03337881
119	0x3d68f5fd	0.056875218
120	0xbbc5a5e7	-0.00603174
121	0x3d38244e	0.044956498
122	0xbd220bfc	-0.03956221
123	0x3d6ee0af	0.058319744
124	0x3d022a4c	0.03177862
125	0xbd390f5c	-0.045180663
126	0xbcab10a0	-0.02088195
127	0x3cd511e8	0.026009515
128	0xbd6b7f84	-0.057494655
129	0x3b910040	0.0044250786
130	0xbcb443ef	-0.02200505
131	0x3d844ed8	0.06460351
132	0xbd37de91	-0.04488999
133	0x3c3468ba	0.011011297
134	0x3c05e86a	0.008173088
135	0x3d650972	0.05591721
136	0xbcd30500	-0.02575922
137	0x3d571269	0.05250779
138	0x3d33d29a	0.043902017
139	0xbcc724e8	-0.02430959
140	0xbd5a61d6	-0.05331596
141	0x3d179fd4	0.03701766
142	0xbc024fe6	-0.00795362
143	0xbd41c418	-0.04730615
144	0x3d48967b	0.048971634
145	0x3cfc4f6a	0.030799586
146	0xb8b65edb	-8.6961045e-05
147	0x3d042d20	0.032269597
148	0x3a51899f	0.00079932244
149	0x3d31b4c8	0.043385297
150	0xbbd7908d	-0.006578511
151	0x3cca4c26	0.024694514
152	0x3d364fa3	0.04450954
153	0x3c2c2c93	0.010508674
154	0xbcc7f013	-0.024406468
155	0x3d1b6a6c	0.03794329
156	0x3d82064d	0.06348858
157	0x3c95de8a	0.018294591
158	0x3ccb8488	0.02484347
159	0xbc60be0a	-0.013717184
160	0xbd3bd118	-0.045853704
161	0x3d33aa2a	0.043863453
162	0x3cd440e1	0.025909843
163	0xbcd64a09	-0.02615835
164	0xbd51a292	-0.05118043
165	0x3d35255c	0.04422508
166	0x3da21214	0.079136044
167	0xbc78d74f	-0.015188052
168	0x3d57ab8d	0.052653838
169	0x3d052b85	0.032512207
170	0x3c86aa7b	0.016438713
171	0xbdbf2f76	-0.09335224
172	0x3bfed2c4	0.00777659
173	0x3d30e22c	0.043184444
174	0x3d397e99	0.04528675
175	0x3c868904	0.016422756
176	0x3b922160	0.004459545
177	0xbd2eb4a4	-0.04265274
178	0x3c936271	0.017991276
179	0xbcfdba0a	-0.0309725
180	0xbd748863	-0.05970038
181	0xbcbc48d2	-0.022983942
182	0xbba940d2	-0.005165198
183	0x3d109971	0.035302583
184	0x3bb25d28	0.005443234
185	0xbd3b5481	-0.045734886
186	0xbcb3519a	-0.021889497
187	0x3da381ea	0.079837635
188	0x3d84bb43	0.0648103
189	0x3cbc210c	0.022964977
190	0x3d81c580	0.06336498
191	0x3c47ed91	0.012202636
192	0x3ccca45c	0.024980716
193	0xbcf30ef7	-0.029670222
194	0x3cd2fc76	0.025755148
195	0x3d481540	0.04884839
196	0x3c69f4ce	0.014279557
197	0x3da25e54	0.07928148
198	0xbd46b503	-0.04851247
199	0xbc71b579	-0.014752739
200	0xbcde943d	-0.027170295
201	0x3c7cad70	0.01542221
202	0x3c4c6b35	0.012476732
203	0xbd97f0c4	-0.07418969
204	0x3d5c2e89	0.053755317
205	0xbd2a2e32	-0.04154796
206	0xbcac548d	-0.02103641
207	0x3c9e80b7	0.019348485
208	0xbddc560f	-0.10758602
209	0x3cec78e0	0.028866231
210	0xbc66e4d7	-0.014092646
211	0xbd17ba48	-0.037042886
212	0x3b6ee51c	0.0036452478
213	0xbd91f6e7	-0.07127171
214	0x3d16bd9e	0.036801927
215	0x3ce46bd9	0.027883457
216	0x3d2fad6b	0.042889994
217	0xbceab5d6	-0.02865116
218	0x3c02c911	0.007982508
219	0xbbd6edeb	-0.0065591238
220	0xbc260da3	-0.010135087
221	0x3d229ae3	0.039698493
222	0x3d5e6390	0.05429417
223	0x3ca6bf5e	0.020354923
224	0x3ca771cd	0.020440007
225	0x3d2b4b7f	0.041820046
226	0x3c89059c	0.016726308
227	0xbd2a639d	-0.041598905
228	0xbd55322b	-0.052049797
229	0xbd4e96b1	-0.05043668
230	0xbc05ed51	-0.008174256
231	0xbd31389c	-0.043266878
232	0xbc65219c	-0.013985064
233	0xba5cf263	-0.00084284524
234	0x3d44313d	0.04789852
235	0x3ca2cc81	0.019872906
236	0x3d78d5c5	0.06075074
237	0xbd0e3b63	-0.034724604
238	0xbc7ad5b0	-0.015309736
239	0xbd7481cc	-0.059694096
240	0x3d582f00	0.052779198
241	0x3d3c8a2c	0.04603021
242	0xbaa775a8	-0.0012776153
243	0x395e11d7	0.00021178216
244	0x3d906935	0.07051317
245	0xbcc2f688	-0.023799196
246	0xbcc46fb4	-0.023979045
247	0x3d17d7ac	0.037070915
248	0xba2f876a	-0.00066958985
249	0xbc73419b	-0.0148471845
250	0xbca64c31	-0.020300003
251	0x3d8afb0e	0.06786166
252	0x38872d85	6.44578e-05
253	0xbd4bb56b	-0.04973356
254	0x3cbe7160	0.02324742
255	0x3d848729	0.06471092

Y_net.net.4.bias f4 [256]
0	0xbd34ca4c	-0.044138238
1	0xbc7f1906	-0.015569931
2	0xbd81969e	-0.06327556
3	0x3baf286e	0.0053453958
4	0x3d3a79b2	0.045526214
5	0x3cf27803	0.029598242
6	0xbcbd5952	-0.02311388
7	0x3d2ab271	0.04167408
8	0xbd671aa8	-0.056421906
9	0xbac906cb	-0.0015337107
10	0x3ce8babf	0.02840936
11	0x3cbcd272	0.023049567
12	0xbd630904	-0.05542852
13	0xbcf49f4f	-0.02986112
14	0xbd18f01f	-0.037338372
15	0xbd8acbfd	-0.06777189
16	0x3c92cbfe	0.017919537
17	0xbd42d773	-0.04756875
18	0x3d39902e	0.045303516
19	0x3cddda0c	0.027081512
20	0xbb8c64fa	-0.0042844983
21	0x3a45b5a8	0.00075420225
22	0xbcba37cf	-0.02273169
23	0xbae484a9	-0.0017434555
24	0x3d5dd3a9	0.054156933
25	0xbcb29507	-0.021799577
26	0x3cab2924	0.02089364
27	0x3d24886f	0.040169176
28	0xbc1b939a	-0.00949564
29	0x3c132143	0.008980098
30	0x3d072e8c	0.033003375
31	0x3d518bf3	0.051158857
32	0x3d1ef3e7	0.038806822
33	0xbd77de99	-0.06051502
34	0xbcca4fa7	-0.024696184
35	0xbd8c8afd	-0.068624474
36	0xbd1fbc1d	-0.03899776
37	0xbc34090f	-0.010988488
38	0xbcfa5006	-0.030555736
39	0x3d393e06	0.045225166
40	0x3d5c2059	0.053741787
41	0x3c38b1a9	0.011272826
42	0xbd04eafe	-0.03245067
43	0xbd124c7d	-0.035717476
44	0xbbd42c2e	-0.006474993
45	0xbc6f6054	-0.014610369
46	0xbcaa4dd3	-0.020789063
47	0xbd81d075	-0.06338588
48	0xb84bf7cb	-4.8629747e-05
49	0x3d4dd5d7	0.05025276
50	0x3d15eca9	0.03660265
51	0x3af0a976	0.001836105
52	0xbd0a3f72	-0.033751912
53	0x3d725c73	0.059170198
54	0xbd3c0103	-0.045899402
55	0xbc7a8039	-0.01528936
56	0xbd49f18e	-0.04930263
57	0x3c9f2171	0.019425126
58	0xbd4b3742	-0.049613245
59	0xbd63051c	-0.055424795
60	0xbd7f317b	-0.062303048
61	0xbd1dab10	-0.038493216
62	0x3d1b45e4	0.03790845
63	0x3d33422f	0.04376429
64	0xbcc7d7f4	-0.024394967
65	0x3c8ab58d	0.016932273
66	0xbd5f435c	-0.0545076
67	0x3cb25a45	0.02177156
68	0xbd509fb9	-0.050933573
69	0xbd39be0c	-0.04534726
70	0x3c73397e	0.01484525
71	0xbd45b078	-0.048263997
72	0x3d5c960d	0.053854037
73	0xbc7f5bc8	-0.015585847
74	0xbb9f20b6	-0.0048561944
75	0x3d3ce005	0.04611208
76	0xbc222f07	-0.0098989075
77	0x3d406fc5	0.04698159
78	0xbd7bbecd	-0.06146126
79	0xbd0fd26a	-0.035112776
80	0xbcbd9cf4	-0.02314613
81	0x3c81be5c	0.01583784
82	0x3d226d50	0.03965503
83	0xbda0baf6	-0.0784816
84	0xbd469cad	-0.04848926
85	0xbd1f0804	-0.038826004
86	0x3cc761c5	0.024338612
87	0xbd84d2b6	-0.064855024
88	0xbbc1b015	-0.005910883
89	0xbc128baa	-0.008944431
90	0x3b88615e	0.0041619977
91	0xbcdb3c60	-0.026762187
92	0x3d56eac6	0.05246999
93	0x3c260616	0.010133287
94	0xbcebfb21	-0.028806271
95	0xbd02926e	-0.031877927
96	0xbc91d868	-0.017803386
97	0x3c991294	0.018685617
98	0x3d15fcdd	0.036618102
99	0xbd84570b	-0.06461915
100	0xbd407fab	-0.046996754
101	0x3cddda3c	0.027081601
102	0xbcb40be2	-0.021978322
103	0xbd4ac8bb	-0.049507838
104	0xbccc49f4	-0.024937607
105	0x3d072e25	0.03300299
106	0xbcb404f9	-0.021975027
107	0xbc4067be	-0.011743484
108	0xbbf7b244	-0.0075590927
109	0x3d0b3d8a	0.033994235
110	0xbcc06941	-0.023487689
111	0x3d8f63ae	0.07001434
112	0x3cb8fa93	0.02258042
113	0xbd6a7ed2	-0.05724985
114	0x3bcc7fb7	0.0062408107
115	0x3d35e57d	0.04440831
116	0xbd2863e6	-0.041110896
117	0x3d6cf485	0.05785038
118	0x3d48d0e2	0.04902733
119	0x3ce5dbc8	0.028058901
120	0xbd35463e	-0.04425644
121	0xbbc62516	-0.0060469015
122	0xbd4c11fa	-0.04982183
123	0x3dcaf767	0.099104695
124	0xbcbbbe23	-0.022917813
125	0xbbd08ec9	-0.0063646776
126	0xbcf0547b	-0.029337158
127	0x3cd9208a	0.026504774
128	0x3d2c2772	0.042029805
129	0xbd781356	-0.060565315
130	0xbd05593f	-0.032555815
131	0xbd543dde	-0.051816814
132	0xbcb552ab	-0.022134146
133	0xbda2c50b	-0.07947739
134	0xbd7e57fc	-0.062095627
135	0x3bba53f0	0.0056862757
136	0xbcc06d92	-0.023489747
137	0x3cced0ac	0.025245987
138	0xbcaa9d1d	-0.02082687
139	0xbc978c51	-0.018499525
140	0xbd7c60b5	-0.061615665
141	0x3bbb3da0	0.0057141334
142	0x3d302890	0.043007433
143	0xbd9c0bbe	-0.07619427
144	0x3d49bf40	0.049254656
145	0xbd83e2ab	-0.06439718
146	0xbd139469	-0.036030207
147	0x3add7e00	0.0016898513
148	0x3d3b31a5	0.04570164
149	0x3d08cb52	0.033397026
150	0x3d49f4e6	0.04930582
151	0xbce154e6	-0.027506303
152	0x3d228db4	0.03968592
153	0x3d4c2674	0.04984136
154	0xbd08d89e	-0.033409707
155	0x3d50921b	0.050920587
156	0x3bd3737f	0.006452977
157	0xbc7e1f36	-0.015510371
158	0xbd749ac0	-0.059717894
159	0xbd192c4c	-0.03739576
160	0xbc7e4092	-0.015518324
161	0xbc054b88	-0.008135684
162	0xbd40a84d	-0.047035504
163	0xbd29708a	-0.04136709
164	0xbd800f2b	-0.06252893
165	0xbc25f58b	-0.010129343
166	0x3ccabe50	0.024748951
167	0xbcf83926	-0.030300688
168	0xbd360341	-0.044436697
169	0x3c73cd8e	0.014880551
170	0xbc5d7bf7	-0.013518325
171	0xbd4287c5	-0.04749276
172	0x3a789126	0.0009482078
173	0x3c06b016	0.008220693
174	0x3d15171f	0.036399003
175	0xbca652b3	-0.020303106
176	0x3cd6c4bc	0.026216857
177	0xbd735a38	-0.05941221
178	0xbd8fc797	-0.070204906
179	0xbd0e2d8d	-0.03471141
180	0x3981e312	0.00024773978
181	0xbd3e4448	-0.046451837
182	0x3d43dc53	0.04781754
183	0xbcf2ac42	-0.029623155
184	0x3d03a51d	0.032139886
185	0xbb31ddac	-0.0027140183
186	0xbd288472	-0.041141935
187	0xbcb165e2	-0.021655027
188	0xbda39fcf	-0.079894654
189	0x3d30d5bf	0.043172594
190	0x3ce9439b	0.02847462
191	0xbcf69b2f	-0.030103294
192	0x3ce75fed	0.028243983
193	0x3d49963a	0.049215533
194	0xbd52fd9a	-0.051511385
195	0xbce28233	-0.027649974
196	0x3d27b941	0.040948156
197	0x3d6e2e3a	0.058149554
198	0xbc8987e1	-0.016788425
199	0xbd10e268	-0.035372168
200	0xbd243860	-0.040092826
201	0xbd2f4161	-0.04278696
202	0xbc016228	-0.007896937
203	0xbd82d5ba	-0.06388421
204	0x3d4ca8db	0.04996572
205	0x3ca8572a	0.020549376
206	0xbd22f7e8	-0.039787203
207	0xbd0d44fe	-0.034489624
208	0x3cb6fee0	0.02233833
209	0xbd157243	-0.03648592
210	0xb9908889	-0.00027567547
211	0x3c27a556	0.01023229
212	0x3a2a446e	0.0006495182
213	0xbba69cf9	-0.0050846306
214	0xbd021340	-0.03175664
215	0xbb3ec8ab	-0.0029111307
216	0x3d0712b8	0.032976836
217	0xbca51b61	-0.020154657
218	0x3d05a2c9	0.032625947
219	0x3d1c4b7f	0.038157936
220	0xbd8853ef	-0.06656634
221	0xbce78d09	-0.028265493
222	0x3cdcc5a4	0.026949711
223	0xbd14fa91	-0.03637177
224	0xbd62e4d9	-0.055394027
225	0xbd0429c1	-0.032266382
226	0x3cea336c	0.028588973
227	0xbcf1b7b9	-0.029506551
228	0x3cd9146a	0.026498992
229	0x3c72b742	0.0148142
230	0xbd8df244	-0.06930974
231	0xbd55bf68	-0.052184492
232	0xbd8f486c	-0.06996235
233	0xbd88fea9	-0.066891976
234	0xbd191184	-0.03737022
235	0x3cdacbdc	0.026708536
236	0xbc89ebb7	-0.01683603
237	0x3d1465ef	0.036230024
238	0xbd1da736	-0.038489543
239	0xbd322a73	-0.043497514
240	0x3c6be66d	0.0143981995
241	0xbc4352ba	-0.011921579
242	0x3d442c29	0.047893677
243	0x3d26a305	0.04068281
244	0xbd14e92c	-0.036355183
245	0xbd938eda	-0.07204981
246	0xbd4953d8	-0.049152225
247	0xbd9c1307	-0.07620817
248	0xbd072252	-0.032991715
249	0xbbfc283c	-0.007695226
250	0x3d4ab74c	0.04949121
251	0xbd2b39e3	-0.041803252
252	0x3b963c30	0.0045848116
253	0x3ca2f0d8	0.019890234
254	0xbd3317ad	-0.04372375
255	0xbccfcf24	-0.025367327

Y_net.net.6.weight f4 [256, 256]
0	0xbb1cf897	-0.0023951882
1	0x3cc4ce4e	0.024024155
2	0x3c8c9e64	0.01716537
3	0xbd1cac6d	-0.038250376
4	0x3c163171	0.009167061
5	0xbd5082fa	-0.05090616
6	0xbd0c8052	-0.034302063
7	0xbc41a94e	-0.011820151
8	0x3cb10422	0.021608416
9	0xbcdff08a	-0.027336378
10	0x3c593630	0.013257548
11	0xbb710fc0	-0.003678307
12	0x3c5ade75	0.013358702
13	0xbc5c8af8	-0.013460867
14	0x3d0d039d	0.034427274
15	0xbc2ab754	-0.010419685
16	0x3d58f0ee	0.052964143
17	0x3d519d79	0.05117557
18	0xbd1559ed	-0.036462713
19	0x3d6bb3da	0.057544567
20	0x3d440aaa	0.047861733
21	0xbd135535	-0.03596993
22	0xbd37e3fe	-0.044895165
23	0xbd0fb61e	-0.03508579
24	0xbce697b7	-0.028148515
25	0x3d46992b	0.048485916
26	0xbd36f41c	-0.044666395
27	0xbd43a234	-0.04776211
28	0xbd83fb16	-0.06444375
29	0x3d5d831c	0.054080114
30	0xbd2815fb	-0.041036587
31	0xbd3f30e1	-0.046677474
32	0xbc2a50b6	-0.01039522
33	0xbc1a2f99	-0.009410762
34	0xbce5234b	-0.02797093
35	0x3c8c4387	0.017122043
36	0x3ceb5a60	0.028729618
37	0xbc91e33d	-0.017808551
38	0xbd56b332	-0.052416988
39	0x3d23db87	0.04000428
40	0xbd3fd04d	-0.04682951
41	0xbd7e0a7d	-0.06202172
42	0x3c664bcf	0.01405616
43	0xbd8ab038	-0.06771892
44	0x3d48a905	0.048989315
45	0x3cf1ab13	0.02950052
46	0xbce20207	-0.027588857
47	0xbd5068ae	-0.05088108
48	0x3d5ee435	0.054416854
49	0xbd1f5b50	-0.03890544
50	0xbd34e18f	-0.044160422
51	0xbc2a0af9	-0.010378593
52	0x3d47a692	0.04874284
53	0xbd181999	-0.037133787
54	0x3c575a92	0.013144152
55	0xbcd76409	-0.026292818
56	0x3c7eaea8	0.015544571
57	0xbca9157e	-0.020640131
58	0x3c845520	0.016153872
59	0x3d756016	0.059906088
60	0xbcec477a	-0.028842676
61	0xbd0f49fa	-0.03498266
62	0xbd62e508	-0.055394202
63	0x3d47d270	0.048784673
64	0x3d2174be	0.039417975
65	0x3d545026	0.051834248
66	0x3d02e518	0.031956762
67	0x3b41a55a	0.002954802
68	0x3d001d73	0.031278085
69	0xbcfec6e0	-0.03110069
70	0x3d3289ad	0.04358833
71	0x3ca3cddc	0.019995622
72	0xbd846471	-0.0646447
73	0xbd4375c4	-0.047719732
74	0xbd531c81	-0.051540855
75	0xbd21d4d8	-0.039509624
76	0x3d34e5ce	0.04416447
77	0xbaa0bd15	-0.0012263382
78	0xbd18653a	-0.037205912
79	0xbd8d4947	-0.06898742
80	0xbd4367e1	-0.04770649
81	0x3d1d4d49	0.038403783
82	0xbd28706f	-0.04112285
83	0xbd081718	-0.03322515
84	0xbc82bd11	-0.015959295
85	0xbc82b6e8	-0.015956357
86	0x3b832885	0.004002633
87	0xbc9bb7c3	-0.019008523
88	0xbd069fb3	-0.032867145
89	0x3cf4ea17	0.029896779
90	0x3d64e150	0.055878937
91	0x3d4c24aa	0.049839653
92	0x3c4e11a4	0.012577448
93	0xbcd87604	-0.026423462
94	0x3c8e848e	0.017397191
95	0x3abf6a5b	0.001460384
96	0xbbedb51b	-0.0072542555
97	0xbc7157ec	-0.014730435
98	0x3d00a602	0.031408317
99	0x3cd3025b	0.02575796
100	0xbd29b7f1	-0.041435186
101	0x3c3b4d2c	0.011431973
102	0xbc0ad05a	-0.008472526
103	0xbd367456	-0.04454454
104	0xbcdd9b04	-0.027051456
105	0x3cd6cbde	0.026220258
106	0x3d3268f2	0.043557115
107	0xbb9a4ad2	-0.0047086263
108	0x3cf31977	0.029675229
109	0x3d4d4554	0.050114945
110	0xbd1cecec	-0.038311884
111	0x3c8ca6d7	0.0171694
112	0xbd758562	-0.059941657
113	0xbcc17e28	-0.023619726
114	0xbc9161f0	-0.017746896
115	0xbc961fb4	-0.018325664
116	0xbd2a4cba	-0.04157708
117	0xbaa216c5	-0.0012366405
118	0xbd2278b3	-0.03966589
119	0x3bc37f8f	0.005966134
120	0xbd311374	-0.043231443
121	0xbd2d9ccc	-0.04238586
122	0xbcf197c4	-0.029491313
123	0xbc9c8780	-0.01910758
124	0x3d70d893	0.05880029
125	0xbcabda44	-0.0209781
126	0x3c86db8a	0.016462106
127	0x3d39dd4d	0.045377064
128	0x3c6b7868	0.014371969
129	0xbbe69b37	-0.007037546
130	0x3d53efdc	0.05174242
131	0x3ceb9fc1	0.0287627
132	0x3d409886	0.047020458
133	0x3c64c81d	0.013963726
134	0x3d5289ad	0.05140083
135	0x3d71f2ec	0.05906956
136	0xbc1c721f	-0.009548693
137	0xbcfe8ab8	-0.031072006
138	0xbd4fc64d	-0.050726224
139	0x3cd097a9	0.025462942
140	0xbc8c630c	-0.017137073
141	0x3d14270a	0.036170043
142	0xbbec9efd	-0.0072211013
143	0x3d15e64e	0.03659659
144	0x3d39c189	0.045350585
145	0xbcac78f3	-0.021053767
146	0xbd2590bb	-0.04042123
147	0xbd23a426	-0.039951466
148	0x3cd99ca6	0.026563954
149	0x3d241c15	0.040065844
150	0xbd90a9d8	-0.07063645
151	0xbd276e7e	-0.040876858
152	0x3c8512f0	0.016244382
153	0xbd4009c2	-0.046884306
154	0x3d3bfbdb	0.045894485
155	0xbd116f08	-0.03550628
156	0x3cc50d25	0.02405412
157	0x3d0c362a	0.034231342
158	0x3a840830	0.0010073241
159	0x3d368a04	0.044565216
160	0x3c252ca8	0.010081448
161	0xbc840966	-0.016117763
162	0xbd804638	-0.06263393
163	0xbbe69925	-0.007037299
164	0xbb5ea52a	-0.0033972957
165	0xbd474300	-0.04864788
166	0x3cac5ed0	0.021041304
167	0xbc0ac02b	-0.008468668
168	0xbc806dbf	-0.015677331
169	0xbc2481f8	-0.010040753
170	0xbc8102da	-0.01574843
171	0x3c684f3a	0.014179045
172	0x3c9f6caf	0.019461004
173	0xbd72bf22	-0.05926431
174	0xbb67c6c0	-0.0035366267
175	0x3d57e7fe	0.05271148
176	0xbbe795c0	-0.007067412
177	0x3d24cfb0	0.04023713
178	0x3c3e86af	0.011628791
179	0x3c21a68a	0.009866366
180	0xbaedbdec	-0.0018138266
181	0x3bc9b1b0	0.006155215
182	0xbd17bc39	-0.037044737
183	0xbd2f9eaf	-0.04287594
184	0xbd410427	-0.0471231
185	0x3b0af6f9	0.0021204336
186	0x3cfa158c	0.030527852
187	0x3ccfd138	0.025368318
188	0x3cfac61b	0.030612042
189	0x3c88b50f	0.016687898
190	0xbcb8a49a	-0.022539426
191	0xbd137af3	-0.036005925
192	0xbabadd02	-0.0014256539
193	0xbc3fc548	-0.01170475
194	0xbce00748	-0.027347222
195	0xbd8b6753	-0.06806817
196	0xbb608685	-0.0034259867
197	0xbd6b1cb9	-0.05740044
198	0x3cd803c2	0.02636898
199	0x3b2b7520	0.0026162341
200	0xbd458398	-0.0482212
201	0x3cbf0a05	0.023320207
202	0xbd87e078	-0.06634611
203	0x3ce097b9	0.027416097
204	0xbc290298	-0.01031556
205	0xbcbf2f34	-0.023337938
206	0xbd2fc8be	-0.042916052
207	0x3d23f4f4	0.040028527
208	0x3c949d62	0.018141452
209	0xbd86aec3	-0.06576302
210	0x3cfd1bd5	0.03089706
211	0xbc9b2808	-0.018939987
212	0x3c469860	0.01212129
213	0x3c8f7dd7	0.01751606
214	0x3c025e02	0.0079569835
215	0xbd37e6c0	-0.044897795
216	0xbd909a4d	-0.070606805
217	0x3cdbdd10	0.02683881
218	0x3c673645	0.01411206
219	0xbb90da63	-0.004420565
220	0x3d711445	0.05885722
221	0xbd54cb5a	-0.051951744
222	0x3c90de3a	0.01768409
223	0xbd45a5db	-0.048253875
224	0x3c805095	0.015663425
225	0xbd096d53	-0.033551525
226	0xbd28a3a9	-0.041171703
227	0xbc643263	-0.013928029
228	0xbd0cdd78	-0.034390897
229	0x3ccaeaa1	0.024770083
230	0xbd311901	-0.043236736
231	0xbd85986e	-0.06523214
232	0xbd37b8f2	-0.044854112
233	0xbcf8cba4	-0.03037054
234	0x3d07f1d8	0.033189625
235	0x3cb10276	0.021607619
236	0x3ccead4b	0.025229117
237	0xbd1d23f4	-0.038364366
238	0xbafd757d	-0.0019337382
239	0xbd46c795	-0.04853018
240	0x3ce68d40	0.028143525
241	0xbd53a9aa	-0.051675476
242	0xbd41fe30	-0.047361553
243	0xbd57d4fe	-0.05269336
244	0xbcc9ea41	-0.024647834
245	0xbd51e30b	-0.051241916
246	0x3d45ca9e	0.048288934
247	0xbd54cdac	-0.051953956
248	0xbd4d7e9d	-0.050169576
249	0xbd3dda41	-0.04635072
250	0xbce35bbb	-0.027753701
251	0x3cacf39a	0.021112252
252	0xbac97440	-0.0015369728
253	0x3d0ca1d0	0.034334004
254	0xbceaf5f2	-0.028681729
255	0xbca04f46	-0.01956905
