models_saved/almgrem_LSTM_ReLU_best.pth (torch, 344421 bytes, 13 tensors)

Y_net.lstm_layers.0.i2h.weight f4 [256, 4]
0.8031104 -0.07952536 0.03639036 -0.21231224 1.3463088 0.011817012 0.20888974 -0.035343762
0.34633988 -0.39461523 0.15541773 0.5212493 0.53000504 0.11009516 0.5162371 -0.2704237
-0.278023 -0.60753065 -0.37361747 0.22769226 0.6178676 0.18828326 -0.20413382 -0.33201796
0.5906816 -0.27028638 -0.59245145 0.034635194 0.41487512 0.5273668 -0.08352502 -0.1891237
1.0000759 -0.21075563 -0.4568739 0.04408527 0.1826821 -0.027339289 -0.22343391 0.07098492
1.4860877 -0.05591546 0.07274502 0.03649475 0.18852419 -0.23521999 0.42609546 -0.13307485
-0.506353 0.5842686 -0.26113918 -0.37764722 0.119320415 0.41561863 -0.35339436 -0.059293497
0.45186698 -0.17601345 -0.3004483 0.46734315 0.16866817 -0.14861736 0.25150767 0.4781674
0.020948706 -0.061262123 0.12338728 -0.096571095 0.22687417 0.33468124 -0.5047081 -0.21113367
0.68905485 0.33836624 0.19704373 -0.10355574 -0.2799646 -0.44207335 -0.080456324 0.665087
1.3362391 0.13946208 0.55050427 -0.17272907 0.81510127 -0.28793868 0.22307146 -0.04317763
0.44252956 -0.20579523 0.028746186 0.19542311 0.60263646 0.55022174 0.2821956 -0.78215784
0.27961883 0.16911797 0.053851437 -0.42766026 0.33808008 0.10367227 0.5816205 -0.15727594
0.06974354 -0.077503845 0.39097586 0.09624582 -1.0361261 0.37785342 0.039379206 -0.6303104
-0.16289835 0.2654506 -0.31179458 -0.1212041 0.16900311 -0.4118216 0.057703108 0.2580425
-0.06920365 -1.0587243 -0.57588 0.97005445 0.40472314 0.087649256 0.056521196 -0.6060156
0.71918815 0.0020720344 0.10021428 0.08079808 0.5417206 0.01992239 0.8697898 0.004708837
0.12684515 -0.07071636 0.33716786 0.16538101 -0.15201297 0.13074866 0.16114835 0.18450509
0.9872167 0.30653659 -0.27935803 -0.03958053 0.58847135 0.36269438 -0.29667303 -0.2424177
-0.18880264 -0.10331961 1.1438321 -0.057128496 -0.66007787 0.103829004 0.10101035 0.08152766
0.607418 0.26138908 -0.42067128 -0.4193373 -0.22607054 0.04082038 0.7644538 -0.11110145
0.04757524 0.12878378 0.9464268 0.03896483 1.7612189 -0.18128508 -0.23358485 0.05748257
-0.10348573 -0.9142604 0.051185198 0.9400039 -0.5576275 -0.20223585 -0.17434688 0.04163703
0.783414 -0.1681131 0.36333048 -0.027357593 0.072215006 -0.47888607 0.11897353 0.7927595
-0.33017057 -0.3834198 -0.19367981 0.3237081 -0.35751075 -0.64921343 -0.6839882 0.3407494
-0.33608443 -0.6132882 0.41996756 0.19575945 -0.12584208 0.4614888 0.20848665 -0.04032887
-0.31975558 -0.30873984 -0.06631741 0.18385679 -0.33161017 0.8460816 0.39523974 -0.67175114
-0.45734468 0.740771 0.46730742 -0.8125316 -0.44366294 -0.7566924 -0.35427508 0.909678
-0.8707024 0.08960864 -0.63810223 0.12222332 -0.18313807 0.5543748 0.18302014 -0.63083494
0.407995 -0.53188103 -0.2469035 0.6465294 1.3176016 -0.07657275 0.1760564 -0.008469375
0.7240496 0.17983627 -0.07517434 0.25859037 0.07620289 -0.48066437 0.07643109 0.19171059
-1.0570743 0.09042521 0.61844414 0.12987098 0.16170673 0.16025694 -0.902467 0.045665003
00000000: a598 4d3f 31de a2bd 0f0e 153d 6168 59be
00000010: d953 ac3f 249c 413c 31e7 553e 9fc4 10bd
00000020: 7653 b13e 020b cabe d325 1f3e 9870 053f
00000030: 69ae 073f 9279 e13d 1d28 043f fa74 8abe
00000040: 0859 8ebe 2187 1bbf ca4a bfbe 2928 693e
00000050: 922c 1e3f 54cd 403e 7508 51be 42fe a9be
00000060: e936 173f fa62 8abe e6aa 17bf a2dd 0d3d
00000070: 836a d43e 8301 073f 2a0f abbd a5a9 41be
00000080: 7d02 803f 53d0 57be 60eb e9be c292 343d
00000090: 0411 3b3e a5f6 dfbc dccb 64be 8b60 913d
000000a0: 1f38 be3f 9c07 65bd 57fb 943d 857b 153d
000000b0: 7c0c 413e 82dd 70be 2f29 da3e c644 08be
000000c0: 5aa0 01bf a192 153f 09b4 85be fa5a c1be
000000d0: 435e f43d f7cb d43e 1bf0 b4be bddd 72bd
000000e0: 1c5b e73e df3c 34be 5cd4 99be 9a47 ef3e
000000f0: 59b7 2c3e 262f 18be 9dc5 803e 5cd2 f43e
00000100: 9f9c ab3c feed 7abd 78b2 fc3d 11c7 c5bd
00000110: b451 683e 575b ab3e 8d34 01bf 6d33 58be
00000120: e665 303f 573e ad3e d5c5 493e 0815 d4bd
00000130: 8557 8fbe 7057 e2be 49c6 a4bd 2443 2a3f
00000140: e209 ab3f 26cf 0e3e d9ed 0c3f e4df 30be
00000150: 7aaa 503f b36c 93be d86c 643e 07db 30bd
00000160: 3c93 e23e fcbb 52be 1f7d eb3c ff1c 483e
00000170: 6246 1a3f 55db 0c3f f17b 903e 7f3b 48bf
00000180: 332a 8f3e 432d 2d3e 5393 5c3d 49f6 dabe
00000190: d518 ad3e 2152 d43d 15e5 143f f20c 21be
000001a0: b3d5 8e3d 56ba 9ebd fd2d c83e 871c c53d
000001b0: c89f 84bf 0176 c13e 174c 213d 065c 21bf
000001c0: d3ce 26be 24e9 873e 8aa3 9fbe db39 f8bd
000001d0: 270f 2d3e 48da d2be 185a 6c3d 261e 843e
000001e0: a5ba 8dbd 4784 87bf df6c 13bf 7d55 783f
000001f0: df37 cf3e 7481 b33d c582 673d d723 1bbf
00000200: b71c 383f f8ca 073b 253d cd3d 7779 a53d
00000210: 34ae 0a3f 4834 a33c 8baa 5e3f 964c 9a3b
00000220: b2e3 013e bdd3 90bd 44a1 ac3e a459 293e
00000230: 4aa9 1bbe fae2 053e 1304 253e e7ee 3c3e
00000240: 3cba 7c3f 5df2 9c3e 0408 8fbe 321f 22bd
00000250: 0fa6 163f 14b3 b93e 87e5 97be 583c 78be
00000260: 7b55 41be 3b99 d3bd 1769 923f 92ff 69bd
00000270: ddfa 28bf 4da4 d43d 84de ce3d f9f7 a63d
00000280: bf7f 1b3f cad4 853e 3a62 d7be 61b3 d6be
00000290: 097f 67be 4533 273d 3fb3 433f 2889 e3bd
000002a0: 41de 423d e5df 033e 0749 723f 9699 1f3d
000002b0: 9f6f e13f cca2 39be de30 6fbe d872 6b3d
000002c0: 54f0 d3bd f80c 6abf 92a7 513d 18a4 703f
000002d0: adc0 0ebf ea16 4fbe fd87 32be 978b 2a3d
000002e0: d28d 483f d725 2cbe 7406 ba3e 081d e0bc
000002f0: 76e5 933d 8e30 f5be 65a8 f33d 49f2 4a3f
00000300: 1e0c a9be 9a4f c4be 0054 46be 11bd a53e
00000310: a60b b7be da32 26bf da19 2fbf b576 ae3e
00000320: 4213 acbe 7500 1dbf fd05 d73e 2a75 483e
00000330: bfdc 00be 4348 ec3e 867d 553e e32f 25bd
00000340: 01b7 a3be 2613 9ebe 6cd1 87bd f444 3c3e
00000350: cfc8 a9be ce98 583f dd5c ca3e e2f7 2bbf
00000360: 1529 eabe 2ba3 3d3f eb42 ef3e 1202 50bf
00000370: ca27 e3be 98b6 41bf 8b63 b5be a8e0 683f
00000380: 5ae6 5ebf bc84 b73d ab5a 23bf 3850 fa3d
00000390: 8c88 3bbe 82eb 0d3f a269 3b3e 667e 21bf
000003a0: b8e4 d03e 5b29 08bf 45d4 7cbe f382 253f
000003b0: 2ba7 a83f 2dd2 9cbd 2148 343e 22c3 0abc
000003c0: 515b 393f 0027 383e 01f5 99bd f565 843e
000003d0: 4310 9c3d a419 f6be e787 9c3d c84f 443e
000003e0: 364e 87bf da30 b93d 5b52 1e3f e6fc 043e
000003f0: 7396 253e 651a 243e 1408 67bf 3a0b 3b3d

Y_net.lstm_layers.0.i2h.bias f4 [256]
0.10211117 -0.2935514 -0.58903927 -0.37301475 0.089869566 0.3544719 0.17546585 0.13258047
-0.26886198 0.52604765 1.3702329 -0.09601131 0.06317508 -0.0010830583 0.33717808 -0.26260483
-0.14784893 -0.18146037 -0.35475698 -0.13006136 0.19126736 -0.22052398 -0.24371119 0.23130983
-0.12918966 -0.1488531 0.41316748 -0.31311375 -0.0202714 -0.50300354 -0.35036352 0.15057944
0.118756466 0.28586188 0.26636174 -0.251001 0.06684379 0.3571672 0.22128814 0.17907925
-0.6672088 0.7508781 0.47535545 1.1553049 -0.6655238 0.3017921 -0.18670122 -0.29940727
-0.2551357 -0.19854388 0.20784609 0.24742 0.16894357 -0.3303796 -0.66703767 -0.35152
0.25520873 -0.354016 0.95037603 0.18138498 0.31114292 0.051064566 -0.32788795 0.29473343
-0.29527742 -0.13346356 0.4659773 -0.15028071 -0.42053485 -0.16439605 -0.32416427 -0.33957398
0.21797413 -0.36962473 0.16479367 -0.17231119 0.0015150905 -0.114017904 -0.2707038 0.37674856
-0.46872985 0.45005745 -0.36793566 -0.40245742 0.17016542 -0.48858947 -0.39571482 0.33518046
-0.2058444 -0.14215362 0.46376073 -0.028555393 -0.30513573 0.016765058 0.25314885 0.051957786
0.14678895 0.32299525 0.39794308 -0.37946063 0.30803376 -0.3738516 -0.46203566 -0.029898822
0.33668315 0.12826902 -0.35057414 0.42052424 0.10001886 0.33979833 -0.41076177 0.08265185
0.4976406 -0.37874913 -0.4218676 -0.44503707 -0.045061707 -0.061387956 0.41017318 0.017358482
0.021698833 0.2976055 0.13030809 -0.31045353 -0.4286074 -0.072945 -0.35811448 -0.25270367
-0.36981902 0.094446 -0.43730435 -0.29124978 -0.10389433 -0.4083184 0.17881733 0.09829625
0.16186243 -0.8914687 -0.43683657 -0.5526317 0.17094326 -0.51057273 -0.677587 -0.36824048
-0.5907874 0.41760385 0.06147928 -0.05811182 0.6206553 -0.73216724 -0.49257684 -0.5872576
-0.38608897 -0.197771 0.80971426 0.031744454 -0.71712106 -0.34100485 -0.35419676 -0.12018374
-0.39345756 -0.15408649 0.69689375 -0.72582364 0.37829944 -0.01665414 0.22669627 0.83174044
0.25017264 0.51616126 -0.06591611 -0.29997003 0.42400163 -0.24977542 -0.5277827 0.022750013
-0.14943281 -0.5367336 0.37401664 0.78791416 -0.30330172 -0.04371865 -0.30013835 -0.100072384
-0.007997024 -0.22989763 0.40848014 -0.29536253 0.07113779 0.7180231 -0.12956181 -0.17592344
-0.067153074 0.6411096 -0.47337174 0.34384558 0.29014483 0.40591434 0.68110377 0.28477126
0.23261255 -0.23826247 0.8984102 -0.9835134 0.5429724 -0.04961341 0.2789895 -0.24782462
0.047009744 -0.12476548 -0.5378217 -0.13079457 0.27866334 0.6281774 -0.065706976 -0.28590852
-0.13834399 -0.55826056 0.6897996 0.14377722 -0.35358354 -0.11445636 -0.045137275 0.102066845
-0.059862226 -0.1220024 0.11627046 -0.09388411 -0.4927539 -0.52403367 -0.43194273 0.6225849
0.015914578 0.7382936 -0.44264072 0.9203485 0.24666055 0.14148398 -0.3323678 0.21390155
0.58226144 -0.60718626 -0.46384174 0.28033662 0.3447451 -0.7939824 0.19779304 0.4252858
-0.024588674 -0.50392795 0.7508147 1.1734542 0.35699353 0.71015245 -0.36140576 0.30193108
00000000: a91f d13d 5e4c 96be 47cb 16bf cafb bebe
00000010: 890d b83d 577d b53e 52ad 333e 2dc3 073e
00000020: 47a8 89be 0fab 063f cb63 af3f 94a1 c4bd
00000030: f061 813d 68f5 8dba 9ba2 ac3e 2474 86be
00000040: b665 17be bfd0 39be b5a2 b5be ce2e 05be
00000050: 97db 433e 0ad1 61be 6d8f 79be 7cdc 6c3e
00000060: 4b4a 04be f26c 18be b08a d33e 7250 a0be
00000070: 3510 a6bc d7c4 00bf d962 b3be 7f31 1a3e
00000080: 9736 f33d 7d5c 923e 9160 883e 3483 80be
00000090: 66e5 883d 9fde b63e 5c99 623e 8d60 373e
000000a0: 32ce 2abf 8c39 403f ca61 f33e 08e1 933f
000000b0: c55f 2abf 7e84 9a3e 9b2e 3fbe e94b 99be
000000c0: 25a1 82be 164f 4bbe 9bd5 543e ab5b 7d3e
000000d0: 8bff 2c3e 8427 a9be fbc2 2abf 6efa b3be
000000e0: b8aa 823e 9641 b5be d84b 733f fcbc 393e
000000f0: 204e 9f3e 1429 513d eee0 a7be 4de7 963e
00000100: 9a2e 97be acaa 08be 9494 ee3e 30e3 19be
00000110: 5850 d7be 7057 28be dcf8 a5be a4dc adbe
00000120: 9c34 5f3e 743f bdbe acbf 283e 5872 30be
00000130: 0096 c63a 3882 e9bd b099 8abe 30e5 c03e
00000140: 5cfd efbe ee6d e63e 1062 bcbe e60e cebe
00000150: d83f 2e3e 6628 fabe 229b cabe c69c ab3e
00000160: e0c8 52be b890 11be 0c72 ed3e 00ed e9bc
00000170: c03a 9cbe e056 893c ba9c 813e b0d1 543d
00000180: d84f 163e a25f a53e 32bf cb3e aa48 c2be
00000190: 9ab6 9d3e 7a69 bfbe f08f ecbe 60ee f4bc
000001a0: bc61 ac3e f458 033e 747e b3be f44e d73e
000001b0: b0d6 cc3d 0cfa ad3e 5e4f d2be 6045 a93d
000001c0: c0ca fe3e 68eb c1be 08ff d7be e6db e3be
000001d0: a092 38bd f071 7bbd 3802 d23e 6033 8e3c
000001e0: c0c1 b13c c05f 983e 7c6f 053e c4f3 9ebe
000001f0: 6e72 dbbe 3064 95bd c85a b7be 6062 81be
00000200: eb58 bdbe e86c c13d 5be6 dfbe b11e 95be
00000210: 8dc6 d4bd 1c0f d1be e41b 373e 8b4f c93d
00000220: 44bf 253e 4b37 64bf 0ba9 dfbe 4579 0dbf
00000230: c00b 2f3e e5b4 02bf 5776 2dbf 048a bcbe
00000240: d83d 17bf 2cd0 d53e b3d1 7b3d a906 6ebd
00000250: 44e3 1e3f 506f 3bbf 0833 fcbe 8456 16bf
00000260: 74ad c5be 7b84 4abe 6f49 4f3f 7906 023d
00000270: 3f95 37bf 3098 aebe 4759 b5be e522 f6bd
00000280: 4573 c9be d9c8 1dbe a167 323f 94cf 39bf
00000290: 77b0 c13e 436e 88bc 1123 683e f1ec 543f
000002a0: a116 803e 2523 043f 07ff 86bd ac95 99be
000002b0: be16 d93e 21c5 7fbe c41c 07bf 3c5e ba3c
000002c0: ea04 19be 6067 09bf 1c7f bf3e beb4 493f
000002d0: 5d4a 9bbe 5412 33bd bcab 99be c0f2 ccbd
000002e0: f305 03bc 496a 6bbe 4f24 d13e c239 97be
000002f0: b1b0 913d 5dd0 373f daab 04be 4625 34be
00000300: 8d87 89bd c21f 243f c85d f2be 870c b03e
00000310: dd8d 943e 01d4 cf3e d15c 2e3f 8acd 913e
00000320: fc31 6e3e 14fb 73be 36fe 653f 89c7 7bbf
00000330: 3d00 0b3f 6e37 4bbd b6d7 8e3e bdc5 7dbe
00000340: 4a8d 403d 0b85 ffbd afae 09bf 03ef 05be
00000350: f6ac 8e3e 3cd0 203f 6191 86bd 9a62 92be
00000360: 0caa 0dbe 2aea 0ebf b596 303f 563a 133e
00000370: e708 b5be 1968 eabd dde1 38bd 6c08 d13d
00000380: 1832 75bd 65dc f9bd 351f ee3d 5046 c0bd
00000390: 3d4a fcbe 1227 06bf 9927 ddbe b961 1f3f
000003a0: 4a5f 823c cf00 3d3f cea1 e2be f69b 6b3f
000003b0: 9594 7c3e 2de1 103e 1d2c aabe 0209 5b3e
000003c0: 160f 153f 8f70 1bbf aa7c edbe 4888 8f3e
000003d0: 6e82 b03e 6e42 4bbf 428a 4a3e 0fbf d93e
000003e0: 306e c9bc 6c01 01bf 6435 403f bf33 963f
000003f0: dbc7 b63e 8dcc 353f 2d0a b9be b696 9a3e

Y_net.lstm_layers.0.h2h.weight f4 [256, 64]
-0.019572109 -0.08831504 -0.03470947 -0.011648029 0.10747543 -0.113407776 -0.083109245 -0.010721698
-0.08228898 0.00029028952 0.048691183 0.07160133 -0.09187725 -0.051080287 0.074373454 -0.04842496
-0.04216151 -0.077185586 -0.012033671 -0.07092698 0.0329946 0.073049515 -0.07762444 -0.048126176
0.06575222 0.07034388 -0.10361971 0.123544246 0.0050682873 -0.027239978 -0.09171459 0.10967755
-0.09022379 -0.077352524 -0.047207206 0.06683864 -0.03534986 0.075336486 -0.110776156 -0.074899375
-0.092280895 0.030258581 0.07943477 0.00014275312 0.11729461 0.07401571 0.005452007 0.0023632646
-0.06471188 0.08907589 -0.06920394 0.01265806 -0.116797805 -0.09645331 0.07321708 -0.052409604
0.07031061 0.011356607 -0.024785236 -0.0421582 -0.077635095 -0.079939246 0.06263226 -0.05714175
0.02290921 -0.068246394 -0.0720665 -0.040681586 -0.1105105 -0.04976882 0.067668155 0.038654253
0.06408349 -0.122540504 0.08566074 -0.06532487 0.017430589 0.10980651 0.044999525 0.045315742
-0.05686389 0.09227428 0.0012986064 0.07420644 0.05408357 0.047763616 -0.10370517 -0.058950737
0.008797213 0.050019607 -0.11309351 -0.059194 0.10510388 -0.013086602 -0.07153545 -0.10056794
0.045112133 0.07075952 -0.10976204 -0.11005998 -0.021816418 -0.09093234 -0.10259688 -0.120720446
-0.08604655 -0.052624196 -0.12189959 0.029890776 -0.040273473 -0.11755225 -0.06507829 0.11573605
0.08568327 0.047152564 0.03504005 0.07510118 0.047611356 -0.04172775 0.051643357 0.005084038
0.0029041767 0.036253095 0.09641597 0.0986253 -0.0019444227 -0.0009740293 -0.023284093 -0.08107424
0.029712737 0.013275057 -0.040418595 -0.028852299 0.049747378 -0.0070228428 -0.06277244 0.03983338
0.04253854 -0.1162308 0.043525025 0.115504295 0.032516494 0.02442795 0.08730677 -0.049441323
-0.10746734 0.087860554 0.06251271 0.013317347 0.063580096 -0.010363117 -0.036066905 0.11926979
-0.103590444 0.060428366 0.0423889 0.1052379 -0.10959458 0.10406214 -0.06359379 0.03577009
-0.029151693 -0.012294337 -0.06275287 0.058036268 -0.024006903 0.05764167 0.03199604 0.09448129
0.029478014 0.11129342 0.02647385 -0.035247788 -0.0063990504 -0.010614097 -0.014284179 0.034893394
-0.07966848 -0.12472363 0.021360531 0.026553124 -0.10964036 0.11384085 0.044721544 -0.0937178
0.058937877 -0.08221169 -0.046649873 -0.053567335 0.017360002 -0.061830357 -0.061967656 -0.010716617
0.06275287 -0.05868183 0.014273122 0.12070826 -0.049071595 -0.11068936 -0.06721409 0.023939908
0.019359156 0.059903905 0.119175956 -0.020562783 0.09208204 0.09547511 -0.051025093 0.0030151904
0.11581655 -0.085732356 0.0857586 0.011175394 -0.06199181 -0.01774174 -0.11084445 -0.07654463
-0.11957905 -0.06310524 0.061636582 0.109135434 0.027905509 0.027297527 0.053086042 -0.062451407
-0.0400168 -0.050647408 0.031989753 -0.072991386 -0.08166319 0.1054502 0.08853987 0.042138472
-0.045591846 -0.08355321 -0.06701879 0.05671829 -0.1083187 0.07772516 -0.053468943 0.054224595
0.12168379 -0.017196193 -0.0833855 -0.08673154 -0.12150511 0.09000355 -0.0019384325 -0.11794421
-0.04190293 0.10775599 0.049497113 0.012829065 0.038618147 0.0007650107 -0.07838698 0.021403074
00000000: b055 a0bc 84de b4bd 842b 0ebd 60d7 3ebc
00000010: 141c dc3d 5642 e8bd 2e35 aabd 10aa 2fbc
00000020: 2087 a8bd 0032 9839 6870 473d b8a3 923d
00000030: 242a bcbd 9039 51bd 1c51 983d 4059 46bd
00000040: 8cb1 2cbd 7a13 9ebd e028 45bc 2a42 91bd
00000050: 5825 073d fc9a 953d 90f9 9ebd f41f 45bd
00000060: 1aa9 863d 7410 903d 9236 d4bd c404 fd3d
00000070: e013 a63b 6026 dfbc dcd4 bbbd a09e e03d
00000080: 40c7 b8bd 006b 9ebd 585c 41bd b2e2 883d
00000090: 04cb 10bd 044a 9a3d 9cde e2bd d864 99bd
000000a0: c4fd bcbd d8e0 f73c b2ae a23d 00b0 1539
000000b0: 2838 f03d 8c95 973d c0a6 b23b 00e1 1a3b
000000c0: aa87 84bd 6c6d b63d ccba 8dbd c063 4f3c
000000d0: b033 efbd 5089 c5bd d6f2 953d 74ab 56bd
000000e0: 02ff 8f3d 1011 3a3c 680a cbbc 14ae 2cbd
000000f0: 26ff 9ebd 30b7 a3bd 5845 803d 780d 6abd
00000100: 18ac bb3c c4c4 8bbd 9a97 93bd bca1 26bd
00000110: 5453 e2bd 64da 4bbd 9a95 8a3d ec53 1e3d
00000120: 343e 833d 84f6 fabd e66e af3d 0cc9 85bd
00000130: 98ca 8e3c 3ce2 e03d 6c51 383d 009d 393d
00000140: 1cea 68bd 4cfa bc3d 0036 aa3a 8cf9 973d
00000150: bc86 5d3d c8a3 433d 6063 d4bd 5476 71bd
00000160: 3022 103c 5ce1 4c3d 929d e7bd 6875 72bd
00000170: b440 d73d 3069 56bc 2e81 92bd 90f6 cdbd
00000180: 80c7 383d 5eea 903d ecca e0bd 2067 e1bd
00000190: 58b8 b2bc bc3a babd 501e d2bd 483c f7bd
000001a0: 2c39 b0bd 788c 57bd 7ea6 f9bd 80dd f43c
000001b0: ccf5 24bd 3cbf f0bd c447 85bd 0607 ed3d
000001c0: b67a af3d 0c23 413d 2886 0f3d a6ce 993d
000001d0: 2004 433d b8ea 2abd fc87 533d 0098 a63b
000001e0: 0054 3e3b 207e 143d bc75 c53d 10fc c93d
000001f0: 00dc feba 0056 7fba 48be bebc 400a a6bd
00000200: 2068 f33c a07f 593c f88d 25bd a85b ecbc
00000210: e8c3 4b3d e01f e6bb d68e 80bd 5428 233d
00000220: e43c 2e3d 6a0a eebd 4c47 323d 848d ec3d
00000230: 0430 053d 201d c83c e4cd b23d fc82 4abd
00000240: d617 dcbd 3cf0 b33d aa06 803d 0031 5a3c
00000250: 4836 823d 10ca 29bc e4ba 13bd b843 f43d
00000260: 3a27 d4bd bc83 773d fc9f 2d3d f886 d73d
00000270: 2073 e0bd 881e d53d 763d 82bd a883 123d
00000280: 88cf eebc 306e 49bc 9484 80bd 70b7 6d3d
00000290: 20aa c4bc ac19 6c3d 480e 033d 687f c13d
000002a0: e07b f13c ceed e33d b0df d83c fc5f 10bd
000002b0: 20af d1bb c0e6 2dbc 3008 6abc 60ec 0e3d
000002c0: 3a29 a3bd 1a6f ffbd 48fc ae3c f085 d93c
000002d0: 208b e0bd 6425 e93d f02d 373d 1eef bfbd
000002e0: d868 713d 9a5e a8bd f013 3fbd 6c69 5bbd
000002f0: 9036 8e3c d441 7dbd ccd1 7dbd c094 2fbc
00000300: 9484 803d 5c5c 70bd d0d9 693c e435 f73d
00000310: 4cff 48bd 1ab1 e2bd 8aa7 89bd a01d c43c
00000320: 1897 9e3c cc5d 753d 8612 f43d 4873 a8bc
00000330: 8295 bc3d 7488 c33d b0ff 50bd 809a 453b
00000340: 3a31 ed3d 7294 afbd 34a2 af3d 0019 373c
00000350: 20eb 7dbd 2057 91bc 6a02 e3bd 6ec3 9cbd
00000360: dce5 f4bd 523d 81bd a476 7c3d 6682 df3d
00000370: 189a e43c 109f df3c c070 593d 0ccd 7fbd
00000380: a8e8 23bd a873 4fbd b007 033d 827c 95bd
00000390: 083f a7bd 46f6 d73d 6454 b53d 6499 2c3d
000003a0: 84be 3abd f21d abbd 2641 89bd 7051 683d
000003b0: 32d6 ddbd 5e2e 9f3d 4002 5bbd 9c1a 5e3d
000003c0: 5a35 f93d 08df 8cbc 04c6 aabd 4ea0 b1bd
000003d0: acd7 f8bd c853 b83d 0013 feba bc8c f1bd
000003e0: 68a2 2bbd 2caf dc3d 7cbd 4a3d 0031 523c
000003f0: 102e 1e3d 008b 483a 5a89 a0bd 8055 af3c

Y_net.lstm_layers.0.h2h.bias f4 [256]
-0.03935356 0.21859814 -0.28839347 -0.14854273 -0.28277084 0.06275081 0.48702097 0.10014888
0.08155559 0.12413213 1.5108073 -0.5007874 -0.33754858 -0.20518136 0.06296898 0.047634084
0.0584293 0.18775687 -0.17232484 -0.20350252 0.4823252 0.21254994 -0.279092 0.20374864
0.24275076 -0.4804888 0.49651262 -0.06340591 -0.43465203 -0.288083 -0.4070475 0.24247478
-0.23244013 -0.044249203 0.22381379 0.24199584 -0.2505605 0.14439787 -0.1858418 0.48298973
-0.289545 0.39991665 -0.018279143 0.7642365 -0.48175406 0.06981434 -0.21008375 -0.10931639
0.14882337 -0.58113533 0.06638485 0.6484892 -0.09380055 -0.1680238 -0.42991522 -0.47115722
-0.23172021 -0.64268166 0.51523095 0.6584131 -0.17395547 0.6100653 -0.30231336 0.108698785
-0.025519013 0.057786733 0.10609873 -0.07220085 -0.0068552643 -0.10444036 0.10512614 0.037561804
-0.11884661 0.00229989 -0.00047436357 -0.082501605 -0.09158112 0.08676785 0.11095779 -0.055858538
-0.07983704 0.065622106 -0.06272976 0.09394784 0.028329134 -0.038532004 -0.0051555037 -0.11697653
-0.021717682 0.049182236 -0.090650916 0.11308673 -0.07788372 -0.06468557 0.092300475 -0.022522062
0.06773622 0.102563664 -0.051945135 -0.06477511 -0.059150755 -0.09336956 -0.09129386 0.12294191
-0.110720575 0.057165995 -0.07577756 0.03152363 -0.07411061 0.038057536 -0.013681605 0.059711665
0.017738342 -0.00038672984 -0.08282919 -0.023068696 -0.050243482 0.010865673 -0.112525776 -0.12318884
-0.04444176 0.013767794 0.029201284 -0.10519126 -0.03221582 -0.094428614 -0.11311126 0.07462601
-0.572288 -0.19185556 -0.10766778 -0.3672846 0.0658072 -0.199005 0.05065907 -0.34565485
-0.3588825 -0.49064943 -0.43755573 -0.26188844 -0.15474378 -0.20744063 -0.35103258 -0.40795243
-0.3381921 -0.057607085 -0.11689727 -0.657869 0.20158389 -0.3402014 -0.31210178 -0.29769808
-0.47390893 -0.3927883 0.44307926 0.26025835 -0.23399429 -0.22574109 -0.30416274 -0.33020076
-0.34645864 0.0074460753 0.234028 -0.34404415 -0.20629357 -0.22471541 -0.14916345 0.40324092
-0.09422937 0.21911637 -0.22081044 -0.3024932 -0.12527907 -0.10895856 -0.5320248 0.47896788
-0.15490776 -0.4867871 -0.09586361 0.47896847 -0.44435665 -0.28507572 -0.29409662 -0.35572913
0.0484365 -0.37471688 0.5689194 -0.13146481 0.28714558 0.26137966 -0.13368402 -0.3888227
-0.23056023 0.44021776 -0.1225983 -0.027578386 -0.196642 0.034680296 0.32475054 0.046407018
0.29106438 -0.015982023 1.450128 -0.67542344 0.1592714 -0.32935405 -0.32817817 0.18134227
-0.33708882 -0.15686816 -0.03320456 -0.39959794 0.29686758 0.29666585 -0.10395096 0.09856927
0.3933792 -0.17237344 0.53342533 -0.061385114 -0.17518817 -0.3093595 -0.0028244187 0.3650244
0.005521097 0.07910011 0.039269477 0.019915478 -0.20779088 -0.38500172 -0.3690824 0.27949104
-0.124081455 0.61628145 -0.6184949 0.8948171 -0.09694282 0.07036042 -0.2985462 0.38970026
0.4016972 -0.24464248 -0.38861722 0.6950192 0.32852185 -0.23210298 -0.15816876 0.053960674
-0.17126279 -0.33079833 0.67503977 0.67711085 0.33151603 0.60460675 -0.4606197 -0.023707442
00000000: 3331 21bd 31d8 5f3e 4fa8 93be 961b 18be
00000010: 57c7 90be 7f83 803d d05a f93e db1a cd3d
00000020: 9e06 a73d fc38 fe3d 2262 c13f 9a33 00bf
00000030: 2bd3 acbe 101b 52be e1f5 803d f51b 433d
00000040: 9053 6f3d 5643 403e ec75 30be f762 50be
00000050: 54f3 f63e b1a6 593e 26e5 8ebe 7ca3 503e
00000060: a893 783e a102 f6be e736 fe3e f5da 81bd
00000070: b68a debe 9d7f 93be 8868 d0be 4f4b 783e
00000080: c904 6ebe a73e 35bd 712f 653e c2cd 773e
00000090: 7749 80be 09dd 133e 504d 3ebe 6e4a f73e
000000a0: 3e3f 94be e0c1 cc3e 24be 95bc 01a5 433f
000000b0: 78a8 f6be d2fa 8e3d 3220 57be 45e1 dfbd
000000c0: 2765 183e 49c5 14bf c8f4 873d 6303 263f
000000d0: 811a c0bd 6e0e 2cbe d91d dcbe 853b f1be
000000e0: 1048 6dbe c986 24bf 2de6 033f c38d 283f
000000f0: 6221 32be 3d2d 1c3f d1c8 9abe 789d de3d
00000100: 400d d1bc c8b1 6c3d 4a4a d93d 0ade 93bd
00000110: 20a2 e0bb d4e4 d5bd 604c d73d 68da 193d
00000120: da65 f3bd c0b9 163b 00b4 f8b9 9af6 a8bd
00000130: e28e bbbd 58b3 b13d d63d e33d eccb 64bd
00000140: 9a81 a3bd e264 863d 7678 80bd ba67 c03d
00000150: 8012 e83c bcd3 1dbd 80ef a8bb 6491 efbd
00000160: 48e9 b1bc 5073 493d 30a7 b9bd 049a e73d
00000170: 8081 9fbd de79 84bd 0808 bd3d 3080 b8bc
00000180: 4ab9 8a3d e60c d23d 6cc4 54bd d0a8 84bd
00000190: 1048 72bd 8a38 bfbd 46f8 babd f8c8 fb3d
000001a0: 78c1 e2bd e426 6a3d 4431 9bbd ec1e 013d
000001b0: 4ec7 97bd 38e2 1b3d d028 60bc 3894 743d
000001c0: 0050 913c 00c2 cab9 5aa2 a9bd 90fa bcbc
000001d0: 1ccc 4dbd f005 323c ea73 e6bd 6e4a fcbd
000001e0: 9008 36bd 5092 613c 8837 ef3c 846e d7bd
000001f0: bcf4 03bd ca63 c1bd e0a6 e7bd 86d5 983d
00000200: 7781 12bf c975 44be ed80 dcbd ba0c bcbe
00000210: edc5 863d f7c7 4bbe e37f 4f3d acf9 b0be
00000220: 72bf b7be 6736 fbbe 4e07 e0be 3e16 86be
00000230: 2775 1ebe 516b 54be 8bba b3be 24df d0be
00000240: 8427 adbe 68f5 6bbd d667 efbd 1a6a 28bf
00000250: 026c 4e3e e12e aebe cecb 9fbe e26b 98be
00000260: 31a4 f2be 8c1b c9be 49db e23e 9540 853e
00000270: 339c 6fbe ac28 67be 38bb 9bbe 1310 a9be
00000280: 0763 b1be 35fe f33b 09a5 6f3e 8e26 b0be
00000290: 9f3e 53be cc1b 66be 4ebe 18be 9875 ce3e
000002a0: 54fb c0bd 0b60 603e 221c 62be 64e0 9abe
000002b0: 2849 00be aa25 dfbd c732 08bf 473b f53e
000002c0: 24a0 1ebe 293c f9be 2454 c4bd 5b3b f53e
000002d0: b782 e3be 72f5 91be d593 96be 2122 b6be
000002e0: 5a65 463d e4da bfbe b4a4 113f b69e 06be
000002f0: bf04 933e 8ed3 853e 77e4 08be c513 c7be
00000300: fb17 6cbe 3964 e13e d114 fbbd 11ec e1bc
00000310: 855c 49be ed0c 0e3d b445 a63e 4915 3e3d
00000320: 6406 953e bbec 82bc cb9d b93f 8de8 2cbf
00000330: 0b18 233e 18a1 a8be f806 a8be cab1 393e
00000340: e896 acbe 0ca2 20be 8101 08bd 1a98 ccbe
00000350: 07ff 973e 96e4 973e 3ee4 d4bd afde c93d
00000360: 0069 c93e aa82 30be 908e 083f f56e 7bbd
00000370: 8764 33be 5e64 9ebe e219 39bb 7ae4 ba3e
00000380: 52ea b43b 3dff a13d 08d9 203d c925 a33c
00000390: 22c7 54be f21e c5be 5ef8 bcbe 7319 8f3e
000003a0: 6b1e febd 9fc4 1d3f af55 1ebf bc12 653f
000003b0: f589 c6bd 2019 903d 0cdb 98be cb86 c73e
000003c0: 41ab cd3e 8f83 7abe d6f8 c6be c7ec 313f
000003d0: 0434 a83e 67ac 6dbe fef6 21be de05 5d3d
000003e0: 835f 2fbe 665e a9be 68cf 2c3f 2357 2d3f
000003f0: 78bc a93e 82c7 1a3f 58d6 ebbe 1c36 c2bc

Y_net.lstm_layers.1.i2h.weight f4 [256, 64]
0.052630253 -0.09978974 -0.021570174 0.028984668 -0.015857892 -0.0821355 -0.04407703 0.111249
-0.012949018 -0.06311507 -0.06782864 -0.04860759 -0.104246 -0.0859406 0.09751118 0.016363189
0.038189128 0.093088694 0.11136 0.072221205 0.032550074 -0.074051246 -0.083695926 0.10915655
-0.06993711 -0.05967105 0.008368525 0.026417533 -0.0072838347 -0.027897483 0.0166292 -0.075290464
-0.049798094 -0.12891561 0.02061251 -0.13282196 0.06254988 -0.12055302 -0.11063659 0.020726463
0.078585416 -0.13468054 -0.11178521 0.050898418 0.0038692034 0.11254422 -0.067608796 -0.13633549
0.018043872 0.06683983 -0.006870086 -0.07126796 -0.0552072 -0.119816154 -0.014933914 0.09136222
-0.072286874 -0.082622916 0.094968066 0.10178118 -0.04960081 0.010489809 0.00854222 -0.03846408
0.28070024 0.39867008 0.21813792 0.24745572 0.25119376 0.20884296 0.4432302 0.3118618
0.4717671 0.3601602 0.5156583 0.4012539 0.1635312 0.39269048 0.2529125 0.27468094
0.2801091 0.42971858 0.43922967 0.35448292 0.36321762 0.38240653 0.24099277 0.41343695
0.24181174 0.4045702 0.2963071 -0.015310143 0.0940299 0.13613832 0.27350318 0.29633212
0.37842178 0.42199457 0.209418 0.16806304 0.45701817 0.33182964 0.1466505 0.16046953
0.28775966 0.43799222 0.2265224 0.41663465 0.3280368 0.20693752 0.41306642 0.121164605
0.44594297 0.25066215 0.33884987 0.25418988 0.5296212 0.3099123 0.51033115 0.51524746
0.14194149 0.35254204 0.36728448 0.5415633 0.29116398 0.060022455 0.08795498 0.32922503
0.2140116 0.3137055 0.044587255 -0.020052185 -0.14281172 0.06838659 0.24983227 0.17711559
0.25118187 0.23861612 0.057245377 0.14375399 0.2624406 0.155839 0.14407504 -0.12613876
0.3103201 0.15872926 0.11372671 -0.20286292 0.08490633 -0.1900454 -0.014330719 0.29780173
0.26224655 0.15095009 0.23946029 -0.08615735 0.15339677 0.03263845 0.15866579 0.32067886
0.14462462 0.0601218 -0.10739107 0.09759948 0.22805679 -0.106749095 -0.17982158 0.07038752
0.1623554 0.045997128 0.04768152 0.35759866 0.2408538 0.18488018 0.2873564 -0.030312574
-0.10930681 0.055771824 -0.18350935 0.09023395 -0.022073299 0.15245791 0.35573426 0.08340044
0.17410298 0.1673404 0.111782834 0.15248445 0.019532925 0.041802663 -0.10898838 0.20329928
0.4424596 0.7291588 0.22591695 0.27861965 0.118328445 0.3739733 0.51682615 0.37106252
0.7628243 0.30356437 0.7304295 0.3886291 0.16647102 0.2970866 0.22442082 0.15468293
0.24660832 0.41781217 0.5380564 0.5553002 0.25989142 0.34116283 0.3253481 0.58069015
0.42914435 0.40145746 0.22728097 -0.1587197 0.10295709 0.13264874 0.6469699 0.31743672
0.44896355 0.55495673 0.39863798 0.23770201 0.4936607 0.5896892 0.17036144 0.22075316
0.40349406 0.3908365 0.47649056 0.6903324 0.5375927 0.3271807 0.5343067 0.105242915
0.42553952 0.57095605 0.4374287 0.41494834 0.42621374 0.57127094 0.61944515 0.6095874
0.08485381 0.39965728 0.44895515 0.7089255 0.2862773 0.07208557 0.3016101 0.33717513
00000000: d292 573d 905e ccbd efb3 b0bc 4171 ed3c
00000010: 69e8 81bc a836 a8bd 1e8a 34bd 84d6 e33d
00000020: 1e28 54bc 7942 81bd bee9 8abd c118 47bd
00000030: ed7e d5bd a001 b0bd f1b3 c73d 180c 863c
00000040: 346c 1c3d 49a5 be3d b610 e43d b6e8 933d
00000050: 3a53 053d 2ea8 97bd c568 abbd 788d df3d
00000060: 303b 8fbd a269 74bd 231c 093c 9569 d83c
00000070: 3cad eebb 4389 e4bc f639 883c e331 9abd
00000080: 16f9 4bbd 7402 04be 91db a83c 7b02 08be
00000090: 271a 803d 80e4 f6bd 7095 e2bd 8bca a93c
000000a0: 64f1 a03d b2e9 09be a5ef e4bd dc7a 503d
000000b0: 7692 7d3b 967d e63d 7b76 8abd 889b 0bbe
000000c0: bed0 933c 52e3 883d 751e e1bb f0f4 91bd
000000d0: f220 62bd 2c62 f5bd 60ad 74bc 1e1c bb3d
000000e0: 240b 94bd 3436 a9bd 9e7e c23d a772 d03d
000000f0: 382a 4bbd 73dd 2b3c abf4 0b3c 838c 1dbd
00000100: f1b7 8f3e 7c1e cc3e 8c5f 5f3e 0865 7d3e
00000110: 789c 803e eeda 553e 12ef e23e 5aac 9f3e
00000120: 758b f13e eb66 b83e 2f02 043f 2771 cd3e
00000130: b974 273e ba0e c93e bf7d 813e fba2 8c3e
00000140: 766a 8f3e 1304 dc3e b6e2 e03e c97e b53e
00000150: a9f7 b93e caca c33e cfc6 763e 02ae d33e
00000160: 7f9d 773e d323 cf3e 90b5 973e 65d7 7abc
00000170: c092 c03d d867 0b3e 9c08 8c3e d8b8 973e
00000180: 80c0 c13e ac0f d83e ac71 563e b818 2c3e
00000190: 49fe e93e 93e5 a93e 8c2b 163e 2052 243e
000001a0: 3c55 933e 8440 e03e 7df5 673e 2351 d53e
000001b0: 70f4 a73e 6ee7 533e 717d d33e 2625 f83d
000001c0: a352 e43e ca56 803e bb7d ad3e 2d25 823e
000001d0: 4195 073f d3ac 9e3e 10a5 023f 42e7 033f
000001e0: 1c59 113e 6480 b43e b60c bc3e e4a3 0a3f
000001f0: 7213 953e 1bda 753d be21 b43d 2f90 a83e
00000200: db25 5b3e 029e a03e 20a1 363d 7b44 a4bc
00000210: 3c3d 12be 450e 8c3d 08d4 7f3e ca5d 353e
00000220: e99a 803e c957 743e 217a 6a3d 3f34 133e
00000230: 9d5e 863e 4294 1f3e 6888 133e 852a 01be
00000240: 47e2 9e3e ec89 223e 8de9 e83d 4cbb 4fbe
00000250: 5fe3 ad3d 439b 42be 64cb 6abc 7879 983e
00000260: 2e45 863e a992 1a3e 1435 753e 4473 b0bd
00000270: 0b14 1d3e e5af 053d 4979 223e 0530 a43e
00000280: 7a18 143e 4742 763d d9ef dbbd 3ce2 c73d
00000290: b887 693e 459f dabd 2623 38be 5527 903d
000002a0: 7e40 263e 7c67 3c3d b34d 433d 2c17 b73e
000002b0: 61a2 763e 3b51 3d3e 6120 933e 1352 f8bc
000002c0: 40dc dfbd ff70 643d e0e9 3bbe 94cc b83d
000002d0: 10d3 b4bc ed1d 1c3e cd22 b63e dacd aa3d
000002e0: 0d48 323e 485b 2b3e 66ee e43d e224 1c3e
000002f0: 8303 a03c 4539 2b3d 4d35 dfbd b02d 503e
00000300: 118a e23e 27aa 3a3f c656 673e 3ca7 8e3e
00000310: 2f56 f23d 6e79 bf3e b84e 043f e8fb bd3e
00000320: 7448 433f ca6c 9b3e 6dfd 3a3f 65fa c63e
00000330: 6177 2a3e bc1b 983e 92ce 653e 3465 1e3e
00000340: e486 7c3e 7aeb d53e 10be 093f 2728 0e3f
00000350: 7d10 853e e5ac ae3e 0794 a63e 1ca8 143f
00000360: cfb8 db3e d58b cd3e 58bc 683e 6b87 22be
00000370: 2bdb d23d 12d5 073e d29f 253f 1187 a23e
00000380: 8dde e53e a511 0e3f 471a cc3e 2868 733e
00000390: 18c1 fc3e dff5 163f 3b73 2e3e 1e0d 623e
000003a0: c696 ce3e b91b c83e 92f6 f33e a0b9 303f
000003b0: ad9f 093f 3b84 a73e 53c8 083f 9989 d73d
000003c0: 51e0 d93e 2d2a 123f a8f6 df3e 1c74 d43e
000003d0: b038 da3e d03e 123f f593 1e3f eb0d 1c3f
000003e0: d6c7 ad3d e19f cc3e 73dd e53e 247c 353f
000003f0: f092 923e 99a1 933d a46c 9a3e 38a2 ac3e

Y_net.lstm_layers.1.i2h.bias f4 [256]
-0.10639562 0.33466712 0.20299882 0.31547007 0.5083741 0.37384042 0.5125587 -0.029602474
0.35493898 -0.07108079 0.17335933 0.078831024 0.042902973 0.25568143 0.0604189 0.056557402
-0.06257881 0.19927393 -0.17177977 -0.016502751 0.21185672 0.23835665 0.16157523 0.0970762
-0.24872251 0.32806027 0.22179992 -0.19951591 0.40804896 -0.34741253 0.23820402 -0.04190387
0.021895066 0.03018886 0.31962678 -0.29071957 -0.04986868 -0.03902957 0.059747998 -0.123240426
0.19961481 0.2534818 -0.019501 0.20277932 -0.11652902 0.015097246 0.037513707 0.55055606
0.4078834 -0.13104923 0.16867244 -0.19034033 -0.12714936 -0.2507449 -0.27653545 0.032916166
0.12438748 0.054943614 0.36255565 -0.122222364 -0.17396013 0.2298249 0.105512306 -0.23693466
-0.04612246 0.0052363724 0.08519778 0.08943279 -0.09637351 -0.086409405 0.06895298 -0.036626577
-0.07662043 -0.116665035 0.026025876 -0.11121893 0.02383849 -0.065463796 -0.10305077 0.05540274
0.016179651 0.016192213 0.078390345 -0.022374436 0.06548366 -0.10207705 -0.06722933 -0.060296327
0.07813567 0.11787476 -0.0757563 -0.09205362 0.062059477 -0.061561257 0.08436501 0.054365605
0.04678318 -0.082103446 -0.040750355 0.010987222 0.080416456 -0.1205038 0.02572763 0.03464037
-0.11212006 -0.112094 0.05142793 -0.09919493 0.071098894 0.015186116 0.058430344 -0.06358023
0.017719522 0.013502032 0.115887225 -0.0047487766 -0.06565425 0.09192298 0.055994645 0.09859489
-0.12071411 -0.043044746 0.072835535 -0.10495369 -0.03360264 -0.013329476 -0.091908485 0.08392757
-0.013602313 -0.22335961 -0.19707677 -0.3171473 -0.42682645 -0.066131584 -0.21106051 0.15655598
-0.41503146 -0.10782327 0.0081824325 -0.036548074 -0.12078622 -0.20949677 0.06006211 -0.17502819
-0.22112669 -0.23029713 -0.11525072 -0.14593713 -0.15972412 -0.2667887 -0.11831241 0.1548961
-0.28561813 -0.26957887 -0.18319787 -0.056206435 0.2179645 -0.31120852 -0.24254462 -0.22816174
0.08455765 -0.13141724 0.11568942 -0.13506809 -0.1386855 -0.14162858 -0.2651455 -0.116769284
-0.19878858 -0.34255034 -0.098184735 -0.187003 -0.051634874 -0.010968381 -0.13738284 0.21659178
0.23501472 0.019813234 -0.17237055 0.062943004 -0.1558057 -0.07358493 -0.07685931 -0.10608626
-0.21644431 0.16903092 -0.3097827 -0.09959584 -0.1231857 -0.14261009 -0.26395047 -0.20091514
0.004291972 0.32099488 0.23922789 0.34763062 0.5140165 0.3968371 0.40207297 -0.17635237
0.49515992 -0.09231427 0.15249248 0.0794359 0.00909603 0.22440736 0.037761785 0.1869999
0.033255167 0.21459228 -0.11691849 0.07012785 0.21872182 0.37604997 0.15560247 0.17186092
-0.11839016 0.22146109 0.24866058 -0.114592254 0.5615345 -0.18838453 0.03606414 0.11908959
0.20106564 -0.026958447 0.31639805 -0.24632694 -0.044713434 0.22673465 0.39488858 -0.00455237
0.08919612 0.35616884 0.0972096 0.21261019 0.0688894 0.008522139 -0.048512895 0.46643686
0.47500724 0.13642135 0.2169345 -0.043780915 -0.040302735 -0.24668665 -0.19492702 0.08083715
0.03841718 0.16148695 0.33279318 0.044201892 -0.055971615 0.11748816 0.124160774 -0.17219438
00000000: f2e5 d9bd 7d59 ab3e ecde 4f3e 4b85 a13e
00000010: ce24 023f 0368 bf3e 0c37 033f e380 f2bc
00000020: 90ba b53e ce92 91bd 1c85 313e 2972 a13d
00000030: 07bb 2f3d ade8 823e cf79 773d bca8 673d
00000040: 5229 80bd 770e 4c3e 09e7 2fbe c730 87bc
00000050: f8f0 583e c413 743e fa73 253e e3cf c63d
00000060: 1db1 7ebe 84f7 a73e 851f 633e e64d 4cbe
00000070: cbeb d03e 0ee0 b1be c1eb 733e 64a3 2bbd
00000080: 485d b33c a14e f73c 1fa6 a33e 32d9 94be
00000090: 1a43 4cbd 78dd 1fbd 51ba 743d 7a65 fcbd
000000a0: d367 4c3e 5ec8 813e 90c0 9fbc 62a5 4f3e
000000b0: c4a6 eebd 705a 773c f9a7 193d 3ef1 0c3f
000000c0: 18d6 d03e c531 06be 78b8 2c3e 93e8 42be
000000d0: 7133 02be a361 80be 0e96 8dbe 1ad3 063d
000000e0: ddbe fe3d 8e0c 613d e5a0 b93e b84f fabd
000000f0: 9b22 32be 3857 6b3e d616 d83d 009f 72be
00000100: e8ea 3cbd e095 ab3b 2c7c ae3d 8a28 b73d
00000110: 7a5f c5bd 6af7 b0bd 3837 8d3d c005 16bd
00000120: 2ceb 9cbd 14ee eebd 3834 d53c c0c6 e3bd
00000130: f048 c33c e211 86bd 480c d3bd fced 623d
00000140: 308b 843c 88a5 843c 1e8b a03d 984a b7bc
00000150: 4c1c 863d c60d d1bd 88af 89bd 48f9 76bd
00000160: 9805 a03d 5268 f13d 1e26 9bbd 9c86 bcbd
00000170: 1432 7e3d a827 7cbd 90c7 ac3d 78ae 5e3d
00000180: b89f 3f3d da25 a8bd d8e9 26bd c003 343c
00000190: 62b1 a43d b2ca f6bd c0c2 d23c 10e3 0d3d
000001a0: 349f e5bd 8a91 e5bd 18a6 523d b626 cbbd
000001b0: 4c9c 913d 30cf 783c a854 6f3d 5a36 82bd
000001c0: 8828 913c a037 5d3c 4856 ed3d a09b 9bbb
000001d0: bc75 86bd 1e42 bc3d a45a 653d 1eec c93d
000001e0: f638 f7bd b04f 30bd cc2a 953d f6f1 d6bd
000001f0: eca2 09bd e063 5abc 843a bcbd 38e2 ab3d
00000200: 3cdc 5ebc 62b8 64be 7ece 49be 2261 a2be
00000210: ff88 dabe ff6f 87bd 3f20 58be 3650 203e
00000220: 017f d4be 72d2 dcbd 9c0f 063c 6fb3 15bd
00000230: c45e f7bd 5286 56be b003 763d 973a 33be
00000240: 096f 62be 03d3 6bbe 9208 ecbd 8b70 15be
00000250: b88e 23be 8798 88be c74d f2bd 159d 1e3e
00000260: 8a3c 92be 3e06 8abe 3998 3bbe b838 66bd
00000270: 1632 5f3e b956 9fbe 9e5d 78be 3ba3 69be
00000280: 902c ad3d 3e92 06be 93ee ec3d 4a4f 0abe
00000290: 9203 0ebe 1507 11be 27c1 87be bc24 efbd
000002a0: 3c8f 4bbe c262 afbe 1415 c9bd b77d 3fbe
000002b0: 177f 53bd b9b4 33bc 16ae 0cbe 3cca 5d3e
000002c0: b3a7 703e 5d4f a23c e881 30be 43e8 803d
000002d0: 888b 1fbe b2b3 96bd 6a68 9dbd c143 d9bd
000002e0: 94a3 5dbe 7116 2d3e d79b 9ebe e7f8 cbbd
000002f0: c948 fcbd 6108 12be 8424 87be b3bc 4dbe
00000300: aca3 8c3b 7159 a43e 28f8 743e a4fc b13e
00000310: 9696 033f 3b2e cb3e 82dc cd3e b795 34be
00000320: 9a85 fd3e 440f bdbd fd26 1c3e 4aaf a23d
00000330: 8407 153c 0bcb 653e 1aac 1a3d e77c 3f3e
00000340: 9236 083d 14be 5b3e f672 efbd 319f 8f3d
00000350: 9df8 5f3e 9f89 c03e 4156 1f3e 4ffc 2f3e
00000360: 8a76 f2bd b2c6 623e e1a0 7e3e 58af eabd
00000370: bac0 0f3f e0e7 40be feb7 133d 3ee5 f33d
00000380: 27e4 4d3e f6d7 dcbc edfe a13e 213d 7cbe
00000390: 6f25 37bd 212d 683e d62e ca3e 0c2c 95bb
000003a0: 75ac b63d c35b b63e d415 c73d 7cb6 593e
000003b0: e315 8d3d 71a0 0b3c 75b5 46bd d0d0 ee3e
000003c0: 2634 f33e 0ab2 0b3e 1424 5e3e 9e53 33bd
000003d0: 7b14 25bd 6d9b 7cbe f39a 47be f38d a53d
000003e0: 555b 1d3d d65c 253e de63 aa3e 0b0d 353d
000003f0: 7e42 65bd a29d f03d 0148 fe3d b953 30be

Y_net.lstm_layers.1.h2h.weight f4 [256, 64]
-0.048274845 -0.045316488 0.021079957 -0.1181695 -0.045200095 0.00888063 -0.118162975 -0.11464164
0.066152886 -0.00950326 0.0909628 0.06474653 0.03654352 0.04431452 0.0385347 -0.0862363
0.07946634 -0.016620815 -0.08422065 0.044962272 0.065943494 0.021352306 -0.07510522 -0.022724107
-0.124581665 -0.08971046 -0.063783646 0.0062189847 0.08715075 0.08213268 -0.044211388 0.04942575
0.04932019 0.0033854395 0.059711605 -0.114695385 -0.092699274 0.04817605 0.065892026 0.053407118
-0.07526876 -0.09727594 -0.08894001 -0.09297085 0.080044016 -0.10989708 -0.026800632 0.10569608
0.010004029 -0.012161523 -0.013098881 0.11229873 0.08329271 -0.07686725 -0.022111177 -0.08402935
0.0039532483 0.12183598 -0.009075835 -0.06253685 0.11245057 -0.11009394 0.11820823 -0.040558234
0.10125917 -0.07732706 -0.07690486 0.08103351 0.02826579 0.010130465 0.062233865 0.012013346
-0.012882441 -0.04129748 -0.05504112 -0.07722625 -0.034140855 0.12107493 -0.004219562 -0.08815947
-0.11559096 0.029941887 -0.056112215 -0.08409813 -0.06799707 0.12003438 -0.054287896 -0.056282237
0.037519604 0.047466516 0.075038165 0.10452896 0.07368624 0.018456772 0.03271164 -0.00082574785
0.034400895 0.01923883 0.01160261 0.02029498 0.004082963 -0.038921922 0.021815866 -0.028730094
-0.06273483 -0.018301055 -0.042304844 0.07030992 0.004148081 0.023141086 -0.08842838 0.024323896
0.033599854 0.038716793 -0.10153389 -0.06900324 -0.053617954 -0.107767105 0.09508847 0.0661114
0.11508377 -0.06688416 0.112147376 -0.048495233 0.04492931 -0.0036267042 -0.03135462 -0.024807379
0.018792316 -0.045547858 -0.10248719 0.06771745 -0.013051972 -0.04327129 -0.09492314 0.06435467
-0.02316928 -0.06503978 0.04577075 0.0062785894 0.012352437 -0.11481798 -0.021432847 -0.03415829
-0.105113715 0.062364593 0.10957274 0.010335803 0.020092323 -0.09775859 0.09342107 -0.07276201
-0.110208616 -0.11509161 0.123704836 -0.080898136 -0.0761344 0.09142324 -0.104236156 -0.010976881
0.07741928 -0.06298533 0.05939482 0.11645253 0.02113828 0.005220145 -0.014452651 -0.05964014
-0.117914274 0.08851375 0.06672442 0.019248918 -0.11114325 0.12082106 -0.028696254 -0.121721104
0.08881584 0.0006964803 0.012221932 -0.06636292 -0.11792493 0.015487999 0.09860456 -0.09878896
-0.0077356994 -0.07617733 0.09415324 0.0010435134 -0.072935075 0.10266234 0.015601978 0.12251422
-0.056331083 0.011423722 0.043972507 -0.07007608 -0.0034677237 0.11734255 -0.04684925 0.06426422
-0.019150615 -0.036609158 0.097096056 -0.084399834 0.050066367 -0.0851644 -0.0010762215 -0.11055724
0.12303057 -0.10189007 0.080192536 0.05502963 -0.11353181 0.0005993694 -0.054997534 -0.059209123
-0.097736195 0.009192675 0.035697162 -0.100467056 -0.123686194 -0.056487933 -0.017241731 0.021955997
0.12493263 -0.05738318 -0.056475684 -0.043206587 0.026581526 0.0091998875 -0.03020209 -0.056595474
0.048441216 -0.01678747 0.0080702305 0.0060776174 0.10406685 0.0010640621 0.014959589 -0.1060065
0.114760816 0.044799834 0.080695644 -0.06686509 -0.08164476 0.08664708 -0.094139755 -0.042081848
-0.10854109 0.00085426867 -0.07425162 0.044042796 0.04994835 0.015341237 0.0579824 -0.12445064
00000000: d8bb 45bd c89d 39bd e0af ac3c da02 f2bd
00000010: bc23 39bd 1080 113c 6eff f1bd 3cc9 eabd
00000020: 2a7b 873d 90b3 1bbc b44a ba3d d499 843d
00000030: a8ae 153d 2483 353d 90d6 1d3d a89c b0bd
00000040: 40bf a23d 6028 88bc e07b acbd 5c2a 383d
00000050: 620d 873d 08eb ae3c c4d0 99bd e827 babc
00000060: ac24 ffbd 1eba b7bd 00a1 82bd a0c8 cb3b
00000070: 187c b23d 2e35 a83d 0017 35bd a872 4a3d
00000080: f803 4a3d 40de 5d3b 2894 743d 6ae5 eabd
00000090: 1ed9 bdbd 4054 453d 66f2 863d 6cc1 5a3d
000000a0: 8226 9abd 9c38 c7bd 2e26 b6bd 8067 bebd
000000b0: 1eee a33d b811 e1bd 008d dbbc 3077 d83d
000000c0: f0e7 233c 2041 47bc b09c 56bc e0fc e53d
000000d0: 5e95 aa3d 946c 9dbd 8022 b5bc 9417 acbd
000000e0: 408a 813b 2485 f93d d0b2 14bc 5213 80bd
000000f0: 7c4c e63d ee78 e1bd 2817 f23d 6420 26bd
00000100: f860 cf3d a65d 9ebd 4c80 9dbd e6f4 a53d
00000110: a88d e73c 40fa 253c f0e8 7e3d a0d3 443c
00000120: e010 53bc 8c27 29bd cc72 61bd cc28 9ebd
00000130: 48d7 0bbd 22f6 f73d 4044 8abb f48c b4bd
00000140: f4ba ecbd b048 f53c ecd5 65bd a43b acbd
00000150: 0c42 8bbd 96d4 f53d fc5c 5ebd 3488 66bd
00000160: 28ae 193d 406c 423d 9cad 993d 4813 d63d
00000170: d0e8 963d a832 973c a4fc 053d 0077 58ba
00000180: f4e7 0c3d c09a 9d3c e018 3e3c a841 a63c
00000190: 60ca 853b 986c 1fbd 30b7 b23c 605b ebbc
000001a0: 1e7b 80bd 18ec 95bc d847 2dbd a6fe 8f3d
000001b0: a0ec 873b 6092 bd3c f019 b5bd e842 c73c
000001c0: 00a0 093d 8095 1e3d 00f1 cfbd 9251 8dbd
000001d0: 809e 5bbd 00b5 dcbd bebd c23d 6a65 873d
000001e0: 0ab1 eb3d 90fa 88bd 86ad e53d f0a2 46bd
000001f0: cc07 383d 00ae 6dbb b46d 00bd d838 cbbc
00000200: 58f2 993c 6490 3abd cee4 d1bd 72af 8a3d
00000210: f0d7 55bc 3c3d 31bd 1067 c2bd 62cc 833d
00000220: 80cd bdbc 9433 85bd 1c7a 3b3d a0bc cd3b
00000230: e061 4a3c b025 ebbd f093 afbc 90e9 0bbd
00000240: dc45 d7bd 0472 7f3d ac67 e03d 8057 293c
00000250: a898 a43c a835 c8bd 8c53 bf3d 4004 95bd
00000260: 0eb5 e1bd 26b5 ebbd f658 fd3d ecad a5bd
00000270: 5aec 9bbd 1c3c bb3d c479 d5bd 60d8 33bc
00000280: 008e 9e3d 74fe 80bd fc47 733d aa7e ee3d
00000290: 302a ad3c c00d ab3b d0ca 6cbc 3849 74bd
000002a0: 0a7d f1bd b246 b53d d0a6 883d e8af 9d3c
000002b0: 129f e3bd 0871 f73d 6814 ebbc ea48 f9bd
000002c0: 14e5 b53d 0094 363a 803e 483c 48e9 87bd
000002d0: a082 f1bd 60c1 7d3c 30f1 c93d de51 cabd
000002e0: c07b fdbb dc02 9cbd 6ad3 c03d 80c6 883a
000002f0: fc5e 95bd a240 d23d 709f 7f3c bce8 fa3d
00000300: 6cbb 66bd 902a 3b3c 841c 343d 0c84 8fbd
00000310: c042 63bb 4a51 f03d 00e5 3fbd f69c 833d
00000320: c0e1 9cbc 7cf3 15bd 4cda c63d d2d9 acbd
00000330: 6412 4d3d ac6a aebd 0010 8dba d66b e2bd
00000340: 74f7 fb3d beab d0bd fc3b a43d c066 613d
00000350: 5e83 e8bd 001f 1d3a 1845 61bd 4485 72bd
00000360: ea29 c8bd e09c 163c 3037 123d acc1 cdbd
00000370: 304f fdbd e45f 67bd 883e 8dbc 10dd b33c
00000380: aedc ff3d a00a 6bbd 0c53 67bd 64f9 30bd
00000390: 80c1 d93c 20bb 163c 606a f7bc a8d0 67bd
000003a0: 4c6a 463d e085 89bc 0039 043c c026 c73b
000003b0: 0021 d53d 0078 8b3a 1019 753c f019 d9bd
000003c0: b807 eb3d 0880 373d c243 a53d 90f0 88bd
000003d0: 5e35 a7bd 0674 b13d 58cc c0bd 045e 2cbd
000003e0: ca4a debd 00f1 5f3a 3c11 98bd 3866 343d
000003f0: a496 4c3d d059 7b3c f47e 6d3d fadf febd

Y_net.lstm_layers.1.h2h.bias f4 [256]
0.039726358 0.24079508 0.30512774 0.30602625 0.4876678 0.23033497 0.39231378 -0.14848262
0.44531378 -0.08671231 0.34254035 -0.063148625 0.00798777 0.27425152 -0.044025455 0.08949523
-0.005220698 0.092112385 -0.2034519 0.22225401 0.03553613 0.19292988 0.051649448 0.06094816
-0.3294614 0.2137379 0.23265739 -0.107007176 0.37870744 -0.16525365 0.2103586 0.082171135
0.25748524 0.14679596 0.280538 -0.2684291 -0.084358424 0.11993571 0.15099503 0.07158549
0.018437319 0.4083633 0.089297935 0.1776227 0.053939752 -0.13395908 -0.007865738 0.6296138
0.5042148 0.08082317 0.071258835 -0.17145486 -0.15869042 -0.26679343 -0.13134015 0.03169792
-0.06879775 0.17507453 0.5509517 -0.1437395 -0.27023175 0.20419884 0.15276678 -0.20719731
-0.06843616 -0.07340188 0.0901552 -0.06984517 -0.0098184645 -0.061404586 0.013604954 0.0011993349
0.016357899 0.0028482676 0.11844474 0.08635515 -0.0064633787 0.07863648 -0.07104559 -0.03421341
-0.11768615 -0.06788792 0.025103197 0.011790499 -0.01052542 -0.028622866 -0.004723057 0.105968535
0.026366606 0.08295961 0.0018572658 -0.033018455 0.03649883 -0.032105565 0.080244794 -0.019710273
-0.037507012 0.03673637 -0.074169874 -0.060198754 -0.008766383 0.097295344 -0.09796104 -0.020691678
0.042161986 0.08800274 -0.030815303 0.05260189 0.057557493 0.070914686 0.11263552 -0.075219855
-0.12384704 0.06446542 0.06492904 -0.11036067 0.108952686 -0.066495284 0.09268615 0.11195558
-0.03531161 -0.08144504 -0.014203832 0.117881835 0.03573169 -0.12237218 0.0056312233 0.080517784
-0.13814096 -0.2917687 -0.25659618 -0.23832014 -0.2973944 -0.07489281 -0.3464251 -0.025801597
-0.33425865 -0.07310651 0.22362608 0.09522642 -0.10023266 -0.096865505 -0.08581624 -0.16163942
-0.20171277 -0.27151173 -0.22794889 -0.1533906 -0.07525298 -0.20495054 -0.2193328 0.13796708
-0.10008264 -0.21240999 -0.18469334 -0.11814819 0.28443763 -0.1189419 -0.22494657 -0.1632866
0.032636 -0.1004927 -0.012463905 -0.16117178 -0.23477826 -0.26077464 -0.15837325 -0.13054042
-0.18157934 -0.193017 -0.056252718 -0.090183854 -0.03672242 -0.050817374 -0.060510032 0.1691403
0.21875095 0.04181403 -0.12361743 0.027447134 -0.12860847 -0.06901572 -0.20897248 -0.02453864
-0.05442958 0.07296455 -0.2622402 -0.18440904 -0.01351482 -0.2040289 -0.17922552 -0.18740554
-0.0069328453 0.3718332 0.100710355 0.42595845 0.61005026 0.29813692 0.41931123 -0.11666762
0.4790374 -0.07665516 0.18726283 0.006011199 -0.06527685 0.20698954 0.0095502315 0.09330589
0.020621192 0.22821307 -0.080800645 0.17315885 0.031271063 0.3742134 0.27278242 0.19803548
-0.27068672 0.16539422 0.08447287 -0.20214783 0.4377962 -0.13625048 0.17954625 0.05840721
0.10353165 0.041876562 0.4248823 -0.25564626 -0.0020215448 0.05797002 0.20460573 0.039267913
0.058794394 0.3010469 -0.030385703 0.24450144 -0.055116624 0.04389321 0.09695295 0.66925806
0.42816937 -0.020227637 0.26607293 -0.20060489 -0.1633614 -0.062047698 -0.18352064 0.010600364
0.12642513 0.30154014 0.49452725 -0.1606066 -0.1760343 0.063765824 0.3068057 -0.13242957
00000000: 1bb8 223d fc92 763e b439 9c3e 79af 9c3e
00000010: 98af f93e eedc 6b3e 5add c83e d40b 18be
00000020: 2b00 e43e 3996 b1bd 7361 af3e 1154 81bd
00000030: 23df 023c b26a 8c3e 0954 34bd 4649 b73d
00000040: 6412 abbb 6ba5 bc3d b255 50be 8e96 633e
00000050: 558e 113d 698f 453e 5f8e 533d c7a4 793d
00000060: 2aaf a8be 1cde 5a3e bd3d 6e3e 9426 dbbd
00000070: f1e5 c13e 4138 29be 3f68 573e 5749 a83d
00000080: 1bd5 833e ae51 163e ada2 8f3e 8a6f 89be
00000090: 1cc4 acbd dba0 f53d 719e 1a3e 6a9b 923d
000000a0: dc09 973c ff14 d13e d6e1 b63d bae2 353e
000000b0: eeef 5c3d 922c 09be 4cdf 00bc 5f2e 213f
000000c0: 3914 013f 9e86 a53d 27f0 913d dd91 2fbe
000000d0: be7f 22be 2699 88be 087e 06be aed5 013d
000000e0: d6e5 8cbd bd46 333e 2c0b 0d3f 7330 13be
000000f0: d15b 8abe 8019 513e e56e 1c3e 882b 54be
00000100: 4228 8cbd ba53 96bd 4aa3 b83d fc0a 8fbd
00000110: a0dd 20bc 6083 7bbd 50e7 5e3c 0033 9d3a
00000120: 0001 863c 00aa 3a3b 2893 f23d f8da b03d
00000130: c0ca d3bb 2a0c a13d 5a80 91bd 5c23 0cbd
00000140: 7005 f1bd d208 8bbd 38a5 cd3c f02c 413c
00000150: d072 2cbc 807a eabc e0c3 9abb 0806 d93d
00000160: c8fe d73c bae6 a93d 806f f33a 5c3e 07bd
00000170: cc7f 153d 2081 03bd 6257 a43d 7077 a1bc
00000180: f4a0 19bd e078 163d 60e6 97bd f892 76bd
00000190: e0a0 0fbc c842 c73d cc9f c8bd 9881 a9bc
000001a0: 0cb2 2c3d c83a b43d 6070 fcbc 1475 573d
000001b0: 68c1 6b3d b83b 913d 74ad e63d de0c 9abd
000001c0: 84a3 fdbd 7206 843d 84f9 843d c604 e2bd
000001d0: 9622 df3d ae2e 88bd 3cd2 bd3d f848 e53d
000001e0: e8a2 10bd a8cc a6bd 30b7 68bc 086c f13d
000001f0: 645b 123d 449e fabd 2086 b83b 82e6 a43d
00000200: d374 0dbe b562 95be 9360 83be 320a 74be
00000210: 1444 98be 6761 99bd a15e b1be df5d d3bc
00000220: f323 abbe deb8 95bd 3cfe 643e 1206 c33d
00000230: c846 cdbd 6c61 c6bd 6dc0 afbd ce84 25be
00000240: cb8d 4ebe 9603 8bbe 6f6b 69be 6d12 1dbe
00000250: 3c1e 9abd 8ede 51be c798 60be 3e47 0d3e
00000260: 21f8 ccbd 0182 59be 4020 3dbe aef7 f1bd
00000270: cfa1 913e d097 f3bd 6558 66be 9a34 27be
00000280: 54ad 053d 1ecf cdbd 6835 4cbc 370a 25be
00000290: b669 70be 4184 85be 992c 22be 63ac 05be
000002a0: efef 39be 40a6 45be 4069 66bd 50b2 b8bd
000002b0: 406a 16bd e125 50bd 5ed9 77bd 1d33 2d3e
000002c0: 4000 603e 3045 2b3d 232b fdbd d0d8 e03c
000002d0: f0b1 03be 1d58 8dbd e2fc 55be 4205 c9bc
000002e0: 8df1 5ebd 706e 953d 5944 86be b9d5 3cbe
000002f0: 436d 5dbc f4ec 50be e586 37be 3de7 3fbe
00000300: ec2c e3bb ec60 be3e 3b41 ce3d 3a17 da3e
00000310: 412c 1c3f 67a5 983e f6af d63e 6fef eebd
00000320: 6444 f53e 61fd 9cbd d4c1 3f3e 98f9 c43b
00000330: deaf 85bd 11f5 533e 9378 1c3c 2917 bf3d
00000340: c6ed a83c b0b0 693e cf7a a5bd 8e50 313e
00000350: 1616 003d e698 bf3e 23aa 8b3e d0c9 4a3e
00000360: 7397 8abe 1a5d 293e 1d00 ad3d d7ff 4ebe
00000370: d326 e03e 3f85 0bbe f9da 373e 663c 6f3d
00000380: 6708 d43d c286 2b3d 2c8a d93e 11e4 82be
00000390: e57b 04bb f971 6d3d 2a84 513e 64d7 203d
000003a0: 64d2 703d d222 9a3e 70eb f8bc 965e 7a3e
000003b0: f8c1 61bd 5ec9 333d 458f c63d 7f54 2b3f
000003c0: 0439 db3e 6eb4 a5bc b63a 883e 5e6b 4dbe
000003d0: 3648 27be ba25 7ebd d6ec 3bbe 26ad 2d3c
000003e0: 9775 013e 7863 9a3e ad32 fd3e 0e76 24be
000003f0: 5642 34be a897 823d a315 9d3e 9e9b 07be
