saved/almgren_Resnet_ReLU/model.pth (torch, 816455 bytes, 15 tensors)

Y_net.hidden_layers.0.weight f4 [256, 4]
0	0xbebe708d	-0.37195244
1	0xbebf0f03	-0.3731614
2	0x3d192725	0.037390847
3	0xbe5d7f05	-0.21630485
4	0x3e97c278	0.29640555
5	0x3eec2fe9	0.46130303
6	0xbeb53a3d	-0.35395995
7	0xbd8b3ba9	-0.06798489
8	0xbee3a184	-0.44459164
9	0x3c4dce76	0.012561431
10	0x3d9cdbad	0.07659087
11	0x3e7f54a5	0.24934633
12	0x3f1bdd3e	0.60884464
13	0x3c9a44ed	0.018831694
14	0xbea0a4ae	-0.3137564
15	0x3eb88a6c	0.36043108
16	0x3d9ceac2	0.07661964
17	0xbec0e466	-0.37674254
18	0xbddcf5d7	-0.10789078
19	0xbee682bb	-0.45021614
20	0x3e30b388	0.17255986
21	0xbe5d5a2c	-0.21616429
22	0xbe9751e4	-0.29554665
23	0x3ee9bf62	0.45653826
24	0xbe753e10	-0.23949456
25	0x3e68770e	0.22701666
26	0x3d9cad08	0.076501906
27	0xbed0c2f2	-0.4077373
28	0xbe77e45a	-0.24208203
29	0x3ed775b7	0.42081997
30	0x3e91630f	0.28395888
31	0x3ec66bb8	0.38754058
32	0x3ebc2f7c	0.36754978
33	0xbd80386a	-0.0626076
34	0x3d9a6ac4	0.07539895
35	0xbd022756	-0.031775795
36	0x3e5d88db	0.21634237
37	0xbe615b40	-0.22007465
38	0x3ab2d00c	0.0013642325
39	0xbe41544c	-0.18879813
40	0xbed5cdf4	-0.41758692
41	0xbde37b6d	-0.11107526
42	0xbe8c1095	-0.273564
43	0x3ef07505	0.4696428
44	0xbe70b822	-0.23507741
45	0xbd8d442b	-0.06897768
46	0x3e0b5a98	0.13608778
47	0xbeaffc0a	-0.34371978
48	0x3eab0986	0.33405703
49	0xbe6a8903	-0.22903828
50	0x3e72b929	0.23703445
51	0x3c3c7a88	0.011503823
52	0xbedc3b9f	-0.43014237
53	0x3d036283	0.03207637
54	0xbeeec312	-0.46633202
55	0xbce9531a	-0.028482009
56	0x3db56bcb	0.088584505
57	0x3e985269	0.29750374
58	0x3d6f36a8	0.058401734
59	0x3d1abcfc	0.037777886
60	0xbe545d28	-0.20738661
61	0x3e7ed617	0.24886356
62	0xbda1bf6b	-0.07897838
63	0x3e8389f5	0.2569119
64	0xbcde3ad9	-0.02712767
65	0xbe80ca83	-0.25154504
66	0x3e964fe1	0.29357818
67	0xbecb07fa	-0.39654523
68	0xbc5d5169	-0.013508179
69	0xbe6691b9	-0.22516526
70	0xbeb225e2	-0.34794527
71	0x3edcb82a	0.43109256
72	0xbc8489b8	-0.01617895
73	0x3ea46050	0.3210473
74	0xbea5d155	-0.3238627
75	0xbebc5dab	-0.36790213
76	0x3e12310d	0.14276524
77	0xbcac789b	-0.021053603
78	0xbe21d872	-0.15805224
79	0x3ef5184f	0.47870108
80	0x3d9cdf66	0.07659797
81	0x3e9f3b7e	0.31100076
82	0x3e0596c2	0.13045791
83	0xbeb3812e	-0.35059494
84	0xbecff87c	-0.40619266
85	0x3efdad1d	0.49546137
86	0xbd95b5b2	-0.07310046
87	0xbe79620b	-0.24353807
88	0xbed007e1	-0.4063101
89	0x3e95b3bb	0.29238686
90	0xbe97f716	-0.296807
91	0x3d8ccbd8	0.068748176
92	0x3f005bd3	0.5014011
93	0xbdcf6f59	-0.1012866
94	0x3e5868b9	0.21133699
95	0xbe92c19a	-0.2866333
96	0xbd3444de	-0.04401099
97	0xbda92381	-0.08258725
98	0xbd31593f	-0.043298002
99	0xbda11066	-0.07864456
100	0x3f1d3f3d	0.6142462
101	0x3e7b9066	0.24566802
102	0xbd9d4d70	-0.07680786
103	0x3e129be8	0.14317286
104	0xbdd26d7c	-0.10274789
105	0xbe9875cb	-0.2977737
106	0x3e6b6bb7	0.22990309
107	0x3e0e6f22	0.13909581
108	0x3ea74457	0.32669327
109	0xbec50181	-0.3847771
110	0x3e46d94b	0.19418828
111	0x3e85c4ed	0.26126805
112	0x3ef32f23	0.474969
113	0xbe9aa263	-0.30202016
114	0xbe3e3158	-0.1857351
115	0xbe2602ae	-0.1621196
116	0x3e72b229	0.23700775
117	0xbe25d73e	-0.1619539
118	0x3d750b18	0.059825033
119	0x3e100bbf	0.14066981
120	0xbca0ebf4	-0.019643761
121	0x3e00c9fb	0.1257705
122	0x3e5231f8	0.20526874
123	0xbe745fab	-0.2386462
124	0x3eae0b74	0.33993113
125	0xbecfc9c9	-0.40583637
126	0x3ec23698	0.37932277
127	0xbe36bb7f	-0.17844962
128	0x3e4e4db3	0.20146827
129	0x3e234db1	0.15947606
130	0xbe798a33	-0.24369125
131	0x3d50f26e	0.05101245
132	0x3f10f9b4	0.56631017
133	0xbe9902c0	-0.2988491
134	0x3e509b75	0.20371802
135	0x3ad2eca2	0.0016092251
136	0xbc079f59	-0.008277738
137	0xbedf56f6	-0.43621033
138	0xbec7c337	-0.39016125
139	0xbe9f890e	-0.31159252
140	0x3d7be7df	0.061500426
141	0x3d3e5db7	0.046476092
142	0xbe7c77f2	-0.2465513
143	0xbda7f7e7	-0.082015805
144	0x3ec7ee1e	0.39048856
145	0xbe7edee3	-0.24889712
146	0xbb9f3e59	-0.0048597273
147	0x3d6b32f1	0.05742163
148	0x3f0e9a02	0.5570375
149	0xbed04bf3	-0.40682945
150	0xbeac226c	-0.33620012
151	0x3ea4cb19	0.321862
152	0xbe04f1e3	-0.12982897
153	0x3e9e927c	0.30971134
154	0x3e8fa9cc	0.28059232
155	0xbe34a8e5	-0.17642553
156	0x3e848460	0.25882244
157	0xbed10279	-0.408222
158	0x3e54f6db	0.20797293
159	0xbeaf344f	-0.34219596
160	0xbe539246	-0.20661268
161	0xbe58a0c5	-0.21155079
162	0x3e4a0f04	0.1973229
163	0x3d2a7766	0.041617773
164	0x3e9708fb	0.2949904
165	0xbe5ca4a3	-0.21547179
166	0xbe1d3def	-0.15355657
167	0x3e2eb71d	0.1706204
168	0xbe75e3a2	-0.24012616
169	0x3e8d83db	0.2763966
170	0x3ea56e8e	0.3231091
171	0x3e46592e	0.19369957
172	0xb9604dd0	-0.00021391292
173	0x3e5036c6	0.20333394
174	0xbe68bd30	-0.2272842
175	0x3eb577f5	0.35443082
176	0x3e7cba3a	0.24680415
177	0x3e6f71e6	0.23383293
178	0x3e8deed2	0.27721268
179	0xbeb4c482	-0.35306174
180	0x3e20c746	0.15701017
181	0x3e584078	0.21118343
182	0xbdcd6c1e	-0.10030387
183	0xbdf7aaff	-0.12093162
184	0x3eb11736	0.3458802
185	0x3ee0cb5c	0.4390515
186	0xbeafa176	-0.34302872
187	0xbd9d1be3	-0.076713346
188	0xbe35aca3	-0.17741637
189	0x3e66ff4f	0.2255833
190	0xbe995ff2	-0.29956013
191	0xbd2b9b74	-0.0418963
192	0x3ee8ff59	0.45507315
193	0x3eeb6de3	0.45982274
194	0x3e7d80fc	0.24756235
195	0xbe775fff	-0.24157713
196	0x3ef96eba	0.4871729
197	0xbdbca89f	-0.092118494
198	0x3ea733ba	0.32656652
199	0x3ed2d9a3	0.4118167
200	0xbd113892	-0.03545434
201	0x3cdaa9a9	0.026692228
202	0x3e027311	0.12739207
203	0x3ab03d39	0.001344598
204	0xbed0d73f	-0.4078922
205	0xbe977719	-0.29583052
206	0xbda5c888	-0.08094889
207	0xbeb0a07d	-0.34497443
208	0x3ec52d20	0.3851099
209	0x3ea91d6d	0.33030263
210	0x3e810278	0.25197196
211	0x3eabc5da	0.33549386
212	0x3ee73478	0.45157218
213	0x3eecd233	0.4625412
214	0xbe3f85ff	-0.18703459
215	0x3d0e39fa	0.03472326
216	0xbeaa74fb	-0.33292374
217	0xbca8416f	-0.020539014
218	0x3ea10b17	0.31453773
219	0x3ea3c819	0.319886
220	0xbe102bfd	-0.1407928
221	0x3ef90aef	0.48641154
222	0xbed934f2	-0.42423207
223	0xbe28d0b3	-0.16485862
224	0xbdfd9b9b	-0.12383195
225	0xbed0caab	-0.40779623
226	0x3ea2c3f8	0.31790137
227	0x3cefc303	0.029267794
228	0xbe1b4483	-0.15162854
229	0xbca251a7	-0.019814325
230	0x3df336b9	0.11875672
231	0x3d333257	0.04374918
232	0x3eed02a5	0.4629108
233	0xbe522048	-0.20520127
234	0x3db99541	0.09061671
235	0xbe352c54	-0.17692691
236	0x3ed90603	0.423874
237	0x3eccf81e	0.40033048
238	0x3e17f2fa	0.14838782
239	0xbde84e2c	-0.11343035
240	0x3ec0221e	0.3752603
241	0xbee2118e	-0.44154018
242	0x3c84f770	0.016231269
243	0xbed35a9c	-0.41280067
244	0x3dea66bc	0.11445376
245	0xbd0a80d9	-0.033814285
246	0xbeb41c27	-0.3517773
247	0xbe1c7b88	-0.15281498
248	0xbf0e1909	-0.5550695
249	0xbef1157c	-0.47086704
250	0xbe9f7149	-0.31141117
251	0xbed7f5fe	-0.42179865
252	0xbebe5add	-0.37178698
253	0x3ded40bd	0.115846135
254	0x3d64d5e5	0.05586805
255	0x3ec739b8	0.38911223

Y_net.hidden_layers.0.bias f4 [256]
0	0x3eb704ec	0.35745943
1	0xbef79cb2	-0.48361737
2	0x3ea703dc	0.32620132
3	0xbefc767c	-0.49309146
4	0xbe7801c5	-0.24219425
5	0xbec301b7	-0.38087246
6	0x3e1e6b8a	0.1547071
7	0x3edccb0a	0.43123657
8	0xbcd324cb	-0.02577438
9	0xbdeb296c	-0.1148251
10	0xbdd1b122	-0.102388635
11	0x3e81e118	0.25367045
12	0x3e39841c	0.18116802
13	0x3dcfbd6e	0.10143553
14	0x3e6f5370	0.23371673
15	0xbe093c9f	-0.13402031
16	0xbdbf147c	-0.09330079
17	0x3bd62d9e	0.0065361997
18	0x3ebe6b1b	0.3719109
19	0x3eec0642	0.46098524
20	0xbee1f76b	-0.44134077
21	0x3eb4100f	0.35168502
22	0xbe2c630e	-0.16834661
23	0xbe83ee41	-0.2576771
24	0x3e8bb49b	0.2728623
25	0xbe823c42	-0.25436598
26	0xbe30a2a8	-0.17249548
27	0xbf0bf88a	-0.54676116
28	0x3db32f32	0.08749236
29	0xbebfa039	-0.37426928
30	0x3deb815f	0.11499285
31	0x3ecbce78	0.3980596
32	0x3f008314	0.5020001
33	0xbe6c28c5	-0.23062427
34	0x3e5cd7c6	0.21566686
35	0x3ef01054	0.46887457
36	0x3edab368	0.42715
37	0xbd8a0cdd	-0.06740735
38	0xbf171b3f	-0.5902595
39	0x3eb48457	0.35257217
40	0xbacc030a	-0.001556487
41	0xbf03f2b8	-0.51542234
42	0xbe9fcf22	-0.31212717
43	0x3e7e5512	0.24837139
44	0xbe599919	-0.21249808
45	0x3de841bd	0.113406636
46	0xbebcb748	-0.36858582
47	0xbf00a4ee	-0.5025166
48	0xbedd57d9	-0.43231085
49	0xbee742f4	-0.4516827
50	0x3edde888	0.4334147
51	0xbede1fc2	-0.43383604
52	0xbe08dbcf	-0.133651
53	0x3ebc86c5	0.3682157
54	0x3ef1ea15	0.47248903
55	0x3e85327e	0.26015085
56	0x3e809d22	0.25119883
57	0x3f0564ba	0.5210682
58	0x3df55ad2	0.11980213
59	0xbef50299	-0.47853544
60	0xbedbdbf1	-0.4294124
61	0xbd04318c	-0.032273814
62	0xbd194b2a	-0.037425198
63	0x3d9c9fdd	0.07647679
64	0xbe127e07	-0.14305888
65	0xbec82ec6	-0.39098185
66	0xbdaf3352	-0.085547104
67	0x3ebeb99c	0.37250984
68	0x3f028742	0.5098764
69	0x3e9c7246	0.30555934
70	0xbe08ecf3	-0.13371639
71	0xbe1bf8b9	-0.15231599
72	0x3eb1c6c6	0.34721965
73	0x3d407601	0.046987537
74	0x3c0f1437	0.008732847
75	0x3e3d5d16	0.1849254
76	0x3e36e3ea	0.1786038
77	0x3f0f80ae	0.56055725
78	0x3e050195	0.12988885
79	0x3ea321a7	0.31861612
80	0xbe5afeae	-0.21386215
81	0x3f23a5ce	0.6392487
82	0x3e69d497	0.22835003
83	0x3e643ca6	0.2228876
84	0xbe65341d	-0.22383161
85	0x3f01ad5f	0.5065517
86	0x3ea91786	0.3302576
87	0xbe63be40	-0.22240543
88	0x3f0bbc9e	0.5458468
89	0xbdc543fa	-0.09632106
90	0x3e26b1bb	0.16278736
91	0xbb9521f7	-0.004551168
92	0x3e948802	0.29010016
93	0xbf064af7	-0.5245814
94	0xbe1c3279	-0.15253629
95	0x3f079626	0.52963483
96	0x3f0f1ab3	0.55900115
97	0xbcc4e4f8	-0.024034962
98	0xbe8daa96	-0.2766921
99	0x3ead9661	0.33903793
100	0xbe24e9b0	-0.1610477
101	0x3ee0cb44	0.4390508
102	0x3ee2a6f2	0.44267994
103	0x3e5a02c4	0.21290118
104	0x3f1ca59e	0.6119021
105	0x3ec95269	0.39320686
106	0xbe2d50e3	-0.16925387
107	0xbed07b74	-0.40719187
108	0xbe61c540	-0.22047901
109	0xbe20e319	-0.15711631
110	0x3ed9a12c	0.42505777
111	0xbf0b7fee	-0.5449208
112	0xbe5f31b7	-0.21796308
113	0xbf0c946c	-0.54913974
114	0xbe5920dd	-0.21203943
115	0xbe805330	-0.25063467
116	0x3d28f8b6	0.041252814
117	0xbd340fde	-0.043960445
118	0x3cc032c2	0.023461703
119	0x3e45948b	0.19294946
120	0x3de02c40	0.1094594
121	0xbef4af1f	-0.47789857
122	0xbe9dacc6	-0.30795878
123	0x3cb44418	0.022005126
124	0xbdb441aa	-0.08801587
125	0x3d983ab9	0.074330755
126	0xbd3c8d66	-0.046033286
127	0xbe93b670	-0.28850126
128	0x3e90d9d6	0.28291196
129	0x3e51519e	0.2044129
130	0x3e6c26a1	0.23061611
131	0x3e0eee29	0.13958038
132	0x3f092002	0.53564465
133	0xbebff1a3	-0.37489042
134	0xbcf2dc87	-0.029646171
135	0xbecf0148	-0.40430665
136	0x3e86c23e	0.2632007
137	0x3d279703	0.0409155
138	0xbebcb5f3	-0.36857566
139	0xbeb47111	-0.35242513
140	0x3ee6ecf0	0.45102644
141	0x3e33f3ce	0.17573473
142	0x3d3dd082	0.046341427
143	0xbe4ae8c9	-0.19815363
144	0xbefb51ca	-0.49085838
145	0x3e909ed6	0.28246182
146	0xbee63bd9	-0.44967535
147	0x3e116526	0.14198741
148	0xbe6a02ed	-0.22852679
149	0x3c71ce7d	0.014758703
150	0x3e2e0923	0.16995673
151	0xbd1e7ca6	-0.038693093
152	0x3e3834c0	0.17988873
153	0xbecf3d6f	-0.40476558
154	0x3ec3bbc0	0.3822918
155	0x3e02b64b	0.12764852
156	0xbefabd68	-0.4897263
157	0xbecf3c03	-0.40475473
158	0xbe8cfddf	-0.27537438
159	0x3e11b739	0.1423005
160	0x3dc83a14	0.097767025
161	0xbe661a4a	-0.22470966
162	0x3eae0a42	0.339922
163	0x3ead6da3	0.3387271
164	0x3d93d64b	0.072186075
165	0x3caa443d	0.020784492
166	0xbe7f1d14	-0.24913436
167	0x3e3b7cfc	0.18309397
168	0x3de153c0	0.11002302
169	0xbf0a749a	-0.5408417
170	0xbd843f95	-0.0645744
171	0xbed4e9bb	-0.41584572
172	0xbe5d8791	-0.21633746
173	0x3edbb0d7	0.42908356
174	0x3ee18983	0.44050226
175	0xbeb58024	-0.35449326
176	0xbd917fe8	-0.07104474
177	0xbed6cad8	-0.41951632
178	0xbe18b8fc	-0.14914316
179	0xbee801b4	-0.453138
180	0xbd77e613	-0.06052215
181	0xbd94c9c3	-0.072650455
182	0x3ec9705a	0.3934353
183	0xbcebd494	-0.028787889
184	0xbec5484b	-0.38531718
185	0x3ef3ce24	0.4761821
186	0xbce69182	-0.028145555
187	0xbecc2bf9	-0.39877298
188	0x3c5a1a4f	0.0133119365
189	0xbe89c40b	-0.2690738
190	0x3e9baf4c	0.30407178
191	0xbec82586	-0.39091128
192	0xbe9b7159	-0.30359915
193	0xbea9c630	-0.33159018
194	0x3ed92a83	0.42415246
195	0x3ebd9f77	0.37035725
196	0xbd1b6371	-0.03793663
197	0x3e609742	0.219327
198	0x3ee0021f	0.43751618
199	0x3f14b83a	0.5809361
200	0x3ed522c5	0.4162809
201	0xbee3205b	-0.44360623
202	0x3ecc6a5d	0.399249
203	0x3eb93f8b	0.36181292
204	0xbefbe86e	-0.49200767
205	0x3df267e9	0.118362255
206	0xbed1edc4	-0.41001713
207	0xbe9b8014	-0.30371153
208	0xbeb3f9dd	-0.35151568
209	0x3eee1d20	0.46506596
210	0xbd2cc41a	-0.042179205
211	0xbd8dae68	-0.06918031
212	0x3db3003c	0.08740279
213	0xbee72f98	-0.451535
214	0xbdc8a3c3	-0.0979686
215	0x3ebecec0	0.37267113
216	0xbcd8826d	-0.02642938
217	0xbef37bd6	-0.47555417
218	0x3e8c804e	0.2744164
219	0xbefd21c9	-0.4943984
220	0x3e951a74	0.29121745
221	0xbe0676c6	-0.13131246
222	0xbeea8263	-0.45802602
223	0x3e7a5451	0.24446227
224	0x3c8bb542	0.017054204
225	0xbf16c917	-0.5890059
226	0x3ec976b7	0.39348385
227	0xbed3823b	-0.41310295
228	0x3b98dedc	0.004665239
229	0x3f0f970e	0.56089866
230	0xbec70775	-0.38872877
231	0x3ec42450	0.38308954
232	0x3dcfaec5	0.101407565
233	0xbecc7170	-0.39930296
234	0xbdc293d6	-0.09500854
235	0x3d0f24d6	0.03494724
236	0x3e8404d1	0.25784925
237	0xbdfdef2e	-0.123991355
238	0x3d9a44d6	0.07532661
239	0x3e9c981f	0.3058481
240	0xbee87e5c	-0.45408905
241	0x3f18d124	0.59694123
242	0x3ce58d90	0.028021604
243	0xbb3bbd18	-0.0028646644
244	0xbeff326f	-0.49843165
245	0xbe6ba66e	-0.23012707
246	0xbd2809b8	-0.041024894
247	0x3f01308e	0.50464714
248	0x3d925c27	0.07146483
249	0x3e9ebc13	0.31002864
250	0xbea3a94b	-0.31965098
251	0xbe79de87	-0.24401294
252	0xbeb5049b	-0.35355076
253	0xbef719d5	-0.48261896
254	0x3ebfde8f	0.37474486
255	0xbeb26bf7	-0.34847996

Y_net.hidden_layers.1.weight f4 [256, 256]
0	0xbd971d35	-0.07378618
1	0xbc9efe19	-0.019408273
2	0x3d413561	0.047170047
3	0x3c00033a	0.007813269
4	0x3d077df6	0.03307911
5	0x3bcb5bf9	0.0062060324
6	0x3d1ba307	0.037997272
7	0xbcaf6a08	-0.021412864
8	0xbcc9b685	-0.024623165
9	0xbdb46927	-0.08809119
10	0xbd0ae969	-0.033914004
11	0xbbb19b39	-0.0054201153
12	0xbd2319a8	-0.03981939
13	0xbc26b380	-0.010174632
14	0x3d51fb0a	0.0512648
15	0x3bb1f0c4	0.005430313
16	0xbd6b82ad	-0.05749767
17	0x3d3dd125	0.046342034
18	0x3dbe1f30	0.09283292
19	0xbcc3cc48	-0.02390112
20	0x3d5b809c	0.05358945
21	0x3e0d8484	0.13820082
22	0x3cb13bca	0.021634955
23	0xbdac6cdf	-0.08419203
24	0x3d13a9c5	0.036050577
25	0xbc3cc187	-0.01152075
26	0x3d47599a	0.048669435
27	0xbce6fbc8	-0.02819623
28	0xbd97a02a	-0.07403596
29	0xbda3fa43	-0.08006718
30	0x3d973655	0.0738341
31	0x3bde0703	0.006775738
32	0x3d85a6f7	0.06525987
33	0xbda96c05	-0.08272556
34	0xbccb6175	-0.024826745
35	0x3d3ef8a4	0.04662384
36	0x3d431a63	0.047632586
37	0xbd9ab3cb	-0.07553824
38	0x3cd08c75	0.0254576
39	0xbd66da11	-0.056360308
40	0x3ccb0927	0.024784638
41	0x3cb413d5	0.021982113
42	0xbd4183e4	-0.04724492
43	0x3c3445ce	0.011002971
44	0x3d6d39a0	0.057916284
45	0x3d107e57	0.035276737
46	0x3c21aeea	0.009868363
47	0x3cdb96e4	0.026805349
48	0x3d1f4f8f	0.038894232
49	0x3c58e4a7	0.013238109
50	0x3d8b4576	0.06800358
51	0x3cf29999	0.029614257
52	0x3cc45ee0	0.023971021
53	0x3c9eb94a	0.019375462
54	0x3ce6bc72	0.02816603
55	0x3d03af1b	0.032149415
56	0x3c76b369	0.015057423
57	0x3dd54645	0.104137935
58	0x3a2afa1f	0.00065222563
59	0xbc21368d	-0.009839666
60	0x3c856e39	0.01628791
61	0x3d3d24e4	0.04617776
62	0xbd53b540	-0.051686525
63	0xbc5b531c	-0.013386514
64	0xbd638f07	-0.055556323
65	0xbce33827	-0.027736736
66	0xbc034968	-0.008013107
67	0x3e167ba8	0.14695609
68	0x3d6dfe2d	0.05810373
69	0x3d9686dc	0.07349941
70	0xbd4a1bf1	-0.049343053
71	0xbd95c1cf	-0.07312357
72	0xbd8b5556	-0.06803386
73	0x3df78f8c	0.12087926
74	0xbc1868fc	-0.009302374
75	0xbd947830	-0.072494864
76	0xbd97b980	-0.07408428
77	0x3da23e86	0.07922082
78	0xbd2e3137	-0.042527404
79	0x3d1978ee	0.037468843
80	0xbc334be4	-0.010943387
81	0x3e210e38	0.1572808
82	0x3d013fb3	0.03155489
83	0xbb7643a6	-0.0037576943
84	0xbd26a09c	-0.040680513
85	0xbd5af5fd	-0.05345725
86	0x3d3b8f5b	0.04579101
87	0x3db36f09	0.08761413
88	0x3e0cdaef	0.13755392
89	0x3cdac5b5	0.026705602
90	0xbd98861c	-0.07447454
91	0x3dc6a8e7	0.09700184
92	0x3d3ad46c	0.045612738
93	0xb9da8542	-0.00041679485
94	0x3cd59873	0.02607367
95	0x3d73ab34	0.059489444
96	0xbd3b48ec	-0.04572384
97	0xbd430681	-0.047613624
98	0xbd83c94d	-0.064348795
99	0xbcb6b2d3	-0.022302067
100	0x3c2a358f	0.010388746
101	0xbcf70199	-0.030152129
102	0x3b323cdf	0.0027196927
103	0x3c5d856f	0.013520583
104	0x3ddb8e1c	0.107204646
105	0x3e11eac8	0.14249718
106	0xb80727e2	-3.2223652e-05
107	0xbde058cc	-0.10954437
108	0x3d7e9ec4	0.06216313
109	0xbd44ab0d	-0.04801469
110	0x3d71f6a7	0.059073117
111	0x3db8c094	0.09021106
112	0xbd2cb96b	-0.042169016
113	0x3cba2b20	0.022725642
114	0xbd1a1ff7	-0.03762814
115	0x3c96d902	0.018414024
116	0xbd17d6a5	-0.037069935
117	0x3ba8ac1e	0.005147471
118	0xbcf63aea	-0.03005739
119	0x3e11e929	0.142491
120	0xbc8d4f8f	-0.01724985
121	0xbc7c58cf	-0.015402033
122	0xbd2c2eef	-0.042036947
123	0x3c3eec81	0.011653067
124	0xbd1da8a1	-0.038490895
125	0xbc77fc30	-0.01513581
126	0x3cf339f8	0.029690728
127	0xbdae6456	-0.08515231
128	0xbd4c1058	-0.049820274
129	0x3e04cbc3	0.12968354
130	0xbd8c39db	-0.068469726
131	0x3d40f38d	0.047107268
132	0x3d925b63	0.07146337
133	0x3b2b4874	0.0026135715
134	0x3c865113	0.016396081
135	0xbd743ca7	-0.059628155
136	0x3d354dcb	0.044263642
137	0x3d180d37	0.037121978
138	0x3d3c0cbc	0.045910582
139	0xbd3d6bc0	-0.046245337
140	0x3bc77e5b	0.006088061
141	0x3c33da9d	0.010977414
142	0x3c4e26da	0.012582505
143	0x3dc18b59	0.094504066
144	0xbd078b2e	-0.033091716
145	0x3c66a6f0	0.014077887
146	0xbc880c9a	-0.016607571
147	0xbd9211e2	-0.07132317
148	0xba142711	-0.00056515733
149	0x3c9f50ed	0.019447768
150	0xbce56590	-0.02800253
151	0xbd628ad0	-0.055308163
152	0x3d1624be	0.036656134
153	0x3d2c0d6b	0.042004984
154	0x3d59d274	0.05317922
155	0x3957ac28	0.00020568131
156	0xbb092daf	-0.002093177
157	0xbdb56cf7	-0.08858674
158	0xbcd11b53	-0.025525725
159	0x3ce05ff9	0.027389513
160	0x3cddd7f7	0.02708052
161	0xbd52cd89	-0.051465545
162	0x3dbb64e8	0.09150106
163	0xbd74c399	-0.05975685
164	0xbca39f6e	-0.019973483
165	0xbb9a12ac	-0.004701933
166	0xbce46f6d	-0.027885163
167	0x3ce38c43	0.027776843
168	0x3dabc08d	0.083863355
169	0x3bcc26d5	0.006230215
170	0x3d81f6ce	0.063459024
171	0xbd890e08	-0.066921294
172	0xbc252fac	-0.010082167
173	0x3cbd5e7e	0.023116346
174	0x3e035732	0.12826231
175	0x3bd3a492	0.0064588273
176	0x3de0fb01	0.10985375
177	0xbdddb00a	-0.108245924
178	0xbd66efca	-0.056381024
179	0x3d2800d6	0.041016422
180	0x3d0d0b93	0.034434866
181	0x3cc9bd80	0.024626493
182	0x3d12ff10	0.035887778
183	0x3da6cce0	0.081445456
184	0x3a64f3d2	0.0008733842
185	0x3d16bbd3	0.036800217
186	0x3d110605	0.03540613
187	0xbcb89ad3	-0.022534763
188	0x3d271f18	0.040801138
189	0x3d7f8736	0.062384807
190	0x3db193be	0.08670758
191	0x3bb11d5d	0.0054051117
192	0x3c5398f9	0.0129148895
193	0x3ceb6550	0.028734833
194	0x3d8d1da7	0.06890421
195	0x3e205131	0.15655972
196	0x3cc3b8cb	0.023891827
197	0x3d0cb5c8	0.034353048
198	0x3d0d4eb9	0.034498904
199	0x3ca53796	0.020168107
200	0x3cf81bc4	0.030286677
201	0x3d9d02ee	0.076665744
202	0x3d6c5b78	0.05770442
203	0xbc2e04e6	-0.010621285
204	0xbaf215cc	-0.0018469631
205	0x3d1c358c	0.038137004
206	0x3bffeb4d	0.0078100325
207	0x3cdcf0be	0.026970264
208	0x3d5605bf	0.052251574
209	0xbd274692	-0.040838785
210	0xbc853a78	-0.016263232
211	0x3b5e5a1f	0.0033928228
212	0x3d2d7c3d	0.04235481
213	0xbb888ad2	-0.0041669393
214	0x3d5bad89	0.053632293
215	0xbd39f614	-0.045400694
216	0x3dd05f60	0.10174441
217	0x3d08f162	0.033433326
218	0x3be47903	0.0069724335
219	0x3c151d82	0.0091012735
220	0xbcbdd3ef	-0.023172347
221	0xbd8b8bde	-0.06813787
222	0xb95ef286	-0.00021261917
223	0x3d822a3b	0.06355711
224	0x3df6d38b	0.12052067
225	0x3d18a0fb	0.037262898
226	0x3d7a2188	0.061067134
227	0x3dc2b172	0.09506501
228	0xbd0a442e	-0.033756427
229	0x3bd0ed8d	0.0063759745
230	0xbd92ebdd	-0.071738936
231	0xbd86d012	-0.06582655
232	0xbbd89d7b	-0.00661057
233	0xbdb70c4e	-0.08937894
234	0xbe1772fc	-0.14789957
235	0x3c64642e	0.0139399
236	0x3b9da247	0.0048106047
237	0x3c38d637	0.011281542
238	0x3d831920	0.064012766
239	0x3c88f5ec	0.016718827
240	0xbcf16223	-0.02946574
241	0x3d95331f	0.07285141
242	0xbc54950c	-0.012974989
243	0x3d41ed70	0.04734558
244	0x3d8ee3d3	0.06977048
245	0x3da2984a	0.07939203
246	0xbd85db77	-0.06536
247	0x3cd94429	0.02652176
248	0x3d844872	0.0645913
249	0xbcb342e7	-0.021882487
250	0x3d31eb0a	0.04343704
251	0xbc96f5fb	-0.01842784
252	0x3d1ec782	0.038764484
253	0x3c830573	0.01599381
254	0x3db218a1	0.08696104
255	0xbdf58a95	-0.11989323

Y_net.hidden_layers.1.bias f4 [256]
0	0x3d3a45eb	0.045476835
1	0xbd964d4a	-0.073389605
2	0xbcfbaa5c	-0.030720882
3	0xbd9e5a87	-0.077321105
4	0xbc910cfa	-0.017706383
5	0xbca5192a	-0.0201536
6	0xbc6911f6	-0.014225474
7	0x3cddf36e	0.027093615
8	0xbdddf21b	-0.108371936
9	0x3d30efd1	0.043197457
10	0xbd85c1b3	-0.06531086
11	0x3d9c812e	0.076418266
12	0xbd552a68	-0.052042395
13	0xbd7b6ba5	-0.061381955
14	0xbde2b5b0	-0.110698104
15	0xbd070b92	-0.03297002
16	0x3a8afce9	0.0010603938
17	0x3b727963	0.0036998622
18	0xbd849d50	-0.064753175
19	0xbcdaa045	-0.02668775
20	0xbd848d76	-0.06472294
21	0xbd8f7b14	-0.07005897
22	0xbcddac76	-0.027059775
23	0xbc6c7b04	-0.014433626
24	0x3d6b0684	0.05737926
25	0xbd0da1d3	-0.034578156
26	0xbdd1dd79	-0.10247321
27	0xbd810fc0	-0.06301832
28	0xbc8c8623	-0.017153805
29	0xbc609a31	-0.013708637
30	0xbdd72a0f	-0.10506069
31	0x3c8f3324	0.01748044
32	0x3d73b423	0.059497964
33	0xbd377852	-0.04479248
34	0x3ca92f39	0.0206524
35	0x3cf2acf8	0.029623494
36	0x3d4aed49	0.0495427
37	0xbdf3b1c6	-0.11899142
38	0xbd0e17f3	-0.03469081
39	0x3c52d7df	0.0128688505
40	0xbdedbd93	-0.11608424
41	0xbde052a8	-0.109532654
42	0xbdb91e8e	-0.09039031
43	0x3d120203	0.03564645
44	0xbd8ebd59	-0.06969709
45	0xbd66fe61	-0.05639494
46	0xbc1adba7	-0.009451783
47	0xbcf65335	-0.030068973
48	0xbd46382a	-0.048393406
49	0xbdc2caf4	-0.095113665
50	0x3d268772	0.040656514
51	0xbcf9cef6	-0.030494194
52	0xbc07489e	-0.008257059
53	0xbd01bd47	-0.03167465
54	0xbd1eb381	-0.038745407
55	0xbdd45d5f	-0.103693716
56	0x3d315fdd	0.043304313
57	0x3d8eb388	0.069678366
58	0xbbc7257b	-0.006077466
59	0xbcec2611	-0.028826745
60	0x3d92ea94	0.071736485
61	0xbdb19d77	-0.08672612
62	0x3d38f469	0.045154963
63	0xbe0a1013	-0.13482694
64	0xbde909a5	-0.11378793
65	0xbc6d9144	-0.014499966
66	0xbd6bff77	-0.057616677
67	0x3d558bb7	0.052135196
68	0xbd945600	-0.07242966
69	0xbdafd6be	-0.08585881
70	0x3d00aa79	0.031412575
71	0x3c2bc9ab	0.010485093
72	0x3d963959	0.07335157
73	0xbb1af9be	-0.0023647393
74	0xbdec49f4	-0.11537543
75	0x3dc58d2e	0.096460685
76	0xbd7f5eda	-0.062346317
77	0x3d0420e8	0.032257944
78	0xbc6ac885	-0.014330034
79	0xbd1c0e8e	-0.038099818
80	0xbe040a2a	-0.12894502
81	0x3dbcd415	0.09220139
82	0xb9daa1ce	-0.00041700754
83	0xbcbce2d2	-0.023057375
84	0x3cc9a385	0.024614105
85	0xbd85333d	-0.065039136
86	0xbda10d7d	-0.07863901
87	0xbddbd553	-0.10734048
88	0x3da85468	0.08219224
89	0xbdc5cdec	-0.09658417
90	0xbdb9812d	-0.090578414
91	0xbd55a6eb	-0.05216114
92	0xbdad0d1b	-0.08449765
93	0xbdd63987	-0.10460191
94	0xbc6096f9	-0.01370787
95	0xbc023856	-0.007948002
96	0x3d411f92	0.04714925
97	0x3d130c9e	0.035900705
98	0xbd5f8fe3	-0.05458058
99	0xbd3be47b	-0.045872193
100	0xbdc847f7	-0.09779351
101	0xbdba9057	-0.09109562
102	0xbd3d3e92	-0.04620225
103	0x3cc9f638	0.024653539
104	0xbc1eb29f	-0.009686141
105	0xbdcecdd1	-0.1009785
106	0xbd3e8bd6	-0.046520077
107	0x3c124029	0.00892643
108	0xbd6606f7	-0.056158986
109	0xbd7f137f	-0.062274452
110	0x3d230114	0.03979595
111	0xbdeaadf0	-0.11458957
112	0xbb6df89c	-0.0036311513
113	0xbc45259a	-0.012032891
114	0xbe09e8d1	-0.13467719
115	0x3e094090	0.13403535
116	0xbdb8a229	-0.090153046
117	0x3dc095af	0.0940355
118	0xbc5408f1	-0.012941585
119	0xbb946636	-0.004528786
120	0x3c65f8af	0.014036342
121	0xbd81a0ba	-0.06329484
122	0x3aa88200	0.0012856126
123	0xbd37f604	-0.044912353
124	0xbd9b5748	-0.07585007
125	0xbe0801fb	-0.13282005
126	0x3d3d803f	0.046264883
127	0xbaa18c2a	-0.0012325097
128	0x3dc6c75b	0.09705993
129	0xbd391393	-0.045184683
130	0x3d87991b	0.066209994
131	0x3c7cda01	0.015432836
132	0x3db2f639	0.087383695
133	0xbde83603	-0.11338427
134	0xbd56ff1d	-0.05248939
135	0xbcfe6e1b	-0.031058362
136	0xbd8cfa27	-0.0688365
137	0xbd7cca4d	-0.061716367
138	0xbdcf733c	-0.10129401
139	0xbd2146ce	-0.039374165
140	0xbcf968b6	-0.030445438
141	0xbc414993	-0.011797327
142	0xbd1f4004	-0.03887941
143	0x3a8ec337	0.0010891919
144	0xbc6b1bb4	-0.014349867
145	0xbd88d81c	-0.066818446
146	0xbd6d8081	-0.05798388
147	0x3d38d8e0	0.045128703
148	0x3d0f676d	0.035010744
149	0xbc8cf046	-0.017204415
150	0xbca5db1b	-0.02024608
151	0x3dfde47d	0.12397096
152	0x3b400786	0.002930136
153	0xbdbf2d26	-0.09334783
154	0xbd7613ae	-0.06007736
155	0x3c7437b1	0.014905856
156	0xbc8b770c	-0.01702454
157	0xbd3f2745	-0.04666831
158	0xbd55c231	-0.05218715
159	0x3d3ebe17	0.046568003
160	0xbc490aad	-0.012270612
161	0xbdd5b3db	-0.10434695
162	0xbd80f296	-0.062962696
163	0x3d7818d8	0.060570568
164	0x3d0009cd	0.031259347
165	0xbddd36b8	-0.108014524
166	0xbd549bbe	-0.05190634
167	0x3cfb595f	0.030682264
168	0xbd4d6f45	-0.050154943
169	0x3cc0b180	0.023522139
170	0xbd263579	-0.04057834
171	0xbdc1cdd8	-0.0946309
172	0xbdb6fef3	-0.089353465
173	0x3d139e01	0.036039356
174	0x3d11bd56	0.035580955
175	0x3cb415f2	0.02198312
176	0xb9c2b578	-0.00037137768
177	0xbe1d6d23	-0.15373664
178	0xbd2549da	-0.040353633
179	0xbd94233f	-0.07233285
180	0xbd4f4edd	-0.05061232
181	0x3dc280eb	0.094972454
182	0xbd90faa0	-0.07079053
183	0x3b11df38	0.0022258293
184	0x3dca95dd	0.098918654
185	0x3d06baed	0.03289311
186	0xbd2a7afb	-0.04162119
187	0xbd6cf075	-0.057846505
188	0xbd7cd29e	-0.061724298
189	0xbdc22836	-0.09480326
190	0xbcac31aa	-0.021019775
191	0xbe0eee15	-0.13958009
192	0x3acd8d08	0.0015682289
193	0xbdca0bf1	-0.09865559
194	0xbd29a09a	-0.041412927
195	0x3d23bb06	0.03997328
196	0xbd2bbf1c	-0.041930303
197	0xbdb87ce4	-0.09008196
198	0xbd5bcad0	-0.053660214
199	0xbb7116a3	-0.0036787174
200	0x3d4b27b8	0.049598426
201	0x3c839d25	0.016066143
202	0xbc1a7f77	-0.009429804
203	0x3d2376cd	0.03990822
204	0x3cb7147f	0.02234864
205	0x3df564ba	0.11982103
206	0xbdade5e5	-0.084911145
207	0xbccfdd02	-0.02537394
208	0xbdd832ae	-0.105565414
209	0x3d9de3ae	0.07709442
210	0x3dbe35ca	0.09287603
211	0x3bb1cab9	0.0054257778
212	0xbe1af72c	-0.15133351
213	0x3c58121b	0.01318791
214	0xbd84c578	-0.06482977
215	0x3dea1712	0.114301816
216	0xbc8645ac	-0.016390644
217	0x3ce4d532	0.02793369
218	0x3d9ceeda	0.07662745
219	0x3c9266b6	0.017871242
220	0xbd6e70b6	-0.05821296
221	0xbd58bcae	-0.052914314
222	0xbcec11ce	-0.028817084
223	0xbddf4b76	-0.10903065
224	0xbd87e0b6	-0.06634657
225	0xbd834f19	-0.06411571
226	0xbd1b4feb	-0.037918013
227	0xbd54a91a	-0.05191908
228	0xbd8d5ea0	-0.06902814
229	0x3d444b49	0.04792336
230	0xbdf7e4c2	-0.12104179
231	0xbd613800	-0.054985046
232	0x3db88428	0.09009582
233	0x3d2e1081	0.042496208
234	0xbd94bb49	-0.07262284
235	0xbcc87572	-0.024470065
236	0xbd8b0a59	-0.06789083
237	0xbd2644dd	-0.040593017
238	0x3b10458e	0.0022014114
239	0x3cc56db8	0.02410017
240	0x39983300	0.00029029697
241	0x3d05b49d	0.03264295
242	0x3d8c1f6b	0.0684193
243	0xbd8c9a69	-0.06865389
244	0xbcb1ca4b	-0.021702906
245	0xbdaa4432	-0.083137885
246	0xbd77de89	-0.06051496
247	0x3d8006f1	0.06251324
248	0xbdce4b3f	-0.10072946
249	0x3d4b4a22	0.049631245
250	0xbe007eac	-0.12548321
251	0xbd5284f9	-0.051396344
252	0xbdeeb62f	-0.116558425
253	0xbe03e191	-0.12879016
254	0xbd991be1	-0.074760206
255	0x3d58561c	0.052816495

Y_net.hidden_layers.2.weight f4 [256, 256]
0	0xbc89a6ac	-0.016803108
1	0x3da81987	0.08207994
2	0xbd83a9cc	-0.064288706
3	0xbd8099e0	-0.06279349
4	0x3cc10ea5	0.023566553
5	0x3dc51129	0.09622414
6	0x3d06e10f	0.032929476
7	0x3d227222	0.039659627
8	0x3cdd76d6	0.027034204
9	0xbc5fecc8	-0.013667293
10	0x3d1e3880	0.0386281
11	0x3d5efbf1	0.05443949
12	0x3d10a5b4	0.035314277
13	0xbcf73695	-0.030177394
14	0xbcb5b8ce	-0.022182848
15	0x3d3c0c9b	0.04591046
16	0xbd619982	-0.055078037
17	0xbd1236dc	-0.03569685
18	0xbd274136	-0.040833674
19	0x3d0c41d2	0.03424246
20	0xbcaeb44f	-0.021326212
21	0xb98d0bf4	-0.00026902521
22	0x3d2078f4	0.03917785
23	0x3c065e4a	0.008201191
24	0xbd40c16e	-0.04705947
25	0xbd3e171a	-0.04640875
26	0x3d0dc932	0.034615703
27	0x3d4522a8	0.048128754
28	0xbdb083db	-0.086188994
29	0xbd0f8faf	-0.035049137
30	0xbd1cb198	-0.038255304
31	0xbd466936	-0.04844018
32	0x3c595b1e	0.013266353
33	0x3da8af08	0.082365096
34	0xbbe972a6	-0.007124263
35	0xbd83f7fe	-0.06443785
36	0xbd640e87	-0.055677917
37	0x3cfadc9d	0.030622775
38	0xbcad101b	-0.021125844
39	0xbd7d4609	-0.06183437
40	0x3d29fc7b	0.04150055
41	0xba80563e	-0.0009791327
42	0xbc882dea	-0.016623456
43	0xbd289b53	-0.041163754
44	0x3ce29e96	0.02766351
45	0x3d1dba89	0.038507972
46	0xbc00db7c	-0.007864829
47	0xb8a217f1	-7.7292214e-05
48	0x3ca4f90c	0.020138286
49	0xbd3a15ee	-0.04543107
50	0xbbe13899	-0.006873202
51	0xbb1294f4	-0.0022366615
52	0x3c6c94f4	0.01443981
53	0xbd2a1790	-0.041526377
54	0xbd10f94a	-0.03539399
55	0xbc6b16a3	-0.014348659
56	0xbce90b06	-0.02844764
57	0x3d747de8	0.059690386
58	0x3d0822e4	0.0332364
59	0x3dcde180	0.10052776
60	0x3ce90c43	0.02844823
61	0xbd3041d0	-0.043031514
62	0xbd4c5e3d	-0.04989456
63	0xbcca7f4a	-0.0247189
64	0x3dc07aba	0.09398408
65	0xbba9c103	-0.0051804795
66	0xbc810411	-0.01574901
67	0xbd1cdb50	-0.03829509
68	0xbc6abbba	-0.014326984
69	0x3c2c9a64	0.0105348565
70	0x3d8c1dfa	0.06841655
71	0x3d751d38	0.05984232
72	0xbcefe0d9	-0.02928202
73	0xbd11b646	-0.03557422
74	0xbd9b09ca	-0.075702265
75	0xbd45f290	-0.04832703
76	0x3c99b565	0.018763253
77	0xbd1491cb	-0.03627185
78	0xbc4c53b2	-0.012471126
79	0x3d21d2b3	0.03950758
80	0x3c9ead39	0.019369708
81	0xbd25dcaf	-0.040493663
82	0x3c1991a1	0.0093731
83	0xbd2fb385	-0.042895813
84	0xbd677e2b	-0.056516808
85	0xbdc19e2c	-0.09453997
86	0x3cd7264e	0.026263382
87	0x3d9aa1c2	0.07550384
88	0xbc603405	-0.013684277
89	0xbd5afad8	-0.05346188
90	0xbd983f85	-0.074339904
91	0xbc5f5682	-0.013631465
92	0xbd191183	-0.037370216
93	0xbd00abb2	-0.03141374
94	0xbcbe29b5	-0.023213247
95	0xbd5e373a	-0.054251887
96	0xbd7d3da8	-0.061826378
97	0xbc3581f3	-0.011078346
98	0x3da8a1ed	0.0823401
99	0xbd88205f	-0.06646799
100	0xbd5450d1	-0.051834885
101	0xba9863d3	-0.001162643
102	0xbd33f81e	-0.043937795
103	0x3db5fba5	0.08885888
104	0x3d1a6484	0.037693515
105	0x3ca5bda8	0.020232037
106	0x3c9ef84a	0.019405503
107	0xbc3a62e7	-0.011376119
108	0xbd66db18	-0.056361288
109	0xbc053ee5	-0.008132671
110	0xbcff2cf6	-0.031149369
111	0xbbd0d032	-0.006372475
112	0x3d2a9364	0.04164447
113	0x3d918068	0.0710457
114	0xbc0ecff2	-0.00871657
115	0x3d12e77c	0.035865292
116	0xbd5bb522	-0.05363954
117	0xbc90f7c0	-0.017696261
118	0xbd25aebe	-0.04044985
119	0x3d3fc20a	0.04681591
120	0xbd0a3947	-0.03374603
121	0x3d1260e2	0.035736926
122	0x3ccabb12	0.024747405
123	0x3ca72ea3	0.02040798
124	0xbd0f08ad	-0.034920383
125	0x3c871f46	0.016494405
126	0x3dc3d94d	0.09562931
127	0xbdbd5918	-0.09245509
128	0xbd025f6e	-0.03182929
129	0x3dd7181c	0.105026454
130	0xbd9190ad	-0.07107673
131	0x3d6fb6fe	0.058524124
132	0xbcf9b98b	-0.030483982
133	0xbbfdd247	-0.0077460143
134	0xbbd2f39a	-0.006437731
135	0x3d08ea13	0.033426356
136	0xbc804aaa	-0.015660603
137	0xbc4bdf13	-0.012443322
138	0xbcb3624e	-0.021897461
139	0x3d22dabb	0.03975938
140	0xbd60cbca	-0.05488185
141	0x3cac13de	0.021005567
142	0x3d21a942	0.039468057
143	0xbd20bb96	-0.039241396
144	0xbd265c4a	-0.040615357
145	0xbd1e116a	-0.038590826
146	0xbb35964e	-0.0027707997
147	0x3d03f068	0.03221169
148	0xbd7ed843	-0.062217962
149	0xbc41df59	-0.011833035
150	0xbb88e447	-0.0041776034
151	0xbc552e00	-0.013011456
152	0x3cda104d	0.026619101
153	0xbd15b76f	-0.03655189
154	0x3936f45e	0.00017447906
155	0xbb5d44d1	-0.0033762942
156	0xbc6302a2	-0.013855608
157	0x3c7c2a35	0.015390922
158	0xbb9bfaba	-0.0047601135
159	0x3c5fc773	0.013658392
160	0x3ccfd458	0.025369808
161	0xba7376d9	-0.0009287424
162	0xbd04a7fb	-0.03238676
163	0xbcac727b	-0.021050682
164	0x3d4bc4f0	0.04974836
165	0x3c404d55	0.011737187
166	0x3d004bc8	0.03132227
167	0x3d11e177	0.03561541
168	0x3d423704	0.04741575
169	0xbd75c5d7	-0.060003128
170	0xbbb08ee7	-0.005388129
171	0xbd3a94e4	-0.04555215
172	0x3d23d142	0.039994486
173	0x3d1a94a8	0.037739426
174	0x3b2a46fc	0.0025982251
175	0x3d5cb447	0.053882863
176	0x3d2fbc49	0.042904172
177	0xba96a1ab	-0.0011492273
178	0xbcbe6694	-0.023242272
179	0x3d4c9bdd	0.04995333
180	0xbda65f4f	-0.081236474
181	0x3c13b0a8	0.009014286
182	0x3d53e72c	0.051734135
183	0x3dc19ccd	0.094537355
184	0x3d468d68	0.0484747
185	0xbc6375ab	-0.013883035
186	0x3d36b4fe	0.0446062
187	0x3d2bf8e0	0.041985393
188	0xbd79b191	-0.060960356
189	0xbcbb2877	-0.022846444
190	0x3c8d93c9	0.017282384
191	0x3c12da75	0.008963217
192	0x3dc9dee2	0.09856965
193	0x3cddd19e	0.027077492
194	0xbbaacc8f	-0.0052123736
195	0x3cf807e0	0.030277193
196	0x3bde228f	0.006779022
197	0xbc7fd91e	-0.01561573
198	0xbc4c596a	-0.01247249
199	0xbd2c9d7c	-0.042142376
200	0x3d40a736	0.047034465
201	0x3d255a27	0.04036918
202	0xbd5a1078	-0.053238362
203	0x3d67639e	0.056491487
204	0xbcac99ff	-0.021069525
205	0x3d58e35e	0.05295121
206	0xbbf66b74	-0.0075201336
207	0x3d34bdad	0.0441262
208	0x3d012a89	0.031534705
209	0xbba6b81c	-0.0050878655
210	0x3d9dd79e	0.07707141
211	0xbd34fc71	-0.04418606
212	0x3d20cdf4	0.039258912
213	0x3c63592c	0.013876241
214	0x3c8edfae	0.017440643
215	0x3d746bea	0.059673227
216	0x3d2355f5	0.039876897
217	0x3d2ed3aa	0.042682327
218	0xbda39c93	-0.079888485
219	0x3d885e75	0.06658641
220	0x3cc1ad70	0.023642272
221	0x3c580e77	0.013187042
222	0x3d0c8eb8	0.034315795
223	0x3d711ecf	0.058867272
224	0xbd05dfb2	-0.032684036
225	0x3e2d74e3	0.1693912
226	0x3a821577	0.000992461
227	0x3b83c7c3	0.004021616
228	0xbcebbade	-0.028775629
229	0xbcdd89b5	-0.027043203
230	0xbc1eee89	-0.009700426
231	0x3d72a6b0	0.059240997
232	0xbc94ea46	-0.018178117
233	0xbc066907	-0.008203751
234	0x3c78eeac	0.015193623
235	0x3d5b0ed2	0.05348093
236	0xbc1404ea	-0.009034375
237	0xbd8c5e54	-0.06853929
238	0x3d2646cf	0.040594872
239	0xbd9cea37	-0.076618604
240	0x3d62c389	0.055362258
241	0xbc8001ef	-0.015625922
242	0xbd1f9514	-0.03896053
243	0xbcd7e516	-0.026354354
244	0xbd7d3e68	-0.061827093
245	0xbc25940e	-0.0101061
246	0x3cac2c48	0.021017209
247	0x3cf3b895	0.029751102
248	0x3b12ec7c	0.0022418788
249	0x3d22d2ee	0.03975194
250	0x3dba991e	0.09111236
251	0x3c22ae15	0.0099292
252	0xbd7b940b	-0.06142048
253	0x3d07675b	0.03305755
254	0x3db7212b	0.08941873
255	0xbb89abc9	-0.0042013866

Y_net.hidden_layers.2.bias f4 [256]
0	0x3c06c2c9	0.008225151
1	0xbb4abad4	-0.0030934112
2	0xbae86795	-0.0017731065
3	0xbd1c6428	-0.038181454
4	0x3bdc9a3d	0.006732254
5	0xbc3cf07b	-0.011531944
6	0xbd1f25de	-0.038854472
7	0x3bbd9d9b	0.0057866103
8	0xbdeca925	-0.11555699
9	0xbce12bcd	-0.027486706
10	0xbdd69e7d	-0.10479448
11	0xbbb3d51c	-0.005488051
12	0x3c743878	0.014906041
13	0xbd01a87e	-0.031654827
14	0x3cb848fc	0.02249574
15	0x3c42db0f	0.011893048
16	0x39b37643	0.00034229652
17	0x3cda37ef	0.026638
18	0xbd143f58	-0.03619322
19	0xbcd0941a	-0.025461245
20	0xbdd312a7	-0.10306292
21	0xbd9b8b61	-0.07594944
22	0xbc881d3a	-0.016615499
23	0x3cd847cd	0.026401425
24	0x3ca97364	0.020684905
25	0xbdd7fa4f	-0.105457895
26	0xbcc206b9	-0.023684846
27	0xbc163a0d	-0.009169114
28	0x3d2f9319	0.042864893
29	0xbd4afa5c	-0.049555168
30	0xbc15c59c	-0.009141352
31	0xba90b6c9	-0.0011040802
32	0xbbccce17	-0.0062501538
33	0xbda2b385	-0.07944397
34	0xbd3fb022	-0.046798833
35	0xbcf07c60	-0.029356182
36	0xbd82cffa	-0.06387325
37	0xbce00de0	-0.027350366
38	0xbdddd043	-0.108307384
39	0xbd3485a0	-0.044072747
40	0xbd8600a0	-0.06543088
41	0xbde97707	-0.11399656
42	0xbdbbda48	-0.09172493
43	0xbb02a230	-0.0019933097
44	0xbd95d78e	-0.073165044
45	0xbd8f0577	-0.06983464
46	0x3b05bc13	0.002040629
47	0xbd59dde5	-0.05319013
48	0xbd661919	-0.05617628
49	0xbdcd2045	-0.100159205
50	0x3d489920	0.048974156
51	0x3cd74c29	0.026281433
52	0x3cac97a1	0.021068396
53	0xbd60d8d0	-0.05489427
54	0xbcb5b906	-0.022182953
55	0xbce16e5a	-0.02751844
56	0xbb097a83	-0.0020977564
57	0x3c09e6ac	0.008416813
58	0x3d2da006	0.04238894
59	0xbc9d2540	-0.019182801
60	0xbd70bbdb	-0.058772903
61	0xbdec0bba	-0.11525674
62	0xbd2af9de	-0.0417422
63	0xbdd0bc3e	-0.10192154
64	0xbd8b6662	-0.06806637
65	0xbda4671d	-0.0802748
66	0xbd7759b0	-0.060388267
67	0xbdb8679b	-0.09004136
68	0xbd07af7b	-0.033126336
69	0xbc9abe6b	-0.018889626
70	0x3d0c986f	0.03432506
71	0x3d7357c7	0.059409883
72	0xbcd7020a	-0.02624609
73	0x3d2ff92b	0.042962234
74	0x3d2c6d78	0.042096585
75	0x3cf7879a	0.030216027
76	0xbca9ee30	-0.02074346
77	0x3d012015	0.031524736
78	0xbd078961	-0.03309
79	0xbc26c89b	-0.010179664
80	0xbb3bf14f	-0.0028677767
81	0xbd80749a	-0.0627224
82	0x3d19a0ea	0.037506975
83	0xbcfbe0af	-0.030746786
84	0x3dc60c51	0.09670318
85	0x3cac45c2	0.021029357
86	0xbda0feee	-0.07861124
87	0x3ba1c528	0.004936833
88	0x3ca8eaff	0.020619867
89	0xbdb13fb8	-0.086547315
90	0xbdef2a09	-0.116779394
91	0xbc8f2a2f	-0.01747617
92	0x3cf926cb	0.030414006
93	0xbdb56257	-0.088566475
94	0xbda8a784	-0.08235076
95	0xbbf17ab1	-0.0073693623
96	0xbdbf6cda	-0.09346934
97	0x3d3bb558	0.04582724
98	0x3d2932ab	0.041308086
99	0xbd707658	-0.05870661
100	0xbda9d14e	-0.08291875
101	0xbcf8e902	-0.030384544
102	0x3c23b6f8	0.009992354
103	0xbdba9b7c	-0.091116875
104	0xbdb4f450	-0.088356614
105	0xbdcb08d2	-0.09913792
106	0xbd8f09e4	-0.06984308
107	0xbcfbf088	-0.030754343
108	0xbd852596	-0.065013096
109	0xbcd50af6	-0.026006203
110	0x3c456299	0.012047433
111	0xbda070a0	-0.078339815
112	0xbd242aff	-0.040080067
113	0x3d429ea7	0.047514584
114	0x3a773c6b	0.0009431305
115	0xbd1a8de2	-0.037732966
116	0xbdb3fe2c	-0.08788714
117	0x3d02daf0	0.031947076
118	0xbced1ad4	-0.028943457
119	0x3b23bd06	0.0024984493
120	0x3d04f85c	0.032463416
121	0xbd51fe77	-0.051268067
122	0xbc274397	-0.010208986
123	0xbc101ba9	-0.008795657
124	0xbd9fbc6a	-0.07799609
125	0xbd915241	-0.07095767
126	0xbd4fbbf8	-0.05071637
127	0xbd28abfd	-0.041179646
128	0x3cfcd7d9	0.030864643
129	0xbc942512	-0.018084083
130	0xbd352768	-0.044227034
131	0x3c276911	0.010217921
132	0x3d3bcf89	0.045852218
133	0xbdc93d17	-0.09826105
134	0xbd57da46	-0.052698396
135	0xbd292008	-0.041290313
136	0xbd026033	-0.031830024
137	0xbb73db06	-0.0037209406
138	0xbc779370	-0.015110835
139	0xbd5bc43b	-0.053653937
140	0xbcf12d6c	-0.029440604
141	0x3cc2f072	0.023796294
142	0xbcf3e783	-0.02977348
143	0xbbb68c3c	-0.0055709165
144	0xbd7a2540	-0.06107068
145	0xbd962747	-0.0733171
146	0xbd8919b2	-0.06694354
147	0xbd2f4a3f	-0.042795416
148	0x3c94d5a2	0.018168274
149	0x3bf65cc0	0.007518381
150	0x3cf537b5	0.02993379
151	0x3c8fce30	0.017554373
152	0xbba974d5	-0.005171398
153	0xbd43e63e	-0.047826998
154	0x3baab56f	0.005209617
155	0xbd35c733	-0.044379424
156	0xbd2001c3	-0.03906418
157	0x3c8cc6c5	0.017184624
158	0x3c597b35	0.013274004
159	0x3d00bb3b	0.031428557
160	0xbd81a8ad	-0.063310005
161	0xbd68f13c	-0.056870684
162	0xbda188a0	-0.07887387
163	0x3be4a233	0.0069773435
164	0xbd683ddd	-0.056699622
165	0x3d4011f9	0.04689214
166	0xbdc4688e	-0.09590255
167	0x3c721698	0.014775895
168	0xbd3fb78e	-0.04680591
169	0x3d49ffc5	0.049316186
170	0x3c3d423b	0.011551435
171	0xbccfd878	-0.025371775
172	0xbdce50aa	-0.10073979
173	0xbd0160bc	-0.031586394
174	0xbd07de1a	-0.033170797
175	0xbd613415	-0.05498131
176	0xbc22eced	-0.009944183
177	0xbdd3f557	-0.10349529
178	0x3c22cf38	0.0099371
179	0xbcd3f633	-0.025874233
180	0xbce1f0a4	-0.027580567
181	0x38c63917	9.4520095e-05
182	0xbdb27f3c	-0.08715674
183	0xbcea153b	-0.028574577
184	0x3d5cf133	0.053940963
185	0xbcf758d4	-0.030193724
186	0x3d4e4c54	0.05036576
187	0xbbd3a618	-0.006459009
188	0xbd7c47d7	-0.06159195
189	0xbd95e8c3	-0.073197864
190	0xbd41c8fb	-0.04731081
191	0xbde24cec	-0.11049828
192	0xbd5b6ee9	-0.05357257
193	0x3ce68bac	0.028142773
194	0xbd54a229	-0.05191246
195	0xbdbbcb3f	-0.091696255
196	0xbd885f72	-0.0665883
197	0xbd40055b	-0.046880107
198	0xba9041f4	-0.0011005984
199	0xbd297e70	-0.041380346
200	0x3bb1f4be	0.005430787
201	0xbcc42750	-0.023944527
202	0xbdd6fa28	-0.10496932
203	0xbc768f42	-0.015048804
204	0x3c9d6ca9	0.019216852
205	0x3d921f5a	0.07134886
206	0xbd6d0fe4	-0.057876483
207	0xbca551d1	-0.020180615
208	0xbdbebf21	-0.09313799
209	0xbc4ddb9a	-0.012564564
210	0xbd7c55ed	-0.061605383
211	0x3cfebde5	0.031096408
212	0x3b720c7c	0.003693371
213	0x3d2648a5	0.040596623
214	0xbcd00056	-0.025390785
215	0x3cb67dd6	0.0222768
216	0x3a7661e2	0.0009398741
217	0x3ca65aa9	0.020306902
218	0xbcf292fe	-0.029611107
219	0xbd61e68f	-0.05515152
220	0xbd240eda	-0.040053226
221	0xbdb3cb55	-0.08779017
222	0xbdbcad5a	-0.09212752
223	0xbe016b13	-0.12638502
224	0xbe000045	-0.12500103
225	0xbd4a9378	-0.049457043
226	0xbcc93bb0	-0.024564594
227	0xbc0ae7db	-0.00847813
228	0xb9e11641	-0.00042931925
229	0xbd6d8941	-0.057992224
230	0xbd8a54f1	-0.067544825
231	0xbcc5ca92	-0.024144445
232	0x3c5e5d54	0.013572056
233	0x3d0368e7	0.032082465
234	0x3d3ae756	0.045630775
235	0xbd49d3c1	-0.04927421
236	0x3c475e9f	0.0121685555
237	0xbdcb9e5b	-0.09942313
238	0x3cdca4a5	0.026933977
239	0x3d95918d	0.07303152
240	0x3c51d8e1	0.012808056
241	0xbd800936	-0.06251757
242	0xbcbbeb9f	-0.022939501
243	0xbb306f0a	-0.0026921653
244	0xbde18b9a	-0.11012955
245	0xbdadb0f1	-0.084810145
246	0xbd69823c	-0.057008967
247	0xbd409a7e	-0.047022335
248	0xbdcbe6f6	-0.09956162
249	0x3d9c32c6	0.07626872
250	0xbcfcccf1	-0.030859442
251	0xbe05def7	-0.13073336
252	0xbbbe41f6	-0.005806203
253	0xbc3db0c8	-0.0115777925
254	0xbd421c01	-0.047389988
255	0x3d0905f1	0.03345293

Y_net.hidden_layers.3.weight f4 [256, 256]
0	0xbd6d2152	-0.057893105
1	0x3cf693e8	0.030099824
2	0xbc3903f4	-0.011292446
3	0x3a090c80	0.0005227998
4	0x3d9e7e2a	0.07738908
5	0x3d4bf150	0.04979068
6	0xbd244b91	-0.04011113
7	0x3c715cd4	0.014731605
8	0x3d70837a	0.058719136
9	0xbd748586	-0.05969765
10	0x3ce6a32a	0.028153975
11	0xbd4cef95	-0.05003317
12	0x3c16c868	0.009203054
13	0xbd3cc897	-0.046089735
14	0xbc712fdc	-0.014720883
15	0x3ab4bbb2	0.0013788848
16	0xbd6a1eed	-0.0571584
17	0xbd1bb35e	-0.038012855
18	0xbd46b1aa	-0.048509277
19	0x3d448b3c	0.047984347
20	0x3d9deffe	0.077117905
21	0x3d73b373	0.059497308
22	0xbb85dfd5	-0.0040855207
23	0x3d531765	0.051535983
24	0xbd03ddbe	-0.03219389
25	0x3dc52d4c	0.0962778
26	0x3c1c0522	0.009522708
27	0x3da473ca	0.080298975
28	0x3cd07541	0.025446536
29	0x3ccabaf3	0.024747347
30	0x3a330793	0.0006829437
31	0xbd51280b	-0.05106358
32	0x3da2cd61	0.07949329
33	0x3ceee5cb	0.029162308
34	0x3c977169	0.018486695
35	0xbd32ca05	-0.043649692
36	0xbc2beb3f	-0.010493099
37	0x3cf127ea	0.029437978
38	0x3df12066	0.11773758
39	0x3d427bf1	0.04748148
40	0x3dad9eaf	0.08477532
41	0x3e0096e3	0.12557559
42	0xbc5bf4d2	-0.013425069
43	0xbce3a7b2	-0.027789924
44	0xbb3494ba	-0.0027554468
45	0xbd4fca24	-0.050729886
46	0x3c021d20	0.007941514
47	0x3cbff1f2	0.023430798
48	0x3d64cd44	0.05585982
49	0x3d700236	0.05859586
50	0xbdb80c3d	-0.08986709
51	0x3d2f283f	0.04276299
52	0x3cd2bc6d	0.025724614
53	0x3b68a442	0.0035498296
54	0x3cbb1298	0.022836015
55	0x3c1d737f	0.009610056
56	0xbcc35bd1	-0.023847492
57	0xbd27996b	-0.040917795
58	0x3d8463d0	0.0646435
59	0x39043920	0.00012609782
60	0xbd4fd939	-0.05074427
61	0x3c143516	0.00904586
62	0xbd8fb03e	-0.070160374
63	0x3df253bc	0.11832377
64	0x3c2584af	0.010102435
65	0x3d254605	0.04034998
66	0x3e37e6f3	0.17959194
67	0xbd774793	-0.060370993
68	0xbd30df05	-0.043181438
69	0xbc1ff69e	-0.009763388
70	0x3cd7cd8f	0.026343135
71	0xbbb3a04e	-0.0054817563
72	0x3d4c5981	0.049890045
73	0x3ca5130c	0.020150684
74	0x3c9372c7	0.017999066
75	0xbdaa4b37	-0.08315127
76	0x3d43664e	0.047704987
77	0xbc374140	-0.01118499
78	0x3cda0bb5	0.02661691
79	0x3d2bea53	0.041971516
80	0x3cee74d6	0.029108446
81	0x3a34d8bc	0.0006898751
82	0xbd4c07a3	-0.04981197
83	0xbc4a8aa6	-0.012362158
84	0x3c843554	0.01613871
85	0x3d2c917e	0.04213094
86	0x3d173003	0.036911022
87	0xbcef8c34	-0.029241659
88	0xbd92990f	-0.071581
89	0x3da494b9	0.08036179
90	0xbd089a36	-0.033350192
91	0x3c4b5427	0.0124102
92	0xbd077d60	-0.03307855
93	0x3e8e1715	0.27751985
94	0x3d4371f4	0.047716096
95	0x3d5b768a	0.053579845
96	0x3ca4b7e2	0.020107213
97	0xbcc4b0dc	-0.024010114
98	0x3b412f09	0.0029477498
99	0xbb86ef85	-0.0041179084
100	0x3d8255f9	0.06364054
101	0x3d83bdfb	0.0643272
102	0xbd1d106c	-0.03834574
103	0xbc29ddb0	-0.010367796
104	0xbd86111d	-0.06546233
105	0xba53750f	-0.00080664543
106	0x3d9d81e3	0.076907896
107	0x3d861ff9	0.06549067
108	0x3d383821	0.044975404
109	0x3c070db2	0.008243011
110	0xbd92e23b	-0.07172056
111	0x3d87487b	0.066056214
112	0x3d444d08	0.047925025
113	0xbb50ff2d	-0.0031890378
114	0xbd09768d	-0.033560324
115	0xbda81495	-0.08207051
116	0x3d9ee9b7	0.07759421
117	0xbd12ff1f	-0.035887834
118	0xbd39dd2e	-0.04537695
119	0x3cc65242	0.024209145
120	0xbd5c1ccf	-0.05373841
121	0x3c58b13f	0.0132258525
122	0xbcb45c40	-0.022016644
123	0x3b3762ae	0.0027982402
124	0xbc1b50de	-0.009479729
125	0x3ccce610	0.025012046
126	0x3d1e26de	0.038611285
127	0x3c3cdbc0	0.011527002
128	0xbd468640	-0.048467875
129	0xbcd2d5b0	-0.02573666
130	0xbae1af3d	-0.0017218363
131	0x3cb5d66c	0.02219697
132	0xbcd6803e	-0.026184198
133	0x3d86b3e5	0.06577281
134	0x3d457eaa	0.0482165
135	0xbd051151	-0.032487217
136	0xbd187226	-0.037218235
137	0x3c03ed46	0.008052176
138	0x3c4d3ac8	0.012526222
139	0x3db6b792	0.08921732
140	0x3d1e2540	0.038609743
141	0xbcb445c2	-0.02200592
142	0x3de6e665	0.11274413
143	0x3ca15e09	0.01969816
144	0x3db8592f	0.090013854
145	0x3dfb2989	0.122637816
146	0x3d4feb3c	0.050761446
147	0xbc54e992	-0.012995141
148	0xbbe596a1	-0.0070064818
149	0xbcc2124b	-0.023690363
150	0x3cf3e040	0.029770017
151	0x3cd56801	0.02605057
152	0xbc36a660	-0.011148065
153	0x3d1136d3	0.035452675
154	0x3d04803a	0.03234885
155	0x3cccc2f1	0.024995299
156	0xbcdf8a37	-0.027287586
157	0x3bbe4f03	0.005807759
158	0x3d65b46a	0.05608026
159	0x3d74241c	0.05960475
160	0x3d6da4d0	0.058018506
161	0x395ee8d4	0.00021258305
162	0x3d6fafae	0.05851715
163	0x3c254991	0.01008834
164	0xbd1f7001	-0.038925175
165	0x3b8ad5d5	0.0042369165
166	0x3d71dab0	0.059046447
167	0xbcdc6b53	-0.026906645
168	0x3d8ecd5a	0.069727615
169	0xbc09457d	-0.008378384
170	0x3d90bce0	0.07067275
171	0x3ddff0c5	0.10934595
172	0xbc838b54	-0.016057648
173	0x3cce1944	0.025158532
174	0xbdc5f2c1	-0.09665442
175	0xba055d21	-0.00050874247
176	0x3a351554	0.000690778
177	0x3d940865	0.07228164
178	0xbcecd819	-0.028911637
179	0x3e067fbe	0.13134667
180	0xbb713831	-0.0036807174
181	0x3d7f914a	0.062394418
182	0xbc7bc830	-0.015367553
183	0x3d4f6c18	0.050640196
184	0x3cd18ad6	0.025578897
185	0xbd4e2015	-0.050323565
186	0xbd862289	-0.06549556
187	0xbd393a78	-0.045221776
188	0x3d2d6a6b	0.042337816
189	0xbd1b1757	-0.037864055
190	0x3cff9010	0.031196624
191	0x3d8bd2d5	0.068273224
192	0xbd74d4a8	-0.059773117
193	0x3d44bad8	0.04802975
194	0x3c981dc8	0.018568888
195	0xbd0c6be2	-0.034282573
196	0x3d4dd9d1	0.050256554
197	0x3d4a1f6d	0.049346376
198	0xbc1ca10b	-0.00955988
199	0x3d9e046c	0.07715687
200	0xbcb47013	-0.022026097
201	0xbbf7e14a	-0.0075646983
202	0xbc9e519c	-0.019326024
203	0xbd3b6afb	-0.04575632
204	0x3d7c55f5	0.061605413
205	0xbdbfd980	-0.09367657
206	0x3cb08dc1	0.021551969
207	0x3c24f2b0	0.010067627
208	0xbb769929	-0.0037627912
209	0xbc002d4b	-0.007823299
210	0xbd064d5f	-0.03278863
211	0xbc55ec08	-0.0130567625
212	0x3d0b05ac	0.033940956
213	0xbbe26e9b	-0.006910158
214	0xbc928fe8	-0.017890885
215	0xbda44d22	-0.080225244
216	0x396a046f	0.0002231763
217	0xbc031193	-0.0079997955
218	0xbd5cea3c	-0.05393432
219	0x3d0ad6df	0.033896323
220	0x3b365116	0.0027819327
221	0xbbd9f331	-0.006651305
222	0x3db5a467	0.08869248
223	0x3deec9a3	0.11659553
224	0x3d66492a	0.05622212
225	0x3c819db7	0.015822275
226	0x3cf9a912	0.030476127
227	0x3bee5a0f	0.0072739194
228	0xbbff6fb8	-0.0077953003
229	0xbce9e646	-0.028552186
230	0x3da56338	0.08075565
231	0xbc836282	-0.016038183
232	0xbc2c8883	-0.010530594
233	0x3bb52499	0.0055280444
234	0x3d775239	0.060381148
235	0x3d8b4f99	0.068022914
236	0x3c758a01	0.014986516
237	0x3d71e0c2	0.059052236
238	0xbcd1e321	-0.025620999
239	0xbd91d0ff	-0.07119941
240	0x3b3b8d60	0.0028618202
241	0xba982d75	-0.0011610227
242	0x3c4fc00a	0.012680063
243	0xbbc219bc	-0.005923478
244	0x3d081755	0.033225376
245	0x3c7e86cb	0.015535067
246	0x3d5087cf	0.050910767
247	0xbd2c86ef	-0.04212087
248	0x3dd33f5d	0.1031482
249	0xbda0d040	-0.078522205
250	0x3d58779c	0.052848443
251	0x3da9261c	0.08259222
252	0xbd1cd1a3	-0.038285863
253	0x3d9d05ad	0.07667098
254	0x3c8cc417	0.017183347
255	0x3d84108c	0.064484686
